results/imi4/VacuumCleaner/VacuumCleaner-3648.pt (torch, 673075 bytes, 44 tensors)

network_body._body_endoder.seq_layers.0.weight f4 [128, 50]
000000 c4 d2 ac 3d 64 b1 cb bd 01 86 42 bd fe 11 08 3d
       0.08438638 -0.09945944 -0.047491077 0.033220284
000010 88 f9 27 bd df 05 33 be 38 7c 03 bd c1 07 3a 3e
       -0.041009456 -0.17482708 -0.032100886 0.1816702
000020 1c dc fb bd b9 63 c0 bd 19 45 4e be 22 46 36 be
       -0.12297842 -0.093940206 -0.20143546 -0.17800191
000030 a2 9d 26 3e 8f 3c 54 bc 66 e8 d7 3e b1 41 84 be
       0.1627107 -0.012953891 0.42169493 -0.2583137
000040 7c e2 0a be 34 b7 83 bd 16 a6 d7 3d b3 6b 37 be
       -0.1356296 -0.064314276 0.10529725 -0.17912178
000050 db 11 90 3d b5 d1 14 bb 7e 8b e2 3c b5 1e a3 bd
       0.07034656 -0.0022708003 0.027654406 -0.07964841
000060 52 0c cc 3d 34 b3 dc 3d 8f ce 3b be 00 4c a7 be
       0.099632874 0.10776368 -0.18340515 -0.3267517
000070 3f e6 7f be 74 ab ba bd 39 7b f0 bd 4c 0d eb bc
       -0.24990176 -0.09114733 -0.11742253 -0.028692864
000080 30 7a 5c bd 93 b9 2b be 14 90 f7 bd 0f b1 21 be
       -0.053827465 -0.1677001 -0.120880276 -0.15790199
000090 2b 84 87 3e 4d 46 a5 3d f5 70 db bd a2 e3 49 be
       0.26468024 0.080700494 -0.10714904 -0.19715741
0000a0 b6 76 cf 3d cd 49 05 be 73 b9 3c be dc 03 aa bc
       0.10130064 -0.13016434 -0.18430118 -0.020753793
0000b0 65 59 4b 3e 53 09 57 3d 14 4d 79 3c 6a 4f 35 3e
       0.1985832 0.052499127 0.015216131 0.17706075
0000c0 d6 73 db bc dd 51 71 3d 0d 78 01 3c 93 86 cb bc
       -0.026788633 0.05891596 0.0079021575 -0.024844443
0000d0 9e bf 5a be bb 5e 1d 3e 23 83 b1 3d b5 eb 8d bd
       -0.21362159 0.15368168 0.086675905 -0.06929723
0000e0 06 08 7c 3e 44 5d 70 3e c7 75 36 3e 86 a6 12 3e
       0.24612436 0.23473078 0.17818366 0.14321336
0000f0 26 19 9e bc 89 0c df bd e7 f1 8d 3e 96 e9 c4 3d
       -0.019299101 -0.10891063 0.2772362 0.096148655
000100 22 17 33 3d e3 41 27 3d ad 86 3f 3e b4 14 70 3d
       0.043723233 0.04083432 0.18703718 0.058613494
000110 c1 b6 12 3c 0d b6 ce 3d 4c 40 3f 3e 7b 74 42 3e
       0.008954705 0.10093317 0.18676871 0.18989746
000120 48 da 9b 3d 43 10 81 be 71 43 f2 3c 15 55 46 bc
       0.07609993 -0.2520772 0.029573174 -0.012105246
000130 72 e1 54 bd 07 5e 6b bd b8 15 f8 bd 1b 8f 05 3e
       -0.051972814 -0.05746272 -0.121135175 0.13042872
000140 8a 41 9e bc 24 89 0a be 2b 23 99 3c b3 bb b9 3d
       -0.01931836 -0.13528877 0.018693527 0.09069004
000150 90 18 83 3d 03 c0 94 3d ab 63 89 bd 80 9a 78 bb
       0.06401169 0.07263186 -0.06708463 -0.0037933886
000160 80 14 af bd 28 f1 13 be 65 41 18 3d 71 89 b9 3e
       -0.08548832 -0.14447463 0.03717174 0.36237672
000170 f7 05 42 be 69 8b a5 3c b7 69 f4 bd 9b 9c bd bd
       -0.18947588 0.020208078 -0.11934226 -0.09258386
000180 75 24 20 bd 08 1d f0 3d 85 a9 cb bc 64 de 22 3d
       -0.039097268 0.11724287 -0.024861107 0.03976287
000190 6b cd a0 3d 76 43 43 be b0 5c 04 3e ac 56 3b 3e
       0.0785168 -0.19068703 0.12925982 0.18294781
0001a0 95 a0 12 be c2 e6 2d be 0e 2e 92 bd a8 55 a9 bd
       -0.1431907 -0.16982558 -0.071376905 -0.08268291
0001b0 7d 46 ac 3d 74 2b ed bd 48 2f 91 be c5 a4 df 3d
       0.08411882 -0.11580554 -0.28356385 0.10920099
0001c0 85 e2 55 bd 9b 34 e2 bd b0 d1 95 3d 7a 56 88 3c
       -0.05221798 -0.1104519 0.07315385 0.016642798
0001d0 ce 64 20 bc fe 29 4b be 16 a4 ee 3d 5f b0 1a bd
       -0.009789659 -0.19840237 0.11652391 -0.037765857
0001e0 b4 db e6 bd 83 8e ac 3d 40 99 f6 3d 83 4b 1a be
       -0.11272374 0.084256195 0.12040949 -0.15067868
0001f0 1d 11 4e be ab 47 15 3e a4 b9 b1 3d 9a e0 4b 3d
       -0.20123716 0.1457812 0.08677986 0.049774744
000200 5e 5a 00 be 19 49 5e 3e 74 e0 9b bd 4f dc c0 bd
       -0.12534472 0.21707572 -0.076111704 -0.094170205
000210 71 4c 0c 3d d6 19 83 bd be 15 2f bc a8 c2 5d 3d
       0.034252588 -0.06401412 -0.010686336 0.054140717
000220 71 93 40 be de 2b fb 3d 5e b3 c9 bd 3c b4 28 be
       -0.18806244 0.122642264 -0.09848665 -0.16475004
000230 5c ff 74 bd 1c 4e 86 3e d4 b4 e8 bd 5c a9 c7 bd
       -0.059813842 0.26231468 -0.11362615 -0.097490996
000240 b5 61 f4 bd 7c a7 5e 3e dc e0 a3 bc bf 67 98 3e
       -0.11932699 0.21743578 -0.020004682 0.29766652
000250 5d cd 8d bd 3b de b8 bc b9 bb 29 be 48 d4 e8 3d
       -0.069239356 -0.022566905 -0.16575517 0.113686144
000260 4f 51 97 3e 73 f3 17 3e 5a 40 55 bd ef 4f 59 be
       0.2955422 0.14838962 -0.052063324 -0.21221898
000270 df 11 ef bd 1a a2 f5 3e 56 b3 b4 3c b9 23 85 3c
       -0.116733305 0.47975236 0.02205817 0.016252385
000280 8e 5b 43 bd f3 32 13 3e 0c 9f 81 be 37 71 88 bd
       -0.047694735 0.14374904 -0.25316656 -0.06662219
000290 74 bf 48 3e b5 61 92 bd 5d 95 39 be dd 95 9d be
       0.19604284 -0.071475424 -0.18123384 -0.307784
0002a0 6f f6 18 be c4 66 c5 3d dd b2 c7 bd 5b 8c d8 bd
       -0.14937757 0.096387416 -0.09750912 -0.10573646
0002b0 7e 2e 5e be 7d be 23 bd 12 7a 53 bd 1e 9e 82 3e
       -0.21697423 -0.039976586 -0.051630087 0.2551126
0002c0 6a ac f0 bd c2 10 88 3e bd 5e df 3d 49 47 72 3e
       -0.117516354 0.26575285 0.10906742 0.23660006
0002d0 57 88 e6 3d 1e a8 04 3e 64 ac 48 be 82 0e 15 3e
       0.112564735 0.12954757 -0.19597012 0.14556316
0002e0 27 74 1b 3c e7 6f 93 be 63 d5 40 3d 8d 24 e2 3d
       0.009488142 -0.28796312 0.0470785 0.11042128
0002f0 90 ac 12 3c 55 ca 37 3d f9 62 03 3c 55 7b 0a bd
       0.008952275 0.044870693 0.008019202 -0.033809025
000300 86 4f 4d 3e dd f2 48 3d 43 1e 2d bd 98 b1 56 3e
       0.20049867 0.049059737 -0.042265188 0.20966184
000310 c0 ab 8c 3d a6 8d 6a 3e b9 98 4b be 3b 93 e6 3d
       0.06868696 0.22905597 -0.19882478 0.11258551
000320 c5 70 1f be a8 fa c1 be 5c a0 46 3d 19 fe 14 3e
       -0.15570362 -0.37886548 0.048492774 0.14550056
000330 02 51 8a be 22 d1 23 bc b0 2a b3 bd 89 39 4b 3e
       -0.2701493 -0.009998592 -0.08748376 0.19846167
000340 ac 50 cb 3d 71 c1 d6 bc 05 a8 b0 3d 06 77 bf bd
       0.09927496 -0.026215287 0.08625797 -0.09348874
000350 a8 f0 d5 3d 02 6c 12 be 26 10 b2 3d b9 fd d2 3e
       0.10446292 -0.14299014 0.08694486 0.412092
000360 07 49 a7 bd d1 69 fb 3c 72 e9 bc bc e2 50 8d 3d
       -0.08168226 0.030690106 -0.023060534 0.06900193
000370 2e de 92 be a5 8c 6b bc f0 ce b2 3e 4f ab 80 be
       -0.28685135 -0.014376794 0.34923506 -0.25130698
000380 cf 9c eb 3d 0b 04 19 bd 0d 94 54 3e 97 cb 31 bd
       0.11504518 -0.03735737 0.20759602 -0.04340705
000390 7b 8a 53 3e 6c f0 28 bd 27 27 18 3d 4d 46 69 3d
       0.20658295 -0.04124491 0.037146714 0.05695181
0003a0 a0 41 0b 3e 34 b6 58 3e e3 69 5b bc 56 30 2f 3e
       0.13599253 0.21163255 -0.013391945 0.17108282
0003b0 a9 1e 8f 3d 73 9c f9 bd 70 86 16 bd 93 ab cf bd
       0.0698827 -0.121880434 -0.036749303 -0.10140147
0003c0 65 e5 36 ba 1b bb 6f 3d 60 c2 60 3b 28 a3 31 3c
       -0.00069769315 0.058528047 0.0034295544 0.010842122
0003d0 c2 81 4c be 0f 36 19 be 98 d4 02 be 14 c3 13 3d
       -0.19971374 -0.14962028 -0.1277641 0.036074713
0003e0 91 2c a8 bc 44 7a ab be 91 64 93 be c1 b6 7a bc
       -0.020529063 -0.3349172 -0.28787664 -0.015302361
0003f0 ae f6 1a 3d be 8b 7c bd 76 34 70 3b 74 32 73 be
       0.03783291 -0.061656706 0.0036652363 -0.23749715

network_body._body_endoder.seq_layers.0.bias f4 [128]
000000 be 30 b0 bb 39 0c 56 3c 80 d7 b8 bc e9 0f 89 3a
       -0.0053769043 0.013064438 -0.022563696 0.0010457012
000010 1f 46 85 bc d7 70 ba bc 5c be 30 3c e3 a5 4b 3c
       -0.016268788 -0.022758884 0.010787573 0.012429687
000020 e8 31 50 3c b3 39 d6 bc a6 a3 2b bc 4d bb 81 bb
       0.012707211 -0.02615056 -0.010476029 -0.0039590956
000030 48 22 31 bb 2d ee 09 bd 52 c4 06 3c 95 03 18 3b
       -0.002702849 -0.033674408 0.008225517 0.0023195494
000040 29 14 08 bc bb e4 14 3c 94 34 45 bc 96 24 44 bc
       -0.008305588 0.009087737 -0.012036461 -0.011971613
000050 63 b6 45 bc 2c 8f fb 39 0b 98 3e 3a e8 90 6e 3b
       -0.01206741 0.00047981122 0.0007270581 0.0036402289
000060 89 4b 73 bc f0 bc 17 bd de c4 8d bc 5f 84 83 3c
       -0.014849552 -0.03704542 -0.017305788 0.01605433
000070 38 cf 41 bc da 08 44 3c 7a f1 8c ba 03 9e e0 3c
       -0.01182919 0.011965001 -0.0010753118 0.027419096
000080 38 0d 06 3c 95 49 ab bb 7b 60 94 bb e1 a1 81 bc
       0.0081818625 -0.0052272775 -0.004528103 -0.01582426
000090 8b ba a4 bc 78 d9 aa 3a 8b 47 50 bc 7f a9 93 bc
       -0.020108482 0.0013034781 -0.01271237 -0.018025158
0000a0 0a 6c 61 3b a3 39 41 3c 04 bd ed bb a2 c4 f1 bc
       0.0034396672 0.011793527 -0.0072551984 -0.029512707
0000b0 52 8b 0a bb 7b 81 a3 3a 2c 9f 12 3b 3c cd 24 3c
       -0.002114017 0.0012474501 0.0022372706 0.010058697
0000c0 b3 cf 44 3c 6c a5 a5 39 52 7f d3 bc 69 a2 8f 3b
       0.01201241 0.000315945 -0.025817547 0.0043833745
0000d0 9d 18 f2 bc 98 a9 1e 3d b4 1a 3d 3c c3 91 83 3c
       -0.029552752 0.038735956 0.011542011 0.016060716
0000e0 1a b0 fe bc 39 f2 46 bc 6c 10 0a bb 5a 78 12 3b
       -0.031089831 -0.012142711 -0.0021066917 0.0022349567
0000f0 59 2b 70 bc eb eb 58 bb 30 e6 8d bb 48 99 f5 bb
       -0.014658772 -0.0033099602 -0.004330419 -0.007495079
000100 bd 59 54 3c a7 7b cf bb d3 a6 04 3c 22 fb c2 bc
       0.012960848 -0.006331879 0.008096415 -0.02380139
000110 24 19 61 3c 98 72 a0 3c c2 b1 8d bc 3d 4d 5f bb
       0.013738904 0.019585893 -0.017296676 -0.0034073137
000120 e3 9b 93 3b 93 c6 83 bb 24 6e 3a bc 3e 5f 85 bb
       0.004504667 -0.0040214746 -0.011378799 -0.0040701916
000130 d7 d2 05 bc 75 f5 85 3b 44 c7 89 bc f6 00 05 bc
       -0.008167944 0.0040880986 -0.01681865 -0.008117905
000140 cf b8 86 3c 23 ab c9 bc 2c bf ae 3c ce 41 81 3c
       0.016445545 -0.024617737 0.021331392 0.015778448
000150 90 ed 2a 3d 87 ae a4 bb 91 95 23 bc e4 d5 90 3c
       0.041730464 -0.005025688 -0.00998439 0.017680116
000160 65 31 44 bc e8 a0 33 bc 1f 43 d4 3c 11 13 d2 bb
       -0.011974667 -0.010963656 0.025910912 -0.0064109643
000170 ed 29 2c bb f0 bc 0d bc 03 bf 49 bb a9 c6 78 bc
       -0.0026270107 -0.008651003 -0.0030784018 -0.015184083
000180 e1 29 92 bc 9a 55 55 bc 72 95 1b 3d 80 9c 7d 3c
       -0.017842235 -0.013020897 0.03798432 0.015479207
000190 4a 39 b6 bc f6 6f 11 3c 42 63 a0 bb 76 43 8e 3c
       -0.022244114 0.008876791 -0.004894645 0.017366152
0001a0 10 da ec ba 1f 0d c8 bc f0 b5 99 3c ee 62 58 3c
       -0.0018070359 -0.02442032 0.018763512 0.01320718
0001b0 05 83 8d bc 7d f1 9d bc b8 89 9f 3c ca 29 10 3b
       -0.017274389 -0.01928019 0.01947485 0.0021997564
0001c0 cc 07 59 3c 6a 26 45 bc 9d 85 95 3b cb 25 89 3c
       0.013246488 -0.012033084 0.004563047 0.016741654
0001d0 e9 5f 71 3c 22 1c 75 bc 0a 04 0b bc fb 62 cb bc
       0.014732339 -0.014960321 -0.00848485 -0.024827471
0001e0 b3 ef 22 bc af 94 47 bc 1e da 04 bd fc c9 6d 3b
       -0.009944844 -0.012181445 -0.032434575 0.0036283722
0001f0 2e 39 17 bc 21 6e ac bc 4a 1f f0 ba 83 97 b8 bb
       -0.009229941 -0.021048607 -0.0018319872 -0.005633296

network_body._body_endoder.seq_layers.2.weight f4 [128, 128]
000000 01 e7 49 3d 28 08 c5 bd fd 8b 25 be ca f9 4a bd
       0.049292568 -0.09620696 -0.16166683 -0.049554624
000010 7d eb bd 3c c5 a5 42 3c 49 8a a6 bd 87 69 ef bd
       0.023183579 0.011880343 -0.081318446 -0.116900496
000020 d0 90 6a bd ac 47 e5 3d b6 e0 41 bc fa 30 05 be
       -0.05726701 0.11195311 -0.01183336 -0.13006964
000030 e8 ff 91 3d 95 93 f1 3b ea e8 04 3e 82 fb 51 bd
       0.07128888 0.0073723295 0.12979475 -0.051265247
000040 e6 88 e6 bc 65 93 c2 3c aa 2f 0a bc 97 9d 14 be
       -0.02814145 0.023751924 -0.008434216 -0.14513241
000050 54 a1 44 3e db 65 e3 3c 60 89 e3 b9 c4 1a 1b 3b
       0.19202167 0.02775853 -0.00043399166 0.0023667077
000060 2b 2c 1d 3e 49 d4 e2 bd 42 87 de 3d 6b b0 80 bd
       0.1534888 -0.110756464 0.10865642 -0.06283649
000070 51 0b 32 bd f4 68 97 3d c2 c8 a4 3d 2f f9 01 be
       -0.043467823 0.07393065 0.08046104 -0.12692712
000080 54 ea 11 3d fd a0 81 3b 74 e0 ea bc 07 79 78 bd
       0.035623863 0.003955959 -0.02867148 -0.060662296
000090 b1 04 c2 bc 9b fe d2 bd 44 04 75 bd ed 95 58 3c
       -0.023683878 -0.103024684 -0.05981852 0.013219339
0000a0 52 88 18 3d ff fc 0c be 51 08 e5 3d 25 8d 39 be
       0.03723938 -0.13768385 0.11183227 -0.18120249
0000b0 f8 40 9f 3d cb c4 13 3d e6 58 f2 bd bd 81 a8 3c
       0.07776064 0.03607635 -0.11833362 0.020569677
0000c0 ec 79 86 3d 3c 2a 91 bd b9 e6 af 3c 3b 72 60 bd
       0.065662235 -0.07088134 0.021472322 -0.05479644
0000d0 5b b3 c2 bc cb 29 09 3c c2 c7 62 be b9 18 83 3d
       -0.023767164 0.008371781 -0.22146514 0.064012
0000e0 ac 2f a7 bd e9 da f5 bd 00 7b 8b bd 7e b8 0e 3e
       -0.081633896 -0.120046444 -0.0681057 0.13937566
0000f0 3a 4e 85 3d d8 04 2a 3d 80 a9 cc bd 7c 7a f5 bd
       0.06509061 0.041508526 -0.09993267 -0.11986253
000100 dd c2 fd bd 2f b7 d2 bd 9e ec 91 bc b3 1e ba 3d
       -0.12390683 -0.10288846 -0.017813023 0.09087887
000110 19 6b 17 3d 8e ec f2 bd be 50 66 bd ca b5 79 be
       0.03696737 -0.118615255 -0.056229346 -0.24385753
000120 4e 79 e9 bd 60 8e 48 bd 09 7e 9a 3d 6f e3 f3 bd
       -0.1140009 -0.048963904 0.075435705 -0.11908614
000130 68 e5 d3 3b 0e 89 19 bd 4f 82 d7 ba ca c8 03 bd
       0.0064665563 -0.03748422 -0.0016442033 -0.03217391
000140 b8 72 4e 3e da ff 15 bd 22 25 bb bd 15 48 a3 bb
       0.20160949 -0.036620952 -0.09137942 -0.004982958
000150 ca e3 ca 3d 7b 75 da ba 6b 9c 54 bc 52 3d e3 bd
       0.099067286 -0.0016667092 -0.012976746 -0.1109568
000160 d2 32 d2 bd 77 54 65 3c 87 3f 9e bd e4 81 24 3e
       -0.102635995 0.013997189 -0.07726961 0.16065174
000170 c2 15 9c bd 9c cd 6c 3c 99 28 d5 bd 49 39 84 bd
       -0.076213375 0.014453318 -0.10408134 -0.06456239
000180 48 bc d7 3d 7e 58 03 be d0 11 aa bc 03 6a 9a bb
       0.10533959 -0.12826726 -0.020760447 -0.0047123446
000190 23 26 e8 3d 8b 82 c4 bd 49 2f 60 be 01 73 63 3e
       0.11335399 -0.095952116 -0.21893038 0.2221184
0001a0 bb d7 ef 3d a0 3c 3c 3d 88 0e 0c 3e 9f 46 38 bd
       0.11711069 0.045956254 0.13677418 -0.044989225
0001b0 d6 fb 64 3d 72 fb 9f 3d 92 63 d3 bd 1a 9f 29 bd
       0.055904232 0.07811631 -0.10321726 -0.041411497
0001c0 f6 64 97 bb ab 99 eb 3d 2f 18 9b 3b de 41 d1 3c
       -0.00462019 0.11503919 0.0047331075 0.025544103
0001d0 de 2a dd bc 60 a0 51 bd 30 f2 f8 3c ce 8e 40 3e
       -0.02699798 -0.051178336 0.030388921 0.18804476
0001e0 a6 05 f0 3c e7 19 d9 3d fb 38 a5 bc c9 61 e5 bd
       0.029299568 0.106006436 -0.020168772 -0.11200292
0001f0 0b 5c 89 bd e4 40 95 bd 64 39 23 3d fd 38 bd bd
       -0.06707009 -0.072877675 0.039849654 -0.09239385
000200 a1 71 9e 3d 61 5e 80 bb 29 30 24 bd ea 97 7a bc
       0.07736517 -0.003917501 -0.04008499 -0.015295008
000210 51 cc 8a bd 19 fd cd 3d 67 67 e9 3c fb 6b a0 bb
       -0.067772515 0.1005804 0.028491689 -0.004895685
000220 45 34 30 3e fd 14 d0 3d cc e4 a3 3d 7e 57 23 3a
       0.17207439 0.10160253 0.08002624 0.0006230994
000230 1e f0 c4 bc ef 9a 89 bd 2f 54 da bd 9b 30 14 3d
       -0.024040278 -0.06719004 -0.10660588 0.036179166
000240 26 8d e5 bd ef ed a1 3d b1 3b b3 3b d9 fb c9 3d
       -0.112085626 0.0790671 0.0054697623 0.09862489
000250 9a 27 e3 3d 32 e2 6b 3d 8e fb b6 3d 5b f0 65 bd
       0.11091538 0.057588764 0.08934699 -0.056137424
000260 83 a6 20 be b7 b4 2e bc be f4 4d 3d 1e 4d 00 3d
       -0.15688519 -0.010663203 0.050282232 0.031323545
000270 d6 54 0a be 8d bf 45 be 66 eb 42 3e ef 7e cb 3d
       -0.13508925 -0.19311352 0.1903511 0.0993632
000280 a8 7a 20 be de 82 fc 3c 7b 75 30 3d 75 d6 9d 3d
       -0.1567179 0.030824121 0.043080788 0.0770692
000290 0a 4d c4 3c 1d b1 8d 3c 00 5a 15 bd a3 a4 57 3d
       0.023962516 0.017296368 -0.036462784 0.052647244
0002a0 d4 2a 2e 3d 3d 78 d6 3b 81 59 92 3d da 4d 8b bd
       0.042521313 0.0065450952 0.07145978 -0.068019584
0002b0 45 11 89 3d df 45 31 bd e1 23 e8 3c 83 02 2a 3e
       0.06692747 -0.043279525 0.02833742 0.1660252
0002c0 dd e5 46 3e d0 8b f0 3d 26 5c 78 bc ea 2f fa bd
       0.19423623 0.11745417 -0.015158689 -0.1221617
0002d0 d6 c5 9d bd 9b b4 30 be 13 d0 75 3d 4b 04 64 bb
       -0.0770375 -0.17256396 0.06001289 -0.0034792598
0002e0 d1 43 31 3e 65 e2 81 3d d2 2f 15 3b 01 d1 03 bd
       0.17311026 0.063420095 0.0022764099 -0.032181744
0002f0 f7 9f 16 be ef 3d bb bc e2 e5 4b 3b f3 a2 12 be
       -0.14709459 -0.02285668 0.0031112363 -0.14319973
000300 72 fe 00 be 6b 6d 5d bd f1 fd d7 3d fa be 16 3a
       -0.12597063 -0.054059427 0.10546482 0.00057505036
000310 8c 68 d6 bd 9e 91 f7 3d 2e 2b b6 bc c4 d3 a6 3b
       -0.104691595 0.12088321 -0.022237387 0.0050911624
000320 54 cb 01 3c 01 fa 79 bc 32 39 11 3e 15 14 10 3c
       0.007922012 -0.0152573595 0.14181975 0.00879385
000330 de 1f 05 be b1 e6 76 3d 54 ec 41 bd a1 df 18 3e
       -0.13000438 0.0602786 -0.04734452 0.14929058
000340 10 54 05 be 65 10 4e bd 14 3d 19 be cb de b2 3c
       -0.13020349 -0.050308604 -0.14964706 0.021834752
000350 cb 39 4a be de 85 d1 bc e9 cc d1 bc 90 e4 9a bd
       -0.19748609 -0.025576528 -0.025610404 -0.07563126
000360 c7 7b 02 3e 54 e7 be 3d 11 58 ff bd 49 2e e1 bd
       0.1274253 0.09321466 -0.12467969 -0.10995156
000370 88 c8 79 bc 57 98 4e bc 38 5a b6 3d 15 3a ce bd
       -0.015245564 -0.012609563 0.089039266 -0.10069672
000380 56 70 17 3d 42 9b 07 be fc 70 2c bb a1 1b d1 bd
       0.036972366 -0.1324282 -0.002631246 -0.10210348
000390 86 57 04 bd 94 c3 86 bd 97 0f a2 bd 81 df a4 39
       -0.03231003 -0.06580272 -0.0791313 0.0003144704
0003a0 f2 c7 11 3b 25 1c 90 3d 02 37 1d 3d 71 b1 0f bd
       0.002224442 0.07036618 0.038382538 -0.03508133
0003b0 d0 81 e2 3c 94 41 df 3c a1 89 6c bd 7d 6b 34 bd
       0.02764979 0.02725295 -0.05774844 -0.04404782
0003c0 17 be 84 bd b5 72 1a 3c 7e 16 3e bd e7 b9 8b 3d
       -0.06481569 0.009426762 -0.04640817 0.068225674
0003d0 d1 6e a6 be f2 f3 aa bb 25 c7 fc 3d a2 f2 f4 bd
       -0.3250642 -0.005217069 0.12342671 -0.11960341
0003e0 2d a6 5c bb ff 34 89 bd 69 ff 1d bd 4a 64 e9 3c
       -0.0033668384 -0.06699561 -0.038573656 0.028490204
0003f0 0b bf ea bd 11 99 99 3d a2 d7 af 3d 20 81 e6 bd
       -0.1146222 0.07499898 0.085860506 -0.112550974

network_body._body_endoder.seq_layers.2.bias f4 [128]
000000 41 8f 43 3c 02 7d 3b bc 50 86 13 ba f4 1d ae bc
       0.01193601 -0.011443378 -0.0005627619 -0.021254517
000010 e2 b4 96 bb 75 1e ec 3c 06 72 69 3b 8b 0e 67 bc
       -0.0045991996 0.028823117 0.0035620942 -0.014102588
000020 fc f7 37 bb d0 07 2c bc d0 6d 20 3d 18 80 5b 3c
       -0.0028071394 -0.0104999095 0.039167225 0.013397239
000030 76 bd 33 3c f1 4f e4 3c cc 11 ae bb 2d 8c 8f bc
       0.010970464 0.02787015 -0.00531218 -0.017522896
000040 90 ac 3e 3c 8e 39 0c 3c a6 b7 ff 3c aa ad 9f 3b
       0.011637822 0.008558644 0.0312155 0.0048729973
000050 78 a4 20 3b f0 9d 56 3c 24 c6 8e 3b 82 cd 33 bc
       0.0024512094 0.013099179 0.0043571163 -0.01097429
000060 18 a6 f0 b9 95 5a 00 3b e5 16 74 3c 61 e0 12 3d
       -0.00045900117 0.001958524 0.014898037 0.035858516
000070 e8 43 e2 bb d8 42 4d bc 18 f3 31 bb a4 95 d7 3c
       -0.0069050677 -0.012528144 -0.0027152952 0.026316471
000080 70 bb af 3b b3 94 ef 3a d2 5f e3 3b aa 9c 8b bc
       0.0053629205 0.0018278569 0.006938913 -0.017042477
000090 1b 2c 83 3c 96 2e cd 3c b8 37 64 bc 69 e8 05 bc
       0.016012242 0.025046628 -0.0139293 -0.008173087
0000a0 f3 b1 c1 3a 55 92 ed 3c 49 14 c6 3b 26 b8 26 bc
       0.0014777764 0.02900044 0.0060448986 -0.01017574
0000b0 74 ee bb 3b 99 0e 3c bb aa fc 8a bc a2 0e 8e bb
       0.005735213 -0.0028695224 -0.016966183 -0.0043352405
0000c0 39 74 df bb 38 2a c3 bb d4 a4 4e bb 1b f5 82 3c
       -0.0068192747 -0.0059559606 -0.003153135 0.015986016
0000d0 50 9b 09 bc 06 54 0e 3c 97 05 86 ba 80 8c 92 3b
       -0.008398846 0.008687025 -0.0010225055 0.0044723153
0000e0 68 60 30 bc dc 60 49 bc 00 e6 2a 33 40 58 8a 3c
       -0.010765173 -0.0122911595 3.9790393e-08 0.016887784
0000f0 30 45 5c 39 db de 55 bc 9d 8c 18 bc 1b e3 8b 3b
       0.0002100661 -0.013053621 -0.009310869 0.0042690164
000100 c3 f7 1f 3c a1 19 3f bc 75 22 43 bc 35 6a 8f 39
       0.009763661 -0.011663825 -0.011910071 0.00027354216
000110 83 8c 9c 3c e5 60 20 3c be f3 f2 bc 86 2e 20 bc
       0.01910997 0.009788726 -0.029657241 -0.009776717
000120 d2 6d 97 3c 60 40 6a bb f5 3a 36 bb fe cb a2 3b
       0.018484984 -0.0035743937 -0.0027806137 0.0049681654
000130 13 ce ad bc 88 d4 dd 3c 41 a0 d8 3b 56 d4 26 3d
       -0.021216428 0.027078882 0.0066109006 0.040729843
000140 6d 85 2a 3c 23 53 45 3d 43 f9 c1 3a 58 d4 82 3b
       0.010407788 0.04817499 0.0014799017 0.0039925985
000150 67 f1 5e bc 0d 5f 7e 3b a4 b8 26 3c 10 80 d2 3b
       -0.0136073595 0.003881398 0.010175858 0.0064239576
000160 20 70 46 bc fd 82 a1 bb 79 17 85 bb 00 b4 3c bc
       -0.012111694 -0.004928945 -0.004061636 -0.011517525
000170 b7 61 2d bc 20 4a cf 3b d9 46 f7 bb 2c d3 9b bb
       -0.010582379 0.006325975 -0.0075462875 -0.0047553983
000180 5e ee 0a bb 99 ea 58 bc 31 3b 59 bc 3e 6e 3d bc
       -0.0021199207 -0.013239526 -0.013258741 -0.011561928
000190 56 6b a9 3c 07 9f 56 3c df 3f a8 bb 16 41 b6 3b
       0.020681065 0.0130994385 -0.005134567 0.005561958
0001a0 83 ed 0e 3c ee ac 4d bc fa 0b 39 3c e3 3f 6b bb
       0.008723619 -0.012553437 0.011294359 -0.0035896234
0001b0 d0 6f cf ba d7 1e 20 3c fc 24 69 bc dd d6 97 bb
       -0.0015826169 0.009772978 -0.014230009 -0.004633768
0001c0 4f 10 98 3a 4f d7 a9 bc 0f ed cb 3b a9 6e 13 bc
       0.001160154 -0.02073255 0.006223328 -0.008998551
0001d0 7d 88 3d bc 69 5d b0 bb 7b 75 d8 3c f5 29 3c 3d
       -0.011568186 -0.005382229 0.026423207 0.04593845
0001e0 2b e8 87 3b a9 d7 aa 3a 3f 2c 31 3b c4 76 a4 3b
       0.0041475496 0.0013034242 0.002703443 0.005019041
0001f0 41 8d 87 bb bf c4 23 3d 4c 4e 03 bb ba fe c2 bc
       -0.004136712 0.039982554 -0.0020035682 -0.023803104

action_model._continuous_distribution.log_sigma f4 [1, 2]
000000 e5 fd de be 59 f9 e3 be
       -0.4355308 -0.44526175

action_model._continuous_distribution.mu.weight f4 [2, 128]
000000 52 13 83 bc 86 05 13 bd 29 c3 b9 bc 8d c7 a2 3b
       -0.016000424 -0.03589394 -0.022676067 0.004967636
000010 bb 81 ac bc 62 f8 03 3d 56 d5 b8 3c b4 f7 48 3a
       -0.021057954 0.0322193 0.022562664 0.0007666305
000020 5d 9c 4e bc 9f 68 9f bc 93 34 6f 3d 99 1d 72 3c
       -0.012610522 -0.019459067 0.058399748 0.014777564
000030 a2 2f 72 3b ba e6 bb bd 5d 5b dd 3b 3a 0d b8 bc
       0.003695466 -0.09174867 0.006755276 -0.022467244
000040 fc 13 8b 3c 47 34 30 3c 26 7e de 3c b6 4b 1d 3c
       0.016977303 0.010754651 0.027159762 0.00960057
000050 88 e7 2b bc cf f3 92 3c 41 57 7f bc ed 69 1b bc
       -0.010492213 0.017938523 -0.015584768 -0.009485704
000060 61 9b 82 3c a6 4f 26 bc 61 69 67 3d aa 6d d3 bd
       0.015943231 -0.010150826 0.05649698 -0.10323651
000070 e0 2a 91 bb ce 6d d3 3b 0f cf 51 3d 98 29 10 3d
       -0.00443016 0.0064522987 0.051222857 0.035195917
000080 82 74 b1 3c 64 fc ce bc 11 df 4f bd 0d 09 42 bd
       0.021662 -0.025266834 -0.050749842 -0.047371913
000090 a7 34 5c 3b 5d e9 8a 3b 2e 9a b9 3b 37 d6 33 bc
       0.003360072 0.004239245 0.0056641316 -0.010976366
0000a0 a8 4e b6 3c 5e 48 4a bd eb e6 d3 3c 7e c3 4b ba
       0.022254303 -0.04938542 0.025866946 -0.0007772966
0000b0 e2 f0 62 3c f3 b7 cc 3b 21 07 0a bc f5 50 fe bc
       0.013851376 0.0062475144 -0.008424551 -0.031044463
0000c0 16 3b bd 3a a3 84 f1 3c 29 06 58 3d bd 6f 68 3c
       0.0014437165 0.029482191 0.05274025 0.014186797
0000d0 9d ba 07 bc f6 86 ee 3c f4 4a 04 b9 ee 98 16 bc
       -0.008284238 0.029117089 -0.00012616423 -0.009191735
0000e0 74 d4 82 bc ec 96 91 bb fd 66 06 3d 08 7a b6 3c
       -0.015970446 -0.00444304 0.03281306 0.022274986
0000f0 b8 cd 3c bd 5d 1a dc bc 1b a8 80 bc 8a 86 e9 ba
       -0.046094626 -0.02686804 -0.015705159 -0.0017816585
000100 0c 12 0b bd cc ec be bb 80 5f 5b bc cd bf b5 bc
       -0.033952758 -0.005826568 -0.013389468 -0.022186184
000110 1f 27 14 3c 45 94 e7 bb 3b f5 88 bc 03 b4 ab bc
       0.00904253 -0.0070672357 -0.016718497 -0.02095986
000120 b0 a5 00 3d a7 49 4c bc df 79 2d bc b4 76 95 bc
       0.031408012 -0.012468732 -0.010588138 -0.018245079
000130 d4 02 07 bc 60 d4 1f 3d fe fb 89 bc 71 02 cf bd
       -0.00824042 0.039020896 -0.016843792 -0.101078875
000140 3b 7d c8 3c 74 14 a4 bd 50 61 f1 bc 94 20 5d bc
       0.024473777 -0.080117136 -0.029465348 -0.013496537
000150 95 bb 71 bb a0 40 02 bd d6 c0 01 3d 6c 56 25 3d
       -0.003688549 -0.031799912 0.031678043 0.04036562
000160 c3 e4 08 3d c0 4f 9c 3c 24 21 2a bc ab de f5 bb
       0.03342129 0.019080997 -0.010383878 -0.0075033507
000170 dd 19 a8 bc 22 76 ab ba a1 a2 ce 3c c1 30 d8 3b
       -0.020520145 -0.0013081471 0.025224032 0.006597609
000180 70 c4 63 3c 6d ea a9 3a 7a a0 26 bd fb cc 9a 3c
       0.013901815 0.0012963541 -0.040680386 0.01889657
000190 6f 02 02 3d 78 63 ab bb fc ad ff bc c6 04 8b 3c
       0.031740602 -0.0052303635 -0.031210892 0.01697005
0001a0 78 45 c4 3c 57 cd 16 3c 30 0b 08 bc 67 28 33 3d
       0.023958907 0.00920423 -0.008303449 0.043739703
0001b0 02 7b e6 3c 10 b9 b8 3c dd fb 8e ba 21 f2 7b 3c
       0.028134827 0.022549182 -0.0010908801 0.015377552
0001c0 92 f0 01 3c 3a 17 bc bc e5 63 b1 3c 6e 19 b0 bb
       0.007930892 -0.022960294 0.021654079 -0.005374125
0001d0 f9 b9 f7 3b 1b 86 2a bd bf d9 56 bd 40 1d ab bd
       0.0075600115 -0.0416318 -0.052453753 -0.08355188
0001e0 43 4b 96 3c bb 5e ba 3b 72 81 0e bd 9d 01 aa 3b
       0.018346434 0.0056875623 -0.034791417 0.0051881806
0001f0 9b b0 03 bd f6 a6 9e bd 8d 81 dd 3c 87 ed 05 bc
       -0.032150846 -0.07746689 0.027039314 -0.008174307
000200 31 78 a9 bc fd 52 65 bb e3 e5 8f bc c4 4b e5 38
       -0.020687195 -0.0034992092 -0.017565673 0.000109336834
000210 55 c6 b6 3b a1 fa 1e 3c c4 44 5d bc 60 86 5e bb
       0.0055778422 0.009703309 -0.0135051645 -0.0033954605
000220 05 8c 46 3c 90 70 14 bc 6f 6c a7 bb 7c 44 e3 3c
       0.012118344 -0.00906004 -0.005109362 0.027742617
000230 d3 ef 62 3d cf 7f 78 ba 2d 5b 51 bb 0e df 2b 3a
       0.055404495 -0.0009479494 -0.0031945214 0.000655637
000240 30 4b 6e 3c 7e 65 41 bd c7 f4 0d bc 34 72 d1 3c
       0.014544293 -0.04721593 -0.0086643165 0.025567152
000250 e9 0c 85 3c 25 88 9d 3a 6c 1c aa 3b 9d 07 25 bd
       0.016241508 0.0012018724 0.0051913764 -0.040290464
000260 80 79 53 bc 0f 36 a5 3b 2d b2 73 bc 69 2b 83 bd
       -0.012907386 0.0050418447 -0.014874023 -0.06404764
000270 b1 69 e9 bc 08 b2 4a bb 93 d9 3f 3c 6a 00 03 3d
       -0.02849278 -0.0030928869 0.011709589 0.031982817
000280 4b e8 ee bb af 00 af 3c 71 a8 3b 3c 1e c4 9d bc
       -0.007290875 0.02136263 0.011453734 -0.019258555
000290 9a 54 d9 3c 49 76 38 3d 4f b7 16 bc 67 c8 c2 bc
       0.026529599 0.04503468 -0.009198978 -0.0237772
0002a0 49 aa 9b bc ca e9 fd ba e1 3e fb 3b 1a df 2e bc
       -0.019002097 -0.0019372043 0.007667408 -0.010673309
0002b0 66 8c 94 ba ab 1c 80 bb a1 16 2e bc d7 95 e0 ba
       -0.0011333346 -0.0039096675 -0.010625512 -0.00171345
0002c0 46 87 bf 3a bf 9a c5 bc 64 84 2a 3c 7f 2d 93 ba
       0.0014612458 -0.02412164 0.010407541 -0.0011228769
0002d0 96 cd e8 ba a3 eb 51 3c 2d dc 01 3c 51 65 2d 3c
       -0.0017761465 0.012812528 0.007926029 0.010583238
0002e0 16 0c 88 bc 39 e6 62 3b 7f d4 ba 3b aa 52 0f 3c
       -0.016607326 0.0034622087 0.005701601 0.008747736
0002f0 ec 5c c8 3c 2d f2 a9 bc 73 9a 04 bc 91 68 99 3c
       0.024458371 -0.020745361 -0.008093464 0.018726619
000300 3c 80 b1 3a 8a 77 67 bc 75 a5 4a bc 5b ab a2 bb
       0.0013542245 -0.014127621 -0.01236855 -0.004964275
000310 7f f9 56 3c 07 b8 04 3d c1 1a e5 bc ca d1 9d bc
       0.013121008 0.032402065 -0.027966859 -0.019265074
000320 34 f2 29 bc 1a 33 00 bb 7a b5 12 3c 93 13 a6 bc
       -0.010372687 -0.001956171 0.0089544 -0.020273006
000330 de ef c3 bc d2 73 4b bc 36 59 33 3d 8a 67 e2 bc
       -0.023918089 -0.01241775 0.04378625 -0.027637262
000340 65 a5 ad 3c a7 68 10 3c 9a 77 51 bc fa fc b4 b9
       0.02119703 0.008814014 -0.012784863 -0.00034520758
000350 f8 7b aa bc 20 fe 31 bc b0 32 63 bd b5 1d a8 bc
       -0.020811066 -0.010863811 -0.05546826 -0.020521978
000360 17 08 c3 bc 95 ca e6 ba 94 fb 73 3a 06 d0 eb 39
       -0.023807568 -0.0017607982 0.00093072024 0.00044977682
000370 de b3 11 3b a8 2c f3 3c 91 c8 20 3c 0f 48 fd bc
       0.0022232453 0.02968438 0.009813444 -0.03091815
000380 0f cf c8 bc e4 14 d6 3c d2 55 32 bd 63 19 8a bc
       -0.024512796 0.026133008 -0.043538876 -0.016857808
000390 21 62 49 3d 71 cc b3 3c 90 d2 df 3a 28 64 96 bc
       0.04916585 0.021948071 0.0017076302 -0.018358305
0003a0 69 dd ab bc c4 79 cb bc 08 57 13 3d 66 65 47 bd
       -0.0209796 -0.024838336 0.03597167 -0.048680685
0003b0 56 f6 1a bd b5 20 99 3c e7 e3 dc bc 44 c2 27 3c
       -0.03783258 0.018692354 -0.026964141 0.010239188
0003c0 db 9f c4 3c f8 c1 70 bc 1c 29 49 3c a6 2a fd 3b
       0.024002006 -0.014694683 0.012277868 0.0077260314
0003d0 6a 0a 66 bc bd 4f f4 3b d4 20 64 bd 8d 47 f7 bb
       -0.014040569 0.0074557946 -0.05569537 -0.0075463713
0003e0 61 75 0d 3b d6 58 30 3d 36 91 4f ba a6 ec b5 bc
       0.0021584856 0.04305347 -0.00079180615 -0.02220757
0003f0 48 c1 0c 3c 7f d3 9a bb 4f 1c 18 ba bd 0f 9a bc
       0.008591004 -0.0047249193 -0.0005802558 -0.018806333

action_model._continuous_distribution.mu.bias f4 [2]
000000 2a 19 51 3a 41 54 12 3c
       0.0007976467 0.0089312205

exp_avg f4 [128, 50]
000000 04 00 00 80 3e b1 20 af 00 00 00 00 eb d6 d2 ae
       -6e-45 -1.4614884e-10 0.0 -9.5878715e-11
000010 04 00 00 80 2d d4 d2 a4 3c b1 20 af 3c b1 20 af
       -6e-45 -9.143242e-17 -1.4614882e-10 -1.4614882e-10
000020 04 00 00 80 04 00 00 00 3e b1 20 af 3e b1 20 af
       -6e-45 6e-45 -1.4614884e-10 -1.4614884e-10
000030 04 00 00 80 b9 d6 0a af 3a d4 ae ad 3d cb 8e ae
       -6e-45 -1.2627312e-10 -1.9875757e-11 -6.493515e-11
000040 04 00 00 80 04 00 00 80 3e b1 20 af 3e b1 20 af
       -6e-45 -6e-45 -1.4614884e-10 -1.4614884e-10
000050 04 00 00 80 36 a5 a6 25 55 b1 20 af 41 b1 20 af
       -6e-45 2.890836e-16 -1.4614916e-10 -1.4614888e-10
000060 04 00 00 80 04 00 00 80 3e b1 20 af 3e b1 20 af
       -6e-45 -6e-45 -1.4614884e-10 -1.4614884e-10
000070 c6 b7 33 ae c4 86 e7 ae cc f1 95 25 09 04 b7 ae
       -4.086311e-11 -1.0528603e-10 2.6011228e-16 -8.322593e-11
000080 04 00 00 80 04 00 00 00 3e b1 20 af 3e b1 20 af
       -6e-45 6e-45 -1.4614884e-10 -1.4614884e-10
000090 3e b1 20 af 04 00 00 00 04 00 00 80 e2 a3 da ae
       -1.4614884e-10 6e-45 -6e-45 -9.942604e-11
0000a0 3e b1 20 af 04 00 00 00 04 00 00 80 e2 a3 da ae
       -1.4614884e-10 6e-45 -6e-45 -9.942604e-11
0000b0 2c 26 b6 31 60 c9 20 af 64 43 b0 30 84 3e b6 31
       5.301237e-09 -1.4623458e-10 1.2824839e-09 5.3040043e-09
0000c0 9f cc 20 af 46 7d aa 30 58 00 00 00 96 d4 af b9
       -1.4624611e-10 1.2404733e-09 1.23e-43 -0.0003353699
0000d0 00 00 00 00 9e 46 7a b9 04 00 00 00 b4 83 49 ad
       0.0 -0.00023868165 6e-45 -1.1454771e-11
0000e0 96 d4 af b9 96 d4 af b9 6d 00 00 80 37 00 00 00
       -0.0003353699 -0.0003353699 -1.53e-43 7.7e-44
0000f0 96 d4 af b9 96 d4 af b9 04 00 00 00 23 6b a7 b9
       -0.0003353699 -0.0003353699 6e-45 -0.00031932545
000100 15 97 86 b7 e0 4c 0c b9 24 00 00 80 11 00 00 80
       -1.6044398e-05 -0.00013380079 -5e-44 -2.4e-44
000110 96 d4 af b9 96 d4 af b9 04 00 00 00 e5 8f b0 2e
       -0.0003353699 -0.0003353699 6e-45 8.029114e-11
000120 98 d4 af b9 96 d4 af b9 36 00 00 80 04 00 00 00
       -0.00033536996 -0.0003353699 -7.6e-44 6e-45
000130 96 d4 af b9 96 d4 af b9 5d 5f b8 38 6f ec dd b9
       -0.0003353699 -0.0003353699 8.7915665e-05 -0.00042328562
000140 59 ef a2 2e bc 35 d0 b8 36 00 00 80 04 00 00 00
       7.409424e-11 -9.928222e-05 -7.6e-44 6e-45
000150 96 d4 af b9 96 d4 af b9 96 d4 af b9 28 00 00 00
       -0.0003353699 -0.0003353699 -0.0003353699 5.6e-44
000160 18 00 00 80 b1 9c 5b b9 96 d4 af b9 28 00 00 00
       -3.4e-44 -0.0002094384 -0.0003353699 5.6e-44
000170 18 00 00 80 b1 9c 5b b9 a6 3c 47 3c 67 f1 af b9
       -3.4e-44 -0.0002094384 0.012160456 -0.0003355846
000180 fd 34 6d 3b f8 5c 47 3c 11 f1 af b9 fa 9c 6b 3b
       0.0036194914 0.012168162 -0.0003355821 0.003595172
000190 04 00 00 80 4e 9f 18 36 00 00 00 00 75 a5 cc 35
       -6e-45 2.2742493e-06 0.0 1.5247339e-06
0001a0 04 00 00 00 29 a5 ae 2a 4c 9f 18 36 4c 9f 18 36
       6e-45 3.1023212e-13 2.2742488e-06 2.2742488e-06
0001b0 04 00 00 80 04 00 00 80 4e 9f 18 36 4e 9f 18 36
       -6e-45 -6e-45 2.2742493e-06 2.2742493e-06
0001c0 04 00 00 80 85 80 0d 36 86 ec 31 34 b0 d3 74 35
       -6e-45 2.1085445e-06 1.6570456e-07 9.120513e-07
0001d0 04 00 00 80 04 00 00 80 4e 9f 18 36 4e 9f 18 36
       -6e-45 -6e-45 2.2742493e-06 2.2742493e-06
0001e0 04 00 00 80 7c 79 7b 2a 4c 9f 18 36 4e 9f 18 36
       -6e-45 2.2335427e-13 2.2742488e-06 2.2742493e-06
0001f0 04 00 00 80 04 00 00 00 4e 9f 18 36 4e 9f 18 36
       -6e-45 6e-45 2.2742493e-06 2.2742493e-06
000200 49 7b 56 35 f6 00 c6 35 db 57 24 2a 6a 72 b0 35
       7.9900616e-07 1.4752429e-06 1.4596607e-13 1.3146321e-06
000210 04 00 00 80 04 00 00 00 4e 9f 18 36 4e 9f 18 36
       -6e-45 6e-45 2.2742493e-06 2.2742493e-06
000220 4e 9f 18 36 04 00 00 80 04 00 00 80 b8 3d cb 35
       2.2742493e-06 -6e-45 -6e-45 1.5142641e-06
000230 4e 9f 18 36 04 00 00 80 04 00 00 80 b8 3d cb 35
       2.2742493e-06 -6e-45 -6e-45 1.5142641e-06
000240 d6 06 ad b8 66 b7 18 36 83 f8 ae b7 9e 13 ad b8
       -8.250556e-05 2.2756517e-06 -2.0858139e-05 -8.252937e-05
000250 13 b9 18 36 6c f9 ac b7 04 00 00 00 e1 e6 9e 36
       2.2757492e-06 -2.0620144e-05 6e-45 4.735645e-06
000260 00 00 00 00 88 3e 61 36 04 00 00 00 96 7a 0c 2b
       0.0 3.356401e-06 6e-45 4.9908114e-13
000270 de e6 9e 36 de e6 9e 36 1a 00 00 00 05 00 00 80
       4.7356434e-06 4.7356434e-06 3.6e-44 -7e-45
000280 e1 e6 9e 36 e1 e6 9e 36 04 00 00 00 3e 99 8e 36
       4.735645e-06 4.735645e-06 6e-45 4.2497695e-06
000290 10 6d 02 35 10 80 0a 36 0b 00 00 00 09 00 00 00
       4.858748e-07 2.0638145e-06 1.5e-44 1.3e-44
0002a0 e1 e6 9e 36 e1 e6 9e 36 04 00 00 00 5d 06 76 ac
       4.735645e-06 4.735645e-06 6e-45 -3.4962235e-12
0002b0 e9 e6 9e 36 e1 e6 9e 36 14 00 00 00 04 00 00 00
       4.7356484e-06 4.735645e-06 2.8e-44 6e-45
0002c0 e1 e6 9e 36 e1 e6 9e 36 f6 18 d7 b5 26 ad d4 36
       4.735645e-06 4.735645e-06 -1.6026013e-06 6.3382495e-06
0002d0 4d 2b 54 ac 71 58 ac 35 13 00 00 00 04 00 00 00
       -3.0151049e-12 1.2840738e-06 2.7e-44 6e-45
0002e0 e1 e6 9e 36 e1 e6 9e 36 e1 e6 9e 36 04 00 00 80
       4.735645e-06 4.735645e-06 4.735645e-06 -6e-45
0002f0 0c 00 00 00 f0 69 47 36 e1 e6 9e 36 04 00 00 80
       1.7e-44 2.9714975e-06 4.735645e-06 -6e-45
000300 0c 00 00 00 f0 69 47 36 e0 02 34 b9 c5 ff 9e 36
       1.7e-44 2.9714975e-06 -0.00017167209 4.7385424e-06
000310 57 0e 55 b8 f2 2a 34 b9 3c 00 9f 36 b0 90 52 b8
       -5.0796512e-05 -0.00017182136 4.7385965e-06 -5.0202652e-05
000320 ab 00 00 00 f4 8a 58 3a 00 00 00 00 bc c1 1d 3a
       2.4e-43 0.0008260452 0.0 0.00060179434
000330 04 00 00 00 bf b3 eb ad f4 8a 58 3a f4 8a 58 3a
       6e-45 -2.679623e-11 0.0008260452 0.0008260452
000340 fc 01 00 00 04 00 00 00 f4 8a 58 3a f4 8a 58 3a
       7.12e-43 6e-45 0.0008260452 0.0008260452
000350 04 00 00 80 cc 65 4c 3a a3 52 42 38 6b 3c b2 39
       -6e-45 0.00077971513 4.6330166e-05 0.0003399582
000360 02 02 00 00 04 00 00 80 f4 8a 58 3a f4 8a 58 3a
       7.2e-43 -6e-45 0.0008260452 0.0008260452
000370 04 00 00 80 23 ad 37 af f7 8a 58 3a f4 8a 58 3a
       -6e-45 -1.6705264e-10 0.00082604535 0.0008260452
000380 02 02 00 00 04 00 00 00 f4 8a 58 3a f4 8a 58 3a
       7.2e-43 6e-45 0.0008260452 0.0008260452
000390 af 59 f7 b9 e6 1b aa 3a dd d4 20 af de bf 09 39
       -0.0004717833 0.0012978285 -1.462754e-10 0.00013136814
0003a0 01 02 00 00 04 00 00 00 f4 8a 58 3a f4 8a 58 3a
       7.19e-43 6e-45 0.0008260452 0.0008260452
0003b0 f4 8a 58 3a 0b 00 00 80 04 00 00 00 b2 95 03 3a
       0.0008260452 -1.5e-44 6e-45 0.000501956
0003c0 f4 8a 58 3a 0b 00 00 80 04 00 00 00 b2 95 03 3a
       0.0008260452 -1.5e-44 6e-45 0.000501956
0003d0 21 4c f5 bc f6 ad 58 3a ae 47 1b bc d5 80 f5 bc
       -0.029943528 0.00082656683 -0.009477539 -0.029968658
0003e0 f8 ac 58 3a 0a 33 1a bc 1e 00 00 80 78 c6 eb b6
       0.00082655204 -0.009411583 -4.2e-44 -7.0266506e-06
0003f0 00 00 00 00 c8 4b de b6 04 00 00 80 e6 62 86 2c
       0.0 -6.6249377e-06 -6e-45 3.819489e-12

exp_avg_sq f4 [128, 50]
000000 68 35 18 32 e6 9c 68 31 00 00 00 00 d4 56 eb 31
       8.859708e-09 3.384963e-09 0.0 6.8492714e-09
000010 3a 1f ca 30 f2 37 23 32 43 27 90 31 5f a5 02 32
       1.470631e-09 9.500569e-09 4.195415e-09 7.604597e-09
000020 57 bf 3d 31 07 d2 16 32 ea 8d ea 30 94 2f 7d 31
       2.7611884e-09 8.778904e-09 1.7066075e-09 3.684339e-09
000030 00 f5 3c 32 d3 72 7c 30 43 38 13 31 25 3b 46 32
       1.0998747e-08 9.184024e-10 2.1423296e-09 1.1538565e-08
000040 84 ca da 31 17 65 1b 32 e3 68 5b 2e f1 3d 2c 32
       6.3676584e-09 9.045173e-09 4.9887993e-11 1.00258015e-08
000050 18 64 3d 32 59 56 4a 29 76 45 36 31 90 7d 49 32
       1.1024007e-08 4.4927905e-14 2.652397e-09 1.17282895e-08
000060 94 ad 5c 31 0a 24 4a 32 84 b7 06 2e 5b ac a8 31
       3.2112881e-09 1.1766142e-08 3.0631067e-11 4.909038e-09
000070 b5 0d 99 23 ed f8 a8 2d 4d a2 6a 32 2a 02 6b 32
       1.6594098e-17 1.9209934e-11 1.3657496e-08 1.3679292e-08
000080 a2 ac df 2c bc bd c2 31 70 79 43 32 e8 2e 42 32
       6.3572073e-12 5.6677134e-09 1.1378106e-08 1.13029515e-08
000090 9a f1 64 31 e5 81 2f 32 73 c1 34 31 db b2 be 31
       3.3315701e-09 1.0215875e-08 2.630341e-09 5.5500613e-09
0000a0 9a f1 64 31 e5 81 2f 32 73 c1 34 31 db b2 be 31
       3.3315701e-09 1.0215875e-08 2.630341e-09 5.5500613e-09
0000b0 0a e4 f6 33 ca a9 6b 32 b7 64 a4 34 41 af ff 33
       1.1496748e-07 1.3717406e-08 3.062066e-07 1.1906241e-07
0000c0 0a a0 6b 32 96 e6 ad 34 22 32 ca 33 39 2e 2a 36
       1.3715189e-08 3.2391534e-07 9.415477e-08 2.535888e-06
0000d0 00 00 00 00 83 e1 92 35 f7 cf 30 33 e5 6d 86 34
       0.0 1.094348e-06 4.1167336e-08 2.5039404e-07
0000e0 e9 1d 1d 36 c1 ff 22 36 0b c6 e4 33 af 87 87 33
       2.3412233e-06 2.428875e-06 1.0653101e-07 6.311108e-08
0000f0 82 42 25 36 c3 1f 2a 36 b7 50 f6 33 9f 49 74 35
       2.4625629e-06 2.5350462e-06 1.14699496e-07 9.1004216e-07
000100 24 75 c8 35 9f 3e f5 35 44 ac ec 33 67 28 d9 33
       1.4935254e-06 1.8272148e-06 1.1020941e-07 1.0112199e-07
000110 7d a4 22 36 5b 07 2a 36 3a c8 00 34 43 50 fa 34
       2.4235626e-06 2.5336255e-06 1.1993771e-07 4.6624527e-07
000120 4c ab fe 35 b5 88 25 36 85 71 f3 33 9e 5a 88 33
       1.8974329e-06 2.466649e-06 1.13362184e-07 6.349477e-08
000130 57 9c 22 36 27 6c 28 36 cf 8d b2 35 4f 54 40 35
       2.4230883e-06 2.5096904e-06 1.3303305e-06 7.164826e-07
000140 10 ff bd 34 5b 16 db 35 62 ae d6 32 73 6d 66 33
       3.5389576e-07 1.6323278e-06 2.4992179e-08 5.365059e-08
000150 44 40 2b 36 f8 1f 2c 36 63 4b 24 36 72 12 10 34
       2.5518393e-06 2.5648606e-06 2.4481785e-06 1.3417755e-07
000160 ad 87 7e 33 55 35 aa 35 63 4b 24 36 72 12 10 34
       5.926238e-08 1.2681509e-06 2.4481785e-06 1.3417755e-07
000170 ad 87 7e 33 55 35 aa 35 11 f7 51 3b 88 d7 2e 36
       5.926238e-08 1.2681509e-06 0.0032038132 2.6053476e-06
000180 94 ff 43 39 55 fb 51 3b 91 e0 2e 36 6e f7 44 39
       0.0001869186 0.0032040675 2.6058735e-06 0.00018784191
000190 a5 fa f3 30 c6 a4 f7 30 00 00 00 00 01 a3 d7 30
       1.7751814e-09 1.8018447e-09 0.0 1.5689637e-09
0001a0 dc 8b 5b 2f f9 cb 37 31 a0 33 41 30 34 2f f8 30
       1.9967622e-10 2.674595e-09 7.0286355e-10 1.8057791e-09
0001b0 07 b1 81 30 02 49 b7 30 ae dd 01 31 a5 cd 23 31
       9.4363e-10 1.3335753e-09 1.889798e-09 2.3836517e-09
0001c0 c6 de 3a 31 02 ab b9 2f 88 87 9a 2f 69 8c 46 31
       2.7193194e-09 3.3772812e-10 2.8108738e-10 2.8892606e-09
0001d0 64 24 ea 30 03 07 e9 30 c8 7e 3d 2f 80 71 2a 31
       1.7036084e-09 1.6954974e-09 1.7234492e-10 2.4802773e-09
0001e0 1b c2 3a 31 39 d0 a0 2d 6f d4 3b 30 7b 33 4e 31
       2.7176899e-09 1.8282363e-11 6.833209e-10 3.0006209e-09
0001f0 3f 23 99 30 04 41 2c 31 22 ca 33 2f 52 ac ac 30
       1.1142233e-09 2.5066251e-09 1.6351767e-10 1.2563623e-09
000200 83 17 79 2e e5 c5 77 2f 79 91 4c 31 00 74 58 31
       5.6636928e-11 2.2534825e-10 2.9768599e-09 3.1498075e-09
000210 7c 95 ec 2e e3 7f 82 30 17 bd 1b 31 ed f8 27 31
       1.0758591e-10 9.495092e-10 2.2662954e-09 2.4443196e-09
000220 55 5d 93 2f 65 f6 2a 31 69 14 10 30 e1 c6 60 30
       2.680546e-10 2.4878315e-09 5.24159e-10 8.177335e-10
000230 55 5d 93 2f 65 f6 2a 31 69 14 10 30 e1 c6 60 30
       2.680546e-10 2.4878315e-09 5.24159e-10 8.177335e-10
000240 8c 1d 92 34 be 7f 6c 31 eb 61 b2 33 86 22 93 34
       2.7216117e-07 3.4415133e-09 8.306582e-08 2.7406003e-07
000250 92 27 67 31 d6 41 b4 33 a9 47 01 33 20 71 62 34
       3.3637417e-09 8.393879e-08 3.0100328e-08 2.1089045e-07
000260 00 00 00 00 a3 02 1d 33 df 5b 0b 34 be 14 01 34
       0.0 3.655681e-08 1.2978806e-07 1.2021607e-07
000270 0e ec fb 31 62 8e 08 34 74 2c 6b 34 be 79 27 32
       7.3318978e-09 1.2717786e-07 2.1902252e-07 9.74836e-09
000280 6e 9f 2b 32 c3 05 2f 34 a9 59 1c 33 02 d9 8b 33
       9.98976e-09 1.6300241e-07 3.6403126e-08 6.5121654e-08
000290 48 7f 41 34 3f 60 6c 34 28 fb 0f 34 16 4d dd 33
       1.802083e-07 2.2014227e-07 1.3409283e-07 1.0305136e-07
0002a0 08 7f be 30 a5 d8 2e 34 8e 6f 2e 33 b2 4f 38 30
       1.3860424e-09 1.6283828e-07 4.061399e-08 6.7052064e-10
0002b0 bd 4a 67 34 e6 b2 7b 34 00 53 6e 34 eb 23 65 32
       2.1540741e-07 2.344128e-07 2.2195672e-07 1.3337721e-08
0002c0 a9 5b ba 30 6f 17 2d 34 f5 f7 80 30 3c 0f fa 30
       1.3559333e-09 1.6120406e-07 9.383699e-10 1.8194224e-09
0002d0 01 e0 79 34 29 6b 7b 34 1b 03 69 30 4c ef 23 34
       2.3271424e-07 2.3415181e-07 8.476932e-10 1.5267614e-07
0002e0 22 d1 06 34 71 79 15 34 70 c0 9f 31 ac f8 33 33
       1.2555805e-07 1.3920886e-07 4.6493867e-09 4.190285e-08
0002f0 3c 3a 63 34 de 1d 66 34 70 c0 9f 31 ac f8 33 33
       2.1162208e-07 2.1431285e-07 4.6493867e-09 4.190285e-08
000300 3c 3a 63 34 de 1d 66 34 8b 4d cb 36 c7 5a 7e 34
       2.1162208e-07 2.1431285e-07 6.0588986e-06 2.3688618e-07
000310 dd b8 99 37 89 4e c8 36 b6 8c 7e 34 f6 15 9e 37
       1.8325105e-05 5.969607e-06 2.3706784e-07 1.8845294e-05
000320 d9 d0 02 32 62 0c 2e 37 00 00 00 00 58 2c 97 36
       7.614482e-09 1.0374091e-05 0.0 4.505313e-06
000330 2d 03 f3 2d 15 95 94 34 af fd 29 37 ec 79 2a 37
       2.7627312e-11 2.767562e-07 1.013225e-05 1.0161177e-05
000340 c0 6e a3 31 89 84 87 31 6e 09 2e 37 27 10 2e 37
       4.756515e-09 3.9440846e-09 1.0373404e-05 1.0374969e-05
000350 99 fe 6a 31 c9 be 8b 36 05 1b be 36 01 2c e2 36
       3.4196204e-09 4.164733e-06 5.6655867e-06 6.7404476e-06
000360 8d 63 2f 32 32 93 02 31 6a f9 2d 37 b9 09 2e 37
       1.0208976e-08 1.900116e-09 1.0369675e-05 1.0373472e-05
000370 e5 9b 6a 31 27 9b ad 35 5c 5b 10 37 7a 03 2a 37
       3.4140097e-09 1.293466e-06 8.60434e-06 1.0133599e-05
000380 40 66 14 32 09 ce 4c 31 6d f9 2d 37 bc 01 2e 37
       8.637983e-09 2.9803024e-09 1.03696775e-05 1.0371612e-05
000390 c4 68 cb 36 04 a2 4c 36 8d 37 fb 34 2d 1e cb 36
       6.0620678e-06 3.0492674e-06 4.6792812e-07 6.0533844e-06
0003a0 c7 e2 02 32 a2 13 6e 30 60 09 2e 37 a8 12 2e 37
       7.618559e-09 8.6611796e-10 1.0373391e-05 1.0375552e-05
0003b0 55 0d 2e 37 c1 9b c8 31 95 43 33 30 bd be a4 36
       1.0374312e-05 5.8384733e-09 6.521586e-10 4.9097857e-06
0003c0 55 0d 2e 37 c1 9b c8 31 95 43 33 30 bd be a4 36
       1.0374312e-05 5.8384733e-09 6.521586e-10 4.9097857e-06
0003d0 39 84 5f 3c 37 58 2e 37 36 71 5b 3a 8d 8f 5f 3c
       0.013642364 1.0391747e-05 0.0008371057 0.013645065
0003e0 57 5a 2e 37 3a fd 5c 3a 41 e9 12 30 bb 6e 02 33
       1.0392242e-05 0.00084300677 5.3445964e-10 3.0368692e-08
0003f0 00 00 00 00 41 b0 4c 32 bd 72 2a 30 eb b2 99 31
       0.0 1.1914438e-08 6.200869e-10 4.4732267e-09

exp_avg f4 [128]
000000 3e b1 20 af 96 d4 af b9 4e 9f 18 36 e1 e6 9e 36
       -1.4614884e-10 -0.0003353699 2.2742493e-06 4.735645e-06
000010 f4 8a 58 3a 78 c6 eb b6 c8 a2 1e 3a e9 b5 d2 34
       0.0008260452 -7.0266506e-06 0.0006051478 3.9247905e-07
000020 be 9f bb b7 41 3c f0 39 5f 8f e1 37 e0 1e cc 38
       -2.2366523e-05 0.0004582126 2.6888853e-05 9.733229e-05
000030 3e eb 7b b8 a4 dd 23 31 00 98 cb b3 75 82 e2 37
       -6.006215e-05 2.384561e-09 -9.480573e-08 2.7002048e-05
000040 df 61 0b b9 90 2e 43 af 2a e4 47 36 27 8a a1 b6
       -0.00013292533 -1.7751689e-10 2.978612e-06 -4.814257e-06
000050 38 27 e7 39 a4 c4 4d b7 f3 76 77 37 28 e3 3f b8
       0.00044088974 -1.2264736e-05 1.4750042e-05 -4.5749504e-05
000060 13 be 5d ba 98 d6 ac 37 f0 6c 88 38 cc 35 a4 b9
       -0.0008458804 2.0603926e-05 6.5052765e-05 -0.000313206
000070 06 2d c9 38 04 44 00 3a 74 97 30 b8 ce 9f 78 36
       9.592813e-05 0.00048929476 -4.210272e-05 3.7047898e-06
000080 80 bd f3 3a 50 7b de b8 63 e4 d7 39 f2 6d 5a b5
       0.0018595904 -0.00010608754 0.00041178157 -8.137132e-07
000090 54 f0 a6 b9 f0 f0 c2 38 fb a2 1a ba e6 1e ea 39
       -0.00031841046 9.295519e-05 -0.000589892 0.0004465498
0000a0 4a ca 90 39 12 0e 5b b9 78 a8 33 3a fc fb 33 38
       0.00027616537 -0.00020890709 0.0006853412 4.2911604e-05
0000b0 bd e7 d3 39 d0 c7 97 36 b8 f9 c8 33 f5 df b1 3a
       0.00040417715 4.523412e-06 9.358649e-08 0.0013570773
0000c0 fc eb 12 b5 f4 fd e9 34 32 ed 81 39 d8 b0 0d 39
       -5.473264e-07 4.3584407e-07 0.00024781522 0.00013512687
0000d0 92 f3 b2 b7 37 00 ab 39 28 f4 c9 39 9b ac 9c 39
       -2.1332675e-05 0.00032615822 0.00038519618 0.0002988324
0000e0 b8 64 2d ba 90 e0 a9 2f 0f 6d ec 35 cd 56 16 35
       -0.00066144345 3.0900482e-10 1.761511e-06 5.6005666e-07
0000f0 67 ae 0a 38 8e d4 77 36 d5 c1 a1 36 f4 5a e9 39
       3.306419e-05 3.6929591e-06 4.820739e-06 0.00044508989
000100 7c 6d 01 34 3c f5 af b9 61 fa 9e 36 00 e1 ca 38
       1.2053891e-07 -0.00033561315 4.737915e-06 9.67402e-05
000110 3e 27 66 b5 96 f0 b3 b9 69 0c 7e ba 65 5b c7 36
       -8.573878e-07 -0.0003432079 -0.00096911803 5.941302e-06
000120 13 9c 09 3a 5f 81 2a 3a cb fb 8b 33 e4 5a ee 36
       0.0005249392 0.0006504263 6.518493e-08 7.103534e-06
000130 75 fd 32 3a d0 4e 2e 33 bd d0 a1 b9 e4 63 74 33
       0.0006827929 4.058421e-08 -0.00030863835 5.6901527e-08
000140 99 95 3d 36 84 9b d5 b9 4f 34 49 33 03 ae 00 b7
       2.8250272e-06 -0.00040742394 4.6846534e-08 -7.66991e-06
000150 2f 56 e2 3a ed 1a 11 b9 fb eb 18 38 fc 2f 43 37
       0.0017268116 -0.00013838308 3.6459398e-05 1.1634078e-05
000160 11 9a 96 b7 1d d3 83 b9 78 45 6e 33 24 55 7c 36
       -1.7953136e-05 -0.0002514356 5.5476875e-08 3.7600485e-06
000170 a4 95 20 37 f4 8b c0 3a e7 4f 9f b6 a5 55 bb b9
       9.571584e-06 0.0014690147 -4.747871e-06 -0.0003573123
000180 83 90 24 b9 22 db 00 ba 6f 67 09 3a cb 1f e6 af
       -0.00015694094 -0.0004915466 0.0005241548 -4.1859347e-10
000190 6d 3a 19 34 3a fe f3 b9 fb 4e 3a 36 6a ca 39 b8
       1.427049e-07 -0.00046537985 2.7762133e-06 -4.429595e-05
0001a0 d5 93 df b5 0e 75 dd 37 fa e0 d5 b5 98 23 05 ba
       -1.665782e-06 2.639976e-05 -1.5935213e-06 -0.0005078851
0001b0 02 c1 f9 37 c4 7b 9d 39 d6 ac 40 b2 51 5e 3c 3a
       2.977299e-05 0.00030037586 -1.1215169e-08 0.0007185685
0001c0 23 6c 51 b8 64 84 e4 36 17 1c d8 b9 c9 c4 93 36
       -4.9930193e-05 6.810342e-06 -0.0004121966 4.40385e-06
0001d0 f8 23 6c af c5 c5 1b 35 04 54 9d b7 34 b0 05 ba
       -2.1476854e-10 5.802979e-07 -1.8754981e-05 -0.00050998037
0001e0 96 b2 12 ba f3 6b a4 b6 e3 a0 f1 38 5f 36 68 39
       -0.00055960694 -4.900148e-06 0.00011521743 0.00022145499
0001f0 fa 8c 0e b7 b0 84 68 ba 30 ba e6 b4 69 6e f1 39
       -8.496683e-06 -0.00088698696 -4.2976308e-07 0.00046049364
