results/imi4/VacuumCleaner/VacuumCleaner-21888.pt (torch, 673075 bytes, 44 tensors)

network_body._body_endoder.seq_layers.0.weight f4 [128, 50]
0.1962839 -1.101659 0.44636172 -0.04558472 -0.10650491 -0.117898144 0.0055833776 -0.094302125
0.2010045 0.05623747 -0.017213326 -0.21990868 -0.016298212 -0.3747109 0.13211602 0.14438054
0.21151774 0.2743095 -0.31149578 -0.3330724 0.28953782 -0.037375826 -0.100854166 -0.19768019
0.88170606 -1.0327958 -0.06928553 -0.29137748 0.17138761 -1.1017771 0.26318425 0.005730208
0.17929883 0.5676816 -0.4611132 -0.038914144 -0.33475575 0.40047255 0.1496843 0.022475133
0.08235497 0.4880164 0.1317622 -0.07454121 0.12680493 -0.38150588 0.07623381 -0.13133396
0.02268325 -0.039400816 0.58952814 -0.4126761 -0.32917032 0.2738786 -0.23781762 -0.47497964
0.15729164 0.1854619 0.37723807 -0.29931837 -0.25869018 -0.2867152 -0.3652605 -0.65297425
0.20223682 0.12071166 -0.0652779 -0.13340122 -0.11179187 -0.023765571 0.00042515306 -0.58968675
-0.010040194 -0.14391759 -0.11173642 0.16775352 -0.004915778 -0.31945905 0.08304217 -0.26518482
0.09537419 -0.18539175 -0.15992504 -0.016818957 0.08910556 0.23460412 -0.10260667 -0.2169332
-0.15790015 -0.07538744 -0.27153715 0.05970047 -0.022669038 -0.15786709 -0.1466997 0.07066008
0.030403344 0.2223972 -0.24900344 -0.089590065 -0.30326194 0.31430638 -0.012136181 -0.20445569
-0.13260196 -0.40486637 -0.021734929 -0.25267693 -0.27331567 0.27994302 -0.2019922 -0.36384374
0.29720894 0.5732391 -0.31529266 -0.09869526 0.28174075 0.08917195 -0.02555475 -0.1834547
-0.16236947 0.13602567 -0.13027139 -0.014977465 0.66552615 0.6637588 -0.27572304 -0.046968278
-0.21202818 -0.091602586 0.15703459 0.19616942 0.048710357 -0.6999027 0.10241911 0.040004585
-0.035370145 -0.49863103 0.006649547 0.055848543 -0.14236012 -0.33833396 0.13215956 0.03576125
0.14992 0.35585004 0.23306437 0.094497934 -0.21947947 -0.05760553 -0.018817438 0.5369681
-0.3828166 -0.063619316 0.32837817 -0.18118916 0.041504573 0.15528049 0.12115198 -0.01980523
0.12501745 0.2374593 0.23198423 0.2939095 0.09724428 0.006765385 0.3377924 0.17074057
0.3443247 0.09829039 -0.07968419 0.003499062 0.3831909 0.011378822 -0.32853273 0.37394777
0.1402088 0.17987944 0.10518242 -0.0515661 0.04711087 -0.019386822 0.18214414 0.25937194
0.022583181 0.25402972 -0.24977598 0.15271422 0.058632053 0.02407542 0.063756816 0.17011184
-0.058186598 0.055949368 0.05355064 -0.09752642 -0.19461009 -0.04625907 0.02025654 0.18084218
-0.046875015 0.32061565 -0.1034329 0.057126593 -0.44536874 0.8169309 0.002327105 -0.5525994
-0.18026255 -0.20976378 0.46978828 -0.031986713 0.16906139 0.16220886 0.009783116 -0.13368008
0.01818967 0.00012656595 -0.016913079 -0.19816074 -0.26035163 0.3427486 0.268105 -0.17128278
0.45984837 0.11236546 -0.06041242 -0.0055164928 0.21449046 -0.34717837 0.25253567 -0.08982608
0.122238964 -0.045479476 -0.15295851 -0.076434225 -0.23271127 -0.37114054 0.106209114 0.10040433
-0.29237416 -0.50257957 0.40901312 0.1514245 0.11263535 -0.20181097 -0.21213713 0.07008597
0.20952454 0.16104326 -0.08658708 -0.06571513 0.123337515 -0.001670891 -0.47846422 0.472974
00000000: a6fe 483e 2a03 8dbf 8689 e43e 0bb7 3abd
00000010: 3f1f dabd 9574 f1bd c4f4 b63b 7921 c1bd
00000020: 20d4 4d3e 4359 663d f602 8dbc be2f 61be
00000030: d483 85bc 1bda bfbe 6c49 073e 7ed8 133e
00000040: 1b98 583e 4b72 8c3e 607c 9fbe 7788 aabe
00000050: 4d3e 943e 6517 19bd a18c cebd ad6c 4abe
00000060: 7db7 613f a732 84bf 92e5 8dbd 6e2f 95be
00000070: 3c80 2f3e 0807 8dbf 16c0 863e 78c4 bb3b
00000080: 1d9a 373e 9553 113f 0817 ecbe 7064 1fbd
00000090: 1b65 abbe bd0a cd3e d746 193e c51d b83c
000000a0: b9a9 a83d 49dd f93e acec 063e 10a9 98bd
000000b0: 27d9 013e bd54 c3be 7920 9c3d 697c 06be
000000c0: 39d2 b93c c062 21bd 51eb 163f 484a d3be
000000d0: 0389 a8be d139 8c3e 7686 73be 8830 f3be
000000e0: 0f11 213e b9e9 3d3e 5925 c13e 4240 99be
000000f0: 0a73 84be 56cc 92be 6d03 bbbe 5229 27bf
00000100: 2b17 4f3e ad37 f73d 6bb0 85bd 549a 08be
00000110: 23f3 e4bd 04b0 c2bc 14e7 de39 b6f5 16bf
00000120: a07f 24bc 225f 13be 10d6 e4bd 94c7 2b3e
00000130: 8914 a1bb 2390 a3be 0312 aa3d 4ec6 87be
00000140: 8b53 c33d 56d7 3dbe 64c3 23be e9c7 89bc
00000150: fa7c b63d 103c 703e 7223 d2bd bd23 5ebe
00000160: 94b0 21be bb64 9abd eb06 8bbe 7b88 743d
00000170: 6bb4 b9bc e9a7 21be 7238 16be 3bb6 903d
00000180: 6f10 f93c 17bc 633e c2fa 7ebe ff7a b7bd
00000190: 2645 9bbe c4ec a03e d5d6 46bc d55c 51be
000001a0: cfc8 07be a54a cfbe 730d b2bc df5e 81be
000001b0: 08f0 8bbe b154 8f3e 0bd7 4ebe ba49 babe
000001c0: c52b 983e ccbf 123f 0a6e a1be be20 cabd
000001d0: 5340 903e c99f b63d 3258 d1bc 8ddb 3bbe
000001e0: 2f44 26be 504a 0b3e dd65 05be 0b64 75bc
000001f0: ec5f 2a3f 19ec 293f 922b 8dbe cf61 40bd
00000200: ea1d 59be 239a bbbd adcd 203e a3e0 483e
00000210: 8384 473d d32c 33bf 1cc1 d13d d9db 233d
00000220: 49e0 10bd 914c ffbe 71e4 d93b 71c1 643d
00000230: dac6 11be 1c3a adbe d654 073e 637a 123d
00000240: a184 193e fa31 b63e 6da8 6e3e 2288 c13d
00000250: 3abf 60be c7f3 6bbd 0727 9abc be76 093f
00000260: 8a00 c4be d84a 82bd 2f21 a83e a789 39be
00000270: b300 2a3d d901 1f3e 871e f83d 943e a2bc
00000280: 9304 003e 8828 733e 468d 6d3e 4e7b 963e
00000290: 0228 c73d 2ab0 dd3b 20f3 ac3e 9ed6 2e3e
000002a0: 544b b03e 794c c93d 7731 a3bd 8550 653b
000002b0: 9931 c43e 3d6e 3a3c 7135 a8be 1576 bf3e
000002c0: e592 0f3e 5132 383e e169 d73d fa36 53bd
000002d0: 54f7 403d 1dd1 9ebc fe83 3a3e 66cc 843e
000002e0: 5d00 b93c 2f10 823e 46c5 7fbe 1e61 1c3e
000002f0: 2a28 703d d139 c53c ef92 823d cc31 2e3e
00000300: 1255 6ebd 2a2b 653d ea57 5b3d efbb c7bd
00000310: de47 47be 277a 3dbd 0bf1 a53c b12e 393e
00000320: 0400 40bd bc27 a43e a1d4 d3bd 93fd 693d
00000330: 5f07 e4be 6222 513f 5882 183b 2777 0dbf
00000340: bf96 38be 51cc 56be 1788 f03e 8004 03bd
00000350: 6e1e 2d3e 141a 263e 5d49 203c 6ee3 08be
00000360: 8102 953c cab6 0439 4c8d 8abc a6ea 4abe
00000370: cf4c 85be bf7c af3e 0f45 893e c164 2fbe
00000380: 3f71 eb3e dd1f e63d 0473 77bd b2c3 b4bb
00000390: 63a3 5b3e 5dc1 b1be 5b4c 813e bcf6 b7bd
000003a0: 6c58 fa3d b048 3abd 28a1 1cbe 8c89 9cbd
000003b0: dd4b 6ebe 2206 bebe 2a84 d93d c9a0 cd3d
000003c0: 11b2 95be 0ea9 00bf 2b6a d13e 060f 1b3e
000003d0: 5dad e63d 89a7 4ebe 7a3a 59be 3c89 8f3d
000003e0: 9a8d 563e 86e8 243e 9154 b1bd a795 86bd
000003f0: 6198 fc3d cc01 dbba 43f9 f4be a629 f23e

network_body._body_endoder.seq_layers.0.bias f4 [128]
0.03581185 -0.06933869 -0.023273092 0.06165678 0.02303784 -0.02465874 -0.053982187 0.030670077
-0.04223527 -0.02555743 -0.027591445 -0.0060029556 -0.05408093 -0.06272203 0.016299628 -0.028476086
-0.06897849 0.050933573 0.058703505 -0.038681917 0.053709324 -0.035989136 -0.030795516 -0.025669282
-0.07989441 -0.09260757 -0.055341415 0.04792042 0.021896768 0.045629703 -0.0008352175 -0.031802505
0.014776435 -0.14331731 -0.057784162 -0.06129149 0.017158534 -0.06555144 -0.012972004 -0.04906059
0.076923974 -0.052631594 -0.112268694 -0.0579683 -0.03517879 0.008568655 -0.018810047 0.0038832144
-0.089936264 -0.052527398 -0.025351599 0.0026664939 -0.058563177 -0.0909791 -0.040081725 -0.11739884
-0.053554703 -0.038983148 -0.071145095 0.024829961 -0.15799955 -0.048140194 -0.041485112 -0.074030176
-0.018782532 0.05382596 -0.009185093 -0.06402773 0.012112502 0.0037835483 -0.057069138 -0.036554135
-0.108523235 -0.0005303094 -0.07975312 0.043448087 0.0038824764 -0.004656201 0.020119896 -0.0789787
-0.10124439 0.033198413 -0.08582856 -0.05905642 -0.046450656 0.06198558 0.02597813 -0.098716415
-0.06440207 -0.06763944 0.009386353 0.0049647703 -0.080899164 -0.0022694238 -0.016360404 -0.014819032
0.06662812 -0.101788856 -0.021835288 0.020737616 0.030812914 0.03291173 0.06701741 -0.056414966
-0.08589638 -0.10090263 -0.025644492 -0.018242827 -0.03220296 -0.04430253 -0.10318518 -0.07998067
-0.011303338 -0.09431818 -0.057116684 -0.09299423 -0.04858859 -0.0399598 -0.022092808 -0.036807846
-0.002127918 0.033806086 -0.07044217 -0.01443557 -0.12941086 -0.0733237 -0.0315874 -0.07369144
00000000: 72af 123d 7101 8ebd 36a7 bebc d28b 7c3d
00000010: dab9 bc3c 2001 cabc 6d1c 5dbd d03f fb3c
00000020: e4fe 2cbd d15d d1bc 7407 e2bc 71b4 c4bb
00000030: f783 5dbd 6874 80bd cc86 853c ae46 e9bc
00000040: 9844 8dbd b99f 503d 1673 703d ee70 1ebd
00000050: 4ffe 5b3d 5869 13bd e146 fcbc 6348 d2bc
00000060: ae9f a3bd 0aa9 bdbd aead 62bd 3448 443d
00000070: da60 b33c 36e6 3a3d 7ff2 5aba 5843 02bd
00000080: dc18 723c c6c1 12be 16af 6cbd c90c 7bbd
00000090: 0e90 8c3c d53f 86bd 8788 54bc c2f3 48bd
000000a0: 518a 9d3d 3a94 57bd 21ed e5bd 2b70 6dbd
000000b0: a317 10bd 8b63 0c3c 8717 9abc 877d 7e3b
000000c0: 8130 b8bd f826 57bd 28ae cfbc 58c0 2e3b
000000d0: f1df 6fbd 4053 babd bc2c 24bd ce6e f0bd
000000e0: 2d5c 5bbd cbac 1fbd 85b4 91bd 3468 cb3c
000000f0: a2ca 21be a72e 45bd 4bec 29bd 229d 97bd
00000100: d3dd 99bc 9c78 5c3d 137d 16bc f820 83bd
00000110: 8473 463c 68f5 773b 54c1 69bd cab9 15bd
00000120: 6e41 debd 7604 0bba 9b55 a3bd 9ff6 313d
00000130: 2571 7e3b 0c93 98bb 7bd2 a43c 96bf a1bd
00000140: 3859 cfbd 0ffb 073d e2c6 afbd 25e5 71bd
00000150: 0b43 3ebd 97e4 7d3d 16d0 d43c d52b cabd
00000160: 3ce5 83bd 8c86 8abd 38c9 193c 83af a23b
00000170: 76ae a5bd 9dba 14bb 4106 86bc 86cb 72bc
00000180: 5374 883d ad76 d0bd ebdf b2bc efe1 a93c
00000190: 5d6b fc3c 73ce 063d 6d40 893d 6113 67bd
000001a0: 71ea afbd 0aa6 cebd 6614 d2bc fb71 95bc
000001b0: 40e7 03bd 9276 35bd c052 d3bd e8cc a3bd
000001c0: a331 39bc e429 c1bd 2ff3 69bd c273 bebd
000001d0: d404 47bd e3ac 23bd fafb b4bc d3c3 16bd
000001e0: 8a74 0bbb 4078 0a3d fc43 90bd 2b83 6cbc
000001f0: 4884 04be bc2a 96bd ca61 01bd 8aeb 96bd

network_body._body_endoder.seq_layers.2.weight f4 [128, 128]
-0.06267772 0.0120611265 0.10129464 -0.031864338 -0.14223431 -0.17983346 0.028883597 -0.23611063
-0.075283684 -0.052903984 -0.2940424 -0.075697005 -0.43257987 0.18130445 -0.07819595 0.060259357
0.1523312 -0.13463974 0.15623417 0.09230103 -0.17994769 -0.008811688 0.16239646 -0.053847037
-0.081098974 -0.03468323 -0.009329008 0.13275371 -0.4985354 -0.080493785 -0.059993062 0.13979726
-0.07468574 -0.020603174 0.038460605 -0.07903561 0.063983336 -0.061110612 -0.091882735 0.07717985
-0.03423136 0.08671769 0.1943056 -0.00088937016 0.13687347 0.11513249 0.13689098 -0.1172882
-0.05750131 0.2181848 0.040844526 -0.03282645 -0.05781976 -0.12624331 -0.033736836 0.010651049
0.09056798 -0.12189274 0.053142563 0.12348963 -0.0491944 0.021182042 0.020149978 -0.08972473
0.06767271 -0.10601612 -0.1161861 0.06222461 0.03215376 0.18041934 0.10252068 -0.23454629
-0.023560088 0.22118412 -0.23693463 0.0798932 -0.39545467 -0.075208314 0.152135 -0.30971986
-0.40469998 0.06786064 0.16515596 -0.1864161 -0.17809367 -0.17130074 -0.006181639 0.056156296
-0.28807914 0.135249 -0.4364793 -0.021251526 0.087094106 0.07885233 0.027159022 0.1083423
0.13170245 0.00642067 0.09196329 0.01113598 -0.81330115 0.057784606 -0.3065951 -0.16000646
0.12937865 -0.072103426 0.0041879965 -0.010886819 -0.02375606 0.08572441 0.039382316 -0.094695345
-0.050082352 -0.08460136 0.04508947 -0.021797443 -0.12035402 0.18363404 -0.03946405 -0.09058582
-0.04873118 -0.17773482 -0.00506985 0.06280372 -0.061983403 -0.11617108 0.0014087221 0.06294465
-0.086381495 -0.1379237 -0.1307087 0.08993053 0.059490148 0.060354188 -0.49944404 0.028933797
-0.025852121 -0.40495348 -0.07658864 -0.029667363 -0.18867497 -0.34913096 0.08180933 0.004399136
-0.06818935 -0.05388575 0.0014837267 -0.05804771 -0.012597307 0.11725848 0.23663959 0.15857086
0.014062983 -0.095898636 0.012031691 0.11677529 0.04709454 0.016189689 -0.35432318 0.13913673
0.2825746 -0.07904761 -0.21119334 -0.13226181 -0.13180164 0.023989238 0.10113326 0.17368896
0.047966067 0.118666664 -0.15448926 -0.25240138 -0.09451511 0.06809831 0.09886581 0.164363
-0.06588043 -0.2100907 -0.011713024 -0.056767967 -0.1028664 -0.0336019 0.07316363 -0.048795637
-0.075650565 -0.08423257 0.016641956 0.053142764 0.11032694 -0.058698997 -0.114549614 0.19258082
0.1557707 -0.066560656 0.013952634 0.038404115 -0.117641725 0.047406126 -0.14332274 0.023230538
0.051087752 0.103194274 0.16291179 0.17473829 0.16169441 -0.075917445 0.06743171 0.17196378
0.12384652 0.08480747 -0.075013876 -0.014420737 0.043478902 0.15914367 -0.018044015 0.13565896
-0.15469237 -0.043386836 -0.0332041 -0.15002975 -0.17889918 -0.10021851 -0.15207171 -0.1829905
0.015554107 -0.34017697 -0.020534087 -0.0029531287 -0.027603358 0.059279785 0.16823693 -0.1592601
-0.009719194 -0.6284815 -0.19130811 0.002224183 -0.06864463 -0.11776589 0.045082062 0.03336841
-0.0023967596 0.09082226 -0.002681644 0.00415263 -0.2521166 0.07005115 -0.100282915 0.079502665
-0.009502599 -0.16027793 -0.19240701 -0.15425129 0.0013792815 0.11088845 -0.20353514 0.029191842
00000000: 2d5d 80bd 089c 453c 9073 cf3d 2e84 02bd
00000010: dfa5 11be 4326 38be 4b9d ec3c fcc6 71be
00000020: 552e 9abd d9b1 58bd ba8c 96be 0807 9bbd
00000030: 1c7b ddbe e0a7 393e 3325 a0bd 84d2 763d
00000040: b6fc 1b3e 00df 09be dafb 1f3e 5308 bd3d
00000050: 3544 38be e65e 10bc 424b 263e b68e 5cbd
00000060: 3817 a6bd 0110 0ebd b2d8 18bc 97f0 073e
00000070: 0840 ffbe edd9 a4bd 49bb 75bd 0327 0f3e
00000080: d6f4 98bd fdc7 a8bc de88 1d3d 6cdd a1bd
00000090: b209 833d 1f4f 7abd 042d bcbd 7810 9e3d
000000a0: 2f36 0cbd 0b99 b13d 0cf8 463e 9f24 69ba
000000b0: 8f28 0c3e 95ca eb3d 262d 0c3e cc34 f0bd
000000c0: 7e86 6bbd d66b 5f3e 974c 273d 0775 06bd
000000d0: 6ad4 6cbd ed45 01be a32f 0abd bd81 2e3c
000000e0: b57b b93d e7a2 f9bd 04ac 593d 22e8 fc3d
000000f0: 1180 49bd f685 ad3c 9111 a53c 99c1 b7bd
00000100: fd97 8a3d fb1e d9bd faf2 edbd 3cdf 7e3d
00000110: a9b3 033d d9bf 383e 5df6 d13d e72c 70be
00000120: 1601 c1bc 177e 623e fe9e 72be 0c9f a33d
00000130: 0979 cabe d106 9abd 47c9 1b3e 9a93 9ebe
00000140: d634 cfbe 85fa 8a3d a51e 293e dde3 3ebe
00000150: 305e 36be 7669 2fbe 598f cabb 2504 663d
00000160: 1c7f 93be b77e 0a3e 377a dfbe ae17 aebc
00000170: 655e b23d 557d a13d 997c de3c 91e2 dd3d
00000180: 02dd 063e 7c64 d23b 4057 bc3d af73 363c
00000190: 8134 50bf 8daf 6c3d 08fa 9cbe bcd8 23be
000001a0: d67b 043e f6aa 93bd 763b 893b a15e 32bc
000001b0: 129c c2bc 4890 af3d 5a4f 213d a2ef c1bd
000001c0: 2723 4dbd 7a43 adbd bcaf 383d 8d90 b2bc
000001d0: 2b7c f6bd 900a 3c3e 0ea5 21bd 0f85 b9bd
000001e0: 599a 47bd 1e00 36be fc20 a6bb 3d9f 803d
000001f0: 4fe2 7dbd 1aeb edbd dfa4 b83a 20e9 803d
00000200: c8e8 b0bd df3b 0dbe 80d8 05be 7f2d b83d
00000210: f1ab 733d f435 773d 21b7 ffbe 9206 ed3c
00000220: d4c7 d3bc 1056 cfbe 81da 9cbd f808 f3bc
00000230: 0334 41be 4bc1 b2be a68b a73d a126 903b
00000240: dca6 8bbd 4eb7 5cbd 9b79 c23a 70c3 6dbd
00000250: ef64 4ebc 3725 f03d a651 723e 6660 223e
00000260: 6d68 663c 8166 c4bd 9220 453c e227 ef3d
00000270: 34e6 403d 3da0 843c d969 b5be dc79 0e3e
00000280: 9ead 903e b7e3 a1bd 1143 58be a46f 07be
00000290: 02f7 06be 1485 c43c f41e cf3d 85db 313e
000002a0: 1178 443d 8207 f33d 6f32 1ebe c13a 81be
000002b0: 2391 c1bd 2077 8b3d 287a ca3d c64e 283e
000002c0: 52ec 86bd 0422 57be fce7 3fbc 8785 68bd
000002d0: 9eab d2bd 25a2 09bd d0d6 953d efdd 47bd
000002e0: afee 9abd 2082 acbd b654 883c 3aac 593d
000002f0: 17f3 e13d 5c6e 70bd fd98 eabd e833 453e
00000300: 5b82 1f3e f450 88bd 9799 643c a24d 1d3d
00000310: 25ee f0bd ed2c 423d 32c3 12be f84d be3c
00000320: 6441 513d 8557 d33d 59d2 263e 98ee 323e
00000330: 3893 253e 9b7a 9bbd a319 8a3d 4617 303e
00000340: 3fa3 fd3d 8aaf ad3d e0a0 99bd f444 6cbc
00000350: ef16 323d 8ff6 223e 0bd1 93bc 2fea 0a3e
00000360: ad67 1ebe 65b6 31bd 0601 08bd 66a1 19be
00000370: 5931 37be 5d3f cdbd b0b8 1bbe dd61 3bbe
00000380: a7d6 7e3c ad2b aebe 1a37 a8bc 4789 41bb
00000390: 7020 e2bc 5ccf 723d 4d46 2c3e 1415 23be
000003a0: 413d 1fbc 2ae4 20bf 46e6 43be 99c3 113b
000003b0: 8e95 8cbd 3e2f f1bd f8a7 383d 50ad 083d
000003c0: f412 1dbb 0501 ba3d 85be 2fbb c912 883b
000003d0: 6d15 81be fa76 8f3d 2161 cdbd 4bd2 a23d
000003e0: cab0 1bbc e61f 24be 5806 45be 0df4 1dbe
000003f0: 02c9 b43a 7c19 e33d 846b 50be bb23 ef3c

network_body._body_endoder.seq_layers.2.bias f4 [128]
-0.012700011 -0.024447251 -0.022660606 0.07277443 -0.04256322 -0.0555714 -0.07287166 -0.033619016
-0.06515932 0.049263097 0.032195468 -0.0019256512 0.07250417 -0.08055845 -0.02290787 -0.009852785
0.038511153 0.013356345 0.035336588 0.051673602 0.024202108 0.085870475 -0.017950216 0.051878642
-0.0029634158 -0.017150132 -0.036593296 0.017014919 -0.04226806 -0.04424905 0.0071729794 -0.1123356
0.03844364 0.05890132 0.02445521 -0.029827638 -0.015568585 0.01793759 0.03303399 0.0606281
0.06760387 -0.063359484 -0.022241004 0.008773908 0.047370244 0.04395662 -0.0032283477 -0.1400364
-0.061165407 -0.0049938574 0.017647047 0.027697438 -0.037407402 -0.019670542 -0.09886564 -0.063744776
0.062116206 -0.028170206 -0.016257554 -0.034596074 -0.0668939 0.050278172 -0.06980421 0.044650152
-0.03362721 -0.01166925 -0.025241265 0.0026389824 -0.019302914 -0.03996167 -0.013608302 0.042339776
-0.055514175 -0.032977972 -0.0065141837 -0.0041458756 -0.060690567 -0.03567011 -0.06792136 0.103364885
-0.01632306 -0.07385492 0.034585092 0.031653162 -0.08097424 0.07362005 0.04655364 0.0030771277
-0.014434986 0.089151494 0.014874731 0.015232873 -0.0008212051 -0.069842786 -0.04023335 -0.027205924
0.064805605 -0.06910551 0.0003709925 -0.036146753 -0.06427191 0.03292907 0.02650695 -0.09494604
0.13701972 -0.005924716 -0.046840187 -0.00013766192 -0.06671316 0.032553393 -0.06364861 0.08804785
-0.08401342 0.16731738 0.018410916 -0.016532121 -0.09445561 0.05330583 0.0682036 0.04420388
-0.06236158 -0.05356425 -0.018619968 0.025591936 0.031360652 0.06765428 0.075992316 0.05094547
00000000: b513 50bc 9a45 c8bc bca2 b9bc c30a 953d
00000010: c556 2ebd d69e 63bd bd3d 95bd 18b4 09bd
00000020: 4072 85bd 1ac8 493d 65df 033d 2266 fcba
00000030: 117d 943d d4fb a4bd 49a9 bbbc 936d 21bc
00000040: dfbd 1d3d 92d4 5a3c 19bd 103d b3a7 533d
00000050: 8043 c63c dcdc af3d 550c 93bc b37e 543d
00000060: de35 42bb 6f7e 8cbc dae2 15bd df62 8b3c
00000070: 4621 2dbd 7e3e 35bd 500b eb3b 3510 e6bd
00000080: 1477 1d3d 8342 713d 4b56 c83c 1759 f4bc
00000090: 6113 7fbc daf1 923c a64e 073d 2c55 783d
000000a0: e673 8a3d 9ec2 81bd c432 b6bc 70c0 0f3c
000000b0: 4d07 423d db0b 343d b092 53bb b465 0fbe
000000c0: 9488 7abd 83a3 a3bb 8a90 903c bde5 e23c
000000d0: 8138 19bd 1e24 a1bc 127a cabd 9f8c 82bd
000000e0: 906d 7e3d 34c5 e6bc 902e 85bc 9db4 0dbd
000000f0: abff 88bd 7cf0 4d3d 82f5 8ebd 14e3 363d
00000100: afbc 09bd 6230 3fbc c5c6 cebc c7f2 2c3b
00000110: 2521 9ebc d9ae 23bd 5bf5 5ebc 796c 2d3d
00000120: d562 63bd e913 07bd ef74 d5bb 20da 87bb
00000130: ac96 78bd d21a 12bd 5b1a 8bbd f8b0 d33d
00000140: f0b7 85bc 4041 97bd 19a9 0d3d bfa6 013d
00000150: d3d5 a5bd 1cc6 963d 08af 3e3d a3a9 493b
00000160: b880 6cbc 0f95 b63d 25b5 733c 4d93 793c
00000170: 2446 57ba bc09 8fbd bacb 24bd f5de debc
00000180: cdb8 843d 3187 8dbd c581 c239 9e0e 14bd
00000190: fea0 83bd a2e0 063d 1a25 d93c 1273 c2bd
000001a0: e64e 0c3e 1f24 c2bb 7fdb 3fbd 5759 10b9
000001b0: e9a0 88bd b556 053d 345a 82bd 6e52 b43d
000001c0: 3a0f acbd 3f55 2b3e 7dd2 963c 5f6e 87bc
000001d0: f171 c1bd 3757 5a3d 54ae 8b3d 210f 353d
000001e0: db6e 7fbd 3066 5bbd e788 98bc 2ea6 d13c
000001f0: 0774 003d 548e 8a3d dca1 9b3d 32ac 503d

action_model._continuous_distribution.log_sigma f4 [1, 2]
-5.0688133 -5.106965
00000000: b833 a2c0 426c a3c0

action_model._continuous_distribution.mu.weight f4 [2, 128]
-0.10031047 -0.22067155 -0.046654265 -0.13038668 -0.13874365 -0.13998146 -0.02360429 -0.1511718
-0.0031046344 0.14496674 -0.030261787 -0.16361055 0.14574493 -0.33768925 -0.14005467 -0.032978
-0.24562825 0.30364642 0.081726186 0.030620791 0.052645545 0.0063465056 0.01689735 0.05953232
0.022598663 -0.07155471 0.007451851 -0.21485765 0.026201475 0.06424175 0.23585518 -0.07052733
-0.13199334 0.13133305 0.052202083 -0.1130244 0.018199261 -0.18602107 -0.0947075 -0.13958849
-0.054153733 -0.017067054 -0.027981943 0.013607644 0.049149327 -0.017017035 0.050132025 -0.05152178
0.031439364 -0.081118695 0.061219994 -0.16105217 0.068561584 -0.013369192 -0.035561908 -0.08863246
0.07473663 -0.10389157 0.1040785 -0.13008024 0.06500196 -0.29292464 -0.03141432 0.24499695
-0.18259889 0.29576305 0.13052468 0.14519805 0.09499435 -0.09115537 -0.04010549 0.0967231
0.0069789067 0.05359328 0.03534305 -0.0045585716 -0.06823753 -0.056640595 -0.048647925 0.12884466
0.09177806 -0.012108453 0.0030319795 0.0277571 -0.15755174 0.12733573 -0.050415784 -0.0014451421
-0.022772858 -0.360861 -0.07831438 -0.010089615 -0.05199786 -0.07844621 -0.083262585 -0.01646267
-0.26272044 0.029832104 0.02167135 0.12720501 0.16324914 -0.09110039 -0.19766875 -0.031999346
0.20163178 0.013381311 -0.025936257 0.048336614 -0.066015236 -0.64712125 0.020862693 0.34513697
-0.13625656 0.23103008 -0.25912336 0.14863989 -0.13613708 0.064985886 0.07859061 0.22457516
0.2424676 0.005750716 -0.0676261 -0.18631102 -0.2089945 -0.0073262914 -0.056614056 0.022732927
-0.080708675 -0.0074916156 -0.028338136 -0.037127938 0.03987005 0.007526525 -0.03217836 0.055873994
0.05493919 -0.10023362 0.07605887 0.0709161 0.23188448 0.18973106 -0.14520143 -0.038898323
-0.13877705 -0.04628296 0.04363403 -0.09729523 0.07056988 0.16626872 0.0390454 -0.18414101
0.07843135 0.05258025 0.03827734 -0.11180298 -0.0018277905 -0.10715217 -0.14918067 -0.064663015
-0.038975786 -0.006107406 -0.00047065385 -0.01645112 -0.07773572 0.117661454 -0.32102287 -0.06966687
-0.1151981 0.029002532 -0.090278074 0.10852943 -0.0896106 -0.0796623 -0.107498005 0.21184653
0.00012625041 0.24777018 -0.11859305 -0.07381431 0.041610427 -0.022856727 -0.048088595 -0.07295429
0.110685885 -0.039921414 -0.19544359 0.11928433 0.06308148 -0.32120854 -0.008285542 0.12435284
0.04832546 -0.101310335 -0.05134537 -0.15381725 -0.16323467 0.043903712 -0.14199433 0.06901951
0.026535518 0.0006473943 -0.047574382 -0.07924905 -0.07098356 0.12860206 0.035157237 0.17986117
0.053417362 0.11426111 -0.033001073 0.066547535 0.051505946 -0.2990777 -0.02882302 -0.25878233
0.077676974 -0.2522864 -0.1290401 0.23503457 0.10030052 -0.11576316 -0.017357193 0.03639301
0.28122005 -0.13276517 -0.31671837 0.028405601 -0.12368805 0.07066923 0.020819657 -0.04786122
0.031889983 -0.00049460493 0.14109623 -0.19170842 -0.015713995 0.009618164 -0.002105448 0.055722836
-0.02932269 0.12313355 -0.04991344 0.10950349 -0.053574413 -0.28375837 -0.2600853 0.066986814
0.0064543732 0.023126898 0.023740776 -0.11948574 0.086656675 0.129146 0.036968924 0.108898334
00000000: 936f cdbd b9f7 61be 8b18 3fbd 1684 05be
00000010: d112 0ebe 4d57 0fbe c95d c1bc c8cc 1abe
00000020: 1f77 4bbb 2972 143e 91e7 f7bc 8689 27be
00000030: 293e 153e 9be5 acbe 7e6a 0fbe f013 07bd
00000040: f985 7bbe 8b77 9b3e 0f60 a73d 74d8 fa3c
00000050: dba2 573d 59f6 cf3b 506c 8a3c 29d8 733d
00000060: d520 b93c 478b 92bd a82e f43b a503 5cbe
00000070: 7aa4 d63c 2e91 833d 0584 713e a270 90bd
00000080: 4329 07be 2c7c 063e dad1 553d 5679 e7bd
00000090: 9e16 953c 4f7c 3ebe 01f6 c1bd 49f0 0ebe
000000a0: 4ed0 5dbd 35d0 8bbc 633a e5bc 98f2 5e3c
000000b0: ce50 493d 4f67 8bbc 3d57 4d3d 8108 53bd
000000c0: 90c6 003d 8f21 a6bd d1c1 7a3d dcea 24be
000000d0: 046a 8c3d 750a 5bbc 5da9 11bd ef84 b5bd
000000e0: 850f 993d 1ac5 d4bd 1c27 d53d c133 05be
000000f0: bf1f 853d 38fa 95be 4dac 00bd 7be0 7a3e
00000100: 34fb 3abe 416e 973e 43a8 053e ccae 143e
00000110: 668c c23d abaf babd a745 24bd c316 c63d
00000120: 50af e43b a184 5b3d e0c3 103d 1260 95bb
00000130: 1ec0 8bbd f8ff 67bd 0c43 47bd dbef 033e
00000140: 23f6 bb3d 8862 46bc 2db4 463b dc62 e33c
00000150: 3e55 21be 4c64 023e c880 4ebd ec6a bdba
00000160: 258e babc c6c2 b8be 4a63 a0bd ea4e 25bc
00000170: b5fb 54bd 68a8 a0bd 9385 aabd b9dc 86bc
00000180: 4b83 86be 7562 f43c 1d88 b13c 0842 023e
00000190: c82a 273e d792 babd ad69 4abe bf11 03bd
000001a0: 9078 4e3e 493d 5b3c 4678 d4bc 9dfc 453d
000001b0: ff32 87bd bda9 25bf 3de8 aa3c cbb5 b03e
000001c0: d786 0bbe 2693 6c3e d1ab 84be 0e35 183e
000001d0: 8567 0bbe 5217 853d 1df4 a03d 08f7 653e
000001e0: 6d49 783e 8170 bc3b 8d7f 8abd 51c8 3ebe
000001f0: a702 56be 6311 f0bb 24e4 67bd 673a ba3c
00000200: 974a a5bd 3a7c f5bb 6125 e8bc 7713 18bd
00000210: c74e 233d 11a1 f63b 75cd 03bd 21dc 643d
00000220: eb07 613d 4947 cdbd c1c4 9b3d 763c 913d
00000230: 2073 6d3e dc48 423e afaf 14be d953 1fbd
00000240: 921b 0ebe 3393 3dbd 99b9 323d b942 c7bd
00000250: f186 903d 5942 2a3e 12ee 1f3d 768f 3cbe
00000260: 9ea0 a03d 635e 573d b3c8 1c3d f6f8 e4bd
00000270: 7992 efba 9972 dbbd d1c2 18be 0b6e 84bd
00000280: 13a5 1fbd a320 c8bb 17c2 f6b9 80c4 86bc
00000290: e833 9fbd 7df8 f03d 1c5d a4be 81ad 8ebd
000002a0: fbec ebbd b896 ed3c b6e3 b8bd ae44 de3d
000002b0: c385 b7bd fd25 a3bd ea27 dcbd 4cee 583e
000002c0: 1662 0439 77b7 7d3e eae0 f2bd f52b 97bd
000002d0: b26f 2a3d 083e bbbc 8cf8 44bd 0f69 95bd
000002e0: 48af e23d a384 23bd 5d22 48be 584b f43d
000002f0: dd30 813d 7275 a4be 15c0 07bc b4ac fe3d
00000300: ebf0 453d cb7b cfbd 864f 52bd 4582 1dbe
00000310: fd26 27be 61d4 333d f666 11be 1a5a 8d3d
00000320: 0461 d93c e5b5 293a 5bdd 42bd 534d a2bd
00000330: d45f 91bd 42b0 033e 0901 103d 872d 383e
00000340: 2acc 5a3d bb01 ea3d 222c 07bd 134a 883d
00000350: e6f7 523d b620 99be 411e ecbc 1e7f 84be
00000360: 1b15 9f3d af2b 81be 1723 04be e7ac 703e
00000370: 5c6a cd3d 3c15 edbd ac30 8ebc d610 153d
00000380: 13fc 8f3e 98f3 07be e928 a2be ddb2 e83c
00000390: 2950 fdbd 07bb 903d fc8d aa3c 200a 44bd
000003a0: 129f 023d 60a8 01ba 887b 103e 364f 44be
000003b0: a3ba 80bc 8195 1d3c 8efb 09bb a13d 643d
000003c0: 2336 f0bc 712d fc3d 0972 4cbd 5e43 e03d
000003d0: d870 5bbd c748 91be e729 85be 6230 893d
000003e0: 357f d33b 9f74 bd3c 047c c23c f1b4 f4bd
000003f0: 0e79 b13d d93e 043e ba6c 173d 1706 df3d

action_model._continuous_distribution.mu.bias f4 [2]
0.07518102 0.019851241
00000000: 82f8 993d 129f a23c

exp_avg f4 [128, 50]
6.850668e-21 -6e-45 -0.0016428112 -0.0016428112 -0.0012709602 -6e-45 -0.00037185042 -0.0006753495
6.850668e-21 6e-45 -0.0016428112 -0.0016428112 -0.0016436708 -6e-45 8.596191e-07 -0.0002392231
6.6179126e-21 6e-45 -0.0016428112 -0.0016428112 -0.0016428024 -6e-45 -8.577972e-09 -0.00023935668
6e-45 6e-45 -0.0016428112 -0.0016428112 -0.0016436484 -6e-45 8.3803553e-07 -0.00038753316
-6e-45 6e-45 -0.0016428112 -0.0016428112 -6e-45 -6e-45 -0.0016428112 -0.0016428112
-6e-45 -6e-45 -0.0016428112 -0.0016428112 -0.057633474 -0.0016428544 -0.059556138 -0.05773068
-0.0016429254 -0.059553098 2.6377578e-20 -6e-45 0.00074659346 0.00074659346 -3.222595e-05 6e-45
0.00077881955 0.00076948997 2.6377578e-20 -6e-45 0.00074659346 0.00074659346 0.000745799 6e-45
7.9450376e-07 0.00011489584 2.7039117e-20 -6e-45 0.00074659346 0.00074659346 0.0007466003 6e-45
-6.826979e-09 0.00011476052 -6e-45 6e-45 0.00074659346 0.00074659346 0.00074592244 -6e-45
6.710653e-07 0.00018543849 6e-45 6e-45 0.00074659346 0.00074659346 6e-45 -6e-45
0.00074659346 0.00074659346 6e-45 -6e-45 0.00074659346 0.00074659346 0.026188591 0.0007465993
0.027066868 0.026190866 0.0007466117 0.027066013 1.5990068e-19 -6e-45 0.0092075635 0.0092075635
0.0038861537 -6e-45 0.0053214133 0.0063750623 1.5990068e-19 -6e-45 0.0092075635 0.0092075635
0.009205992 -6e-45 1.5712452e-06 0.0013916012 1.6224376e-19 6e-45 0.0092075635 0.0092075635
0.009207606 -6e-45 -4.469434e-08 0.0013915054 -6e-45 -6e-45 0.0092075635 0.0092075635
0.009209098 6e-45 -1.5366519e-06 0.0022517375 -6e-45 -6e-45 0.0092075635 0.0092075635
6e-45 6e-45 0.0092075635 0.0092075635 6e-45 6e-45 0.0092075635 0.0092075635
0.32318485 0.0092077935 0.33380383 0.32318705 0.009207815 0.33380377 -1.859653e-19 -6e-45
-0.022850277 -0.022850277 -0.008222724 6e-45 -0.014627551 -0.017004525 -1.859653e-19 -6e-45
-0.022850277 -0.022850277 -0.022844024 6e-45 -6.2532213e-06 -0.003482748 -1.8840822e-19 -6e-45
-0.022850277 -0.022850277 -0.022850411 6e-45 1.414116e-07 -0.0034821967 -6e-45 6e-45
-0.022850277 -0.022850277 -0.022852354 -6e-45 2.0794093e-06 -0.005634404 -6e-45 6e-45
-0.022850277 -0.022850277 -6e-45 6e-45 -0.022850277 -0.022850277 -6e-45 6e-45
-0.022850277 -0.022850277 -0.802173 -0.022850843 -0.828399 -0.8018289 -0.022850646 -0.828411
-1.3122979e-19 -6e-45 -0.014476048 -0.014476048 -0.005804676 6e-45 -0.008671366 -0.010275575
-1.3122979e-19 -6e-45 -0.014476048 -0.014476048 -0.014472857 6e-45 -3.1910643e-06 -0.0021940987
-1.3411533e-19 -6e-45 -0.014476048 -0.014476048 -0.014476121 6e-45 7.473005e-08 -0.0021938235
-6e-45 -6e-45 -0.014476048 -0.014476048 -0.014477544 6e-45 1.496211e-06 -0.003549785
-6e-45 6e-45 -0.014476048 -0.014476048 6e-45 6e-45 -0.014476048 -0.014476048
6e-45 6e-45 -0.014476048 -0.014476048 -0.50813335 -0.014476406 -0.524804 -0.5080653
-0.014476388 -0.52480614 -1.5490476e-19 6e-45 -0.009928384 -0.009928384 -0.0045801317 -6e-45
00000000: cc67 011e 0400 0080 9953 d7ba 9953 d7ba
00000010: 5996 a6ba 0400 0080 ebf4 c2b9 f009 31ba
00000020: cc67 011e 0400 0000 9953 d7ba 9953 d7ba
00000030: 7170 d7ba 0400 0080 93c0 6635 f6d7 7ab9
00000040: 8604 fa1d 0400 0000 9953 d7ba 9953 d7ba
00000050: 4d53 d7ba 0400 0080 525e 13b2 d2fb 7ab9
00000060: 0400 0000 0400 0000 9953 d7ba 9953 d7ba
00000070: b06f d7ba 0400 0080 5df5 6035 d22d cbb9
00000080: 0400 0080 0400 0000 9953 d7ba 9953 d7ba
00000090: 0400 0080 0400 0080 9953 d7ba 9953 d7ba
000000a0: 0400 0080 0400 0080 9953 d7ba 9953 d7ba
000000b0: 1411 6cbd 0c55 d7ba 23f1 73bd 0177 6cbd
000000c0: 6e57 d7ba f3ed 73bd 1221 f91e 0400 0080
000000d0: 0ab7 433a 0ab7 433a 5a2a 07b8 0400 0000
000000e0: b229 4c3a 99b7 493a 1221 f91e 0400 0080
000000f0: 0ab7 433a 0ab7 433a b981 433a 0400 0000
00000100: e245 5535 3cf4 f038 9360 ff1e 0400 0080
00000110: 0ab7 433a 0ab7 433a 7fb7 433a 0400 0000
00000120: be92 eab1 96ab f038 0400 0080 0400 0000
00000130: 0ab7 433a 0ab7 433a 028a 433a 0400 0080
00000140: 4223 3435 4472 4239 0400 0000 0400 0000
00000150: 0ab7 433a 0ab7 433a 0400 0000 0400 0080
00000160: 0ab7 433a 0ab7 433a 0400 0000 0400 0080
00000170: 0ab7 433a 0ab7 433a 7589 d63c 6eb7 433a
00000180: 56bb dd3c 3a8e d63c 43b8 433a 8bb9 dd3c
00000190: 04c7 3c20 0400 0080 52db 163c 52db 163c
000001a0: d7ae 7e3b 0400 0080 405f ae3b e6e5 d03b
000001b0: 04c7 3c20 0400 0080 52db 163c 52db 163c
000001c0: bbd4 163c 0400 0080 93e3 d235 6366 b63a
000001d0: 2b8b 3f20 0400 0000 52db 163c 52db 163c
000001e0: 80db 163c 0400 0080 f2f5 3fb3 2c63 b63a
000001f0: 0400 0080 0400 0080 52db 163c 52db 163c
00000200: c2e1 163c 0400 0000 f53e ceb5 e391 133b
00000210: 0400 0080 0400 0080 52db 163c 52db 163c
00000220: 0400 0000 0400 0000 52db 163c 52db 163c
00000230: 0400 0000 0400 0000 52db 163c 52db 163c
00000240: 7c78 a53e 49dc 163c 56e8 aa3e c678 a53e
00000250: 60dc 163c 54e8 aa3e 908c 5ba0 0400 0080
00000260: 8130 bbbc 8130 bbbc 9bb8 06bc 0400 0000
00000270: 65a8 6fbc 134d 8bbc 908c 5ba0 0400 0080
00000280: 8130 bbbc 8130 bbbc 6423 bbbc 0400 0000
00000290: c3d2 d1b6 d13e 64bb e46e 5ea0 0400 0080
000002a0: 8130 bbbc 8130 bbbc c930 bbbc 0400 0000
000002b0: edd6 1734 9135 64bb 0400 0080 0400 0000
000002c0: 8130 bbbc 8130 bbbc dc34 bbbc 0400 0080
000002d0: fb8b 0b36 cea0 b8bb 0400 0080 0400 0000
000002e0: 8130 bbbc 8130 bbbc 0400 0080 0400 0000
000002f0: 8130 bbbc 8130 bbbc 0400 0080 0400 0000
00000300: 8130 bbbc 8130 bbbc 365b 4dbf b131 bbbc
00000310: f511 54bf a944 4dbf 4731 bbbc be12 54bf
00000320: c5ed 1aa0 0400 0080 f22c 6dbc f22c 6dbc
00000330: 2735 bebb 0400 0000 5812 0ebc e35a 28bc
00000340: c5ed 1aa0 0400 0080 f22c 6dbc f22c 6dbc
00000350: 901f 6dbc 0400 0000 1126 56b6 deca 0fbb
00000360: df55 1ea0 0400 0080 f22c 6dbc f22c 6dbc
00000370: 412d 6dbc 0400 0000 487b a033 40c6 0fbb
00000380: 0400 0080 0400 0080 f22c 6dbc f22c 6dbc
00000390: 3933 6dbc 0400 0000 6bd1 c835 82a3 68bb
000003a0: 0400 0080 0400 0000 f22c 6dbc f22c 6dbc
000003b0: 0400 0000 0400 0000 f22c 6dbc f22c 6dbc
000003c0: 0400 0000 0400 0000 f22c 6dbc f22c 6dbc
000003d0: 0715 02bf 732e 6dbc 8e59 06bf 9110 02bf
000003e0: 5f2e 6dbc b259 06bf 17e1 36a0 0400 0000
000003f0: a9aa 22bc a9aa 22bc ee14 96bb 0400 0080

exp_avg_sq f4 [128, 50]
8.362467e-05 1.761432e-06 0.003920632 0.0039184056 0.00054141454 4.1145845e-06 0.0035485872 0.0035468317
0.00014423409 3.4844466e-05 0.0038271537 0.0038405368 0.0012769075 2.1373127e-05 0.003737612 0.003530671
0.00012957996 7.2111834e-06 0.0038893337 0.0038748253 0.00061577745 3.478928e-05 0.0033414885 0.0034884333
6.2144536e-05 1.00176485e-05 0.003931476 0.003937635 0.0011852332 3.437492e-05 0.0037605383 0.0034978255
6.3381165e-05 3.3544213e-05 0.0039087227 0.003914356 1.9473796e-06 2.6738404e-05 0.003971903 0.003979979
1.9473796e-06 2.6738404e-05 0.003971903 0.003979979 1.434102 0.004000961 5.1095977 1.4364107
0.0040009804 5.1095734 0.0006150195 5.416858e-06 0.0020585363 0.00226095 0.0006140037 2.8601914e-06
0.0020492713 0.0023610038 0.00062663545 2.4382402e-07 0.00204432 0.002355344 0.00029219085 9.885947e-06
0.0021062044 0.002351245 0.00019878647 1.302329e-07 0.0023057268 0.0025642428 0.00056754757 1.5333606e-05
0.0020930106 0.002335654 1.7793795e-05 6.5544045e-06 0.0026492183 0.0026563369 0.00013527689 7.6418355e-06
0.0023572275 0.0024700852 1.3899381e-05 3.5596224e-07 0.0026585055 0.002659823 1.0730408e-06 3.6491485e-06
0.0026697451 0.0026711326 1.0730408e-06 3.6491485e-06 0.0026697451 0.0026711326 1.5731018 0.0026745445
3.2802677 1.5749217 0.0026745708 3.2801712 0.0065401075 4.458384e-05 0.16164936 0.16317074
0.0102284495 0.0005145066 0.15027645 0.15488191 0.006262525 4.6890295e-06 0.16171822 0.16387181
0.017021993 0.0011444812 0.14799707 0.14857289 0.0035215537 2.2851088e-06 0.16321304 0.16484006
0.016427195 0.0044961 0.14959256 0.15058234 1.0479705e-08 0.0064117843 0.1616499 0.1649303
0.021696912 0.0024895351 0.1526298 0.15311782 5.463678e-10 5.5884597e-05 0.16817285 0.16817015
5.626886e-10 3.7378348e-05 0.16820318 0.16820818 5.626886e-10 3.7378348e-05 0.16820318 0.16820818
89.53422 0.16821729 206.9525 89.50593 0.16821699 206.97641 0.019073626 0.0038252478
0.9634138 0.9697114 0.030480208 0.0049534324 0.91074216 0.9342349 0.01737918 0.0019663237
0.96507424 0.9745225 0.100410126 0.0093541285 0.88721114 0.87898153 0.007350357 0.0009685872
0.97290254 0.9833949 0.10289674 0.024998635 0.85633874 0.86317664 0.0005663272 0.026294155
0.96294576 0.9784628 0.1147177 0.021143517 0.87558097 0.8856019 0.00033554007 0.0022766679
0.9829831 0.98309964 1.1502059e-05 0.0069204895 0.97869563 0.9813051 1.1502059e-05 0.0069204895
0.97869563 0.9813051 431.9875 0.98550695 1225.1414 431.95712 0.985506 1225.195
0.010864407 0.00014479754 0.20365094 0.20636825 0.018091923 0.00063145027 0.17849901 0.18815792
0.010541884 5.775498e-07 0.20410098 0.20808937 0.03901967 0.0010186575 0.17145474 0.17066099
0.005602287 1.0891696e-07 0.20662689 0.210451 0.040316895 0.0029126867 0.17246915 0.17340617
5.5587432e-09 0.0025432988 0.21215427 0.21455108 0.047023106 0.0009211004 0.17672935 0.17753445
3.44376e-09 1.4756322e-05 0.21486166 0.2148544 5.5536326e-10 6.8674008e-06 0.21486872 0.21486874
5.5536326e-10 6.8674008e-06 0.21486872 0.21486874 153.11838 0.21488461 272.96637 153.08817
0.21488453 272.9982 0.0040384363 0.0001844051 0.14404024 0.14438492 0.009176996 0.00029576282
00000000: a75f af38 586a ec35 a578 803b f865 803b
00000010: b7ed 0d3a 0310 8a36 6a8f 683b f671 683b
00000020: 8b3d 1739 f625 1238 fcd0 7a3b 84b1 7b3b
00000030: e85d a73a 714a b337 b9f2 743b d462 673b
00000040: dbdf 0739 98f7 f136 31e4 7e3b c8f0 7d3b
00000050: 206c 213a b4ea 1138 e0fc 5a3b 339e 643b
00000060: 9853 8238 7911 2837 9cd3 803b 4707 813b
00000070: d459 9b3a ca2d 1038 5d73 763b c63b 653b
00000080: 81eb 8438 d3b1 0c38 be14 803b 0044 803b
00000090: baaf 0236 494c e037 bd26 823b 7c6a 823b
000000a0: baaf 0236 494c e037 bd26 823b 7c6a 823b
000000b0: a890 b73f 7e1a 833b d381 a340 4edc b73f
000000c0: a81a 833b a081 a340 4339 213a 75c2 b536
000000d0: 82e8 063b 722c 143b 17f5 203a b7f1 3f36
000000e0: 114d 063b 12bb 1a3b cb44 243a ebe6 8234
000000f0: 00fa 053b 1d5c 1a3b 3131 9939 d2db 2537
00000100: 3f08 0a3b 5817 1a3b 5671 5039 26d6 0b34
00000110: ad1b 173b db0c 283b 79c7 143a aba0 8037
00000120: e42a 093b c611 193b e243 9537 e8ed db36
00000130: 829e 2d3b f015 2e3b 1dd9 0d39 6f35 0037
00000140: b77b 1a3b 27e1 213b 6331 6937 141b bf34
00000150: 523a 2e3b 6d50 2e3b 6705 9035 e5e3 7436
00000160: e4f6 2e3b 2b0e 2f3b 6705 9035 e5e3 7436
00000170: e4f6 2e3b 2b0e 2f3b 665b c93f 6947 2f3b
00000180: e8ef 5140 0997 c93f da47 2f3b 53ee 5140
00000190: 664e d63b 89ff 3a38 6987 253e 3b16 273e
000001a0: 3a95 273c f4df 063a 12e2 193e 5d99 1e3e
000001b0: de35 cd3b 7556 9d36 7699 253e 03ce 273e
000001c0: b571 8b3c 6b02 963a 8b8c 173e 7e23 183e
000001d0: dec9 663b df59 1936 5221 273e d5cb 283e
000001e0: 5392 863c 0554 933b cb2e 193e 4232 1a3e
000001f0: 3b0a 3432 f219 d23b 8d87 253e 7de3 283e
00000200: b9bd b13c 7827 233b fc4a 1c3e ebca 1c3e
00000210: 372f 1630 a165 6a38 8135 2c3e cc34 2c3e
00000220: b1ab 1a30 b2c6 1c38 743d 2c3e c43e 2c3e
00000230: b1ab 1a30 b2c6 1c38 743d 2c3e c43e 2c3e
00000240: 8511 b342 2741 2c3e d7f3 4e43 0903 b342
00000250: 1341 2c3e f6f9 4e43 4b40 9c3c 02b1 7a3b
00000260: 49a2 763f 023f 783f a1b1 f93c 6750 a23b
00000270: 6626 693f 052a 6f3f c85e 8e3c 70dd 003b
00000280: 1b0f 773f 4e7a 793f d3a3 cd3d 0f42 193c
00000290: 4520 633f ef04 613f 43db f03b c9e8 7d3a
000002a0: 2410 793f c5bf 7b3f 87bb d23d f0c9 cc3c
000002b0: 0439 5b3f 25f9 5c3f 9375 143a d766 d73c
000002c0: 9d83 763f 8a7c 7a3f 1df1 ea3d 2b35 ad3c
000002d0: 1326 603f ceb6 623f 6deb af39 2634 153b
000002e0: c8a4 7b3f 6bac 7b3f f8f8 4037 46c5 e23b
000002f0: cc8b 7a3f d036 7b3f f8f8 4037 46c5 e23b
00000300: cc8b 7a3f d036 7b3f 66fe d743 2f4a 7c3f
00000310: 8624 9944 83fa d743 1f4a 7c3f 3d26 9944
00000320: a000 323c cbd4 1739 df89 503e 3352 533e
00000330: 8335 943c e987 253a 72c8 363e 78ac 403e
00000340: deb7 2c3c ec08 1b35 d9ff 503e 6115 553e
00000350: 17d3 1f3d 7984 853a d591 2f3e c1c1 2e3e
00000360: 6493 b73b bbe5 e933 0096 533e 7880 573e
00000370: 5423 253d c6e2 3e3b c19b 303e 6391 313e
00000380: 39ff be31 79ad 263b f83e 593e 47b3 5b3e
00000390: 4d9b 403d 0076 713a 8af8 343e 97cb 353e
000003a0: 44a7 6c31 ec91 7737 b204 5c3e cb02 5c3e
000003b0: 37a8 1830 866e e636 8c06 5c3e 8d06 5c3e
000003c0: 37a8 1830 866e e636 8c06 5c3e 8d06 5c3e
000003d0: 4e1e 1943 b60a 5c3e b27b 8843 9216 1943
000003e0: b10a 5c3e c57f 8843 dc54 843b de5c 4139
000003f0: 497f 133e a4d9 133e 1c5b 163c 9d10 9b39

exp_avg f4 [128]
-0.0016428112 0.00074659346 0.0092075635 -0.022850277 -0.014476048 -0.009928384 0.002138884 0.0066656275
-0.00031196154 -0.0006625572 0.00016173192 0.001455622 0.0004146116 0.0058476445 4.431435e-07 -6.0235445e-05
0.0062527484 0.006748467 0.02076971 -0.000490673 0.006072276 -0.011485786 -0.0019000791 0.006038354
0.005723087 4.5065703e-06 -0.011363891 7.279601e-05 -0.010907767 8.139627e-05 -0.0022473454 0.00013239785
-0.00039634694 6.97563e-05 -0.000119577024 0.00065516477 -0.0053328266 0.003665203 1.9653419e-06 -1.4928663e-05
-0.010625399 7.790569e-08 1.3831017e-05 -0.0010571122 -0.0011717569 -0.005372167 2.1107587e-07 -0.0007207853
-0.016911047 0.00010329966 0.004981124 0.006943694 -0.000110566 -5.9296286e-07 -0.0018596735 0.0001503593
-0.0028042602 0.00025782723 1.7417047e-07 -0.008185686 4.9641415e-08 -0.010339217 0.013934399 -0.0028446652
-0.0006942209 -0.027797481 -8.7235974e-05 -0.00040463297 -0.0024970903 -0.0010211623 0.0051206914 -2.47746e-05
-0.0032088018 0.0007288854 1.4421736e-05 -3.9953957e-05 0.00097587565 0.00022993548 0.006284614 0.0006033963
-0.003828989 -0.020604776 1.2857682e-05 4.178065e-05 -1.7481787e-05 0.0021797994 0.00070949655 -1.0767405e-06
-0.0016894271 0.0022871967 -0.024668815 -0.004608723 0.000551653 0.019004833 0.0031624692 0.0002786959
-0.035883244 -0.0088605 -0.0036127146 -0.0038062334 -0.004458277 -0.0025513049 -0.0023769843 0.0039038402
1.0824858e-06 -0.0070737703 -0.00049082644 -4.971192e-05 0.00727551 -0.01686394 -0.0067944787 0.0012996943
-0.00027419836 0.0044553066 -0.00010401581 0.0073919934 -0.0022349767 -0.007066944 2.4986222e-05 -0.008272515
-5.3263488e-08 0.0007970672 8.747781e-05 0.0031062916 3.1081603e-07 -0.001341374 0.0058665224 2.8866122e-08
00000000: 9953 d7ba 0ab7 433a 52db 163c 8130 bbbc
00000010: f22c 6dbc a9aa 22bc 852c 0c3b 566b da3b
00000020: c58e a3b9 76af 2dba 9596 2939 92ca be3a
00000030: 3a60 d939 999d bf3b 2ee9 ed34 51a5 7cb8
00000040: dbe3 cc3b 3f22 dd3b 3d25 aa3c 82a0 00ba
00000050: f1f9 c63b e12e 3cbc 130c f9ba 62dd c53b
00000060: bc88 bb3b 2537 9736 9d2f 3abc 0faa 9838
00000070: 7eb6 32bc 4ab3 aa38 3348 13bb 47d4 0a39
00000080: c9cc cfb9 214a 9238 6dc5 fab8 5dbf 2b3a
00000090: febe aebb e733 703b 51e4 0336 1f76 7ab7
000000a0: 2716 2ebc 1b4d a733 c40b 6837 cd8e 8aba
000000b0: a395 99ba 0109 b0bb 18a4 6234 15f3 3cba
000000c0: 0989 8abc 95a2 d838 b238 a33b ed87 e33b
000000d0: abdf e7b8 192c 1fb5 4ac0 f3ba c4a9 1d39
000000e0: aec7 37bb fc2c 8739 9d03 3b34 411d 06bc
000000f0: 5035 5533 d265 29bc 1b4d 643c 906d 3abb
00000100: 60fc 35ba 8bb7 e3bc 75f2 b6b8 eb24 d4b9
00000110: 39a6 23bb 85d8 85ba 79cb a73b 0cd3 cfb7
00000120: c34a 52bb ac12 3f3a e2f4 7137 3c94 27b8
00000130: e8d1 7f3a d61a 7139 2aef cd3b 3e2d 1e3a
00000140: c7ef 7abb 59cb a8bc 53b7 5737 a23d 2f38
00000150: daa5 92b7 f7da 0e3b 82fd 393a 8684 90b5
00000160: c46f ddba cbe4 153b 4116 cabc c504 97bb
00000170: ce9c 103a 06b0 9b3c 6e41 4f3b ee1d 9239
00000180: 4ffa 12bd a12b 11bc 4bc3 6cbb 0072 79bb
00000190: bd16 92bb cb33 27bb 2ec7 1bbb 92d7 7f3b
000001a0: ee49 9135 16cb e7bb ceaa 00ba c581 50b8
000001b0: 6767 ee3b 3f26 8abc 38a4 debb 815a aa3a
000001c0: 48c2 8fb9 d2fd 913b 1023 dab8 8938 f23b
000001d0: b078 12bb d391 e7bb 8199 d137 7189 07bc
000001e0: d3c3 64b3 46f2 503a 4b74 b738 ed92 4b3b
000001f0: 3bde a634 0bd1 afba f53b c03b 46f5 f732

exp_avg_sq f4 [128]
0.0040006004 0.0026741868 0.16819601 0.9854049 0.21485418 0.14802891 0.012959352 0.10606706
0.0012062524 0.2724864 0.0014362072 0.04087628 0.2127179 0.09342531 0.0001423146 0.00015967406
0.13395168 0.11472904 0.89636827 0.0026911385 0.31255755 0.3432547 0.007223816 0.029299721
0.053433966 0.00035483905 0.9497833 0.036127992 1.5329479 0.00027213697 0.050399378 0.0024700644
0.006074692 0.04417848 0.06322803 0.12717581 0.3286595 0.16230024 0.0033976943 0.00026632496
1.6971315 0.00030951106 4.014046e-05 0.001934266 0.16873959 0.08843569 0.000102214006 0.0007457242
0.94386816 0.0009875657 0.048229314 0.12994237 0.001168229 3.2938537e-05 0.04231343 0.005485854
0.20521027 0.0029097595 0.00043034385 0.043159585 0.00035179532 0.28736955 0.37924927 0.05463708
0.08479478 1.4792627 0.00011326561 0.104805216 0.27010804 0.008063332 0.011190867 0.093168125
0.09582019 0.007614484 0.0027295812 0.0021013268 0.046998233 0.004746681 0.11218862 0.14731722
0.07246155 1.3427953 0.0002734187 0.009724726 0.00023388081 0.020700641 0.025616247 0.0034401917
0.07937303 0.002731671 2.0680044 0.0063450215 0.04984358 0.7520897 0.12039524 0.004857074
0.9789871 0.11639245 0.014860588 0.018888894 0.16853178 0.014646613 0.012252007 0.09206796
0.0012429681 0.17215392 0.026373912 5.4457716e-05 0.058394473 0.3359838 0.21586767 0.028458387
0.0153692 0.021734867 0.0024969866 0.075017214 0.0056507443 0.02154748 0.0058447155 0.43852547
6.0950697e-05 0.025127402 0.00042536622 0.020747999 0.00039984452 0.027592067 0.083425835 0.00041413726
00000000: 7817 833b 6941 2f3b 933b 2c3e 7f43 7c3f
00000010: bc02 5c3e e494 173e 7653 543c b039 d93d
00000020: 1d1b 9e3a 5683 8b3e 1e3f bc3a e36d 273d
00000030: b9d2 593e c555 bf3d 493a 1539 2e6e 2739
00000040: a12a 093e 0ff7 ea3d 6478 653f d05d 303b
00000050: 8b07 a03e 14bf af3e c3b5 ec3b f805 f03c
00000060: 93dd 5a3d b109 ba39 0025 733f f2fa 133d
00000070: a337 c43f 9bad 8e39 946f 4e3d cee0 213b
00000080: 360e c73b 7ef4 343d b37d 813d 603a 023e
00000090: 0f46 a83e 0932 263e daab 5e3b 88a1 8b39
000000a0: 9b3b d93f df45 a239 7e5c 2838 3287 fd3a
000000b0: 12ca 2c3e c51d b53d ba5b d638 b47c 433a
000000c0: 58a1 713f 3571 813a 1a8c 453d 9d0f 053e
000000d0: 431f 993a 7c27 0a38 d950 2d3d aec2 b33b
000000e0: a422 523e aab1 3e3b c69f e139 1bc8 303d
000000f0: 2b71 b839 1a22 933e f62c c23e 21cb 5f3d
00000100: e3a8 ad3d 7b58 bd3f 0389 ed38 1ea4 d63d
00000110: 9a4b 8a3e 111c 043c e659 373c eece be3d
00000120: 603d c43d ec82 f93b c6e2 323b 6ab6 093b
00000130: 3881 403d 0c8a 9b3b 26c3 e53d 53da 163e
00000140: b966 943d b7e0 ab3f a359 8f39 7554 1f3c
00000150: e73d 7539 6494 a93c 2ad9 d13c d774 613b
00000160: 548e a23d d605 333b 2f5a 0440 e6e9 cf3b
00000170: c828 4c3d f388 403f c891 f63d 1728 9f3b
00000180: e69e 7a3f 2a5f ee3d d379 733c e2bc 9a3c
00000190: 9893 2c3e 59f8 6f3c a4bc 483c 208e bc3d
000001a0: 17eb a23a 1e49 303e 1a0e d83c 8769 6438
000001b0: 0b2f 6f3d 1206 ac3e 6a0c 5d3e 9021 e93c
000001c0: 19cf 7b3c 520d b23c 7ca4 233b a0a2 993d
000001d0: e129 b93b 5784 b03c 0785 bf3b 6986 e03e
000001e0: 50a5 7f38 fbd7 cd3c b003 df39 b5f7 a93c
000001f0: 39a2 d139 c208 e23c 2adb aa3d 9020 d939
