results/imi4/VacuumCleaner/VacuumCleaner-19328.onnx (onnx, 95028 bytes, 7 tensors)

network_body._body_endoder.seq_layers.0.weight f4 [128, 50]
0	0xbd2ca218	-0.042146772
1	0x3f031b7c	0.5121381
2	0x3d52e0fa	0.051484086
3	0x3d5fe131	0.05465812
4	0x3c156283	0.009117725
5	0x3f76e219	0.9643875
6	0xbed7db2c	-0.42159402
7	0xbedf45bf	-0.436079
8	0xbebd92be	-0.37026018
9	0xbf6176e2	-0.88072026
10	0x3f0b8a5f	0.5450801
11	0x3e273634	0.1632927
12	0x3eb4cb59	0.35311392
13	0xbf1a7f26	-0.60350263
14	0x3e60c318	0.21949422
15	0x3e0d37c5	0.13790806
16	0x3e4a70f1	0.19769646
17	0xbf15ebc1	-0.58562857
18	0xbc994f3d	-0.018714542
19	0xbdd14662	-0.102185026
20	0xbd8056f2	-0.062665835
21	0xbe935b44	-0.28780568
22	0xbcec1131	-0.028816791
23	0xbd1d3460	-0.038380027
24	0x3e934c46	0.2876913
25	0x3ed5992f	0.41718432
26	0xbe6319eb	-0.22177856
27	0x3e065b3b	0.13120739
28	0xbe898079	-0.2685583
29	0x3d478eff	0.048720356
30	0x3e2c1786	0.16805848
31	0xbde712d6	-0.112828895
32	0x3ed2572c	0.41082132
33	0xbf2fdb8e	-0.6869439
34	0xbe5ac3ad	-0.21363707
35	0x3c19ce5a	0.009387577
36	0xbe873055	-0.26404062
37	0xbcecaf9d	-0.028892333
38	0x3cafaf37	0.021445854
39	0x3d4b1749	0.049582753
40	0x3dde0502	0.10840799
41	0x3d1463df	0.036228057
42	0x3e038d40	0.12846851
43	0xbdc61fab	-0.09674009
44	0x3e0a7add	0.13523431
45	0x3efd24ae	0.49442047
46	0x3e64c00f	0.2233889
47	0xbcb07493	-0.021539962
48	0x3e54d645	0.20784862
49	0x3d46cd5a	0.048535682
50	0x3c638659	0.013887011
51	0xbf1f4e3f	-0.6222877
52	0x3d7a597d	0.0611205
53	0x3e1e5c8c	0.15464991
54	0xbe5ebee6	-0.2175251
55	0xbf9248fd	-1.1428524
56	0x3ec90ba1	0.39266685
57	0x3da8c73f	0.08241128
58	0x3ede0ac4	0.4336759
59	0x3e265bf1	0.1624601
60	0xbe57f460	-0.21089315
61	0x3e681a8e	0.2266638
62	0xbefed7b8	-0.49773955
63	0xbf25477d	-0.6456221
64	0x3d1ef1ff	0.038805004
65	0xbe6fc560	-0.23415136
66	0x3f046bbf	0.5172691
67	0x3f656600	0.89608765
68	0xbe714cdb	-0.23564474
69	0xbe06ed9d	-0.1317658
70	0xbeddce4a	-0.4332145
71	0xbf11be15	-0.5693067
72	0x3e0d53a7	0.13801442
73	0xbe19b227	-0.15009366
74	0x3e7e5fb8	0.24841201
75	0xbf2d18ec	-0.6761615
76	0x3dd86402	0.1056595
77	0x3e0e795d	0.13913484
78	0xbe432e85	-0.19060715
79	0xbe08a405	-0.13343818
80	0x3dfcd791	0.123458035
81	0x3df6cecb	0.120511614
82	0x3e7099ea	0.23496214
83	0xbdaa2b82	-0.0830908
84	0xbece2282	-0.40260702
85	0xbc99fad8	-0.01879637
86	0x3e49e960	0.19717932
87	0x3d9d52f7	0.0768184
88	0xbebc7627	-0.36808893
89	0xbe8c5210	-0.2740636
90	0x3e195dac	0.14977139
91	0xbc5425b5	-0.012948443
92	0xbe9ac1fd	-0.30226126
93	0xbeadd514	-0.33951628
94	0x3d1af1e3	0.037828337
95	0xbe109c6c	-0.1412217
96	0xbc1be52b	-0.009515087
97	0x3dd78d87	0.10525041
98	0x3de5b566	0.1121624
99	0xbdcd6f9b	-0.10031053
100	0xbe55f35c	-0.20893615
101	0xbe5fe03b	-0.21862881
102	0xbb05a9e2	-0.0020395448
103	0xbc6c591e	-0.014425544
104	0xbec28bda	-0.37997323
105	0xbc46ba65	-0.012129401
106	0x3e1aec93	0.15129308
107	0xbcd5b60e	-0.026087787
108	0xbe16be18	-0.14720953
109	0x3caad7d1	0.020854862
110	0x3c897e30	0.016783804
111	0x3dffca64	0.12489775
112	0xbef49b2e	-0.47774643
113	0x3d4af886	0.049553417
114	0xbe1c7e9a	-0.1528267
115	0x3e02bfcf	0.12768482
116	0xbd6dec46	-0.058086656
117	0xbec27fa3	-0.37988004
118	0x3d840c7c	0.06447694
119	0xbcbc55ff	-0.022990225
120	0xbee8a07a	-0.45434934
121	0x3e846cc7	0.2586424
122	0xbdad6001	-0.08465577
123	0x3e53c49a	0.20680466
124	0x3e0607ef	0.13088964
125	0xbeba52ba	-0.3639124
126	0xbdd498f5	-0.10380737
127	0xbe25e6ee	-0.16201374
128	0x3dfa350c	0.12217149
129	0xbebae4a5	-0.36502567
130	0xbd63f96d	-0.055657793
131	0xbea1a7eb	-0.31573424
132	0x3e402b98	0.1876663
133	0xbf9381a4	-1.1523938
134	0xbbf13391	-0.0073608835
135	0x3e8c43f2	0.27395588
136	0x3d600b1e	0.054698102
137	0xbf0e4811	-0.55578715
138	0x3e0404b6	0.12892422
139	0x3def2557	0.11677044
140	0xbb2d4cc3	-0.0026443459
141	0xbf1bea89	-0.6090475
142	0x3eb3e422	0.3513499
143	0x3c4300ee	0.011902077
144	0xbe5fe34a	-0.21864048
145	0xbe76fb36	-0.24119267
146	0xbd989482	-0.074502006
147	0xbc0d8eb4	-0.00863998
148	0xbde68033	-0.11254921
149	0x3d3f685a	0.046730377
150	0xbf12f75d	-0.57408696
151	0x3f4a00ac	0.78907275
152	0xbe967f45	-0.29393974
153	0x3c9cccfa	0.01914071
154	0xbf1e3f10	-0.61814976
155	0x3f197dbd	0.59957486
156	0xbea9f7b8	-0.33196807
157	0xbdb667d1	-0.0890652
158	0xbed71919	-0.42011335
159	0x3eb15d2f	0.34641406
160	0xbdd7cc7b	-0.105370484
161	0xbc698b2c	-0.014254373
162	0xbe7b9956	-0.24570212
163	0xbb2f0ee1	-0.002671175
164	0x3e498fd7	0.19683777
165	0xbe1fa5d9	-0.1559061
166	0xbd716d89	-0.05894235
167	0x3da83d93	0.08214869
168	0x3d53f485	0.051746864
169	0x3e73666c	0.2376954
170	0xbe626f3e	-0.22112748
171	0x3ed2889e	0.41119856
172	0xbea2be19	-0.31785658
173	0xbe1aa2a2	-0.15101102
174	0xbdb4166b	-0.087933384
175	0x3e812d2b	0.25229773
176	0xbee458af	-0.4459891
177	0x3e090ffd	0.13385005
178	0xbbfba99e	-0.007680132
179	0x3e827c70	0.25485563
180	0xbf078eda	-0.5295235
181	0xbd2b7c65	-0.04186668
182	0xbd2f86f6	-0.04285332
183	0x3c313821	0.010816605
184	0x3d09808b	0.033569854
185	0x3e58e837	0.21182333
186	0x3edf690d	0.43634835
187	0xbe3bd4b6	-0.18342862
188	0xbcc9ff88	-0.02465798
189	0xbd29300f	-0.041305598
190	0x3ec94511	0.39310506
191	0x3da16a8b	0.078816496
192	0xbddbd0d6	-0.10733192
193	0x3dd6bb1a	0.104849055
194	0x3d56c7b5	0.05243655
195	0xbe139366	-0.14411697
196	0x3e076b13	0.1322444
197	0x3c7b28a0	0.01532951
198	0x3d58bc72	0.05291409
199	0xbeb90503	-0.36136636
200	0x3e94c739	0.29058245
201	0x3e1e7b00	0.15476608
202	0x3d57ff8f	0.052733954
203	0xbe2f4ceb	-0.17119186
204	0x3cbac490	0.022798806
205	0x3eb5192f	0.35370776
206	0xbe97c7e1	-0.29644683
207	0xbd374ee4	-0.04475297
208	0x3d575274	0.052568868
209	0xbed088e2	-0.40729433
210	0xbc116fef	-0.008876785
211	0x3e8554b4	0.26041186
212	0x3f4eaef6	0.8073572
213	0xbebce338	-0.36892104
214	0xbe211b16	-0.15732989
215	0xbe5a91e9	-0.21344723
216	0x3eeb3862	0.45941454
217	0x3f244a7b	0.6417615
218	0xbf059ff4	-0.52197194
219	0x3de6440c	0.11243448
220	0x3e1ecd36	0.1550797
221	0xbe8e5404	-0.27798474
222	0xbe7a795c	-0.24460357
223	0xbe4cd9e4	-0.20004994
224	0x3daba139	0.0838036
225	0x3f823920	1.0173683
226	0xbe893024	-0.2679454
227	0xbcee1589	-0.029063003
228	0xbdd4ec09	-0.10396583
229	0x3f9d5c9e	1.229389
230	0xbe4b0db0	-0.1982944
231	0xbec00a2c	-0.3750776
232	0x3e762ec9	0.24041285
233	0xbe8fa771	-0.28057435
234	0xbe09f28f	-0.13471435
235	0xbd133e2e	-0.03594797
236	0x3e0ee18d	0.13953228
237	0xbe4938fe	-0.19650647
238	0x3dc5a6fa	0.09650989
239	0xbd8e9db7	-0.069636755
240	0xbd121740	-0.035666704
241	0xbe4b6cd4	-0.19865733
242	0xbdd57b4a	-0.10423906
243	0xbb87e666	-0.0041473387
244	0xbe231e0a	-0.15929428
245	0xbdd37466	-0.103249356
246	0xbdaaceea	-0.08340247
247	0x3e0a0a93	0.13480596
248	0x3c360a93	0.0111109195
249	0x3bb9c293	0.005668947
250	0x3e9ede9c	0.31029212
251	0xbe44bcb1	-0.19212605
252	0xbe3accc7	-0.18242179
253	0xbe129571	-0.1431482
254	0xbd3ed558	-0.04659018
255	0xbef052fc	-0.46938312

network_body._body_endoder.seq_layers.0.bias f4 [128]
0	0x3b95de76	0.0045736386
1	0xbd5a9699	-0.053366277
2	0xbd06177c	-0.03273724
3	0xbd80548e	-0.062661275
4	0xbd6f0f2f	-0.05836409
5	0xbe102d15	-0.14079697
6	0xbcc95132	-0.02457485
7	0xbdd27714	-0.102766186
8	0xbd172d0b	-0.03690819
9	0xbd43959d	-0.047750104
10	0xbd65701f	-0.05601513
11	0xbcca9818	-0.024730727
12	0xbd88ffa9	-0.06689388
13	0xbd845c1d	-0.06462882
14	0xbc7a2a92	-0.015268939
15	0xbdda5335	-0.10660402
16	0xbd3b8c1f	-0.045787927
17	0xbd91546d	-0.07096181
18	0x3d351ef9	0.04421899
19	0xbc5651d8	-0.0130810365
20	0x3d5604c8	0.052250654
21	0xbd4117a7	-0.047141697
22	0x3d3d72e6	0.046252154
23	0x3d1bc20a	0.038026847
24	0xbccdba90	-0.025113374
25	0xbd40c939	-0.0470669
26	0xbd426dea	-0.047468103
27	0xbd35c6a2	-0.044378884
28	0xbdc1df65	-0.09466437
29	0xbd28ab18	-0.041178793
30	0x3b1f7724	0.0024332488
31	0xbda5b769	-0.08091623
32	0xbd857569	-0.06516535
33	0xbc6332a8	-0.013867058
34	0xbda73e4e	-0.081661806
35	0xbdb66764	-0.08906439
36	0xbd931003	-0.07180788
37	0x3d9baebe	0.07601689
38	0x3ca89558	0.020579025
39	0xbd62f340	-0.055407763
40	0xbd69e2fc	-0.057101235
41	0x3c87cb9d	0.016576583
42	0xbdc49a08	-0.09599692
43	0xbd691786	-0.0569072
44	0xbc8f10a9	-0.017463999
45	0xbda2157f	-0.07914256
46	0xbd794de2	-0.06086529
47	0x3b8cc1a0	0.004295543
48	0xbd42ed71	-0.047589723
49	0xbb814108	-0.00394452
50	0xbcf87280	-0.030328035
51	0x3d381598	0.04494247
52	0x3b185991	0.0023246745
53	0xbddd33a1	-0.10800863
54	0xbe25f1f2	-0.16205576
55	0xbd70c02c	-0.05877702
56	0x3bdfd1b5	0.006830419
57	0x3d63db14	0.05562885
58	0xbcab9abc	-0.020947807
59	0xbdc3fa97	-0.095692806
60	0xbd598ff6	-0.053115807
61	0xbdc41642	-0.09574558
62	0xbd838ccb	-0.064233385
63	0xbc3133ed	-0.010815603
64	0xbdd5cc5a	-0.104393676
65	0x3c6154ed	0.013753158
66	0xbcd57362	-0.026055995
67	0x3ad501d0	0.001625115
68	0xbca665fe	-0.020312306
69	0xbb40ad57	-0.0029400194
70	0x3daf74cb	0.08567198
71	0x3baab788	0.005209867
72	0xbdc526cf	-0.09626543
73	0xbd81e811	-0.06343091
74	0xbc8a7868	-0.016903117
75	0xbde6a8e2	-0.112626806
76	0x3a9d87cc	0.001201862
77	0x3c49ef4e	0.012325121
78	0x3cdb1853	0.026744997
79	0x3c8f6d4c	0.017508171
80	0xbc0c96e8	-0.008580901
81	0xbd2807f1	-0.0410232
82	0x3c536554	0.0129025765
83	0xbd793d8e	-0.06084972
84	0x3d23fed2	0.040037937
85	0xbd5175b3	-0.051137637
86	0xbe09a940	-0.1344347
87	0x3d93fbbe	0.072257504
88	0x3d8ccf7f	0.06875514
89	0xbc86637b	-0.016404858
90	0x3d2e2e36	0.04252454
91	0xbd1fa349	-0.03897408
92	0x3d8f86ba	0.07008119
93	0x3ca6971b	0.020335725
94	0xbd81acd4	-0.063317925
95	0xbcd80eac	-0.026374184
96	0xbbd601dc	-0.0065309834
97	0xbca1f01a	-0.01976781
98	0x3b1cff66	0.002395594
99	0x3e04351d	0.12910886
100	0xbd8a260a	-0.067455366
101	0x3cf9097b	0.030400028
102	0xbd146132	-0.036225505
103	0xbc3534b8	-0.011059932
104	0xbd183139	-0.037156317
105	0xbd44f98e	-0.048089556
106	0xbca31eb6	-0.019912105
107	0x3cb6147e	0.022226568
108	0xbda94538	-0.082651556
109	0x3cb2ead9	0.0218405
110	0xbdb65a3c	-0.089039296
111	0x3c884a6e	0.016637053
112	0xbbdd1784	-0.006747188
113	0xbdd8bb35	-0.10582582
114	0xbb8edfbd	-0.004360168
115	0xbdcb527b	-0.09927841
116	0xbe08c9eb	-0.13358276
117	0x3c30a1ca	0.010780761
118	0x3dbb6de3	0.091518186
119	0xbde5eb72	-0.11226548
120	0x3d2c6f10	0.042098105
121	0xbd1bcd8c	-0.03803782
122	0xbcde824b	-0.027161738
123	0x3caf31fe	0.021386143
124	0xbd9db3b1	-0.07700289
125	0xbcfa4e32	-0.030554865
126	0xbd9a1265	-0.0752304
127	0xbdbf260a	-0.09333427

network_body._body_endoder.seq_layers.2.weight f4 [128, 128]
0	0x3d6724fd	0.05643176
1	0x3ddf654a	0.10907991
2	0x3dff0614	0.12452331
3	0x3bf10303	0.0073550954
4	0xbd5de196	-0.054170214
5	0x3cb680b0	0.02227816
6	0xbe033f24	-0.12817055
7	0x3e5be336	0.21473393
8	0x3c821aa1	0.015881838
9	0x3d03fd63	0.03222407
10	0x3e0267e2	0.1273494
11	0x3e0a9748	0.13534272
12	0xbe6819b3	-0.22666053
13	0xbc6ade29	-0.014335194
14	0x3dbfef36	0.09371798
15	0x3de4f840	0.111801624
16	0x3e412bd8	0.18864381
17	0x3d85b201	0.06528092
18	0xbe049f6f	-0.12951444
19	0xbd7695a0	-0.060201287
20	0x3c8dcf66	0.01731081
21	0xbdfb8dce	-0.122829065
22	0xbd9d98a6	-0.07695131
23	0x3cbcc1ff	0.023041723
24	0x3d8bc287	0.068242125
25	0x3d9248d1	0.07142795
26	0xbda05e8e	-0.07830535
27	0xbd1a0a04	-0.037607208
28	0xbdd78815	-0.105240025
29	0xbecba6b4	-0.39775622
30	0xbe15a8d1	-0.1461518
31	0xbdbcc706	-0.09217648
32	0xbdc0fc08	-0.09423071
33	0xbc5a429e	-0.013321547
34	0xbca12435	-0.019670585
35	0x3db4232a	0.087957695
36	0x3dbec286	0.09314446
37	0xbd388637	-0.045049872
38	0x3da58959	0.080828376
39	0xbd93dcaf	-0.072198264
40	0xbca65d68	-0.020308211
41	0xbdf7aa1d	-0.120929934
42	0xbe9fc51f	-0.3120508
43	0xbd869c9d	-0.0657284
44	0x3dae6d47	0.08516937
45	0xbe4f2059	-0.20227183
46	0xbd5294ec	-0.051411554
47	0xbca1bf10	-0.019744426
48	0xbe879837	-0.26483318
49	0xbe046d4e	-0.12932321
50	0xbd352340	-0.04422307
51	0xbdb96d26	-0.090540215
52	0xbd4123bd	-0.047153223
53	0x3e1914f4	0.14949399
54	0x3d0a2c2f	0.033733543
55	0x3e17b529	0.14815201
56	0x3dd57263	0.10422208
57	0xbc1973ff	-0.0093660345
58	0x3dba5806	0.090988204
59	0x3e4afc48	0.198228
60	0xbf1e8d67	-0.6193451
61	0x3d5ea5c4	0.054357305
62	0xbd9b8ed8	-0.07595605
63	0xbe9274d8	-0.2860477
64	0xbd8a22c3	-0.067449115
65	0x3cb55677	0.022135956
66	0xbaf273f6	-0.0018497694
67	0x3d89f94f	0.06737005
68	0xbd832762	-0.06403996
69	0x3cf28a0f	0.029606847
70	0x3d0a29c5	0.03373124
71	0x3d4dd809	0.050254855
72	0xbe19e8ac	-0.15030164
73	0x3d141d2e	0.03616064
74	0xbc3f2bb8	-0.011668138
75	0x3e029bb2	0.12754706
76	0x3daf3e45	0.08556799
77	0xbdf491f5	-0.119419016
78	0xbe53fa03	-0.2070084
79	0x3da2f8c0	0.079576015
80	0xbd4dc810	-0.050239623
81	0xbe7bc9b3	-0.24588661
82	0x3d197c50	0.03747207
83	0x3cabf071	0.020988675
84	0x3bb38522	0.005478517
85	0xbe0ddfbe	-0.13854882
86	0x3d4ac848	0.04950741
87	0x3df11854	0.11772218
88	0x3da32335	0.079656996
89	0xbe6fd8f8	-0.23422611
90	0xbdbd15ab	-0.092326485
91	0x3d47cd3f	0.048779722
92	0x3d5c6f0f	0.05381685
93	0x3e515e19	0.20446052
94	0x3c9722d2	0.01844922
95	0xbde8bb22	-0.11363818
96	0x3decd6b9	0.115643926
97	0x3e3c4804	0.18386847
98	0xbe0a991c	-0.13534969
99	0xbeabd9f1	-0.33564714
100	0x3e4570be	0.19281289
101	0x3d18fb7a	0.0373492
102	0x3e59ef3b	0.21282665
103	0x3b6c3d04	0.003604711
104	0xbdd1c41c	-0.10242483
105	0x3d74b385	0.059741516
106	0xbde71112	-0.11282553
107	0x3e1feb3f	0.15617083
108	0xbd621616	-0.055196844
109	0xbde1e07d	-0.11029146
110	0x3d212091	0.0393377
111	0xbec08c90	-0.3760724
112	0xbe0f0f84	-0.13970762
113	0xbd47d1fb	-0.048784237
114	0xbddd89d4	-0.10817304
115	0xbd807233	-0.06271782
116	0xbe373641	-0.1789179
117	0xbc30a429	-0.010781326
118	0x3e0cad1a	0.13737908
119	0xbf2a1a70	-0.6644659
120	0x3cb0a113	0.021561181
121	0x3cfc19ee	0.030774083
122	0x3d1b5b71	0.037929002
123	0x3c55f6b7	0.01305931
124	0xbc6e3dcb	-0.0145411
125	0xbf32f6d0	-0.69907856
126	0x3e2a2200	0.16614532
127	0xbe2ffc78	-0.17186153
128	0xbe110f03	-0.14165883
129	0x3cc8ff1e	0.024535712
130	0x3d9b6e9a	0.07589455
131	0x3de18f68	0.11013681
132	0x3d921321	0.07132555
133	0xbd99a368	-0.075018704
134	0xbd29d31b	-0.04146109
135	0x3dd1dbb8	0.10246986
136	0x3c94bbed	0.018156016
137	0x3d0ded8c	0.03465037
138	0x3b04d28e	0.0020267102
139	0xbd4e820e	-0.050417
140	0x3cbc85b5	0.023012975
141	0xbde68219	-0.11255283
142	0xbdce73ad	-0.10080657
143	0xbde274f4	-0.11057463
144	0xbda5f396	-0.08103101
145	0xbe2d717c	-0.16937822
146	0xbc51b88b	-0.012800346
147	0xbc2601b4	-0.010132242
148	0xbd4bea89	-0.049784217
149	0xbeb1f6f6	-0.3475873
150	0xbea4b903	-0.32172403
151	0x3bba31f4	0.0056822244
152	0xbe61fac9	-0.22068323
153	0x3dcf5600	0.10123825
154	0x3de17f1a	0.11010571
155	0xbee362dd	-0.44411364
156	0xbd8c43be	-0.06848858
157	0x3c58d26d	0.013233763
158	0x3e81b2ab	0.25331625
159	0x3c6a12d5	0.0142867165
160	0xbda30ed6	-0.07961814
161	0xbcdee609	-0.027209299
162	0xbdea063e	-0.11426972
163	0xbdbf37ef	-0.0933684
164	0x3d0d81d4	0.034547642
165	0xbea182a3	-0.3154498
166	0x3bc358e4	0.0059615243
167	0x3c88f4df	0.016718326
168	0xbe11bce4	-0.14232212
169	0x3d901cec	0.070367664
170	0xbe404192	-0.18775013
171	0xbe326ed6	-0.17425093
172	0x3d9dea32	0.07710685
173	0xbd5b05af	-0.053472217
174	0x3dca43c0	0.098762035
175	0x3dffa4ee	0.1248263
176	0xbc816195	-0.015793601
177	0xbd90b425	-0.0706561
178	0xbbc73c8a	-0.006080215
179	0xbd21e3d1	-0.039523903
180	0x3de8ef66	0.11373787
181	0xbca99da3	-0.02070505
182	0xbc8b2163	-0.016983693
183	0xbc989fda	-0.01863091
184	0xbcc860c6	-0.024460208
185	0x3e10f3cd	0.14155503
186	0x3cddefdb	0.027091911
187	0xbcfdfccd	-0.031004334
188	0xbc3473be	-0.011013923
189	0xbdc448a6	-0.09584169
190	0xbd584250	-0.052797616
191	0xbe93e247	-0.28883573
192	0xbc79f082	-0.015255095
193	0x3e8d15d3	0.27555713
194	0xbde996e0	-0.1140573
195	0x3e309521	0.17244388
196	0xbe93b4c7	-0.2884886
197	0xbd161e0a	-0.03664974
198	0x3db32909	0.08748061
199	0x3d7a21f2	0.06106753
200	0x3c12d13a	0.008961016
201	0x3e0bcf5e	0.13653323
202	0xbdb371d6	-0.08761947
203	0x3d1a6416	0.037693106
204	0xbe3ee3a4	-0.18641526
205	0x3e31a12c	0.17346638
206	0x3b6c28b7	0.003603501
207	0xbcea7370	-0.028619498
208	0xbc9a341a	-0.018823672
209	0xbc151fa5	-0.009101783
210	0xbd7d09eb	-0.061777037
211	0xbe00e4ba	-0.12587252
212	0xbc917bda	-0.017759252
213	0xbc822180	-0.015885115
214	0xbd7bce38	-0.061475962
215	0x3dbe033f	0.09277963
216	0xbf4f4e0d	-0.8097847
217	0x3d956dce	0.07296334
218	0xbf61751e	-0.8806933
219	0xbdd13f62	-0.102171674
220	0xbd76431b	-0.06012259
221	0xbe43577f	-0.19076346
222	0xbddd99d3	-0.10820355
223	0x3e2b46da	0.16726246
224	0x3e04c857	0.12967049
225	0xbcb6566f	-0.022258012
226	0x3e03e5b3	0.12880592
227	0x3da059d8	0.07829636
228	0xbdf9a09d	-0.12188838
229	0x3e0bd76d	0.13656397
230	0xbdeb8e53	-0.115017556
231	0x3e35b407	0.17744456
232	0xbd79274e	-0.0608285
233	0xbdc99002	-0.098419204
234	0x3d51d3e7	0.051227476
235	0x3d44ac18	0.048015684
236	0xbc9faa0c	-0.019490264
237	0xbd6225f7	-0.055211987
238	0x3e031b4e	0.12803385
239	0x3dbbf0ba	0.09176774
240	0x3e282849	0.16421618
241	0xbec150bb	-0.37756905
242	0x3bfb6f04	0.007673146
243	0xbd417ba9	-0.047237072
244	0xbe0ac801	-0.13552858
245	0xbc663c9a	-0.0140525345
246	0x3d897708	0.067121565
247	0xbe1568a1	-0.14590694
248	0xbf4b8ed9	-0.79514843
249	0xbd0bb85b	-0.034111362
250	0xbe94e3f8	-0.29080176
251	0x3d862efb	0.065519296
252	0xbe0a3cdb	-0.13499777
253	0x3e01abfb	0.12663262
254	0x3cf15456	0.02945916
255	0xbe6c4e64	-0.23076779

network_body._body_endoder.seq_layers.2.bias f4 [128]
0	0x3d3041da	0.04303155
1	0x3d9ab441	0.07553912
2	0x3ca2dfa6	0.019882035
3	0xbda01cbc	-0.07817981
4	0x3cce5110	0.025185138
5	0x3c1bf8ec	0.009519797
6	0xbd15788c	-0.036491916
7	0x3ccb90d8	0.02484934
8	0x3d2f7896	0.04283961
9	0xbd09c734	-0.03363724
10	0xbd7c7771	-0.061637346
11	0x3d2c7792	0.04210622
12	0x3b46b628	0.0030320976
13	0x3d3532e2	0.04423798
14	0xbd5cf05c	-0.053940162
15	0xbdc142af	-0.09436547
16	0xbcf0de67	-0.029402925
17	0x3c2ac546	0.01042301
18	0xbd6cfdbe	-0.057859175
19	0xbcb2ba0f	-0.021817235
20	0xbd091c6c	-0.03347437
21	0xbd75187a	-0.059837796
22	0x3ddc7d84	0.10766128
23	0xbd45792d	-0.048211265
24	0xbca9d198	-0.020729825
25	0x3cdebe16	0.02719025
26	0xbd99d7b4	-0.07511845
27	0xbe0bbc5f	-0.13646077
28	0xbc2993bb	-0.010350163
29	0xbc45e525	-0.012078558
30	0x3d4c757e	0.049916737
31	0xbd6460ea	-0.055756487
32	0x3daf4ada	0.08559199
33	0x3c8ab213	0.016930616
34	0xbdfe9430	-0.12430608
35	0xbd4bceed	-0.049757887
36	0x3d70f79e	0.058829896
37	0xbc859c53	-0.016309893
38	0x3d8d48b4	0.06898633
39	0x3dbba3b1	0.09162081
40	0xbcbbe837	-0.022937877
41	0xbc54b260	-0.012981981
42	0x3bf90341	0.007599265
43	0xbc20b7ac	-0.009809416
44	0xbd084bbc	-0.03327535
45	0x3db20d67	0.086939625
46	0xbd14bb3e	-0.03631138
47	0xbcbf3970	-0.023342818
48	0x3d6fabc7	0.05851343
49	0xbc8d81ff	-0.017273901
50	0x3c1d2159	0.00959047
51	0x3cc7241a	0.024309207
52	0x3c582278	0.013191812
53	0x3c547515	0.012967368
54	0x3c8f0ef8	0.017463192
55	0xbdf1a8da	-0.11799784
56	0x3cb599b9	0.022168027
57	0xbdc4deba	-0.09612794
58	0xbd9e5ae3	-0.07732179
59	0x3d1d96ba	0.038473822
60	0x3d109359	0.03529677
61	0x3cd03707	0.025416864
62	0x3dac16bf	0.08402776
63	0x3cd88fbe	0.02643573
64	0x3d452edf	0.048140403
65	0x3d68ab95	0.05680426
66	0xbd04aa5b	-0.032389026
67	0xbdacc442	-0.08435871
68	0x3b859465	0.004076528
69	0x3d308613	0.043096613
70	0x3d21a48d	0.03946357
71	0xbd67fe3f	-0.056638952
72	0xbc406931	-0.01174383
73	0x3e5cd592	0.21565846
74	0xbd485a0b	-0.048913997
75	0xbd591874	-0.053001836
76	0x3d885817	0.06657427
77	0xbd8feb24	-0.070272714
78	0x3c8ead18	0.017416522
79	0xbcd3c63a	-0.025851358
80	0xbd9e5ead	-0.07732902
81	0x3d272379	0.040805314
82	0xbd3d9369	-0.04628316
83	0x3d55b3f9	0.05217359
84	0xbca6a2d9	-0.020341324
85	0x3c797ebe	0.015227972
86	0xbc855690	-0.016276628
87	0xbda294e0	-0.07938552
88	0xbcffe1ee	-0.031235661
89	0x3db8c669	0.09022219
90	0xbd81e631	-0.06342734
91	0x3dd470c4	0.10373071
92	0xbcb907e6	-0.022586774
93	0x3cacf91a	0.021114875
94	0xbd1c6856	-0.03818544
95	0x3b8d85ed	0.0043189437
96	0x3d94f98f	0.07274162
97	0x3d246145	0.040131826
98	0xbd95af72	-0.07308854
99	0xbbbf1e4c	-0.005832469
100	0xbc4593ba	-0.012059147
101	0xbd5fb263	-0.054613482
102	0xbc940fac	-0.01807388
103	0xbd37dd10	-0.044888556
104	0xbc20aece	-0.009807302
105	0xbcd32471	-0.025774213
106	0xbdc1bd05	-0.09459881
107	0x3d198ec2	0.03748966
108	0xbc9a1dff	-0.018813131
109	0x3cf5adb0	0.029990047
110	0xbd992ae2	-0.07478882
111	0x3d19652a	0.037449993
112	0x3d0c69fa	0.034280755
113	0x3d9458d5	0.07243506
114	0x3d0e5d6a	0.034757055
115	0xbd9f0595	-0.077647366
116	0xbc1a7b67	-0.0094288355
117	0xbd9ad5ae	-0.075602874
118	0xbc7f3d5e	-0.015578596
119	0x3d83821f	0.06421303
120	0x3cc1a309	0.023637312
121	0xbcbc2bf0	-0.02297017
122	0xbd72bdc8	-0.05926302
123	0xbd2a40a7	-0.041565564
124	0x3d2b3bf4	0.041805223
125	0x3d0be8ee	0.034157686
126	0x3cbac1de	0.022797521
127	0xbdb9541e	-0.09049247

action_model._continuous_distribution.log_sigma f4 [1, 2]
0	0xc09c4d25	-4.884417
1	0xc0a0a5d7	-5.020244

action_model._continuous_distribution.mu.weight f4 [2, 128]
0	0xbcc862da	-0.024461199
1	0x3e14516c	0.14484185
2	0x3e0d0562	0.13771585
3	0xbd76c56e	-0.060246877
4	0x3e0efe1f	0.13964127
5	0x3e00540c	0.12532061
6	0x3d339fcd	0.04385357
7	0xbdab7979	-0.083727784
8	0x3e0fc0a2	0.14038327
9	0xbd2897d3	-0.041160416
10	0x3e27582a	0.16342226
11	0x3c354128	0.011062898
12	0x3df6a4cd	0.12043152
13	0x3d9dc9c6	0.07704501
14	0x3cff5291	0.0311673
15	0xbda7dfb6	-0.08196966
16	0xbce7e5d1	-0.028307827
17	0xbcd270f6	-0.02568863
18	0xbda696ab	-0.081342064
19	0xbe04035e	-0.1289191
20	0xbbc71ca4	-0.0060764123
21	0xbe4346e8	-0.19070017
22	0xbe80cdc2	-0.2515698
23	0xbcc031f5	-0.023461321
24	0xbd89ecc7	-0.06734615
25	0xbe3e3755	-0.18575795
26	0xbc983dcf	-0.01858416
27	0x3bf2cdf7	0.007409807
28	0x3cb95daa	0.02262767
29	0x3b0b5948	0.0021262933
30	0x3e8bd2d0	0.27309275
31	0xb9f65df6	-0.00046990783
32	0xbe47701c	-0.1947636
33	0xbe740cfa	-0.23833075
34	0x3d9f9d53	0.07793679
35	0xbdcc07ec	-0.099624485
36	0xbb8b2cfb	-0.0042473054
37	0x3d701c4a	0.05862073
38	0xbf335e3e	-0.7006568
39	0x3e045036	0.12921223
40	0xbbf55ac3	-0.0074876263
41	0xbd7e48d1	-0.062081162
42	0xbdea324a	-0.11435373
43	0x3dc70d71	0.097193606
44	0xbe35ace0	-0.17741728
45	0x3d504ef3	0.05085654
46	0xbda08503	-0.0783787
47	0x3db2ebe9	0.087364025
48	0x3d88f3d0	0.066871285
49	0x3dc722f8	0.09723467
50	0xbd0a3d68	-0.033749968
51	0xbd071b4e	-0.032985024
52	0x3b64e1e4	0.003492468
53	0x3d624d52	0.05524952
54	0x3e555853	0.20834474
55	0x3e1f9091	0.15582491
56	0x3e1ba887	0.15201007
57	0xbd8cd588	-0.06876665
58	0xbd09a2c3	-0.033602487
59	0xbea9a139	-0.33130816
60	0xbe501403	-0.20320134
61	0x3cb425c7	0.02199067
62	0x3e0d0da8	0.1377474
63	0x3d84de1d	0.06487677
64	0xbe38ad28	-0.18034804
65	0xbc878353	-0.016542112
66	0x3d933476	0.071877405
67	0xbd036a8b	-0.03208403
68	0x3abc5687	0.0014369049
69	0x3e4bf9bd	0.19919486
70	0xbd1544be	-0.03644251
71	0x3d6d4f6c	0.05793707
72	0xbe8070fe	-0.25086206
73	0xbed91318	-0.4239738
74	0xbd1b225d	-0.03787457
75	0xbe889bf9	-0.26681498
76	0x3d9f49a0	0.07777715
77	0x3da09312	0.078405514
78	0x3dedaa78	0.1160478
79	0x3da60ab4	0.0810751
80	0xbd0fdf37	-0.035124984
81	0xbd1c9fc3	-0.0382383
82	0xbd6857bc	-0.056724295
83	0xbe9dc965	-0.30817714
84	0xbc96d7aa	-0.018413384
85	0x3e3bd8ce	0.18344423
86	0x3dd9216d	0.106020786
87	0xbdbb33db	-0.0914075
88	0x3dca8f23	0.098905824
89	0x3e30009e	0.17187735
90	0x3df259e1	0.11833549
91	0xbee8aaab	-0.4544271
92	0x3c29294b	0.010324786
93	0xbe677aea	-0.22605482
94	0xbe81c290	-0.25343752
95	0x3d92a891	0.07161058
96	0x3be99634	0.0071285013
97	0x3dd6f83b	0.10496565
98	0xbe39d38b	-0.18147103
99	0x3b191aef	0.0023362
100	0xbc79c651	-0.015245036
101	0xbcb316aa	-0.021861393
102	0xbc121a46	-0.008917397
103	0x3c422aba	0.011851007
104	0x3d8946ee	0.06702982
105	0xbce12e77	-0.027487976
106	0x3ac8573f	0.001528479
107	0x3e198d96	0.14995417
108	0xbe1c2ebc	-0.15252203
109	0xbe5f4997	-0.21805416
110	0xbdf4b822	-0.11949183
111	0xbce466f1	-0.027881118
112	0x3e70f81a	0.23532143
113	0xbd3599ca	-0.044336118
114	0xbe43f8c9	-0.19137873
115	0xbc57e95f	-0.013178199
116	0x3d889774	0.066695124
117	0xbd99a895	-0.075028576
118	0x3d719e25	0.05898871
119	0x3e4b17b5	0.19833262
120	0x3d8f40f4	0.06994811
121	0x3da33509	0.079691
122	0x3c010199	0.007873916
123	0x3d897164	0.06711081
124	0x3e18f458	0.1493696
125	0xbda0b647	-0.07847267
126	0xbdfa96f4	-0.12235823
127	0xbdce0fe8	-0.100616276
128	0x3d9b1810	0.07572949
129	0x3db96882	0.090531364
130	0x3d7fff80	0.062499523
131	0x3da96fd9	0.08273286
132	0x3d10a4b0	0.03531331
133	0x3da0118c	0.07815847
134	0xbe906958	-0.2820537
135	0x3dfdff39	0.124021955
136	0xbd67a10a	-0.056550063
137	0x3cca9f95	0.024734298
138	0x3d1cab2d	0.038249183
139	0x3d6b9a8a	0.057520427
140	0x3d3f9aeb	0.0467786
141	0x3dbf8b86	0.09352784
142	0x3d1bfc75	0.03808256
143	0x3d0c2e47	0.03422382
144	0x3d1cdebc	0.038298354
145	0xbe375e5f	-0.17907093
146	0x3dd923a5	0.10602502
147	0x3e7060b3	0.23474388
148	0x3e2678cb	0.16257016
149	0xbda54193	-0.08069148
150	0x3e3c87ef	0.1841123
151	0xbc083fca	-0.00831599
152	0xbeaf4d20	-0.3423853
153	0xbdf4eacb	-0.11958846
154	0xbcb8ef78	-0.022575125
155	0x3b8a8fb7	0.004228558
156	0xbc42314d	-0.011852575
157	0xbd838518	-0.0642187
158	0x3df70981	0.120623596
159	0xbd64f7bf	-0.05590033
160	0x3de53ccd	0.111932375
161	0x3d4d4515	0.05011471
162	0x3dbc15b6	0.091838285
163	0xbca43c1e	-0.020048197
164	0xbdb20df5	-0.08694068
165	0xbca2193c	-0.019787423
166	0xbe960c1b	-0.2930611
167	0x3cbb4dd6	0.022864264
168	0xbd47280a	-0.04862217
169	0xbd3680e4	-0.044556513
170	0xbe99d3f3	-0.30044517
171	0x3d5620a3	0.05227722
172	0x3cd8b2de	0.026452478
173	0xbdaef89b	-0.085435115
174	0x3c76e31a	0.015068794
175	0xbe3c3aa0	-0.18381739
176	0xbd986b89	-0.07442386
177	0xbe2051a2	-0.1565614
178	0x3ce5dba3	0.028058833
179	0xbd9cc193	-0.07654109
180	0xbac72818	-0.0015194444
181	0xbb8df775	-0.0043324777
182	0x3cc6dbd7	0.02427475
183	0xbc89f13d	-0.016838664
184	0xbe40f3f1	-0.18843056
185	0xbdeda1b9	-0.11603112
186	0x3d963029	0.073334046
187	0xbe8d9254	-0.27650702
188	0xbe2dc9d0	-0.16971517
189	0xbe0d8f65	-0.13824232
190	0x3d2d26e7	0.04227343
191	0xbd1cb405	-0.038257618
192	0xbd5ad81e	-0.05342876
193	0xbdfb5b9d	-0.12273333
194	0xbe52f1e7	-0.20600091
195	0xbcbac694	-0.022799768
196	0xbdca9e3d	-0.09893463
197	0xbdad736c	-0.084692806
198	0xbd2d4dab	-0.042310398
199	0xbe0a7d14	-0.13524276
200	0xbea3ed9c	-0.3201722
201	0x3e66c671	0.22536637
202	0xba3923bc	-0.0007062515
203	0x3de83390	0.1133796
204	0xbc2f3fef	-0.010696395
205	0x3d9229a8	0.071368515
206	0xbdaa9c5b	-0.08330604
207	0xbe693f39	-0.22778024
208	0x3d8b3e0d	0.067989446
209	0x3e035354	0.12824756
210	0x3e110dfe	0.14165494
211	0x3d3792d9	0.04481778
212	0xbe836fa5	-0.25671116
213	0x3d098982	0.033578403
214	0xbe2f6fec	-0.17132539
215	0xbdf280b9	-0.11840958
216	0x3dbfb177	0.093600206
217	0x3e269f09	0.16271605
218	0xbd363a96	-0.044489466
219	0x3c8699f2	0.016430829
220	0xbd30afd6	-0.04313644
221	0x3da9dc09	0.082939215
222	0x3c9058f5	0.017620543
223	0x3c828248	0.015931264
224	0x3e5a6b03	0.21329884
225	0x3e34a694	0.1764167
226	0xbce720d3	-0.028213894
227	0xbd93f698	-0.072247684
228	0xbd8e4ba0	-0.06948018
229	0x3e130599	0.14357604
230	0x3d93e548	0.07221466
231	0xbc96f527	-0.018427445
232	0x3da4b1b5	0.080417074
233	0x3db94751	0.09046806
234	0x3d8da00b	0.069152914
235	0x3d745392	0.05965001
236	0xbdd29c8b	-0.102837645
237	0xbd1c0ea8	-0.038099915
238	0xbd108168	-0.03527966
239	0x3eb3c518	0.35111308
240	0x3ca38ab8	0.019963607
241	0xbe900ddc	-0.28135574
242	0x3dfd4ece	0.123685464
243	0xbd7a82c1	-0.061159853
244	0xbc8b4c08	-0.017004028
245	0xbda0fd75	-0.07860843
246	0x3e037cc1	0.12840559
247	0xbe253199	-0.16132201
248	0x3d6e00e2	0.05810631
249	0xbdbe3545	-0.09287504
250	0x3b719b7c	0.0036866358
251	0x3d9c9c6a	0.07647021
252	0xbd5d37b7	-0.054008212
253	0x3d3d54b4	0.046223357
254	0xbdb2c187	-0.08728319
255	0x3bc52b45	0.006017121

action_model._continuous_distribution.mu.bias f4 [2]
0	0x3cab3f84	0.02090431
1	0xba248669	-0.0006276132
