results/imi4/VacuumCleaner/VacuumCleaner-6144.onnx (onnx, 95028 bytes, 7 tensors)

network_body._body_endoder.seq_layers.0.weight f4 [128, 50]
000000 a9 f0 53 3e f0 bf 1c be ed 63 9f 3c a3 8e 31 3e
       0.20697273 -0.15307593 0.019456828 0.17339568
000010 e4 03 d1 3d 84 83 ba bd 70 11 1b 3e a1 17 90 be
       0.1020582 -0.09107116 0.1514337 -0.28143027
000020 b3 ff 57 be 82 98 6c 3e 0b 47 9e bc 0a b0 82 3d
       -0.21093635 0.23105052 -0.019320985 0.06381233
000030 9d fd 6c 3a 37 72 6c 3e a9 1e 61 be fa 23 19 bd
       0.0009040477 0.23090445 -0.21984352 -0.037387826
000040 5c 06 ec 3b c4 2a 0d be 89 55 12 be bf ca 3d 3e
       0.0072029065 -0.13785845 -0.14290442 0.18534373
000050 44 c7 7d be 9f 46 09 3e 2f 02 f4 bc ad 17 7f be
       -0.24783045 0.13405846 -0.029786197 -0.24911375
000060 2d 9f c2 3d 1f 89 19 3e 72 79 ad 3e 9d e1 a8 bc
       0.095030166 0.14993714 0.33881718 -0.020615393
000070 47 fc 54 be fd 18 7e 3c 4c 3b 98 3e e7 a9 81 bd
       -0.20799361 0.015508887 0.2973274 -0.063312344
000080 74 0e 29 be 68 60 b9 3d 2e 07 5b 3e 37 04 1c be
       -0.1650942 0.09051591 0.21389458 -0.15235983
000090 d1 8c 68 3d 39 17 bd bd d6 be f4 3c 05 3b bc 3d
       0.056774918 -0.09232945 0.029876154 0.091909446
0000a0 9b 62 ec bc 56 c6 9a 3e 41 b1 83 3c eb 65 4b 3e
       -0.028855613 0.30229443 0.016075732 0.19863097
0000b0 db 80 04 3e 80 cd 20 be 54 e1 34 bd bf d9 fb 3a
       0.1293978 -0.15703392 -0.044160202 0.0019214674
0000c0 bb 5c 51 3d 61 43 67 be 8b db 72 be d9 17 9e be
       0.051113825 -0.22584297 -0.23716561 -0.3087757
0000d0 21 2d 2f be 0a a4 f2 3d b7 e0 f7 bd 28 52 41 3d
       -0.17107059 0.11847694 -0.12103408 0.04719749
0000e0 bd d3 8b be 50 21 a4 3c f3 70 d0 bd 0e 33 39 3d
       -0.2730998 0.020035416 -0.10177793 0.045214705
0000f0 7c 01 1e bd 07 f3 24 be 93 eb 0d be 6f c6 cf bd
       -0.038575634 -0.16108333 -0.13859396 -0.1014527
000100 be f8 35 be 04 f0 fd 3c 99 37 93 3d ab 9a e6 bd
       -0.17770669 0.030998237 0.07188339 -0.11259969
000110 2a b5 93 3d 01 9d 92 bb 36 b8 24 3e 3e 73 08 be
       0.07212289 -0.0044742827 0.16085896 -0.13325211
000120 5b 87 26 be fb d2 be bd 26 a4 4f bd 43 20 ec 3a
       -0.16262572 -0.09317585 -0.050693654 0.0018014986
000130 f1 db 05 3e 68 55 c3 3b da ec 58 3c 40 9f cb bd
       0.13072182 0.005961109 0.013240064 -0.09942484
000140 47 b5 95 3d da b0 55 be e0 5e cb bd 18 e0 4e 3e
       0.073099665 -0.20868245 -0.09930205 0.20202672
000150 3f 65 9b 3d ff ba 93 be 08 f2 0c bd 30 62 a3 3e
       0.075876705 -0.28853604 -0.034410506 0.3191085
000160 af d2 04 be 22 9e 18 bd 86 6c c6 bc 0f 0e dc 3b
       -0.12970994 -0.037260182 -0.02422167 0.006715543
000170 c3 d3 1c be d2 a1 23 be ca e6 d8 3d fb dd 3f 3d
       -0.15315156 -0.15979698 0.105908945 0.046842556
000180 4a 17 c7 3d d1 42 4f bc b9 34 01 be 8a 1a e7 bc
       0.09721239 -0.012650208 -0.12617768 -0.028210897
000190 73 e9 05 3e 08 0a a5 bd 2f d5 da bd 13 b4 ac 3c
       0.13077335 -0.08058554 -0.10685193 0.02108196
0001a0 29 1d aa 3d 42 cb a9 be fd b3 76 3d fb 84 70 3e
       0.08306343 -0.33162886 0.060230244 0.23488228
0001b0 7b 1a e1 3d f4 e0 7d 3d 03 6f 5c bd 18 15 3c 3d
       0.10991379 0.06198211 -0.053816807 0.045918554
0001c0 63 b5 43 bb 06 db 29 bb fc 8f 91 3d c0 fc 63 bd
       -0.0029862754 -0.0025917902 0.07107541 -0.055660963
0001d0 c4 28 7e be d9 a9 59 3e 4e 35 a2 bd 30 11 91 bd
       -0.24820238 0.21256198 -0.07920323 -0.070833564
0001e0 38 32 45 3d 6a 43 05 bd 44 1b 6d 3e 02 9c 0f be
       0.048143595 -0.032534994 0.23154932 -0.14024356
0001f0 07 71 0c 3e e0 af d1 3e e6 d5 82 be a4 c0 28 3e
       0.13714992 0.40954494 -0.25553817 0.16479737
000200 2d 1a d1 bd 55 e2 39 3e 16 32 10 be 13 1b db bd
       -0.10210071 0.18152745 -0.14081606 -0.10698523
000210 f1 96 95 3b 29 5d 8b bd 93 8e a5 bd 37 6d a7 bd
       0.0045651128 -0.06804878 -0.080838345 -0.08175128
000220 8b af ab 3d e7 46 c0 bc 15 d1 0b 3c 37 71 8d be
       0.083830915 -0.023471309 0.008533736 -0.2762544
000230 ad 8b bb bd 48 64 f0 3d 6f a1 15 3c 80 1b 23 3e
       -0.091575004 0.11737877 0.009132727 0.15928459
000240 b3 0a 19 bd 55 ac 90 bd da d7 68 3e 04 69 45 bd
       -0.03736372 -0.0706412 0.22738591 -0.048195854
000250 7f e0 07 bd 0e 90 03 3d 95 98 ab 3d 8d e9 52 3e
       -0.03317308 0.032119803 0.08378712 0.20596905
000260 3a a0 bc bd 36 bf 3a be d1 d4 fd bd 0b 97 cc 3d
       -0.09210248 -0.18237004 -0.12394107 0.09989747
000270 2d ee 9c be 62 a0 25 bd 21 97 54 3e 06 c6 a1 be
       -0.30650464 -0.040436156 0.20760776 -0.31596392
000280 f0 0d 88 bd e2 70 69 3d eb c8 69 be 77 75 b7 bd
       -0.06643283 0.05699242 -0.2283055 -0.089579515
000290 74 ed 3b 3b 03 90 9c bc a2 3d 3a bd 6d cc a6 bd
       0.0028675469 -0.019111639 -0.045468934 -0.0814446
0002a0 de f6 3d 3e 0c 15 dc 3d 15 05 4c be 3a 59 97 bc
       0.18551204 0.10746202 -0.19923814 -0.018475164
0002b0 27 3c 91 bd 0f 54 8c 3e 86 da 1e be 97 40 18 3d
       -0.07091551 0.27407882 -0.15513048 0.037170973
0002c0 61 a0 be 3c ea 5f de bc b7 f5 35 3e f1 0b 8c bd
       0.023269834 -0.027145345 0.17769514 -0.06838215
0002d0 71 79 a1 be a0 96 08 3d a5 7d b7 3d 6f 20 5b be
       -0.31537965 0.033346772 0.08959512 -0.21399091
0002e0 4b b9 0f 3e 5c f1 a6 3d 1c ff 86 3d bc c6 69 bc
       0.14035527 0.081515044 0.06591627 -0.014268573
0002f0 8b 6c 84 bd 33 e5 dc 3d 58 07 15 3e 48 de d8 3c
       -0.064660154 0.10785904 0.14553583 0.02647318
000300 46 26 81 3c ab c0 3e bc a2 89 88 3e fb a3 1c 3e
       0.01576532 -0.011642615 0.26667506 0.15296929
000310 8b 45 87 3c f0 51 31 bd 61 e4 16 3d 77 c4 70 3d
       0.016512653 -0.043291032 0.036838893 0.058781113
000320 41 89 f1 bd 6f 14 e6 3d f7 64 a0 3e ef 49 9c be
       -0.11793757 0.11234366 0.3132703 -0.30525157
000330 28 86 99 bd 6c d8 00 3e 2f 51 05 3e 22 40 9d bd
       -0.074962914 0.12582558 0.1301925 -0.07678248
000340 1f 6c 44 be b8 c7 5d 3e 9b 79 34 3e 25 76 83 3c
       -0.1918187 0.21658218 0.17624514 0.016047547
000350 f5 4c 99 3c 6f 14 d9 3d 01 b3 9b 3e 94 34 1e be
       0.018713454 0.105996005 0.30410007 -0.15449744
000360 ff ee a5 be 2c 8c a5 3e 69 a1 e1 3d 27 b4 17 be
       -0.32408902 0.32333505 0.11017115 -0.14814816
000370 aa 30 ab bd 30 96 53 bc 41 75 ae 3d 27 8a 03 bd
       -0.08358891 -0.012914225 0.08518458 -0.032114174
000380 87 ad 4f be a6 8b 62 be 13 93 37 be cc de 8f bc
       -0.20281039 -0.22123584 -0.17927198 -0.017562293
000390 37 fd 03 be b8 b5 0c be 0c ae 2f be 15 ee 6b 3c
       -0.12889563 -0.13741195 -0.17156237 0.014400025
0003a0 c5 f6 7f be 21 65 86 be d6 e0 85 3e e2 a2 c8 3d
       -0.24996479 -0.2624903 0.261481 0.097966924
0003b0 e4 33 a1 3d 19 4b ef 3d 32 cf 00 3e c1 7a 2f 3c
       0.078712255 0.116842456 0.12579039 0.010710419
0003c0 32 22 3a 3e 0f 6b 08 3e 6f 68 82 be c1 b3 74 3e
       0.18177107 0.1332209 -0.25470302 0.23896696
0003d0 fa 62 9d 3e 7e 03 03 3d 1a ad b8 bd 2a 3d 2d 3e
       0.30739576 0.031985752 -0.090173915 0.16917863
0003e0 bb 74 b0 3e d4 a7 31 3e 19 60 15 3d 8f 70 70 be
       0.34464058 0.17349178 0.0364686 -0.23480438
0003f0 5f 75 48 be 1e 52 01 3e f7 8e 0f bd cb 06 1f be
       -0.19576024 0.12628981 -0.03504845 -0.15529935

network_body._body_endoder.seq_layers.0.bias f4 [128]
000000 4a d5 0d 3b 0d 6f be bc 35 55 8a ba 90 40 b0 bc
       0.0021642023 -0.023246313 -0.0010553958 -0.02151516
000010 b8 1e 1c bc d4 fd a4 3c ee fa 86 bc bf b1 1e bc
       -0.009528808 0.020140566 -0.016477074 -0.009685933
000020 b6 1c 52 bb 2e 4a f1 bb 08 55 30 3b 8c 5d e9 3a
       -0.003206057 -0.0073635792 0.0026906151 0.0017804368
000030 46 21 ac 3b 27 f5 18 3d ca 6e 28 bc ac a2 8f bb
       0.00525299 0.03734317 -0.01028032 -0.0043834057
000040 b5 8c 8f 3c 4c 30 5c 3c f2 d6 e2 bb a0 6a d1 bc
       0.017523149 0.013439249 -0.006922596 -0.025563538
000050 42 8e c0 bc ff bc 1d bb 66 e4 3c bb 10 02 89 ba
       -0.023505334 -0.002406895 -0.002882266 -0.0010452885
000060 57 15 97 bc 93 a4 cd 3c 54 c7 7a bc 04 78 8d bc
       -0.018442793 0.02510289 -0.015306313 -0.017269142
000070 c2 9a ad bc f2 b4 11 3d f3 cd fa ba 2c bb c7 3c
       -0.021191958 0.035572954 -0.0019134864 0.024381243
000080 b0 17 ae bc df fe 57 3c 80 48 ae bc a1 ad 49 3d
       -0.02125153 0.013183325 -0.021274805 0.04923785
000090 cb f7 b8 bb bc 7e 1f bd d4 c2 80 3b b9 9b 67 bc
       -0.0056447736 -0.038939223 0.0039294753 -0.014136248
0000a0 e9 43 25 bc 7c fd 26 bc 02 a2 c5 bc 6f 0c 71 bc
       -0.010086992 -0.010192271 -0.024125103 -0.014712437
0000b0 91 d7 9b bb 62 5e fc 3b 99 e6 ee 3b 7c da 01 3d
       -0.004755922 0.007701681 0.007290673 0.031702504
0000c0 e4 d4 df bc 23 5e ca bc a5 1f 6e 3c 7f 58 b0 bc
       -0.027323194 -0.024703091 0.014533912 -0.021526573
0000d0 c0 55 07 bb 93 8c 5e 3b 10 21 41 bd 04 78 22 bd
       -0.0020650476 0.00339583 -0.04715067 -0.039665237
0000e0 9a fd f3 3b 1a 1c 18 3c ab eb 61 bc a6 c8 03 3d
       0.007446003 0.009284044 -0.013789098 0.032173775
0000f0 ec a3 9b bc 28 59 c5 bc 8f 74 5c 3d c6 c4 72 bc
       -0.018999062 -0.024090365 0.053822096 -0.014817422
000100 3b 39 a3 3b 81 44 01 bb 61 82 23 3c 3b a2 cc 3c
       0.0049811876 -0.001972467 0.009979815 0.024979701
000110 77 40 52 3c f7 d2 ed 3c e6 de de bb 43 eb 0e bc
       0.012832752 0.02903126 -0.006801474 -0.008723083
000120 50 27 ec 3c 76 01 b2 3c 96 a8 09 bd 52 9c 41 bc
       0.02882734 0.021729212 -0.03360804 -0.011817055
000130 3e 79 d2 bc 25 3a 2b 3d b4 04 32 bc d4 c5 3a 3d
       -0.025692578 0.041803498 -0.010865379 0.04559882
000140 5f 36 e4 bc 8b 5d 94 3c c2 7a 7c bc 2f ae 71 3b
       -0.027857957 0.018111011 -0.015410127 0.0036877503
000150 a6 1e 74 bb 58 54 12 bc 1c 17 bb bc b2 f0 0e 3d
       -0.0037249713 -0.008931242 -0.022838168 0.034897514
000160 f7 08 84 bc 63 3d 6b 3b 36 11 c0 3b a3 db 93 bb
       -0.016117556 0.0035894744 0.0058614267 -0.0045122667
000170 fc 28 c1 3c 0d ce c9 ba f6 34 8c bc 30 44 f2 3c
       0.023579113 -0.0015396491 -0.017115097 0.02957353
000180 5a 4c 5f 3c 34 e6 b0 bc 6e 73 8b ba 98 79 5a 3b
       0.0136290435 -0.021594144 -0.0010639259 0.0033336636
000190 30 a3 c3 3c 88 25 31 ba 2e 9a 98 3c cc 80 f0 3c
       0.023881525 -0.0006757607 0.018628206 0.02935829
0001a0 ff 0c 7e 3c 25 05 32 bd c5 8a 03 3d 39 81 6b bc
       0.015506028 -0.043461937 0.032114763 -0.014374071
0001b0 94 27 fe 3a 7c c7 94 3c b5 f4 7d bc 84 8d ed bb
       0.0019390457 0.018161528 -0.015500237 -0.007249536
0001c0 cd 51 d8 bb 70 89 78 3c 36 6c 22 bc ea df 03 bd
       -0.0066015483 0.015169486 -0.009913495 -0.032195963
0001d0 24 d9 37 3b 87 fb d5 bb 0b 3b 34 bd 65 ae c9 bc
       0.002805301 -0.0065302285 -0.04400162 -0.02461929
0001e0 a1 8c 8c bc 03 e8 c3 3c c2 e2 2c bc fe 9f 4d 3a
       -0.0171569 0.023914343 -0.01055211 0.000784397
0001f0 95 10 a8 3b d9 33 0a bb 76 15 d7 3c f5 81 2e 3c
       0.00512893 -0.0021088033 0.02625535 0.010651101

network_body._body_endoder.seq_layers.2.weight f4 [128, 128]
000000 2b 29 87 3c e0 69 bc 3d 22 d5 d6 bc b1 25 08 3e
       0.016499123 0.091998816 -0.026224677 0.13295628
000010 71 3a b4 3a ba c6 ba 3d 52 64 5d bd a3 f9 61 bd
       0.0013750327 0.09119935 -0.05405075 -0.055169713
000020 a7 9f 96 bd 03 06 48 3c 5d 74 48 be 38 4b b3 bd
       -0.0735467 0.012208465 -0.19575639 -0.08754581
000030 38 4e ab 3d a3 b3 58 3d 5a ea 9f bd a5 2b 26 bc
       0.083645284 0.05290569 -0.07808371 -0.010142242
000040 8e fc 79 3c 78 f8 01 3e 59 a0 1a 3d dc 07 1e 3d
       0.015257968 0.1269244 0.037750576 0.038581714
000050 21 00 4d bd 06 fa 45 3d ca e3 dd 3c 7d d9 cd bc
       -0.05004895 0.048334144 0.027086157 -0.02512812
000060 4a 40 9a 3d 22 fa 84 3d be b1 9b 3d 93 28 3c bd
       0.075317934 0.064930215 0.07602261 -0.045937132
000070 fb 56 b1 3a 8f 2f 26 bd 33 9c 21 3c 34 0f 50 bd
       0.001352995 -0.0405727 0.009863901 -0.05079575
000080 6d 7e 2f be d4 e3 3a 3d bd de e6 bd 2b e9 d5 bd
       -0.17138071 0.04562743 -0.11272953 -0.10444864
000090 85 1e 87 bd aa 67 02 3e 64 2d b2 3d be 41 87 3d
       -0.06597618 0.12734857 0.08700064 0.06604336
0000a0 e3 e0 12 ba 8c 81 8e 3d 83 ce d8 3d 0d 59 78 bd
       -0.0005602969 0.06958303 0.10586264 -0.0606318
0000b0 3a a9 60 bd 6e a3 36 3d cc 9a 63 3c 29 99 0d be
       -0.054848887 0.044589452 0.013891887 -0.13827957
0000c0 71 6d 85 bd 3f 78 db bc b3 6c 51 3d 46 ba dc bd
       -0.06515015 -0.026790736 0.051129054 -0.10777716
0000d0 60 35 20 bd c3 cb c0 3c 14 46 8b 3d 72 cf f6 bc
       -0.039113402 0.023534661 0.06800476 -0.030128215
0000e0 a9 db 41 3d a4 0f 3a bc e4 b8 f1 3b 9d 4b 8a ba
       0.047328625 -0.011356268 0.007376777 -0.0010551099
0000f0 b3 34 07 3e 04 7b f6 bd 62 d2 d1 3c c7 bc 1e 3e
       0.13203697 -0.12035182 0.025613014 0.155017
000100 b4 06 1b be 7a dc f3 3d e1 91 25 be 88 e2 34 be
       -0.15139276 0.11907287 -0.1616893 -0.1766454
000110 11 3c a4 3d 0e 92 44 3d 4a 1b 4c 3c fc 00 17 bd
       0.08019269 0.04799085 0.012457678 -0.036866173
000120 a2 f8 0a 3d 42 53 67 bd 51 e6 1c 3d b6 6b 74 bd
       0.03392852 -0.056475885 0.038305584 -0.059673034
000130 89 de 38 be dd 7e ac bd 24 4f 44 bd 0c 2d c5 bc
       -0.1805364 -0.08422635 -0.047927037 -0.024069332
000140 80 99 d1 3b e2 20 69 3d 64 e2 fd 3c 43 0b d4 bd
       0.0063964725 0.056916125 0.03099174 -0.103537105
000150 41 92 4c bc 3c 9e 2f 3c 8d 13 f2 bb 02 f5 bb bd
       -0.0124860415 0.010718878 -0.0073875845 -0.09177591
000160 b6 81 e6 bb 38 af 0f 3e 2d c3 17 bd 8c 3c d2 bd
       -0.0070345057 0.14031684 -0.03705137 -0.10265455
000170 94 c2 6f bd 32 15 4d bc 2b da 5e 3d 9b f9 a2 bd
       -0.058535174 -0.01251726 0.05440728 -0.07957765
000180 8f 24 6f 3d 81 f0 44 3d 87 4f 5a be 3f f1 83 bd
       0.058384474 0.048080925 -0.213194 -0.064424984
000190 ab 4d c7 3c e4 5e 9a 3d 25 e8 96 3d 3c be b1 3d
       0.024329027 0.0753763 0.07368497 0.086788625
0001a0 66 1a d9 bd e4 dd 98 bd 1c 40 a8 bd c3 07 5a 3d
       -0.10600738 -0.07464197 -0.08215353 0.05323006
0001b0 21 41 fc 3d 8a d8 11 be 3b 06 fa 3d 36 95 0f 3e
       0.1231711 -0.1424276 0.122082196 0.14021763
0001c0 a8 04 f6 3d cf c2 c0 3d 51 53 fe 3d 20 16 fa bb
       0.12012607 0.09412157 0.12418235 -0.007632032
0001d0 4f 96 63 3d 86 f8 aa bc 6a 9a 20 3e e2 8f 63 bd
       0.055563267 -0.020870458 0.15683904 -0.05555714
0001e0 99 f9 a0 3d ba 43 27 3d f5 ba 1a 3e 3e 42 b3 bc
       0.07860107 0.040836073 0.15110381 -0.021882173
0001f0 b0 5d cc bc f9 6c ef 3c ac 7c 09 3d 7d 43 d7 3d
       -0.024947017 0.029226767 0.033566162 0.10510919
000200 74 4f f8 3c f8 94 e0 bd 1b 72 ef 3d 5d 7b 06 be
       0.030311324 -0.109659135 0.11691686 -0.13132997
000210 46 ef cf 3c 0d e8 c8 bd c7 7e 91 3e 10 b1 ff bd
       0.02538265 -0.09809885 0.28417036 -0.12484944
000220 25 5b a4 3d b4 9e 92 bd 2f ca e6 bc 3b 88 51 3d
       0.08025197 -0.071591765 -0.02817258 0.05115531
000230 9c 10 42 3c 8a b1 b6 bd 3b 07 ab bd 5c 07 b1 3d
       0.01184478 -0.08920582 -0.083509885 0.08643982
000240 9b 30 18 bd 04 2b a6 3d 10 b7 8b 3b 87 b0 84 3d
       -0.03715573 0.08113673 0.004263766 0.064789824
000250 d5 cf f1 3c ab 58 7f 3d 56 e0 cf 3d 0c fa b4 bd
       0.029518047 0.06234042 0.101502106 -0.08836755
000260 57 41 6b bd b6 1a d5 3d bb 5a 1e 3c 49 0e b8 3d
       -0.05743536 0.10405485 0.0096651865 0.089871
000270 9a b6 18 be 7e d8 19 3c c6 bc 2f 3d c5 cf 37 3d
       -0.14913407 0.009389995 0.042904638 0.04487588
000280 9c d9 b1 3d 3d 56 8c bd 28 df 75 3c 7b ea 74 bd
       0.08684084 -0.06852386 0.015006818 -0.05979393
000290 e3 68 d6 3c 54 a3 56 bd 58 9d b3 3b 80 93 ce 3d
       0.02617306 -0.052401856 0.0054814033 0.10086727
0002a0 e2 bb d1 3d 27 7e cd bd a7 c1 eb bd 6c 23 c4 3b
       0.10240914 -0.10033827 -0.11511546 0.005985668
0002b0 b4 69 ce 3d 7d f4 48 be cc 2f 64 bd 35 e3 8f 3d
       0.10078755 -0.19624515 -0.055709645 0.07025758
0002c0 2e 9b 0d bd df ff c0 bd 98 7e 04 bc 7e fd a3 3c
       -0.03457182 -0.094238035 -0.008086823 0.020018335
0002d0 dc c6 2b bd fd 87 a7 3d d2 98 a7 3d 46 74 cc 3d
       -0.041937694 0.081802346 0.08183445 0.09983115
0002e0 c5 b0 3c 3e 67 42 43 bd c8 35 c8 3d 7b 0a 9d bd
       0.18426807 -0.047670748 0.09775883 -0.076680146
0002f0 d0 96 28 3c 10 35 bc bd ec 37 fb ba ca b9 96 bd
       0.010289863 -0.09189808 -0.0019166446 -0.07359655
000300 4f d2 80 bd 9f 82 aa bd 32 ed 37 bd 94 41 95 3c
       -0.06290113 -0.08325695 -0.04490394 0.018219747
000310 c3 19 ff bc d0 a3 c1 3c 4e c4 0b 3d 2b e4 a1 3d
       -0.031140214 0.023637682 0.034122758 0.07904848
000320 1c ca bc bd 73 59 70 bd d9 c3 88 3e e6 1c b5 3d
       -0.09218237 -0.058679055 0.2671192 0.088434026
000330 cc 59 08 bd ac 9d f6 3d b8 71 fd 3d 3b a3 79 3d
       -0.033288762 0.12041792 0.12375206 0.060946684
000340 89 da 08 be fb e9 1e 3e e4 31 5b bd b3 85 7f 3c
       -0.13364615 0.15518944 -0.053514376 0.015595841
000350 83 f5 ea bc 82 d3 0e be 2f b4 c0 3d 3c af 4f 3e
       -0.028681522 -0.13947871 0.09409367 0.2028169
000360 aa 47 3a 3d b2 3b 06 bc 47 54 ad bd 9a f2 0b be
       0.0454785 -0.008192943 -0.0846334 -0.13666764
000370 b9 d4 02 bd fc 3d 48 bd cc fd 91 3d 4b 77 5b bd
       -0.03194115 -0.048887238 0.07128486 -0.053580564
000380 3f a7 e9 bd c4 9f 3f be 0b 34 29 3d a4 5a 85 bc
       -0.11408853 -0.1871329 0.041309398 -0.016278572
000390 73 5a b5 bc 12 3f 04 bd 7d 4f ce bd 14 a3 c1 3d
       -0.022137856 -0.03228671 -0.10073755 0.09454933
0003a0 78 ec 91 3d 73 5f c8 3d 10 a4 b5 3d 19 6e 33 3d
       0.07125181 0.097838305 0.08869183 0.04380617
0003b0 a9 10 a6 bd 8e bc ef bd db ea c1 3c ae b9 f3 bd
       -0.081086464 -0.11705886 0.023671558 -0.1190065
0003c0 d1 75 a0 bb 49 81 94 bc d1 91 fd 3d a4 6d 58 3b
       -0.0048968573 -0.018128054 0.12381328 0.0033024335
0003d0 f5 fe 1d 3a 2c c9 c7 3d bf 9f fd 3c 61 e0 c5 bc
       0.0006027066 0.09755167 0.030959962 -0.024154844
0003e0 e4 8d 8b bd 4d b6 f6 bc 16 7f 0c bd b9 a1 f3 bc
       -0.06814173 -0.030116225 -0.034300886 -0.029740201
0003f0 b5 64 bc 3c 94 57 a8 3d 39 b4 82 3d 82 38 25 3e
       0.02299724 0.08219829 0.06382031 0.16134837

network_body._body_endoder.seq_layers.2.bias f4 [128]
000000 c3 60 0e bd a7 8d ec ba 5b 7c c9 3a 06 43 33 3c
       -0.034760248 -0.0018047587 0.0015372144 0.010941273
000010 75 36 dd bb 2f 1e aa 3b 3c 63 a8 3c c0 ec 04 3c
       -0.0067508765 0.0051915864 0.020555131 0.008113086
000020 98 8a 70 3c fc 27 eb bb db e5 76 bc 57 d3 2c 3a
       0.014681481 -0.0071763974 -0.01506945 0.00065927714
000030 d8 d7 60 bc 42 db 3f 3d 5d 80 c7 bc 95 66 47 3c
       -0.013723336 0.04683996 -0.0243532 0.012170454
000040 ca 82 32 3b 1a a5 b8 bb 25 50 eb bb 1a 68 43 bc
       0.00272386 -0.005634916 -0.007181185 -0.011926675
000050 b3 e7 f5 bc cf a9 4c 3c 74 e5 dc bc a1 25 9a bc
       -0.03001771 0.012491657 -0.02696488 -0.018816771
000060 99 c5 19 3d cc 75 b9 bc 43 15 a8 3c c2 97 ad 3c
       0.03754196 -0.022639178 0.02051795 0.021190528
000070 b5 e2 aa bc 13 33 36 3c c9 32 73 39 8e 0f 58 3c
       -0.020860055 0.0111205755 0.00023193205 0.013187302
000080 85 de bf bc 86 94 6d 3b 35 a9 99 bc f1 10 9e 3b
       -0.023421535 0.0036251857 -0.018757442 0.004823797
000090 ed 92 9b 3a 45 63 fc 3c b9 3b ca 3b da 58 dc b9
       0.0011869349 0.030809054 0.0061716703 -0.0004202787
0000a0 11 b6 20 bc 2c 93 c9 3c de a6 68 3d b1 a1 b8 bb
       -0.009809033 0.02460631 0.056799762 -0.0056345095
0000b0 34 02 44 3c b7 67 36 3c 57 d5 e1 3c 4c ec 85 bb
       0.011963416 0.011133126 0.027567549 -0.0040870067
0000c0 60 1b a5 bb 65 89 d7 bc 7e fe 23 3c b2 68 d7 3a
       -0.0050386637 -0.026310632 0.010009406 0.00164344
0000d0 53 33 cb bb da 30 28 bb d9 a5 30 bc fa 8c 26 bc
       -0.0062011867 -0.0025663883 -0.010781729 -0.010165447
0000e0 33 9e 52 bb 28 eb 17 3b 71 8f 60 3b 1a df 8c 3b
       -0.003213775 0.0023180936 0.0034265185 0.0042990567
0000f0 14 f6 85 3c da 58 fc 3b 4f 25 d9 bb 7e 74 d0 3b
       0.01635269 0.0077010216 -0.006626762 0.006361543
000100 fe ed bf b9 6f f0 6d bc c2 28 fe 3b ca f5 8a 3c
       -0.00036607677 -0.014522656 0.0077563236 0.016962904
000110 67 ce ef bb 0f be d0 bb a9 fe 9f 3c 1c 65 8b 3c
       -0.0073183062 -0.006370313 0.019530611 0.017015986
000120 c0 50 f3 3b 57 fe ef bc f7 43 17 bc 76 53 d0 3b
       0.0074253976 -0.029296083 -0.009232513 0.0063576056
000130 7f 48 2c bc 74 46 fd bc 15 db bc 3b 20 40 e3 bc
       -0.010515331 -0.030917384 0.0057634213 -0.027740538
000140 8f 1c 77 bb 13 1d e8 b9 b5 40 de 3c b4 b1 6a bc
       -0.0037706231 -0.0004427215 0.027130464 -0.014324594
000150 fd 5f d2 bc b3 fc ca 3b 97 eb 6d 3a d7 d4 c2 3b
       -0.025680536 0.006194675 0.0009075938 0.0059457826
000160 29 6d ad 3b 3f b2 85 bc e1 ef 3e bc ba 54 1f bc
       0.005292554 -0.016320346 -0.011653871 -0.00972479
000170 7a 1c b6 bb 59 82 92 bc e6 36 26 bc 19 ea a2 3c
       -0.005557594 -0.01788442 -0.010144925 0.019887017
000180 d4 1d 29 3a bb d2 e9 3a 99 ae 06 3d 0f 31 a7 3c
       0.0006451283 0.0017839292 0.032881353 0.020409135
000190 66 5c df 3c df 2a de bc 74 7f d3 3b 22 b9 a5 bc
       0.027265739 -0.027120052 0.0064544026 -0.02022988
0001a0 9a 50 13 3a b6 11 55 bc 1c b0 34 3c 35 4d 55 3b
       0.00056196155 -0.013004711 0.011028316 0.003254724
0001b0 f3 1c c7 3a a2 1a a4 b9 e2 d7 99 3c 12 6f b7 3b
       0.0015191123 -0.0003130036 0.018779699 0.0055979574
0001c0 68 d4 a0 3b e0 92 2a bd 9e 3b 45 3b 2f eb d2 bc
       0.0049081333 -0.041643977 0.003009535 -0.02574691
0001d0 ea 35 dc ba f6 b8 10 bd 82 bd 14 bc f6 55 95 3d
       -0.0016800736 -0.035332642 -0.009078385 0.072917864
0001e0 29 85 6c bc 88 b3 af 3c 81 d3 e2 bc 30 b2 9a 3c
       -0.014436045 0.021447912 -0.027688744 0.018883795
0001f0 f7 23 c2 bc 92 01 86 3b c8 a1 b1 bc 6e 93 8b bc
       -0.02369879 0.0040895427 -0.021683589 -0.017038073

action_model._continuous_distribution.log_sigma f4 [1, 2]
000000 58 56 34 bf 3a 33 33 bf
       -0.7044425 -0.7000004

action_model._continuous_distribution.mu.weight f4 [2, 128]
000000 05 f3 63 bc d0 3d 92 ba 8a a5 ed b9 c3 0e b5 3c
       -0.013912921 -0.0011157338 -0.000453275 0.022101765
000010 6a 4c 9b bc da 45 c3 3c 3d f4 b2 bd 3b e4 60 3c
       -0.018957336 0.023837019 -0.08737991 0.013726289
000020 79 85 9e bd 65 d3 0e bd b1 0b 36 ba 0a d3 c2 bc
       -0.07740302 -0.03486957 -0.0006944491 -0.023782272
000030 77 01 8c bc ae c8 19 be 46 6a 35 bc 7f 99 fa 3b
       -0.017090542 -0.1501796 -0.011072701 0.0076476927
000040 1a d6 49 bc 91 fb b7 bc 9c 9c 7b bd 0a 38 0b 3a
       -0.012319112 -0.022458823 -0.06142865 0.00053107797
000050 5f 52 97 3a d9 67 1e 3d 9c be 8f bc fb f2 a8 bc
       0.0011544934 0.038673256 -0.017546944 -0.020623675
000060 3a 87 b2 bd 81 bb 8a bb a3 54 13 3d 6f 1b 37 3d
       -0.08717199 -0.004233778 0.035969388 0.044703897
000070 d4 28 e7 3a a2 26 99 bc 21 7f 2c bd c5 a6 92 ba
       0.0017636069 -0.01869518 -0.042113427 -0.0011188617
000080 58 c2 24 bc 3d 67 9b bb 17 8b 22 3c 05 57 a4 3c
       -0.010056101 -0.0047425316 0.009920857 0.020061025
000090 d5 62 97 3c 69 fc 87 bd c5 2e 53 bc ad 23 cb bc
       0.018479744 -0.0663994 -0.012889569 -0.024797285
0000a0 4b f7 77 3c 3c 98 2b bc be b4 ba 3d a2 05 96 bc
       0.015134643 -0.010473307 0.09116505 -0.018313233
0000b0 b5 63 0b 3d 59 a9 8b bd e5 1e c8 3d 64 21 82 3c
       0.034030635 -0.0681941 0.09771518 0.015885063
0000c0 14 94 b9 3a f3 b3 85 bc 79 f9 4c 3a 07 51 81 bd
       0.0014158511 -0.016321158 0.0007819157 -0.06314283
0000d0 78 de 84 bd 6e 16 c5 bc 1d b4 ee 39 81 32 b0 bc
       -0.06487745 -0.024058547 0.00045529092 -0.021508457
0000e0 5a 78 1f 3c 76 42 4e 3a c0 39 51 3c 40 2d b0 bc
       0.009733284 0.000786818 0.012770116 -0.021505952
0000f0 2a c3 6a 3c df d0 8a 3d 22 c9 ae bc da 11 d8 bc
       0.014328757 0.0677812 -0.021336142 -0.0263757
000100 59 17 47 ba 27 a8 71 3a 61 6d 8e 3c d8 4c 44 bd
       -0.00075947266 0.0009218477 0.01738614 -0.047924846
000110 13 88 1a 3d 14 12 22 bd 3c eb 99 3c 1f 34 21 bc
       0.037727427 -0.039568022 0.018788926 -0.009839087
000120 f1 1f 83 3c 4a 7c b7 bc be 43 1d bd 24 e0 b3 bc
       0.016006442 -0.022398133 -0.038394682 -0.021957465
000130 d1 a7 ba bc eb 42 74 bc 86 68 95 3c 91 00 04 bb
       -0.0227851 -0.014908533 0.018238317 -0.002014194
000140 02 81 64 3d 65 8f b2 3a f8 a4 70 3d 50 4d db 3b
       0.055787094 0.0013623057 0.058751076 0.006692566
000150 cb 46 bf bb 35 b0 55 3c 21 b2 f1 3c 0a a7 c4 3d
       -0.0058372966 0.013042499 0.029503884 0.09602173
000160 08 29 3f 3d f7 bc 0c 3d 83 2d f1 3c 96 4f f0 bb
       0.04666999 0.0343599 0.029440647 -0.007333706
000170 d2 57 40 bc f9 76 c7 3b 05 5f cd 3c 10 88 3a bd
       -0.011739688 0.0060871807 0.025069723 -0.045539916
000180 dd 68 d8 3c e8 0e 7b 3c da 80 55 3d b8 77 91 bd
       0.02641719 0.015323378 0.052124836 -0.07102913
000190 76 2b 97 bd 3a bc bf bc bc 22 ce 3a 7c 2c 37 bd
       -0.073813364 -0.023405183 0.0015726904 -0.044720158
0001a0 f8 b6 8d 3c a3 1f 64 3c e3 6c 4b 3d 8f f9 ea 3c
       0.01729916 0.013923558 0.04966439 0.028683452
0001b0 c3 9b 81 3d 99 c6 22 bd ec 97 85 3d c5 84 50 bd
       0.06328537 -0.03974018 0.065231174 -0.05090787
0001c0 4a bf 24 bd 33 b9 0a bd e0 fe 34 bd fe 37 1c bc
       -0.04022149 -0.033868026 -0.04418838 -0.009534834
0001d0 6b b8 e2 bc 19 e4 33 bc dd 78 38 3c d8 86 f7 bd
       -0.027675828 -0.010979676 0.011259285 -0.12086266
0001e0 bd 0a b2 bc 0f 61 b7 3c 42 3f 0f bd 5b 2f 85 3d
       -0.021733636 0.022385148 -0.034972437 0.06503173
0001f0 86 31 37 3c 34 9c 13 bd 44 92 a4 3b a9 f4 34 bc
       0.011181241 -0.03603764 0.005022319 -0.01104466
000200 f2 8f ef bb d9 7f d6 3b d0 78 74 3c b0 97 a0 3c
       -0.007310861 0.0065460023 0.014921382 0.01960358
000210 d3 c4 fb ba e6 dd 97 bc e7 e3 c2 3d 7c d4 e6 bc
       -0.0019208438 -0.018538427 0.09516125 -0.028177492
000220 53 66 6b ba 90 1a 1a bc fc 23 d9 bc f5 59 b3 3a
       -0.0008979786 -0.009405747 -0.026506416 0.0013683425
000230 0f f6 5b 3b 38 51 0a bd 8b 20 68 ba 87 97 ef 3c
       0.003356341 -0.033768862 -0.0008854947 0.029247059
000240 4b e0 b8 bc a9 c9 0c bd 28 29 19 bb 34 96 bc ba
       -0.022567889 -0.034372006 -0.0023370478 -0.0014388026
000250 b1 41 b7 b9 9c 9a f4 bc e9 91 34 bb 9f db ef bc
       -0.00034953424 -0.02985888 -0.002755279 -0.029279528
000260 04 48 b3 bb f1 68 07 bc 1d 5b 95 bc 63 25 e6 3c
       -0.0054712314 -0.008264766 -0.018231923 0.028094
000270 f1 c7 1d bd 88 af a6 3c 3e 23 9a bc b9 e2 8f 3c
       -0.038520757 0.020347372 -0.018815633 0.017564164
000280 b0 0e 94 bc 19 3d 8c 3b 10 c7 86 bc 08 a1 95 bc
       -0.01807341 0.0042797443 -0.016452342 -0.018265262
000290 59 f9 de bb b0 02 d3 bb 82 2e 7b 3c 40 3c 10 3c
       -0.006804627 -0.0064395294 0.015330913 0.008803427
0002a0 84 f3 ce bc 1c e2 c0 3c 2b 26 9e bd 8d 13 95 3d
       -0.025262602 0.023545317 -0.07722124 0.0727912
0002b0 11 b1 4e 3c 8a 7e bf 3c f6 66 eb bc 48 fb f4 bc
       0.012615458 0.023375768 -0.028735619 -0.029904976
0002c0 a6 37 b3 3c 80 eb 0f bd 4d fa 61 3c 96 5f 0f 3c
       0.021877121 -0.0351367 0.0137925865 0.008750817
0002d0 99 3c 5b 3c e7 27 86 bc 59 a7 15 bd be 0f 50 3c
       0.013381147 -0.016376449 -0.03653655 0.012699066
0002e0 34 e6 0d b9 12 b7 cb 3b 01 6e a8 bd bc bc 84 3c
       -0.00013532565 0.006216892 -0.082241066 0.016203277
0002f0 9b df 2c 3c 87 4e 56 bc fb f7 c9 3c c8 6a 10 3d
       0.010551359 -0.013080246 0.02465438 0.035258085
000300 2b 1a 70 bd 9c 22 8b bc 9b cc 2b 3d 2c 68 47 bc
       -0.058618706 -0.016984276 0.041943174 -0.012170833
000310 b2 f5 c4 3c 8b 64 df bc b1 b2 f4 3c d2 7c 24 3d
       0.024042938 -0.027269622 0.029870363 0.0401581
000320 a7 4d 87 3c f3 a9 ab bc 49 71 51 bb 9d 54 5c 3c
       0.01651652 -0.020955062 -0.0031958392 0.013447908
000330 4b 7f 6a bb 28 a6 6a bc f4 9d 92 bc 10 f3 3f bc
       -0.003578144 -0.014321841 -0.017897584 -0.011715665
000340 42 91 93 bc f3 fe 22 3c e4 18 47 bd c1 fe 42 bd
       -0.0180136 0.00994848 -0.048607722 -0.047606234
000350 5e 16 47 bc 4b 70 da 3c 94 9f b2 38 aa 59 9d bb
       -0.012151329 0.026664874 8.517425e-05 -0.0048019486
000360 d4 b2 24 3d 97 7a a9 bc 0f 1f fc bc 8f 39 ac 3c
       0.040209606 -0.020688338 -0.030776529 0.02102354
000370 72 f9 65 bd 3c ff 2b 3b 99 15 12 3a 11 51 6c 3c
       -0.056146093 0.002624466 0.00055726763 0.014423625
000380 52 c5 37 bd da 47 28 3d 82 60 5a 3b 33 02 69 bd
       -0.044865914 0.041084148 0.0033321683 -0.056886863
000390 4a 43 20 bd db 39 99 bc 4c 94 92 3c e3 7e c2 bc
       -0.03912667 -0.018704345 0.01789298 -0.023742145
0003a0 8d 7d 4f bd 1e c3 db bc b2 03 87 3b fc 96 9d 39
       -0.050656844 -0.026826438 0.0041203136 0.00030057866
0003b0 42 44 1f bd ab 08 09 bc ea 98 bd bc 07 94 e3 3c
       -0.038883455 -0.008363883 -0.023144204 0.027780546
0003c0 c0 ef b5 3c 0d a3 14 bd a3 4d ec bc e6 4a 15 bb
       0.022209048 -0.03628831 -0.028845614 -0.0022780239
0003d0 72 d5 14 bd 2a c2 ad bb cf 0e d5 bc 0a eb 4f bd
       -0.03633637 -0.005302687 -0.026008038 -0.05076126
0003e0 16 27 dd ba 76 21 f9 3c 0b 69 09 bd 77 68 8c bd
       -0.001687261 0.030411463 -0.033547442 -0.068558626
0003f0 a5 80 26 bc e4 cc 3b bd 59 b1 32 bc ae 45 d7 bb
       -0.010162507 -0.045849696 -0.010906541 -0.0065695858

action_model._continuous_distribution.mu.bias f4 [2]
000000 ae 3f d2 3b ad 19 a1 3c
       0.0064162826 0.019665563
