results/TestTrainingNoImitation15RPDAnd5L/VacuumCleaner/checkpoint.pt (torch, 724667 bytes, 36 tensors)

network_body._body_endoder.seq_layers.0.weight f4 [128, 99]
0	0x3cd25d60	0.02567929
1	0x3d2057bd	0.039146174
2	0xbd7e1f1c	-0.062041387
3	0x3dcd4650	0.10023177
4	0xbe082744	-0.13296229
5	0x3e21ab87	0.15788089
6	0xbb0cc0a2	-0.0021477123
7	0x3e0e5db6	0.13902935
8	0xbdceeff7	-0.101043634
9	0xbdf55977	-0.11979955
10	0xbe3f6a06	-0.18692788
11	0xbd107b5e	-0.035273902
12	0x3b803fd8	0.003913861
13	0xbc671ab4	-0.014105488
14	0x3b58001a	0.0032959045
15	0x3d28b0bb	0.04118417
16	0x3b0609cf	0.0020452624
17	0x3d70ec49	0.05881909
18	0xbe076025	-0.1322027
19	0xbdf16abe	-0.117879376
20	0xbd7b2df0	-0.061323106
21	0xbce9d1f2	-0.028542493
22	0x3e21188c	0.1573202
23	0xbd98947e	-0.07450198
24	0xbe15bd78	-0.14623058
25	0xbdaf1984	-0.085497886
26	0x3cb51bec	0.02210804
27	0xbec5ffa4	-0.386716
28	0xbd28a0a8	-0.04116884
29	0x3d8dba1d	0.06920264
30	0xbe317002	-0.17327884
31	0xbcc91b86	-0.024549257
32	0xbd3daf5c	-0.046309814
33	0xbe42e206	-0.19031534
34	0xbdb206cd	-0.086927034
35	0xbd617835	-0.05504628
36	0xbe0d76e1	-0.1381488
37	0xbcca0e7c	-0.02466511
38	0x3d250dac	0.04029624
39	0xbdecb507	-0.11557966
40	0xbd990b33	-0.07472839
41	0xbccb13bb	-0.024789682
42	0xbd7ee623	-0.062231194
43	0xbe8a4a21	-0.2700968
44	0xbd535b7a	-0.05160091
45	0xbe724ce1	-0.2366214
46	0x3d1955d1	0.037435357
47	0xbc0def6b	-0.008663039
48	0x3dc3358b	0.09531697
49	0xbe4b7136	-0.19867405
50	0xbdf168c6	-0.11787562
51	0x3c3bdee5	0.011466716
52	0x3db5c98a	0.08876331
53	0xbe25583c	-0.1614694
54	0xbd3b5d77	-0.045743432
55	0xbdc82c77	-0.09774106
56	0x3d73c307	0.059512164
57	0xba8b709f	-0.0010638422
58	0x3c192871	0.009348021
59	0x3d8889d5	0.066669144
60	0x3e27c8c7	0.16385184
61	0xbd6dd96a	-0.05806867
62	0xbe1e206a	-0.15442052
63	0x3afd60a9	0.0019331175
64	0x3e218795	0.15774377
65	0xbd268e2f	-0.04066294
66	0x3e2a33bf	0.16621302
67	0xbdbee364	-0.09320715
68	0xbdf73426	-0.120704934
69	0x3caf7a51	0.02142063
70	0xbde6170c	-0.112348646
71	0x3c0b40dd	0.008499351
72	0x3deac288	0.11462885
73	0xbc0559e4	-0.008139107
74	0xbcb8dddc	-0.022566728
75	0x3de3156a	0.11088069
76	0xbdb84498	-0.08997458
77	0x3d7bd438	0.061481684
78	0xbe4fb9e5	-0.20285757
79	0xbdb446e8	-0.08802587
80	0x3c4a562a	0.012349645
81	0xbe246879	-0.16055478
82	0x3db96452	0.09052338
83	0x3bea5f84	0.0071524996
84	0xbe541379	-0.20710553
85	0x3d977e5c	0.07397148
86	0xbd88ed21	-0.06685854
87	0xbe28fcb5	-0.1650265
88	0xbd83ec5b	-0.064415656
89	0x3e38022c	0.17969579
90	0xbe9b5744	-0.30340016
91	0x3dafebb3	0.08589878
92	0xbd13f49e	-0.036121957
93	0xbe0d5abb	-0.13804142
94	0x3dbdb1a0	0.09262395
95	0x3ea53cac	0.3227285
96	0xbe05b56d	-0.1305749
97	0xbcebe7cd	-0.028797055
98	0x3da0aa24	0.07844952
99	0x3d141287	0.03615048
100	0xbd94aeba	-0.07259889
101	0x3ae34308	0.0017338702
102	0x3e2726d6	0.16323408
103	0xbd9b4fc5	-0.07583574
104	0x3c3c3ebe	0.011489568
105	0xbe85f5b7	-0.26164028
106	0x3d7a89b4	0.06116648
107	0x3d98b51c	0.07456419
108	0xbebb4b26	-0.3658077
109	0xbd32588b	-0.043541472
110	0x3d9e9f93	0.0774528
111	0xbe796783	-0.24355893
112	0xbcbc96f6	-0.023021203
113	0xbd406077	-0.046966996
114	0xbe88751e	-0.26651853
115	0x3deca64a	0.115551546
116	0x3dfdda42	0.12395145
117	0xbe09a237	-0.13440786
118	0xbe38e77f	-0.18057059
119	0xbd8c1598	-0.06840056
120	0xbe4b5734	-0.19857484
121	0x3d19b9af	0.037530597
122	0xbdb64d26	-0.08901434
123	0x3e048d6d	0.12944575
124	0xbdc8e575	-0.098093905
125	0xbdde208d	-0.10846052
126	0xbe965866	-0.29364318
127	0x3ca83701	0.02053404
128	0x3c687c54	0.014189798
129	0x3db8649a	0.09003563
130	0x3dd85459	0.10562963
131	0xbd60660c	-0.05478482
132	0xbeb6b030	-0.35681295
133	0xbdb198bf	-0.08671712
134	0xbcb96031	-0.022628875
135	0x3c5fa8a9	0.013651052
136	0xbd711e93	-0.05886705
137	0xbdec5f04	-0.1154156
138	0x3e39cec0	0.18145275
139	0xbdf6b2d0	-0.120458245
140	0x3c134835	0.0089893835
141	0x3daafdd2	0.08349194
142	0x3d5033a5	0.050830502
143	0xbd460938	-0.048348635
144	0x3daaf23e	0.08346985
145	0xb9560d4a	-0.00020413581
146	0x3ddca464	0.107735425
147	0x3dc697e2	0.09696938
148	0x3ce0c2d8	0.027436659
149	0x3e3f14c4	0.18660265
150	0xbe0bc386	-0.13648805
151	0xbe1ac812	-0.15115383
152	0xbbf9da78	-0.0076249205
153	0xbd5e2fa0	-0.054244637
154	0xbdf97b20	-0.12181687
155	0xbd6f4331	-0.058413688
156	0x3d6c750c	0.057728812
157	0xbda268b1	-0.079301246
158	0xbc7cf6e3	-0.015439722
159	0xba1cd241	-0.0005982258
160	0xbda349fa	-0.07973094
161	0xbdf2be76	-0.11852734
162	0x3db21565	0.08695487
163	0x3ba603b9	0.0050663617
164	0xbe5df24e	-0.21674463
165	0xbe56d433	-0.20979385
166	0x3d55368e	0.05205398
167	0x3d99d8f1	0.075120814
168	0x3dd07006	0.10177617
169	0xbe300bda	-0.17192021
170	0xbdae1c18	-0.08501452
171	0xbe435dd2	-0.19078758
172	0xbd229cfe	-0.0397005
173	0xbdaf54d8	-0.085611045
174	0xbde31a30	-0.11088979
175	0xbe048f16	-0.12945208
176	0xbe3ef470	-0.18647933
177	0xbe8fb96a	-0.28071147
178	0x3dd29277	0.10281842
179	0x3d285c0f	0.04110342
180	0xbdb1cff6	-0.086822435
181	0xbc90e56d	-0.017687524
182	0x3e3a3b36	0.1818665
183	0x3d2dc0ec	0.042420313
184	0x3db9c862	0.09071423
185	0x3c6e3d40	0.01454097
186	0xbd0d27ad	-0.034461666
187	0xbd8c85a6	-0.06861429
188	0x3ac41865	0.0014960883
189	0xbe36ecaf	-0.17863725
190	0xbd0c7775	-0.03429361
191	0xbe652e9c	-0.22381061
192	0xbe982067	-0.2971222
193	0xbe2b9f73	-0.16760044
194	0x3d8da7a4	0.069167405
195	0xbe423ff4	-0.18969709
196	0x3cdb86d8	0.026797697
197	0xbc344dcc	-0.011004876
198	0x3e00f11b	0.12591974
199	0xbd3c20a0	-0.04592955
200	0xbe1baeca	-0.15203395
201	0x3d642622	0.05570043
202	0xbed3fef4	-0.4140545
203	0xbe1d1435	-0.1533974
204	0x3cc379c3	0.023861771
205	0xbe003c70	-0.12523055
206	0xbe760701	-0.2402611
207	0x3d621290	0.055193484
208	0x3d148ed3	0.03626902
209	0x3c1284cd	0.008942795
210	0xbd911601	-0.07084275
211	0xbe54fcb5	-0.20799525
212	0xbe01e8a9	-0.12686409
213	0xbbbf9dc9	-0.005847667
214	0xbe7bc76d	-0.24587794
215	0xbe9930ce	-0.29920048
216	0x3df40a88	0.11916071
217	0xbe415da5	-0.18883379
218	0xbe9400c1	-0.28906825
219	0x37b410da	2.146552e-05
220	0xbdf616f7	-0.12016099
221	0xbdab8185	-0.08374313
222	0xbe1682e6	-0.14698371
223	0x3c91ad78	0.017782912
224	0xbe1c4537	-0.15260778
225	0xbd8d69d3	-0.0690495
226	0xbe64729c	-0.22309345
227	0xbe2f404e	-0.17114374
228	0x3d6746d4	0.05646403
229	0xbdf3f9be	-0.11912869
230	0xbe0cdbae	-0.13755676
231	0x3e4795ea	0.19490781
232	0xbe81a2d9	-0.25319555
233	0x3dae32e7	0.085058026
234	0x3c3af805	0.0114116715
235	0xbe868a66	-0.26277465
236	0xbe813509	-0.25235775
237	0xbce4aacd	-0.027913475
238	0xbdac7c30	-0.084221244
239	0xbe0dd6e8	-0.13851511
240	0x3dd94081	0.10608006
241	0xbea266c5	-0.31719032
242	0xbe18ac32	-0.14909437
243	0xba903a4b	-0.0011003701
244	0xbe611504	-0.21980673
245	0xbe000512	-0.12501934
246	0x3dd0453b	0.10169455
247	0xbd1a1c01	-0.037624363
248	0xbe254110	-0.161381
249	0xbd38bf8c	-0.04510455
250	0xbd410f89	-0.047133956
251	0xbd829bf3	-0.06377401
252	0x3bbef64f	0.005827702
253	0xbe925809	-0.2858279
254	0xbe0a10ab	-0.13482921
255	0xbd2c9aef	-0.042139944

network_body._body_endoder.seq_layers.0.bias f4 [128]
0	0xbcecee15	-0.02892212
1	0xbd5dba8f	-0.054132994
2	0xbe1eb5a0	-0.15498972
3	0xbe090975	-0.13382514
4	0xbd0182aa	-0.03161875
5	0xbe242e2f	-0.16033243
6	0xbd0f93a1	-0.0350529
7	0xbd5436c1	-0.05181003
8	0xbd3c3ab8	-0.045954436
9	0xbcafa5d9	-0.021441387
10	0xbc700f26	-0.014652049
11	0xbdfb9661	-0.12284542
12	0xbda36254	-0.07977739
13	0xbddc8d42	-0.1076913
14	0xbd856584	-0.06513503
15	0xbd0598a1	-0.03261626
16	0xbe1d6449	-0.15370287
17	0xbddd9cc5	-0.10820917
18	0xbd932c63	-0.071862005
19	0xbdb5067b	-0.08839127
20	0xbdf98d47	-0.1218515
21	0xbdfde9ec	-0.12398133
22	0xbdf25b16	-0.118337795
23	0xbe130eb3	-0.14361076
24	0xbcd87461	-0.026422681
25	0xbbadf660	-0.005308911
26	0xbdf6b5ff	-0.12046432
27	0xbd994a3d	-0.07484863
28	0xbd0b02b4	-0.033938125
29	0xbc7b87e9	-0.015352228
30	0xbc74a84f	-0.014932706
31	0xbe1996b1	-0.1499889
32	0xbe2ec55b	-0.17067473
33	0x3cdeaa7f	0.027180908
34	0xbe0affa7	-0.13574086
35	0xbd9756bd	-0.07389591
36	0x3c828fda	0.015937734
37	0xbda4e0e6	-0.080507085
38	0x3cd0b25e	0.025475677
39	0xbda91a6e	-0.08256994
40	0xbcad9d21	-0.021193089
41	0xbdfe805d	-0.12426827
42	0x3c2d5083	0.0105782775
43	0xbe038ba1	-0.12846233
44	0xbd6ccf03	-0.05781461
45	0xbe21291c	-0.15738338
46	0xbc456835	-0.012048771
47	0xbdc85ee4	-0.09783724
48	0xbd742f54	-0.059615448
49	0xbb100429	-0.0021975136
50	0xbda872b1	-0.08225001
51	0xbd07ae1d	-0.03312503
52	0xbda5fa7a	-0.08104415
53	0xbdde32a4	-0.10849503
54	0x3c7e0d9f	0.015506177
55	0xbd331313	-0.043719362
56	0x3cd1aa38	0.025593862
57	0xbde46a51	-0.11153091
58	0xbdd41612	-0.10355772
59	0xbcbfe8fa	-0.023426522
60	0xbd026220	-0.03183186
61	0x3c49f499	0.012326383
62	0xbd064497	-0.032780256
63	0xbd5719a5	-0.05251469
64	0xbdac5bf3	-0.084159754
65	0xbce7982f	-0.028270809
66	0xbc024a58	-0.007952295
67	0x3d440c7b	0.047863465
68	0xbe52853a	-0.20558634
69	0xbdfe44f0	-0.124154925
70	0xbda869b8	-0.08223289
71	0xbdabd86a	-0.08390887
72	0xbc6c4c73	-0.014422524
73	0xbd50c307	-0.050967243
74	0xbe05b2b3	-0.1305645
75	0xbd3049ca	-0.04303912
76	0xbe11dbef	-0.14244054
77	0xbd9fd80e	-0.07804881
78	0x3cffdf0f	0.031234292
79	0x3b56fb55	0.0032803614
80	0xbe2a3994	-0.16623527
81	0xbd2616ab	-0.04054896
82	0xbd800a4b	-0.06251963
83	0x3cc1d7aa	0.023662407
84	0xbdb64899	-0.08900566
85	0x3be3ac5b	0.0069480366
86	0xbd69f9c1	-0.05712295
87	0x3bd67fbe	0.00654599
88	0xbdbef208	-0.093235075
89	0xbd8400f0	-0.06445491
90	0xbd4e5ed8	-0.05038342
91	0xbd29c501	-0.041447643
92	0xbcbe2ead	-0.023215616
93	0xbc8b556f	-0.017008511
94	0xbd4072e0	-0.046984553
95	0xbc8406a8	-0.016116455
96	0xbdd8ea7b	-0.105915986
97	0xbda6fc2e	-0.08153568
98	0xbe21a63d	-0.15786071
99	0xbca7a2c4	-0.020463355
100	0xbd068e62	-0.03285063
101	0xbe0fc453	-0.14039735
102	0xbacc41c2	-0.0015583562
103	0xbde3621f	-0.111026995
104	0xbcd730b6	-0.026268344
105	0xbd0c17b0	-0.034202278
106	0xbe06deba	-0.13170901
107	0xbd994dd8	-0.07485551
108	0xbd4157e0	-0.047202945
109	0xbd0bb84e	-0.034111314
110	0xbd077553	-0.033070873
111	0xbd75a46c	-0.059971258
112	0xbcc2945e	-0.023752388
113	0xbdc63ab4	-0.096791655
114	0xbdae72ee	-0.08518015
115	0xbd096e91	-0.03355271
116	0xbdaba4b5	-0.08381025
117	0xbccd3ef2	-0.025054429
118	0xbe4c6c6f	-0.19963239
119	0xbc10e8c0	-0.008844554
120	0xbd79ad55	-0.060956318
121	0xbcd8fcce	-0.026487734
122	0xbceca27c	-0.028886072
123	0xbd42df72	-0.047576375
124	0xbe438444	-0.19093424
125	0xbd544dcd	-0.05183201
126	0xbdb43a0e	-0.088001356
127	0xbe2efd21	-0.17088749

network_body._body_endoder.seq_layers.2.weight f4 [128, 128]
0	0xbda51798	-0.08061141
1	0x3b6a3461	0.0035736787
2	0xbb7a4ec5	-0.0038193923
3	0x3e695e5c	0.22789901
4	0x3e024d09	0.12724699
5	0x3d7f03e8	0.062259585
6	0x3e842c8a	0.2581523
7	0xbdbeb466	-0.09311752
8	0xbbf0cb98	-0.007348489
9	0x3e1d6bbd	0.1537313
10	0xbe1aee7d	-0.15130039
11	0x3d8db840	0.069199085
12	0xbd71746e	-0.058948927
13	0x3cfed223	0.03110606
14	0x3dfedcd2	0.12444462
15	0x3c971834	0.018444158
16	0xbdb7b277	-0.08969586
17	0x3df7c633	0.120983504
18	0x3ca138e3	0.019680446
19	0x3da53b24	0.08067921
20	0xbdadf971	-0.08494843
21	0x3d241ef6	0.04006859
22	0xbdf2f871	-0.11863793
23	0x3e21b7ca	0.15792766
24	0x3cf63e18	0.030058905
25	0x3dbd2b35	0.09236757
26	0x3b7b0859	0.0038304536
27	0xbd8a02c7	-0.06738811
28	0xbd38d1da	-0.045122005
29	0x3e755b29	0.23960556
30	0x3d3ead26	0.046551846
31	0x3e4b283a	0.19839564
32	0x3e27cbc7	0.16386329
33	0x3d88aee1	0.066739805
34	0x3dbce240	0.09222841
35	0x3e401806	0.18759164
36	0x3cf3e0a8	0.02977021
37	0x3df7eeaa	0.121060684
38	0xbd7c9fb5	-0.061675746
39	0x3dd8f492	0.10593523
40	0x3bf7ea0b	0.007565742
41	0x3d736423	0.05942167
42	0x3d049885	0.032372016
43	0x3daf5bae	0.085624084
44	0x3df028fd	0.11726568
45	0x3e0479ea	0.12937132
46	0xbd3dbd31	-0.046323005
47	0x3c3d402f	0.011550947
48	0x3e1082da	0.14112416
49	0xbdf667f7	-0.120315485
50	0x3e7e8e07	0.24858867
51	0x3e407808	0.18795788
52	0x3e150dcb	0.14556043
53	0x3e120039	0.14257897
54	0xbd539624	-0.051656857
55	0x3dff89c0	0.124774456
56	0xbd4ffec9	-0.05078009
57	0xbc794127	-0.015213287
58	0xbdb65e96	-0.089047596
59	0x3dbe61fd	0.092960335
60	0x3d9b58eb	0.07585319
61	0x3e1a8763	0.15090708
62	0x3e1391f7	0.1441115
63	0xbb75ec9f	-0.003752507
64	0xbd6eaad7	-0.058268394
65	0x3e170cee	0.14751026
66	0x3e330584	0.17482573
67	0xbe5f0f90	-0.2178328
68	0x3dfb49ee	0.1226996
69	0x3e44cfff	0.19219969
70	0x3dd2ac35	0.10286752
71	0x3e639c9c	0.2222771
72	0x3e42c114	0.19018966
73	0x3dd386f8	0.103284776
74	0x3d931c10	0.07183087
75	0x3d2e8f3e	0.042617075
76	0x3e89f666	0.269458
77	0xbb8b6e7a	-0.004255113
78	0xbe562d36	-0.20915684
79	0xbc832639	-0.016009437
80	0xbcd81d6c	-0.026381217
81	0x3da82509	0.08210189
82	0x3e3b69d0	0.18302083
83	0xbda6a6be	-0.08137272
84	0x3dbe1e73	0.092831515
85	0xbce326f6	-0.027728539
86	0xbe07d673	-0.132654
87	0x3e4c845e	0.19972369
88	0xbd5c7cea	-0.053830065
89	0x3dea6c8b	0.11446484
90	0x3e11b089	0.14227499
91	0x3c86c265	0.016450116
92	0x3da9be78	0.08288282
93	0x3dbe47ee	0.09291063
94	0x3d55e018	0.052215666
95	0x3e875016	0.26428288
96	0x3d100b13	0.03516681
97	0x3e2ab900	0.16672134
98	0xbd3189ea	-0.043344416
99	0x3e362337	0.17786871
100	0x3e3a7ea9	0.1821238
101	0xbde704ac	-0.11280188
102	0xbd739738	-0.059470385
103	0xbc022e26	-0.007945573
104	0x3e7f33e3	0.24922137
105	0x3d160fa2	0.036636002
106	0x3dcf484b	0.10121211
107	0x3ddc9b5e	0.107718214
108	0x3d9eb7ce	0.07749902
109	0x3e075cde	0.1321902
110	0xbd39df08	-0.045378715
111	0x3de33fe1	0.11096168
112	0x3e2d27c6	0.16909704
113	0x3e133f00	0.14379501
114	0xbd2e2874	-0.042519048
115	0x3db18cf8	0.08669466
116	0x3c7e32c7	0.015515036
117	0xbd16eb80	-0.036845684
118	0x3d5090bb	0.050919276
119	0x3d7bfe60	0.061521888
120	0x3decec89	0.11568553
121	0x3d83a46d	0.06427846
122	0x3e2c4106	0.1682168
123	0x3e2ad4fd	0.16682811
124	0xbd7fadc6	-0.062421583
125	0x3eb2a369	0.34890297
126	0xbc98939c	-0.018625073
127	0x3e581120	0.21100283
128	0xbd9f5df3	-0.07781591
129	0xbdb56d0a	-0.08858688
130	0xbba7f0a4	-0.005125122
131	0x3df63253	0.12021317
132	0x3e13da8a	0.14438835
133	0x3e28ab21	0.1647153
134	0x3e3fbbaf	0.1872394
135	0x3d45ab16	0.048258863
136	0x3d9c1aa9	0.076222725
137	0x3d4ccee6	0.050002
138	0x3d6c5de5	0.057706732
139	0x3db97f9f	0.09057545
140	0x3db4a23a	0.08820005
141	0xbe201ff1	-0.15637185
142	0x3e2656a9	0.16243996
143	0xbe57231a	-0.21009484
144	0x3df2c743	0.118544124
145	0xbde54fb4	-0.11196843
146	0x3ceb190b	0.028698465
147	0x3e11d961	0.1424308
148	0x3c14a333	0.009072113
149	0xbd1c684d	-0.038185406
150	0x3d267355	0.040637333
151	0x3dd9ea6f	0.10640418
152	0x3e95bf99	0.2924774
153	0x3d5484f4	0.051884606
154	0x3ad3e376	0.0016165811
155	0x3d638c0e	0.05555349
156	0xbd31a156	-0.043366753
157	0xbdbd6a91	-0.092488416
158	0x3d8278a7	0.06370669
159	0x3c43ce68	0.011951067
160	0x3d98238a	0.074286535
161	0xbe31611a	-0.17322198
162	0x3d74ddc3	0.0597818
163	0xbd36853c	-0.044560656
164	0x3a92658e	0.0011169182
165	0xbd9e8909	-0.07740981
166	0x3e008fd2	0.12554863
167	0x3e074fe8	0.13214076
168	0xbd0ddf05	-0.034636516
169	0xbd8fcd32	-0.0702156
170	0x3c19cb0f	0.009386792
171	0xbd472376	-0.048617803
172	0x3de98af6	0.11403458
173	0x3dec0a9a	0.115254596
174	0x3dce8a29	0.10084946
175	0x3e4c39a6	0.19943866
176	0xbdab712b	-0.083711945
177	0x3de9ac9b	0.11409875
178	0xbda5f039	-0.081024595
179	0x3e07de4f	0.13268398
180	0x3e11d6e1	0.14242126
181	0x3dae50df	0.08511519
182	0xbd87eaec	-0.06636605
183	0xbc7009e0	-0.014650792
184	0x3d9eec02	0.07759859
185	0x3e23d314	0.15998489
186	0x3cd15ff6	0.025558453
187	0xbddcf6a4	-0.107892305
188	0x3d97da30	0.07414663
189	0x3d26cae6	0.040720843
190	0x3d95a6cc	0.073072046
191	0x3e02f536	0.12788853
192	0xbc899888	-0.016796365
193	0xbe5a0181	-0.21289636
194	0x3d8c0bc8	0.068381846
195	0xbd806f24	-0.062711984
196	0xbd853ce7	-0.06505757
197	0xbc16de70	-0.009208307
198	0x3dbe7df2	0.09301366
199	0x3d1343d2	0.03595335
200	0x3d48c91b	0.049019914
201	0x3e1154a1	0.1419244
202	0x3d9b5787	0.07585054
203	0x3d250645	0.040289182
204	0x3e12566e	0.14290783
205	0x3e1cc76a	0.15310445
206	0xbb620028	-0.0034484956
207	0x3d47e69a	0.048803903
208	0x3d67bb0c	0.056574866
209	0xbd06ae97	-0.032881346
210	0xbb54e7d8	-0.0032486822
211	0xbe33b39f	-0.17548989
212	0x3e6a22e2	0.22864869
213	0xbd232087	-0.039825942
214	0xbcd2f5af	-0.025751917
215	0xbc89a808	-0.016803756
216	0x3dba9d6e	0.091120586
217	0x3d94d1b5	0.07266561
218	0x3dea400c	0.11437997
219	0xbde45d4c	-0.111506075
220	0xbcf96c29	-0.030447083
221	0xbb214470	-0.0024607442
222	0xbdb0383f	-0.08604478
223	0x3df4cd0b	0.11953171
224	0x3dce8071	0.10083092
225	0x3c8f884e	0.01752105
226	0x3d7c0a94	0.061533526
227	0x3ac84898	0.0015280424
228	0x3d9e2965	0.07722739
229	0x3ddaa39d	0.10675738
230	0xbccc8e7e	-0.02497029
231	0x3dc82301	0.097723015
232	0xbd8f1be3	-0.06987741
233	0x3d4d5495	0.05012949
234	0x3e0a205f	0.13488911
235	0x3d30bc24	0.043148175
236	0xbe342e27	-0.1759573
237	0xbceea8f7	-0.029133303
238	0x3e2ac5ef	0.16677068
239	0x3e5bacc2	0.2145262
240	0xbdae8efe	-0.08523367
241	0x3df9ba6e	0.12193762
242	0xbe054d2c	-0.1301772
243	0x3cc7dcc9	0.02439727
244	0xbd8ee369	-0.06976969
245	0x3de933dc	0.113868445
246	0xbe72a707	-0.23696528
247	0x3adb5d19	0.0016736119
248	0xbd2a8ad5	-0.041636307
249	0x3c3602c5	0.011109059
250	0x3d99292c	0.07478556
251	0x3d64e2eb	0.05588047
252	0x3e27d549	0.16389956
253	0x3dc070a0	0.093964815
254	0x3d140def	0.0361461
255	0x3e129847	0.14315902

network_body._body_endoder.seq_layers.2.bias f4 [128]
0	0xbdf549e3	-0.119769834
1	0xbdfe0ba3	-0.12404563
2	0xbdc6f17e	-0.0971403
3	0xbd921d5b	-0.07134505
4	0xbda5554a	-0.08072908
5	0xbe0bc2b5	-0.13648494
6	0x3c1d3f4f	0.0095976135
7	0xbdd66cd6	-0.104699776
8	0xbd7da918	-0.06192884
9	0xbddb32ed	-0.10703073
10	0xbdf66b2d	-0.12032161
11	0xbde3d3c5	-0.11124376
12	0xbd950ae0	-0.07277465
13	0x3cda9a1d	0.026684815
14	0xbdeeac9e	-0.11654018
15	0xbd84ca3d	-0.064838864
16	0xbdb6c9bc	-0.089251965
17	0x3d48153a	0.04884837
18	0xbdaba2e2	-0.08380677
19	0x3dd87d8c	0.10570821
20	0xbd3e92c4	-0.046526685
21	0xbdcb21b7	-0.0991854
22	0xbd74daa4	-0.059778824
23	0xbdeb7f54	-0.11498895
24	0xbe22cdad	-0.15898772
25	0xbd3121f4	-0.04324527
26	0x3d84502c	0.06460604
27	0xbe4d00bf	-0.20019816
28	0xbd4dcc52	-0.050243683
29	0xbd0a1123	-0.03370775
30	0xbdd872d8	-0.1056878
31	0xbdd945de	-0.10609029
32	0xbdd2f3cc	-0.10300407
33	0xbd96a4d4	-0.07355657
34	0xbd598df5	-0.053113896
35	0xbb8788e8	-0.0041361935
36	0xbdc36223	-0.095402025
37	0xbdb02127	-0.08600073
38	0xbdb08260	-0.08618617
39	0xbdd9a184	-0.1062651
40	0xbdd5f686	-0.10447411
41	0xbd08e56f	-0.03342193
42	0xbbedaf0f	-0.0072535346
43	0xbda0334b	-0.07822283
44	0xbe3874fb	-0.18013375
45	0xbe089b97	-0.13340603
46	0xbdd1e450	-0.10248625
47	0xbe0587a3	-0.13040023
48	0xbd1abd56	-0.03777822
49	0xbd57494a	-0.05256013
50	0xbdef9890	-0.11699021
51	0xbc09a501	-0.008401156
52	0xbdfddd5a	-0.12395735
53	0xbdb5f6a6	-0.08884935
54	0xbddd1340	-0.10794687
55	0x3c1df6e5	0.009641384
56	0xbcb9e187	-0.022690548
57	0xbd568273	-0.0523705
58	0xbd735f44	-0.059417024
59	0x3b3cc9e3	0.0028806857
60	0xbdd231d2	-0.10263409
61	0xbe08b8fe	-0.13351819
62	0xbd7ea1b2	-0.062165923
63	0xbdb522f8	-0.088445604
64	0xbdb8f2cf	-0.09030687
65	0xbddccdb0	-0.10781419
66	0xbcf48afe	-0.029851433
67	0xbdbf7233	-0.09347954
68	0xbca61418	-0.020273253
69	0xbdb50fb5	-0.088408865
70	0xbdefb9f1	-0.117053874
71	0xbd90bf11	-0.07067693
72	0xbe0ea94e	-0.13931772
73	0xbe253eff	-0.16137312
74	0xbde32598	-0.11091155
75	0xbdf63734	-0.12022248
76	0xbdca295f	-0.09871172
77	0xbcd1c2b4	-0.025605537
78	0xbda074ae	-0.07834755
79	0xbdd8625f	-0.10565638
80	0xbdb2af2a	-0.08724816
81	0xbd18f65f	-0.037344333
82	0xbdf0ec35	-0.11763803
83	0xbc98c16c	-0.018646918
84	0xbda4e5c6	-0.08051638
85	0xbd9aefb1	-0.07565249
86	0xbcee5469	-0.029092984
87	0xbdfc8e61	-0.12331844
88	0xbdc20814	-0.09474197
89	0xbde396f0	-0.111127734
90	0x3ced4922	0.028965537
91	0x3b8c7549	0.0042864424
92	0x3b028774	0.0019917162
93	0xbc301ba9	-0.010748782
94	0xbe0c52a2	-0.13703397
95	0xbaa3aef8	-0.0012488058
96	0x3cd781f5	0.026307086
97	0xbda46c85	-0.08028511
98	0x3d2aa9c9	0.041665826
99	0xbe00a02b	-0.12561099
100	0xbb2221f3	-0.0024739474
101	0xbd99aa2d	-0.075031616
102	0xbd92285f	-0.071366064
103	0xbdf787f1	-0.12086476
104	0xbb84ca61	-0.0040524458
105	0xbdb7f824	-0.08982876
106	0xbe29f717	-0.16598164
107	0xbdeda9a4	-0.11604622
108	0xbdc4463d	-0.095837094
109	0x3d627b14	0.055293158
110	0x3c67f8db	0.014158453
111	0xbe053334	-0.13007814
112	0xbd7b5746	-0.061362527
113	0xbdfa345e	-0.122170195
114	0xbdbc4856	-0.091934845
115	0xbdfac031	-0.12243689
116	0xbdf60039	-0.12011761
117	0xbb14db54	-0.0022713738
118	0x3ce1a4e5	0.027544448
119	0x3c5c22c1	0.01343602
120	0xbde58672	-0.11207284
121	0xbdc63606	-0.09678273
122	0xbd18eec2	-0.037337072
123	0xbe226c5b	-0.15861647
124	0xbdbafef9	-0.091306634
125	0xbe06f689	-0.13179983
126	0xbd9a6644	-0.07539037
127	0xbdc4fc84	-0.09618476

action_model._continuous_distribution.log_sigma f4 [1, 2]
0	0xbeed47e2	-0.46343905
1	0xbf358de6	-0.70919645

action_model._continuous_distribution.mu.weight f4 [2, 128]
0	0xbdb8bbdb	-0.090202056
1	0xbdb65752	-0.08903374
2	0xbde60e06	-0.112331435
3	0xbdb9ce35	-0.09072534
4	0xbe24b31f	-0.16083954
5	0xbd81ed55	-0.063440956
6	0x3c7d887c	0.015474435
7	0xbdd68129	-0.10473854
8	0xbe20ff3e	-0.15722367
9	0xbdb321b3	-0.08746662
10	0xbd9cacaf	-0.07650124
11	0xbe03c779	-0.12869062
12	0xbe107eba	-0.14110842
13	0xbcbd7d82	-0.023131136
14	0xbe324851	-0.17410399
15	0xbe138de7	-0.144096
16	0xbe086ca2	-0.1332269
17	0x3dbe615d	0.09295914
18	0xbdb4444a	-0.088020876
19	0x3e0022c5	0.12513264
20	0xbd90f953	-0.07078805
21	0xbde2a076	-0.11065762
22	0xbd9e2c3c	-0.07723281
23	0xbdebc8eb	-0.115129314
24	0xbd8689b4	-0.065692335
25	0xbac91e44	-0.0015344103
26	0x3d99d2df	0.075109236
27	0xbd1fcd65	-0.03901424
28	0x3b6a96fd	0.0035795562
29	0x3ba6084a	0.005066906
30	0xbe0c5503	-0.13704304
31	0xbda02bb1	-0.078208335
32	0xbdcc74bc	-0.09983203
33	0xbdaf9580	-0.08573437
34	0x3c2256cf	0.009908392
35	0x3c0adc42	0.008475365
36	0xbda536cc	-0.08067092
37	0xbdf89c69	-0.12139208
38	0xbe13bc3b	-0.14427273
39	0xbe01374b	-0.12618749
40	0xbcbb0d36	-0.022833448
41	0xbdd7e3cb	-0.10541495
42	0x3b218cff	0.002465069
43	0xbe346649	-0.17617144
44	0xbdc2addd	-0.09505818
45	0xbdd92a49	-0.106037684
46	0xbe1921e6	-0.14954337
47	0xbd9d5956	-0.07683055
48	0x3afdbfe1	0.0019359553
49	0xbd8683c3	-0.065681
50	0xbe1207c1	-0.1426077
51	0x3abb9cae	0.0014313662
52	0xbe0b0664	-0.13576657
53	0xbddef7ec	-0.10887131
54	0xbd8d9e89	-0.06915004
55	0xbc92b564	-0.01790876
56	0xbb148168	-0.002266014
57	0x3c9841e3	0.018586105
58	0xbdd5e58a	-0.10444172
59	0x3ba862e9	0.005138744
60	0xbdd1e067	-0.102478795
61	0xbdb96c6d	-0.09053884
62	0xbdfa2629	-0.1221431
63	0xbd8d3b2c	-0.06896052
64	0xbdeaf1e3	-0.114719175
65	0xbd88c4e9	-0.06678183
66	0x3c0941c2	0.008377494
67	0xbd940964	-0.072283536
68	0x3c13e952	0.009027796
69	0xbdfcdde9	-0.123470135
70	0xbda638ac	-0.08116278
71	0xbe15a6b0	-0.14614367
72	0xbd32be4c	-0.043638512
73	0xbdc9cd76	-0.09853642
74	0xbd8daf9d	-0.06918261
75	0xbda46481	-0.08026982
76	0xbd87e5cd	-0.06635628
77	0xba86ea36	-0.0010293189
78	0xbde4e6cb	-0.11176833
79	0xbe09e7b7	-0.13467298
80	0xbdd6bd6f	-0.1048535
81	0xbb0cdae4	-0.0021492774
82	0xbe0daede	-0.13836238
83	0xbc627c79	-0.013823622
84	0xbe318bb9	-0.17338456
85	0xbe0e4199	-0.13892211
86	0x3a8147c9	0.0009863313
87	0xbe0c3fb4	-0.13696176
88	0xbdc9bd28	-0.09850532
89	0xbde4b9cc	-0.111682504
90	0x3c69fe0a	0.014281759
91	0x3d91f709	0.07127196
92	0xbc72f8db	-0.01482984
93	0x3b5620bf	0.0032673327
94	0xbddb5217	-0.10709017
95	0xbbddffa4	-0.0067748595
96	0xb9a9fe00	-0.00032423437
97	0xbe04e0dc	-0.12976402
98	0x3d8ab08c	0.06771955
99	0xbdeb7456	-0.11496799
100	0xba632574	-0.0008664944
101	0xbdefd387	-0.117102675
102	0xbe0b097f	-0.13577841
103	0xbda62992	-0.08113398
104	0x39d33adf	0.00040288919
105	0xbdb3d9d7	-0.08781784
106	0xbdc0d39f	-0.094153635
107	0xbc9bf1c3	-0.01903618
108	0xbdb895aa	-0.09012921
109	0x3dbf5608	0.09342581
110	0xbb236379	-0.0024931116
111	0xbdeb9a0f	-0.11503994
112	0xbe2e9294	-0.17048103
113	0xbdcf9442	-0.101357
114	0xbda275ae	-0.07932602
115	0xbdea71b4	-0.114474684
116	0xbdbcdfe6	-0.09222393
117	0x3b21b66e	0.0024675387
118	0x3bf1afe9	0.0073757065
119	0xbc1d7ee5	-0.009612774
120	0xbddd4a0f	-0.10805141
121	0xbe00e06a	-0.12585607
122	0x3ae0222b	0.0017100027
123	0xbde290fe	-0.11062811
124	0xbd78d506	-0.06075003
125	0xbddb7519	-0.10715694
126	0xbdaa5cbd	-0.0831847
127	0xbd94f291	-0.07272828
128	0x3d8adbf9	0.06780238
129	0x3d8fa9fb	0.07014843
130	0xbd06cc90	-0.03290993
131	0x3d5e02a8	0.054201752
132	0xbd8b5887	-0.068039946
133	0xbb57c6a0	-0.0032924786
134	0x3bbbd52e	0.0057322
135	0xbc82a7e6	-0.0159492
136	0xbdc9e1ac	-0.098574966
137	0x3da64d7a	0.08120246
138	0x3d2f6442	0.042820223
139	0x3d85ac75	0.06527034
140	0xbda7c8e6	-0.08192615
141	0x3d0c900f	0.034317072
142	0xbd456720	-0.04819405
143	0xbcb6fc88	-0.022337213
144	0xbabd3961	-0.0014436656
145	0x3d935d51	0.07195533
146	0x3d7cf4c6	0.06175687
147	0x3dae8e03	0.0852318
148	0x3d613a72	0.05498738
149	0x3d9cb5ee	0.07651888
150	0x3d902148	0.07037598
151	0xbd9e9124	-0.07742527
152	0x3d5c1393	0.053729605
153	0xbb600ca8	-0.0034187231
154	0x3d46ca37	0.04853269
155	0xbcd7bf88	-0.026336446
156	0x3b40463a	0.0029338733
157	0xb9ff1168	-0.0004865036
158	0xbce21055	-0.027595678
159	0x3d68d0f6	0.056839906
160	0xbc93794c	-0.018002175
161	0x3dbca5f7	0.09211343
162	0x3b0cfd6b	0.0021513354
163	0x3be0028d	0.0068362416
164	0x3d803293	0.06259646
165	0xbbc4026f	-0.0059817354
166	0xbd5c7086	-0.05381825
167	0xbd1916a8	-0.037375122
168	0x3cade011	0.021225007
169	0xbb32ffc1	-0.0027313086
170	0x3b010f9d	0.0019693144
171	0xbd8cc990	-0.068743825
172	0xbcb651de	-0.022255834
173	0x3db8fd80	0.09032726
174	0xbd5126f7	-0.05106255
175	0x3d9cf9d9	0.07664842
176	0x3b1c868d	0.002388391
177	0x3d106779	0.03525493
178	0xbd681646	-0.056661867
179	0xba87f2ef	-0.0010372082
180	0x3bf9b668	0.0076206215
181	0x3d84fa7a	0.06493087
182	0x3d8a074b	0.06739672
183	0x3b1ad00b	0.0023622538
184	0x39e14dba	0.00042973255
185	0x3c753ec8	0.0149685815
186	0x3d9e84a7	0.07740145
187	0x3baa4ea2	0.005197362
188	0xbd24875e	-0.04016816
189	0x3d9f8a9d	0.0779011
190	0xbd4d2bc6	-0.050090574
191	0x3db41669	0.08793337
192	0xbd6b1331	-0.05739135
193	0x3d962706	0.07331662
194	0x3cfc5020	0.030799925
195	0xbc836223	-0.016038006
196	0x3be22e05	0.0069024586
197	0xbcdef2d7	-0.027215404
198	0x3d82a67e	0.06379412
199	0xbd83594d	-0.06413517
200	0xbd25456a	-0.0403494
201	0x3cabca3d	0.020970458
202	0x3d2df72e	0.042472057
203	0x3da0d96a	0.078539684
204	0x3d8c805c	0.0686042
205	0xbacfccf7	-0.0015853931
206	0x3d944219	0.072391696
207	0xbd0c3402	-0.034229286
208	0xbd4ab784	-0.04949142
209	0x39533d4e	0.00020145366
210	0xbd9ab952	-0.07554878
211	0x3ca5f8aa	0.020260174
212	0xbca865fd	-0.020556444
213	0xbd654a8d	-0.0559793
214	0x3b1fadff	0.0024365184
215	0xbd90e1e6	-0.07074337
216	0x3c614c6c	0.013751131
217	0xbd37cffa	-0.044876076
218	0x3d62676a	0.055274405
219	0x3d6678bb	0.05626748
220	0x3ce9e464	0.028551288
221	0x3caa6ee8	0.020804837
222	0xbd8890b7	-0.06668227
223	0xba36f8c7	-0.000697982
224	0x3942257b	0.00018515244
225	0xbd53ec2f	-0.051738914
226	0x3d5c7e7b	0.05383156
227	0xbd487af3	-0.04894538
228	0xbae8cd6c	-0.0017761416
229	0x3dc6b58c	0.09702596
230	0x3db148fb	0.08656498
231	0xbd48cce9	-0.049023543
232	0xbb4fdbdc	-0.003171674
233	0x3d961928	0.07329017
234	0x3d43e21b	0.047823053
235	0x3d9e580f	0.077316396
236	0xbd280a6d	-0.041025568
237	0xbd7b360e	-0.061330847
238	0x3c5feb9f	0.013667016
239	0xbd606e21	-0.054792527
240	0xbdbfd015	-0.093658604
241	0xbd225a8a	-0.039637126
242	0x3da8ef2f	0.08248746
243	0xbc88f44c	-0.016718052
244	0x3d75a359	0.059970234
245	0x3b0e2ef1	0.002169546
246	0xbbc64253	-0.006050387
247	0x3cb88c7c	0.022527926
248	0x3d94cf24	0.072660714
249	0xbd835ff4	-0.06414786
250	0x3a17a8d9	0.0005785353
251	0xbd1f9e67	-0.038969424
252	0xbcd97b70	-0.026548117
253	0xbd3fe510	-0.04684931
254	0xbc40a5cf	-0.011758282
255	0x3d8ebb26	0.069692895

action_model._continuous_distribution.mu.bias f4 [2]
0	0x3e05ca8c	0.13065547
1	0xbdc18d79	-0.09450812

exp_avg f4 [128, 99]
0	0x80000004	-6e-45
1	0x3734f6fb	1.0786341e-05
2	0x3734f6fb	1.0786341e-05
3	0x00000004	6e-45
4	0x3734f6fb	1.0786341e-05
5	0x3734f6fb	1.0786341e-05
6	0x36550cb4	3.1746868e-06
7	0x36ff679c	7.611654e-06
8	0x37245406	9.794725e-06
9	0x00000004	6e-45
10	0x3734f6fb	1.0786341e-05
11	0x3734f6fb	1.0786341e-05
12	0x36550cb4	3.1746868e-06
13	0x36ff679c	7.611654e-06
14	0x3722d696	9.705915e-06
15	0x00000004	6e-45
16	0x3734f6fb	1.0786341e-05
17	0x3734f6fb	1.0786341e-05
18	0x3680ba99	3.83642e-06
19	0x36e9335e	6.949921e-06
20	0x3725f1ee	9.891095e-06
21	0x80000004	-6e-45
22	0x3734f6fb	1.0786341e-05
23	0x3734f6fb	1.0786341e-05
24	0xb2751c1b	-1.4267267e-08
25	0x37353442	1.0800608e-05
26	0x373502c0	1.0789081e-05
27	0x00000004	6e-45
28	0x3734f6fb	1.0786341e-05
29	0x3734f6fb	1.0786341e-05
30	0x9b96e7f6	-2.496532e-22
31	0x3734f6fb	1.0786341e-05
32	0x3734f6fb	1.0786341e-05
33	0x21f75955	1.6761017e-18
34	0x3734f6fb	1.0786341e-05
35	0x3734f6fb	1.0786341e-05
36	0x2910388c	3.202347e-14
37	0x3734f6fb	1.0786341e-05
38	0x3734f6fb	1.0786341e-05
39	0x21f75955	1.6761017e-18
40	0x3734f6fb	1.0786341e-05
41	0x3734f6fb	1.0786341e-05
42	0x2a2daeae	1.5426091e-13
43	0x3734f6fb	1.0786341e-05
44	0x3734f6fb	1.0786341e-05
45	0x07cf9c2e	3.1237692e-34
46	0x3734f6fb	1.0786341e-05
47	0x3734f6fb	1.0786341e-05
48	0x26225b5a	5.6328845e-16
49	0x3734f6fb	1.0786341e-05
50	0x3734f6fb	1.0786341e-05
51	0x00000004	6e-45
52	0x3734f6fb	1.0786341e-05
53	0x3734f6fb	1.0786341e-05
54	0x0f7c17e6	1.2429162e-29
55	0x3734f6fb	1.0786341e-05
56	0x3734f6fb	1.0786341e-05
57	0x00000004	6e-45
58	0x3734f6fb	1.0786341e-05
59	0x3734f6fb	1.0786341e-05
60	0x80000004	-6e-45
61	0x3734f6fb	1.0786341e-05
62	0x3734f6fb	1.0786341e-05
63	0x80000004	-6e-45
64	0x3734f6fb	1.0786341e-05
65	0x3734f6fb	1.0786341e-05
66	0x80000004	-6e-45
67	0x3734f6fb	1.0786341e-05
68	0x3734f6fb	1.0786341e-05
69	0x80000004	-6e-45
70	0x3734f6fb	1.0786341e-05
71	0x3734f6fb	1.0786341e-05
72	0x80000004	-6e-45
73	0x3734f6fb	1.0786341e-05
74	0x3734f6fb	1.0786341e-05
75	0x80000004	-6e-45
76	0x3734f6fb	1.0786341e-05
77	0x3734f6fb	1.0786341e-05
78	0x80000004	-6e-45
79	0x3734f6fb	1.0786341e-05
80	0x3734f6fb	1.0786341e-05
81	0x80000004	-6e-45
82	0x3734f6fb	1.0786341e-05
83	0x3734f6fb	1.0786341e-05
84	0x00000004	6e-45
85	0x3734f6fb	1.0786341e-05
86	0x3734f6fb	1.0786341e-05
87	0x80000004	-6e-45
88	0x3734f6fb	1.0786341e-05
89	0x3734f6fb	1.0786341e-05
90	0x80000004	-6e-45
91	0x3734f6fb	1.0786341e-05
92	0x3734f6fb	1.0786341e-05
93	0x389eab62	7.5659496e-05
94	0x3735c2e9	1.0833822e-05
95	0xb88cf290	-6.720901e-05
96	0x389ebfb1	7.5697324e-05
97	0x37355d44	1.0810156e-05
98	0xb88d2f79	-6.7322464e-05
99	0x00000004	6e-45
100	0x37640f0e	1.3593364e-05
101	0x37640f0e	1.3593364e-05
102	0x00000004	6e-45
103	0x37640f0e	1.3593364e-05
104	0x37640f0e	1.3593364e-05
105	0x35aaec92	1.2734838e-06
106	0x374eb17d	1.23198815e-05
107	0x375ecb73	1.32796e-05
108	0x00000004	6e-45
109	0x37640f0e	1.3593364e-05
110	0x37640f0e	1.3593364e-05
111	0x35aaec92	1.2734838e-06
112	0x374eb17d	1.23198815e-05
113	0x375cc0b0	1.3157885e-05
114	0x80000004	-6e-45
115	0x37640f0e	1.3593364e-05
116	0x37640f0e	1.3593364e-05
117	0x3611a3f5	2.170212e-06
118	0x373fa612	1.1423153e-05
119	0x375afcfe	1.3052717e-05
120	0x80000004	-6e-45
121	0x37640f0e	1.3593364e-05
122	0x37640f0e	1.3593364e-05
123	0xb30ac4a6	-3.230948e-08
124	0x376499d2	1.3625673e-05
125	0x37642990	1.3599536e-05
126	0x00000004	6e-45
127	0x37640f0e	1.3593364e-05
128	0x37640f0e	1.3593364e-05
129	0x9d8459e0	-3.5033038e-21
130	0x37640f0e	1.3593364e-05
131	0x37640f0e	1.3593364e-05
132	0x1ffdaaca	1.07432215e-19
133	0x37640f0e	1.3593364e-05
134	0x37640f0e	1.3593364e-05
135	0x2a00eeef	1.145158e-13
136	0x37640f0e	1.3593364e-05
137	0x37640f0e	1.3593364e-05
138	0x1ffdaaca	1.07432215e-19
139	0x37640f0e	1.3593364e-05
140	0x37640f0e	1.3593364e-05
141	0x2a892760	2.436341e-13
142	0x37640f0e	1.3593364e-05
143	0x37640f0e	1.3593364e-05
144	0x068431aa	4.9725856e-35
145	0x37640f0e	1.3593364e-05
146	0x37640f0e	1.3593364e-05
147	0x2726e8af	2.3163266e-15
148	0x37640f0e	1.3593364e-05
149	0x37640f0e	1.3593364e-05
150	0x00000004	6e-45
151	0x37640f0e	1.3593364e-05
152	0x37640f0e	1.3593364e-05
153	0x0f94c804	1.467097e-29
154	0x37640f0e	1.3593364e-05
155	0x37640f0e	1.3593364e-05
156	0x00000004	6e-45
157	0x37640f0e	1.3593364e-05
158	0x37640f0e	1.3593364e-05
159	0x80000004	-6e-45
160	0x37640f0e	1.3593364e-05
161	0x37640f0e	1.3593364e-05
162	0x80000004	-6e-45
163	0x37640f0e	1.3593364e-05
164	0x37640f0e	1.3593364e-05
165	0x80000004	-6e-45
166	0x37640f0e	1.3593364e-05
167	0x37640f0e	1.3593364e-05
168	0x00000004	6e-45
169	0x37640f0e	1.3593364e-05
170	0x37640f0e	1.3593364e-05
171	0x80000004	-6e-45
172	0x37640f0e	1.3593364e-05
173	0x37640f0e	1.3593364e-05
174	0x80000004	-6e-45
175	0x37640f0e	1.3593364e-05
176	0x37640f0e	1.3593364e-05
177	0x80000004	-6e-45
178	0x37640f0e	1.3593364e-05
179	0x37640f0e	1.3593364e-05
180	0x80000004	-6e-45
181	0x37640f0e	1.3593364e-05
182	0x37640f0e	1.3593364e-05
183	0x00000004	6e-45
184	0x37640f0e	1.3593364e-05
185	0x37640f0e	1.3593364e-05
186	0x80000004	-6e-45
187	0x37640f0e	1.3593364e-05
188	0x37640f0e	1.3593364e-05
189	0x80000004	-6e-45
190	0x37640f0e	1.3593364e-05
191	0x37640f0e	1.3593364e-05
192	0x38c7e273	9.531239e-05
193	0x3764bd5e	1.36339495e-05
194	0xb8a7b0df	-7.996125e-05
195	0x38c7f1e9	9.534119e-05
196	0x37648732	1.3621337e-05
197	0xb8a7e1fd	-8.005274e-05
198	0x80000004	-6e-45
199	0xb00f7758	-5.2192695e-10
200	0xb00f7758	-5.2192695e-10
201	0x00000004	6e-45
202	0xb00f7758	-5.2192695e-10
203	0xb00f7758	-5.2192695e-10
204	0x2eba5fa0	8.475287e-11
205	0xb026c34a	-6.066797e-10
206	0xb018c784	-5.5580807e-10
207	0x80000004	-6e-45
208	0xb00f7758	-5.2192695e-10
209	0xb00f7758	-5.2192695e-10
210	0x2eba5fa0	8.475287e-11
211	0xb026c34a	-6.066797e-10
212	0xb0170a14	-5.49478e-10
213	0x80000004	-6e-45
214	0xb00f7758	-5.2192695e-10
215	0xb00f7758	-5.2192695e-10
216	0xaf069a32	-1.224201e-10
217	0xafdba194	-3.9950676e-10
218	0xb0073e95	-4.920165e-10
219	0x00000004	6e-45
220	0xb00f7758	-5.2192695e-10
221	0xb00f7758	-5.2192695e-10
222	0x290477a3	2.9413656e-14
223	0xb00f796a	-5.2195637e-10
224	0xb00f77e3	-5.2193466e-10
225	0x80000004	-6e-45
226	0xb00f7758	-5.2192695e-10
227	0xb00f7758	-5.2192695e-10
228	0x94c488ae	-1.9844853e-26
229	0xb00f7758	-5.2192695e-10
230	0xb00f7758	-5.2192695e-10
231	0x9a15ece5	-3.100384e-23
232	0xb00f7758	-5.2192695e-10
233	0xb00f7758	-5.2192695e-10
234	0xa38ceff6	-1.5280458e-17
235	0xb00f7758	-5.2192695e-10
236	0xb00f7758	-5.2192695e-10
237	0x9a15ece5	-3.100384e-23
238	0xb00f7758	-5.2192695e-10
239	0xb00f7758	-5.2192695e-10
240	0xa3f248f2	-2.6268586e-17
241	0xb00f7758	-5.2192695e-10
242	0xb00f7758	-5.2192695e-10
243	0x80e044b1	-2.0595793e-38
244	0xb00f7758	-5.2192695e-10
245	0xb00f7758	-5.2192695e-10
246	0x9fe53c7c	-9.7085335e-20
247	0xb00f7758	-5.2192695e-10
248	0xb00f7758	-5.2192695e-10
249	0x80000004	-6e-45
250	0xb00f7758	-5.2192695e-10
251	0xb00f7758	-5.2192695e-10
252	0x883e0007	-5.7176077e-34
253	0xb00f7758	-5.2192695e-10
254	0xb00f7758	-5.2192695e-10
255	0x80000004	-6e-45

exp_avg_sq f4 [128, 99]
0	0x31c739f2	5.79825e-09
1	0x36226abe	2.4202013e-06
2	0x36228fcb	2.422358e-06
3	0x3062bd45	8.248729e-10
4	0x3622b0ec	2.4242863e-06
5	0x3622b72a	2.4246497e-06
6	0x3286ddef	1.5700577e-08
7	0x36219ae4	2.4081028e-06
8	0x3622161d	2.4152753e-06
9	0x2f17325e	1.3751264e-10
10	0x3622c1e3	2.4252738e-06
11	0x3622c0c4	2.4252085e-06
12	0x32d2e95f	2.4553342e-08
13	0x3620cc05	2.3960613e-06
14	0x3621ca06	2.4108463e-06
15	0x2ee5836d	1.043706e-10
16	0x3622be05	2.4250487e-06
17	0x3622beac	2.4250867e-06
18	0x329d7485	1.8330192e-08
19	0x36214d98	2.4036035e-06
20	0x3621ecf3	2.4128792e-06
21	0x31951aaa	4.339502e-09
22	0x36224bfd	2.4184112e-06
23	0x3622b4a2	2.4245023e-06
24	0x32c6ee56	2.3158616e-08
25	0x3620d83d	2.3967725e-06
26	0x3622011c	2.4140527e-06
27	0x3253e11a	1.2332999e-08
28	0x3621d658	2.4115634e-06
29	0x362261f4	2.4196897e-06
30	0x32adf47c	2.025103e-08
31	0x3621883f	2.4070175e-06
32	0x3621ebe5	2.4128178e-06
33	0x3327efee	3.9100932e-08
34	0x361f7440	2.3760513e-06
35	0x36218f74	2.407437e-06
36	0x332a8f3b	3.9711477e-08
37	0x36205e4f	2.3896753e-06
38	0x36210c51	2.3998039e-06
39	0x335cf114	5.1442e-08
40	0x361f47b3	2.373458e-06
41	0x36216a13	2.4052613e-06
42	0x3334767e	4.2017284e-08
43	0x361ffbc5	2.3839395e-06
44	0x3620a12d	2.3935675e-06
45	0x331baa42	3.62436e-08
46	0x36213004	2.4018818e-06
47	0x3622607c	2.4196042e-06
48	0x34aa6d4d	3.1744494e-07
49	0x360d388b	2.104355e-06
50	0x36118241	2.1682501e-06
51	0x320b3214	8.102251e-09
52	0x362230b7	2.4168237e-06
53	0x3622a64a	2.4236674e-06
54	0x34c6f0bc	3.705553e-07
55	0x360a0f26	2.057242e-06
56	0x3610b0bf	2.1560552e-06
57	0x321a44c2	8.9796135e-09
58	0x362211a3	2.4150147e-06
59	0x362271da	2.4206151e-06
60	0x34bb67de	3.4907038e-07
61	0x360b3516	2.0743514e-06
62	0x3611cc83	2.1725725e-06
63	0x3221acaf	9.410697e-09
64	0x362218c0	2.4154288e-06
65	0x36228a64	2.4220435e-06
66	0x34a0fa6f	2.9984537e-07
67	0x360eb95d	2.1267545e-06
68	0x3614133d	2.2064917e-06
69	0x314758ab	2.9008713e-09
70	0x36227503	2.420799e-06
71	0x36228390	2.421646e-06
72	0x34078e8c	1.2624713e-07
73	0x361968eb	2.2859847e-06
74	0x361e5644	2.3594048e-06
75	0x31c50ac1	5.734677e-09
76	0x3622350f	2.4170765e-06
77	0x36224e45	2.418544e-06
78	0x33ecc2e5	1.10250575e-07
79	0x361b12b3	2.3107684e-06
80	0x361ed327	2.3666742e-06
81	0x3246ccc3	1.1571674e-08
82	0x3621f641	2.4134208e-06
83	0x3622056c	2.4143037e-06
84	0x332f8031	4.0861952e-08
85	0x361f8e97	2.3775845e-06
86	0x3620baf5	2.3950681e-06
87	0x325ad1f6	1.273701e-08
88	0x3621c391	2.4104704e-06
89	0x3621d5e3	2.4115368e-06
90	0x325ad1f6	1.273701e-08
91	0x3621c391	2.4104704e-06
92	0x3621d5e3	2.4115368e-06
93	0x38f295ce	0.000115673625
94	0x3623bcb7	2.439874e-06
95	0x38b3252f	8.542311e-05
96	0x38f2fb8a	0.00011586312
97	0x362414c4	2.4449992e-06
98	0x38b3377f	8.545722e-05
99	0x2fc0a0df	3.5038902e-10
100	0x33732df4	5.661964e-08
101	0x3373ae58	5.673641e-08
102	0x2f7fc4a5	2.3261977e-10
103	0x337328e5	5.661504e-08
104	0x3373d308	5.6769778e-08
105	0x309f2ccb	1.1581504e-09
106	0x336fd44e	5.5839614e-08
107	0x3370fceb	5.6109382e-08
108	0x2f4383f1	1.7782022e-10
109	0x33736a69	5.6674626e-08
110	0x33740acb	5.6820493e-08
111	0x30f02e07	1.747538e-09
112	0x336d6e76	5.5281326e-08
113	0x336f7847	5.5755915e-08
114	0x2f9d1d69	2.857903e-10
115	0x33736028	5.66653e-08
116	0x33740a2a	5.681992e-08
117	0x3141a7cb	2.8180576e-09
118	0x33690961	5.425807e-08
119	0x336d1173	5.5196733e-08
120	0x2f93113e	2.6751396e-10
121	0x33735121	5.6651633e-08
122	0x3373da21	5.6776233e-08
123	0x315b42b7	3.1906617e-09
124	0x33658726	5.3441134e-08
125	0x336be444	5.4922808e-08
126	0x309d016e	1.142366e-09
127	0x33701fdc	5.590833e-08
128	0x3371d650	5.63071e-08
129	0x318439d3	3.8482795e-09
130	0x33646763	5.3179416e-08
131	0x3368f813	5.424233e-08
132	0x30cb91c9	1.4811629e-09
133	0x336e1223	5.543019e-08
134	0x3370dc59	5.607976e-08
135	0x31d8f6a5	6.3144676e-09
136	0x3355076e	4.9599684e-08
137	0x335edff0	5.1892073e-08
138	0x31073e03	1.9680335e-09
139	0x336d9d29	5.53238e-08
140	0x3370796d	5.598979e-08
141	0x31e02f21	6.524616e-09
142	0x33541b9d	4.938521e-08
143	0x335dbb7c	5.162609e-08
144	0x307e390e	9.248574e-10
145	0x3372b546	5.6509883e-08
146	0x33734ed3	5.6649537e-08
147	0x31c7c23a	5.8137433e-09
148	0x335adc0c	5.0957212e-08
149	0x33609692	5.2291007e-08
150	0x2f89de3a	2.5078056e-10
151	0x337386d4	5.6700472e-08
152	0x3373f264	5.67983e-08
153	0x317c87ee	3.6748093e-09
154	0x33621be3	5.264509e-08
155	0x33664fcd	5.3623626e-08
156	0x306c372e	8.5934715e-10
157	0x3370fcf3	5.610941e-08
158	0x33723385	5.6391873e-08
159	0x30595afa	7.9073426e-10
160	0x3370ee14	5.6095885e-08
161	0x33729a72	5.6485483e-08
162	0x308b8cc4	1.0153589e-09
163	0x33705cda	5.5963802e-08
164	0x3371dfb5	5.6315645e-08
165	0x319e21d9	4.6022532e-09
166	0x336513b5	5.333614e-08
167	0x3372e3bd	5.6552143e-08
168	0x308cd5c7	1.02471e-09
169	0x336fd73b	5.5842275e-08
170	0x33716416	5.6203213e-08
171	0x323e5532	1.1078827e-08
172	0x333d0d6d	4.4017202e-08
173	0x3367775d	5.389244e-08
174	0x30b6e3aa	1.3306949e-09
175	0x336f9621	5.5783065e-08
176	0x33714e3f	5.618335e-08
177	0x30591639	7.897572e-10
178	0x336ed622	5.5608446e-08
179	0x33724549	5.640803e-08
180	0x3060ab22	8.173392e-10
181	0x3371969d	5.6249167e-08
182	0x33723a88	5.639825e-08
183	0x3036b62d	6.64701e-10
184	0x336f4968	5.5713286e-08
185	0x33730c03	5.658877e-08
186	0x2fa25d34	2.9533853e-10
187	0x337346f6	5.6642385e-08
188	0x33735dc7	5.6663136e-08
189	0x2fa25d34	2.9533853e-10
190	0x337346f6	5.6642385e-08
191	0x33735dc7	5.6663136e-08
192	0x358f4d3b	1.0676807e-06
193	0x335c12ed	5.1239955e-08
194	0x34c8aa3c	3.7376765e-07
195	0x359e82fe	1.1810041e-06
196	0x3376d698	5.747151e-08
197	0x34d40495	3.949141e-07
198	0x2635a867	6.302522e-16
199	0x2abfdee6	3.4083082e-13
200	0x2abfde50	3.4082676e-13
201	0x262faf05	6.095252e-16
202	0x2abfd5da	3.4076805e-13
203	0x2abfd868	3.4078578e-13
204	0x26729b83	8.4171374e-16
205	0x2abfaad6	3.4046957e-13
206	0x2abfb86c	3.4056384e-13
207	0x26c9c563	1.4000679e-15
208	0x2abf3a53	3.3968886e-13
209	0x2abf3f3d	3.3972296e-13
210	0x2639df4f	6.448741e-16
211	0x2abfb4e6	3.405394e-13
212	0x2abfc8e6	3.4067817e-13
213	0x27221533	2.2493508e-15
214	0x2abedf84	3.3905875e-13
215	0x2abee529	3.3909792e-13
216	0x26262193	5.763832e-16
217	0x2abfc10a	3.4062363e-13
218	0x2abfcb7b	3.4069609e-13
219	0x271dacb0	2.188174e-15
220	0x2abeded5	3.39054e-13
221	0x2abee228	3.3907707e-13
222	0x2681dbaa	9.010713e-16
223	0x2abf8424	3.4020107e-13
224	0x2abfb578	3.4054335e-13
225	0x272972a0	2.35156e-15
226	0x2abec755	3.3889094e-13
227	0x2abed57f	3.3898923e-13
228	0x2a8531d2	2.3660116e-13
229	0x29f3c7b7	1.0826013e-13
230	0x2a144292	1.3168137e-13
231	0x273522be	2.513763e-15
232	0x2abea520	3.3865358e-13
233	0x2abecf8b	3.3894792e-13
234	0x2ab548e5	3.220264e-13
235	0x29405958	4.2710057e-14
236	0x29970075	6.7058264e-14
237	0x273d6801	2.62854e-15
238	0x2abe92cb	3.3852638e-13
239	0x2abed746	3.3900156e-13
240	0x2aacc279	3.068828e-13
241	0x291c236f	3.4669692e-14
242	0x298ae059	6.167349e-14
243	0x2720af9c	2.2299659e-15
244	0x2abedaf0	3.3902698e-13
245	0x2abf0155	3.392934e-13
246	0x2aacd3a2	3.0700187e-13
247	0x291b17e6	3.4437642e-14
248	0x298a8d01	6.1528914e-14
249	0x270c837a	1.9500177e-15
250	0x2abf0700	3.3933273e-13
251	0x2abf084b	3.393417e-13
252	0x2ab64909	3.2380373e-13
253	0x2944693a	4.3612012e-14
254	0x299ad93a	6.8766566e-14
255	0x276ac4da	3.2580737e-15

exp_avg f4 [128]
0	0x3734f6fb	1.0786341e-05
1	0x37640f0e	1.3593364e-05
2	0xb00f7758	-5.2192695e-10
3	0xb189036b	-3.9876134e-09
4	0x373a4f8c	1.1104985e-05
5	0x3249fcd0	1.1757223e-08
6	0x375ef368	1.3288904e-05
7	0x36584abf	3.2230016e-06
8	0xb7b8b610	-2.2019289e-05
9	0x3951ee23	0.00020020506
10	0x36c7b7e9	5.952072e-06
11	0x33f362bc	1.1333529e-07
12	0x36a09f89	4.786944e-06
13	0x34211e75	1.5005374e-07
14	0x36597bfa	3.2407684e-06
15	0xb7b54fc4	-2.1614025e-05
16	0xb223e76f	-9.540471e-09
17	0x3322f4bc	3.794115e-08
18	0x371d22fa	9.366073e-06
19	0x35f99eda	1.8598178e-06
20	0x331a7d6b	3.5969986e-08
21	0x350b6db7	5.194119e-07
22	0x34d01b23	3.8762764e-07
23	0x32957df8	1.7403167e-08
24	0x3814d355	3.5482768e-05
25	0x3843256a	4.6526467e-05
26	0x334bea5e	4.7477776e-08
27	0x3747c759	1.1907739e-05
28	0x377d6244	1.5102854e-05
29	0xb7b3365a	-2.1363772e-05
30	0x3793ad78	1.7604543e-05
31	0xb129c5e6	-2.470523e-09
32	0x303bb2ff	6.828457e-10
33	0xb8fcd95d	-0.000120567835
34	0xb2b3e6a0	-2.0943219e-08
35	0xb78721a3	-1.6108917e-05
36	0xba0d6dbe	-0.0005395076
37	0x37d49b88	2.5344794e-05
38	0x39abc5f8	0.0003276316
39	0xb7151c4d	-8.887681e-06
40	0xba7ed8be	-0.0009721628
41	0xb426b60c	-1.5526183e-07
42	0x3824a9c0	3.925874e-05
43	0x3385ff43	6.239727e-08
44	0x37467c3c	1.1830645e-05
45	0x3391bb60	6.786172e-08
46	0xba331e34	-0.0006832809
47	0x3467b2ae	2.1578555e-07
48	0x3776b216	1.47042065e-05
49	0xb8071bb5	-3.2212312e-05
50	0x356c2726	8.797382e-07
51	0x35dc8daf	1.6432513e-06
52	0x36074a82	2.0159937e-06
53	0xb5fc7acb	-1.88112e-06
54	0x3a16b223	0.00057485903
55	0x36d8b9ec	6.458946e-06
56	0xb7cf14e9	-2.468606e-05
57	0xb4f8cb10	-4.6341347e-07
58	0xb68ced70	-4.1999665e-06
59	0x35d9f992	1.6240394e-06
60	0x374e8c52	1.2311228e-05
61	0x36b7ace6	5.473953e-06
62	0x372035dc	9.549283e-06
63	0x367c36b6	3.7582772e-06
64	0x3599ddde	1.146396e-06
65	0x37ac76d0	2.0559324e-05
66	0x381a4134	3.6777186e-05
67	0x3a125b18	0.0005583032
68	0x315de528	3.2289993e-09
69	0xb16b32d6	-3.4225898e-09
70	0x3874345e	5.8222904e-05
71	0x3534a794	6.7299084e-07
72	0xb994c11b	-0.00028372635
73	0x36a2fd3a	4.8574557e-06
74	0xb5a35390	-1.2168766e-06
75	0xb65ca500	-3.2878597e-06
76	0x31363248	2.6513067e-09
77	0x3602a3f5	1.9466945e-06
78	0x39c2168a	0.00037019356
79	0xba135744	-0.00056206086
80	0x2f50647b	1.8953188e-10
81	0x38542155	5.057578e-05
82	0x36a811ad	5.008848e-06
83	0x39eb2b83	0.00044855112
84	0x38304934	4.2029846e-05
85	0xb705220e	-7.935347e-06
86	0xb6a52e50	-4.9227747e-06
87	0x3811e611	3.478496e-05
88	0x34a888b4	3.1391903e-07
89	0x36e4ad43	6.8151e-06
90	0x38d0d4cc	9.9578494e-05
91	0x37133c29	8.77589e-06
92	0x36553485	3.1770044e-06
93	0x37c7ac69	2.3802933e-05
94	0x36e248ea	6.743813e-06
95	0x3563c7ac	8.485465e-07
96	0xb5149182	-5.534604e-07
97	0x36684590	3.4611185e-06
98	0x310399a6	1.9150348e-09
99	0x3695a281	4.459464e-06
100	0x3888dda6	6.5262706e-05
101	0xb2be1727	-2.212944e-08
102	0xb88eb410	-6.804627e-05
103	0x35c177b4	1.4414459e-06
104	0xb86c7347	-5.6374145e-05
105	0x370b877c	8.3165905e-06
106	0x331cc22e	3.6498186e-08
107	0x3970da2e	0.00022969462
108	0x3708a4a2	8.144563e-06
109	0x3806d584	3.214694e-05
110	0x37a35887	1.9472338e-05
111	0x36c96ad6	6.002704e-06
112	0x3796fc6d	1.7998938e-05
113	0x350eaa74	5.3147164e-07
114	0xb52dc584	-6.4734945e-07
115	0x36da2c96	6.5020968e-06
116	0x367af8af	3.7397656e-06
117	0x36c92ab4	5.995238e-06
118	0x30bc74fa	1.3712047e-09
119	0x380400ef	3.1472122e-05
120	0xb837e635	-4.3844997e-05
121	0x37b3145c	2.1347943e-05
122	0x355562e8	7.949261e-07
123	0x3775dc1f	1.4654389e-05
124	0x2fd9f89e	3.9648723e-10
125	0x37b0d742	2.1081072e-05
126	0xb6df32da	-6.651838e-06
127	0x31f70734	7.189465e-09

exp_avg_sq f4 [128]
0	0x3622c196	2.4252563e-06
1	0x3374bece	5.6984213e-08
2	0x2ac01728	3.412212e-13
3	0x2cb92f6b	5.2632807e-12
4	0x355b6249	8.172688e-07
5	0x2e8259c0	5.9276584e-11
6	0x32aa5780	1.9830395e-08
7	0x32b32de7	2.0859217e-08
8	0x338cbe5d	6.553885e-08
9	0x37eac1b4	2.7985174e-05
10	0x35192067	5.7044093e-07
11	0x2f920b5b	2.6565314e-10
12	0x3298fc38	1.7809825e-08
13	0x30b1bdc1	1.2932376e-09
14	0x31cc39a8	5.943736e-09
15	0x35f3b4a4	1.8157484e-06
16	0x2ad5b35e	3.7960862e-13
17	0x2d5e7bb4	1.2646707e-11
18	0x3223d5b2	9.536437e-09
19	0x3207ba86	7.900445e-09
20	0x2f9c9d4f	2.848801e-10
21	0x2ec02ed4	8.7394675e-11
22	0x2ec0bc05	8.764548e-11
23	0x2be03194	1.5929918e-12
24	0x33ce11a4	9.595831e-08
25	0x34973155	2.8161836e-07
26	0x2e3e0041	4.3201224e-11
27	0x321ca392	9.117587e-09
28	0x3516735a	5.6047213e-07
29	0x3507c7ba	5.058206e-07
30	0x32fb4e6e	2.9255911e-08
31	0x2a731141	2.1588722e-13
32	0x2b14fd69	5.293184e-13
33	0x389610cb	7.155685e-05
34	0x2e62ef8e	5.1599218e-11
35	0x34a703f9	3.1109064e-07
36	0x3a26d874	0.00063646515
37	0x329cc48e	1.8250173e-08
38	0x3959a02a	0.00020754398
39	0x3387530b	6.301533e-08
40	0x394c4413	0.00019480316
41	0x2ea95e52	7.701985e-11
42	0x3593167f	1.0958901e-06
43	0x2bddb05c	1.5751944e-12
44	0x353dfa4a	7.0772205e-07
45	0x2c65c4dc	3.2652136e-12
46	0x37a2201b	1.9326855e-05
47	0x2f09a2ad	1.2517871e-10
48	0x352beefe	6.4050244e-07
49	0x3632d87c	2.6650077e-06
50	0x2f675609	2.1039893e-10
51	0x3393592b	6.8614405e-08
52	0x305417cd	7.7158974e-10
53	0x32297a6f	9.864933e-09
54	0x38280aa1	4.006422e-05
55	0x34894580	2.5568806e-07
56	0x36d2a0da	6.2772133e-06
57	0x2fc74dc2	3.625314e-10
58	0x31bbb5c0	5.463079e-09
59	0x34ab4e14	3.190804e-07
60	0x34508f1e	1.9423575e-07
61	0x361a166d	2.2960842e-06
62	0x340119b0	1.2023406e-07
63	0x340a8349	1.2900013e-07
64	0x31af071e	5.0939795e-09
65	0x3626c147	2.484843e-06
66	0x35a6743a	1.240179e-06
67	0x3a900492	0.001098769
68	0x285627ea	1.1888041e-14
69	0x2ea1f665	7.365201e-11
70	0x34058f86	1.2438804e-07
71	0x33088264	3.1783557e-08
72	0x37bbc73e	2.2384917e-05
73	0x3282a87d	1.5210611e-08
74	0x2fe76863	4.2092826e-10
75	0x32a179ca	1.879825e-08
76	0x2bb2375a	1.2663024e-12
77	0x2fc8efd6	3.6550202e-10
78	0x3800b610	3.0687137e-05
79	0x39c9414e	0.00038386363
80	0x25128274	1.270768e-16
81	0x341a68b9	1.4380466e-07
82	0x3361adf9	5.2545122e-08
83	0x38e40063	0.00010871959
84	0x33314022	4.1269352e-08
85	0x38005c0b	3.06033e-05
86	0x32b54ce6	2.1106143e-08
87	0x36042227	1.9689412e-06
88	0x2fb5137a	3.2937547e-10
89	0x31a25116	4.724039e-09
90	0x35b5e1d8	1.355128e-06
91	0x3517f365	5.660607e-07
92	0x340f4cf5	1.334591e-07
93	0x35512993	7.7919066e-07
94	0x34d26494	3.9188728e-07
95	0x3354f2d5	4.958095e-08
96	0x308cd2d6	1.0246264e-09
97	0x312262a6	2.3630178e-09
98	0x2bc3b6e1	1.3906342e-12
99	0x3485087e	2.477936e-07
100	0x36614222	3.3566107e-06
101	0x2b947b33	1.0550227e-12
102	0x39612b56	0.00021473816
103	0x31193ba9	2.2298343e-09
104	0x35812563	9.62213e-07
105	0x34d9a225	4.0537375e-07
106	0x2e6f0707	5.434855e-11
107	0x35cb960b	1.5168347e-06
108	0x34bb848c	3.4927905e-07
109	0x35875235	1.0082209e-06
110	0x350e8fc0	5.3108306e-07
111	0x34157767	1.3920145e-07
112	0x3575985c	9.1491324e-07
113	0x2e44287b	4.4601194e-11
114	0x311c12f1	2.2711755e-09
115	0x33fffb44	1.1920068e-07
116	0x332b49a7	3.9881026e-08
117	0x32ff5521	2.972462e-08
118	0x28212b31	8.946661e-15
119	0x3588b211	1.0184614e-06
120	0x35a352f7	1.2168592e-06
121	0x345692fc	1.9983776e-07
122	0x33d8e843	1.0100532e-07
123	0x34d7c638	4.0191094e-07
124	0x277f20da	3.5406168e-15
125	0x35ace11e	1.2880516e-06
126	0x32cd93a8	2.3932287e-08
127	0x2a416ac6	1.7178888e-13
