results/TestTrainingNoImitation15RPDAnd5L/VacuumCleaner/VacuumCleaner-499944.onnx (onnx, 120116 bytes, 7 tensors)

network_body._body_endoder.seq_layers.0.weight f4 [128, 99]
0	0x3cd25d60	0.02567929
1	0x3d249abe	0.040186636
2	0xbd79dcbb	-0.06100152
3	0x3dcd4650	0.10023177
4	0xbe0716d4	-0.13192302
5	0x3e22bbf6	0.15892014
6	0xbafeb816	-0.0019433524
7	0x3e0f6a9e	0.14005515
8	0xbdccd14a	-0.10000856
9	0xbdf55977	-0.11979955
10	0xbe3e59a7	-0.18588887
11	0xbd0c399c	-0.034234628
12	0x3bdff2fd	0.0068343864
13	0xbc5b1e6c	-0.013373952
14	0x3b899167	0.0041982415
15	0x3d28b0bb	0.04118417
16	0x3b4a2672	0.003084567
17	0x3d752e09	0.059858356
18	0xbe03aed3	-0.12859659
19	0xbdeff4d5	-0.1171662
20	0xbd77700c	-0.06040959
21	0xbd03f84f	-0.032219227
22	0x3e22551b	0.15852778
23	0xbd9668cb	-0.073442064
24	0xbe15ad27	-0.14616834
25	0xbdacf974	-0.08446017
26	0x3cbd9b58	0.023145363
27	0xbec40476	-0.38284653
28	0xbd2584b8	-0.040409774
29	0x3d8fb780	0.07017422
30	0xbe326ae2	-0.17423585
31	0xbcbfc9ca	-0.02341165
32	0xbd3942e8	-0.045229822
33	0xbe438d66	-0.19096908
34	0xbdaff080	-0.085907936
35	0xbd5d733a	-0.054064967
36	0xbe0e11f0	-0.1387403
37	0xbcc0cff0	-0.023536652
38	0x3d296ee0	0.041365504
39	0xbddb7cbd	-0.10717151
40	0xbd98f037	-0.07467692
41	0xbcc34193	-0.02383498
42	0xbd807fab	-0.06274351
43	0xbe89b701	-0.26897433
44	0xbd4efe6c	-0.050535604
45	0xbe671058	-0.22564828
46	0x3d182cf1	0.037152234
47	0xbbfd01c1	-0.0077211563
48	0x3dc3a90a	0.09553726
49	0xbe4a62c2	-0.19764236
50	0xbdef29ed	-0.116779186
51	0x3c3bdee5	0.011466716
52	0x3db7eb76	0.089804575
53	0xbe2447b5	-0.16042979
54	0xbd39fb9f	-0.04540598
55	0xbdc6293a	-0.09675832
56	0x3d7846c8	0.060614377
57	0xba8b709f	-0.0010638422
58	0x3c2a395e	0.010389654
59	0x3d8aab4a	0.06770952
60	0x3e286bc0	0.16447353
61	0xbd6a5ce0	-0.05721748
62	0xbe1d33d3	-0.153518
63	0x3afd60a9	0.0019331175
64	0x3e229895	0.15878518
65	0xbd224bbf	-0.03962302
66	0x3e2ae3b7	0.16688429
67	0xbdbd2acc	-0.092366785
68	0xbdf566e9	-0.11982519
69	0x3caf7a51	0.02142063
70	0xbde3f58e	-0.1113082
71	0x3c1c4b40	0.009539425
72	0x3dece4fa	0.11567111
73	0xbbf02e16	-0.0073297126
74	0xbcb1e96e	-0.021717753
75	0x3de3156a	0.11088069
76	0xbdb622ad	-0.08893333
77	0x3d800bc6	0.062522456
78	0xbe4e94fc	-0.2017402
79	0xbdb2a0ef	-0.08722102
80	0x3c587670	0.013211831
81	0xbe246879	-0.16055478
82	0x3dbb868c	0.09156522
83	0x3c06413e	0.008194266
84	0xbe541379	-0.20710553
85	0x3d99a51b	0.075021945
86	0xbd86c89c	-0.06581232
87	0xbe28fcb5	-0.1650265
88	0xbd81c9ad	-0.06337295
89	0x3e391388	0.18073857
90	0xbe9b5744	-0.30340016
91	0x3db20e61	0.08694149
92	0xbd0faf87	-0.035079505
93	0xbe0c6e11	-0.13713862
94	0x3dbf97f1	0.093551524
95	0x3ea5182a	0.32244998
96	0xbe04b9c2	-0.12961486
97	0xbce36f2b	-0.02776297
98	0x3da02118	0.07818812
99	0x3d141287	0.03615048
100	0xbd94c12d	-0.07263408
101	0x3adead73	0.0016988948
102	0x3e2726d6	0.16323408
103	0xbd9b6240	-0.07587099
104	0x3c3bac48	0.011454649
105	0xbe876aa0	-0.26448536
106	0x3d7c1fa5	0.061553616
107	0x3d98db62	0.07463719
108	0xbebb4b26	-0.3658077
109	0xbd327d57	-0.043576565
110	0x3d9e8d4d	0.07741795
111	0xbe784868	-0.24246371
112	0xbcbecd05	-0.02329112
113	0xbd4125dc	-0.047155246
114	0xbe88751e	-0.26651853
115	0x3dec93d5	0.11551634
116	0x3dfdc805	0.12391666
117	0xbe07dba6	-0.13267383
118	0xbe3952ae	-0.18097946
119	0xbd8c6f4d	-0.068571664
120	0xbe4c3cb7	-0.19945036
121	0x3d19dd2a	0.037564434
122	0xbdb65ac3	-0.0890403
123	0x3e0244c7	0.12721549
124	0xbdc7dbc1	-0.097587116
125	0xbdddf8f4	-0.108385
126	0xbe95c5fa	-0.29252607
127	0x3ca66b32	0.020314787
128	0x3c672b9c	0.014109518
129	0x3db9e6af	0.090772025
130	0x3dd7d6e9	0.10539038
131	0xbd6034cd	-0.054737855
132	0xbeb6aa49	-0.35676792
133	0xbdb1bc39	-0.08678479
134	0xbcb9ff23	-0.022704666
135	0x3c6a816a	0.014313081
136	0xbd72560a	-0.059164084
137	0xbdec8c4e	-0.115501985
138	0x3e403a1a	0.18772164
139	0xbdf91432	-0.12162055
140	0x3c1086d3	0.008821207
141	0x3daddff0	0.08489978
142	0x3d4dd9df	0.050256606
143	0xbd46673b	-0.048438292
144	0x3dc1bb1d	0.09459517
145	0xbad57a09	-0.001628698
146	0x3ddc54ed	0.10758386
147	0x3dca8561	0.09888721
148	0x3cdae42d	0.02672013
149	0x3e3efb41	0.18650533
150	0xbe0bc386	-0.13648805
151	0xbe1ad146	-0.15118894
152	0xbbfaff00	-0.007659793
153	0xbd50b9c8	-0.050958425
154	0xbdfb6929	-0.12275917
155	0xbd6f8f4a	-0.05848626
156	0x3d6c750c	0.057728812
157	0xbda27b91	-0.07933725
158	0xbc7d8c06	-0.015475279
159	0x398822be	0.00025965826
160	0xbda399cf	-0.07988321
161	0xbdf2fda9	-0.11864788
162	0x3db21565	0.08695487
163	0x3ba4d361	0.005030081
164	0xbe5dfba9	-0.21678032
165	0xbe567793	-0.20944051
166	0x3d548d82	0.051892765
167	0x3d99965c	0.07499382
168	0x3dd07006	0.10177617
169	0xbe30155d	-0.1719565
170	0xbdae2ed2	-0.08505024
171	0xbe432228	-0.19055998
172	0xbd237193	-0.039903235
173	0xbdaf9b99	-0.085746
174	0xbde31a30	-0.11088979
175	0xbe0498a7	-0.12948857
176	0xbe3efddd	-0.18651529
177	0xbe8f48e4	-0.279853
178	0x3dd241e7	0.10266476
179	0x3d27dd03	0.040982258
180	0xbdb1cff6	-0.086822435
181	0xbc913071	-0.017723294
182	0x3e3a31e8	0.181831
183	0x3d2dc0ec	0.042420313
184	0x3db9b51a	0.090677455
185	0x3c6da97d	0.014505741
186	0xbd0d27ad	-0.034461666
187	0xbd8c9818	-0.06864947
188	0x3abf7edf	0.0014609954
189	0xbe36ecaf	-0.17863725
190	0xbd0c9c54	-0.034328774
191	0xbe6537dc	-0.2238459
192	0xbe97157a	-0.29508573
193	0xbe2beed6	-0.16790327
194	0x3d8be5a4	0.0683091
195	0xbe3fe01c	-0.18737835
196	0x3cdb2e18	0.026755378
197	0xbc3e9a43	-0.011633459
198	0x3e00f11b	0.12591974
199	0xbd3a15d6	-0.04543098
200	0xbe1b2c0a	-0.15153518
201	0x3d642622	0.05570043
202	0xbed3bda3	-0.4135562
203	0xbe1c9172	-0.15289858
204	0x3cc3a6f8	0.023883328
205	0xbdff748b	-0.12473401
206	0xbe758476	-0.23976311
207	0x3d621290	0.055193484
208	0x3d169a89	0.03676847
209	0x3c1ab381	0.009442211
210	0xbd92864d	-0.07154522
211	0xbe54703f	-0.20745943
212	0xbe016192	-0.12634876
213	0xbbbf9dc9	-0.005847667
214	0xbe7b4459	-0.24537791
215	0xbe98ef48	-0.29870057
216	0x3df2177c	0.118208855
217	0xbe40cdf5	-0.18828566
218	0xbe93bd58	-0.28855395
219	0x399e0fb8	0.0003014782
220	0xbdf51e1a	-0.11968632
221	0xbdaa7d25	-0.08324651
222	0xbe1680f1	-0.14697625
223	0x3c95c36c	0.018281661
224	0xbe1bc348	-0.15211213
225	0xbd8e535e	-0.06949495
226	0xbe63e4ac	-0.222552
227	0xbe2eba92	-0.17063358
228	0x3d678127	0.056519654
229	0xbdf24cce	-0.118310556
230	0xbe0c0b9d	-0.13676305
231	0x3e471171	0.19440247
232	0xbe815ab9	-0.25264528
233	0x3daf43a3	0.085578226
234	0x3c3b9bbf	0.011450707
235	0xbe85d24e	-0.26137012
236	0xbe809f7c	-0.25121677
237	0xbcffbdcc	-0.031218432
238	0xbdaacef0	-0.083402514
239	0xbe0d517b	-0.13800614
240	0x3dd95507	0.10611921
241	0xbea19581	-0.31559375
242	0xbe177044	-0.1478892
243	0xbb87cd9c	-0.0041443836
244	0xbe604913	-0.21902876
245	0xbdff089a	-0.124528125
246	0x3dd041b1	0.1016878
247	0xbd12ef5a	-0.035872795
248	0xbe23feba	-0.16015139
249	0xbd38bf8c	-0.04510455
250	0xbd3f0399	-0.04663429
251	0xbd8195ed	-0.06327424
252	0x3bbe3dbc	0.005805699
253	0xbe918bc4	-0.28426945
254	0xbe08e1d1	-0.13367392
255	0xbd2c9aef	-0.042139944

network_body._body_endoder.seq_layers.0.bias f4 [128]
0	0xbce46aac	-0.027882896
1	0xbd5ddec1	-0.054167513
2	0xbe1e32f0	-0.15449119
3	0xbe096d4f	-0.13420604
4	0xbcfae070	-0.030624598
5	0xbe25a45c	-0.1617598
6	0xbd1b2c5f	-0.037884112
7	0xbd4f4453	-0.05060227
8	0xbd34ee2b	-0.044172447
9	0xbcaaf8bb	-0.020870557
10	0xbc70e0b8	-0.014702015
11	0xbdfeb5e8	-0.124370396
12	0xbda37605	-0.07981495
13	0xbdd39e39	-0.10332913
14	0xbd84c8de	-0.06483625
15	0xbcf4705d	-0.029838735
16	0xbe1f4201	-0.15552522
17	0xbdd8daf9	-0.10588641
18	0xbd96c544	-0.07361844
19	0xbdb2f474	-0.08738032
20	0xbdfea57b	-0.12433907
21	0xbdffc32d	-0.12488399
22	0xbdf86cd6	-0.12130134
23	0xbe14dc20	-0.14537096
24	0xbcdcf60b	-0.026972791
25	0xbb65903f	-0.0035028604
26	0xbdfac520	-0.1224463
27	0xbda0bfab	-0.07849058
28	0xbd08bb9c	-0.033382043
29	0xbc860517	-0.016359849
30	0xbc77bbd1	-0.0151204625
31	0xbe1c2d14	-0.15251571
32	0xbe2b6d1e	-0.16740844
33	0x3ccd054d	0.025026942
34	0xbe0c52f5	-0.1370352
35	0xbd93399a	-0.07188721
36	0x3c6c76e0	0.014432639
37	0xbda8987a	-0.082322076
38	0x3ce06032	0.02738962
39	0xbdae7bbc	-0.08519694
40	0xbca64941	-0.020298602
41	0xbdf0f511	-0.11765493
42	0x3c24e015	0.010063191
43	0xbe0468af	-0.12930559
44	0xbd66acc3	-0.056317102
45	0xbe2344a1	-0.15944149
46	0xbb92fcf5	-0.0044857212
47	0xbdca6d7d	-0.098841645
48	0xbd6e7326	-0.058215283
49	0x39e8edb4	0.0004442759
50	0xbda731e1	-0.081638105
51	0xbd0332e9	-0.032030974
52	0xbdaa59df	-0.08317923
53	0xbde25d09	-0.11052901
54	0x3c721452	0.014775353
55	0xbd2bb2fc	-0.04191874
56	0x3ce880ea	0.028381784
57	0xbde518bc	-0.11186358
58	0xbdd06b08	-0.101766646
59	0xbc8f1125	-0.01746423
60	0xbcf78183	-0.030213123
61	0x3c68a1e0	0.01419875
62	0xbd045690	-0.032309115
63	0xbd5b4217	-0.053529825
64	0xbdaa46f8	-0.083143175
65	0xbcdc7fc3	-0.02691639
66	0xbbf60fef	-0.0075092237
67	0x3d4cc39c	0.049991235
68	0xbe596d21	-0.21233036
69	0xbdf6c413	-0.12049117
70	0xbda7cbbf	-0.08193158
71	0xbdaad889	-0.08342082
72	0xbc553d99	-0.013015174
73	0xbd5c78c1	-0.053826097
74	0xbe01bccd	-0.12669678
75	0xbd3891d2	-0.04506094
76	0xbe12e088	-0.14343464
77	0xbda2842b	-0.07935365
78	0x3ceca5e4	0.028887697
79	0x3b03e6bd	0.0020126544
80	0xbe29721b	-0.16547434
81	0xbd2e099c	-0.042489633
82	0xbd77bafd	-0.06048106
83	0x3cd13ddb	0.02554219
84	0xbdb88ffa	-0.09011836
85	0x3c1470ab	0.009060065
86	0xbd5d125d	-0.05397259
87	0x3bd39abe	0.0064576557
88	0xbdc03ece	-0.09386979
89	0xbd83339a	-0.064063266
90	0xbd45b488	-0.04826787
91	0xbd255485	-0.040363807
92	0xbcaf73ec	-0.02141758
93	0xbc86dac0	-0.01646173
94	0xbd3d0a11	-0.04615218
95	0xbc7b014e	-0.015320135
96	0xbddcaad8	-0.10774773
97	0xbda5cb06	-0.08095364
98	0xbe229a63	-0.15879206
99	0xbca0613c	-0.019577615
100	0xbcf61e02	-0.030043606
101	0xbe0e2e34	-0.13884813
102	0xbb38c24e	-0.0028191986
103	0xbde40c0d	-0.11135111
104	0xbce75ff0	-0.028243989
105	0xbd06d3de	-0.032916896
106	0xbe06817d	-0.13135333
107	0xbd95e091	-0.07318223
108	0xbd3f87e5	-0.04676046
109	0xbd0800dd	-0.03320395
110	0xbd0611f1	-0.032731954
111	0xbd6d8a03	-0.057992946
112	0xbcb95082	-0.022621397
113	0xbdc8373c	-0.0977616
114	0xbdb2a88a	-0.087235525
115	0xbd05da94	-0.032679155
116	0xbda772ed	-0.08176217
117	0xbcbeff68	-0.023315147
118	0xbe4ebd58	-0.20189416
119	0xbbeeb3c1	-0.007284612
120	0xbd7edda2	-0.062223084
121	0xbcc181f9	-0.023621546
122	0xbce5f505	-0.028070936
123	0xbd38cc28	-0.045116574
124	0xbe43458c	-0.19069499
125	0xbd512f4f	-0.051070508
126	0xbdb5bc02	-0.0887375
127	0xbe2fdb94	-0.17173606

network_body._body_endoder.seq_layers.2.weight f4 [128, 128]
0	0xbda52c0c	-0.08065042
1	0x3b8d5cfb	0.0043140627
2	0xbb29db02	-0.0025917892
3	0x3e696623	0.22792868
4	0x3e01dcef	0.12681936
5	0x3d7a5f9d	0.06112634
6	0x3e83bf18	0.2573173
7	0xbdba69e8	-0.09102231
8	0xbc250eaa	-0.010074297
9	0x3e244fc2	0.1604605
10	0xbe1f46a6	-0.15554294
11	0x3d8b2459	0.06794042
12	0xbd8afea8	-0.06786853
13	0x3d0bc488	0.034122974
14	0x3dfc9b03	0.12334254
15	0x3c6a7063	0.014309022
16	0xbdba1ad6	-0.0908715
17	0x3df423e1	0.11920906
18	0x3c6e182e	0.014532132
19	0x3d950b2c	0.072775215
20	0xbdac16b3	-0.08402767
21	0x3d1f2255	0.0388511
22	0xbdf8e349	-0.12152726
23	0x3e218228	0.15772307
24	0x3cd6d694	0.026225366
25	0x3db90602	0.09034349
26	0x3b651d5f	0.0034960133
27	0xbd949668	-0.0725525
28	0xbd36bf6e	-0.044616155
29	0x3e757872	0.23971727
30	0x3d307aad	0.043085743
31	0x3e4badcd	0.19890518
32	0x3e29dc19	0.16587867
33	0x3d9498c4	0.072557
34	0x3dbbb3dd	0.091651656
35	0x3e3b1024	0.18267876
36	0x3d15ddf2	0.036588617
37	0x3dec42d2	0.115361825
38	0xbd82fd9d	-0.06396029
39	0x3dd2d7aa	0.10295041
40	0x3c846c86	0.01616503
41	0x3d6a97d2	0.057273693
42	0x3ceba3c2	0.02876461
43	0x3dacb332	0.08432616
44	0x3defabfe	0.11702727
45	0x3dff759d	0.12473605
46	0xbd3dab76	-0.046306096
47	0x3c1af1a3	0.009457025
48	0x3e10822c	0.14112157
49	0xbe00b519	-0.12569083
50	0x3e7d9bbc	0.24766439
51	0x3e42a38e	0.19007704
52	0x3e13fe75	0.14452536
53	0x3e097f00	0.13427353
54	0xbd42b80f	-0.047538813
55	0x3e008624	0.1255117
56	0xbd6f25a7	-0.058385517
57	0xbc87b631	-0.016566368
58	0xbdb86ef1	-0.090055354
59	0x3db986e9	0.09058935
60	0x3d9bf0e2	0.07614304
61	0x3e13bf43	0.1442843
62	0x3e151bfd	0.14561458
63	0xbc71bc69	-0.014754393
64	0xbd6e5e93	-0.05819566
65	0x3e16bd8e	0.14720747
66	0x3e30edcf	0.17278217
67	0xbe60baee	-0.21946308
68	0x3df38ea1	0.11892439
69	0x3e482dca	0.19548717
70	0x3dcaef30	0.09908903
71	0x3e64d973	0.22348575
72	0x3e48b85a	0.19601575
73	0x3dceed6a	0.10103877
74	0x3d927069	0.07150347
75	0x3d2231e9	0.03959838
76	0x3e89aa45	0.26887718
77	0xbc3769d5	-0.011194666
78	0xbe510dfd	-0.20415492
79	0xbc17fefe	-0.0092771035
80	0xbcd2b056	-0.02571885
81	0x3d9aaa63	0.0755203
82	0x3e3d349e	0.18477103
83	0xbda9fd27	-0.08300238
84	0x3db2d8c2	0.087327495
85	0xbd0ece10	-0.034864485
86	0xbe095ed2	-0.13415077
87	0x3e496dfb	0.1967086
88	0xbd625a92	-0.055262156
89	0x3de37e5d	0.11108086
90	0x3e0add08	0.13560879
91	0x3c90ccf2	0.01767585
92	0x3db0153a	0.08597799
93	0x3dbd6ada	0.09248896
94	0x3d5b2614	0.05350311
95	0x3e88a43e	0.26687807
96	0x3cffc0df	0.031219898
97	0x3e299a33	0.16562729
98	0xbd32eba5	-0.04368176
99	0x3e38b649	0.18038286
100	0x3e384bb6	0.17997631
101	0xbde9386f	-0.11387717
102	0xbd5e06a2	-0.054205544
103	0xbc95e831	-0.018299194
104	0x3e7bba2a	0.24582735
105	0x3d017d2e	0.03161352
106	0x3dce8969	0.10084803
107	0x3dd2ccb5	0.10292951
108	0x3da3f78f	0.080062024
109	0x3e06f272	0.13178423
110	0xbd3c3006	-0.045944236
111	0x3de2fdeb	0.11083587
112	0x3e2b6c30	0.16740489
113	0x3e0eebe9	0.1395718
114	0xbd349653	-0.044088673
115	0x3db1fec2	0.08691169
116	0x3bbbd7b9	0.0057325033
117	0xbd0d1cde	-0.034451358
118	0x3d54fa8c	0.051996753
119	0x3d77d524	0.060506
120	0x3de24173	0.1104764
121	0x3d6f2ee6	0.058394335
122	0x3e2db281	0.16962625
123	0x3e2b44cc	0.16725463
124	0xbd80980c	-0.06279001
125	0x3eb2e56b	0.34940657
126	0xbcb8c977	-0.022557003
127	0x3e57862d	0.21047278
128	0xbda58c53	-0.08083405
129	0xbdbeda21	-0.093189485
130	0xbbf864ce	-0.007580376
131	0x3df3cfa2	0.11904837
132	0x3e10e2c5	0.14149006
133	0x3e2864b2	0.16444662
134	0x3e3b1512	0.18269756
135	0x3d31c383	0.043399345
136	0x3d9af928	0.07567054
137	0x3d483457	0.04887804
138	0x3d652cb5	0.05595084
139	0x3db9758e	0.09055625
140	0x3db6ffa9	0.08935482
141	0xbe25d392	-0.16193989
142	0x3e23d16e	0.1599786
143	0xbe57c6c3	-0.21071915
144	0x3df0c7a9	0.11756832
145	0xbdef9638	-0.11698574
146	0x3cdfc184	0.027313955
147	0x3e12cb62	0.14335397
148	0x3bbf69d4	0.005841473
149	0xbd24003e	-0.040039293
150	0x3d2612a5	0.040545125
151	0x3dd5fe05	0.10448841
152	0x3e94d643	0.2906972
153	0x3d4d9c07	0.050197627
154	0xbb2b21ad	-0.0026112602
155	0x3d60615b	0.054780345
156	0xbd40d7ec	-0.04708092
157	0xbdc18f4c	-0.0945116
158	0x3d76048d	0.060062934
159	0x3c11c6dc	0.008897509
160	0x3d909fed	0.070617534
161	0xbe31b3a9	-0.17353691
162	0x3d70c792	0.058784075
163	0xbd3e78a3	-0.046501767
164	0xb92ef646	-0.00016685677
165	0xbda081f8	-0.078372896
166	0x3e0477c9	0.1293632
167	0x3e06dfb1	0.13171269
168	0xbd12ab16	-0.03580769
169	0xbd94c50b	-0.072641455
170	0x3c0ef3d3	0.008725124
171	0xbd516fce	-0.051132016
172	0x3de37244	0.11105779
173	0x3de99b15	0.11406533
174	0x3dca8f41	0.09890605
175	0x3e4a9c4e	0.19786188
176	0xbdb1efbf	-0.08688306
177	0x3df2b4e2	0.11850907
178	0xbdab645e	-0.08368753
179	0x3e02d25e	0.12775561
180	0x3e0eb5a1	0.13936473
181	0x3db0a1ff	0.08624648
182	0xbd88cbde	-0.066795096
183	0xbc977922	-0.018490378
184	0x3daa7303	0.08322718
185	0x3e229147	0.15875731
186	0x3cba1569	0.022715287
187	0xbdd3d7f5	-0.10343925
188	0x3d907461	0.070534475
189	0x3d3bdce7	0.045864966
190	0x3d8c3927	0.068468384
191	0x3e049b82	0.12949947
192	0xbcabed9b	-0.020987323
193	0xbe5d1e20	-0.21593523
194	0x3d87e8b3	0.06636181
195	0xbd727fd2	-0.05920393
196	0xbd89eac2	-0.067342296
197	0xbc5d133c	-0.013493355
198	0x3dbefa1d	0.09325049
199	0x3d02c55a	0.03192649
200	0x3d3cab97	0.04606208
201	0x3e0dc6e7	0.13845406
202	0x3d95edda	0.07320757
203	0x3d15ec8a	0.036602534
204	0x3e10cb6b	0.14140098
205	0x3e1b8ea2	0.15191129
206	0xbb4b41b9	-0.0031014516
207	0x3d432041	0.04763818
208	0x3d5dce52	0.05415184
209	0xbd0fe8ce	-0.03513413
210	0xbc07db95	-0.0082920985
211	0xbe30758c	-0.1723234
212	0x3e6a5a7a	0.22886077
213	0xbd0958a3	-0.033531796
214	0xbced2ccf	-0.02895203
215	0xbc929753	-0.017894423
216	0x3db7d480	0.08976078
217	0x3d913ff2	0.07092275
218	0x3deb938f	0.11502754
219	0xbdec7cbe	-0.1154723
220	0xbd11da9d	-0.035608876
221	0xbb89ac36	-0.0042014373
222	0xbdb89914	-0.09013572
223	0x3deae673	0.11469736
224	0x3dccf803	0.10008242
225	0x3c52ca2f	0.012865587
226	0x3d793a5b	0.060846668
227	0xbb5c23a0	-0.003359057
228	0x3d9b4ddd	0.075832106
229	0x3dd284af	0.10279214
230	0xbcd4207b	-0.025894394
231	0x3dcda35b	0.10040923
232	0xbd9614a2	-0.07328154
233	0x3d45ec4a	0.048321046
234	0x3e091d8b	0.13390176
235	0x3d326c8c	0.04356055
236	0xbe394178	-0.1809138
237	0xbd041e73	-0.0322556
238	0x3e28045c	0.16407913
239	0x3e58b8ac	0.21164197
240	0xbdb2e18a	-0.087344244
241	0x3df4c5d7	0.119517975
242	0xbe05f4b0	-0.13081622
243	0x3cac0688	0.020999208
244	0xbd8adaeb	-0.067800365
245	0x3ddf1c73	0.10894098
246	0xbe766f61	-0.24065925
247	0xba9d1f05	-0.0011987394
248	0xbd2e1a54	-0.042505577
249	0x3c1139fb	0.008863921
250	0x3d8f4705	0.06995968
251	0x3d5707a3	0.052497517
252	0x3e24ed20	0.16106081
253	0x3db90d92	0.090357915
254	0x3d086ba1	0.033305768
255	0x3e1150a9	0.14190926

network_body._body_endoder.seq_layers.2.bias f4 [128]
0	0xbded19be	-0.115771756
1	0xbdfbc9ea	-0.122943714
2	0xbdc16886	-0.094437644
3	0xbd93851f	-0.07203125
4	0xbda22af4	-0.07918349
5	0xbe08baac	-0.1335246
6	0x3c8758aa	0.01652177
7	0xbdce10ac	-0.10061774
8	0xbd7763cf	-0.06039792
9	0xbddd25de	-0.10798238
10	0xbdf3837e	-0.118903145
11	0xbddda687	-0.10822778
12	0xbd925b22	-0.071462885
13	0x3ce0506e	0.027382102
14	0xbdeae395	-0.11469189
15	0xbd7f74a9	-0.062367115
16	0xbdb3133b	-0.08743902
17	0x3d4d9ade	0.05019652
18	0xbdae94df	-0.08524489
19	0x3dd927c9	0.106032915
20	0xbd436dcc	-0.047712132
21	0xbdc704fb	-0.09717747
22	0xbd79ce6a	-0.060987867
23	0xbde8ace2	-0.113611
24	0xbe1f281c	-0.15542644
25	0xbd32ed07	-0.04368308
26	0x3d860096	0.065430805
27	0xbe4bdd18	-0.1990856
28	0xbd35f96c	-0.04442732
29	0xbd0a1859	-0.033714626
30	0xbdd22dbc	-0.102626294
31	0xbddc3f32	-0.10754241
32	0xbdced370	-0.10098922
33	0xbd8e90e5	-0.0696123
34	0xbd3c18c0	-0.04592204
35	0x3aa1723e	0.0012317372
36	0xbdc2081c	-0.09474203
37	0xbda7135d	-0.0815799
38	0xbdaccbeb	-0.08437332
39	0xbdd60e13	-0.10451903
40	0xbdccb0cb	-0.09994658
41	0xbce3695a	-0.027760196
42	0xbb9329b2	-0.0044910545
43	0xbd9dc68b	-0.07703885
44	0xbe361ca8	-0.17784369
45	0xbe0c4af2	-0.13700464
46	0xbdcad481	-0.09903813
47	0xbe060672	-0.13088396
48	0xbd02e0c5	-0.03195264
49	0xbd51c8bc	-0.051216826
50	0xbdebb657	-0.11509388
51	0xbc1ed150	-0.009693459
52	0xbdf82c8f	-0.12117874
53	0xbdbdc300	-0.09265709
54	0xbdd7b674	-0.10532847
55	0x3c1f8edc	0.00973865
56	0xbcc1cedd	-0.02365821
57	0xbd4315e0	-0.047628284
58	0xbd7c6404	-0.06161882
59	0x3be3d752	0.0069531584
60	0xbdceba9e	-0.10094188
61	0xbe0ac529	-0.13551773
62	0xbd75abc9	-0.05997828
63	0xbdb9dc9e	-0.090752825
64	0xbdb4ff46	-0.08837752
65	0xbdda200e	-0.10650645
66	0xbce3e47e	-0.027818915
67	0xbdb859a5	-0.09001473
68	0xbc6c72f0	-0.0144317
69	0xbdaff07c	-0.08590791
70	0xbdf5bfa1	-0.11999441
71	0xbd8e2e78	-0.06942457
72	0xbe0cf690	-0.13765931
73	0xbe1faf80	-0.15594292
74	0xbde58ad7	-0.11208122
75	0xbdf8bafd	-0.1214504
76	0xbdc56990	-0.09639275
77	0xbcde73f1	-0.027154895
78	0xbd9e07a3	-0.077163
79	0xbdd1f915	-0.10252587
80	0xbdab2048	-0.083557665
81	0xbd19b8b9	-0.03752968
82	0xbdebacba	-0.11507554
83	0xbc875d9f	-0.016524134
84	0xbd9b5e5c	-0.07586357
85	0xbd976aad	-0.07393394
86	0xbcf37a69	-0.029721456
87	0xbdf89c6e	-0.121392116
88	0xbdbcb23e	-0.092136845
89	0xbddfe935	-0.109331526
90	0x3cfb4702	0.030673508
91	0x3bafe5ae	0.005367956
92	0x3bb6705f	0.005567595
93	0xbbde1db4	-0.006778443
94	0xbe0b0f01	-0.13579942
95	0xbb68cd80	-0.0035522878
96	0x3cbbae31	0.02291021
97	0xbda18efb	-0.078885995
98	0x3d2ee249	0.04269627
99	0xbdfe3e1a	-0.12414189
100	0xb9d5ae04	-0.00040756178
101	0xbda32cbe	-0.07967518
102	0xbd8f5da2	-0.07000281
103	0xbdf39e01	-0.11895371
104	0xbbd2d540	-0.006434113
105	0xbdc0f2d7	-0.09421318
106	0xbe2650b0	-0.16241717
107	0xbde4b4dd	-0.111673094
108	0xbdc02817	-0.093826465
109	0x3d6c73bb	0.057727557
110	0x3c855cee	0.016279664
111	0xbe038667	-0.12844239
112	0xbd76fd76	-0.060300313
113	0xbdf49beb	-0.119438015
114	0xbdbc216b	-0.091860615
115	0xbdf4c13d	-0.1195092
116	0xbdf5d402	-0.12003328
117	0x3ad31954	0.0016105571
118	0x3cdcd9eb	0.02695938
119	0x3c6bd597	0.0143941855
120	0xbde38b1f	-0.111105196
121	0xbdc2cfee	-0.09512316
122	0xbd0726e4	-0.032996073
123	0xbe2000f0	-0.15625358
124	0xbdb626be	-0.08894108
125	0xbe04bca8	-0.12962592
126	0xbd92f351	-0.07175315
127	0xbdc8dfd4	-0.09808317

action_model._continuous_distribution.log_sigma f4 [1, 2]
0	0xbef20e9b	-0.47276768
1	0xbf3328f6	-0.69984376

action_model._continuous_distribution.mu.weight f4 [2, 128]
0	0xbdc0a50d	-0.09406481
1	0xbdbc6cec	-0.09200463
2	0xbde7ef44	-0.11324933
3	0xbdc12bd4	-0.09432188
4	0xbe24e5a5	-0.16103227
5	0xbd85dc7b	-0.06536194
6	0x3cbd9bc8	0.023145571
7	0xbdd9dcbb	-0.10637804
8	0xbe215a8b	-0.15757196
9	0xbdb915a8	-0.09037334
10	0xbda41220	-0.080112696
11	0xbe06edb2	-0.13176611
12	0xbe10aca1	-0.14128353
13	0xbcfb7658	-0.03069608
14	0xbe326d96	-0.17424616
15	0xbe14932c	-0.14509267
16	0xbe08f8a5	-0.133761
17	0x3dbb6c33	0.09151497
18	0xbdbad771	-0.091231234
19	0x3dfea7e8	0.12434369
20	0xbd9711f4	-0.07376471
21	0xbde93e3a	-0.11388822
22	0xbda46b4c	-0.08028278
23	0xbded79c2	-0.11595489
24	0xbd8c9b8b	-0.06865605
25	0xbb2714f7	-0.0025494674
26	0x3d97eb9a	0.07417984
27	0xbd1d2034	-0.03836079
28	0x3c691bee	0.01422785
29	0x3a9edea4	0.0012120795
30	0xbe0d10da	-0.1377596
31	0xbda636bd	-0.08115909
32	0xbdce9aea	-0.10088141
33	0xbdb61342	-0.08890392
34	0x3c87d7ec	0.016582452
35	0x3c6ebc3c	0.014571246
36	0xbdab40c7	-0.08361965
37	0xbdfcd047	-0.12344413
38	0xbe14845e	-0.14503619
39	0xbe018997	-0.12650143
40	0xbcd02a49	-0.025410788
41	0xbddc8de5	-0.10769252
42	0x3c923e90	0.017852098
43	0xbe3410fd	-0.17584606
44	0xbdc3da38	-0.09563106
45	0xbddf49eb	-0.109027706
46	0xbe1ab062	-0.15106347
47	0xbda412f1	-0.08011425
48	0x3c2e6058	0.010643087
49	0xbd8d1ed6	-0.06890647
50	0xbe1248f1	-0.14285637
51	0xbbb056c3	-0.0053814366
52	0xbe0c2aa9	-0.13688149
53	0xbde54703	-0.11195185
54	0xbd945488	-0.072426856
55	0xbcd070c2	-0.025444392
56	0xba583696	-0.000824788
57	0x3d140a9a	0.036142923
58	0xbddc504d	-0.10757504
59	0x3c4d2ae1	0.01252243
60	0xbdd28be5	-0.10280589
61	0xbdc0cae5	-0.09413699
62	0xbdfb150a	-0.12259872
63	0xbd90c70d	-0.07069216
64	0xbded16cd	-0.115766145
65	0xbd8f4958	-0.06996411
66	0x3b514c36	0.0031936294
67	0xbd96c17a	-0.073611215
68	0x3c81571c	0.015788607
69	0xbe0003f3	-0.12501507
70	0xbdadaf7f	-0.08480739
71	0xbe15736a	-0.14594808
72	0xbd34e0f7	-0.044159856
73	0xbdcf08e8	-0.101091206
74	0xbd93a270	-0.07208717
75	0xbdac1455	-0.084023155
76	0xbd8f3c35	-0.069939055
77	0xbbd17f26	-0.006393331
78	0xbdeb2b67	-0.11482888
79	0xbe0ab92a	-0.13547197
80	0xbdd96061	-0.10614086
81	0xbc344a3a	-0.011004025
82	0xbe0dc502	-0.13844684
83	0xbc9aee0a	-0.018912334
84	0xbe33a42c	-0.17543095
85	0xbe0e70e5	-0.13910253
86	0xbc5020d2	-0.0127031375
87	0xbe0ce606	-0.13759622
88	0xbdcde138	-0.10052723
89	0xbde5a376	-0.11212818
90	0x3c12cce8	0.008959986
91	0x3d913bd9	0.07091493
92	0xbca40e28	-0.020026281
93	0x3c1defa0	0.009639651
94	0xbddb8928	-0.1071952
95	0xbc8e9a83	-0.017407661
96	0xbc185cc3	-0.00929946
97	0xbe04ee0d	-0.12981434
98	0x3d85e4af	0.065377586
99	0xbdec6963	-0.115435384
100	0x3c324303	0.010880235
101	0xbdf5d1e6	-0.120029256
102	0xbe0e5b3c	-0.1390199
103	0xbda7b79f	-0.0818932
104	0xb9a0bc4b	-0.00030657867
105	0xbdba320c	-0.09091577
106	0xbdc75220	-0.09732461
107	0xbcb77492	-0.022394452
108	0xbdbb0698	-0.09132117
109	0x3dc82b7c	0.09773919
110	0x3a293286	0.0006454367
111	0xbdeb8d49	-0.115015574
112	0xbe2e58b9	-0.17026033
113	0xbdd15e4d	-0.102230646
114	0xbda82edb	-0.08212062
115	0xbdec403c	-0.11535689
116	0xbdc31d43	-0.095270656
117	0x3c0bb279	0.008526438
118	0x3b9fb111	0.004873403
119	0xbc634ed1	-0.013873772
120	0xbde3b847	-0.111191325
121	0xbe010078	-0.12597835
122	0x3c3d80c2	0.011566343
123	0xbde4fbe4	-0.11180857
124	0xbd7c0abb	-0.06153367
125	0xbddcc416	-0.10779588
126	0xbdab7d10	-0.08373463
127	0xbd9b037f	-0.07569026
128	0x3d8ba7d7	0.06819122
129	0x3d8f1fb1	0.069884665
130	0xbd07ebff	-0.033184048
131	0x3d5ed246	0.05439975
132	0xbd8d9f66	-0.069151685
133	0xbb6786db	-0.0035328183
134	0x3c154cde	0.009112565
135	0xbc82f1f0	-0.015984505
136	0xbdcc11e9	-0.099643536
137	0x3da69f8d	0.08135901
138	0x3d301a0e	0.042993598
139	0x3d856f9b	0.06515428
140	0xbda9bb19	-0.08287639
141	0x3d22925c	0.03969036
142	0xbd497a88	-0.04918912
143	0xbcb9abc5	-0.022664914
144	0xbb15861b	-0.0022815529
145	0x3d97b4e4	0.07407549
146	0x3d7bd4d4	0.061482266
147	0x3db25f46	0.08709578
148	0x3d5fb2bc	0.054613814
149	0x3d9ce31b	0.076605044
150	0x3d8fbb26	0.070181176
151	0xbda037f7	-0.078231744
152	0x3d5da496	0.05411204
153	0x3bb7d222	0.0056097666
154	0x3d500840	0.050789118
155	0xbce519de	-0.027966436
156	0x3c2500cb	0.01007099
157	0xbacae820	-0.0015480556
158	0xbce4caee	-0.027928796
159	0x3d68488e	0.05670982
160	0xbc9561eb	-0.018235167
161	0x3dbcaac8	0.092122614
162	0x3b886a83	0.004163088
163	0x3c2e4ba2	0.010638149
164	0x3d806acb	0.06270369
165	0xbbc09fa2	-0.0058784047
166	0xbd5ee9a9	-0.054422054
167	0xbd1b5714	-0.03792484
168	0x3cb1440c	0.021638893
169	0xbb0824dd	-0.0020773925
170	0x3b822170	0.003971271
171	0xbd8fd76b	-0.070235096
172	0xbcbc0d0d	-0.022955442
173	0x3db84e54	0.08999315
174	0xbd531787	-0.05153611
175	0x3d9c7a19	0.07640476
176	0x3bbad6e7	0.005701888
177	0x3d103ee7	0.03521624
178	0xbd6ae5fb	-0.057348233
179	0xb9ca2c6a	-0.00038561533
180	0x3bedaf33	0.0072535514
181	0x3d849789	0.064742155
182	0x3d8a340e	0.0674821
183	0x3b5e8323	0.0033952675
184	0xbb81afa8	-0.0039577074
185	0x3c8bf4fd	0.017084593
186	0x3d9e1866	0.077194974
187	0x3c39fd63	0.011351916
188	0xbd270fae	-0.040786438
189	0x3d9fd9fe	0.078052506
190	0xbd4fdc62	-0.050747283
191	0x3db60c36	0.08889048
192	0xbd6d68f8	-0.057961434
193	0x3d96535c	0.07340118
194	0x3d0f1702	0.03493405
195	0xbc83b5d2	-0.01607791
196	0x3c2cf67a	0.0105568115
197	0xbcdca8f8	-0.02693604
198	0x3d82dc4f	0.06389677
199	0xbd853ffc	-0.06506345
200	0xbd284507	-0.041081455
201	0x3caad38a	0.020852823
202	0x3d2caa2b	0.042154472
203	0x3da1c503	0.07898905
204	0x3d8d00d2	0.06884922
205	0xbc06328b	-0.008190761
206	0x3d93b220	0.07211709
207	0xbd0da675	-0.034582574
208	0xbd4b2aa3	-0.04960121
209	0xbb897615	-0.0041949847
210	0xbd9c88d8	-0.076432884
211	0x3cc824fd	0.0244317
212	0xbca16e13	-0.019705808
213	0xbd67630e	-0.05649095
214	0x3b9a8d42	0.0047165463
215	0xbd9273b9	-0.071509786
216	0x3c5ec3e6	0.0135965105
217	0xbd3afb7c	-0.04564999
218	0x3d6fdc28	0.058559567
219	0x3d6d6349	0.057956014
220	0x3d034aa3	0.0320536
221	0x3cd6ea8e	0.026234891
222	0xbd8a9581	-0.06766797
223	0xb93f5ebf	-0.00018250475
224	0x3ba6eee9	0.0050943983
225	0xbd58704b	-0.052841466
226	0x3d671bee	0.05642312
227	0xbd4abefc	-0.049498543
228	0xbb7a50c2	-0.0038195108
229	0x3dc62385	0.096747436
230	0x3db12534	0.08649674
231	0xbd4b3e91	-0.049620215
232	0xbbed65d0	-0.007244803
233	0x3d95afc4	0.07308915
234	0x3d4341b1	0.04767007
235	0x3da0de5b	0.07854911
236	0xbd2a3e87	-0.041563537
237	0xbd79e21b	-0.061006647
238	0x3cb8f93c	0.022579782
239	0xbd64ef93	-0.05589254
240	0xbdc1e4a5	-0.094674386
241	0xbd241508	-0.04005912
242	0x3da9450a	0.08265121
243	0xbc8b04f6	-0.016970139
244	0x3d74c191	0.05975491
245	0x3c267aac	0.010161083
246	0xbc1ea9eb	-0.009684066
247	0x3cc04f18	0.023475215
248	0x3d9492ac	0.07254538
249	0xbd854169	-0.065066166
250	0xbb3ee9be	-0.002913102
251	0xbd21f59f	-0.039540883
252	0xbcdde28f	-0.02708557
253	0xbd427f74	-0.04748483
254	0xbc3a2de0	-0.0113634765
255	0x3d8e2279	0.06940169

action_model._continuous_distribution.mu.bias f4 [2]
0	0x3e08bed3	0.13354044
1	0xbdc0d24a	-0.094151095
