results/ThreeDirt/DirtAgent.onnx (onnx, 315955 bytes, 11 tensors)

discrete_action_output_shape f4 [1, 3]
00000000: 0000 4040 0000 4040 0000 0040
3.0 3.0 2.0

network_body._body_endoder.seq_layers.0.weight f4 [256, 39]
00000000: aa4f edbc 0cac 84be 5987 e5be 0165 6a3e
00000010: 0f4c 0ebe 32f6 b63d d74a 6abd 6ffa 0cbf
00000020: 41f8 8bbe daa5 c9bd ac83 3bbe 5e18 97bd
00000030: fe5b 7abe 393b c73d c5aa 51be f178 cfbd
00000040: 01a9 603e 043d d2be 727c 55be 8fd9 c23d
00000050: 82d3 dfbc 936b 4dbd ec93 b0be cc02 84bd
00000060: cf5b a03d 4056 00be 44c7 1bbc 8d5a 4abd
00000070: c4cf 083e 212a 7b3e 9f2d 913d b30c 34be
00000080: fc3e d3bd 87b6 51be ac1b 363b 0527 80bd
00000090: e391 16bd 84fa 5bbe 4624 82bc 7b0e 75bc
000000a0: 7bcb b8be 24aa 433e 1806 2d3c c1ef 973e
000000b0: b20b 7b3d 8810 30bd 1b94 8fbd 4280 c73d
000000c0: 1932 bbbe 856a 26be 7b6d bd3e fb89 00be
000000d0: d35a 8ebb 91f9 053e 62d2 52bc 19c4 95bd
000000e0: de9e 6ebd b84c 0a3e dd34 3b3c ab82 a4bb
000000f0: b933 3bbe 638e bf3c ad11 8c3e 0b18 c03e
00000100: b607 593e ced8 4a3e 1f01 a53d 9ccf e6bd
00000110: 03ac c33c 372b c43e 4cc1 8eba f7d3 09bd
00000120: 3bd6 953e 1f5e 1bbd aaba edbe 40c9 af3e
00000130: 60e5 eebd 49fc 19bd 19fc 993d 2711 a93c
00000140: f547 e2bc 230e 13bc 35d0 a7be 41bb 88bd
00000150: 0a0a c5bd 0a85 fd3c a35d 083e 7ddd 06be
00000160: 4163 34be 915b ddbc 7bba 0cbe db48 723e
00000170: 47d2 a0bd 348a 23bc 7907 1b3e 32d2 253e
00000180: f380 a33e 2a62 133e a4a0 883d 963c 0f3e
00000190: 333b 3b3d 97bf 5e3d a0f0 6dbe b246 24bd
000001a0: 62eb 25be 78df da3d 04f2 42bc 7727 01bd
000001b0: 5fe3 85bd d7ff 1ebc 5479 6e3e 6558 c0bc
000001c0: 3106 10bf a9ae c63c a72f c9bd c852 7b3e
000001d0: fe97 743e 1a9d 983d a86e b9bd e96b 543e
000001e0: f252 823e f2f6 2ebc 84f5 a3be 96b6 5d3e
000001f0: 1652 953d 899d 393e 5b07 71bc 5637 2fbd
00000200: c126 adbd 909d d3bd d7f2 b0bd 63e9 0b3e
00000210: 9e18 a4bd a3c2 e43d 58c6 62bc b4c6 2f3e
00000220: 21ed d2be 0e0a 063e 9783 e1bd d8eb 7c3e
00000230: 871f 073e fadb b43d 0731 e5bd f045 cabc
00000240: 4e74 97bc affd 0fbd b8bc 5e3e 3af0 023e
00000250: 3488 bc3d 8a78 45bd 8a41 52be 5d45 1b3e
00000260: d2bb 1ebd 3bb5 e13b 8bd1 26be b482 95bd
00000270: 91d5 33be 748f 5fbe a369 fcbc 92de 893c
00000280: 63cf cabe c459 c7bd 1a5a 3c3d 70c9 393e
00000290: 422e 25bc 54d7 ad3d 6d1c 1fbe c3f3 2bbe
000002a0: b876 bfbb 4f03 5abe 9462 66be cd9e 873d
000002b0: 27fa e73d 8020 693e 95bd b6bc c2ba 9ebd
000002c0: b442 d93d 590f 0d3e 262a 143f d063 4abc
000002d0: 42f9 7f3e 603e 953d f626 d2bd 65b2 dabd
000002e0: 9f89 36bd 4737 6c3e 4c27 6cbd d0d5 493e
000002f0: 6aae 973e 83d1 8d3e e850 a3be 3be7 223d
00000300: ed80 ddbd 819d d03d 5c3a c63a 973f 973e
00000310: 0fe3 cb3c 7c7f 723e 5d3c 62be 3176 863d
00000320: 8fbf 5dbe cfc9 51be 8990 163d 6cbd c6bd
00000330: 4d30 a7bd 00a4 b33e 6046 863e 08ca c93e
00000340: be4a 9d3e d18e abbd 4aec 083e 4645 9abd
00000350: 8f44 4dbe aa70 29bc 9792 cebd b16e 02be
00000360: 010f 08be 0e83 a3bc 463c 2a3e 8793 bf3d
00000370: 4816 e2bd a08d 46be 0403 d9bc 3a79 a4bd
00000380: 698a 9e3e 45de 8b3d 2eda 143d 4fb7 babd
00000390: 3856 4d3d a3f9 dc3d 0f07 133d 1983 37bd
000003a0: 38bf 4ebe 8efd 12be b486 16be 4592 b8bd
000003b0: bd74 49bd addc 08bd 6c0d 503c 56dd e13c
000003c0: 0000 c9bd 41f4 26bd 0500 96bd 2193 103e
000003d0: 2e11 92be 3e0d 4cbe 4f3c 64be c5cf 2fbe
000003e0: 332f 7bbd 9e49 533e f5eb 29be 0803 9b3e
000003f0: cc57 fd3d 58e7 b33e f1a8 7fbd 3a2a 033b
-0.02896865 -0.2591251 -0.44829825 0.22890092 -0.13896202 0.08933677 -0.05720028 -0.5506963
-0.2733784 -0.09846087 -0.18311948 -0.073776945 -0.24449155 0.09728093 -0.204753 -0.101304896
0.2193947 -0.41062176 -0.20848253 0.09514152 -0.027322534 -0.05015142 -0.34487855 -0.06445846
0.07830011 -0.12532902 -0.009507958 -0.049402762 0.13360506 0.2452779 0.0708878 -0.1758297
-0.10314748 -0.20479785 0.002778749 -0.062574424 -0.036760222 -0.21482283 -0.015886437 -0.014957066
-0.36092743 0.19107872 0.010560535 0.29675105 0.06129045 -0.042984515 -0.07010671 0.0974126
-0.3656166 -0.16251571 0.3699759 -0.12552635 -0.004344323 0.13083483 -0.012867542 -0.07312793
-0.058256976 0.13505828 0.011426178 -0.0050204596 -0.1828145 0.023383325 0.27357236 0.37518343
0.21194348 0.19809267 0.080568545 -0.11270067 0.023885733 0.3831422 -0.0010891347 -0.03364941
0.29265007 -0.037931558 -0.46431476 0.3433323 -0.116648436 -0.037594113 0.07518787 0.020638062
-0.027622202 -0.008975538 -0.32776037 -0.06676341 -0.096210554 0.030947227 0.1331697 -0.13170429
-0.17615987 -0.027021201 -0.13743012 0.23660605 -0.07852607 -0.009981681 0.1513957 0.16193464
0.31934318 0.14392915 0.06671265 0.13987955 0.045710754 0.054381933 -0.23236322 -0.040106483
-0.16203073 0.106871545 -0.011898521 -0.031531777 -0.06537508 -0.009704552 0.2328847 -0.02347965
-0.5625945 0.024253206 -0.09823542 0.24543297 0.23886105 0.0745184 -0.09054309 0.2074429
0.25453907 -0.010678994 -0.3202325 0.21651682 0.07291047 0.18126501 -0.014711226 -0.04277738
-0.08454657 -0.10332787 -0.08640068 0.13663249 -0.08012508 0.111699365 -0.013841234 0.17165643
-0.4119654 0.13089773 -0.11011427 0.24699342 0.1319562 0.0883102 -0.11190992 -0.024691552
-0.018488076 -0.03515404 0.21751678 0.12786952 0.09205666 -0.048210658 -0.20532814 0.15163179
-0.03875334 0.0068880594 -0.16290872 -0.0730032 -0.17561938 -0.21832067 -0.03081209 0.016829763
-0.39611349 -0.09733918 0.045984365 0.18143249 -0.0100818295 0.08488336 -0.15538187 -0.16792206
-0.00584301 -0.21290325 -0.22498542 0.06622086 0.1132701 0.22766304 -0.022307197 -0.07750465
0.10608426 0.13775386 0.57876813 -0.012352899 0.24997428 0.07287288 -0.102613375 -0.10678557
-0.04456484 0.23067962 -0.057654664 0.19710469 0.29625255 0.27698907 -0.31897664 0.0397713
-0.10815606 0.101862915 0.0015123594 0.29540703 0.024888543 0.23681444 -0.2209334 0.06565512
-0.21655105 -0.2048714 0.036758933 -0.09704098 -0.081635095 0.3508606 0.26225567 0.3941195
0.30721086 -0.083768494 0.13371387 -0.07532744 -0.20045684 -0.010341803 -0.100865535 -0.12737538
-0.13286974 -0.019959953 0.16624555 0.093543105 -0.11039406 -0.19389963 -0.026490696 -0.08030935
0.30964974 0.06829504 0.036340885 -0.091169946 0.050131053 0.10789802 0.035895403 -0.04480276
-0.20190132 -0.14354536 -0.14699823 -0.09012274 -0.049183596 -0.033413578 0.0126985125 0.027571362
-0.09814453 -0.040760282 -0.073242225 0.14118625 -0.28528732 -0.19926926 -0.22288631 -0.17169102
-0.06132431 0.20633551 -0.16593917 0.3027575 0.123702615 0.3513744 -0.062416974 0.0020014183

network_body._body_endoder.seq_layers.0.bias f4 [256]
00000000: 797f 27bd 62f8 1fbc 8c55 833c 5fc2 4c3c
00000010: f7a1 4e3d cf84 533d bde0 033d 04db c43c
00000020: 28f8 dd3b 3ee1 d13c d23a d93b 4db4 383c
00000030: 2164 89bb d55d 06bd a4ee 05bd 41ed 8d3c
00000040: 6930 bb3c b756 bebc 16cf 753c 8d04 053d
00000050: 720b 86bb ef71 8b3c 4ff9 c23c 0e49 a63c
00000060: 4517 c1bb 83bc 25bc 6c59 cf3b c4d1 c23c
00000070: 9651 9cbb 920e 15bd bec0 833c 843a 8dbb
00000080: dfff 4a3c 0be5 86bc 2ca5 daba 2617 df39
00000090: 5873 efbb 422c 073b fa24 1a3c 82ed 0dbc
000000a0: ad98 64bc 5595 c9bb 7eac d93c 1fd8 873c
000000b0: 8f27 80bb 2aed ddbb a0d9 09bd a5f1 ec3c
000000c0: a249 623c e3f8 14ba c6a5 2dbd e989 eb3b
000000d0: 6ad5 fc3c a071 5e3c cdfa 363b 3e23 2ebd
000000e0: 8195 033d 85ee 153d 9035 583c 84f0 1fbc
000000f0: 761f 0b3d a494 34bd 5044 983c 3a89 883c
00000100: b23d 6bbb 2b8a 4cbc 05a3 993c a328 ce3b
00000110: af54 aabb f4be 58bd a911 9c3c 0366 c3bc
00000120: be53 333c c607 43bd 8b80 bdbb 460c eabc
00000130: 1247 313d f9f9 163d 61f8 47bc 3c44 ea3b
00000140: dda0 c3bc 4b36 e4bb 7130 023c 7318 2ebc
00000150: 1e23 ab3c 43dc 88bc b2cd 21bc fe13 98bb
00000160: a8a4 0fbd 7f76 993c a8fa 2bbc 3b9c 9cba
00000170: b081 623c 38cf bdbb 4c70 703b 26b5 2bbc
00000180: 2844 1f3c 5fa9 9a3c aa30 fe3c 3feb b03c
00000190: 6658 93ba 57b0 093d 8fb5 b4bc 5425 2d3c
000001a0: 419f 963c f7dc cf3c d955 233c ade4 edbb
000001b0: 6b23 113d c760 7e3c ad3e 943c 8fd5 273c
000001c0: fd99 60bd 6f61 19bd 6585 673c ba1b b63c
000001d0: 5cac 1abc 609b 073c d06a 32bc 6588 4eba
000001e0: 0edc ca3b 7683 4a3b f053 0dbd b3b0 f33a
000001f0: bf94 2fbd 85a0 0c3b 291a adbc cfb5 a53b
00000200: 94ee 12bd c50d 18bc eb89 f83b 1d47 013d
00000210: 651d 173d c2d7 61bc 7427 7ebc d26d 853b
00000220: d776 0dbb 3e74 af3c 1f4b a93c 4dcf aebc
00000230: 9dbc e93c 89f0 8739 3ec6 773c 5c2a 073d
00000240: 0126 c8bb 37cc 043c 0fc7 debb 285e 90bc
00000250: 918a 463d f014 d13b 9d95 b6bb fdbf 7f3d
00000260: d7df 693c c5ed 223c 26fd 283d db59 503d
00000270: 9156 62bc 9197 af3c 6e8f 11bd a70d a6bc
00000280: 9ce5 2f3c 61dd 8abc 94f7 07bb 6e62 073d
00000290: 0cc0 d0bc 9964 0c3d dada ae3c b59c 31bd
000002a0: 4ef7 053c 5948 b93a 37ff eabb 36e4 66ba
000002b0: 345d ef3b 8173 6ebb 9cc5 903c 39f3 1e3d
000002c0: 37c3 cd3b 939c 90bb 425a 653c 75d9 8ebb
000002d0: 696c a13c 4031 95bc bb94 293c 9174 0fbb
000002e0: effe 083b 3f4d 9b3c abc5 c1ba 827e ca39
000002f0: 3ce7 57bd b351 4e3c 1f71 173d 4138 0c3d
00000300: 1696 053b 5308 72bc de37 853c 8674 2cba
00000310: 914b 8fbc f056 c5bc 1988 41bc 115a 1d3c
00000320: 55d3 e13c f346 6a3c b455 ee3c 8809 60ba
00000330: bc31 1f3c 21bf f03b 9c96 1ebd 1548 443a
00000340: 56af ee3b 8501 ac3d f1b7 0d3c f609 533d
00000350: 32f3 ad3a ec36 873c 87cf 33bd 9a27 563d
00000360: e86e fc3c 0bb6 d33c cbf6 d539 907b 463c
00000370: ef37 67bc 09b3 7a3b eb2a d53b 3193 f83b
00000380: 8ab5 09bc 6d48 2b3b 8157 ff3c 66bc 79bc
00000390: ba6f 9c3c 11a1 0c3c 61cc ee3c 5235 02bc
000003a0: 11a5 cabb 0ace 1abc 16da 26bc 2782 223c
000003b0: 1dc5 14bd cbf8 8e3c fed9 1b3b 4e73 0f3b
000003c0: d325 cc3c aad6 27bd 26ef 0cbb bb47 89bc
000003d0: 58f6 203d 2712 f0bc bcb3 33bc 493a f7bb
000003e0: 6619 303d 6a7c 98bc 8627 1e3c 5e3f 9d3c
000003f0: d28e af3a 0205 983c 29f3 c63b e3dd 933c
-0.04089305 -0.009763809 0.016032003 0.012497514 0.05044743 0.051640328 0.03219675 0.024030216
0.0067739673 0.0256201 0.0066293264 0.011273456 -0.0041928445 -0.03280433 -0.03269829 0.017325046
0.022850232 -0.023234708 0.015002986 0.032475043 -0.00409072 0.017022101 0.02380052 0.020298507
-0.0058926665 -0.0101157455 0.0063277986 0.023781665 -0.004770468 -0.03639085 0.016083118 -0.004309954
0.012390106 -0.016466638 -0.0016681305 0.0004255112 -0.007307451 0.0020625745 0.00940823 -0.008662583
-0.013952416 -0.006151835 0.026571508 0.016582547 -0.0039109658 -0.006772657 -0.03365481 0.028923819
0.013811501 -0.0005682839 -0.042394422 0.007188071 0.030863483 0.013576895 0.0027920485 -0.04251408
0.032125 0.036604423 0.013196364 -0.009761933 0.03396555 -0.044087067 0.018587261 0.016666997
-0.0035894928 -0.012484114 0.018754492 0.0062914654 -0.0051980834 -0.052916482 0.01905139 -0.023852354
0.010945259 -0.047614835 -0.005783146 -0.028570306 0.04328067 0.036859486 -0.012205214 0.0071492475
-0.023880417 -0.00696448 0.00794612 -0.010625946 0.020890769 -0.016706591 -0.009875702 -0.004641055
-0.035069138 0.018733261 -0.010496773 -0.0011948416 0.013824865 -0.0057925247 0.0036688028 -0.010480201
0.00972084 0.01887959 0.031029064 0.02159655 -0.0011241555 0.033615436 -0.02205923 0.010567982
0.018386485 0.025373919 0.009969198 -0.0072599263 0.035434168 0.015526003 0.018096292 0.010243787
-0.054834355 -0.037446436 0.014130925 0.022230018 -0.009440508 0.00827679 -0.010889724 -0.0007878601
0.0061907833 0.003090111 -0.034503877 0.0018592089 -0.042866465 0.0021457982 -0.021130638 0.0050570737
-0.035872057 -0.009280627 0.0075848005 0.03156196 0.036893267 -0.013784351 -0.015512336 0.0040719295
-0.0021585727 0.021417733 0.020665703 -0.021339083 0.02853232 0.0002592842 0.015122948 0.03299938
-0.006108046 0.008105329 -0.006798632 -0.017623022 0.04847199 0.00638067 -0.0055720345 0.062438954
0.014274559 0.009944384 0.041257046 0.050866943 -0.013814584 0.021434577 -0.035537176 -0.020270182
0.0107358955 -0.016951265 -0.0020746933 0.033052854 -0.0254822 0.034275625 0.021344591 -0.043362338
0.008176638 0.0014135941 -0.0071715373 -0.000880781 0.007304812 -0.0036384764 0.017672352 0.038806174
0.006279375 -0.0044131964 0.01399857 -0.004359419 0.019705014 -0.01821196 0.0103504015 -0.0021889547
0.0020903905 0.018957732 -0.0014783641 0.00038622698 -0.052710757 0.012592721 0.036973115 0.034233335
0.0020383648 -0.014772492 0.016261991 -0.00065786426 -0.017492088 -0.024089307 -0.011812233 0.009603993
0.027566591 0.014299142 0.0290936 -0.0008546342 0.009716447 0.007347003 -0.03871785 0.00074875477
0.0072840853 0.08398727 0.008649812 0.05152317 0.001327133 0.016505681 -0.043899085 0.05228386
0.030814603 0.02584364 0.000408104 0.0121144205 -0.014112457 0.0038253686 0.0065053604 0.007585906
-0.008405099 0.0026135698 0.031169655 -0.015242672 0.019096244 0.008583323 0.02915019 -0.007947283
-0.006184228 -0.009448538 -0.010183832 0.009918726 -0.036320794 0.017452618 0.0023781057 0.0021888795
0.02492038 -0.040976204 -0.0021504848 -0.016757837 0.03929743 -0.02930553 -0.010968145 -0.00754479
0.04299297 -0.018614013 0.009652978 0.019195255 0.0013394004 0.018557075 0.0060714674 0.01805014

network_body._body_endoder.seq_layers.2.weight f4 [256, 256]
00000000: 3cac 9ebb 0b35 49bc d0f3 8cbb 169c 23bc
00000010: aeef a7bc 00ba 093d 7690 f93d 4f6a 70bd
00000020: e634 4cbc dd40 dfbb d001 0bbb 550f b33d
00000030: 5775 813d 1f82 afbd b1d3 b43c a32e db3d
00000040: 47bf c8bc a878 f03c 41c0 fabd 82e4 873c
00000050: b939 113b 807f a9bd 2b32 86bd d5e5 c9bd
00000060: c78a 10be e866 b2bd 8445 313d ae25 24bd
00000070: 156f 133d 9236 013d 67a6 8dbd af44 113c
00000080: 416f bbbc 5bed 59bd 9152 943b 0dff f13d
00000090: 4d1b 983d c865 9bbd 709a 45b7 4910 ca3d
000000a0: b1e1 a1bc c772 933d 8055 5c3d d3d4 87bd
000000b0: 19c7 bcbd b694 b63d 6ce2 433d e96d 0ebe
000000c0: 115e 39bc 76b2 9fbd 5e31 8fbd 55d5 4cbc
000000d0: 033a 943d bd35 19bd 408b 4bbd 834b 533d
000000e0: 3f22 d03b 8235 9abb d48a 4fbd 17a7 b43c
000000f0: 8cec 24be 0afe 7c3d 7f07 e4bd f770 f83d
00000100: 8047 e9bc 2108 e53c aca9 73bc 4784 aa3d
00000110: 12f7 963d 1377 68bc c7b8 81bd 2128 beb9
00000120: e753 95bd 6ea1 7c3d 5c0c 953d 46c9 5d3d
00000130: afe1 0a3d 8525 e23d 151c ea3c efb0 29bd
00000140: d31e dc3d a23a 2fbd 0041 763d ae89 af3c
00000150: 3eb4 00bd 3b32 cabc c4ee c5bd 4327 90bd
00000160: bf7e 52bd e042 923c ad29 a6bc 7304 2bbe
00000170: 8d3d 2c3d 1c95 a9bd ab1c 5dbc 770f 7e3d
00000180: ff1d cb3b 19b9 7dbd a6db 1c3d 7575 2abd
00000190: 5f43 573d 70b0 b63d 0f16 0c3d fcdd 2a3e
000001a0: f273 033c 81d5 213d f9eb 9fbd 1aa8 93bb
000001b0: 06c4 463d 8c02 083e 1621 7cbd 0fbc b03d
000001c0: 9d20 d33d 4beb da3d 5a2a d539 c2ce acbd
000001d0: 5338 e33d 65fb ba3c 6116 093d 7626 d9bd
000001e0: 74fa 76bd eb5d a83d 1486 d7ba 7c39 fb3c
000001f0: 62b9 e9bc 7bb2 a3bc ae72 50bd 7f5e d53d
00000200: 81ee 473d e53d 32bd 1569 14bd 1737 ed3c
00000210: 5545 27bc a037 72bd d914 e8bd 80e9 d3bd
00000220: fa6b 37bd f1d7 51bc 2fd5 833c 6dcd 143d
00000230: 2455 37bd 3898 983d 6695 f6bd 6037 cb3b
00000240: 36a7 62bd 8e43 00be b982 2fbc 70ea 8e3c
00000250: fd22 73bd 7954 bc3c 946f 63bd 8986 a93d
00000260: e58c 39bd d1ab 5fbd 1e54 f1bd f1e2 3cbc
00000270: 159b 6b3d 9ae3 5fbd 89f1 6d3d a771 bdbd
00000280: aed6 183d 3e67 b2bc 09aa a6bc 1288 8ebd
00000290: 39dc 32bd 78eb b83d 7058 4fbd 7e7a 2b3d
000002a0: 58e6 5c39 7d22 1dbe 3874 9b3b a161 a0bd
000002b0: 7331 ccbd 5c28 73bd c69d 003d ea77 403c
000002c0: 77d6 14be 6c94 eebd d8c0 28bd a759 12bc
000002d0: e94c a3bd 539a d9bd 1109 0b3d dc86 c9bd
000002e0: 888a 70bc edc3 01bd 0ea8 78bd 2feb c43d
000002f0: 91ab 1a3d e20d edbd 0d01 41bd 09c8 8c3c
00000300: 216d a83d 8b85 ab3c f08f c0bd cdda 20ba
00000310: d2c3 e8bd 848c cd3d b12f a2bd 51a1 dcbd
00000320: c73c 38bd 8ec7 1cbd 5178 683d c9c1 bbbc
00000330: 2577 14bd d9f1 613d 57a6 b13c 3ae5 743d
00000340: dbf9 933d 5878 e0bb 913e 4f3d 30cc 1abd
00000350: d38e 593d 0e0e ad3d 5bb0 40bd 3cb8 4dbc
00000360: dac4 11bc ffd3 2f3e e768 e13b 13c4 763d
00000370: fe0a 53bc 44de 3a3a d724 b6bd 7930 74bd
00000380: 580e a7bc b9e7 e33c 329c afbd 0141 cebd
00000390: 0673 3cbd 72df 1a3d 1eab c8bd 383a f8bd
000003a0: 578f 473d 09df e8ba d081 4b3d a9b1 8c3d
000003b0: a02d 94bd 9be4 eb3b abca 90bd 1ec6 b33c
000003c0: 909d 35bc f1a5 00bd 888e 8fbd c10f 97bd
000003d0: e957 5a3d ab0c aabd 21b2 a83d 4487 853d
000003e0: dd80 683c 1bf0 dc3c f2db 12bd a4ff 14bd
000003f0: 3c38 02be cae7 c0bc 541d 053d 9547 02bb
-0.0048423093 -0.012280713 -0.0043015257 -0.009985944 -0.02050003 0.03362465 0.12185757 -0.058695134
-0.012463784 -0.006813152 -0.0021210797 0.08743159 0.06321209 -0.085697405 0.022073599 0.107022546
-0.02450527 0.029354408 -0.12243701 0.016588453 0.002215965 -0.08276272 -0.065525375 -0.0985829
-0.1411544 -0.08711034 0.043279186 -0.040074997 0.035994608 0.031546183 -0.06916504 0.008866473
-0.022880198 -0.053204875 0.0045264442 0.11816225 0.07427082 -0.075877726 -1.1778073e-05 0.098663874
-0.019760938 0.071996264 0.053792477 -0.0663239 -0.09217662 0.08915083 0.047823355 -0.13909115
-0.011313931 -0.077977106 -0.06991838 -0.012502034 0.07237627 -0.037404764 -0.049693346 0.051585685
0.0063517387 -0.0047060857 -0.050669506 0.02205233 -0.1610586 0.061765708 -0.11134242 0.12130921
-0.028476477 0.027957978 -0.014871996 0.08326011 0.07371344 -0.014188546 -0.063340716 -0.00036269522
-0.07291394 0.06167739 0.07277748 0.054147027 0.033906635 0.110423125 0.028577844 -0.041428503
0.10748067 -0.042780526 0.060120583 0.021427955 -0.031421892 -0.024682155 -0.096646816 -0.070387386
-0.051390406 0.017854154 -0.020283544 -0.16700916 0.042050887 -0.082803935 -0.0134956045 0.062026467
0.006198644 -0.0619441 0.03829541 -0.041615922 0.052554484 0.089203715 0.034200724 0.16686243
0.008023249 0.039510254 -0.0780868 -0.0045061233 0.048526786 0.13282222 -0.06155499 0.08629619
0.10308955 0.1068941 0.0004065808 -0.084378734 0.11094727 0.022824952 0.033468608 -0.10603039
-0.060297444 0.082210384 -0.0016443157 0.03066706 -0.02853078 -0.019982567 -0.050890617 0.10418414
0.04881144 -0.04351606 -0.036233027 0.028956933 -0.010209401 -0.05913508 -0.113321014 -0.10347271
-0.04478071 -0.012807832 0.016092865 0.03632872 -0.04475893 0.074509084 -0.12040214 0.0062016696
-0.055335246 -0.1252577 -0.010712319 0.017445773 -0.05935954 0.022989498 -0.05552633 0.08277614
-0.045300383 -0.054607216 -0.11783622 -0.011528716 0.057520945 -0.054660417 0.058091674 -0.09250193
0.03731411 -0.021777745 -0.020344751 -0.06959547 -0.043667052 0.09029287 -0.05062145 0.041864865
0.00021066645 -0.15345187 0.004744079 -0.07831121 -0.09970369 -0.05936466 0.031400464 0.01174734
-0.14534937 -0.11649403 -0.041199535 -0.008932508 -0.07973654 -0.10625138 0.033944193 -0.098401755
-0.014681466 -0.03168099 -0.060707144 0.0961517 0.037761275 -0.115749136 -0.047120143 0.017185228
0.0822394 0.020937702 -0.09402454 -0.00061361195 -0.11365475 0.10036567 -0.07919253 -0.10772956
-0.044979837 -0.038276248 0.056755368 -0.022919552 -0.036246438 0.055162285 0.021685762 0.05978892
0.072253905 -0.0068502836 0.050596777 -0.037792385 0.053114723 0.08449946 -0.047043186 -0.012556132
-0.008897031 0.17170714 0.0068789604 0.060245585 -0.012881039 0.0007128457 -0.088937454 -0.05961654
-0.020392582 0.027820455 -0.08574714 -0.10070992 -0.046008132 0.03781075 -0.09798263 -0.12120479
0.048720684 -0.0017766665 0.049684346 0.068698235 -0.07235265 0.0071988828 -0.07069906 0.021945056
-0.011084929 -0.031408254 -0.070096076 -0.07376052 0.053306494 -0.083031975 0.082371004 0.065199405
0.01419088 0.02696996 -0.035854287 -0.03637661 -0.12716764 -0.023548026 0.032498673 -0.0019879092

network_body._body_endoder.seq_layers.2.bias f4 [256]
00000000: ccdf eabc d490 0dbc 7410 c7bc 3e02 033c
00000010: 9020 f83c ca87 c93b 365a 0b3c bf77 5d3c
00000020: 3b71 a7bc e8ed 643c 2ca0 573c 4e9b 573b
00000030: b511 b1bc eb93 203c 631f b43c b841 81bc
00000040: f735 2d3b 3f62 1fbb 7108 1cbb 1b74 ffbb
00000050: 9251 c7bc 936a 87ba 7cea 5b3b 7789 d439
00000060: 78e5 103c 61a8 8a3b e3d4 b2bc f34a 15bb
00000070: b354 973c 75d7 7dbb b77b 88bc 38a3 643c
00000080: a0d0 fdba a8c6 0fbc d1b5 133c 2be5 56bc
00000090: 496c b43b a7d8 88bc 7c16 8d3c b572 0abc
000000a0: 0942 343b 1b83 5bbc 550e 263b 91ef cabc
000000b0: 4ff1 d6b9 7c89 b4bc b5db b03c 9f60 543c
000000c0: 6401 f73b 72ce cdbc e92b b23c 0410 9f3c
000000d0: bc6d 6b3c 8ec7 023d 520d d5bc 0be8 b9b9
000000e0: 8f12 8938 3fa3 4b3a 22d4 0c3c 8e80 703c
000000f0: 1e4a 54bc fe4e c43c 1c43 ecba 37a5 6fbc
00000100: 319d 773b 344c 8c3c 5351 8e3c 61cc d0bc
00000110: 99ce be3c 89bc b4bb c603 333c d4ac d23b
00000120: 240d 703c aeba 9d3c d1e7 2c3c 871b 41bb
00000130: e1b1 25bc 98c5 143c 0fab 713c 9451 95bc
00000140: 9c7b 943c c5ed febb 616a 81bb e194 5a3c
00000150: 0564 c2bb a2d7 93bb cbc9 bd3c 16c1 92bc
00000160: 9309 a13c 716c 423c d758 323c e291 b43c
00000170: d0ef 38bc 1cbb 80bb 71b9 ab3c aeeb ef3b
00000180: daa2 cebb 64f8 a63c a629 6fbc 3be2 8a3c
00000190: 5053 283c 6236 c23a 8fef 103c d032 193c
000001a0: a152 573c c07f f43a 4eb2 763c d571 d0bb
000001b0: 0d85 863c ec8b 033d ca0f ea3c 2501 7bbc
000001c0: f832 debb 1c76 6f3b 07ff d93c fe73 b239
000001d0: 89cb 293c df23 b33c 1590 81bc 2f7f 6b3c
000001e0: 143f 2e3b 9d0b bc3c 8f09 e53c 3040 293c
000001f0: ccd0 4538 3a6c a13c 293e 973c f26b d5bc
00000200: 1aab a2bb 93c6 b4bc 1b48 9e3c ba09 d83c
00000210: 05a6 ccbb 8b95 ebbc 9c12 e3bb 325e 4bbc
00000220: 4a2d 903c 473d 8a3c c6d7 a3bc 200f 803a
00000230: d815 41bb 5545 323c 1b80 a83b ea65 02bb
00000240: dcb6 7f3c 7e56 3e3c c8fc 59bc 8cc9 cd3b
00000250: 84b9 d83a fd54 193c 84cb a63a 61f7 e2bc
00000260: f566 adbc 1a90 71ba 0180 0cbc a9ce 003c
00000270: b8dc ab3c 7d22 273b 3fc7 81bb 3388 953b
00000280: d5f6 9c3c f4f9 143c 6e88 813c fee8 a7bc
00000290: dcb4 9fbc 89a9 66bc b636 e23c 3527 1cbb
000002a0: 90a0 163c 60b9 803b 28bf 523c b1e5 a53c
000002b0: ff41 e23c 36cb a73c 7307 8c3b 04ed 213b
000002c0: 4aac 91bc 508b 6ebc 253c 933c d10b 39bc
000002d0: 5c8f 44bb 0084 f73a 8d94 bb3c 577f e83c
000002e0: 1ec6 ccbb 49c5 1b3c 4a19 053d 7063 d93b
000002f0: e945 fd3a b7ac a83a fdde cc3b 0898 d1bc
00000300: a1d9 9e3c 2df7 4fbc 0bcf c13c ac22 0b3d
00000310: ef9f e0bb fbe0 e63c a8b7 983b cd9c bf3c
00000320: 4c78 923c baee d9bb 2251 bbbc c854 493c
00000330: 069d 53bc bba8 103d 77ae 9fba ff7b 3d3c
00000340: 28bc d73a 7e53 b6bb 806e ef3b 488e 053d
00000350: 6797 91ba bd87 913c 457b 503c 92fe c53b
00000360: 38df 743c 5cf3 433c e656 adbc 2506 de3b
00000370: 95e4 2abc c8ec c83b 4433 693c e11a 94bc
00000380: d820 f83b 702f 1c38 5da5 c03c 7ceb 573c
00000390: bbd1 71bc 0adc 613c 0027 c3bc c9b3 703c
000003a0: 2709 12bc c66d a63c a083 6a3c 1a3d 633b
000003b0: b943 113d b523 3f3c 6526 e4bc e533 d23c
000003c0: 1959 c83c 0b99 f23b 046c 143c 5d88 943a
000003d0: c396 123c 64e9 903c 04e8 c7bc fd2a 813c
000003e0: 4d7d 0a3b 0e49 b6bc 5a50 a2bb ba00 a0bc
000003f0: cec1 e1ba f172 413b 7d57 6a3b 5d3a 6c3c
-0.028671168 -0.008640487 -0.024299838 0.00799614 0.030288965 0.0061502205 0.008505395 0.013517319
-0.020439735 0.013972737 0.013160747 0.0032898965 -0.021614889 0.009800891 0.021987623 -0.015778407
0.002642987 -0.0024320034 -0.0023808742 -0.0077958233 -0.024330888 -0.0010331444 0.0033556512 0.0004053821
0.008843772 0.004231498 -0.021830028 -0.002278027 0.018473005 -0.0038733159 -0.016660554 0.01395493
-0.0019364543 -0.008775391 0.009015516 -0.013116161 0.0055060727 -0.01670487 0.017222635 -0.0084502
0.002750518 -0.013397957 0.0025338132 -0.024772437 -0.0004099705 -0.022038214 0.02158914 0.012962489
0.0075380076 -0.025122855 0.021749454 0.019416817 0.014369424 0.03192859 -0.026007328 -0.00035458835
6.536126e-05 0.0007768161 0.008595498 0.014679087 -0.012957124 0.023963448 -0.0018025371 -0.014626793
0.0037782902 0.01712618 0.017372763 -0.02548808 0.023291873 -0.005515639 0.010926193 0.006429294
0.0146515705 0.019254055 0.010553316 -0.002946587 -0.01011321 0.009080313 0.014750256 -0.018227376
0.018125348 -0.007779809 -0.003949449 0.01334116 -0.0059323334 -0.0045117894 0.023167511 -0.017914336
0.019657886 0.011866675 0.010885439 0.022042219 -0.0112876445 -0.003928555 0.020962449 0.0073217964
-0.0063060345 0.020382114 -0.014597332 0.016953578 0.0102737695 0.0014817233 0.008846178 0.009350494
0.013142259 0.0018653795 0.01505716 -0.006361226 0.016420865 0.03211586 0.028571982 -0.015320097
-0.0067809783 0.0036538905 0.026610864 0.00034037227 0.010363468 0.02186769 -0.015815774 0.014373585
0.002658789 0.022954756 0.02795866 0.010330245 4.7162917e-05 0.019704927 0.018462257 -0.026052449
-0.0049642446 -0.022067344 0.019321492 0.026371825 -0.006245377 -0.028757831 -0.0069297086 -0.012412595
0.01759972 0.016874922 -0.02000035 0.0009770133 -0.0029462483 0.010880788 0.0051422245 -0.0019897171
0.015607562 0.011617301 -0.013304897 0.00628013 0.001653478 0.009358642 0.0012725447 -0.02770585
-0.021167258 -0.0009214893 -0.00857544 0.007861772 0.02097927 0.0025502734 -0.0039605196 0.0045633554
0.019160667 0.009092797 0.015812125 -0.020496842 -0.01949542 -0.014078506 0.027613979 -0.002382708
0.0091935545 0.0039283484 0.012862958 0.020251127 0.02761936 0.02048264 0.004273349 0.0024707923
-0.01778235 -0.014559582 0.017973015 -0.011294321 -0.0029992675 0.0018883944 0.022897983 0.028381033
-0.0062492033 0.009507486 0.03249482 0.0066341683 0.0019323203 0.0012868856 0.006252168 -0.02558519
0.019390883 -0.012693209 0.023658296 0.033968613 -0.006855003 0.02818345 0.0046605654 0.023390198
0.017879628 -0.006650773 -0.022865836 0.01228828 -0.012915855 0.035317164 -0.0012182732 0.0115652075
0.0016459273 -0.0055641523 0.007306874 0.032606393 -0.0011107743 0.01776492 0.012724702 0.00604231
0.014945798 0.011959877 -0.0211596 0.006775635 -0.010430475 0.006131742 0.014233414 -0.018079223
0.0075722747 3.7237478e-05 0.023516351 0.013178702 -0.014759476 0.013785372 -0.023822308 0.014691302
-0.008913315 0.020316016 0.014313608 0.003467387 0.035464976 0.011666228 -0.02785034 0.02565951
0.024456548 0.007403498 0.009058956 0.0011332143 0.008947077 0.017689414 -0.024402626 0.015767569
0.0021131814 -0.022251632 -0.0049534263 -0.019531596 -0.0017223896 0.0029517973 0.0035757713 0.014418212

action_model._discrete_distribution.branches.0.weight f4 [3, 256]
00000000: 483c 2e3c a700 453a f779 10ba 26ee 26bc
00000010: 8117 50bb 3ca9 71bb 84e2 373c 3da6 863b
00000020: 0b1d 1e3b e1db 273c d1bf 36bc 0d30 983c
00000030: d7b2 30bc cce1 9d3b 84d9 0dbc c492 22bb
00000040: a40e 983b b95a 083b f562 483c 5907 913b
00000050: ce9d 063c 81f5 fd3b 3a4c 8d3b e15b e6bb
00000060: 2e05 933b c98c 15bc 985c 543b fdee 663c
00000070: 3408 91bb 3e55 233c 535f 1a3c 4ec6 2dbc
00000080: e16b 843b 2b87 983c 6976 f93b 83e9 783b
00000090: 1ec8 493c f91e b8bb 2fbd 80bb 63d8 ba3b
000000a0: 1572 953b cd86 e8bb 2a4c 873b 0112 723b
000000b0: 7257 cb39 ec88 193c 2150 1a3d afc7 53bb
000000c0: 2af4 44bc cc6c 72b9 c396 e73c 8f8d 91bc
000000d0: d703 983c 3a5f 4c3c 3dfd 1b3c 05b4 b93b
000000e0: a5b2 5f3c 44db 633c 0d8a 96bb d481 e939
000000f0: 2d0a e73b 4bb5 6dbb d002 a93b 71ba 8f3b
00000100: aaab 893c 3952 c3bc bc26 573b c3d9 4e3b
00000110: 599c 89bc fafc caba 65b0 063b 70ae 083c
00000120: f88f 853a 8b5b 4f3a 22ea 35bb a8b0 2b3c
00000130: 44fa 04bb f79a febb 201e 2fbb c4f2 583b
00000140: f407 a03a f900 b43c 155e 153c 629e 38bc
00000150: 7ee6 f73b cf62 86bb 5f4d be3b 15b1 973b
00000160: d349 59bb cc29 a83b 3a43 bf3b 4f61 5b3c
00000170: 9e16 54ba 427c 1e3c 5122 db3b b658 cebb
00000180: 0eaf 01ba 1efa 7b3c 8c87 c83b 04e6 8dbb
00000190: 63da 43bc 8696 ee3b 0e5e 633b e09b 7a3c
000001a0: a2b6 b1bc af76 a93b fe2b 9d3b bdee a7bb
000001b0: c15a 68bc 022c 5a3b a709 cdbb a653 233c
000001c0: cfc9 36ba 2126 a43b 0ec2 863a d428 3a3c
000001d0: 03df 8abc d1c3 1ebc ac6f 303c 0bab 6fbc
000001e0: cc91 e53b 7790 5a3c f65a 343c 39a3 78ba
000001f0: bf76 a73b 7f9b 393c 71dc 9d3c cd6c 21bc
00000200: 52c2 8a3c 8fa5 15bc d5bc 7dbb 2074 863c
00000210: eee6 703a 9c92 613c d3af 17bc 32a3 ce3b
00000220: 1d49 813b 95ac 2a3b 9180 aaba b272 7a3c
00000230: 6531 67bc 31f3 613c 2322 22bb 3dfd 15bc
00000240: 62d9 403b 58ec e7bb 95b7 803c 7b95 ac3a
00000250: 8158 48bc 00d8 783c 3e6c e938 45fe 43bb
00000260: d968 523b 83a5 2c3c 05f0 fcb9 1913 bbbb
00000270: b242 68bc 95c6 cb39 f6d3 353c 0ca9 0dbc
00000280: b950 a2ba 4985 d73c 3143 5eb9 b5bb b6bb
00000290: 668a 11bb a4e3 e33a e991 dfbb a836 833b
000002a0: 7b04 463c ed9f b2bb 53f7 c2bc b946 4bbb
000002b0: c130 b2bb 2e45 063b 5649 c33c 0f1b 03bb
000002c0: 8659 b2b8 2896 a43b 9f1d f43b 5848 913a
000002d0: 317d 633b 1229 9d3c 36d8 d8bb 2422 b0bb
000002e0: ed23 4b3c d862 143c 6fce dc38 c3b1 283c
000002f0: 4cad b7ba f797 1f3c 7b5b c43a c753 9a3b
00000300: de82 10bc 2512 723b d60a 843c e541 4cbb
00000310: cdfc 9dbb 0f31 8ebc a225 91bb 3fd0 bf3c
00000320: 3965 803c 5ece 173c 4eaa 063c 85b3 ee3b
00000330: 332c e0bb 1b78 213c 25ed f0ba 9e9b 6d3c
00000340: d693 d139 3a9b e43a 4519 b93a 00fb ac3b
00000350: 6a2d 9bbb da80 903a 59e9 b23c 8678 08b9
00000360: 1c31 dcba 5d68 11ba 7787 aab9 592e 24bc
00000370: 283a 0d3c a6d7 d839 bd1b 613c 0ec4 e93a
00000380: 4e3c cc3a e73e 8c39 8021 193b e372 38ba
00000390: 2a95 6d3b 0587 0c3d 03c6 dabb 5eb5 dbb9
000003a0: 2ecf b8bb 4615 1e3b 96dc 9e3c a02b 4a3b
000003b0: 8c9e 603b b0a4 8a3b 053f 36bc 1d70 1bbc
000003c0: fccc 36bb 6485 683c 394e a13c 1b1b 2d3c
000003d0: 5094 92bc 5b41 723c d7e9 023b cb9b 0a3d
000003e0: 8cd5 113c e4ca c3ba e694 8c3c 00b6 813c
000003f0: 38c5 02bc cc32 c8bb 0c61 3dbc 1e1b 19bc
0.010634489 0.0007515051 -0.0005511338 -0.010188615 -0.003175229 -0.0036874553 0.011223439 0.0041091726
0.0024126198 0.010245294 -0.011154131 0.0185776 -0.010784826 0.004818177 -0.008657817 -0.0024806717
0.004640417 0.0020806028 0.012230624 0.0044259247 0.0082163345 0.0077502136 0.0043120654 -0.007029996
0.0044867015 -0.009127804 0.0032403823 0.014095065 -0.0044260267 0.009969054 0.009422141 -0.010606362
0.0040411805 0.01861914 0.0076129925 0.003798098 0.012315778 -0.0056189266 -0.0039288024 0.005702065
0.004560719 -0.0070961476 0.0041289525 0.0036937 0.0003878433 0.009371024 0.037674073 -0.0032315066
-0.012021104 -0.00023119448 0.028270131 -0.017767696 0.018556518 0.012473876 0.009520826 0.005667212
0.013653432 0.0139072575 -0.0045940937 0.00044537953 0.0070507736 -0.003627139 0.005157806 0.004386239
0.016805489 -0.023842918 0.0032829484 0.0031562902 -0.016798185 -0.001548677 0.0020551917 0.00834237
0.0010190001 0.00079100643 -0.0027757962 0.01047913 -0.0020290771 -0.007769938 -0.0026720837 0.0033103684
0.0012209401 0.02197312 0.009116669 -0.01126823 0.0075653186 -0.0041011344 0.005807563 0.004629264
-0.0033155575 0.0051319357 0.0058368715 0.013389899 -0.00080905284 0.00967318 0.0066874404 -0.0062971963
-0.00049470447 0.015379457 0.006119674 -0.0043303985 -0.011953923 0.0072811274 0.0034693512 0.015295953
-0.021693531 0.005171619 0.004796504 -0.0051248954 -0.014181794 0.003329039 -0.006257254 0.009968674
-0.0006972821 0.005009428 0.0010281221 0.011362273 -0.016952043 -0.009690241 0.010768812 -0.014628182
0.0070059057 0.013340107 0.011008015 -0.0009484771 0.005110591 0.011328577 0.019270154 -0.0098526
0.016938362 -0.0091337105 -0.003871729 0.016412795 0.00091896846 0.013767865 -0.009258228 0.0063060755
0.0039454834 0.0026042808 -0.0013008286 0.015286135 -0.014110898 0.0137908915 -0.0024739585 -0.009154615
0.0029426445 -0.007077735 0.015712539 0.0013167107 -0.012228132 0.015188217 0.000111304675 -0.0029906195
0.003210595 0.010537508 -0.00048244014 -0.0057090637 -0.014176058 0.00038867132 0.011097899 -0.008646261
-0.0012383676 0.026308673 -0.000211966 -0.0055765756 -0.0022207736 0.0017386568 -0.006822814 0.0040043183
0.012086029 -0.0054511935 -0.023799574 -0.0031017496 -0.005437941 0.0020488012 0.02383868 -0.0020005142
-8.5043765e-05 0.005022783 0.00744982 0.0011084182 0.003471207 0.019184623 -0.006617571 -0.0053751636
0.012398702 0.009056769 0.00010528869 0.010296288 -0.0014013438 0.009740821 0.0014980877 0.004709694
-0.008820264 0.0036937085 0.016118448 -0.0031167206 -0.004821396 -0.017357377 -0.004429535 0.02341473
0.015673267 0.00926551 0.008219315 0.007284584 -0.0068412065 0.0098552955 -0.0018381221 0.014502434
0.00039973733 0.0017441281 0.0014121911 0.005278945 -0.0047356384 0.0011024729 0.021839784 -0.00013014869
-0.0016799304 -0.00055468624 -0.00032525856 -0.010020816 0.008619823 0.000413594 0.0137395235 0.0017834918
0.0015581937 0.00026749747 0.0023365915 -0.00070361624 0.0036252239 0.034308452 -0.006676437 -0.00041906064
-0.005639932 0.0024121567 0.019392293 0.0030848756 0.0034274189 0.004231058 -0.011123423 -0.009487179
-0.0027893176 0.014191959 0.01969062 0.0105655445 -0.017892987 0.01478609 0.0019975805 0.033839982
0.008901011 -0.0014937785 0.017160844 0.015833855 -0.007981591 -0.006109571 -0.011558782 -0.009344844

action_model._discrete_distribution.branches.0.bias f4 [3]
00000000: 2bff 993a 48d1 b43c cc22 fabc
0.001174902 0.02207245 -0.03053417

action_model._discrete_distribution.branches.1.weight f4 [3, 256]
00000000: 200f 9abc 4703 093b 5442 7cbc b850 be3c
00000010: 09b4 833d a2bb dfbc a0c9 833c 31a6 563d
00000020: e88c 0cbc 6fd8 bf3c 9427 a73c 5132 26bd
00000030: 39ec 82bc 910c 653d 31eb 6a3d 090b 89bc
00000040: 209b 2ebd d386 35bc ae81 abba e504 55bd
00000050: f659 97bc cb8b 0abc ea6a 2cbc 10a6 b1bc
00000060: d817 efbc 8ffc 173c 4410 86ba e4e9 0bbd
00000070: d4aa 993c f93d dcbc 7c75 253b 7593 a93c
00000080: 91d2 db38 a1c6 d3bc 84ce 1cbd 1483 f6bb
00000090: 2da8 09bd ae66 273c 1460 243c 5abc 47bd
000000a0: 8970 4f3c 97c8 47bb d75d dfbb e75d d539
000000b0: bc60 b33b 899b c7bb d5b7 333d 5617 943c
000000c0: 57c6 b2bc 6d17 46bb add7 083d 24fe 623d
000000d0: 999c 293c a30a 643d bc08 91bc c980 803c
000000e0: 4ea9 44bb 3ecc 58ba 0d48 3fbc 82b2 c63b
000000f0: 4018 07bc e501 283d 4abd 873a a1f4 41bb
00000100: f761 cc3a 173b 6e3d 35ec 21bd e4c0 84bc
00000110: 7c8c 9b3d c5dc 15bd 1ec8 f73b b769 583c
00000120: 73e8 4e3c d375 253d c66d 80bc 876d 58bc
00000130: b9a8 99bc 4702 74bc a400 c63c 5604 603b
00000140: c10a b33d 45bd 1bbd 158b 863b 8a9b a73c
00000150: a3dd 52bd 0c5e 16bd 7abc 783d 84c2 35ba
00000160: 9523 553d ac33 91ba 6cdf e2bc f747 613d
00000170: 8c12 a5bc 8fbb 12bd af0b 5c3d 8ef4 45bc
00000180: 5538 04bc faa1 753c 2887 d1bc f034 213d
00000190: c2e4 e23c d857 bdbc b43e 50bc 3c22 25bd
000001a0: 2551 803d 8583 18bd 3506 753c 7d35 14bd
000001b0: fafa 00bc 8e39 833d 1699 1a3d cd80 19bc
000001c0: 9072 3ebd 1aaf 6dbd 6eaf 9c3d 1fbd 8ebc
000001d0: 55f7 003d e62c 803d 4db6 05bc d1b9 2dbc
000001e0: 6798 c0bc 9b34 d03c dcc2 c33c 386e ccbc
000001f0: da3c 63bd ee3f 15bd f2fa 623c e088 32bc
00000200: 3dee 16bd 89a9 aebc 9d98 0c3d 1e65 8b3d
00000210: ec3d e8bc 41ea 78bc 09cc b7bc 36fe 5dba
00000220: 8c12 d33c 1bb9 0e3d 3ce8 59bc ea3a 3dbd
00000230: cccf d53b 55db 293d 033e 25bb 5298 de3b
00000240: edaf baba f98c 953c 8bc8 eebb 1c74 023d
00000250: 7f53 3f3c 23d8 d73c f7e4 01bd 6a5c 9ebc
00000260: 786f ad3b 11a9 06bd f0be 47bc b2a2 403c
00000270: 1414 e93c 5003 d6bc 45c5 64bd 3a5e 813c
00000280: 15a4 063d d4bf e13a 00f4 ba3c f48f 41bc
00000290: da23 7fbc f244 073a 9fc7 053d e126 75bd
000002a0: 754a bc3c 7e65 873c 19ac 4dba 30d2 2b3d
000002b0: 8135 403d 118c 4f3d 3171 d7bc 225b e8bc
000002c0: 3f79 78bb dc9d a5bc e58f 8d3a 0728 96bc
000002d0: a532 83bb e8e2 84bc b3dc 073d 8d2b 893d
000002e0: 6f0b 6fbd ef9b fc3b ffcf 643d 2a9e c3bc
000002f0: ed95 25bd b148 bcbc 39b4 5ebd af97 debb
00000300: 43b0 123c 653e 47bc 3666 be3c 7aed 8d3d
00000310: 67bf 173b 2113 573d 1646 98bc e949 d93c
00000320: 2203 cb3b 120a 5dbd 93c9 65bc 7c52 5c3c
00000330: cd35 73bc 8d52 223d 2d32 c23a b9ce f33c
00000340: 94fd ccbc 7c08 48bc 8f88 4d3d ec2d 363d
00000350: 2b97 bb3b 9240 0d3d 826b 073c 70a8 4cbc
00000360: ddf9 2a3d a9d5 953c b5e6 96ba 7878 0b3c
00000370: 6bff cb3a e0bf cfbb 8bca 663d c6e5 cebb
00000380: 9f13 3cbd a67b 6cbd f15c 3d3d c6fb f4bc
00000390: d4ec a1bb 828d 50bc 4a1f 31bc 7ca5 733c
000003a0: 5f29 1dbc 645e 083d 541e 2fbc 1d96 e03c
000003b0: e58c 423d 1bbe 5d3c 53ff 3ebc 0532 583d
000003c0: 8932 e03c c2a7 0abd d582 2bbd 0006 7abc
000003d0: 0ba2 0d3c 64ab cf3c a7bc 37bc 9cc4 5f3d
000003e0: 5003 4ebc 5b72 8abb 6920 00bd 5233 83bc
000003f0: f55e 42bc 1e31 033c 617b 143c 0ac4 083d
-0.01880604 0.0020906494 -0.015396673 0.02323185 0.06430823 -0.02731115 0.016087353 0.052404586
-0.008578517 0.023418633 0.020404615 -0.04057533 -0.01598178 0.055920187 0.057353202 -0.016728895
-0.042628407 -0.011079508 -0.0013084912 -0.05200662 -0.018475514 -0.008456181 -0.010523537 -0.02168563
-0.029186174 0.009276523 -0.0010228236 -0.034158602 0.018758215 -0.02688502 0.0025247028 0.020700196
0.00010481955 -0.02585155 -0.038282886 -0.00752295 -0.03360765 0.010217352 0.010032672 -0.04876361
0.012661108 -0.003048455 -0.0068166065 0.0004069649 0.005474178 -0.0060915393 0.043876488 0.018077534
-0.021823091 -0.0030226365 0.03340881 0.05541815 0.010352277 0.055674206 -0.01770436 0.01568641
-0.003000814 -0.00082701806 -0.011674893 0.0060637603 -0.008245528 0.04101743 0.0010356095 -0.0029595273
0.0015593161 0.05816182 -0.039531905 -0.016205259 0.07595155 -0.036587495 0.0075616976 0.013208798
0.012628662 0.04039557 -0.015677344 -0.013209707 -0.018757211 -0.014893121 0.024170227 0.0034182272
0.087422855 -0.0380223 0.0041059353 0.020459909 -0.0514809 -0.036710784 0.06072662 -0.0006933587
0.052035887 -0.0011078021 -0.027694426 0.05500027 -0.020150445 -0.0358234 0.05372208 -0.012082232
-0.008070071 0.0149922315 -0.025577143 0.039357126 0.02769697 -0.023113176 -0.012710262 -0.04031585
0.06265477 -0.0372348 0.014955093 -0.036183823 -0.0078723375 0.06407462 0.03774365 -0.009369087
-0.046495974 -0.058028318 0.07650648 -0.017424164 0.031485874 0.06258564 -0.00816114 -0.010603384
-0.023510171 0.02541571 0.023896627 -0.0249549 -0.055477954 -0.03643792 0.013853775 -0.010896891
-0.036848295 -0.021321075 0.03432523 0.06806396 -0.02834984 -0.015192569 -0.022436159 -0.00084683613
0.02576568 0.0348445 -0.013299998 -0.046198763 0.0065250155 0.041468937 -0.0025213964 0.0067930603
-0.0014243104 0.018255698 -0.00728709 0.03184901 0.011677622 0.02634818 -0.0317125 -0.019331176
0.005292829 -0.032876078 -0.012191519 0.01175754 0.028451957 -0.026124626 -0.055852193 0.015792001
0.032871325 0.0017223307 0.022821426 -0.011814106 -0.0155725125 0.0005160115 0.032661077 -0.05985153
0.022984723 0.016527887 -0.0007845774 0.041948497 0.046926025 0.050670687 -0.026299091 -0.028363768
-0.0037914065 -0.020216875 0.001080033 -0.018329633 -0.00400384 -0.016221479 0.03316946 0.0669776
-0.058360513 0.0077090184 0.055862423 -0.02387913 -0.040426183 -0.02298388 -0.054371092 -0.0067929844
0.008953157 -0.012160872 0.023242097 0.06930061 0.0023154856 0.052508477 -0.018588107 0.0265245
0.006195442 -0.053964682 -0.01402511 0.0134474 -0.01484437 0.039629508 0.0014815979 0.029761659
-0.02502326 -0.012209054 0.05017906 0.04447739 0.0057248077 0.034485407 0.008265378 -0.0124913305
0.041742194 0.018290358 -0.0011512848 0.008512609 0.0015563791 -0.006340012 0.056345504 -0.006314012
-0.04591715 -0.057735108 0.046231214 -0.029905211 -0.004941562 -0.012729051 -0.010810683 0.0148709975
-0.009592383 0.033293143 -0.010688383 0.02741533 0.04749765 0.013534094 -0.011657554 0.052782077
0.027367847 -0.033851393 -0.041872818 -0.01526022 0.008644591 0.02535028 -0.011214412 0.05463086
-0.012574032 -0.004225058 -0.03128091 -0.016015682 -0.01186346 0.008007316 0.009062619 0.033390082

action_model._discrete_distribution.branches.1.bias f4 [3]
00000000: cdc3 e63b 028a a3bb d188 23bb
0.0070423842 -0.004990817 -0.0024953375

action_model._discrete_distribution.branches.2.weight f4 [2, 256]
00000000: 390d d53b 0432 babb d426 09bc 8809 3dba
00000010: 940c 15ba 3ca8 83bc 542a 00bc ef72 47bc
00000020: bcc5 d73b 57cd 32bb 6873 273c e88e c2bb
00000030: fdb8 2a3b a10a 543c d0e6 3d3c 8ca3 843b
00000040: 6056 0a3c 809c 6b35 6838 703b 3965 25bc
00000050: a2d7 3a3b d67f 623c 5873 c8bc 55cb 1a3c
00000060: c9c0 43bc ddf8 933c 0fe7 173c 7573 04bc
00000070: 5766 a5ba e908 31bc be62 c33b dc83 b439
00000080: 6fae f3ba 80d2 24bc 2ce8 0cbb 8268 60bb
00000090: b733 b7bc 3b4b 1fbb 99e5 683b e264 ec3b
000000a0: 4c96 15b9 a04f 403c 998a 9f3b fc0f 193c
000000b0: 9ad8 863c 5517 a4bb ed22 033c 57aa c33b
000000c0: e17a eeba 0945 353c f629 9a3c cc1a d53c
000000d0: fd60 0b3c f2d9 163a f423 c03b ee02 813c
000000e0: 577a 26bb 13d9 2239 f86a 353c 1aa3 173c
000000f0: 0cb6 68bb 857a cdbb ddbe ca3b 46db 9a3b
00000100: 30c4 c13c f27f 563c bfed 003d 998b 2abb
00000110: a358 c23b 97a8 8ebc 40ab bdb8 41ea 663c
00000120: 359e cb3b 3055 d6bb cdde 263c 9a6f 0938
00000130: c55a a33b 5030 a9bb 1cea d7bb 9c00 ca3b
00000140: ae00 643b 3f7f 8bbc 683f e43b 2848 c2bb
00000150: e0a3 50bc 5101 613a 8625 acba c00f b93b
00000160: aeb1 a0bb 557c 6bbc 540f b83c 2a6e f43b
00000170: 11cd 6b3c 2ae5 bfbb 4556 8bba b165 a83b
00000180: 516c ce39 7eeb 2ebc c8a3 863b 8202 d73a
00000190: 135c 583c 7189 b5bc 14b0 62bc 5770 92bc
000001a0: 86d3 533b 1c95 03bc 2c07 bbba bdaa 1abb
000001b0: 0027 bc3b 1d81 4e3c 0d40 223b 27df ce3b
000001c0: 16d3 3bbc 395c 1e3c fc3d 883c a3ef 483b
000001d0: 6a87 6739 9153 653c 0480 e13b 341f 463c
000001e0: 31cc 94bc ad3e 4bbc 860a 383c 5502 b13a
000001f0: ac92 0fbc b4b1 74b9 1ba5 d9bb 7bf6 85bb
00000200: 253c 39bc db1a 313c a4de 513c 34d1 0a3c
00000210: bb4b 813c ef9c 0f3c 79b2 a83b 5fb7 a63b
00000220: 3907 b83b 14a6 2bbc 9a04 68bb 586a 983b
00000230: d445 d1bb dd7e 51bb 7291 d4bb fae2 5f3c
00000240: 4698 9e3b 974c de3b 2449 8a3b 3b09 aabb
00000250: 5843 6b38 67a9 2abc 3b9e d9bc fc9a 563c
00000260: 7ccc 89ba 6fab 46bb 67b3 aa3b f512 5a3b
00000270: 91fa 8e3b 1a59 c1bc edd7 e1bb 277b 593c
00000280: 26b7 69bb c835 853b e39e c9bb 7f9b 033b
00000290: 379a 7a3c a6af 0e3b 181a 28bc f43b 303c
000002a0: 427a a0bb fa9b 6f3c 58dc 4bbc 08c1 05ba
000002b0: 2952 1c3c bcd6 003c f481 3fbc 1eb6 f33b
000002c0: 5ba6 e738 4b9a 16bb 9133 42bb 5ff6 16bb
000002d0: e00d 913b 2217 273c 0441 53bc 4e3a 02ba
000002e0: f203 74bb 5968 fd3a e8a5 a83b daed 3438
000002f0: 29a7 843a 8b07 6dbc 8371 553c a61d 143c
00000300: 3d10 083c 09e3 26bc 1012 8db9 5e6e 953c
00000310: 648d 36bc 339d 143b 945c a7bb 3633 f53a
00000320: c49e 7bbb 308c 2c3c 5ae2 883a 5fea 94ba
00000330: 30e1 07bc 4161 d4b9 292b 323c 9a14 60bb
00000340: c118 a5bb 7329 f1ba 92df 4c3c 63fd 3cbc
00000350: 22e9 08bb c3a2 87ba 31cb 0db9 9a20 583b
00000360: 04da 9c3b b387 313c b50b 163b 90b3 31bc
00000370: b4d8 e33a 013a 1dbc d29e e0bb 5d23 56bb
00000380: 142e 3fb9 34ec 283b ea96 d03b 7884 aa3b
00000390: 4937 6ebb e7fa f53b a5ef 813b 4309 173b
000003a0: 8644 8b3b 8d08 febb cd8a 27bc 46f6 95ba
000003b0: 386b 06bc f90b e23b cb8e e03b 881b 733c
000003c0: e5ab 723c c6b1 0fbb 960b fabb 8af8 10bc
000003d0: 1e37 e9ba 5d19 97bb f351 57bb 4c0a 10bc
000003e0: c11e 2e3b 84d0 6e3c e70f 5fbc 3e38 e83b
000003f0: 208c dcbb da27 9a3b d2bc bcbb a4ec a3bb
0.0065018204 -0.005682232 -0.008371074 -0.0007211198 -0.0005685773 -0.016071431 -0.007822592 -0.012173398
0.006584851 -0.0027283037 0.010220386 -0.005937446 0.0026050203 0.012941987 0.0115906745 0.0040478166
0.008443445 8.777206e-07 0.0036654714 -0.010094934 0.0028509875 0.013824424 -0.024469063 0.009447892
-0.011947819 0.018063003 0.009271397 -0.008084168 -0.0012619001 -0.010805347 0.0059626987 0.00034430518
-0.0018591414 -0.010059953 -0.002150069 -0.003424198 -0.022363527 -0.0024306315 0.0035537241 0.0072141746
-0.00014265737 0.011737734 0.004868817 0.00934219 0.016460706 -0.005007664 0.008003932 0.005971234
-0.001819458 0.011063823 0.018818837 0.026013754 0.0085070105 0.0005754522 0.005863661 0.015748467
-0.002540251 0.0001553039 0.011072867 0.009255195 -0.00355089 -0.006270709 0.0061873035 0.0047258465
0.02365312 0.013092028 0.031476732 -0.0026023148 0.0059309765 -0.017414374 -9.04412e-05 0.014093936
0.006213928 -0.006540917 0.010184956 3.2767282e-05 0.004985186 -0.00516323 -0.0065891873 0.0061646234
0.0034790444 -0.01702845 0.0069655664 -0.005929012 -0.012734383 0.0008583265 -0.0013133741 0.0056476295
-0.0049039936 -0.014372905 0.022468247 0.0074594216 0.014392153 -0.005856176 -0.0010630569 0.0051390757
0.00039372084 -0.010676263 0.0041088797 0.0016403946 0.013205546 -0.022160264 -0.013835926 -0.017875833
0.0032322123 -0.008031156 -0.0014269105 -0.0023600303 0.005741954 0.012604025 0.0024757416 0.006313223
-0.011463901 0.009665542 0.016631119 0.0030660413 0.00022080322 0.013996975 0.0068817157 0.0120924
-0.018163772 -0.01240508 0.011232978 0.0013504723 -0.008762997 -0.00023335853 -0.0066419966 -0.0040882207
-0.0113058435 0.0108096255 0.012809429 0.0084727295 0.015783181 0.008765443 0.0051482287 0.0050877775
0.0056160954 -0.010476608 -0.0035403133 0.004651349 -0.006386498 -0.0031966486 -0.006487065 0.013664955
0.0048399298 0.0067840326 0.004220145 -0.0051890886 5.6091085e-05 -0.010416365 -0.026564708 0.013098475
-0.0010513212 -0.0030314585 0.0052093747 0.003327546 0.004363366 -0.023602057 -0.0068921954 0.013273991
-0.0035662143 0.004065249 -0.006152974 0.0020081697 0.015295557 0.0021772175 -0.0102601275 0.010756481
-0.0048973868 0.01462459 -0.012442671 -0.0005102311 0.009541073 0.007863697 -0.011688698 0.0074374815
0.000110459245 -0.002298015 -0.0029632787 -0.0023035032 0.004426703 0.010198386 -0.012893919 -0.00049677945
-0.0037233797 0.0019333466 0.0051467307 4.313686e-05 0.0010120618 -0.01446713 0.013027552 0.009040272
0.008304653 -0.010185965 -0.00026907073 0.018241104 -0.011142109 0.0022676706 -0.0051074717 0.0018707279
-0.0038394192 0.01053147 0.0010443435 -0.0011361352 -0.008293435 -0.0004050825 0.010874548 -0.0034191967
-0.0050383513 -0.0018399194 0.012504475 -0.0115350215 -0.002089091 -0.0010348189 -0.00013522503 0.0032978416
0.0047867317 0.010835576 0.0022895162 -0.010846034 0.0017383308 -0.009596349 -0.0068548704 -0.0032674887
-0.00018232345 0.0025775554 0.0063656466 0.00520378 -0.003634887 0.0075067165 0.0039653354 0.0023046292
0.004250112 -0.007752484 -0.010225964 -0.0011441193 -0.008204274 0.0068984 0.0068529597 0.014838107
0.014811491 -0.002192603 -0.0076307757 -0.008848319 -0.0017792915 -0.004611178 -0.0032855242 -0.0087915175
0.0026568624 0.014576081 -0.013614631 0.0070867827 -0.0067305714 0.0047044577 -0.005759814 -0.005002575

action_model._discrete_distribution.branches.2.bias f4 [2]
00000000: 30e5 a1bb 27e5 a13b
-0.0049406514 0.004940647
