results/TestTrainingWithEndingEpisodesManyPlatformsAndNewScript/VacuumCleaner.onnx (onnx, 227638 bytes, 7 tensors)

network_body._body_endoder.seq_layers.0.weight f4 [128, 309]
-0.03028199 0.014936325 0.0032799994 0.117385514 -0.015355743 -0.13558488 -0.17259635 0.074064106
0.07896157 0.08252061 -0.023980679 0.011762059 -0.075652845 -0.08507174 -0.0067762304 0.007193756
0.07085062 0.011949862 -0.059840646 0.051635742 0.032757305 0.21603641 -0.09318 -0.13451461
-0.18450542 0.21808694 0.0032285433 0.043784045 -0.072930805 -0.06945716 -0.17866409 0.08571355
0.019348819 0.106745884 -0.038537227 -0.00067054183 -0.15982483 -0.021333203 -0.005254081 -0.0015443914
0.032990813 -0.007058029 0.0910576 -0.10356238 -0.07222256 -0.07037199 0.02346703 -0.02412594
0.16783725 -0.06727078 -0.11228769 0.1016812 -0.07072172 0.013229199 -0.015167719 -0.012121574
0.033622332 0.099508494 -0.03930279 -0.03724128 0.08151472 0.011194175 0.016539874 0.17983785
-0.034203265 -0.024957336 -0.081509024 0.115880676 0.021657566 -0.0044992617 -0.16171739 -0.043302607
0.07476411 -0.10358083 0.06268013 -0.059614122 0.09596207 -0.014355736 0.06756246 0.014404894
-0.02910513 0.118098 -0.106644794 -0.12915269 0.02272201 -0.1007477 -0.06252146 0.20533022
-0.10216993 -0.0022909462 0.07498661 0.013130397 -0.07310734 0.0329593 -0.009413977 -0.009422372
0.05702703 -0.033757918 -0.016700162 0.20423499 -0.1488381 -0.06332512 0.075569995 -0.010311599
-0.007965528 0.08537703 0.0035517872 -0.09316355 0.12860277 -0.09271274 -0.08713861 0.1962799
-0.13238016 -0.061848287 -0.09808019 -0.0633498 -0.0025082515 0.19833186 -0.04925336 -0.12199136
0.1921164 -0.11398519 -0.018422326 -0.03471901 -0.048960555 -0.0142086875 -0.13976924 0.07826372
0.09290078 -0.06545034 0.047558296 -0.007866357 -0.03770289 -0.023971839 0.002050541 -0.079628356
0.039498497 0.14588289 -0.078823335 0.11577987 -0.07723374 -0.049884785 0.045208804 0.063562855
-0.02460009 0.11963132 0.05721335 0.13866434 0.03162784 0.12213645 0.0027019812 0.0051115365
0.08434799 0.44247293 -0.12759161 -0.018550292 -0.012741971 0.095900156 0.07748965 0.27855986
-0.10461028 -0.09170692 0.028362548 -0.037850507 -0.11172384 0.21349406 -0.04007371 -0.0682564
-0.123221464 0.015791368 0.12648189 0.10314205 -0.056603763 0.066494174 0.17391947 -0.020260286
0.052563466 -0.07562013 0.022009637 -0.05547189 -0.0808907 0.07152488 0.017272355 -0.15524343
0.08142548 0.051493153 -0.047511138 0.12962073 0.0008422058 0.1282207 0.086186394 0.06647607
0.20912488 -0.0017600706 0.006391423 -0.093635835 0.011960895 0.045763165 -0.10749668 0.08565233
0.056055438 -0.28722054 0.14069511 0.033889607 0.11306479 -0.02881632 -0.02397288 0.21807693
0.021447191 0.032831587 -0.083559245 0.032540947 0.043109864 0.1422862 0.011049383 -0.056167006
-0.0020709531 -0.071506895 -0.015695665 -0.010781658 -0.04210461 0.031237314 0.15581892 -0.10961657
0.010930141 0.05068837 -0.026309878 -0.0004808854 -0.01774927 0.04699778 -0.013609549 -0.1631973
0.0043973606 0.07619654 -0.014676589 -0.06363325 -0.026908603 -0.07344776 0.07797459 0.0032549833
-0.26410854 0.06525297 -0.0037932321 -0.284765 0.053507645 0.03125307 -0.21920525 0.07034886
-0.015615813 -0.0025644111 0.127992 0.050028756 -0.00854891 0.011869757 -0.07333806 -0.015368094
00000000: f011 f8bc 7db7 743c 42f5 563b d167 f03d
00000010: a796 7bbc c3d6 0abe 19bd 30be ecae 973d
00000020: 9bb6 a13d 9100 a93d 2173 c4bc a7b5 403c
00000030: e1ef 9abd 183a aebd 240b debb 99b9 eb3b
00000040: 211a 913d 5bc9 433c 771b 75bd 0080 533d
00000050: 862c 063d a638 5d3e 28d5 bebd 33be 09be
00000060: fdee 3cbe 2f52 5f3e f895 533b e656 333d
00000070: bf5c 95bd 8e3f 8ebd b8f3 36be 968a af3d
00000080: 6a81 9e3c 969d da3d 36d9 1dbd 4dc7 2fba
00000090: 1fa9 23be f8c2 aebc 6d2a acbb 2d6d caba
000000a0: 6021 073d 0a47 e7bb 687c ba3d 8318 d4bd
000000b0: 6ce9 93bd 311f 90bd ee3d c03c c3a3 c5bc
000000c0: 87dd 2b3e 43c5 89bd 17f7 e5bd 3c3e d03d
000000d0: 8dd6 90bd 48bf 583c 0682 78bc 9199 46bc
000000e0: 92b7 093d 1ccb cb3d f6fb 20bd 508a 18bd
000000f0: 31f1 a63d c667 373c a17e 873c 6a27 383e
00000100: b918 0cbd 5473 ccbc 34ee a6bd d952 ed3d
00000110: 356b b13c 8b6e 93bb 3e99 25be 135e 31bd
00000120: ed1d 993d 3022 d4bd 715e 803d f02d 74bd
00000130: c387 c43d 5234 6bbc 305e 8a3d 8102 6c3c
00000140: e26d eebc 5ddd f13d 9668 dabd 9a40 04be
00000150: 8223 ba3c cf54 cebd 400b 80bd 1642 523e
00000160: 783e d1bd b323 16bb 9492 993d e020 573c
00000170: 4db9 95bd 5500 073d 153d 1abc 4b60 1abc
00000180: 2d95 693d be45 0abd c7ce 88bc fa22 513e
00000190: 0469 18be 9ab0 81bd 71c4 9a3d fbf1 28bc
000001a0: d981 02bc 27da ae3d 1ac5 683b 88cc bebd
000001b0: 72b0 033e 2de0 bdbd ba75 b2bd 99fd 483e
000001c0: aa8e 07be a154 7dbd 44de c8bd 8abd 81bd
000001d0: 7a61 24bb 8217 4b3e e4bd 49bd 9bd6 f9bd
000001e0: 29ba 443e 1171 e9bd 6bea 96bc 8535 0ebd
000001f0: dd8a 48bd 8ecb 68bc ab1f 0fbe bb48 a03d
00000200: c442 be3d d40a 86bd 7dcc 423d e5e1 00bc
00000210: 586e 1abd 9760 c4bc 5f62 063b 3114 a3bd
00000220: 2dc9 213d 5362 153e 216e a1bd ff1d ed3d
00000230: b92c 9ebd fd53 4cbd de2c 393d 3e2d 823d
00000240: 2186 c9bc 4401 f53d 8c58 6a3d 06fe 0d3e
00000250: 328c 013d ad22 fa3d b913 313b ad7e a73b
00000260: a4be ac3d d08b e23e 60a7 02be c8f6 97bc
00000270: b3c3 50bc 4d67 c43d e5b2 9e3d 669f 8e3e
00000280: ea3d d6bd d6d0 bbbd 9358 e83c 2209 1bbd
00000290: 78cf e4bd 309e 5a3e 5524 24bd 03ca 8bbd
000002a0: 895b fcbd e65c 813c 7884 013e 243c d33d
000002b0: 59d9 67bd 192e 883d f217 323e e6f8 a5bc
000002c0: ca4c 573d bade 9abd 8e4d b43c 7e36 63bd
000002d0: 06aa a5bd a37b 923d c17e 8d3c 22f8 1ebe
000002e0: 67c2 a63d 7cea 523d 0a9b 42bd 4cbb 043e
000002f0: 79c7 5c3a 4a4c 033e 7e82 b03d 9b24 883d
00000300: d524 563e 2bb2 e6ba 246f d13b 25c4 bfbd
00000310: a1f7 433c 2872 3b3d 3827 dcbd 7d6a af3d
00000320: 639a 653d 920e 93be 6112 103e d4cf 0a3d
00000330: 838e e73d 3410 ecbc c662 c4bc 8f4f 5f3e
00000340: 05b2 af3c 6a7a 063d 1c21 abbd a849 053d
00000350: f893 303d 79b3 113e 7908 353c 600f 66bd
00000360: d4b8 07bb 3572 92bd 3294 80bc 8da5 30bc
00000370: e275 2cbd 65e5 ff3c ff8e 1f3e a77e e0bd
00000380: 5614 333c 9c9e 4f3d d087 d7bc 591f fcb9
00000390: eb66 91bc bf80 403d 96fa 5ebc 311d 27be
000003a0: bc17 903b ee0c 9c3d 1376 70bc 2652 82bd
000003b0: 6e6f dcbc c76b 96bd 24b1 9f3d 8f51 553b
000003c0: 3c39 87be 59a3 853d e097 78bb b8cc 91be
000003d0: d52a 5b3d 3803 003d 5777 60be 1013 903d
000003e0: 78d9 7fbc ae0f 28bb 5610 033e f4ea 4c3d
000003f0: ba10 0cbc 5f79 423c 4432 96bd 75ca 7bbc

network_body._body_endoder.seq_layers.0.bias f4 [128]
0.011255787 -0.00031625375 -0.0052928096 -0.0002841352 -0.003025786 0.003288817 -0.015788956 -0.011520209
-0.0007247342 -0.00023759296 -0.003687828 0.0070175403 0.011225112 -0.0019347498 -0.008711777 0.0033836674
-0.0031900704 -0.0063808905 0.0035512072 0.0007774676 -0.014473224 -0.008699583 0.018153483 -0.016935876
-0.0018920327 -0.0082854545 -0.0045450963 -0.0035152351 -0.0011670953 -0.009920041 0.010764472 -0.009525232
-0.019056672 -0.0071735983 0.019417383 -0.0401467 -0.014155562 -0.0038075955 0.00085641723 -0.0004906551
0.0039480748 0.009273329 0.0047942186 -0.018998614 0.005348298 -0.014569274 -0.00024545818 0.0015900357
0.0017979825 -0.025780614 0.0020712875 0.0029605022 0.0039545055 -0.0110434955 0.011805841 -0.010164419
-0.010675057 0.0017859655 -0.0012423585 -0.0016125734 -0.008863508 -0.0103476485 0.025289698 0.02025047
0.00316245 0.0018216042 0.0020249193 -8.022319e-06 0.0061939275 -0.013534403 -0.007490172 -0.005570963
-0.010959921 -0.0023620846 0.009242074 -0.011929021 -0.0011364667 -0.0104992315 -0.012164999 0.003400805
0.008204365 0.01016644 -0.004071611 -0.00029457436 0.018288167 -0.0034992355 0.010408886 0.0054396554
-0.0023924937 -0.011169665 -0.0077824616 -0.009340882 -0.009606009 0.007210425 -0.007423297 -0.011703676
-0.016817713 -0.008573375 0.0049040304 -0.0037694431 -0.007963251 0.010569329 -0.011341769 0.010156514
0.00070622977 -0.018380778 -0.01436199 -0.03292894 -0.014804292 -0.0041118567 0.008142515 0.00021080945
-0.012495599 -7.566254e-05 0.01730203 -0.0064747664 -0.0015304849 -0.004792796 0.004605017 -0.007990761
-0.017086241 0.0072602183 0.0019206939 -0.009300672 -0.01868462 5.1748077e-05 0.0026041449 0.0020682618
00000000: 316a 383c dcce a5b9 4e6f adbb fbf7 94b9
00000010: 444c 46bb 3189 573b d757 81bc 42bf 3cbc
00000020: 17fc 3dba 6022 79b9 7daf 71bb 65f3 e53b
00000030: 88e9 373c 6e97 fdba d7bb 0ebc 85c0 5d3b
00000040: 8010 51bb ca16 d1bb 5fbb 683b f8ce 4b3a
00000050: 1a21 6dbc b288 0ebc 9db6 943c 1bbd 8abc
00000060: 15fe f7ba b7bf 07bc 08ef 94bb dc5f 66bb
00000070: 38f9 98ba ab87 22bc 785d 303c b80f 1cbc
00000080: bd1c 9cbc 8110 ebbb 3411 9f3c de70 24bd
00000090: bbec 67bc da88 79bb 3081 603a 4e9f 00ba
000000a0: da5e 813b 29ef 173c d218 9d3b fba2 9bbc
000000b0: c640 af3b f7b3 6ebc d7b0 80b9 bf68 d03a
000000c0: 48aa eb3a de31 d3bc 70be 073b fc04 423b
000000d0: cc94 813b c7ef 34bc 496d 413c aa88 26bc
000000e0: 6fe6 2ebc 0f17 ea3a a2d6 a2ba fc5c d3ba
000000f0: 3f38 11bc 2f89 29bc 572c cf3c 50e4 a53c
00000100: 1b41 4f3b e5c2 ee3a 82b4 043b 9997 06b7
00000110: 6ef6 ca3b 67bf 5dbc 1e70 f5bb a08c b6bb
00000120: 3e91 33bc 34cd 1abb 116c 173c f171 43bc
00000130: 7ff5 94ba f804 2cbc b44f 47bc 0ae0 5e3b
00000140: 9a6b 063c 2491 263c 266b 85bb 1a71 9ab9
00000150: 11d1 953c 6e53 65bb 088a 2a3c 233f b23b
00000160: 62cb 1cbb f800 37bc 0504 ffbb 800a 19bc
00000170: 8662 1dbc 6e45 ec3b 213f f3bb c6c0 3fbc
00000180: 4dc5 89bc 5777 0cbc fdb1 a03b c308 77bb
00000190: 4c78 02bc fb2a 2d3c d4d2 39bc 8267 263c
000001a0: 4722 393a 4993 96bc 8d4e 6bbc 7fe0 06bd
000001b0: b38d 72bc c1bc 86bb 2f68 053c bb0c 5d39
000001c0: 57ba 4cbc 04ad 9eb8 fdbc 8d3c 472a d4bb
000001d0: 8d9a c8ba e30c 9dbb afe5 963b aeeb 02bc
000001e0: 72f8 8bbc 20e7 ed3b cbbf fb3a d961 18bc
000001f0: 7d10 99bc 130c 5938 4daa 2a3b ad8b 073b

network_body._body_endoder.seq_layers.2.weight f4 [128, 128]
-0.10551743 -0.019991925 0.04084351 -0.01274024 0.031427845 -0.030553447 0.039827406 -0.01413188
-0.0492426 0.098085225 0.021916185 -0.011820178 -0.012708921 -0.043806575 0.031692814 0.037101455
0.0027331295 0.023144651 -0.09967364 0.019153263 0.040009867 -0.09012709 -0.042491943 -0.060924515
-0.050212964 0.022151364 0.017253032 0.028620897 0.020672733 0.08903984 -0.0027086483 0.034328103
-0.0318187 0.02593701 0.038297318 -0.120151415 0.016679864 -0.048737675 0.0011975212 0.067504294
-0.05063657 -0.041900042 -0.021533703 -0.084716946 0.015882347 0.04492953 0.009203255 -0.031720188
-0.00048478678 -0.033066 0.022032658 0.098049976 -0.028420325 0.056902707 0.0035373068 0.025234537
0.0094416365 0.07729698 0.011395246 -0.04145882 0.07055637 -0.068943106 0.088315055 -0.06549939
0.002119389 -0.14191586 0.10043101 0.027111879 0.00089995033 -0.040339377 -0.01649483 0.026417628
-0.0038326166 0.052831244 -0.042590406 -0.06761203 -0.029789345 -0.0017776358 0.04094502 -0.10031444
0.013983725 0.079837 0.04649531 0.04692388 -0.019681448 -0.002892937 0.038376436 -0.07799211
0.004376621 -0.06893491 -0.017309263 0.0553526 0.023051942 0.020068709 -0.011753336 -0.030437034
0.093272574 -0.033469297 0.047507025 -0.02866766 -0.087629266 0.014235445 -0.030793685 0.04897606
0.054316312 -0.010890908 0.015308458 -0.17941386 -0.03004385 0.026562994 -0.056352925 -0.044227265
-0.07434163 0.012638325 0.08475619 -0.033813994 0.03804091 0.0019850878 0.009163275 -0.12583107
0.048210666 -0.034700636 0.09369865 -0.0007827294 0.053785402 0.08258064 -0.07527554 -0.047155004
0.0012309115 -0.13418089 -0.22593854 -0.14162682 -0.14339444 -0.12154344 -0.016162956 0.29748523
-0.11625597 -0.335512 -0.086408705 -0.16108961 -0.064050384 -0.033186164 0.045869194 -0.013553389
0.11136297 -0.011455084 -0.027490351 -0.16541864 -0.18350476 0.04416235 0.0865446 0.03003507
-0.090142526 0.03885738 -0.2509059 0.11511258 -0.07115382 0.081249796 -0.0011882707 -0.1623237
0.12016627 -0.08569094 -0.014224703 -0.060852062 -0.042399235 -0.03839261 -0.2070424 -0.014744415
0.014979219 -0.34475246 0.014268325 0.035697028 -0.009602191 0.11345572 -0.06999412 -0.032198567
-0.23584427 -0.0002783325 -0.052290183 0.11962514 -0.11080644 0.02864216 -0.15194371 -0.049736697
-0.10028969 0.060362387 0.021706741 -0.085258916 -0.14946522 0.09541223 -0.22270261 0.33604717
0.06729453 -0.10612978 -0.103513926 -0.02995731 -0.1307387 -0.17591414 0.041290164 0.11533816
-0.16050605 -0.2708756 -0.33593926 0.1577455 -0.02060211 -0.025205545 -0.12707688 -0.1865672
-0.023307502 -0.08287461 -0.06635655 -0.09505234 0.014769596 0.14693505 0.12382416 0.11549169
-0.069658026 0.15466154 -0.18002321 0.22572428 0.20790827 0.0047853733 -0.09635667 0.17324457
-0.09825632 -0.018394722 0.052684188 0.116419666 -0.13970093 -0.048578493 -0.056863938 -0.041049365
0.0015717798 0.10212959 0.036941897 0.06624672 -0.105651826 0.05673376 -0.044573292 0.06271307
0.042737525 0.03411351 0.21229763 -0.05335242 -0.020603493 0.021030195 0.1423749 -0.03528174
-0.021540962 -0.13835828 -0.07782499 -0.148875 -0.0159719 -0.08116609 -0.3621974 0.0935079
00000000: 8619 d8bd 1bc6 a3bc 864b 273d 71bc 50bc
00000010: 7cba 003d 394b fabc 1022 233d 6789 67bc
00000020: 9cb2 49bd e8e0 c83d 9289 b33c 6ba9 41bc
00000030: 1439 50bc 866e 33bd 53d0 013d b2f7 173d
00000040: 4e1e 333b da99 bd3c b221 ccbd 4ee7 9c3c
00000050: 63e1 233d 8d94 b8bd 080c 2ebd fc8b 79bd
00000060: 1cac 4dbd c776 b53c 3b56 8d3c 5f76 ea3c
00000070: dd59 a93c 855a b63d 9483 31bb a09b 0c3d
00000080: 5354 02bd da79 d43c a6dd 1c3d f211 f6bd
00000090: 36a4 883c 28a1 47bd 25f6 9c3a b13f 8a3d
000000a0: 4b68 4fbd 619f 2bbd 7367 b0bc 1480 adbd
000000b0: b21b 823c 0708 383d 40c9 163c 07ed 01bd
000000c0: fb2a feb9 3770 07bd d57d b43c 6dce c83d
000000d0: bed1 e8bc d012 693d 29d2 673b a9b8 ce3c
000000e0: 18b1 1a3c e14d 9e3d 20b3 3a3c b9d0 29bd
000000f0: dc7f 903d 0b32 8dbd 86de b43d 8b24 86bd
00000100: 72e5 0a3b 6452 11be c6ae cd3d bb19 de3c
00000110: a5ea 6b3a e73a 25bd 2a20 87bc c869 d83c
00000120: a32c 7bbb 9365 583d 4773 2ebd 2d78 8abd
00000130: c908 f4bc 8fff e8ba f7b5 273d a871 cdbd
00000140: fe1b 653c 9581 a33d de71 3e3d 4133 403d
00000150: fd3a a1bc 6e97 3dbb 9c30 1d3d 54ba 9fbd
00000160: c269 8f3b bf2d 8dbd 28cc 8dbc 68b9 623d
00000170: 6dd7 bc3c 2267 a43c 1091 40bc 1657 f9bc
00000180: b105 bf3d 1a17 09bd ba96 423d 71d8 eabc
00000190: f976 b3bd c93b 693c 0a43 fcbc 1f9b 483d
000001a0: c87a 5e3d c76f 32bc 54d0 7a3c 44b8 37be
000001b0: 851e f6bc a39a d93c 53d2 66bd a627 35bd
000001c0: 6d40 98bd fa10 4f3c a794 ad3d 8b80 0abd
000001d0: c9d0 1b3d 3f18 023b 9021 163c dcd9 00be
000001e0: 8c78 453d 4122 0ebd 14e5 bf3d 1530 4dba
000001f0: 154e 5c3d 0a20 a93d 102a 9abd 9b25 41bd
00000200: 8956 a13a b766 09be 6f5c 67be 9f06 11be
00000210: fed5 12be c4eb f8bd 2d68 84bc fc4f 983e
00000220: 9c17 eebd 3bc8 abbe 0cf7 b0bd adf4 24be
00000230: d92c 83bd 37ee 07bd 56e1 3b3d 090f 5ebc
00000240: 4512 e43d 1bae 3bbc 7233 e1bc 8163 29be
00000250: ace8 3bbe 95e3 343d 4c3e b13d 1b0c f63c
00000260: a59c b8bd eb28 1f3d bd76 80be 25c0 eb3d
00000270: 18b9 91bd 4b66 a63d c0bf 9bba 2f38 26be
00000280: bc19 f63d bb7e afbd bb0e 69bc 0340 79bd
00000290: d2aa 2dbd 9241 1dbd ec02 54be 8f92 71bc
000002a0: 666b 753c 6583 b0be b1c5 693c 0c37 123d
000002b0: 8252 1dbc 795b e83d 1459 8fbd a5e2 03bd
000002c0: 2981 71be 28ed 91b9 3b2e 56bd 07fe f43d
000002d0: 7dee e2bd f7a2 ea3c 2297 1bbe b5b8 4bbd
000002e0: ae64 cdbd 8d3e 773d 56d2 b13c 3a9c aebd
000002f0: 690d 19be 7d67 c33d 270c 64be 600e ac3e
00000300: b7d1 893d 925a d9bd 1cff d3bd 0869 f5bc
00000310: 5ee0 05be d622 34be e01f 293d 6a36 ec3d
00000320: b35b 24be 35b0 8abe 3b00 acbe 0988 213e
00000330: c2c5 a8bc dc7b cebc 7120 02be 790b 3fbe
00000340: 60ef bebc 2aba a9bd f1e5 87bd cdaa c2bd
00000350: 2dfc 713c 2476 163e 8597 fd3d e886 ec3d
00000360: dea8 8ebd 985f 1e3e 0158 38be 4424 673e
00000370: e8e5 543e 9fce 9c3b a556 c5bd 0667 313e
00000380: 9c3a c9bd 87b0 96bc 60cb 573d 6f6d ee3d
00000390: c30d 0fbe 3efa 46bd 29ea 68bd 6123 28bd
000003a0: 2e04 ce3a 5229 d13d 6350 173d 5cac 873d
000003b0: fc5f d8bd a961 683d 7c92 36bd b66f 803d
000003c0: 8b0d 2f3d 9cba 0b3d 8d64 593e 1188 5abd
000003d0: a8c8 a8bc 8447 ac3c baca 113e 9683 10bd
000003e0: ac76 b0bc cbad 0dbe b562 9fbd b072 18be
000003f0: 81d7 82bc 683a a6bd f071 b9be 1281 bf3d

network_body._body_endoder.seq_layers.2.bias f4 [128]
-0.022183914 -0.009184146 -0.077312745 -0.02683434 -0.03348156 -0.046569426 -0.06761502 -0.0422141
0.11029213 -0.11627321 -0.05447712 -0.06680921 -0.052178346 -0.009551462 -0.050632123 -0.033705086
0.0042513236 -0.0028717008 -0.081224024 0.015564355 -0.070098504 -0.08964228 -0.064630784 -0.091558404
-0.06755073 -0.008957739 -0.03328224 -0.081371345 -0.032629047 0.0073361252 -0.014453938 0.020376887
-0.035919953 -0.068631776 -0.027363654 -0.062504284 -0.06652769 0.07669041 -0.05868952 -0.04358982
-0.02798468 -0.022521824 0.036744434 -0.011382966 0.018363286 -0.09331754 -0.023222588 -0.046144314
-0.03872126 0.043413162 0.0047913194 -0.018305475 -0.012591347 -0.0777121 -0.013502037 -0.040161222
0.024582613 -0.05187288 0.0069952845 0.0058169304 0.014646962 -0.06385572 -0.063192196 -0.026556171
-0.0056272107 -0.0151722785 -0.059958402 -0.04516991 -0.05411763 -0.069344446 -0.026182774 -0.036708947
0.022212174 -0.08284181 0.017954972 -0.023815975 -0.041510094 -0.06995789 -0.057405308 -0.04527907
-0.06575086 0.016755957 -0.09220208 -0.056533538 0.021444172 0.0067612403 -0.049412202 0.0019892382
-0.11433456 -0.051808883 -0.11584754 -0.047162622 -0.020823041 0.0074168313 0.052249834 -0.08345798
-0.048842363 0.05310298 -0.08512416 -0.09777861 -0.05727702 -0.016469197 -0.088613756 0.0109159965
-0.02134908 -0.073818445 -0.0100625185 0.041394178 0.013814428 -0.0085847685 0.039909743 -0.0056574363
0.0033109735 0.003548279 -0.035592366 -0.012552852 -0.020174967 -0.018185461 -0.04919859 -0.012567274
-0.0034304948 -0.055404596 -0.06078166 -0.05338799 -0.054520074 -0.020410636 0.015465917 -0.012405911
00000000: 0abb b5bc 1a79 16bc 2556 9ebd b1d3 dbbc
00000010: f623 09bd 95bf 3ebd be79 8abd b1e8 2cbd
00000020: d7e0 e13d a620 eebd 6723 5fbd 44d3 88bd
00000030: f6b8 55bd bc7d 1cbc a163 4fbd 580e 0abd
00000040: b04e 8b3b 2533 3cbb c858 a6bd a301 7f3c
00000050: ce8f 8fbd 5f96 b7bd 255d 84bd f982 bbbd
00000060: 0a58 8abd 7bc3 12bc f552 08bd 05a6 a6bd
00000070: 09a6 05bd e163 f03b 36d0 6cbc 6eed a63c
00000080: cd20 13bd d18e 8cbd be29 e0bc 3f02 80bd
00000090: ab3f 88bd dd0f 9d3d 6c64 70bd 3d8b 32bd
000000a0: 2140 e5bc b07f b8bc 5581 163d 9f7f 3abc
000000b0: 9a6e 963c 441d bfbd 4c3d bebc d201 3dbd
000000c0: 2f9a 1ebd 00d2 313d 8000 9d3b 5df5 95bc
000000d0: f04b 4ebc 8627 9fbd a637 5dbc 1880 24bd
000000e0: 7a61 c93c a878 54bd b338 e53b f39b be3b
000000f0: d0f9 6f3c cac6 82bd e96a 81bd 548c d9bc
00000100: 7764 b8bb 2695 78bc f196 75bd 1504 39bd
00000110: 73aa 5dbd 7604 8ebd 427d d6bc 1f5c 16bd
00000120: 4ef6 b53c f8a8 a9bd 4e16 933c b819 c3bc
00000130: 7d06 2abd 1546 8fbd d421 6bbd 8c76 39bd
00000140: 63a8 86bd ca43 893c 72d4 bcbd b68f 67bd
00000150: b0ab af3c 658d dd3b 7364 4abd e15d 023b
00000160: 3d28 eabd 8d35 54bd 7a41 edbd 982d 41bd
00000170: 1595 aabc e408 f33b ec03 563d 04ec aabd
00000180: ee0e 48bd 8382 593d 9355 aebd 2740 c8bd
00000190: 4f9b 6abd 69ea 86bc 217b b5bd 02d9 323c
000001a0: 44e4 aebc 202e 97bd 43dd 24bc f18c 293d
000001b0: e955 623c 21a7 0cbc 6678 233d 0462 b9bb
000001c0: ebfc 583b 3e8a 683b 4dc9 11bd 7aaa 4dbc
000001d0: f945 a5bc adf9 94bc 7684 49bd f8e6 4dbc
000001e0: 27d2 60bb eeef 62bd 31f6 78bd 5dad 5abd
000001f0: 7150 5fbd 3534 a7bc c264 7d3c 2a42 4bbc

action_model._continuous_distribution.log_sigma f4 [1, 2]
-5.7167087 -5.6838727
00000000: 47ef b6c0 49e2 b5c0

action_model._continuous_distribution.mu.weight f4 [2, 128]
-0.00014116261 -0.08961965 0.00040646383 -0.091828465 0.035848156 0.008269266 -0.016402114 -0.09381567
-0.2608954 0.08771925 0.032390643 -0.053493403 -0.0017235216 -0.05298324 0.071784645 -0.06546501
0.074491404 -0.0009007182 0.14347756 -0.14150438 0.016965223 -0.050778624 0.052943587 0.065691434
0.01923472 0.0027230605 -0.00830321 0.0029674424 -0.065503165 -0.07739937 0.09715492 -0.07829452
0.0060279975 0.13566194 0.10675775 -0.12689744 -0.021698046 0.20731561 -0.059630845 -0.05235787
-0.16732936 -0.00031775818 -0.090532236 -0.16772315 -0.16769734 -0.02453809 0.04704318 0.10271565
0.0529495 0.008350739 0.03677879 0.12821007 0.015044391 -0.055669654 -0.09328276 -0.0067218593
-0.03904148 0.049344085 0.06104842 0.09872512 0.12518996 0.005607064 0.0012236617 0.16519414
0.1400113 -0.0061130994 0.0003962476 -0.0688706 -0.069925554 0.10126969 -0.0609029 -0.11793196
0.16834761 0.0027350513 -0.073159546 0.0024799479 0.02236649 0.16684388 0.049164563 0.17913878
0.015872242 -0.099737264 0.009194831 0.0032105113 0.2286793 0.02717051 -0.0906892 -0.08582374
-0.046785478 0.12162831 0.0124625275 -0.0051156385 0.096204855 0.11713323 -0.14400789 0.17574239
-0.0017300615 -0.021591524 0.05237951 -0.015071197 0.034197483 0.08255397 0.06329962 0.17528103
-0.12790272 0.012116551 -0.09144051 -0.13999306 0.014863339 0.21835688 -0.14979999 0.109831795
-0.00010913317 -0.0454796 0.063392505 -0.13641122 -0.015901316 -0.061139036 0.0643499 0.06928239
0.023170887 0.05881931 -0.13132587 -0.009427877 0.12178892 -0.0046464624 -0.0931994 0.048046414
0.00040325848 0.08965502 -0.05339296 0.018201489 -0.018199436 -0.010081051 0.025733756 -0.045211617
0.042707626 0.003527258 -0.041197486 -0.0007249236 0.055941816 -0.09917997 -0.075241685 -0.0222192
-0.07194013 -0.0004134409 -0.09925957 -0.04287143 0.13135602 0.05845734 -0.00046293036 -0.0435725
-0.00070526387 -0.07121538 -0.03380664 0.05062295 0.10136137 -0.18011908 0.16573396 0.052246887
-0.0014460963 0.06426723 -0.05755335 0.017463148 0.006699439 -0.22782157 0.068543255 0.08192789
0.028491495 -0.0001575183 -0.070359394 0.06092034 -0.035273977 0.01940402 0.095054634 0.0143109625
0.058802407 -0.12870868 0.17705806 0.08407434 -0.097892165 0.031029258 0.063181356 -0.0059193936
0.15931913 0.02039789 -0.07759283 0.036183238 0.008658662 -0.05359366 -0.0006590846 0.030059587
-0.14379272 -0.076645024 -0.00012499277 -0.0035840438 -0.005638426 0.0859473 0.09029149 -0.032827333
0.019977387 0.060868353 0.07484912 0.012822311 0.003387212 0.025779482 0.0059206327 -0.030576559
-0.0098433 -0.19837289 0.057866488 0.00032295092 0.014668114 0.16735654 -0.0060072904 0.05578326
0.014184642 0.0060615265 -0.005696692 0.057139847 -0.1391935 -0.017392512 -0.043256775 0.036581658
-0.06792276 0.2340648 0.071486905 0.07983205 0.01986401 0.017890483 0.1505265 -0.11788788
0.15079163 -0.0064826827 -0.054703746 -0.074420795 0.11754682 -0.089376144 -0.104208134 -0.05106363
2.8954564e-05 -0.036598966 -0.0035452715 0.024425797 -0.21971153 -0.0282179 -0.012840481 0.12627873
-0.08631775 -0.0019990744 -0.025529532 0.08951253 0.009727101 -0.14866576 0.14014103 -0.10403311
00000000: 0d05 14b9 828a b7bd a71a d539 9010 bcbd
00000010: 84d5 123d d17b 073c ba5d 86bc 6e22 c0bd
00000020: 1594 85be 26a6 b33d 0dac 043d e61b 5bbd
00000030: cae7 e1ba f404 59bd d403 933d 8512 86bd
00000040: f38e 983d 2d1e 6cba c8eb 123e 86e6 10be
00000050: a7fa 8a3c 3ffd 4fbd 60db 583d 3b89 863d
00000060: 2292 9d3c 6075 323b 300a 08bc 6c79 423b
00000070: 8626 86bd 9083 9ebd 29f9 c63d e158 a0bd
00000080: 8286 c53b f7ea 0a3e cfa3 da3d 67f1 01be
00000090: 1ac0 b1bc 8b4a 543e 793f 74bd 3575 56bd
000000a0: 6358 2bbe c898 a6b9 f768 b9bd 9ebf 2bbe
000000b0: dab8 2bbe 1b04 c9bc 59b0 403d 955c d23d
000000c0: 93e1 583d 8ad1 083c 5ba5 163d 8049 033e
000000d0: c07c 763c dd05 64bd 080b bfbd 0b43 dcbb
000000e0: f5e9 1fbd 061d 4a3d e80d 7a3d 6530 ca3d
000000f0: cc31 003e 76bb b73b 4663 a03a a728 293e
00000100: 1f5f 0f3e 6550 c8bb 74bf cf39 070c 8dbd
00000110: 2135 8fbd 7c66 cf3d 5275 79bd 5086 f1bd
00000120: 5163 2c3e 8c3e 333b acd4 95bd 9f86 223b
00000130: ee39 b73c 1fd9 2a3e c860 493d 2870 373e
00000140: 8106 823c 0d43 ccbd eba5 163c 7167 523b
00000150: e82a 6a3e b094 de3c 42bb b9bd 5bc4 afbd
00000160: 21a2 3fbd 4318 f93d a12f 4c3c 16a1 a7bb
00000170: 0d07 c53d 8ce3 ef3d ce76 13be d0f5 333e
00000180: 3bc3 e2ba b5e0 b0bc e68b 563d 2fed 76bc
00000190: a912 0c3d 0e12 a93d 3ba3 813d df7c 333e
000001a0: eef8 02be 8084 463c 2945 bbbd 575a 0fbe
000001b0: 5d85 733c f298 5f3e 2b65 19be 7eef e03d
000001c0: 6dde e4b8 d148 3abd eed3 813d 62af 0bbe
000001d0: 7a43 82bc ed6c 7abd e1c9 833d ede3 8d3d
000001e0: dfd0 bd3c 84ec 703d 4a7a 06be 6277 1abc
000001f0: 786c f93d 5a41 98bb 54df bebd 51cc 443d
00000200: 706c d339 0d9d b73d 94b2 5abd 4a1b 953c
00000210: fc16 95bc fe2a 25bc 99cf d23c d12f 39bd
00000220: 31ee 2e3d 9229 673b b2be 28bd cd08 3eba
00000230: 3f23 653d de1e cbbd 5018 9abd 0a05 b6bc
00000240: 5955 93bd 19c3 d8b9 9a48 cbbd f499 2fbd
00000250: 3182 063e f770 6f3d 76b5 f2b9 1479 32bd
00000260: 75e1 38ba 5fd9 91bd d578 0abd 035a 4f3d
00000270: 8d96 cf3d 2371 38be 2ab6 293e d500 563d
00000280: f18a bdba 8a9e 833d 10bd 6bbd e00e 8f3c
00000290: f886 db3b 0f4a 69be 6860 8c3d cfc9 a73d
000002a0: ff66 e93c 7f2b 25b9 9618 90bd 9b87 793d
000002b0: 727b 10bd 2ef5 9e3c 01ac c23d 8778 6a3c
000002c0: cbda 703d 35cc 03be b54e 353e 2b2f ac3d
000002d0: b07b c8bd 1231 fe3c 3a65 813d 79f7 c1bb
000002e0: 8e24 233e 7a19 a73c fde8 9ebd e034 143d
000002f0: 10dd 0d3c 0785 5bbd 6bc6 2cba 863f f63c
00000300: 663e 13be 11f8 9cbd 7e10 03b9 47e2 6abb
00000310: 8cc2 b8bb 2305 b03d bfea b83d f475 06bd
00000320: 9ea7 a33c 1851 793d 7f4a 993d ac14 523c
00000330: fdfb 5d3b 7e2f d33c de01 c23b b17b fabc
00000340: cb45 21bc 4322 4bbe 6905 6d3d bd51 a939
00000350: 8752 703c 835f 2b3e ced8 c4bb fd7c 643d
00000360: b366 683c c59f c63b 51ab babb 790b 6a3d
00000370: be88 0ebe be7a 8ebc 042e 31bd a6d6 153d
00000380: 171b 8bbd afae 6f3e ba67 923d fc7e a33d
00000390: d9b9 a23c 108f 923c 9e23 1a3e 336f f1bd
000003a0: 1f69 1a3e af6c d4bb 0911 60bd ee69 98bd
000003b0: 63bc f03d d70a b7bd 136b d5bd 1928 51bd
000003c0: 74e3 f237 cce8 15bd c957 68bb 9c18 c83c
000003d0: 0ffc 60be 3a29 e7bc e160 52bc 364f 013e
000003e0: 5cc7 b0bd e702 03bb 4f23 d1bc 5852 b73d
000003f0: 6b5e 1f3c d63b 18be 2181 0f3e 500f d5bd

action_model._continuous_distribution.mu.bias f4 [2]
-0.017134635 -0.024746625
00000000: ef5d 8cbc 6fb9 cabc
