results/TutorialLikeInManualWithOutCoin/SimpleCollector/SimpleCollector-1499987.onnx (onnx, 329267 bytes, 11 tensors)

discrete_action_output_shape f4 [1, 3]
0	0x40400000	3.0
1	0x40400000	3.0
2	0x40000000	2.0

network_body._body_endoder.seq_layers.0.weight f4 [256, 52]
0	0x3c238138	0.009979539
1	0xbdf6b75b	-0.12046691
2	0xbd8f657d	-0.07001779
3	0xbdcbc4fe	-0.09949683
4	0xbe5b5952	-0.21420792
5	0x3ecd47fb	0.4009398
6	0xbd8c0e13	-0.06838622
7	0x3d6a9254	0.057268456
8	0x3d8bacbc	0.06820056
9	0x3da79e70	0.081845164
10	0xbd6955ed	-0.05696671
11	0xbda6da9f	-0.081471674
12	0x3d9e84ac	0.07740149
13	0x3e24de34	0.16100389
14	0x3e0292de	0.12751338
15	0x3cbd89e4	0.02313704
16	0xbe1c66be	-0.15273568
17	0x3b4bc9dd	0.0031095662
18	0x3ca624db	0.020281246
19	0xbd91c992	-0.071185246
20	0xbd97eb9d	-0.074179865
21	0x3e16dd99	0.1473297
22	0xbd65c813	-0.05609901
23	0xbdb70e12	-0.089382306
24	0x3df019d3	0.117236756
25	0xbe0696b1	-0.13143422
26	0xbd76b96c	-0.060235426
27	0x3dbde353	0.09271874
28	0x3ea5a816	0.32354802
29	0xbe2d4163	-0.16919474
30	0x3c2c18fa	0.010504002
31	0x3e666ce6	0.22502479
32	0x3e17915f	0.14801548
33	0xbd44df11	-0.048064295
34	0x3e511078	0.20416439
35	0xbe1bb945	-0.15207393
36	0xbdd8de9e	-0.10589336
37	0x3bd6e01e	0.0065574786
38	0xbea5f415	-0.32412782
39	0xbda4fa56	-0.0805556
40	0x3d9e416b	0.07727321
41	0xbe87a521	-0.2649317
42	0x3d9e921d	0.07742713
43	0x3cbf0d3a	0.023321737
44	0x3dbb9478	0.091591775
45	0x3d56443e	0.052311175
46	0x3e199195	0.14996941
47	0xbdd1d4e5	-0.102456845
48	0xbadebf8a	-0.0016994339
49	0xbe1cc18a	-0.15308204
50	0x3e23dfef	0.16003393
51	0x3e40c39c	0.18824619
52	0xbda3d830	-0.08000219
53	0xbce219ad	-0.027600134
54	0xbd8c34d8	-0.06846017
55	0xba4aedb4	-0.0007741109
56	0xbd8f51ff	-0.069980614
57	0xbc5569ed	-0.013025743
58	0xbd6c8bee	-0.057750635
59	0x3dbee87a	0.09321685
60	0xbc932417	-0.017961545
61	0xbe93eb4b	-0.28890452
62	0x3cfb658d	0.030688072
63	0x3cdceebd	0.026969308
64	0x3c90ad2a	0.017660696
65	0xbecc4220	-0.398942
66	0xbd80d597	-0.06290739
67	0x3e38261a	0.17983285
68	0x3e8c2430	0.2737136
69	0xbd1cb0f5	-0.038254697
70	0xbd3e03f4	-0.04639049
71	0xbd39e878	-0.045387715
72	0xbcb5d87a	-0.02219795
73	0xbe62aa5b	-0.22135298
74	0x3d34c767	0.044135477
75	0x3cd0cb66	0.025487613
76	0xbdaf843a	-0.08570142
77	0x3df14d2f	0.117823
78	0xbd907457	-0.0705344
79	0xbd638384	-0.055545345
80	0xbd7507b4	-0.0598218
81	0xbee0fd74	-0.4394337
82	0x3dcbfa6f	0.09959876
83	0xbd2fb613	-0.04289825
84	0xbdbd5004	-0.092437774
85	0xbda885c9	-0.082286425
86	0xbd8c964f	-0.068646066
87	0xbe3d5d0f	-0.1849253
88	0xbda47145	-0.08029417
89	0xbb5174f1	-0.0031960572
90	0x3eba9f47	0.36449644
91	0x3df20c85	0.11818794
92	0xbdb87f3d	-0.09008644
93	0x3e602776	0.21890053
94	0x3e135f74	0.14391881
95	0xbe18783a	-0.14889613
96	0xbe4b1d86	-0.19835481
97	0xbe1e4d9a	-0.1545929
98	0xbea69e1d	-0.32542506
99	0x3d1b4b3f	0.037913557
100	0x3dbe629d	0.09296153
101	0x3e2fd988	0.17172825
102	0xbdd01ea6	-0.10162096
103	0xbe037724	-0.12838417
104	0x3dd96d96	0.10616605
105	0x3dacdefc	0.084409684
106	0xbc8916d6	-0.016734522
107	0xbe986aea	-0.2976907
108	0xbd4010af	-0.04689091
109	0x3ec04648	0.3755362
110	0xbdb1e45e	-0.08686136
111	0x3e160793	0.14651327
112	0x3d445f36	0.047942363
113	0x3de393af	0.11112153
114	0xbd8a0c50	-0.0674063
115	0x3e6045f2	0.21901682
116	0xbe288832	-0.16458204
117	0xbc5d374a	-0.0135019515
118	0xbdb6cc4d	-0.08925686
119	0xbd1da0e3	-0.03848351
120	0xbcb06827	-0.021534039
121	0x3e1c9212	0.15290096
122	0xbd8806c4	-0.066419154
123	0xbdacd509	-0.08439071
124	0xbe2adef0	-0.16686606
125	0xbe9785f8	-0.29594398
126	0x3d8d86a2	0.06910445
127	0x3d95dc10	0.07317364
128	0xbe3e5d03	-0.18590169
129	0x3e0cb359	0.1374029
130	0xbd1cff97	-0.038329687
131	0x3e26ae6d	0.16277476
132	0xbdb1ac18	-0.086754024
133	0xbdb2fe42	-0.08739902
134	0x3dc97f23	0.098387025
135	0x3d48d8ea	0.04903499
136	0x3e03a120	0.12854433
137	0x3a1336ab	0.0005615751
138	0xbe9dc5b4	-0.30814898
139	0x3e2b28ca	0.16714779
140	0xbe6a141d	-0.22859235
141	0x3e773b02	0.24143603
142	0x3e06ac24	0.13151604
143	0xbdc182bb	-0.09448763
144	0x3eafc8ee	0.34332985
145	0x3e721b38	0.23643196
146	0x3d5da6d3	0.054114174
147	0xbdb2e8d4	-0.08735815
148	0x3e3e4661	0.18581535
149	0xbe6a6ef7	-0.22893892
150	0x3d35fe10	0.044431746
151	0x3e1507c5	0.14553745
152	0xbe17b40d	-0.14814778
153	0xbdb59a73	-0.088673495
154	0xbdabcec9	-0.083890505
155	0x3deeef98	0.11666793
156	0x3df4cf74	0.11953631
157	0x3e173d99	0.14769591
158	0xbe8231bf	-0.25428578
159	0xbd97beb1	-0.074094184
160	0xbdb20ab7	-0.0869345
161	0xbdcf9c4c	-0.10137233
162	0x3e7972fd	0.24360271
163	0xbd52a54d	-0.051427174
164	0x3e1019c6	0.14072332
165	0xbcb83ecf	-0.022490887
166	0x3e8ad87d	0.27118292
167	0xbbfc8011	-0.0077056964
168	0x3d71b957	0.059014644
169	0x3c177337	0.009243778
170	0xbe97d424	-0.29654038
171	0xbe3ec447	-0.18629561
172	0x3e123513	0.14278059
173	0x3d8715ea	0.06595977
174	0x3cc38a0d	0.023869539
175	0xbe018b69	-0.12650837
176	0xbe193664	-0.14962155
177	0xbdbd31d6	-0.09238021
178	0xbe190fd0	-0.14947438
179	0x3e1102d6	0.14161238
180	0x3e2e18ce	0.1700165
181	0x3e52373f	0.20528887
182	0xbc56a42b	-0.013100664
183	0xbd9188fa	-0.07106204
184	0x3e1300f3	0.14355831
185	0x3dcb44fa	0.099252656
186	0x3e879f54	0.26488745
187	0xbd9f0216	-0.0776407
188	0x3d66a005	0.05630495
189	0xbd98a759	-0.07453794
190	0xbd2f2df9	-0.042768452
191	0x3d25a8ba	0.040444113
192	0xbd81dfd8	-0.06341523
193	0x3eceb7a6	0.40374488
194	0x3e2639c5	0.16232975
195	0xbcd4ebbb	-0.025991311
196	0xbd64f768	-0.055900007
197	0xbd8dffb8	-0.0693354
198	0x3e8f221e	0.27955717
199	0xbc6be925	-0.014398848
200	0xbbe8eeda	-0.0071085515
201	0x3e74702a	0.23870912
202	0xbe65d351	-0.22443892
203	0x3e33328f	0.17499755
204	0x3da5f527	0.081034
205	0xbda307b9	-0.07960457
206	0xbe139519	-0.14412345
207	0x3a813712	0.0009858331
208	0xbdafbe4c	-0.08581218
209	0x3da16405	0.07880405
210	0xbdf5f21d	-0.1200907
211	0xbde86b1d	-0.11348555
212	0xbe0cba18	-0.13742864
213	0xbe95e402	-0.2927552
214	0xbcab54f9	-0.020914542
215	0xbd2f352d	-0.04277532
216	0x3e81a8b0	0.2532401
217	0x3d836bfe	0.06417082
218	0x3960eeea	0.00021451307
219	0xbec34ced	-0.38144627
220	0x3e28611c	0.16443294
221	0x3e20a60d	0.15688343
222	0x3d9a542f	0.07535588
223	0x3e21667b	0.1576175
224	0xbd74eb17	-0.05979451
225	0xbddb07d5	-0.10694853
226	0xbdaa9b40	-0.08330393
227	0x3e127579	0.14302625
228	0x3e9eb2b1	0.30995706
229	0xbe06254b	-0.13100164
230	0xbd73177d	-0.059348572
231	0xbd213a8f	-0.039362486
232	0x3d4441b1	0.04791421
233	0x3e091977	0.1338862
234	0x3d9174d2	0.0710236
235	0x3ced4b25	0.028966496
236	0xbdda828e	-0.106694326
237	0x3e3bf7bd	0.18356223
238	0xbdf0a046	-0.1174932
239	0xbe28af39	-0.16473092
240	0x3e837b81	0.25680164
241	0xbd91139f	-0.070838206
242	0x3d00896f	0.031381067
243	0x3ba405d1	0.005005576
244	0xba5c5a68	-0.00084058056
245	0xbd9634a4	-0.07334259
246	0x3ddc68e0	0.10762191
247	0x3de34d96	0.11098783
248	0x3e515b43	0.2044497
249	0xbb98b2d2	-0.004659989
250	0x3c87c199	0.016571807
251	0xbdcf1e34	-0.10113183
252	0xbdfe8706	-0.124280974
253	0xbd54bcb3	-0.05193777
254	0x3d86c3cc	0.06580314
255	0x3db9f987	0.09080797

network_body._body_endoder.seq_layers.0.bias f4 [256]
0	0x3c82a97c	0.015949957
1	0xbd8ce25f	-0.06879114
2	0xbc58e759	-0.013238751
3	0xbd12dc2d	-0.035854507
4	0x3c104676	0.008805862
5	0xbd239816	-0.039939962
6	0x3d11d108	0.03559974
7	0xbc6ad3ee	-0.014332755
8	0xba867a60	-0.0010259859
9	0xbc6357b5	-0.013875891
10	0x3c7e7d27	0.015532768
11	0xbd57d395	-0.052692015
12	0xbc9565ca	-0.018237013
13	0xbc81f9b5	-0.01586614
14	0x3d369106	0.0445719
15	0x3d00a1d5	0.031404335
16	0x3cf389fa	0.029728878
17	0x3c6af700	0.014341116
18	0x3ccd26d8	0.025042936
19	0x3b606998	0.0034242626
20	0xbc7c4590	-0.015397444
21	0x3cd9060b	0.02649214
22	0xbc810cf7	-0.015753252
23	0xbc8a8224	-0.016907759
24	0xbc3606a5	-0.011109983
25	0xbc7c5e2a	-0.01540331
26	0xbb7be464	-0.0038435692
27	0x3c9fb3d9	0.019494938
28	0xbc963afd	-0.018338675
29	0x3ce95359	0.028482126
30	0x3b25c331	0.0025293345
31	0xbce41524	-0.027842112
32	0xbb33bc01	-0.0027425291
33	0x3ce256eb	0.027629336
34	0xbba69658	-0.0050838403
35	0x3cf877fd	0.030330652
36	0xbd4e36b7	-0.05034515
37	0x3d05a8bb	0.032631617
38	0xbd2c495d	-0.042062152
39	0x3bb2da43	0.0054581477
40	0xbc41aa29	-0.0118203545
41	0x3c538eb2	0.012912439
42	0xbd3e5d9a	-0.046475984
43	0x3c587d77	0.013213507
44	0xbe298aab	-0.16556804
45	0x3c508125	0.012726103
46	0xbcd00a2e	-0.025395479
47	0x3ce52cba	0.027975429
48	0x3be02481	0.006840289
49	0xbcb617bb	-0.022228112
50	0xbd02121d	-0.031755555
51	0x3b65258c	0.0034965007
52	0xbcdca726	-0.026935171
53	0xbd07f60d	-0.033193637
54	0xbc995052	-0.018715058
55	0xbcb0a012	-0.021560702
56	0xbcb4fc78	-0.022093043
57	0x3c1d1e22	0.009589704
58	0xbd4f6dcd	-0.050641824
59	0xbc96762e	-0.0183669
60	0x3ce64f99	0.028114127
61	0x3d25a11a	0.04043684
62	0x3c165072	0.009174453
63	0x3c97c35a	0.018525768
64	0x3d234274	0.039858297
65	0xb987cd0b	-0.00025901975
66	0xbbe02858	-0.006840747
67	0x3d1625c2	0.036657102
68	0xbcb94a6d	-0.022618497
69	0xba435d99	-0.0007452607
70	0x3d3381f6	0.043825112
71	0xbe06e4da	-0.13173237
72	0x3d351175	0.0442061
73	0xbc2088fd	-0.009798286
74	0xbd32bb4d	-0.043635655
75	0xbcc82826	-0.024433207
76	0xba057e59	-0.00050923746
77	0xbd12c56c	-0.035832807
78	0x3b88b7b7	0.004172291
79	0xbc29326b	-0.010326962
80	0xbbda3a95	-0.0066598156
81	0x3accbf0e	0.0015620904
82	0xbd547740	-0.05187154
83	0xbb44034d	-0.0029909194
84	0xbbb16478	-0.005413588
85	0x3c83c0f7	0.016083224
86	0x3cd6e2bb	0.02623116
87	0x3d2689bc	0.040658697
88	0x3ca472e3	0.020074314
89	0x3d14024c	0.036135003
90	0xbc94e92d	-0.018177593
91	0xbcdb6868	-0.026783183
92	0xbb850f9c	-0.0040606987
93	0xbd160591	-0.036626402
94	0xbcde12da	-0.027108599
95	0x3c842f00	0.016135693
96	0x3d0a0426	0.033695363
97	0xbb44c1e5	-0.0030022797
98	0xbbf75dcd	-0.0075490237
99	0x3cf7cb3e	0.03024828
100	0xbc224cc3	-0.009905997
101	0xbcc1f6be	-0.023677226
102	0x3bc4aac1	0.0060018008
103	0xbce73311	-0.028222593
104	0xbd2fb8b9	-0.042900775
105	0x3caac050	0.020843655
106	0xbc96b6b4	-0.018397667
107	0xbd162f4c	-0.0366662
108	0xbe221bd7	-0.15830933
109	0x3c703cd7	0.014662943
110	0x3c22559a	0.009908104
111	0xbcabf25f	-0.020989595
112	0x3d1f2cdb	0.038861137
113	0xbbcd51b9	-0.0062658456
114	0x3cb33ee4	0.021880575
115	0x3a3c6e4b	0.0007188066
116	0x3b352c53	0.0027644827
117	0xbb8fe318	-0.0043910854
118	0xbab58bfd	-0.0013850924
119	0x3cd86ba3	0.026418513
120	0xbd27fd2b	-0.041012924
121	0x3bd45e7f	0.0064809914
122	0x3b855394	0.004068801
123	0x3cfd85a6	0.030947518
124	0x3cbec0fd	0.023285383
125	0xb9ae5756	-0.00033252937
126	0x3a7e7420	0.0009706635
127	0x3cfe853a	0.031069387
128	0xbd3ce354	-0.046115234
129	0x3c52e436	0.012871793
130	0xbe587437	-0.21138082
131	0x3caaa0fb	0.020828715
132	0xbd28a3ea	-0.041171946
133	0xbc005f40	-0.007835209
134	0xbccf03a8	-0.025270298
135	0x3c0858f9	0.008321994
136	0xbc980f67	-0.018562032
137	0x3b1caf9f	0.002390839
138	0xbc3e36bf	-0.011609732
139	0x3cd173c1	0.025567891
140	0xbd1a1923	-0.03762163
141	0xbc6190c0	-0.013767421
142	0x3a7b2b1d	0.00095813145
143	0xbd07fe96	-0.033201776
144	0xbc876183	-0.01652599
145	0xbc3c32d5	-0.011486729
146	0xba3e6ced	-0.0007264156
147	0xbe5d038d	-0.21583386
148	0xbcf73f74	-0.030181624
149	0xbca0f491	-0.019647868
150	0x3b957d6f	0.004562072
151	0xbd6b795b	-0.05748878
152	0xbd0e9705	-0.034811992
153	0x3d3d26bc	0.046179518
154	0xbd453b31	-0.048152152
155	0xbced130c	-0.028939746
156	0x39c0cf57	0.00036775574
157	0x3b15059b	0.0022738937
158	0x3d07069d	0.03296529
159	0xbc2374c5	-0.0099765705
160	0xbc879b51	-0.016553553
161	0xbd03ea2e	-0.032205753
162	0xbb478fe8	-0.0030450765
163	0xbc80bd4b	-0.015715262
164	0xbcd0394a	-0.025417943
165	0x3c827cc6	0.015928637
166	0xbc64bffc	-0.013961788
167	0x3c40dac1	0.011770905
168	0xbd7697c6	-0.060203336
169	0xbc266a5f	-0.010157197
170	0xbb2e4bff	-0.002659559
171	0x3d1e473f	0.038642164
172	0x3c90be84	0.01766897
173	0xbc3a5af2	-0.011374222
174	0xbc50f6e7	-0.012754179
175	0x3c9ec83c	0.019382589
176	0x3cf306d7	0.029666347
177	0x3c9731f5	0.018456439
178	0xbc74a0ed	-0.014930946
179	0x3ccc8088	0.024963632
180	0x3c7b8e1e	0.015353708
181	0xbc6f9618	-0.0146231875
182	0x3c92a7ec	0.017902337
183	0xbe63b401	-0.22236635
184	0xbc80d14f	-0.015724806
185	0xbc982f51	-0.01857725
186	0xbc244dca	-0.010028312
187	0xbd55cafa	-0.052195527
188	0x3c753c6a	0.014968017
189	0x3c5eaded	0.013591272
190	0x3ccddd57	0.025129957
191	0xbc85b49f	-0.016321478
192	0x3c8fe696	0.017566007
193	0xbe380a54	-0.1797269
194	0xbc23de38	-0.010001712
195	0x3c590c51	0.013247565
196	0xbe1995ed	-0.14998598
197	0xbb17303b	-0.002306952
198	0xbd24128c	-0.04005675
199	0x3b53b549	0.00323041
200	0xbb918b12	-0.0044416273
201	0x3ce0619e	0.027390298
202	0xbc52647e	-0.012841342
203	0x3b51de59	0.0032023399
204	0x3c771219	0.015079998
205	0xbc1bfd26	-0.0095208045
206	0x3c619e04	0.013770584
207	0x3cb2c617	0.021822972
208	0xbce506b2	-0.027957294
209	0xbb9d6f3f	-0.0048045213
210	0xbd476da9	-0.048688564
211	0xbd0d1325	-0.034442086
212	0x3cc0e892	0.023548398
213	0xbbf6249d	-0.007511689
214	0xbd35a784	-0.04434921
215	0xbccc951c	-0.024973445
216	0xbc9d492d	-0.019199932
217	0xbd134741	-0.035956625
218	0xbe490fa9	-0.1963488
219	0xbcb76f26	-0.022391867
220	0xbadf6117	-0.0017042485
221	0x3d042df3	0.032270383
222	0x3c25412b	0.010086338
223	0xbcbdde1d	-0.0231772
224	0xbbc726b7	-0.006077613
225	0x3cc99687	0.02460791
226	0xbc3673fe	-0.011136053
227	0x3c8e19e5	0.017346332
228	0xbd25abb8	-0.040446967
229	0xbbe9a6bb	-0.0071304715
230	0xbc2b3dcd	-0.010451746
231	0xbb744a2d	-0.0037275658
232	0xbd058dba	-0.032605864
233	0x3d3e24f4	0.04642196
234	0xbcb90e72	-0.022589896
235	0xbcac902b	-0.021064838
236	0xbc94c678	-0.018161044
237	0xbc9ea9ea	-0.01936813
238	0x3d0e6134	0.03476067
239	0xbc8d78ab	-0.017269453
240	0xbd3c072c	-0.045905277
241	0xbe25fc98	-0.16209638
242	0xbca89aca	-0.020581622
243	0xbd868efc	-0.06570241
244	0xbd2b29b4	-0.041787818
245	0xbc218085	-0.009857302
246	0xbc89c443	-0.016817218
247	0xbd0f86ee	-0.03504079
248	0xbb861ab2	-0.004092538
249	0xbb8f775f	-0.004378244
250	0xbd68af61	-0.05680788
251	0xbd36c3c4	-0.04462029
252	0xbb6269c7	-0.0034547911
253	0xbb7b68a4	-0.0038361931
254	0xbd057576	-0.032582723
255	0xbd42850f	-0.047490176

network_body._body_endoder.seq_layers.2.weight f4 [256, 256]
0	0xbdb6ef50	-0.08932364
1	0x3ca362b3	0.019944524
2	0x3cb310d8	0.021858618
3	0xbdc606a0	-0.09669232
4	0xbd24a989	-0.040200744
5	0xbd3cbd1d	-0.04607879
6	0xbc702efc	-0.014659639
7	0x3c6d181e	0.014471082
8	0xbd3e2455	-0.046421368
9	0xbb8e4189	-0.0043413085
10	0xbcc2f0c6	-0.02379645
11	0x3d2e8e38	0.0426161
12	0x3c9653a6	0.018350434
13	0x3e2bb163	0.16766886
14	0xbad553c3	-0.0016275573
15	0xbbca8945	-0.0061809146
16	0xbe41f9e4	-0.18942982
17	0xbcf23321	-0.029565396
18	0xbcaaca7f	-0.02084851
19	0x3a107afc	0.000551149
20	0x3d2e6e16	0.042585455
21	0x3c4f6ac5	0.012659733
22	0x3cf9e889	0.03050639
23	0x3dbe7da0	0.09301305
24	0x3c45d2fe	0.01207423
25	0x3d4784e2	0.04871071
26	0xbbeef41b	-0.0072922832
27	0xbdf2e61c	-0.11860296
28	0x3dd538ff	0.10411262
29	0xbd20129a	-0.03908024
30	0xbdc929d6	-0.09822433
31	0x3b59b343	0.003321842
32	0x3e1eca6e	0.15506908
33	0x3de64c77	0.11245053
34	0x3d35e421	0.044407014
35	0x3d970bb0	0.07375276
36	0xbc49dd7d	-0.012320873
37	0x3d23b88b	0.039970916
38	0x3b5e018f	0.003387544
39	0xbce0c658	-0.027438328
40	0xbdd3a1cf	-0.10333597
41	0x3b1c2509	0.0023825786
42	0xbbbc8de6	-0.0057542203
43	0x3a9e9a1f	0.0012100375
44	0x3ccd86c3	0.025088673
45	0xbd4a0578	-0.04932162
46	0xbdbb378f	-0.09141456
47	0xbd62a66a	-0.055334486
48	0x3d33acb3	0.04386587
49	0xbc2d39d9	-0.010572874
50	0x3c27da47	0.0102449125
51	0xbdc188b5	-0.09449903
52	0xbc3852d1	-0.011250214
53	0xbd7925fb	-0.060827237
54	0xbd76801b	-0.060180765
55	0x3a1c1462	0.0005953965
56	0x3de89854	0.11357179
57	0xbd8285e2	-0.06373192
58	0x3cf9e2cf	0.030503659
59	0xbd24c49f	-0.040226575
60	0xbc85f6bd	-0.016353006
61	0x3cb8d370	0.022561759
62	0xbd58ac81	-0.052898888
63	0xbd468c5d	-0.048473705
64	0xbc937822	-0.01800162
65	0x3d9bb4ca	0.07602842
66	0xba1b7b53	-0.00059311575
67	0xbcfc0706	-0.030765068
68	0x3cb871d4	0.022515215
69	0xbd1dac5f	-0.038494464
70	0xbcd79698	-0.026316926
71	0x3d01ba64	0.031671897
72	0x3d1b4af2	0.03791327
73	0x3cf3fa1d	0.02978235
74	0xbda78b9b	-0.081809245
75	0xbbaeaebf	-0.00533089
76	0x3c956b53	0.018239653
77	0x3d11028a	0.035402812
78	0xbe248a79	-0.16068448
79	0xbca36b7f	-0.01994872
80	0x3d434fa1	0.047683362
81	0xbcf84d50	-0.030310303
82	0x3d368d0c	0.044568107
83	0x3d5989d7	0.05310997
84	0xbd2559f7	-0.040369
85	0x3d3533d4	0.04423888
86	0xbcc13f4f	-0.023589758
87	0xbdb38171	-0.08764923
88	0x3c939093	0.018013274
89	0xbcc64ddf	-0.024207054
90	0x3d8b990e	0.06816302
91	0x3da81e67	0.08208924
92	0xbd0744ca	-0.033024587
93	0x3d208635	0.03919049
94	0xbd79f5d6	-0.061025463
95	0x3d7df76c	0.062003538
96	0xbdbb13bf	-0.09134626
97	0xbd136b49	-0.035990987
98	0xbc103447	-0.008801526
99	0xbe0f709f	-0.14007805
100	0xbccfd8f1	-0.025372
101	0xbd527122	-0.051377423
102	0x3c7ca5e9	0.015420415
103	0x3c996b98	0.018728063
104	0xbdf54b97	-0.11977308
105	0x3cec8c3e	0.028875466
106	0x3dc0d9c1	0.09416533
107	0x3cb514b5	0.0221046
108	0x3d2c0ee2	0.04200638
109	0x3da5d72e	0.08097683
110	0xbd0312f0	-0.032000482
111	0x3d0570bd	0.03257822
112	0xbb7607a0	-0.0037541166
113	0x3cacfe92	0.021117482
114	0x3d6e3343	0.058154356
115	0xbd8e0b9b	-0.06935807
116	0x3ca7ebb2	0.02049813
117	0x3dd0a394	0.1018745
118	0xbc8e738f	-0.017389087
119	0x3d988297	0.07446783
120	0x3d2f8dcb	0.042859834
121	0x3df2ca10	0.118549466
122	0xbc3885d1	-0.011262373
123	0xbd2d4ee6	-0.04231157
124	0xbc4bc4c0	-0.012437046
125	0x3c786293	0.015160221
126	0xbd3e3080	-0.046432972
127	0x3debd902	0.11516
128	0xbcfd64d2	-0.030931864
129	0x3b6348a2	0.0034680744
130	0x3d33e449	0.04391888
131	0xbc8781b5	-0.016541341
132	0xbd81d5c9	-0.063396044
133	0xbd1e5380	-0.03865385
134	0xbcfc8349	-0.03082432
135	0x3cfbbd87	0.030730022
136	0xbe0d3309	-0.13789
137	0x3cc23dac	0.023711048
138	0x3d27183b	0.040794592
139	0x3e0cc4f2	0.13747004
140	0xbc5e408f	-0.013565197
141	0xbc95cc8a	-0.018286008
142	0x3cb9e072	0.022690032
143	0x3e0ac989	0.13553442
144	0x3e2ab67d	0.16671176
145	0xbd869ac1	-0.06572486
146	0xbd611153	-0.054948162
147	0x3d29338d	0.04130893
148	0xbd9c6948	-0.07637268
149	0x3d347c38	0.044063777
150	0x3d0ce45c	0.034397468
151	0xbd836443	-0.06415608
152	0xbcff8494	-0.031191148
153	0x3db8f335	0.09030763
154	0x3d7fb83a	0.06243155
155	0x3d443290	0.047899783
156	0x3d1b8261	0.037966136
157	0xbd673a64	-0.05645217
158	0xbd6818df	-0.056664344
159	0x3cd74d24	0.0262819
160	0x3c98c3b3	0.018648004
161	0x3d41ec86	0.047344707
162	0x3df14acc	0.117818445
163	0xbcf2878c	-0.02960565
164	0xbbc97707	-0.0061482224
165	0x3d277211	0.040880267
166	0xbac3e75f	-0.0014946273
167	0x3d81a95a	0.06331129
168	0xbca54523	-0.020174569
169	0xbba2978a	-0.0049619125
170	0x3cc405a4	0.02392847
171	0x3d50e365	0.05099811
172	0x3dd3339c	0.10312578
173	0x3cb46bbd	0.02202403
174	0x3db58f4e	0.08865224
175	0xbbe318ed	-0.0069304616
176	0x3dd57265	0.1042221
177	0xbcc50fa1	-0.024055304
178	0xbc8c3ddc	-0.01711934
179	0xbc51da1f	-0.012808352
180	0x3aeb4f5e	0.001795273
181	0xbc7da9f2	-0.015482413
182	0xbd78ba6f	-0.060724672
183	0x3ca77989	0.020443695
184	0x3d9df848	0.077133715
185	0xbbf90cb2	-0.0076003904
186	0x3d88e639	0.066845365
187	0x3ca4a8e5	0.020100066
188	0x3d927624	0.0715144
189	0x3c7531a9	0.014965453
190	0x3c1bd682	0.009511592
191	0x3e093f27	0.13402997
192	0x3c54f52e	0.0129979085
193	0x3e1cf648	0.15328324
194	0xbbc6d3b5	-0.006067718
195	0x3d49141c	0.049091443
196	0x3d11bbe2	0.03557957
197	0x3d732a28	0.059366375
198	0xbd92aaf5	-0.07161514
199	0xbc0d356a	-0.008618692
200	0x3c9f5475	0.019449452
201	0x3d4560ce	0.048188023
202	0xbc367999	-0.01113739
203	0xbdad7d7f	-0.08471202
204	0xbcd7a162	-0.02632207
205	0x3d7d0d2f	0.06178015
206	0xbd03f75b	-0.03221832
207	0x3d46a54f	0.048497494
208	0xbcd6c57e	-0.026217218
209	0x3db5466b	0.08851322
210	0xbd2294ba	-0.039692618
211	0x3c366c3d	0.011134204
212	0x3ce52a01	0.02797413
213	0x3c1d2016	0.009590169
214	0xbdaaeaf4	-0.08345595
215	0xbd4b65e1	-0.049657706
216	0x3d722a21	0.05912221
217	0xba2fd1b3	-0.0006706968
218	0xbd0f877a	-0.03504131
219	0xbd1742b0	-0.036928833
220	0x3d02f6af	0.031973537
221	0x3d606edb	0.05479322
222	0xbdda1ce9	-0.106500454
223	0x3d9c1ff3	0.07623281
224	0x3c3c6e4f	0.011500909
225	0x3d25b866	0.04045906
226	0xbd8c0e2b	-0.0683864
227	0x3d7f98a0	0.062401414
228	0x3cf2d776	0.029643755
229	0xbaecc445	-0.0018063864
230	0x3d87ba4f	0.066273324
231	0x3e07a444	0.13246256
232	0x3cf7d2df	0.030251918
233	0xbc2bd34c	-0.010487389
234	0x3b27529d	0.002553142
235	0x3c074830	0.008256957
236	0xbcbdcf4e	-0.02317014
237	0xbdfad625	-0.12247876
238	0x3d172bc2	0.036906965
239	0x3dbe347f	0.092873566
240	0x3d12cb49	0.0358384
241	0xbd94401b	-0.0723879
242	0xbd8439c8	-0.064563334
243	0x3cca470d	0.024692083
244	0xbd4bf8e4	-0.049797907
245	0xbc4cc30e	-0.012497677
246	0xbd859c8b	-0.06523999
247	0x3d5880e7	0.052857306
248	0xbd8c4858	-0.06849736
249	0xbd0bbe2b	-0.034116905
250	0x3bdeeeb3	0.0068033575
251	0x3c88617c	0.016648047
252	0xbd17bdb8	-0.037046164
253	0xbd88f069	-0.066864796
254	0x3db9486f	0.09047019
255	0x3dc4ce56	0.09609668

network_body._body_endoder.seq_layers.2.bias f4 [256]
0	0xbb32caab	-0.0027281444
1	0xbce4273f	-0.027850745
2	0x3ce6f590	0.028193265
3	0xbbf384bb	-0.007431594
4	0xbcac10d0	-0.02100411
5	0xbb99307a	-0.0046749683
6	0xbca5f879	-0.020260083
7	0xbcf0f6a5	-0.029414484
8	0x3aa1048c	0.001228468
9	0xbcb13a6c	-0.021634303
10	0xbc524a55	-0.012835105
11	0xbcd24afe	-0.025670525
12	0xbd10d764	-0.035361663
13	0xbc853e08	-0.01626493
14	0xbc8632bc	-0.016381614
15	0xbc70ed2a	-0.014704982
16	0x3c1ad1aa	0.009449402
17	0xbc82f54c	-0.015986107
18	0xbca5bab3	-0.020230627
19	0xbcddb128	-0.027062014
20	0x39b44de9	0.00034390323
21	0xbc4b8fcd	-0.0124244215
22	0xbb3836dd	-0.0028108873
23	0xbb801e3d	-0.0039098547
24	0xbb679d19	-0.003534144
25	0xbc50ee5a	-0.01275214
26	0xbca742f9	-0.020417677
27	0xbc02b3a3	-0.007977399
28	0x3c1e733b	0.009671028
29	0xbcae5ab0	-0.021283478
30	0x3c42fc61	0.011900992
31	0xbc9214ea	-0.017832238
32	0xbbf89113	-0.0075856536
33	0x3ae804d7	0.0017701638
34	0x3b72c655	0.0037044485
35	0xbc9e27be	-0.01930606
36	0x3a392cb2	0.000706385
37	0x3bdc4cac	0.006723007
38	0xbcc1399b	-0.023587039
39	0xbc8850f1	-0.016640158
40	0xbd1750ff	-0.03694248
41	0x3743ad68	1.166328e-05
42	0xbcdcc1b4	-0.026947834
43	0xbc1d2f76	-0.009593835
44	0xbc216a3d	-0.009851989
45	0x3b874665	0.0041282647
46	0xbb894d2f	-0.004190109
47	0xbb05e18c	-0.0020428626
48	0xbcf011d6	-0.02930538
49	0x3c954d41	0.018225314
50	0xbbd85492	-0.0066018784
51	0xbcba3bfe	-0.022733685
52	0xbb6c13bb	-0.0036022502
53	0xbc7a6f3d	-0.01528531
54	0x3b8db1e5	0.004324185
55	0xbc830eb6	-0.015998226
56	0xbba95b68	-0.005168367
57	0xbb81d88a	-0.003962581
58	0xbc2a7912	-0.010404842
59	0xbd2355e2	-0.039876826
60	0xbc3cce1d	-0.011523751
61	0xbccc10e7	-0.024910403
62	0xbcf20ce1	-0.029547157
63	0xba7e1203	-0.0009692015
64	0x3b68d016	0.003552442
65	0xbc856cba	-0.016287196
66	0xbc8f3cd9	-0.01748507
67	0xbc7ec8e4	-0.015550826
68	0x3c9f36bf	0.019435285
69	0x3c1b6a8a	0.00948585
70	0xbcf5e304	-0.030015476
71	0xbb5373ef	-0.0032265147
72	0xbd38bec9	-0.045103822
73	0xbc9476a2	-0.018122975
74	0xbc2ed2a5	-0.010670339
75	0x3b89ca21	0.004205004
76	0xbce41fee	-0.027847257
77	0xbc95a72c	-0.01826819
78	0xbc775dc4	-0.015098039
79	0xbce6046b	-0.028078279
80	0xbc082107	-0.008308656
81	0xbc3e4b57	-0.011614642
82	0xbc48add2	-0.012248473
83	0xbc69cfc9	-0.014270731
84	0xbcad232a	-0.021134932
85	0xbcc46abc	-0.023976676
86	0xbc4bbf37	-0.012435726
87	0x3c474e15	0.012164612
88	0xbce3e4b6	-0.027819019
89	0x3bb6f0a0	0.005582884
90	0xba35eb5e	-0.00069396745
91	0xbc34682f	-0.011011167
92	0xbc44e075	-0.012016405
93	0xbc979a99	-0.018506335
94	0x3b1427da	0.0022606761
95	0xbd189a31	-0.037256423
96	0xbc9bb75c	-0.019008331
97	0xbc79ac92	-0.015238898
98	0xbcd919b4	-0.026501514
99	0xbc24cc6a	-0.010058502
100	0xbc6be4fd	-0.014397857
101	0x3bb23163	0.0054380163
102	0xbcb28fbb	-0.021797052
103	0x3c22da33	0.009939718
104	0xbc880fac	-0.016609035
105	0xbc51cd1b	-0.012805249
106	0xbc0ed06f	-0.008716687
107	0x3ac029ff	0.0014660953
108	0xbcd14f4a	-0.025550503
109	0xbc0efb78	-0.008726947
110	0xbd5b9d40	-0.053616762
111	0xbcb32c30	-0.021871656
112	0x3bd5e81a	0.006527913
113	0xbb64b766	-0.0034899353
114	0x3a1d090b	0.0005990422
115	0xbcb48bcb	-0.022039315
116	0xbd08c374	-0.033389524
117	0xbd0e11e2	-0.034685023
118	0xbbe8d4ed	-0.007105461
119	0xbc427278	-0.011868112
120	0xba3f57bd	-0.0007299146
121	0x3c2d59dd	0.010580507
122	0xbca97d85	-0.020689735
123	0xbc5536bf	-0.013013541
124	0xbb6282f6	-0.0034562922
125	0xbd14f6e2	-0.03636826
126	0x3bca8a6e	0.006181053
127	0xbd4b31e5	-0.04960813
128	0x3c6097b0	0.01370804
129	0x3c4be159	0.012443864
130	0xbca44155	-0.020050684
131	0xbbbc88e0	-0.0057536215
132	0x3ba07c5c	0.0048976373
133	0xbc2a19ee	-0.010382159
134	0xbc9c7c22	-0.01910216
135	0xbc11d65d	-0.008901206
136	0xba5ebbc4	-0.0008496607
137	0xbc2d77b6	-0.010587623
138	0xbc342fa8	-0.01099769
139	0xbc903896	-0.017605107
140	0xbc5efd9e	-0.013610272
141	0xbacf23c6	-0.0015803508
142	0x3b41aaa6	0.0029551177
143	0xbcc28501	-0.023745062
144	0x3b7f4d9d	0.0038956173
145	0xbca39e3f	-0.019972919
146	0x3b801aa5	0.0039094263
147	0xbcb1b6a3	-0.021693533
148	0x3bd51cc8	0.006503675
149	0xbd1b33fb	-0.03789137
150	0xbbed60bd	-0.007244198
151	0xbc65b4ee	-0.014020188
152	0x3c7cfda7	0.015441335
153	0xbbf1ce5c	-0.0073793363
154	0xbc834c41	-0.016027572
155	0xbb8150d5	-0.0039464035
156	0xbbcf2db3	-0.0063225864
157	0xbc209a88	-0.009802468
158	0xbcb76d41	-0.022390964
159	0xbc160f66	-0.009158945
160	0xbcd1d62c	-0.02561482
161	0xbc8c2349	-0.017106669
162	0xbc753b72	-0.014967786
163	0xbcb6f0ed	-0.02233168
164	0x3c88cd6f	0.01669952
165	0xbc81325e	-0.015771087
166	0xbcb188f9	-0.021671759
167	0xbbd3eb29	-0.0064672423
168	0xbb8ae01e	-0.0042381426
169	0xbcc38c06	-0.02387048
170	0xbd056554	-0.032567337
171	0xbca29b27	-0.019849373
172	0xbb264533	-0.0025370836
173	0xbcabd103	-0.020973688
174	0xbc780c6c	-0.01513968
175	0xbbd65bc3	-0.0065417006
176	0xbd1b5e15	-0.03793152
177	0xbc939953	-0.018017447
178	0xbce0d81f	-0.027446805
179	0xbd05d884	-0.03267719
180	0xbc1ae246	-0.009453362
181	0xbbf1944b	-0.007372414
182	0x3c80b152	0.015709553
183	0xbd06ceb4	-0.03291197
184	0x3bc58f5e	0.0060290536
185	0xbc102343	-0.00879747
186	0xbbf92823	-0.0076036616
187	0xbc70558b	-0.0146688325
188	0xbc43fa42	-0.011961522
189	0x3b11a943	0.0022226132
190	0xbc5a26e1	-0.0133149335
191	0xbc5ec6ef	-0.013597234
192	0xbc107290	-0.008816376
193	0xbc0b20c5	-0.0084917
194	0x3b8995e0	0.0041987747
195	0x3ca2470b	0.019809267
196	0xbbd26cbf	-0.006421655
197	0x3cb1f274	0.021722056
198	0xbc5d2ac4	-0.013498966
199	0x3b0d5b62	0.002156936
200	0xbcab2305	-0.020890722
201	0xbd0d7b80	-0.034541607
202	0xbc58d6f7	-0.013234845
203	0xbcc50f6d	-0.024055207
204	0xbc6af1bf	-0.014339863
205	0xbd14df43	-0.03634573
206	0xbc370ee3	-0.011172983
207	0xbc7c463f	-0.015397607
208	0x3ac6121d	0.0015111599
209	0xbc8f89e3	-0.017521804
210	0xbbb3f97b	-0.005492387
211	0xbd11f977	-0.0356383
212	0xbc57e1c8	-0.013176389
213	0xbb9f29d5	-0.0048572817
214	0xbc825c90	-0.015913278
215	0xbc6598d2	-0.014013486
216	0xbcfffca7	-0.031248404
217	0x3b35c705	0.0027737033
218	0x3c3d4884	0.011552934
219	0xbb4eb2bc	-0.003153964
220	0xbc173758	-0.009229504
221	0xbc8df375	-0.017328003
222	0xbcb4a894	-0.02205304
223	0xbd143385	-0.036181945
224	0xbd146ad2	-0.036234684
225	0xbc5389bc	-0.012911256
226	0xbcbe12b6	-0.023202281
227	0xbc61ef18	-0.013789915
228	0xbc7729fa	-0.015085692
229	0xbbf08fe8	-0.0073413737
230	0xbcb5d116	-0.022194427
231	0xbc776e0f	-0.015101924
232	0xbb386443	-0.0028135933
233	0x3c03e3c3	0.008049908
234	0xbcd7680c	-0.02629473
235	0xbc9d3460	-0.019190013
236	0x3ad14bac	0.0015967987
237	0x3bf37d39	0.007430699
238	0xbc9ae02c	-0.018905722
239	0x3c222b80	0.0098980665
240	0xbc3d0a14	-0.011538047
241	0xbd08a9b8	-0.03336498
242	0xbcde731c	-0.027154498
243	0xbcf69ce5	-0.03010411
244	0xbc1b9ae5	-0.009497379
245	0xbc04377a	-0.008069867
246	0xbca3734b	-0.019952437
247	0xbc86faca	-0.016477007
248	0xbcb20e39	-0.021735298
249	0xbc5e480c	-0.013566982
250	0xbcb5e326	-0.02220304
251	0xbc00e69b	-0.007867481
252	0x3c56cb5c	0.013110008
253	0xbbc87481	-0.006117404
254	0xbc4781a7	-0.012176908
255	0x3b2079ea	0.002448673

action_model._discrete_distribution.branches.0.weight f4 [3, 256]
0	0x3cc276bc	0.023738258
1	0xbc877df5	-0.016539553
2	0x3c9863db	0.018602302
3	0x3c924d98	0.017859265
4	0xbc600192	-0.013672249
5	0x3af9a7c4	0.001904719
6	0x3bd7083e	0.006562262
7	0xbbbd8c35	-0.0057845362
8	0x3d2d676b	0.042334955
9	0x3c4482b7	0.0119940555
10	0x3d440989	0.047860656
11	0xbc98f101	-0.018669607
12	0xbb8f9c2b	-0.0043826303
13	0xbcc3f7ba	-0.023921836
14	0x3cd101bc	0.025513522
15	0xbb5e4ec5	-0.0033921462
16	0xbcf32908	-0.029682651
17	0x3c097089	0.008388647
18	0x3cec7fd0	0.02886954
19	0x3b8b85a1	0.004257873
20	0xbbce4552	-0.0062948847
21	0xbbf3e1c2	-0.007442684
22	0xbb073ba1	-0.0020634907
23	0xbc0d8c3f	-0.008639394
24	0xbcfec20c	-0.031098388
25	0x3c7a469c	0.015275624
26	0xbcbdcbd7	-0.023168487
27	0x3c6a4b4d	0.01430018
28	0xba71dc6d	-0.00092262664
29	0xbc8ce5c3	-0.017199403
30	0xbc3d8ed5	-0.011569698
31	0x3c08bb30	0.00834541
32	0x3c8c54e5	0.017130325
33	0x3d17a9ed	0.03702729
34	0xbc849f2a	-0.016189177
35	0xbc82222c	-0.015885435
36	0x3d0f8d22	0.035046704
37	0x3b882ab2	0.0041554803
38	0xbcffb533	-0.031214332
39	0x3c0e807b	0.008697624
40	0xbc8ed16a	-0.01743384
41	0x3ce581db	0.028016021
42	0x3b6c7d7f	0.0036085544
43	0xbc7c7920	-0.015409738
44	0x3c924d20	0.017859042
45	0xbcdf11b0	-0.027230114
46	0x3cfd9eef	0.030959575
47	0x3cc984f9	0.02459954
48	0x3c9c380f	0.0190697
49	0xbbba5563	-0.0056864484
50	0xbd0eae23	-0.03483404
51	0x3c85bd1e	0.01632553
52	0xbc252f38	-0.010082059
53	0x3c4b5524	0.012410436
54	0xbd1a6263	-0.037691485
55	0x3d181f5f	0.037139293
56	0xbc50daa1	-0.012747438
57	0xbca9e575	-0.020739296
58	0x3cf1b4ba	0.029505122
59	0xbc0fea89	-0.008783945
60	0x3d11807d	0.035522927
61	0x3c6a8ddc	0.0143160485
62	0x3cec60a5	0.028854677
63	0x3ce21e33	0.02760229
64	0x3c8b7941	0.017025592
65	0xbcabd852	-0.020977173
66	0xbc97315f	-0.01845616
67	0x3cf1e65c	0.02952879
68	0x3c1bcbe9	0.009509065
69	0x3d052be6	0.032512568
70	0xbb9b2ee6	-0.0047358153
71	0xbbd17e3d	-0.0063932226
72	0xbc4e129c	-0.012577679
73	0x3c8937e7	0.01675029
74	0xbcb27031	-0.021782013
75	0xbc33c931	-0.010973261
76	0xbb5addef	-0.0033396443
77	0x3c914719	0.017734097
78	0xbc428c52	-0.011874275
79	0x3cdaddc4	0.026717074
80	0xbccd931e	-0.025094565
81	0x3d305b5c	0.043055877
82	0xbc86f60d	-0.016474748
83	0xbc532b5a	-0.012888754
84	0xbcfe3056	-0.031028908
85	0x3874b652	5.8343932e-05
86	0x3c6a1017	0.014286063
87	0x3be78fc9	0.007066701
88	0x3c2f982b	0.010717432
89	0x3d16752c	0.036732838
90	0x3d496b4f	0.049174603
91	0xbcf73d92	-0.030180726
92	0xbc12143c	-0.008915957
93	0xbbdfc6dd	-0.0068291263
94	0xbcc7ebdc	-0.024404459
95	0xbb802cf9	-0.003911611
96	0x3cf200e1	0.029541435
97	0x3b79070f	0.0037998592
98	0xbc365fb9	-0.0111312205
99	0xba61a9e9	-0.00086083874
100	0x3beb4c7a	0.0071807476
101	0x3c9dee86	0.019278776
102	0x3bac96ef	0.005267016
103	0x3bb4fe5e	0.005523487
104	0xbb55cafd	-0.003262221
105	0x3c9350c6	0.017982852
106	0xbbfd96c2	-0.007738919
107	0x3ccbbeca	0.024871249
108	0x3d04b975	0.032403428
109	0x3c92be81	0.017913105
110	0x3d173a75	0.036920983
111	0x3cbd20b6	0.023086887
112	0xbb23abb1	-0.0024974162
113	0x3d2765cf	0.040868577
114	0xbc2a4074	-0.010391343
115	0x3b59ad1e	0.0033214758
116	0xbbf83199	-0.007574272
117	0xbc6bb579	-0.014386528
118	0xbc926d84	-0.017874487
119	0x3c743673	0.01490556
120	0xbcbc2a7e	-0.02296948
121	0x3bafd66b	0.005366137
122	0x3c3c3dcd	0.011489344
123	0xbcb60fee	-0.022224393
124	0xbd07a375	-0.03311487
125	0xbca57412	-0.020196948
126	0x3ca29840	0.01984799
127	0x3c90fb3e	0.017697927
128	0x3bc30d21	0.005952493
129	0xbcd18e79	-0.025580632
130	0x3c10d29d	0.008839277
131	0xbd0b4295	-0.033999044
132	0xbaec10f8	-0.0018010428
133	0xbd07cd95	-0.033155043
134	0xbc65d11f	-0.014026909
135	0xb893c3c9	-7.045974e-05
136	0x3c0efdf8	0.008727543
137	0xbcc0923e	-0.023507234
138	0xbcd45e9a	-0.025924016
139	0x3ca41f6a	0.02003451
140	0x3d2c97fd	0.042137135
141	0xbc288833	-0.010286379
142	0xbb88c8f5	-0.0041743466
143	0x3af3a1c8	0.0018587643
144	0x3ce3c77f	0.027805088
145	0x3c89f802	0.016841892
146	0xbcc21a77	-0.02369426
147	0x3cedada4	0.029013462
148	0xbaf02255	-0.0018320779
149	0x3c045dfa	0.008079046
150	0x3d02675d	0.031836856
151	0x3c58ab01	0.013224364
152	0x3bcfa5a1	0.006336883
153	0x3cc6aebd	0.024253244
154	0xbbd846de	-0.006600245
155	0xbc5f3c5a	-0.013625229
156	0x3caf797e	0.021420237
157	0xbb8f5876	-0.004374559
158	0x3bd2844c	0.0064244624
159	0x3b8730ba	0.0041256817
160	0xbca93a8c	-0.0206578
161	0x3c8d20f8	0.017227635
162	0xbc752123	-0.014961514
163	0x3d145169	0.03621045
164	0x3ca1d50a	0.019754905
165	0xbcaa7822	-0.020809237
166	0xbac33350	-0.0014892612
167	0x3cab482a	0.020908434
168	0xbbe5c300	-0.007011771
169	0x3c82be15	0.015959779
170	0xbc89cabd	-0.016820306
171	0x3cff25f6	0.03114603
172	0x3bb0d44c	0.0053964015
173	0x3cf7b82a	0.030239183
174	0x3d072ea4	0.033003464
175	0x3cdf1b29	0.02723463
176	0x3cdf8152	0.027283344
177	0xbb3bf34f	-0.0028678959
178	0x3cc36504	0.023851879
179	0xbcce6749	-0.025195735
180	0xbc4cf5b8	-0.012509756
181	0xbc900456	-0.017580193
182	0xbcf24ea0	-0.029578507
183	0x3c770f58	0.015079342
184	0x3baaddb5	0.005214418
185	0xbd4633ef	-0.04838937
186	0x3c9719a0	0.018444836
187	0x3cdfe851	0.027332457
188	0xbc9f70d3	-0.019462978
189	0xbcb7837f	-0.02240157
190	0x3a8b8ab8	0.00106462
191	0x3c3f7e88	0.011687882
192	0x3b602159	0.0034199564
193	0x3bd36950	0.006451763
194	0x3c833e32	0.016020868
195	0xbb4e3b3d	-0.0031468414
196	0x3ceecd36	0.029150587
197	0x3c0d1010	0.008609787
198	0xbc996472	-0.018724654
199	0x3c38c09c	0.01127639
200	0xba9f8af5	-0.001217215
201	0xba9fa399	-0.0012179493
202	0x3d1a6bb2	0.037700363
203	0xbc8bec61	-0.017080488
204	0x3caa3024	0.020774908
205	0xbc35b507	-0.011090524
206	0x3c41d5fd	0.011830804
207	0xba85171a	-0.001015398
208	0x3d46d2a7	0.048540737
209	0x3b3674c9	0.0027840605
210	0xbca02cdd	-0.019552642
211	0x3d5d370e	0.054007582
212	0xbc3ec361	-0.011643262
213	0xbcc9dd5b	-0.024641683
214	0x3cb59e08	0.022170082
215	0x3c6a70f1	0.014309154
216	0x3cd645f7	0.026156409
217	0x3cc40f76	0.023933154
218	0xbd012e0d	-0.031538058
219	0x3cd1be63	0.025603479
220	0x3d0755ba	0.03304074
221	0xbc00d523	-0.007863316
222	0x3c541a9f	0.0129458
223	0xb8c31202	-9.301679e-05
224	0x3d0ba77b	0.03409527
225	0x3ca2f14b	0.019890448
226	0x3d105054	0.035232857
227	0x3ba118ef	0.0049163024
228	0xb9932c2c	-0.00028070936
229	0xbcdc94f6	-0.026926499
230	0xbb0499de	-0.0020233314
231	0xbbf9d8fa	-0.0076247426
232	0x3cb6d196	0.022316735
233	0x3be2b7bd	0.006918876
234	0x3cc26527	0.023729874
235	0xbb916e74	-0.004438216
236	0xbc30b7c6	-0.0107860025
237	0x3d168b48	0.036753923
238	0x3d01aeba	0.031660773
239	0xbcb99dff	-0.022658346
240	0x3cd36310	0.025804073
241	0x3b55b3d8	0.0032608416
242	0xbbf8e933	-0.007596159
243	0xbc07c39e	-0.008286385
244	0xb9bdb6ef	-0.00036185185
245	0x3a59c800	0.00083076954
246	0x3c4afb3e	0.012389002
247	0x3c5730d9	0.013134205
248	0xbacc3b0a	-0.001558156
249	0x3c428dbf	0.011874615
250	0x3bd26b4b	0.0064214817
251	0xbc5f7db2	-0.013640808
252	0x3ca4933e	0.020089742
253	0x3c26f01f	0.010189085
254	0xbd136898	-0.03598842
255	0xbc2ed813	-0.010671633

action_model._discrete_distribution.branches.0.bias f4 [3]
0	0xbbbe0529	-0.005798955
1	0x3c0a9840	0.008459151
2	0x3b78589d	0.0037894615

action_model._discrete_distribution.branches.1.weight f4 [3, 256]
0	0xbc981d78	-0.01856874
1	0xbb245d03	-0.0025079853
2	0x3d33a9b8	0.04386303
3	0xbbec5192	-0.0072118724
4	0xbc1184d9	-0.008881771
5	0xbc30e2ba	-0.010796243
6	0x3cd1e410	0.025621444
7	0x3c711bfd	0.014716146
8	0xbb771d80	-0.0037706792
9	0xbd282275	-0.041048486
10	0x3c94a359	0.018144296
11	0x3c4602e4	0.01208565
12	0xbd75c99a	-0.060006715
13	0x3d1b77f5	0.037956197
14	0x3b1d93c8	0.0024044383
15	0x3d09dd0f	0.033658084
16	0xbca8d93c	-0.020611398
17	0xbd1f16c5	-0.038840074
18	0x3c070c1e	0.008242635
19	0xbd813762	-0.063093916
20	0x3cbf7844	0.023372777
21	0x3c4d1226	0.012516534
22	0xbd2ea240	-0.042635202
23	0xbcbce181	-0.023056747
24	0xbcaefb3a	-0.021360029
25	0x3cdf5303	0.027261263
26	0xbd2fdd70	-0.04293579
27	0xbd1a67a1	-0.037696484
28	0xbc53f280	-0.0129362345
29	0xbd4ed25b	-0.05049358
30	0x3ca40be4	0.020025201
31	0xbc8d069a	-0.017215062
32	0x3bbce176	0.0057641817
33	0x3ce51f59	0.02796905
34	0x3c2bebfd	0.010493276
35	0xbc8502c6	-0.016236674
36	0x3c186509	0.009301432
37	0x3cb0dc93	0.021589553
38	0xbcc4bd11	-0.024015935
39	0x3d077117	0.033066835
40	0xbd6f34b1	-0.05839986
41	0x3b86473c	0.0040978473
42	0x3d070243	0.03296114
43	0x3c15271e	0.009103565
44	0xbd157976	-0.036492787
45	0x3d14827f	0.036257263
46	0x3b93a5db	0.0045058555
47	0x3d352bd1	0.04423124
48	0xbd4e167a	-0.050314404
49	0xbcbc0bc5	-0.02295483
50	0x3cabd5e7	0.02097602
51	0xbd51265a	-0.051061966
52	0xbd1aa824	-0.037758008
53	0xbd7b5902	-0.06136418
54	0x3b7ccd5e	0.0038574557
55	0xbd738744	-0.05945517
56	0xbd78bf51	-0.06072933
57	0xbd120c43	-0.035656225
58	0xbcbec50f	-0.023287324
59	0xbd2e33aa	-0.04252974
60	0xbb8d32bb	-0.004309026
61	0xbd961997	-0.073290996
62	0xbbfe6322	-0.0077632824
63	0x3d042e1e	0.032270543
64	0x3c165058	0.009174429
65	0xbd08e775	-0.03342386
66	0x3ae27a69	0.0017278913
67	0xbc7bae6e	-0.0153614115
68	0x3babf88f	0.0052481364
69	0xbc5d5726	-0.013509547
70	0x3c13f13f	0.0090296855
71	0xbcd8d7bd	-0.02647006
72	0xba6926be	-0.00088940177
73	0x3c9c43ba	0.019075263
74	0x3c456ddf	0.012050121
75	0xbd70ff7a	-0.05883739
76	0x3c9f46fa	0.019443024
77	0xbb979dbb	-0.0046269572
78	0xbb6438aa	-0.0034823813
79	0xbccd49f5	-0.02505968
80	0x3b03643c	0.0020048758
81	0xbc0a47f0	-0.008440003
82	0xbc5ce1bb	-0.013481553
83	0xbc0a04ac	-0.008423965
84	0x3d02dc59	0.03194842
85	0x3c4e7e32	0.0126033295
86	0xbca34407	-0.019929899
87	0x3bc42a21	0.0059864675
88	0xbc4333ab	-0.011914174
89	0x3cdf0e5a	0.027228523
90	0xbc2a51ac	-0.010395449
91	0x3c465e75	0.012107481
92	0x3d2e37f8	0.042533845
93	0x3c8b87a8	0.01703246
94	0xbd28be87	-0.041197326
95	0x3cc37bcc	0.023862742
96	0xbd1db275	-0.038500268
97	0xbd6e1fc1	-0.05813575
98	0xbd57dc56	-0.052700363
99	0x3d0a0a04	0.033700958
100	0xbd203d40	-0.039120913
101	0xbcb51703	-0.0221057
102	0xbc4cd7d5	-0.01250263
103	0xbc9b2534	-0.018938638
104	0x3d355a5d	0.04427563
105	0x3c090a48	0.008364268
106	0x3cee5ec6	0.029097926
107	0x3c891674	0.01673434
108	0xbd01c931	-0.03168601
109	0xbd2ae7ca	-0.041724958
110	0xbc388add	-0.011263576
111	0xbc7f94ee	-0.015599472
112	0xba9a999e	-0.0011795049
113	0x3c036f9e	0.008022217
114	0x3cda663b	0.026660075
115	0xbcd558d9	-0.026043342
116	0xbd2a6e60	-0.041609168
117	0xbc09fe90	-0.008422509
118	0xbd28e0af	-0.0412299
119	0x3c5adf2a	0.0133588705
120	0x3cf69d7c	0.030104391
121	0x3d209ce4	0.039212123
122	0x3c477790	0.012174502
123	0x3ce3b145	0.02779449
124	0xbccb0fb6	-0.024787765
125	0xbca9afa3	-0.020713633
126	0x3c580003	0.013183597
127	0xbd1ce8b7	-0.03830787
128	0xbce3758a	-0.027766008
129	0xbd6ade5e	-0.057340972
130	0xbc13ea6c	-0.0090280585
131	0xbd105c27	-0.035244133
132	0x3cb00baf	0.021489946
133	0x3c660354	0.014038879
134	0xbcec89cb	-0.028874299
135	0x3cefff6c	0.0292966
136	0x3c758704	0.0149858035
137	0x3be85612	0.0070903385
138	0x3bb352a1	0.0054724966
139	0x3c45cac4	0.012072269
140	0xbbb69ea7	-0.005573112
141	0x3c8e6dc5	0.017386327
142	0x3cc71943	0.024304038
143	0xbc9821e7	-0.018570853
144	0xbc0bd05e	-0.008533565
145	0xbd0bb247	-0.034105565
146	0x3ab8e66d	0.0014106758
147	0xbd44eea5	-0.04807915
148	0xbd206618	-0.039159864
149	0xbc240168	-0.010010101
150	0xbcdca20b	-0.026932737
151	0x3a0ac6ca	0.0005293904
152	0x3d222524	0.0395862
153	0xbc4bf7c7	-0.012449211
154	0x3d0509f3	0.03248019
155	0x3d280838	0.041023463
156	0x39a28c97	0.00031003795
157	0x3d1aa8fa	0.037758805
158	0xbc573c65	-0.013136958
159	0xbcb2b925	-0.0218168
160	0x3cc24001	0.02371216
161	0xbb87fbdd	-0.0041498975
162	0x3c990363	0.018678373
163	0xb9a97ea0	-0.00032328535
164	0x3c882efe	0.01662397
165	0x3d2ecfc1	0.0426786
166	0xbcaaedc2	-0.020865325
167	0x3cb837c9	0.022487538
168	0xbaf6c94c	-0.0018828302
169	0xbc015f7a	-0.007896299
170	0xbcfe3bb9	-0.031034337
171	0x3cae071d	0.021243626
172	0x3c676df6	0.014125338
173	0x3cc7f536	0.024408918
174	0xbd1aa5a1	-0.037755612
175	0xbc9e826a	-0.019349296
176	0xbd437be9	-0.04772559
177	0xbd6b291e	-0.05741226
178	0xbcfafef8	-0.030639157
179	0x3c5d1d1c	0.01349571
180	0xbd15347e	-0.036427014
181	0xbc979c41	-0.018507125
182	0x3c801a0c	0.01563742
183	0x3c8d2a7d	0.017232174
184	0x3c88d599	0.016703414
185	0x3c7d42f6	0.015457859
186	0xbc88bca5	-0.016691515
187	0x3cba7d29	0.02276476
188	0x3c6efc67	0.014586545
189	0x3cf282ce	0.029603388
190	0xbd0a2117	-0.033722963
191	0xbc051a08	-0.008123882
192	0x3d4288b2	0.047493644
193	0x3c9be519	0.01903014
194	0x3cb3264b	0.021868845
195	0xbca0598c	-0.01957395
196	0xbb1132e1	-0.002215557
197	0x3d075c2d	0.03304689
198	0xbbc46140	-0.0059930384
199	0x393a0d21	0.00017743233
200	0x3d2934b4	0.041310027
201	0xbd2f09a7	-0.042733815
202	0xbc0367d6	-0.008020362
203	0xbc22060a	-0.009889135
204	0xbc6bb249	-0.014385768
205	0x3ba275a9	0.004957874
206	0x3c9b8383	0.018983608
207	0xbc00a12a	-0.0078509245
208	0xbc6f1001	-0.014591218
209	0xbd0a0338	-0.033694476
210	0x3bd23ac2	0.006415696
211	0xbd3e1d4c	-0.04641466
212	0xbd40ebe5	-0.047099967
213	0xbc16600f	-0.009178176
214	0xbca150b8	-0.01969181
215	0xbd01ebd4	-0.031719044
216	0xbd3f260e	-0.04666715
217	0xbd77f0e0	-0.06053245
218	0x3d219b1b	0.03945456
219	0xbd3644a9	-0.044499073
220	0xbc0ceb9d	-0.008601096
221	0x3cd5f9a1	0.026120009
222	0xbd578f8d	-0.052627135
223	0xbcc72754	-0.024310745
224	0xbc839df5	-0.01606653
225	0x3c98f278	0.018670306
226	0xbc638cf9	-0.013888591
227	0x3d44c54d	0.048039723
228	0xbcd9fb57	-0.026609106
229	0xbd1425b2	-0.03616876
230	0x3c8d092a	0.017216284
231	0xbd8b9838	-0.06816143
232	0xbd346eef	-0.044051107
233	0xbcff3907	-0.031155122
234	0x3b89a766	0.0042008637
235	0xbcef3482	-0.029199842
236	0xbcf820c0	-0.030289054
237	0xbc801baf	-0.0156382
238	0x3c2e4c89	0.010638365
239	0xbd01064e	-0.031500153
240	0xbd42d2f3	-0.047564458
241	0xbc061635	-0.0081840055
242	0xbd8a29cf	-0.067462556
243	0x3cf4068d	0.02978828
244	0x3ba218e3	0.0049468144
245	0xbd2fd176	-0.042924367
246	0xbcd51f85	-0.026016006
247	0xbce09366	-0.027414035
248	0xbc0deb57	-0.008662066
249	0xbd6c355c	-0.057668075
250	0xbd73b18d	-0.059495497
251	0xbd156aa8	-0.03647867
252	0xbc482192	-0.012215035
253	0x3cbae90f	0.02281621
254	0xbd01c058	-0.031677574
255	0x3cc38830	0.02386865

action_model._discrete_distribution.branches.1.bias f4 [3]
0	0x3d166269	0.036714945
1	0xbbddc990	-0.006768413
2	0xbcc5bb9b	-0.024137309

action_model._discrete_distribution.branches.2.weight f4 [2, 256]
0	0x3c052717	0.0081269955
1	0x3c6be47c	0.014397737
2	0x3ae29af8	0.0017288616
3	0xbb9faa15	-0.0048725703
4	0xbbdb09bf	-0.0066845114
5	0xbc3426d6	-0.010995587
6	0x3ca26059	0.019821333
7	0x3c817f47	0.01580776
8	0xbb6219b2	-0.003450018
9	0x3ca68e6a	0.02033158
10	0xbd0cc164	-0.03436412
11	0x3c1aed16	0.00945594
12	0xbbfbb701	-0.007681728
13	0xbb5307fa	-0.00322008
14	0x3c99178d	0.018687988
15	0x3cd408d2	0.025883112
16	0xbcfc104d	-0.030769492
17	0xbcead237	-0.028664691
18	0x3cc156bc	0.023600928
19	0xbbd313b3	-0.0064415573
20	0x3cd116a8	0.025523499
21	0xbb795047	-0.0038042234
22	0x3c99bdac	0.0187672
23	0xbd208bc0	-0.039195776
24	0xbcb2c9c4	-0.021824725
25	0x3d25118b	0.040299933
26	0xbc67a3dd	-0.014138189
27	0xbaa63010	-0.0012679119
28	0xbd02328a	-0.03178648
29	0xbc202f76	-0.009776941
30	0xbb811ff7	-0.003940578
31	0xbc797949	-0.015226671
32	0x3d016cbb	0.031597834
33	0xbc1a7c93	-0.009429115
34	0xbc8bb4de	-0.017054018
35	0xbcd09638	-0.025462255
36	0xbcbbf48b	-0.022943756
37	0xbd08567a	-0.033285595
38	0xbb944b90	-0.0045256093
39	0x3d000c84	0.031261936
40	0x3af6790e	0.0018804388
41	0x3c127c13	0.008940714
42	0x3d05d5be	0.032674544
43	0xbca0e6d7	-0.019641323
44	0xbbf318b7	-0.0074187177
45	0xbb2ac1ed	-0.002605553
46	0xbbb439a1	-0.005500034
47	0x3c2e1ec2	0.01062745
48	0x3c8507cf	0.016239075
49	0xbcdd2cd1	-0.02699891
50	0x3bb14847	0.0054102275
51	0xbcb17792	-0.02166346
52	0xbd113267	-0.035448458
53	0xba0d51ae	-0.00053908944
54	0xbcad827e	-0.021180388
55	0x3c897231	0.016778084
56	0xbce3a540	-0.027788758
57	0xbd0a2e8b	-0.033735793
58	0x3c70a5f8	0.0146880075
59	0xbc4f11e7	-0.012638546
60	0xbc8dd0fa	-0.017311562
61	0xbccdf492	-0.025141034
62	0x3ce6cc2f	0.028173534
63	0x3b330e51	0.0027321766
64	0x3cb738c0	0.022365928
65	0x3c9946b8	0.01871048
66	0xbca5af77	-0.02022527
67	0xbbb0de4d	-0.005397594
68	0xbc633b31	-0.013869093
69	0x3cb7b908	0.022427097
70	0xbcc43d45	-0.023954997
71	0xbcfb5f36	-0.030685049
72	0x3ba6feca	0.005096291
73	0x3c882ec7	0.016623868
74	0xbc1f0dd3	-0.009707886
75	0xbcd3c48e	-0.02585056
76	0x3bee0220	0.007263437
77	0x3d1636c8	0.036673337
78	0xbbc1966e	-0.005907825
79	0xbb3898b6	-0.0028167195
80	0xbcaf487b	-0.021396866
81	0x3c8765b5	0.01652799
82	0xbc0a0589	-0.008424171
83	0xbc13246c	-0.008980852
84	0x3c036ee7	0.008022047
85	0x3ca37d75	0.019957284
86	0x3bcf3d15	0.00632442
87	0x3c52eeb5	0.012874295
88	0x3c5d3ce5	0.013503288
89	0x3c7a903a	0.015293175
90	0xbbbc54ec	-0.005747428
91	0xbca2d548	-0.019877091
92	0x3cd2ead7	0.025746746
93	0x3c9248e8	0.01785703
94	0xbcded209	-0.027199762
95	0xbc13ea79	-0.009028071
96	0x3adb19f9	0.0016716114
97	0xbc7aff65	-0.01531968
98	0xbc92bc17	-0.017911954
99	0x3b2c6193	0.0026303276
100	0xbcd6a275	-0.026200512
101	0xbc7f71e2	-0.015591117
102	0x3cada715	0.021197835
103	0xbb9ab1f5	-0.004720921
104	0xbbc867bb	-0.0061158813
105	0x3b36a740	0.0027870685
106	0x3bc67b84	0.0060572047
107	0x3c0d2920	0.008615762
108	0xbc0d547f	-0.0086261025
109	0x3c8dbc7f	0.017301796
110	0x3c7f9f05	0.015601878
111	0x3d0fd7eb	0.035118025
112	0x3cb07242	0.021538857
113	0x3ae2011d	0.0017242763
114	0xbc89692f	-0.016773788
115	0x3c12ff73	0.008972037
116	0x3c0e04ba	0.008668119
117	0xbbe78ceb	-0.0070663593
118	0x3c4d661a	0.01253655
119	0x3d3635c5	0.044484872
120	0xbbe42506	-0.0069624214
121	0xbacfdca3	-0.0015858602
122	0xbc2b57db	-0.010457958
123	0x3a97fc9b	0.0011595668
124	0xbcc6b12f	-0.02425441
125	0xbc3b97f9	-0.011449807
126	0xbc98238d	-0.01857164
127	0xba8b566c	-0.0010630614
128	0xbcf6043e	-0.03003132
129	0xbcc3eb14	-0.023915805
130	0x3cab84c6	0.020937335
131	0xbbeddb1e	-0.007258787
132	0x3ceee88d	0.029163623
133	0xbc43efe3	-0.011959049
134	0x3c963f8c	0.018340848
135	0x3ccf5d1a	0.025312949
136	0x3c2caee6	0.010539746
137	0xbcb5defe	-0.022201058
138	0x3c27101c	0.010196712
139	0x3cd7409b	0.026275923
140	0x3d033073	0.032028627
141	0xbc02dbfe	-0.007987021
142	0x3c20dab5	0.009817769
143	0x3cafb1ea	0.02144714
144	0xba7fbb2a	-0.00097553676
145	0xbc7475aa	-0.014920631
146	0xbcb86c8e	-0.0225127
147	0xbc13294a	-0.008982012
148	0x3c8672fe	0.016412254
149	0xbbc00a8d	-0.0058606328
150	0x3bae9338	0.0053276084
151	0x3c5cfe97	0.013488433
152	0x3ba64b04	0.0050748605
153	0xbc59c0d2	-0.013290601
154	0x3c621367	0.013798571
155	0xbb32cd83	-0.002728314
156	0x3ce857e0	0.028362215
157	0xb8558f58	-5.0916657e-05
158	0x3c54c166	0.012985563
159	0xbc999e18	-0.018752143
160	0xbc9caddf	-0.019125877
161	0x3cab1748	0.020885125
162	0xbc942597	-0.01808433
163	0x3ce7356a	0.028223712
164	0xbbfd68c0	-0.0077334344
165	0x3c8bed1a	0.017080832
166	0xbc1047e1	-0.0088062
167	0xbc8ce882	-0.017200712
168	0xbc20a32b	-0.009804527
169	0x3cdbc76a	0.026828486
170	0x3af115c4	0.0018393327
171	0x3d2c22df	0.042025443
172	0xbced8457	-0.028993769
173	0x3d2adde7	0.04171553
174	0x3cee79a6	0.02911074
175	0x3c185be1	0.009299249
176	0x3c58b19a	0.013225937
177	0xbca1c48d	-0.019747043
178	0x3d0ae43e	0.033909075
179	0x3a9450bd	0.0011315566
180	0xbc81c98e	-0.01584318
181	0x3b6fe2ef	0.0036603769
182	0xbc37c0ad	-0.011215371
183	0x3bea7195	0.0071546533
184	0x3cddee29	0.027091103
185	0xbcfc6dea	-0.03081413
186	0x3c29a9a8	0.010355391
187	0x3be8eb21	0.0071081077
188	0xbc3a69bf	-0.011377751
189	0xbb8420d0	-0.004032232
190	0xbc83e5c3	-0.01610077
191	0xbc5e60fb	-0.013572927
192	0xbc2e5e24	-0.010642562
193	0x3c92a816	0.017902415
194	0xbc84117b	-0.016121617
195	0x3c1f9116	0.009739181
196	0xbc34b3f3	-0.011029231
197	0xbcccf5b1	-0.025019499
198	0xbcd94836	-0.02652369
199	0x3baeef21	0.005338565
200	0x3bc924b2	0.0061384076
201	0xbb056567	-0.002035463
202	0x3d2687b2	0.040656753
203	0xbc6ce762	-0.014459463
204	0x3a983e3c	0.0011615227
205	0xbc9479ba	-0.01812445
206	0x3cf16b14	0.029470004
207	0xbc5cb655	-0.013471206
208	0x3baceb72	0.0052770907
209	0xbd096250	-0.033541024
210	0xbb9d8525	-0.004807132
211	0x3b6d0cc3	0.0036170937
212	0xbd09da73	-0.033655595
213	0xbcca3bb5	-0.024686674
214	0x3c96ce80	0.018409014
215	0xbbcc0892	-0.0062266076
216	0x3b510ed1	0.00318997
217	0xbd00ce70	-0.031446874
218	0xbc96061b	-0.018313458
219	0xbcaa139a	-0.0207613
220	0x3c011b29	0.007880011
221	0x3b3b8097	0.002861058
222	0x3c8d7dc1	0.017271878
223	0xbc5f091c	-0.013613012
224	0x3cc23415	0.023706475
225	0x3cbc02f1	0.022950621
226	0x3d0b944e	0.03407698
227	0x3b4b6112	0.00310332
228	0x3b245745	0.002507643
229	0xbc9f7435	-0.019464592
230	0xbcaffaac	-0.021481834
231	0xbd4c3577	-0.049855676
232	0x3cc73ce5	0.024321029
233	0xbc9f046d	-0.01941129
234	0x3c3074c8	0.01077003
235	0x3cb80f6a	0.022468287
236	0x3b8ce2df	0.004299506
237	0xbb4ef908	-0.003158154
238	0x3cda951b	0.026682427
239	0xbcd2a1fd	-0.025712008
240	0x3aacbdee	0.0013179162
241	0xbba1754e	-0.004927314
242	0x3bd84eb2	0.006601178
243	0xbbab0582	-0.0052191624
244	0x3cf9f8ea	0.0305142
245	0xbc178f78	-0.009250514
246	0xbc062474	-0.008187402
247	0x3c443739	0.011976057
248	0x3cb8049a	0.022463132
249	0xbbebf21a	-0.0072004916
250	0x39f842d7	0.00047352046
251	0xbcf4000a	-0.029785175
252	0xbd182314	-0.037142828
253	0x3ca2d73d	0.019878024
254	0xbc7147a0	-0.014726549
255	0x3c0c3dfd	0.008559701

action_model._discrete_distribution.branches.2.bias f4 [2]
0	0x3c11ec53	0.008906442
1	0xbc11ec52	-0.008906441
