results/imi1/VacuumCleaner/VacuumCleaner-6144.onnx (onnx, 95028 bytes, 7 tensors)

network_body._body_endoder.seq_layers.0.weight f4 [128, 50]
0	0x3e8f5549	0.27994755
1	0xbda6d875	-0.08146755
2	0xbd7574ca	-0.05992583
3	0x3e9de358	0.30837512
4	0x3e4e8362	0.20167306
5	0xbd1e5678	-0.03865668
6	0x3b482620	0.0030540302
7	0x3d4ce9fb	0.05002783
8	0xbd67c2bb	-0.056582194
9	0x3dda2fbd	0.106536366
10	0xbc36c89b	-0.0111562265
11	0xbd76cc98	-0.06025371
12	0xbd82e983	-0.06392195
13	0x3e1cf4fe	0.15327832
14	0x3dbaa4ff	0.09113502
15	0xbe28ace5	-0.16472204
16	0x3ddc5dae	0.107600555
17	0x3dda419b	0.106570445
18	0xbdc825f0	-0.09772861
19	0x3e2ca8a7	0.16861211
20	0xbc9acc35	-0.018896202
21	0x3da5e5dc	0.08100483
22	0x3d414762	0.047187217
23	0xbe8097b6	-0.25115746
24	0xbe585dfd	-0.21129604
25	0x3e31eb16	0.17374834
26	0xbdacb0bb	-0.08432146
27	0xbd2a95db	-0.04164682
28	0xbca852d4	-0.020547308
29	0xbddd3339	-0.108007856
30	0xbe5c50a2	-0.21515134
31	0xbdf68103	-0.12036326
32	0xbe2d25e8	-0.16908991
33	0xbd334b3e	-0.04377293
34	0xbe05b6f4	-0.13058072
35	0xbe29bdc6	-0.16576299
36	0xbdf022b9	-0.11725373
37	0x3e7aed0b	0.24504487
38	0xbd9663de	-0.07343267
39	0xbd807deb	-0.06274017
40	0x3b8f870f	0.004380114
41	0x3d6a708b	0.057236236
42	0x3dbbfb42	0.09178783
43	0xbe3c2d20	-0.18376589
44	0x3d23e976	0.040017568
45	0x3d90d67b	0.07072159
46	0x3c641f53	0.013923484
47	0x3e28291e	0.16421935
48	0xbd61280b	-0.05496983
49	0x3e1cb04a	0.15301624
50	0xbddbdbe7	-0.107353024
51	0x3ca1e555	0.019762674
52	0x3d9b0614	0.07569519
53	0xbe3bd4e0	-0.18342924
54	0x3c5d4dc5	0.013507311
55	0x3e19f3f2	0.15034464
56	0x3d89e84b	0.067337595
57	0x3de842f0	0.11340892
58	0x3d9d9c1d	0.07695792
59	0x3e0d76c8	0.13814843
60	0x3d5f6a12	0.054544516
61	0xbd64ac9d	-0.05582868
62	0x3ce6e26d	0.02818414
63	0x3e2092f4	0.15681058
64	0xbe434bfa	-0.19071952
65	0x3e0f3614	0.13985473
66	0x3df59f7f	0.11993312
67	0xbde96f61	-0.11398197
68	0x3e0eccb1	0.13945271
69	0x3e438849	0.19094957
70	0x3db2d4e7	0.08732014
71	0xbe0919ce	-0.1338875
72	0xbe404654	-0.18776828
73	0x3e9dff99	0.30859068
74	0x3ea931de	0.33045858
75	0xbdc0b2c3	-0.09409096
76	0x3e0cd00a	0.13751236
77	0x3e735ddd	0.23766275
78	0x3dd64be8	0.10463697
79	0xbcf85276	-0.030312758
80	0xbe93d392	-0.28872353
81	0xbd6236d2	-0.055228062
82	0x3c75d698	0.015004776
83	0xbe2c0016	-0.16796908
84	0x3e2a227f	0.16614722
85	0x3e0fd67a	0.1404666
86	0xbe1776fd	-0.14791484
87	0xbdf8e20b	-0.12152489
88	0x3db45dd1	0.088069566
89	0x3e0b4aa0	0.13602686
90	0xbe07eb81	-0.13273431
91	0xbdf25785	-0.11833099
92	0x3e5f65a6	0.2181612
93	0x3e9abfc4	0.3022443
94	0x3ddc8f84	0.10769561
95	0xbe561524	-0.20906502
96	0xbdecc236	-0.1156048
97	0xbd7ca690	-0.061682284
98	0xbd9ffbfa	-0.078117326
99	0xbc6569b9	-0.014002257
100	0xbe146910	-0.14493203
101	0xbdc3c94d	-0.095598795
102	0x3cf57567	0.029963208
103	0xbde053df	-0.10953497
104	0x3e2c4615	0.16823609
105	0xbe0fb208	-0.14032757
106	0xbe176ab4	-0.14786798
107	0xba3322a8	-0.0006833472
108	0x3e809322	0.25112253
109	0x3e5033e0	0.20332289
110	0xbceae959	-0.028675722
111	0x3d2208b3	0.039559077
112	0xbe5b0bb2	-0.2139118
113	0x3d903132	0.07040633
114	0xbe117109	-0.14203276
115	0x3e1966ef	0.14980672
116	0xbe61aee5	-0.22039373
117	0x3e88f2bf	0.267477
118	0x3d62d54c	0.055379197
119	0xbcfa3059	-0.030540632
120	0xbe17d2ba	-0.1482648
121	0xbe35222d	-0.17688818
122	0xbe353e1d	-0.17699476
123	0xbe7a4b0d	-0.24442692
124	0xbe1dfa31	-0.15427472
125	0xbe7b3dfa	-0.24535361
126	0xbd5e78a5	-0.054314274
127	0xbdeb77a4	-0.11497429
128	0x3e93979c	0.28826606
129	0x3ecd64fa	0.40116102
130	0xbdf48a9c	-0.119405
131	0xbdc3b92f	-0.09556805
132	0xbcfb9734	-0.030711748
133	0x3dfb8570	0.122813106
134	0x3bba8f5e	0.00569336
135	0xbe2c2d9d	-0.16814275
136	0x3e1008ea	0.140659
137	0x3e27705a	0.16351452
138	0x3d60d2e8	0.054888636
139	0xbda02d31	-0.078211196
140	0xbb3705a1	-0.002792694
141	0x3cad3ae9	0.021146255
142	0x3ea751ce	0.326796
143	0xbd1a21a5	-0.037629742
144	0x3dfab39c	0.12241289
145	0x3eac9ae4	0.33711922
146	0xbde80ce6	-0.11330585
147	0xbd8b3b13	-0.06798377
148	0x3d848a88	0.06471735
149	0x3d0b9474	0.034077123
150	0xbe2b15e7	-0.16707574
151	0x3b9e2376	0.0048260046
152	0xbd47e684	-0.04880382
153	0xbdd1fc90	-0.102532506
154	0xbe61d4eb	-0.22053878
155	0xbb8e1ae0	-0.0043367
156	0x3e2e80e3	0.17041354
157	0xbd9bad04	-0.076013595
158	0x3dfe6eb4	0.12423459
159	0xbe0c5cc2	-0.1370726
160	0x3e60ac51	0.21940733
161	0x3cec454f	0.028841643
162	0x3e2ea7cf	0.17056201
163	0xbdba6060	-0.09100413
164	0xbe69d9b7	-0.22836958
165	0x3e445ce4	0.1917606
166	0x3e9273cf	0.2860398
167	0xbca40996	-0.020024102
168	0xbe55afcb	-0.20867841
169	0x3dddabfd	0.1082382
170	0x3e11d4ce	0.14241335
171	0xbe02f430	-0.12788463
172	0x3e7a8980	0.24466515
173	0x3db21358	0.08695096
174	0xbd22c26f	-0.039736208
175	0xbdb4eb8e	-0.08833991
176	0x3de1ac1a	0.11019154
177	0xbcb294a6	-0.021799397
178	0xbdd54b4f	-0.104147546
179	0x3dbffa57	0.093739204
180	0x3e212d13	0.1573985
181	0x3d8ba1be	0.06817959
182	0x3ce5b931	0.028042408
183	0xbda3133d	-0.07962654
184	0x3d55e4f5	0.052220304
185	0xbe726313	-0.23670606
186	0x3d04935b	0.03236709
187	0xbc8e73ed	-0.017389262
188	0xbd06eda3	-0.03294147
189	0xbe06e70e	-0.13174078
190	0xbdb93c10	-0.09044659
191	0x3af1720e	0.0018420832
192	0xbe09eb2f	-0.13468622
193	0xbde90b02	-0.11379053
194	0xbd866e3e	-0.06563996
195	0x3e9ce85d	0.3064603
196	0xbbcb3f4e	-0.006202615
197	0x3caa9bdb	0.02082627
198	0x3d3f8005	0.04675295
199	0x3dabc35d	0.08386872
200	0xbe6e78cc	-0.23288268
201	0x3ebbd921	0.36689094
202	0xbd6da534	-0.058018878
203	0xbc7837ca	-0.01515002
204	0x3b76f8cd	0.0037684918
205	0x3e6ba6a5	0.23012789
206	0xbe37171a	-0.17879906
207	0xbe513386	-0.20429811
208	0xbd366667	-0.044531252
209	0xbd27a755	-0.040931065
210	0xbdc3ea23	-0.095661424
211	0xbc39c568	-0.011338569
212	0xbc70f612	-0.014707105
213	0x3e278677	0.16359888
214	0x3d342f28	0.043990284
215	0xbd01dfc9	-0.03170756
216	0x3cf2a79a	0.029620934
217	0xbe02ded1	-0.1278031
218	0xbe6f3fee	-0.23364231
219	0xbb96f0f7	-0.004606362
220	0x3e3ca4a5	0.18422182
221	0xbdb5600c	-0.0885621
222	0xbe1ea1d7	-0.15491425
223	0x3e8dcfc9	0.2769759
224	0x3e2aedfa	0.16692343
225	0xbe8eabbe	-0.27865404
226	0x3e5c3602	0.21504977
227	0x3e33549c	0.17512745
228	0x3e2fc119	0.17163505
229	0xbe2d8193	-0.1694396
230	0x3d794652	0.06085808
231	0xbd14ecd6	-0.036358677
232	0x3c911615	0.017710725
233	0xbdae1f6c	-0.08502087
234	0x3e3841f1	0.17993905
235	0xbd8509dc	-0.06496021
236	0xbc89f7bb	-0.01684176
237	0xbc07e7ef	-0.008295043
238	0x3b527c02	0.0032117371
239	0x3d75c0cc	0.05999832
240	0x3e0fa968	0.14029467
241	0xbcfd8875	-0.030948857
242	0xbe0380ff	-0.12842177
243	0x3d80d51c	0.062906474
244	0x3d465ed4	0.04843028
245	0x3c4062d5	0.011742313
246	0x3d8446f2	0.06458844
247	0x3e05975b	0.13046019
248	0x3df6b18c	0.12045583
249	0xbdc64562	-0.096812025
250	0xbd5a326e	-0.05327075
251	0xbe2e99db	-0.17050879
252	0x3eb05f8a	0.3444789
253	0x3ea2a107	0.3176348
254	0xbdb0f1c0	-0.0863986
255	0xbeb66292	-0.35622078

network_body._body_endoder.seq_layers.0.bias f4 [128]
0	0xbc6ebcab	-0.014571349
1	0xbbad374c	-0.005286133
2	0x3a365ebd	0.0006956866
3	0xbd05cd32	-0.032666393
4	0x3a90aa1c	0.0011037025
5	0x3d15ce91	0.03657395
6	0x3b62d73c	0.0034613153
7	0xbb3964e0	-0.0028288886
8	0xbc27ee2e	-0.010249658
9	0x3cab260d	0.020892167
10	0xbcfa7349	-0.03057255
11	0xbd6224cc	-0.055210873
12	0xbb6eb707	-0.003642501
13	0x3c618ecb	0.013766955
14	0xbd67a388	-0.05655244
15	0xbd5112b5	-0.05104323
16	0xbc4c8541	-0.012482942
17	0xbd0ef87d	-0.034904946
18	0xbc0929e2	-0.008371802
19	0x3d401151	0.046891514
20	0xbc994188	-0.018708006
21	0xbda1aead	-0.07894645
22	0xbc911dd8	-0.017714426
23	0xbbc950c8	-0.006143663
24	0x3b961f4f	0.004581369
25	0x3ca76597	0.020434184
26	0xbcec96ca	-0.028880496
27	0x3b0597ad	0.0020384595
28	0x3c8864a7	0.016649557
29	0xbd1265ad	-0.035741497
30	0xbbb4fdfc	-0.0055234414
31	0xb9369b7f	-0.000174148
32	0x3c0768db	0.008264746
33	0xbd4babd3	-0.04972441
34	0xbd007093	-0.03135736
35	0xbcd4a144	-0.025955804
36	0x3cbd371c	0.023097567
37	0xbaf7b0d2	-0.0018897301
38	0xba34edd5	-0.0006901895
39	0xbcc66545	-0.024218211
40	0x3c59c19b	0.013290788
41	0xbc8c6850	-0.017139584
42	0xbba00124	-0.0048829485
43	0xbc86c04a	-0.016449112
44	0x3caabd45	0.020842204
45	0xbcf9e0d2	-0.03050271
46	0x3b8817cd	0.004153228
47	0xbcefe22a	-0.029282648
48	0xbc8f4159	-0.017487215
49	0xbc3148a3	-0.010820541
50	0xbd3000ac	-0.04296939
51	0xbbc7aa47	-0.0060932967
52	0xbda7d3d0	-0.08194697
53	0xbc273fa4	-0.010208044
54	0xbc94a801	-0.018146517
55	0x3c097e9c	0.008392002
56	0x3c2e3d5f	0.010634749
57	0xbd4e28ac	-0.050331756
58	0xbc9a311f	-0.01882225
59	0x3bd9b53e	0.00664392
60	0x3c8d060f	0.017214803
61	0xbbee4d16	-0.007272373
62	0xbcefaccd	-0.029257203
63	0xbc01522d	-0.007893127
64	0xb9a2c146	-0.00031043048
65	0x3c4e2494	0.012581963
66	0xbd31cfeb	-0.043411177
67	0xbd0f5df4	-0.03500171
68	0xbcb25797	-0.021770282
69	0xbcb6d4dd	-0.022318298
70	0x3b0abe2a	0.0021170476
71	0xbc96bf58	-0.018401787
72	0xbc84653b	-0.016161552
73	0xbc240ec0	-0.010013282
74	0x3c5021b6	0.01270335
75	0x3b177531	0.0023110623
76	0x3d09d4a5	0.03365006
77	0xbc9981ce	-0.018738654
78	0xbc8bd718	-0.017070338
79	0x3ca2cc5f	0.019872842
80	0x3b79dafd	0.0038124912
81	0xbdbc0376	-0.091803476
82	0x3beb00a4	0.007171707
83	0xbc6aceb7	-0.014331511
84	0x3d030d22	0.031994946
85	0x3c9dc794	0.019260205
86	0xbd48a60e	-0.048986487
87	0x3c49bdca	0.012313316
88	0xbcfb2d66	-0.030661296
89	0x3bdbd2bd	0.0067084716
90	0xbc5d3f32	-0.0135038365
91	0xbd02dea9	-0.031950627
92	0x3c22082d	0.009889645
93	0xbac3c09f	-0.0014934725
94	0xbcf4017c	-0.029785864
95	0x3b78060d	0.0037845403
96	0xbafa03db	-0.0019074635
97	0xbb0562d2	-0.002035309
98	0xbccc4868	-0.02493687
99	0xbcb42fa7	-0.021995379
100	0xbbf48f76	-0.007463391
101	0x3ce603dc	0.028078012
102	0xbcb92679	-0.022601353
103	0x3c630745	0.013856714
104	0xba26dddf	-0.0006365459
105	0x3cded38d	0.027200485
106	0xbbada200	-0.005298853
107	0xbca8a827	-0.020587994
108	0xbd125328	-0.035723835
109	0xbb7d9284	-0.0038692066
110	0x3c2e50b1	0.0106393555
111	0xbcf65ffb	-0.030075064
112	0x3d02a166	0.031892203
113	0xbc8624b6	-0.016374927
114	0xbbb285de	-0.005448087
115	0xbc6e14e3	-0.014531347
116	0x3c977dec	0.018492661
117	0xbc11f32e	-0.008908076
118	0xbc58056d	-0.013184887
119	0xb9c91dba	-0.00038359856
120	0x3cd10c2f	0.025518505
121	0x3c9ee325	0.01939542
122	0x3c879575	0.016550759
123	0xbbd14e6e	-0.0063875234
124	0x3ab269fd	0.0013611909
125	0x3d5fd334	0.05464478
126	0xbcc305c5	-0.023806462
127	0xbd402326	-0.04690852

network_body._body_endoder.seq_layers.2.weight f4 [128, 128]
0	0x3e03d4a8	0.1287409
1	0xbd8165b2	-0.06318225
2	0x3df0140e	0.11722575
3	0x3daaa786	0.08332734
4	0x3cc4f689	0.024043338
5	0x3d11391d	0.035454858
6	0xbd842df1	-0.06454075
7	0x3e528a93	0.20560674
8	0xbb7f81cb	-0.0038987275
9	0x3c2ba456	0.010476192
10	0xbe061ec6	-0.13097677
11	0x3cfd6ebd	0.030936593
12	0xbdaa0468	-0.08301622
13	0x3dd9f46c	0.10642323
14	0xbd8f15e7	-0.069865994
15	0x3c201b69	0.00977216
16	0xbbfed41e	-0.007776751
17	0x3df25a67	0.11833649
18	0x3bfbc026	0.007682818
19	0xbcea096e	-0.02856895
20	0x3e034dd5	0.1282266
21	0xbd7b7f9a	-0.061400987
22	0xbc581137	-0.013187698
23	0xbda16f35	-0.07882539
24	0x3d2de70b	0.042456668
25	0x3dc890c0	0.09793234
26	0xbcbf5fa1	-0.02336103
27	0xbd6f2a45	-0.05838992
28	0x3d2c8dd0	0.04212743
29	0x3dabdd75	0.08391849
30	0x3b52250d	0.003206554
31	0x3c9c56ad	0.019084299
32	0xbda1fdbd	-0.07909725
33	0xbbb8d35f	-0.005640432
34	0x3d025500	0.031819344
35	0x3d1199a6	0.03554692
36	0xbc768d75	-0.015048374
37	0xbc26aeba	-0.010173494
38	0x3e2486d6	0.16067061
39	0xbe076e6d	-0.13225718
40	0x3c9b97ad	0.018993223
41	0x3c864b10	0.016393214
42	0xbb7770d7	-0.0037756467
43	0x3c61f37a	0.0137909595
44	0x3d6518d1	0.05593187
45	0x3e008584	0.12550932
46	0xbc8c8a05	-0.017155657
47	0x3d0ff06a	0.035141386
48	0xbe0a4162	-0.13501504
49	0x3c5b4c60	0.013384908
50	0x3d6b56a4	0.057455674
51	0x3be8230c	0.007084256
52	0x3dc35699	0.095380016
53	0x3d817f2b	0.063230835
54	0xbd4240ef	-0.047425207
55	0xbc9bf155	-0.019035975
56	0x3e347d67	0.17625962
57	0xbdb8694a	-0.09004457
58	0xbd1b9af2	-0.037989564
59	0x3d880e26	0.066433236
60	0xbd2217a5	-0.03957333
61	0xbda89e35	-0.082333006
62	0x3deacf9e	0.11465381
63	0x3c71773a	0.0147378985
64	0xbc8ecdaf	-0.017432062
65	0xbdc4da22	-0.09611918
66	0x3dde618e	0.10858451
67	0x3e10d491	0.14143588
68	0x3d052bf9	0.03251264
69	0x3da382f7	0.07983964
70	0xbceb03fc	-0.028688423
71	0x3d1097ed	0.035301138
72	0xbdb4c864	-0.08827284
73	0x3d4c8ea8	0.049940735
74	0x3da4427f	0.080204956
75	0xbc2f38ec	-0.010694724
76	0x3dfcecf8	0.12349886
77	0x3a5f81cd	0.0008526117
78	0xbccf1cec	-0.025282346
79	0x3e486a5d	0.19571824
80	0x3e3b777c	0.18307298
81	0xbde16b3b	-0.11006781
82	0x3d610f4f	0.05494624
83	0x3cca17b3	0.024669504
84	0xbd8b453a	-0.06800313
85	0x3d30853a	0.043095805
86	0x3d888974	0.06666842
87	0x3addeb46	0.0016931079
88	0x3d8ee9fd	0.069782235
89	0x3d8033f0	0.06259906
90	0xbb301088	-0.0026865322
91	0xbcbfec44	-0.02342809
92	0xbcfe2c1f	-0.031026898
93	0x3e0a0d04	0.13481528
94	0x3c5ce2f2	0.013481842
95	0x3cf4c94c	0.029881142
96	0x3da1c10f	0.07898151
97	0xbcb04d3d	-0.021521205
98	0xbdc81962	-0.097704664
99	0x3d94b56c	0.07261166
100	0xbd52c54e	-0.051457696
101	0xbc13f8e7	-0.009031511
102	0x3d489178	0.048966855
103	0x3bf9534c	0.0076088067
104	0xbd57d3ac	-0.0526921
105	0xbcb3ba1b	-0.021939328
106	0xbcce06d2	-0.025149737
107	0xbc808e17	-0.015692754
108	0x3d960a31	0.073261626
109	0xbcc44a47	-0.0239612
110	0xbdb61b77	-0.08891957
111	0xbc9dd902	-0.019268516
112	0xbc03c1b6	-0.00804179
113	0xbe1d4230	-0.1535728
114	0xba929f39	-0.0011186368
115	0x3d52f172	0.05149979
116	0x3dbca018	0.09210223
117	0xbbb96d73	-0.0056587993
118	0x3d9c1136	0.0762047
119	0xbd27c1da	-0.040956356
120	0xbd8b81da	-0.068118766
121	0x3bc41f2f	0.0059851627
122	0xbe0edd10	-0.13951516
123	0x3c87f673	0.016597008
124	0xbe1391fb	-0.14411156
125	0x3e1875fa	0.14888754
126	0xbe2b0ccf	-0.16704105
127	0x3d9243b1	0.07141817
128	0x3d889563	0.06669118
129	0x3e3138ab	0.17306773
130	0x3d0400f5	0.032227475
131	0xbdf0e41d	-0.11762259
132	0xbd423591	-0.047414366
133	0x3dc13b43	0.094351314
134	0x3d4b468c	0.049627826
135	0xbe35a870	-0.17740035
136	0x3d97d6a9	0.0741399
137	0x3e49fac3	0.19724564
138	0x3b5e28e9	0.0033898896
139	0xbccf1a23	-0.025281018
140	0xbd6167e8	-0.055030733
141	0xbc94a2cc	-0.018144034
142	0xbe38a559	-0.18031825
143	0xbe50f2e7	-0.2040516
144	0x3c780648	0.015138216
145	0xbd11aa35	-0.035562713
146	0x3b769f11	0.0037631432
147	0x3e077df8	0.13231647
148	0x3c158054	0.009124834
149	0x3d9229af	0.07136857
150	0x3e0a0718	0.13479269
151	0xbd848437	-0.064705305
152	0x3e2a44e3	0.1662784
153	0xbd41ee8a	-0.04734663
154	0xbc30cac9	-0.010790535
155	0xbcaf0857	-0.021366281
156	0xbd3a2853	-0.045448612
157	0x3ddac986	0.10682969
158	0xbd8a6048	-0.067566454
159	0x3da8255e	0.08210252
160	0xbdb85128	-0.08999854
161	0xbe17bf3b	-0.14819042
162	0xbd5fc35c	-0.05462967
163	0x3d396e10	0.04527098
164	0x3ddcd0b3	0.10781994
165	0x3be1800a	0.0068817185
166	0x3de93b93	0.11388316
167	0x3e077ac3	0.13230424
168	0xbd878949	-0.06617982
169	0x3c408258	0.011749826
170	0xbe425e68	-0.18981326
171	0xbd645396	-0.055743776
172	0x3d9e8b43	0.07741406
173	0xbcc17479	-0.023615109
174	0xbe01fd9e	-0.12694404
175	0x3e0825e3	0.13295703
176	0x3cd1ff67	0.02563448
177	0xbe06c38e	-0.13160536
178	0x3d13d5f9	0.036092732
179	0x3cbe28b3	0.023212766
180	0xbdee3aaf	-0.11632287
181	0x3d9f8356	0.07788722
182	0x3d5ef710	0.054434836
183	0xbdaafe28	-0.08349258
184	0xbd59a021	-0.053131226
185	0xbdcf328c	-0.10117063
186	0xbad1897b	-0.0015986407
187	0xbe13de8d	-0.14440365
188	0xbdd6d61c	-0.10490057
189	0x3d3f2d61	0.046674136
190	0xbdadb5f8	-0.084819734
191	0x3c4c8462	0.012482734
192	0x3df11566	0.117716596
193	0xbce6570d	-0.02811768
194	0xbbb866de	-0.005627497
195	0x3d945476	0.07242672
196	0x3e64ebcd	0.22355576
197	0x3dd99d5a	0.106257156
198	0x3de454e8	0.11149007
199	0xbc95b7c2	-0.0182761
200	0x3e00009c	0.12500232
201	0x3d053da9	0.032529507
202	0xbdc55dd1	-0.09637035
203	0x3b73f080	0.0037222207
204	0x3d889502	0.06669046
205	0x3ca62d26	0.0202852
206	0xbdf489e2	-0.119403616
207	0x3d7b8646	0.06140735
208	0xbd26fadd	-0.040766586
209	0x3b8685f7	0.0041053253
210	0xbdcb994c	-0.099413484
211	0xbd1813f8	-0.03712842
212	0xbdced793	-0.10099711
213	0x3d3b8ab7	0.045786586
214	0x3e40d75a	0.1883215
215	0xbe0da162	-0.13831094
216	0x3e010b07	0.12601863
217	0x3d96dd9f	0.073664896
218	0x3e180d1b	0.1484875
219	0xbcf37f9a	-0.029723931
220	0xbd69f8f7	-0.057122197
221	0xbce67677	-0.02813266
222	0x3d7b6c24	0.061382428
223	0xbcf04806	-0.029331218
224	0x3c98b435	0.018640617
225	0xbd22ca85	-0.03974392
226	0xbe261c86	-0.16221818
227	0x3d8ac543	0.06775906
228	0xbd5adb75	-0.053431947
229	0xbcdb4363	-0.02676553
230	0xbdc51a0f	-0.09624111
231	0x3e39fe8b	0.18163507
232	0xbe0ab973	-0.13547306
233	0xbe47f255	-0.19526036
234	0x3e2833b3	0.16425972
235	0xbd9ddcc1	-0.07708121
236	0xbe3b87ba	-0.18313494
237	0x3d9c0a96	0.076192066
238	0xbc7eb635	-0.015546371
239	0xbd7284b1	-0.059208576
240	0x3d1d0635	0.038335998
241	0x3d3329b0	0.04374093
242	0xbdd38e78	-0.10329908
243	0x3cba9a25	0.02277858
244	0xbd9e30c2	-0.077241436
245	0xbdabc747	-0.083876185
246	0x3d1e57af	0.03865784
247	0xbcc39189	-0.023873108
248	0x3be6756c	0.0070330407
249	0x3d19916b	0.037492197
250	0xbe23f11e	-0.16009948
251	0xbe3ab1df	-0.18231915
252	0x3dc30fa0	0.095244646
253	0x3d4c3d85	0.049863357
254	0x3c998519	0.018740224
255	0x3d7add23	0.06124605

network_body._body_endoder.seq_layers.2.bias f4 [128]
0	0x3b4de774	0.0031418474
1	0x3c914856	0.017734688
2	0xbd359f69	-0.04434148
3	0x3ccd811a	0.025085974
4	0x3ca31627	0.019908024
5	0xbcfdc3ca	-0.030977149
6	0xbcd5194c	-0.026013039
7	0x3b557e8e	0.0032576653
8	0xbca0ee04	-0.019644745
9	0x3cb3bc3b	0.021940341
10	0x3bc00b41	0.0058607166
11	0x3c5ede71	0.013602839
12	0xbaa383a4	-0.0012475145
13	0x3c32d55e	0.0109151285
14	0xbc9b1572	-0.018931124
15	0x3d2d342f	0.042286094
16	0xbc589d18	-0.013221048
17	0x3b42a9f9	0.0029703362
18	0x3c2dfbd5	0.0106191235
19	0xbd2e9c0b	-0.042629283
20	0xbd09cc4d	-0.033642102
21	0xbcbf0c64	-0.023321338
22	0xbc5806ad	-0.013185185
23	0x3bf12a80	0.0073598027
24	0x3c001806	0.007818228
25	0xbbd84d29	-0.006600995
26	0xbbf8de89	-0.0075948876
27	0xbcd40bca	-0.025884528
28	0xbbb2e5fa	-0.0054595442
29	0xbcaf8433	-0.021425342
30	0xbc43b24e	-0.011944367
31	0x3be35d0c	0.0069385823
32	0xbbecac08	-0.007222656
33	0xbcadd421	-0.021219315
34	0xbb953625	-0.0045535737
35	0x3cb40b90	0.02197817
36	0xbcbbff91	-0.022949012
37	0xbc1ed872	-0.009695159
38	0x3c7ec51f	0.015549927
39	0x3d1d719a	0.038438417
40	0x3bd472f8	0.006483432
41	0x3cc160a7	0.023605658
42	0xbcbe843d	-0.023256416
43	0x3b045d67	0.0020197274
44	0xbbf0c9b9	-0.007348266
45	0xbcece6de	-0.02891868
46	0x3d84813d	0.06469963
47	0xbc7511fe	-0.014957903
48	0xbcfcd2b9	-0.0308622
49	0xbc49a485	-0.012307291
50	0x3ca85661	0.020549001
51	0x3bde0bd6	0.0067763133
52	0x3c739f2e	0.014869494
53	0xbc7706ff	-0.015077352
54	0x3c7ef846	0.015562123
55	0x3c180e69	0.009280779
56	0x3b0b4168	0.0021248702
57	0xbcb87937	-0.022518737
58	0xbba0aeee	-0.0049036657
59	0xbc55e565	-0.01305518
60	0x3aa6e43e	0.0012732816
61	0xbce7f91c	-0.028317027
62	0x3c8c7e89	0.01715018
63	0x3a038fb9	0.000501867
64	0xbcaf491e	-0.02139717
65	0xbbeced20	-0.007230416
66	0x3cd92b77	0.026509983
67	0x3c873521	0.016504826
68	0xbcefb324	-0.029260226
69	0xbbae6e2c	-0.005323192
70	0xbbefa218	-0.0073130243
71	0x3b197ffe	0.0023422237
72	0xbc463934	-0.012098599
73	0xbb962b91	-0.0045828302
74	0xbc290268	-0.010315515
75	0xbcd02c86	-0.025411855
76	0xbc94ab14	-0.018147983
77	0x3ba89a57	0.005145352
78	0xba330aeb	-0.0006829935
79	0xbc830409	-0.015993135
80	0xbc139b30	-0.009009168
81	0xbac43be8	-0.0014971467
82	0xbca815ed	-0.020518268
83	0x3c4a6961	0.012354226
84	0xbd8259c1	-0.063647754
85	0x3c44d2cf	0.012013151
86	0xbb749e45	-0.0037325781
87	0x39a88740	0.00032144226
88	0xbb7c999b	-0.0038543704
89	0xbc0fa55d	-0.008767453
90	0xbcd37a05	-0.02581502
91	0x3c957494	0.018244065
92	0x3d4ebd43	0.050473463
93	0x3cc30687	0.023806823
94	0x3c3ee4ab	0.011651198
95	0xbc601ef4	-0.013679255
96	0xbc7631ec	-0.015026551
97	0x3ca1a37c	0.019731276
98	0xbd0babb3	-0.034099292
99	0x3c03e118	0.008049272
100	0xbc1544bd	-0.009110627
101	0xbc9c3e38	-0.019072637
102	0xba919aa5	-0.001110871
103	0xbbffd3bc	-0.007807223
104	0xbcc08f6f	-0.023505894
105	0xbc0454c6	-0.008076852
106	0xbc595230	-0.013264224
107	0x3d317ecf	0.043333825
108	0xbcc58f02	-0.024116043
109	0x3b940d3f	0.0045181806
110	0xbbf97f18	-0.0076140277
111	0xbcb6c7e8	-0.02231212
112	0xbc56fac3	-0.01312131
113	0x3d01175d	0.03151642
114	0xbb0ea0b4	-0.0021763267
115	0xbc2aa47f	-0.0104151955
116	0x3c669487	0.014073498
117	0xbb5a05ca	-0.003326761
118	0x3bd86c35	0.006604696
119	0x3c8d988f	0.01728466
120	0x3d037ae2	0.032099612
121	0x3730f9d2	1.0548583e-05
122	0x3c3e35da	0.011609519
123	0xbca11ed5	-0.019668022
124	0xbcc81de1	-0.02442831
125	0xbb7a2f16	-0.0038175038
126	0x3cc511a5	0.024056265
127	0x3ced5633	0.028971767

action_model._continuous_distribution.log_sigma f4 [1, 2]
0	0xbf3c7406	-0.7361454
1	0xbf37be98	-0.717752

action_model._continuous_distribution.mu.weight f4 [2, 128]
0	0x3beb6209	0.0071833176
1	0xbd03b966	-0.03215923
2	0xbcd5cad7	-0.026097698
3	0xbd9e5458	-0.07730931
4	0x3c78393c	0.0151503645
5	0xbc15cb07	-0.009142644
6	0x3b551912	0.0032516164
7	0xbd923da3	-0.071406625
8	0xbb90d1c4	-0.0044195373
9	0x3d29ce61	0.041456584
10	0xbd33ff61	-0.04394472
11	0x3bf5f491	0.007505961
12	0x3c8625bc	0.016375415
13	0x3cb9b5de	0.022669729
14	0xbc74c8d9	-0.014940464
15	0xbe38f7b2	-0.18063238
16	0xbcc7754a	-0.02434792
17	0x3c3fa920	0.011698037
18	0x3d03289c	0.03202115
19	0x3aa2da45	0.0012424669
20	0xbbde9e7f	-0.0067937966
21	0x3bd08609	0.0063636345
22	0x3c9ff715	0.019526998
23	0x3cbf5411	0.023355516
24	0x3d20c596	0.039250933
25	0xbd3034a6	-0.04301896
26	0xbc8256a8	-0.015910462
27	0xbbb3f0e2	-0.005491362
28	0xbd322715	-0.043494303
29	0x3a42f3b7	0.0007436829
30	0xbc3022aa	-0.010750452
31	0xbd80266d	-0.06257329
32	0xbbc3c982	-0.0059749493
33	0x3b003dfb	0.0019568193
34	0xbd4cc985	-0.04999687
35	0xbd8072ee	-0.06271921
36	0xbc54c937	-0.0129874265
37	0xbd087859	-0.033317897
38	0x3bf618a2	0.0075102607
39	0x3dbd54d9	0.09244699
40	0x3b0f54f0	0.0021870695
41	0x3cd03ea4	0.025420494
42	0x3b05b3d8	0.0020401385
43	0xbca909e2	-0.020634595
44	0x3c606b97	0.013697526
45	0xbd23aa5e	-0.039957397
46	0xbe57f51e	-0.21089599
47	0x3cbd891e	0.023136672
48	0xbb236a78	-0.0024935286
49	0xbb5dbae5	-0.0033833322
50	0x3d85f7e3	0.06541421
51	0xbd0ef604	-0.034902588
52	0xbbeeb044	-0.007284196
53	0xbb1cc881	-0.002392322
54	0x3c75f808	0.015012749
55	0xbc64ed70	-0.013972625
56	0xbc66a896	-0.01407828
57	0xbbb74021	-0.0055923616
58	0xbcf4edc5	-0.029898534
59	0x3b8ea632	0.004353308
60	0xbbf959de	-0.00760959
61	0xbca9eadb	-0.02074187
62	0x3cf5272e	0.029925909
63	0xbd089887	-0.033348586
64	0xbc6a2ff8	-0.014293663
65	0xbc999107	-0.018745912
66	0xbcc643a0	-0.024202168
67	0x3c8b112f	0.016975967
68	0xbbd67852	-0.006545105
69	0x3c5e6b98	0.013575457
70	0xbd62e11b	-0.05539046
71	0x3c4fd750	0.012685612
72	0x3b847f7a	0.0040435167
73	0xbc7f3e19	-0.01557877
74	0x3bf9b05a	0.0076198997
75	0xbc06a377	-0.008217684
76	0xbc585412	-0.013203638
77	0x3c03c8de	0.008043496
78	0xbccb844c	-0.024843358
79	0xbd39f258	-0.045397133
80	0xbc96458d	-0.018343711
81	0xbca514ae	-0.020151462
82	0xbccc88b3	-0.024967527
83	0x3cf429c3	0.02980507
84	0xbcf05524	-0.029337473
85	0x3c87535b	0.01651924
86	0x3b845183	0.0040380373
87	0xbc491d48	-0.012275048
88	0xbd28e43a	-0.04123328
89	0x3c1bf500	0.009518862
90	0xbcd9a3f5	-0.026567439
91	0xbd92ee62	-0.07174374
92	0x3de82b2e	0.11336361
93	0x3b087487	0.0020821409
94	0xbd7142d0	-0.058901608
95	0xbb8346e4	-0.0040062536
96	0xbb85b3f2	-0.004080289
97	0xbc3d0b0e	-0.01153828
98	0xbcece502	-0.028917793
99	0x3ac69e58	0.0015153391
100	0x3c805c27	0.015668942
101	0xbc9f0f58	-0.019416496
102	0x3bf8981e	0.007586493
103	0x3b532758	0.0032219496
104	0xbc8068dc	-0.015675
105	0x3cc7a084	0.024368532
106	0xbccc80f9	-0.024963843
107	0xbdfb6911	-0.12275899
108	0xb8b7ee36	-8.77049e-05
109	0x3d157aef	0.03649419
110	0xbbf88561	-0.0075842594
111	0xbb970d15	-0.004609714
112	0xbc8168c9	-0.015797036
113	0xbd9d6a7e	-0.076863274
114	0xbb049348	-0.0020229388
115	0x3bd6efae	0.0065593338
116	0x3cd9b12d	0.026573742
117	0xbbce7e2d	-0.0063016624
118	0xbc5f41f2	-0.013626562
119	0x3c2739a7	0.0102066165
120	0x3d31eb7a	0.04343746
121	0x3bea2f4e	0.0071467524
122	0x3bbbbc2f	0.0057292203
123	0xbc7426e9	-0.014901855
124	0xbb16f4ff	-0.0023034213
125	0xbd866ae9	-0.0656336
126	0x3cd34b7b	0.025792828
127	0xbc6b80f0	-0.014374003
128	0x3cef41a6	0.029206108
129	0xbc8b56ef	-0.017009227
130	0xbbce851c	-0.006302489
131	0x3c82de92	0.01597527
132	0xbbce4785	-0.006295147
133	0xbc08c6de	-0.008348195
134	0xbc5363d8	-0.012902223
135	0x3ce51c30	0.027967542
136	0x3b8fc75d	0.0043877796
137	0xbcb13709	-0.021632688
138	0xbd557b6a	-0.05211965
139	0x3c900c0a	0.017583866
140	0xbd29eb6d	-0.041484285
141	0x3d39fcda	0.045407154
142	0xbb88b8ba	-0.0041724117
143	0xbd20bd80	-0.03924322
144	0xbb445297	-0.0029956454
145	0xbc430062	-0.011901947
146	0xbc0d1420	-0.008610755
147	0xbbff1e12	-0.007785567
148	0xbc815f44	-0.015792497
149	0xbc2d9fbb	-0.010597165
150	0x3beb7954	0.0071860943
151	0xbb74b458	-0.0037338939
152	0x3ad58d38	0.0016292697
153	0x3d28666a	0.041113295
154	0xbcb4ea40	-0.022084355
155	0xbc4f2c36	-0.012644818
156	0x3cbe7e5d	0.023253614
157	0xbd07f331	-0.03319091
158	0xbbbd655e	-0.005779906
159	0x3cf0141e	0.029306468
160	0xbd30b53a	-0.04314158
161	0xbb3ae681	-0.0028518739
162	0x3b419879	0.0029540344
163	0xbc83727b	-0.0160458
164	0x3c573d97	0.013137243
165	0x3c85709d	0.01628905
166	0x3c950f31	0.01819572
167	0x3ce29ae4	0.027661748
168	0x3c2821d6	0.010261973
169	0x3d152655	0.03641351
170	0x3c3927f8	0.011301033
171	0xbd1e899f	-0.038705464
172	0xbcc14698	-0.023593232
173	0xbc189c67	-0.009314633
174	0xbd4e5d94	-0.05038221
175	0xbce118a4	-0.02747757
176	0xba036eba	-0.0005013753
177	0xb90942ab	-0.00013090174
178	0x3ccf7584	0.02532459
179	0x3d24a413	0.040195536
180	0x3d85870b	0.06519898
181	0xbc87c5df	-0.016573844
182	0x3b81d39c	0.0039619934
183	0x3d18c47d	0.03729676
184	0x3cdf1c27	0.027235104
185	0xbc89a6c8	-0.01680316
186	0x3c843d46	0.016142499
187	0x3a7be277	0.0009608636
188	0x3c99c7b4	0.018771984
189	0xbd1e3343	-0.038623106
190	0xbb64401e	-0.0034828256
191	0x3cd6431f	0.026155053
192	0xbc1323fc	-0.008980747
193	0xbcd915b8	-0.026499614
194	0x3d7344d5	0.059391815
195	0xbd2dbc2b	-0.04241578
196	0xbb1df797	-0.0024103874
197	0xbcd1ec5d	-0.025625402
198	0x3c8a6fac	0.016898952
199	0xbbb12d24	-0.0054069925
200	0xbd139db4	-0.03603907
201	0x3c790e30	0.0152011365
202	0xbb3aeebc	-0.0028523644
203	0xbc7f822d	-0.015595001
204	0xba8973c6	-0.0010486774
205	0xbc8f8357	-0.017518682
206	0x3c466f4b	0.012111495
207	0xbbff0c72	-0.007783466
208	0xbd4c63ed	-0.049899984
209	0x3c2fbd21	0.010726244
210	0x3a81cd3d	0.0009903085
211	0x3cb19558	0.021677658
212	0xbc0160e9	-0.00789664
213	0x3b97837b	0.004623828
214	0xbb95e2cd	-0.004574156
215	0x3c9b078b	0.018924495
216	0x3caf8e5b	0.021430185
217	0xbc2a8685	-0.0104080485
218	0xbc13fdfb	-0.009032722
219	0x3c83d139	0.016090976
220	0xbd743e38	-0.05962965
221	0x3cc59a0f	0.024121312
222	0xbc87bf97	-0.01657085
223	0xbcc074d2	-0.023493204
224	0xbcee654d	-0.029101038
225	0x3d87105e	0.06594919
226	0xbc8220c2	-0.01588476
227	0x3cc07eff	0.023498056
228	0xbc53a24d	-0.0129171135
229	0xbc1b0ab7	-0.009463004
230	0xbc8029e8	-0.015644982
231	0xbc117634	-0.0088782795
232	0xbcf1b42d	-0.02950486
233	0xbcc4eca5	-0.024038622
234	0xbce9ad19	-0.028524922
235	0x3cdb80c4	0.026794799
236	0x3a85fbd6	0.0010222148
237	0xbd46f942	-0.048577555
238	0xbcc01300	-0.02344656
239	0xbd1a752d	-0.037709404
240	0x3a213773	0.0006149925
241	0xbd99dafa	-0.075124696
242	0x3c0bdf8d	0.008537185
243	0xbcc53a70	-0.024075717
244	0x3c09272c	0.008371156
245	0xbbd1e40a	-0.006405358
246	0x3ccef290	0.025262147
247	0x3ca574c3	0.020197278
248	0xbd05aa0b	-0.03263287
249	0x3c7408b3	0.014894652
250	0xbb5a9775	-0.0033354436
251	0xbc2fc305	-0.010727649
252	0xbb9fbbe5	-0.0048746937
253	0xba0f6f4c	-0.00054716016
254	0x3cad6b87	0.021169437
255	0x3d739054	0.059463814

action_model._continuous_distribution.mu.bias f4 [2]
0	0x3c89b39b	0.016809275
1	0x3c8c73a1	0.01714498
