results/TwentyDirt/TwentyDirtAgent/TwentyDirtAgent-999998.onnx (onnx, 315955 bytes, 11 tensors)

discrete_action_output_shape f4 [1, 3]
000000 00 00 40 40 00 00 40 40 00 00 00 40
       3.0 3.0 2.0

network_body._body_endoder.seq_layers.0.weight f4 [256, 39]
000000 28 28 97 bd ea 72 90 bd c7 16 e9 bc fc 66 dd 3e
       -0.07380706 -0.07053168 -0.028453244 0.43242633
000010 6d 27 53 be 80 fe da 3b 04 b5 1e bd b2 9a 97 be
       -0.20620508 0.006683171 -0.03874685 -0.2961021
000020 13 a2 87 be f7 1c 80 be 88 21 ba bd 51 f8 30 be
       -0.2649084 -0.25022098 -0.09088427 -0.17282225
000030 71 9c a1 3d a7 de 3c be 22 1a 5e be e9 79 8d be
       0.07891167 -0.1844431 -0.21689656 -0.27632073
000040 1c 8a 3d be 0d f4 11 3d 0a d7 b6 be e6 8e 2d be
       -0.18509716 0.035633136 -0.35710937 -0.16949043
000050 7a 03 e5 3d fa 5e f4 3d e6 5c 92 3e c0 0b ff 3d
       0.11182304 0.11932178 0.285865 0.12453413
000060 d3 d8 37 be 3d 6f c3 bd 86 15 1c be 9f c5 79 be
       -0.17953806 -0.095427014 -0.15242586 -0.24391793
000070 79 1a 03 3d 39 ca 3c be 37 29 7a 3e 57 73 12 be
       0.03200767 -0.18436517 0.24429785 -0.14301811
000080 58 fd 7e be a0 f4 01 3e e6 53 07 3e e7 b1 88 be
       -0.2490133 0.12690973 0.13215598 -0.2669823
000090 6c 7c 05 3d 4a 71 0d be 13 d4 52 be 37 b3 39 3e
       0.03258936 -0.13812748 -0.20588712 0.18134771
0000a0 d1 e1 8c 3e ae ec 5e be 72 27 c0 bd e7 fd 44 bd
       0.27516034 -0.21769974 -0.093825236 -0.048093703
0000b0 64 af dc bd 64 37 ac 3b cb c6 96 bd bd 44 12 3d
       -0.107756406 0.0052556265 -0.073621355 0.035710085
0000c0 66 ec 8e be 31 5c 57 bd 80 4c 92 3e 9a 99 a8 be
       -0.27914733 -0.052578155 0.2857399 -0.3292969
0000d0 32 3c d2 be 97 d3 ae 3e 95 e4 ac 3e 4a 1e 35 3e
       -0.4106155 0.34145805 0.33768144 0.17687336
0000e0 b8 e4 11 bd 93 d7 31 bb b8 3b 09 3e 43 f1 ef bd
       -0.035618514 -0.002713655 0.13401687 -0.11715939
0000f0 19 45 cd 3b 64 6e 33 3e 98 a2 ff 3d 98 84 9d bd
       0.0062643406 0.1752258 0.12482184 -0.07691306
000100 c6 92 bd 3c 56 6b fc bd cb 43 81 bc 66 32 c3 bd
       0.023141276 -0.1232516 -0.015779397 -0.09531097
000110 5b 3e dc bd 74 8b ba bb 38 86 cd 3c 78 e6 3d 3e
       -0.10754081 -0.0056928936 0.025088415 0.18544948
000120 48 75 da bd 34 76 ce bc d3 43 5c bd 9c 46 d5 3e
       -0.10666901 -0.025202848 -0.05377562 0.41655433
000130 ae 8f ac bd ee 80 57 be 89 e9 f7 3d d0 a5 31 be
       -0.08425842 -0.21045277 0.1210509 -0.17348409
000140 4d 15 c1 3c 51 2c f1 bc 73 4d 6c be 25 55 8e 3d
       0.023569727 -0.029440077 -0.2307642 0.06949834
000150 c3 3d 22 be e0 a4 a4 be fa b4 60 be e5 ce ec bd
       -0.15843873 -0.3215704 -0.21944037 -0.115628995
000160 35 ce 3f bc 63 52 e0 bd 08 c1 33 be 50 c5 b9 bd
       -0.011706878 -0.10953214 -0.17554104 -0.090708375
000170 e7 4f b5 3d b0 50 df 3d 41 6c 9e 3e 73 b4 1b bc
       0.08853131 0.10904062 0.30941966 -0.009503472
000180 d2 fa 0d bc 7c e9 be bd d0 ba 79 3d 27 f2 25 3e
       -0.008665757 -0.09321877 0.060969174 0.16205655
000190 de 03 35 3e f7 e1 9b bd 87 35 ce 3d 8b 2d ee 3d
       0.17677256 -0.07611459 0.10068803 0.116297804
0001a0 fb 4e 47 3e 2d 1a 4f be 57 d8 44 3e e2 7e 27 3e
       0.19463722 -0.20224829 0.19223152 0.16356996
0001b0 1f 39 3d 3e 47 40 2a 3e 5a ed f6 bd 36 c7 27 3e
       0.18478821 0.16626082 -0.1205699 0.16384587
0001c0 af 88 25 bd 35 24 b4 3e ce 32 3e be 08 fb bc bd
       -0.040413555 0.35183874 -0.18574068 -0.09227568
0001d0 83 6c 52 3e b6 71 61 be bb d0 17 be 78 de 20 3c
       0.20549206 -0.22016034 -0.14825718 0.009818666
0001e0 82 6e 7c bd 36 c9 9f 3d 24 23 74 3e 12 69 0b bd
       -0.061628826 0.0780205 0.2384153 -0.03403575
0001f0 e8 ab 4a 3e e4 36 e8 bd ba d6 48 3e 8d ac fd 3c
       0.1979214 -0.113385946 0.19613162 0.030966068
000200 5e 6b 4f 3e 80 0e 35 3e 71 8d b6 be e8 dc a5 bd
       0.20255801 0.17681313 -0.35654786 -0.08098775
000210 12 74 df bd f1 6c 0b 3e bf 32 71 3d 9a c8 94 be
       -0.109108105 0.13615777 0.058886286 -0.29059297
000220 b1 40 16 3d 21 a4 a0 bd 2a 4d 13 be f7 ac 04 be
       0.03668279 -0.07843805 -0.14384905 -0.12956606
000230 7f 14 d5 3d 01 6b bd 3d 9f a5 81 3e 92 49 5b 3e
       0.104043 0.09248925 0.2532167 0.21414784
000240 e4 77 cd 3d 2a d2 44 3d 2a ce c7 bd 7a c6 96 3e
       0.10032633 0.04805199 -0.097561195 0.294483
000250 35 9e d6 bd 88 31 90 be ce be a8 3c dc 69 a1 bc
       -0.10479394 -0.2816279 0.020598795 -0.019703798
000260 e3 fd 85 3e 1f 7b 14 3e ce ca 52 be a1 07 cf be
       0.26170263 0.14500092 -0.20585176 -0.40435508
000270 82 df 01 be 4d fd a3 3e 50 03 06 3d 62 e4 bc bd
       -0.12682918 0.3202919 0.032718003 -0.09223248
000280 81 1f 8f bc 82 1a aa 3c 47 d9 47 3d 88 28 22 bc
       -0.017471077 0.020764593 0.048791196 -0.009897359
000290 55 b1 86 be 75 1c fa 3d e3 06 88 3d 4b ab 12 be
       -0.2630717 0.12212459 0.066419385 -0.14323156
0002a0 ae 36 98 3e ff 67 52 3d 4a ad 24 bc 60 d5 f4 3d
       0.29729217 0.05136871 -0.010051081 0.119547606
0002b0 85 95 c6 3d a4 66 42 be f6 01 c9 3d fc a0 96 be
       0.09696487 -0.18984467 0.09814827 -0.29419696
0002c0 1b 7c 08 be 38 25 33 bd 91 53 5a bd 2f 7f 30 3a
       -0.13328592 -0.043736666 -0.05330235 0.0006732819
0002d0 c1 38 3f 3e 93 68 4e 3d 3a 42 ba 3d 02 33 91 3d
       0.18673994 0.0503927 0.09094663 0.07089807
0002e0 4f 4b ca 3e 9f 97 bc bc 3d 01 80 3e a7 f1 7b be
       0.3951058 -0.023021517 0.25000945 -0.24603902
0002f0 cd 5e 1a 3e 8c 86 9c 3c 08 e7 81 3e d0 04 0e bd
       0.15075226 0.019107126 0.25371575 -0.03467256
000300 ac cc fc 3d 73 12 3f be a5 24 c5 3a b6 6f a5 3c
       0.123437256 -0.18659382 0.0015040828 0.02019487
000310 51 49 e6 3c e5 78 02 3d 13 8a f9 bd 2f e5 be bd
       0.028111132 0.031853575 -0.12184539 -0.09321057
000320 db bb 43 bb 5e 5e 25 bd f0 ca 0c 3e db cc 36 3e
       -0.002986661 -0.0403732 0.1374929 0.17851584
000330 53 25 06 3e 43 f9 53 bd a9 7c ce 3d 4c b9 be 3c
       0.13100176 -0.051751386 0.10082371 0.023281716
000340 c3 f8 08 3d 80 d3 06 3e c5 94 a5 3d 9d 9e 32 bd
       0.033440363 0.13166618 0.08085016 -0.043608297
000350 62 61 cd 3c c3 65 ca bd c7 e4 38 3e fc ac a3 3d
       0.02507085 -0.09882691 0.18056022 0.079919785
000360 14 46 8a 3e da 04 d4 bd e0 cb 1b 3e da 8e 88 be
       0.2700659 -0.10352488 0.15214491 -0.26671487
000370 2d 2d 56 3c d0 22 b7 bd 52 18 1d be 79 ef 69 3c
       0.013072294 -0.08942187 -0.15341309 0.014278286
000380 71 9a 4e 3e 99 01 49 3d 72 89 ee be 36 b3 89 bb
       0.20176102 0.04907379 -0.46589237 -0.004202272
000390 b9 37 8f 3e 2f c1 e4 bd 62 b1 95 bd ff 68 76 be
       0.279722 -0.11169659 -0.07309224 -0.2406349
0003a0 fd de 31 be 8b 1f 87 bc e2 aa 8a 3d a2 f8 41 be
       -0.1737022 -0.016494533 0.067708746 -0.18942502
0003b0 84 37 7e be ac f4 b6 bd 29 36 18 3c 12 61 e1 3d
       -0.24825865 -0.08933386 0.009290257 0.11004843
0003c0 73 1b 81 be ce 72 1d be a1 92 14 3e 81 4b 90 3d
       -0.25216255 -0.15375826 0.1450906 0.07045651
0003d0 52 4f f3 3c f0 0d 3b be ad 6e 47 bd 81 df 80 3e
       0.029700909 -0.18267035 -0.048689533 0.2517052
0003e0 8f 23 d7 bd 1d e0 63 be 2e ca c2 3a d1 6d 0c 3e
       -0.10504829 -0.22253461 0.001486128 0.13713767
0003f0 e5 bf 09 be 3a 0d 22 3d 6c 01 e1 bc 22 45 83 3c
       -0.13452108 0.039563395 -0.027466498 0.016024176

network_body._body_endoder.seq_layers.0.bias f4 [256]
000000 8e bb 2c bd bb 39 9a 3b e0 4e 8d bb a7 25 b8 3c
       -0.042171054 0.004706589 -0.004312381 0.022478892
000010 26 5b dd 3c 70 b7 95 bc 37 a5 d3 3b f0 e7 74 bc
       0.027021002 -0.018275946 0.006458904 -0.014947876
000020 6a 70 9d bb 78 9f aa bb b3 1f 4e bc 5a a7 e0 3c
       -0.0048046606 -0.0052069984 -0.0125808 0.02742355
000030 53 89 3e bd b1 1f f8 bc 8c bd 54 3c b4 4d e8 3c
       -0.04651768 -0.03028855 0.012984645 0.028357364
000040 77 39 e0 3b c8 3f 02 3d a6 1c 29 3c bd a5 ec bc
       0.006842788 0.031799108 0.010321772 -0.028887624
000050 c9 86 3a bd ad ad 45 bd 8a d6 d6 3c 40 ab 48 bd
       -0.045538697 -0.048261333 0.026225347 -0.04899144
000060 af ae f4 bb 74 18 3a bd 1c b6 8d 3a 67 8f 0d bb
       -0.007467113 -0.045433477 0.0010811719 -0.0021600367
000070 13 74 9e bc a4 8e d0 bc b5 87 97 3c c8 2c c0 3c
       -0.019342458 -0.025458641 0.018497327 0.023458853
000080 b9 5a 58 bd 74 15 38 3c 93 68 b4 3c eb c6 36 bc
       -0.052820895 0.011235584 0.022022521 -0.011155824
000090 e9 bd 6e 3b 68 a5 8a 3c b3 e4 66 bd e6 65 14 bc
       0.0036429113 0.016924575 -0.05637045 -0.009057498
0000a0 e4 2b 2e 3c 70 53 25 3c c7 ab 07 3c 67 70 05 3d
       0.0106305815 0.010090694 0.008280701 0.0325779
0000b0 46 9f 8c bc 00 bb da 3c 88 20 21 3c e3 70 97 bc
       -0.017165791 0.026700497 0.009834416 -0.018486446
0000c0 b6 dd 3c 3b 5f 36 c3 b8 57 58 b3 3b d4 71 13 3d
       0.0028818673 -9.308452e-05 0.0054731774 0.035997227
0000d0 2b a3 56 3c bf 0b 29 bd 66 36 ef 3c ba 79 24 bd
       0.013100426 -0.041270968 0.029200744 -0.04015515
0000e0 30 d7 39 3c f4 f4 c4 3c 3c 63 db 3c d3 a8 12 3c
       0.011342809 0.024042584 0.026780717 0.008951384
0000f0 fd 44 6a bc bd ad e7 39 a0 10 de bb f6 20 62 3c
       -0.014298675 0.00044189199 -0.006776884 0.013801804
000100 60 10 f2 3c b3 2f b0 3c 93 84 6f 3c 1b 64 0a 3c
       0.029548824 0.02150712 0.0146190105 0.008446719
000110 ad 94 4a 3c 07 32 15 bd dc e4 24 bd fa 59 bc 3c
       0.012364549 -0.036424663 -0.04025732 0.022992123
000120 45 bf ec bc 63 52 64 3d 0c 85 37 3c 5b ff 9e 3b
       -0.028899798 0.055742633 0.011201154 0.004852218
000130 d5 77 dc bb 28 ea f2 bc 29 5f 29 bc 2b 46 a2 3c
       -0.0067281523 -0.02965267 -0.010337629 0.01980885
000140 ed 1f df 3c 37 f7 58 bc a0 e9 03 bb 2d 26 05 3c
       0.027236903 -0.013242534 -0.0020128265 0.008126778
000150 1a 70 cd 3c b4 67 0c 3d 2e c4 57 3c 97 ed 6d bb
       0.025077868 0.034278587 0.0131693315 -0.0036304945
000160 0e 58 81 3c af 82 40 3c 8a 0e 42 3c 62 ee f7 3c
       0.015789058 0.011749907 0.011844287 0.030265037
000170 28 c1 32 bb ef 18 d5 3c eb 2e a3 bc 2b 72 7e bc
       -0.0027275775 0.026012866 -0.019919833 -0.015530149
000180 ea 71 3c 3c 80 1b 78 3b 06 98 22 39 8e 03 a0 3c
       0.011501769 0.0037858188 0.00015506157 0.019532945
000190 0a 11 be 3c 52 a9 34 bc 83 be df 3b 84 74 c3 3c
       0.023201484 -0.011026697 0.0068281307 0.02385927
0001a0 6b ca 91 bb 36 53 38 bc 64 8b fe 3b fe 8b 1b bd
       -0.004449179 -0.011250308 0.0077680815 -0.037975304
0001b0 1b 4d 41 bd a9 45 4a bc 23 1d 60 bc 4f 36 c8 3b
       -0.047192674 -0.01234571 -0.013678822 0.0061099897
0001c0 ee 7d 95 3c 30 18 c6 bc 35 ee d1 bc c5 23 eb 3c
       0.018248525 -0.024181455 -0.025626281 0.02870358
0001d0 bb a1 8e bc e2 e6 61 3c d0 a0 93 3c 30 e4 84 3c
       -0.017411103 0.013787957 0.018021017 0.01622209
0001e0 f8 cb 1d 3d d0 82 24 3c 86 38 e2 bc 48 89 25 3d
       0.038524598 0.010040954 -0.027614843 0.040414125
0001f0 3f a9 ca bc c2 83 e8 bb cb 06 1b bd 67 58 07 3d
       -0.024738906 -0.007095785 -0.037848275 0.03304329
000200 76 96 de 3c c7 eb ee 3c 19 cf 9f 3b ae 9e 20 bc
       0.027171355 0.029165162 0.004876983 -0.009803457
000210 0c 1d 12 bd f1 7d 83 3c 70 8e f3 3c cf 58 24 bc
       -0.035672233 0.016051264 0.029731005 -0.010030939
000220 17 01 9e bc 6e 65 1a bd 63 3b bb bc c9 68 23 bc
       -0.019287629 -0.037694387 -0.022855466 -0.009973713
000230 b6 59 1b 3d 2a a9 9b bc d9 ce 43 3d 42 a1 02 3c
       0.037927352 -0.019001562 0.047804687 0.007973017
000240 75 04 dc bb 1f 2a ba 3c 0b 70 ad 3c 59 45 b6 3b
       -0.0067143985 0.022725163 0.02117159 0.005562466
000250 4c e6 b0 3c 8b b4 08 bc 37 3d 8b 3c 2d 1d 5d 3c
       0.02159419 -0.008343826 0.016996963 0.013495726
000260 b8 47 ea 3b f0 c9 2a 3d 2a df f3 bc 76 8d 59 bb
       0.007149663 0.04169649 -0.029769499 -0.003319589
000270 97 d2 f0 3c b9 fe 84 3a f6 cd 52 3d a3 57 09 bc
       0.029397292 0.0010146714 0.05146595 -0.008382711
000280 8e 84 b6 3c b3 12 4e 3c a8 68 1b bd 3f d2 81 bd
       0.022280004 0.0125777 -0.037941605 -0.063389294
000290 ab 3a 82 3c 2a 97 ae 3c 56 17 85 bc 75 31 ea 3c
       0.015897116 0.021312315 -0.016246479 0.028588036
0002a0 01 02 05 bb 2d 9a 5e bd 2c eb 0b bd 08 35 07 bd
       -0.0020295384 -0.054346252 -0.034159824 -0.03300956
0002b0 71 ea ac 39 13 ef e4 bc 7d bd 6c 3c 15 35 4c bc
       0.0003298107 -0.02794603 0.014449474 -0.012463828
0002c0 8f 9b 53 3d 21 c4 5d 3c 9c 81 81 3b 2e 3e c8 39
       0.051662024 0.01353553 0.003952218 0.000381933
0002d0 5b 35 85 bc 9e 9c 5d bc 90 21 d1 bb 53 7b 9c 3c
       -0.016260793 -0.01352611 -0.006382175 0.019101774
0002e0 da 25 34 bb 30 32 75 3c 4b 1a dc 3c 2e 0e c0 3c
       -0.0027488382 0.014965579 0.026868006 0.023444261
0002f0 b4 11 5d ba f9 56 c9 3c ca 11 0f bd 47 07 30 3d
       -0.0008433119 0.024577605 -0.034929074 0.04297569
000300 9e 55 15 bc 75 e4 eb 3c 7d 37 2b 3c f6 33 eb 3c
       -0.009114651 0.02879546 0.010450241 0.0287113
000310 de 9c 82 3c 76 4d 1b bc 62 72 db ba 8c 90 c5 bc
       0.01594394 -0.009478917 -0.0016742463 -0.024116777
000320 0b 46 21 3d 39 af 9b bc 90 2a 54 bc f5 c5 d9 bb
       0.03937344 -0.019004451 -0.012949601 -0.006645913
000330 fc 88 04 3d e8 3d ac bc be 78 3e bc fa 77 58 3d
       0.0323572 -0.021025613 -0.011625467 0.052848794
000340 74 3a da 3a af e3 11 bd 93 79 6a 3d ad 3b 8d 3c
       0.00166495 -0.035617527 0.05724485 0.01724037
000350 32 17 03 3d 9e 44 2f 3d 9a aa 0c 3d f9 0a 7f 3c
       0.032004543 0.042790048 0.034342386 0.015566581
000360 9e 0c fa 3c 55 ec 49 3a cd 43 6b 3c aa d8 be 3a
       0.030523594 0.0007702758 0.014359427 0.001456042
000370 e8 56 c2 bb 93 67 6b 3b 51 af f7 bc c0 28 7a 3c
       -0.00593077 0.003591989 -0.030234965 0.015268505
000380 91 a1 fe 3b 42 13 a5 3c d3 93 29 bb ba 17 76 bb
       0.007770725 0.020150784 -0.0025875464 -0.0037550763
000390 46 40 96 3b 4a d3 88 3b fc 24 85 3c 34 54 94 bb
       0.0045852987 0.0041755782 0.016252987 -0.0045266394
0003a0 9c 57 4e 3d 42 80 e2 3c c8 94 c3 3c 39 01 08 3d
       0.05037652 0.027649049 0.023874655 0.03320429
0003b0 5a 00 50 3c 9d 85 c1 3c f4 b1 b6 bb d9 21 09 bd
       0.012695396 0.023623282 -0.005575413 -0.033479545
0003c0 96 00 8a 3c 54 87 18 bc 8b 30 87 3c 69 d8 60 3d
       0.016845983 -0.0093096085 0.01650264 0.054893885
0003d0 9a 5c be bc d2 9e 25 3b 8b 32 17 bd a5 05 9f bc
       -0.023237515 0.0025271666 -0.036913436 -0.019411871
0003e0 cc b3 9b 3c 40 19 1e bd f9 69 3a 3c 42 a5 88 3c
       0.019006632 -0.0385983 0.011377805 0.016680364
0003f0 a4 75 9f bb b5 66 8a bd 6a 51 c8 3c 89 44 6b 3d
       -0.004866319 -0.06757871 0.024452884 0.057438407

network_body._body_endoder.seq_layers.2.weight f4 [256, 256]
000000 94 d6 a5 3c 34 f5 ba 3c 7e 14 89 bd 1b 94 ba 3c
       0.02024392 0.022822 -0.06693362 0.0227757
000010 7d ba 5e bd 23 71 0a 3e 57 ee 99 3d 02 7f 62 bd
       -0.054377068 0.1351972 0.07516163 -0.055296905
000020 81 1d f9 3d cf 86 89 bb fa d9 e8 bd 80 96 45 3d
       0.121638305 -0.0041969786 -0.11369701 0.04823923
000030 69 ba 40 3c 2c e4 cd bd 9f 56 94 bd 5c c5 d6 bb
       0.011763194 -0.10053286 -0.07243084 -0.006554289
000040 53 cf 96 3d 47 92 e6 3c f3 08 a8 3d 1c fd 76 3d
       0.07363763 0.028145922 0.08204832 0.060299978
000050 0a 46 f9 3a e5 a2 b2 3d ad 40 9f bd 6c f2 79 bd
       0.0019018066 0.08722476 -0.07776008 -0.061022207
000060 1f 20 a5 3d 21 6f ec 3c 98 08 84 bc c3 cd a6 bc
       0.08062767 0.028861584 -0.01611738 -0.020361787
000070 f7 50 f4 3c 5d c8 8a 3c d4 31 21 3d d3 81 29 3e
       0.029823763 0.016941244 0.03935416 0.1655343
000080 b3 8b 72 bc 55 2e bb bc 3f ba e8 bc bb 6e 10 3e
       -0.014803815 -0.022849241 -0.028409122 0.1410474
000090 e5 10 7b 3d ce 5a 1a be 51 1a 96 bc 5b 17 a6 bd
       0.06129541 -0.15073702 -0.018323096 -0.081099235
0000a0 bc 7d cf bd ff be c5 3b 71 b5 83 bd b1 0a 6b bd
       -0.10131404 0.0060347314 -0.064310916 -0.057383243
0000b0 3b 31 42 3d d1 3d 2a be 3d 05 bf bd c1 bb b1 3d
       0.04741023 -0.16625144 -0.09327171 0.08678389
0000c0 c9 06 c8 3c b7 ab d9 bc 1d fd 86 3d 6b b7 83 3a
       0.024417298 -0.026571138 0.06591246 0.001004917
0000d0 6d 57 29 3e 4b 1b 3d 3d 39 5a ad 3d fc c5 6b 3d
       0.16537257 0.046168607 0.08464474 0.05756186
0000e0 49 8d f8 bc b9 be 04 3e 44 b2 14 3e 42 fd d5 3d
       -0.030340808 0.1296338 0.14521128 0.10448696
0000f0 90 47 d1 bc fb 67 f3 bd 9d b6 55 3d fe 55 0a be
       -0.025546819 -0.11885067 0.052176107 -0.13509366
000100 45 9d 8f bb d1 d6 3b 3c 14 80 5d bc b8 e2 02 3c
       -0.0043827617 0.01146479 -0.013519306 0.007988624
000110 b2 8d cf 3c 3c e2 07 3c bf 2e 16 3c 07 20 f1 ba
       0.02533612 0.008293685 0.009166419 -0.0018396386
000120 91 96 58 3d cd 1c 8f bd c1 b2 00 bd 1f 07 94 3d
       0.052877966 -0.06987915 -0.031420473 0.07227921
000130 35 fc f6 3c ba 5a 0b 3d 9a e1 d7 bc 5e 23 d6 3c
       0.030149559 0.03402207 -0.026352692 0.026139911
000140 ae f1 83 bd d8 a6 d4 3d 3f f9 9e 3b 16 0f 1a 3d
       -0.06442581 0.103833854 0.00485149 0.037612043
000150 32 02 bd bc dd e5 48 bb 55 e1 f9 bc 74 7d b4 3c
       -0.023072336 -0.0030654587 -0.030502954 0.022032477
000160 34 fc d6 3d 3c 69 4e 3a b0 53 54 bd a9 0e 04 3d
       0.10497323 0.00078739575 -0.051837623 0.032240544
000170 01 f8 23 bd 26 49 0a 3d 8d d4 39 bd b7 0e 98 3d
       -0.040031437 0.033761166 -0.04536872 0.07424682
000180 cc 73 2c 3d e7 1a 9c 3c 4a 2e 03 bd 7e 9d a8 3d
       0.04210262 0.019055797 -0.032026567 0.08233164
000190 7a bb 0d bc 84 8a 53 3d 41 4f f7 bc f8 19 17 3d
       -0.008650655 0.05164577 -0.030189158 0.03689
0001a0 3a cc 8b 3d 39 3f 2b 3d b8 65 e7 bd cf f7 36 bd
       0.068260625 0.04180834 -0.11298698 -0.044669922
0001b0 88 3b 00 3d 45 53 cd bd 00 43 a3 bd 51 3e 93 bd
       0.031306773 -0.10025648 -0.079717636 -0.0718962
0001c0 12 47 9a bd 18 ec 40 bd c1 a0 82 3a 28 44 45 bd
       -0.07533087 -0.047100157 0.0009966121 -0.048160702
0001d0 f5 88 4c 3e c1 7a ab bd 36 5b dd 3c 98 c4 cb bc
       0.1997412 -0.08373023 0.027021032 -0.024874017
0001e0 b4 51 1c 3c ff d9 bb 3d f1 e5 0a 3e 5a 1e b3 bd
       0.009540964 0.09172439 0.13564278 -0.087460235
0001f0 41 05 85 bd b7 aa 4b 3d ea 2a e3 bd 7d f4 15 bd
       -0.06495143 0.049723353 -0.110921696 -0.036610115
000200 cc a9 65 3d a6 d9 26 b9 44 f1 7d 3b 6d c6 0d bc
       0.056070134 -0.00015912074 0.0038748542 -0.008653265
000210 fd 9f b9 3c 52 5d e3 3d 80 66 fb 3d c6 a9 16 3d
       0.022659296 0.11101784 0.1227541 0.036783002
000220 93 85 00 3e af 3a d1 3d a8 54 94 bc b4 fb 3a bc
       0.12550955 0.10216271 -0.018106773 -0.01141255
000230 9d b4 f5 bc c2 4c cf 3b 15 2a bd 3d 87 3e 4c bd
       -0.02999335 0.006326289 0.09236542 -0.04986432
000240 94 33 94 bd a0 f0 ef bd e3 e4 9b 3c bd 18 4b bd
       -0.072364 -0.117158175 0.01903004 -0.04958414
000250 54 3d 44 bd 20 3a 0d bd 02 10 99 3d 06 ae 0a 3e
       -0.04791005 -0.03447926 0.074737564 0.13542947
000260 28 c8 0b 3e 4b 8d cd bd ac 73 8b 3d f1 84 d0 bd
       0.13650572 -0.10036715 0.06809172 -0.101816066
000270 ab 81 4f 3d f6 06 c5 bd a2 b2 26 be f7 df 3c bd
       0.05066077 -0.09620468 -0.1627908 -0.046112027
000280 f6 cd 35 3d c5 29 0b 3e 0e 02 97 bc 6b f2 3b bb
       0.044385873 0.13590153 -0.018433597 -0.0028678428
000290 af 2c c8 bd 29 28 0a bd a6 7b 3c bd ba ab 8c 3c
       -0.09774148 -0.033729706 -0.046016358 0.01717173
0002a0 a9 81 28 bc 59 1f cc 3c 7a d1 15 bc 94 67 27 bd
       -0.01028482 0.024917291 -0.009144181 -0.040870264
0002b0 9c a9 8c 3d 46 bc 23 3d ea 61 0a 3e 04 2b 8c bd
       0.06868288 0.039974473 0.13513914 -0.06844142
0002c0 c4 b7 6a bd eb 86 58 3a 19 0f 58 3c c0 56 59 3c
       -0.05730416 0.00082598504 0.013187193 0.013265312
0002d0 3d cf 4a 3b c4 da 44 3d 28 9a 0d be 92 75 bd bd
       0.0030946278 0.048060194 -0.13828337 -0.092509404
0002e0 3b e4 cd bd 38 82 46 3c d5 35 ae bc ee fb df 3d
       -0.10053297 0.0121160075 -0.021265903 0.10936724
0002f0 45 87 aa 3d 66 73 07 3e 05 70 db bc 1c 96 a4 3d
       0.08326582 0.13227615 -0.026786814 0.080364436
000300 2b f0 7a bd 13 00 de bc 0c 55 88 bd 48 8f d2 3c
       -0.0612642 -0.027099645 -0.066568464 0.025703087
000310 26 d7 35 3e 60 9f 58 bd bb a6 0f 3d 5c 0b 4b bd
       0.17757854 -0.052886367 0.035071116 -0.04957138
000320 45 b7 01 3d 79 81 5b bc 4a c4 9b 3c 2e 7e 09 3d
       0.03166892 -0.013397568 0.019014496 0.0335676
000330 9f 3c 39 3c d6 26 93 bb ba eb 81 bd b3 60 d8 3c
       0.011305957 -0.0044907136 -0.063437894 0.026413297
000340 75 61 16 3c a2 0b a0 bc 46 da 88 3d 69 d3 a6 3d
       0.009178509 -0.019536797 0.06682257 0.08145792
000350 81 7f 35 3e ac 1b 35 3d 1d 2d 0b 3e d3 ba 23 bc
       0.1772442 0.044215843 0.13591428 -0.009993273
000360 8c 5a 67 3e 16 5c 9d bd 0e e6 28 bc 56 d1 e3 3c
       0.22593135 -0.076835796 -0.010308756 0.02780978
000370 bf ec 51 be 1f eb 3e 3d 47 11 49 3d 7b d2 75 3d
       -0.20500468 0.046610948 0.049088743 0.060015183
000380 2a 46 9d bd 7c d3 1b bd e5 9e 27 be b4 07 ad 3d
       -0.07679398 -0.038043484 -0.16369207 0.08448735
000390 ff 56 44 3d e5 aa 9c 3d 35 b2 4a bd 60 0f 86 bd
       0.04793453 0.07649783 -0.049486358 -0.06545901
0003a0 40 ae 62 3d 78 24 ba ba 4a 99 82 3d 59 fe 3a bd
       0.05534196 -0.0014201542 0.06376894 -0.04565272
0003b0 7d 40 a2 bc 1f c1 96 3d 51 49 a1 bd da 63 4f bd
       -0.019806141 0.07361054 -0.07875312 -0.050632335
0003c0 e2 e2 db bd e1 f5 ab bd 9f b9 92 bd 8d eb 28 3e
       -0.10736634 -0.08396507 -0.07164311 0.16496105
0003d0 10 b2 37 bd 29 7b 54 3b 6f ea 8d bd 84 68 7a 3c
       -0.044847548 0.0032422042 -0.0692948 0.0152837075
0003e0 eb 23 e0 bd aa ad 5c bc 7b 22 bc 3c d8 63 c2 bd
       -0.10944351 -0.013469139 0.02296566 -0.094917
0003f0 26 63 08 3d b0 85 a5 3c 8b 2f f5 3d 1d c1 8d bd
       0.03329768 0.020205349 0.11971959 -0.06921599

network_body._body_endoder.seq_layers.2.bias f4 [256]
000000 1c b1 51 3c 21 ca 8a 3b 4c 35 86 bb 72 19 5e 3c
       0.012798574 0.0042355214 -0.004095709 0.013555871
000010 eb d7 6c bc 7f 39 06 3d 22 45 75 bc 79 4d f1 3c
       -0.014455776 0.032769676 -0.014970096 0.029455887
000020 7a 0b 91 b9 52 99 bf 3c 41 ea f7 3b c0 e8 96 3c
       -0.00027665106 0.023388539 0.007565767 0.01842153
000030 db e3 a4 3b ac 38 d0 3c 77 d9 63 bc d8 de ca bb
       0.0050320453 0.025417648 -0.013906828 -0.006191116
000040 0e c7 e8 3c f9 a4 1a 3d 84 7b 0e bd ad eb 76 bc
       0.02841523 0.037754986 -0.034785762 -0.015070838
000050 0b b0 bc 3b 5f e2 1c 3c d4 35 cd 3c 70 f4 2c bc
       0.0057582906 0.009575455 0.025050081 -0.010556325
000060 5c ef 7d 3c 48 36 b3 3b ee 64 6a 3b e9 1d 4a 3b
       0.015498962 0.0054691173 0.0035765725 0.0030840582
000070 5d 55 9e 3b 73 e2 38 3c 8b d2 b1 3c 31 cb 25 b9
       0.0048319534 0.011284458 0.02170684 -0.00015811321
000080 69 aa e6 3b 8b f2 6c 3c 7c 1a 52 3c 76 5d 90 3c
       0.0070393574 0.014462124 0.012823697 0.01762269
000090 a6 cb 1d bb e1 37 d3 3c 96 8f b9 bb 82 19 39 3c
       -0.0024077683 0.025783481 -0.0056628687 0.011297585
0000a0 73 4b 21 3c 56 31 18 b9 56 95 5f 3a a6 3b c5 3a
       0.009844649 -0.00014514229 0.00085290277 0.0015047684
0000b0 1c d9 df 3b 10 85 8d 3c 0e f0 ee 3a 91 f5 81 3b
       0.0068313014 0.017275363 0.0018229501 0.0039660414
0000c0 80 0c 79 3c ff 27 39 bc f3 a9 8e 3c a8 00 5d bb
       0.015200734 -0.01130104 0.017415022 -0.0033722315
0000d0 89 ac 89 bc 79 77 b3 3c dc 87 52 bc 30 65 a7 bc
       -0.016805904 0.021907555 -0.012849774 -0.020433992
0000e0 b0 57 81 bb ae 1f 84 3c 00 70 30 3c de 8b 30 bc
       -0.0039472207 0.016128387 0.01076889 -0.010775534
0000f0 c6 ef d9 bb a4 75 af 3c a2 80 3d 3c 76 6e aa bc
       -0.0066508977 0.0214184 0.011566313 -0.020804625
000100 75 12 aa 3c eb fa 71 bc f5 08 c5 3b a8 57 2e bc
       0.020760754 -0.014769296 0.0060130307 -0.010641016
000110 c2 37 82 bc 29 8a 1f 3c ec 31 89 bb 68 78 1a 3c
       -0.015895728 0.00973753 -0.0041868594 0.009428121
000120 b7 0d 69 3c ed ac 2d bc 5c ab 45 3b cd 28 95 bc
       0.014224461 -0.010600311 0.0030161953 -0.018207932
000130 68 a3 59 3d 1f 07 a0 3c d8 39 f7 bb d3 fc be 3b
       0.053134352 0.019534646 -0.0075447373 0.005828479
000140 ac f5 01 bb 2d d2 56 3c dd bc 79 bc 83 d7 ad 3c
       -0.001983027 0.013111633 -0.015242782 0.021220928
000150 6c ef 3d 3c 68 ec cd 3c a8 7b c2 3c 0c 0e 9e 3c
       0.011592727 0.025137141 0.023740605 0.019293807
000160 c1 0b 35 bc e9 d1 40 3c 21 c2 56 3b 5f ac c3 3b
       -0.011050166 0.0117687965 0.0032769518 0.005971476
000170 cd 7b 0d 3b db 1d b0 3c 09 a8 c1 bb 1e 43 8f bc
       0.0021588684 0.021498611 -0.005909924 -0.017488059
000180 3c 46 12 3d e1 5e 97 bc 95 69 ec 3c 85 b8 ca 3b
       0.035711512 -0.018477859 0.02885894 0.006186547
000190 99 f4 4c 3c c0 0d 47 3b 95 98 6a 3a 59 7d 9a 3c
       0.0125094885 0.0030373186 0.0008949128 0.018858599
0001a0 b1 71 1e 3c e1 d2 1f 3b d8 d6 0e 3c b1 93 81 3c
       0.009670661 0.0024387168 0.008718215 0.015817495
0001b0 6f 97 ae 3c 6e a2 59 bc 1c 62 87 39 1f 5b c7 3b
       0.021312444 -0.013283355 0.00025822304 0.0060838605
0001c0 a1 53 ac 39 03 2e c9 bb 89 3b 51 bc ba f1 8b 3a
       0.00032868705 -0.006139518 -0.012770542 0.0010676899
0001d0 dd b7 0d 3d 79 d4 cd bb 61 d2 c9 bc 97 8c 0d bd
       0.034599174 -0.006281432 -0.02463645 -0.034557905
0001e0 65 52 59 ba 5f f5 58 bc 95 fe 03 3d c4 f6 c4 bb
       -0.0008290171 -0.013242095 0.03222521 -0.006010862
0001f0 78 76 0a 3b fd 24 ee bb 2b e8 db bb 86 f3 48 bc
       0.0021127742 -0.007267593 -0.006711026 -0.012265092
000200 51 e1 11 3c 4a ca 00 3c f9 55 b3 bc a3 07 06 3c
       0.008903817 0.0078607295 -0.02189158 0.008180532
000210 1f ea a5 3b 5d f8 6a 3c 53 b8 3b 3b a9 a5 d9 3c
       0.00506331 0.014341441 0.0028643801 0.02656825
000220 d0 cd 64 3c 17 6f 4f 3c f2 9c 83 b9 e5 5a bc bb
       0.013965085 0.012660763 -0.000251032 -0.00574814
000230 5c 6b d7 3c 2a 82 cf 39 3f 90 9c 3c 54 5d 2e 3c
       0.02629631 0.00039579096 0.01911175 0.010642368
000240 19 39 02 3d 58 c7 bd 3b 62 00 fb bb c0 9a f7 3c
       0.031792734 0.005791586 -0.0076599577 0.030225158
000250 b9 14 84 bb 75 0e b8 bb 73 f8 de 3b 2e 25 19 3b
       -0.0040307906 -0.005616958 0.00680452 0.0023368108
000260 e2 cf 10 3a 6e 3d 74 3c b4 4f d4 3a 9d ee 13 3b
       0.0005524141 0.014907224 0.001619807 0.0022572645
000270 92 6f 18 3d b3 03 8f 3c ae 76 13 3d 6a 5a ba 3c
       0.037215777 0.017457819 0.036001854 0.02274819
000280 c1 db c3 3c c4 5b ab bc 25 82 29 3c 5c 97 ee 38
       0.023908498 -0.02091778 0.01034597 0.00011376917
000290 dc 53 e9 3a 06 75 f2 3b 23 82 f1 3c 55 fd de 3b
       0.0017801481 0.007399204 0.029481 0.006805102
0002a0 53 3d e2 3b 1a 1c 1c 3c 7c a8 3e 3c 6a 82 57 3b
       0.006904283 0.009528184 0.0116368495 0.003288413
0002b0 c8 86 cb 3b 9d 55 9a 3b a1 6c fd bb 9d bd b0 bc
       0.0062111355 0.004709913 -0.007733897 -0.02157479
0002c0 10 e7 70 bc b3 b2 a7 bb a7 f2 19 3b d9 8c b9 3a
       -0.014703527 -0.005117738 0.002349058 0.0014156356
0002d0 19 1c 5a 3a 58 44 8e bc 64 2a 82 3c 7a 35 b0 3c
       0.0008320227 -0.017366573 0.015889354 0.021509875
0002e0 bb 6d bf 3b 6f b0 cd 3c a6 a4 57 3c 08 aa 92 bc
       0.0058419383 0.025108544 0.013161814 -0.017903343
0002f0 88 82 0a 3a 59 24 13 3d e3 9e 92 bb 75 e5 3c 3c
       0.0005283733 0.035923336 -0.004474507 0.011529316
000300 9e 85 e0 bb 56 60 98 3c 3d c6 d1 bc c7 88 95 3b
       -0.006851866 0.018600624 -0.025607223 0.0045634243
000310 20 0a 9f 3c b6 9c b6 3a 36 a4 93 3b c5 f5 9a 3c
       0.019414008 0.0013932202 0.0045056595 0.01891602
000320 21 37 39 bc 59 d5 5a 3c 0e f7 c5 bc f0 30 59 3c
       -0.011304648 0.01335653 -0.024165656 0.0132562965
000330 80 bc 33 3c be e1 a3 bb 48 fc a4 bc 59 ed 2e 3d
       0.010970235 -0.005001276 -0.020139828 0.04270682
000340 63 6d 25 3d a7 b0 c0 bc a9 6d be 3c e4 e8 e2 3b
       0.040387522 -0.023521734 0.02324565 0.0069247354
000350 dc 0d 56 3b 49 16 0f 3d e7 95 0f bd d0 ba a6 3c
       0.003266207 0.034933362 -0.035055067 0.020352751
000360 1f b3 bd 3c ee 1a 02 bd 9c 2f 74 3b f5 c6 a6 3c
       0.0231567 -0.031763963 0.0037259823 0.020358542
000370 7d 0f f2 bb 8d 39 4d 3c 41 20 c9 3b 50 89 5d bc
       -0.0073871003 0.012525928 0.006137878 -0.013521507
000380 21 e7 50 3c 7a 15 bd 3b 09 78 38 3c 5e 83 2e 3c
       0.012750418 0.0057703825 0.011259087 0.010651438
000390 5d 60 92 3c d3 1f 02 3d 05 15 42 3c 7d ee f2 bb
       0.017868215 0.03176863 0.011845832 -0.007413684
0003a0 25 85 bd 3b 61 8b f9 bc 2c ca 5b 3b ca a3 ff 3c
       0.0057836943 -0.030461969 0.0033537252 0.03120603
0003b0 ec b4 9e 3c 52 c0 8c bc a4 7d 87 bc df 5d eb 3b
       0.01937338 -0.01718155 -0.016539402 0.007182821
0003c0 ba 1b cf 3a c9 31 49 3c 24 e7 d8 3b 34 c7 97 3b
       0.001580111 0.012279936 0.006619351 0.004631901
0003d0 3e 05 a7 3b 97 08 b2 3c d9 f5 cd 3c 52 a5 c6 bc
       0.0050970605 0.021732612 0.025141643 -0.024248753
0003e0 ac e3 c4 3c eb ec a4 3c be d6 d0 3c d4 fa c3 3b
       0.024034344 0.020132503 0.025493022 0.005980829
0003f0 0c 66 01 bb 2e 91 79 3b 9d eb 27 3c 7d 0a cf bb
       -0.0019744663 0.0038080919 0.010249046 -0.006318389

action_model._discrete_distribution.branches.0.weight f4 [3, 256]
000000 44 83 83 bc 95 df b1 ba 64 03 a3 bb 89 e2 5e 3b
       -0.016053803 -0.0013570661 -0.0049747694 0.0034009537
000010 4f ad 18 3d 8e bf 10 bc d8 50 83 3c 15 17 c4 bb
       0.037274655 -0.008834733 0.01602976 -0.005984197
000020 8a e1 ad 3c f1 fb 39 bc ce fb 4d 3b bc 4a ed bc
       0.02122571 -0.011351571 0.0031430605 -0.0289663
000030 52 e7 04 bc 73 dc c7 bc 91 70 13 3c 39 bb d4 3b
       -0.008111792 -0.02439711 0.008999006 0.0064920452
000040 a5 a9 31 bc b3 4e 85 bc dc fb 86 3c 77 48 28 3d
       -0.010843669 -0.016272878 0.016477518 0.041084733
000050 8f 43 a7 bb 1e ff 28 3d 69 e3 2b 3b 91 6e 0a 3d
       -0.005104489 0.041258924 0.0026228076 0.03379685
000060 75 a2 d8 ba 37 dc 65 bc 75 c8 ed ba 18 4a f1 3c
       -0.0016527908 -0.014029554 -0.0018141406 0.029454276
000070 ff 72 30 3c 2a 26 88 bc de b9 64 bc fe fe 84 bc
       0.010769605 -0.01661976 -0.01396033 -0.016234871
000080 0c 48 13 bd 9a d0 8f bc c7 5c 18 bd 70 58 aa bc
       -0.03595738 -0.017555524 -0.037197854 -0.020794123
000090 6e e5 bc 3c 05 92 94 bc 21 47 c5 3c f6 06 89 3c
       0.02305862 -0.018136034 0.024081768 0.016726952
0000a0 a7 74 00 3c df e8 bc bb 3f 00 82 bc 51 b7 33 3c
       0.007840312 -0.005765065 -0.015869258 0.010968999
0000b0 5c e7 79 3c 59 a5 50 3c 5f 5e 69 bc 3a 2f 7b bb
       0.015252914 0.012734734 -0.014243691 -0.003832771
0000c0 84 78 d6 bc 84 ff f6 3c 2b 09 b7 3c e0 15 59 3a
       -0.026180513 0.030151136 0.022343239 0.00082811527
0000d0 eb f1 e8 3c 48 3e ba bc 73 d3 93 3b e6 f8 01 3d
       0.028435668 -0.022734776 0.0045112907 0.03173151
0000e0 63 e1 18 bc e8 d6 0b bd ce cb bc bc 91 cf a2 3a
       -0.00933108 -0.034140497 -0.0230464 0.0012421479
0000f0 3e f9 0e 3d fa 98 34 bb 24 1f 85 bc 22 ee 2c 3d
       0.034905665 -0.0027557001 -0.0162502 0.04221929
000100 ed 49 89 bc 11 f1 1d bc 1e 64 c3 bc 2d 33 9f 3c
       -0.016758883 -0.009639994 -0.02385145 0.019433582
000110 e8 c7 67 3c 9d 4c 8a bb 08 22 83 bc 85 a2 e9 bc
       0.014146782 -0.004220559 -0.016007438 -0.028519878
000120 85 17 c1 bc 5a 88 96 3b a1 56 5d bb bc 70 b2 3c
       -0.023570785 0.004593891 -0.0033773559 0.021782272
000130 51 4d dc bc 00 e5 24 bb 49 45 50 3c 9d 66 4a bc
       -0.026892336 -0.0025160909 0.012711831 -0.0123535665
000140 7b c8 bb bc 3f c6 df bc 52 6d 67 3c 22 09 b5 bc
       -0.022922745 -0.02731621 0.014125185 -0.022099081
000150 b9 0c 29 bc 1b 2e ae bc 5a 4b d5 bc 43 89 5f bc
       -0.010317975 -0.02126222 -0.026036907 -0.013643566
000160 fb 0f ab 3c 3f 90 0d bc c0 54 5b 3c f3 15 75 bc
       0.020881644 -0.008640348 0.013386905 -0.014958846
000170 df e3 d6 3c 3c af 8f bc d7 91 48 bc 7b a0 32 3c
       0.026231704 -0.017539613 -0.012241802 0.010902519
000180 2f 57 1c bc 27 c8 8b 3c 9f 6a 3c bc 1f 12 b1 b9
       -0.009542271 0.017063214 -0.01150003 -0.00033773572
000190 34 b1 40 3c bb 79 78 bc b0 7a 5b bc 4f 2f 0c bc
       0.0117609985 -0.015165742 -0.01339595 -0.008556201
0001a0 d0 12 50 bc c0 c9 62 bc 3e ba c2 3b b1 50 95 bc
       -0.012699798 -0.013842046 0.005942612 -0.018226953
0001b0 94 1b b0 bc 90 6f b2 3c 3b e9 2e ba 89 8e 79 bc
       -0.021497525 0.021781713 -0.0006672327 -0.015231737
0001c0 54 48 4f bc 67 8d 5d bc 16 8f fc 3b f6 25 73 bc
       -0.012651522 -0.0135224825 0.007707487 -0.014840594
0001d0 46 e6 0a bd 81 d4 c6 3c 46 11 42 3c 6d df ca 3c
       -0.033911012 0.024271252 0.011844939 0.02476474
0001e0 ab de b7 ba 6f 11 c4 3c 9d 36 e5 bc 3b f6 82 bc
       -0.0014028152 0.023934094 -0.027980143 -0.015986552
0001f0 4e 24 29 ba 3a 8c a4 3b d4 38 d1 3b dc 09 af 3c
       -0.0006452248 0.005021599 0.0063849483 0.021367006
000200 59 be d4 bc 29 ef 63 bc 65 a2 b4 3c ef a6 6c bc
       -0.025969671 -0.013912001 0.022050092 -0.014444097
000210 28 8f cd 3b 3a 24 9c bc eb dd a7 3c df 27 1d bc
       0.006273169 -0.019060243 0.02049156 -0.009592026
000220 4b 3e 0f bd 06 f3 45 b9 49 0f ba bc 15 c2 04 3d
       -0.034971517 -0.00018877917 -0.022712367 0.032411654
000230 ac 6b 93 bc 6a db 5b bc 66 f5 96 bc 1a 92 19 bc
       -0.017995678 -0.013419012 -0.018427562 -0.009373212
000240 0a db ef bc e1 20 41 bc 9f f7 95 bc 22 b5 96 3a
       -0.02927925 -0.011787624 -0.018306552 0.0011498074
000250 37 50 71 3c a8 8d 18 bc c2 01 0e 3c a7 72 94 b8
       0.014728597 -0.009311117 0.008667411 -7.0785456e-05
000260 92 80 1b bc 07 13 ef bc 27 08 0b bc 76 c1 98 3b
       -0.009491103 -0.029183878 -0.00848583 0.004661734
000270 29 60 10 bd 3e 7f ae bc fc dd 2d bc 64 5a 06 bc
       -0.035247955 -0.021300908 -0.010612007 -0.008200262
000280 12 49 30 bc 08 e5 a8 3c 8c 33 30 3c 02 57 a8 3c
       -0.010759609 0.020617023 0.010754477 0.020549301
000290 d3 8c 61 3b 99 8c 1c bd 04 ef 65 bc 67 95 4c bc
       0.0034416213 -0.038220022 -0.014034037 -0.012486792
0002a0 86 55 d2 3c 9d f7 d1 3b 56 e3 ea bc 9e f6 2b bc
       0.025675546 0.0064076916 -0.028672855 -0.01049581
0002b0 aa e3 c4 3c a5 b7 92 3a 0c ec fd 3a 8e 77 8e 3c
       0.02403434 0.0011193646 0.0019372716 0.017390992
0002c0 7f 68 1e 3c c4 00 cb bc aa 0d f4 ba c6 5e 4a bc
       0.0096684685 -0.024780639 -0.0018619795 -0.012351697
0002d0 5b 9f 58 bc 79 81 ab 3c 34 82 a0 3b 98 8c eb 3b
       -0.013221587 0.02093576 0.004898334 0.007188391
0002e0 eb 7a df bb 80 b9 17 bb 87 8a de bc f3 04 9f 3c
       -0.006820073 -0.0023151338 -0.027165664 0.01941154
0002f0 95 38 07 bd e6 20 f7 bc 95 1e c7 3b 23 8c 58 bc
       -0.033012945 -0.030167054 0.0060766437 -0.013217005
000300 01 80 9d 3c fc be e0 bc 86 8c de 3c 3f 88 0d 3d
       0.019226076 -0.027434818 0.027166616 0.034553763
000310 d9 2f 08 bd 4c ba b0 3b 0c ff 30 3c 4f 7e ad bc
       -0.033248756 0.005393302 0.010802995 -0.021178393
000320 af 87 2e bb 58 72 a3 bc f4 67 28 3d 20 56 1f bb
       -0.0026631167 -0.019951984 0.041114762 -0.002431281
000330 bd bf 24 bd 7e f9 e2 3c 19 f0 9c 3c 65 b9 7f bc
       -0.04022192 0.027706858 0.019157456 -0.015608166
000340 96 0b aa bc e8 5e f1 3c 43 f2 ec 3b 6a 0f 1b 3b
       -0.020757478 0.0294642 0.0072310283 0.002366031
000350 a5 d6 11 3c ee 25 2e bd dd 7e f3 3c 02 ff 54 3a
       0.008901273 -0.04251664 0.029723579 0.00081251573
000360 15 b8 2d bc 03 b8 bc 3c cf 56 e3 bc 54 f3 12 bd
       -0.010602971 0.023036962 -0.027751355 -0.035876587
000370 db 5d 81 3c ae ed 3f 3a e0 f4 ed bb 04 f8 a1 3c
       0.015791824 0.0007321489 -0.0072618574 0.019771583
000380 8b a2 aa bc a6 b1 b9 3a f6 8b 95 3b e4 8a 44 bd
       -0.02082946 0.0014167323 0.004563804 -0.04798402
000390 6b de 90 bc c4 8d a8 bc 5a 76 b0 bc 75 fb 47 bc
       -0.017684182 -0.020575412 -0.02154081 -0.012205948
0003a0 74 5d ce 3c 82 a8 06 3d 47 e3 8b bc 8b 12 f1 bc
       0.025191046 0.032875545 -0.017076148 -0.029427787
0003b0 26 f2 a4 39 60 b9 72 3c c7 95 ec 3b cf b3 54 3c
       0.00031460932 0.014814705 0.0072200033 0.012982323
0003c0 ae f7 55 3c e4 c4 5c ba 92 cc 27 3c a5 e4 d8 bc
       0.01305954 -0.0008421673 0.010241644 -0.026476214
0003d0 d3 0d 10 3c 83 41 80 bc a3 e7 9d bc 5e 9a 99 3c
       0.008792358 -0.015656238 -0.019275492 0.018750366
0003e0 63 9a 00 bc 84 17 cb 3b e5 88 cf bc d7 7c bd bc
       -0.007849309 0.0061978716 -0.025333831 -0.023130817
0003f0 ec e1 86 bc 7a fb f7 3b 28 86 f3 bc 75 ff 93 3c
       -0.01646515 0.00756782 -0.029727057 0.018066147

action_model._discrete_distribution.branches.0.bias f4 [3]
000000 12 e3 b2 bc 7f e2 65 3d b1 1e 51 bd
       -0.021836791 0.056124207 -0.05105466

action_model._discrete_distribution.branches.1.weight f4 [3, 256]
000000 21 ee 53 bc 84 54 2b 3d 8b 4b b0 bb e3 ae a0 bc
       -0.012935192 0.041828647 -0.005380099 -0.019614642
000010 41 58 e0 bb 38 96 30 3b 77 f9 0b bc 1b 86 a5 3c
       -0.006846458 0.0026945006 -0.008543364 0.020205548
000020 3d 43 74 bc 2d f3 74 3c 3d fb 23 bd 3c b6 16 3d
       -0.014908609 0.014950556 -0.04003452 0.036794886
000030 d7 af c2 3a 2a c2 b7 3c ed 0b 02 3b 59 c8 98 3c
       0.001485343 0.022431452 0.0019843534 0.01865022
000040 bf ae a1 3a ae 2d 29 3d 06 0d 30 ba 78 3c b5 bb
       0.0012335404 0.04130333 -0.0006715808 -0.00553089
000050 97 3f 10 3d 75 e7 c4 bc 0b aa 0e 3d 80 7a 7d bc
       0.035216894 -0.024036149 0.034830134 -0.015471101
000060 7b e0 5b bb e7 b1 08 bd d3 6d 56 3a a4 3b e1 bc
       -0.0033550549 -0.033372786 0.0008179817 -0.02749426
000070 37 3a a1 bb 22 9d 83 bd 5f 52 98 bc f6 da 15 3b
       -0.00492027 -0.06426455 -0.018593965 0.0022866107
000080 4e c1 f5 3b 99 7a 39 bd 4e b1 a4 3b 26 20 2f 3c
       0.0074998504 -0.045282934 0.005026019 0.010688817
000090 b3 4a 19 bd 31 f9 82 3c 83 d3 bf 3c 82 8c 1d bd
       -0.037424754 0.015987964 0.023416286 -0.038464077
0000a0 89 5d 57 bc 86 0a 0c 3c c2 3a 8b 3b d3 64 12 3c
       -0.013144859 0.008547431 0.004248948 0.008935171
0000b0 90 50 39 bb 44 06 2d 3d 2a 5c 58 3b bc fd 53 3b
       -0.0028276779 0.042242303 0.0033013918 0.0032347282
0000c0 0e 33 f2 3c 8f 09 9e bc 61 99 b1 bc 05 a0 1d bc
       0.02956536 -0.019291667 -0.021679582 -0.009620671
0000d0 ed 3d a0 bb 2d 03 85 3c 3f 21 1c 3b c2 d4 9f 3c
       -0.0048901946 0.016236866 0.0023823527 0.01951063
0000e0 e3 19 6b bc e3 75 18 bc 2a ef b9 b9 ae 38 0c 3c
       -0.014349434 -0.00930545 -0.0003546414 0.008558435
0000f0 f8 54 ca bc e3 04 49 3c 88 e3 95 3a 0f b0 09 3c
       -0.02469872 0.0122692315 0.0011435607 0.008403792
000100 60 19 f5 3c ef d5 68 3c ed 43 91 3c dd 28 2b 3c
       0.029919326 0.014211162 0.017732585 0.010446754
000110 e4 b2 72 ba c5 a2 3b 3d 1a 4a d9 bc 99 a7 d8 3b
       -0.0009258224 0.045809526 -0.026524592 0.006611776
000120 8e 24 10 bd 38 89 d6 3c 80 66 8c 3c 6c a3 ee 3b
       -0.03519111 0.026188478 0.01713872 0.007282665
000130 71 ef 06 3d c5 0c 6e bc 04 ec b9 3a f4 72 7e 3b
       0.032943193 -0.014529412 0.0014184718 0.0038825842
000140 fa a7 3a bc 64 64 33 3c 27 61 f6 3c 52 e1 32 3b
       -0.011392588 0.010949228 0.030075623 0.0027294946
000150 54 95 1b bc e2 63 08 3d ca a2 95 3c b0 bf 4b 3c
       -0.009496052 0.03329838 0.0182661 0.012435839
000160 ac 48 ea 3b 63 d9 89 ba da 39 bd bc 70 79 02 3d
       0.0071497764 -0.0010517057 -0.023098875 0.031854093
000170 b4 09 49 bc ed e4 cf 3c 40 bb 50 bc 5a 25 f6 bb
       -0.01227038 0.025377715 -0.012739956 -0.007511777
000180 e4 78 14 3d b6 7b 8f bb d8 d7 ee 3c 82 c5 5c 3b
       0.036248103 -0.004378761 0.029155657 0.003368706
000190 1f eb 25 bd 8f 4d db 3c 6b 16 e3 bc ff 08 57 bc
       -0.040507432 0.026770381 -0.02772065 -0.013124703
0001a0 f2 6d c6 bc 2a ca b6 3c e7 85 55 bc f9 16 3a bd
       -0.024222348 0.022313196 -0.013032413 -0.045432065
0001b0 b5 9d 2c bd 0f 0d 8c bc 7c e8 60 bd 0a d6 62 bd
       -0.04214259 -0.01709607 -0.054909214 -0.055379905
0001c0 51 61 c4 bb ec c5 fb 3c 6e 21 5a 3c 42 55 8e 3c
       -0.0059930463 0.030734025 0.013313634 0.017374638
0001d0 c6 ee 72 3c 0b 53 b9 3c 6e 1a d1 3b f2 96 ca ba
       0.014827436 0.022622606 0.0063813245 -0.0015456362
0001e0 b9 af 74 bc f6 24 b2 bc de 9a e4 3c 84 a4 4b bc
       -0.014934474 -0.02174614 0.027905878 -0.01242936
0001f0 d5 37 0d 3c 99 d7 47 bd 72 65 10 3c 57 44 62 bc
       0.008619268 -0.048789594 0.008813249 -0.013810239
000200 b0 43 09 3c 2c ee d1 bc ab c9 c9 3b 2b 6f 48 bc
       0.008377954 -0.025626265 0.006158074 -0.012233536
000210 6f da be 3c 03 6b 1a 3a 75 a4 29 bc 37 ec 7c 3c
       0.023297517 0.000589058 -0.010354151 0.015437177
000220 09 54 27 bd 09 48 a3 3c e3 f5 23 bd 04 06 0e bd
       -0.040851627 0.01993181 -0.040029418 -0.034673706
000230 21 be 33 3c d6 cc 55 bd 3f 0e 0d 3d c0 40 a8 bc
       0.010970623 -0.0521973 0.034437414 -0.020538688
000240 54 2c 81 3c da 12 86 bd 82 c4 ff 3b eb 9e 24 3d
       0.015768208 -0.065465644 0.007805408 0.04019062
000250 65 7a a7 bc a1 3d d3 bc 92 ef ef 3b b0 0f 0c bc
       -0.020444104 -0.025786223 0.00732226 -0.008548662
000260 4c 21 d9 3b c2 e1 e0 bb 93 d5 1f bd 1d 97 cd bc
       0.0066262837 -0.00686285 -0.03902204 -0.02509647
000270 a1 55 d0 3c ad 07 1c 3d 79 ee 44 3b be 7e 90 3c
       0.025431456 0.038093258 0.0030049367 0.01763856
000280 b7 11 ba 3c 24 ce 8b bc 1c 31 30 bb be ba 14 bb
       0.022713525 -0.017066069 -0.002688474 -0.0022694315
000290 33 8d cc bc dc 58 1f bd 4f 26 38 bc 82 4a 83 3c
       -0.024969673 -0.038903102 -0.011239602 0.016026739
0002a0 f5 aa e6 bc c2 a0 36 bd ee 71 13 bc 6b ec 8a bb
       -0.02815769 -0.044586904 -0.008999331 -0.004239609
0002b0 41 bd 00 bd 70 79 f8 bc e3 85 15 bc b0 28 24 bb
       -0.031430487 -0.030331343 -0.009126159 -0.0025048666
0002c0 f8 06 4c 3c b2 9d 2d bd 8c cb 74 3c 0d 7e a3 3c
       0.012452833 -0.042386718 0.0149411075 0.019957567
0002d0 38 89 8c bb b7 c4 9e 3c a1 04 1a bb 44 58 41 3c
       -0.0042888187 0.01938091 -0.0023501294 0.011800829
0002e0 cc a7 65 bd e5 03 5e bc d0 94 44 bb db 9a d0 b8
       -0.056068227 -0.013550733 -0.0029995926 -9.947057e-05
0002f0 be bf 24 bc 78 aa b4 3c 94 5d df bc c6 cb 38 3c
       -0.0100554805 0.022053942 -0.027266301 0.011279052
000300 2b 90 20 bd bb 5d 05 3d 6f 34 07 3c da 05 04 bd
       -0.03919999 0.03256009 0.008252247 -0.032232143
000310 58 81 14 3d 2d 14 47 bd 66 b4 e7 3c 8a 06 c1 3b
       0.036256164 -0.048603225 0.028284263 0.005890672
000320 e2 17 e3 3b 3a 2a ba bc 3c 70 08 bc 9f 9f cf bc
       0.0069303373 -0.022725213 -0.00832754 -0.025344668
000330 1b ac 03 bd 61 42 2f 3d 7c b9 89 ba de b1 c0 3c
       -0.032146554 0.042787913 -0.0010507549 0.023522314
000340 2a a3 05 3b a2 fc e5 3b cc dd 03 3c b0 af 86 bc
       0.0020391443 0.0070186416 0.008048486 -0.016441196
000350 21 f1 1e 3d f6 35 15 3c c6 dd c6 3b b0 0b c7 3c
       0.038804177 0.009107104 0.006068918 0.024297565
000360 6f a4 21 3d 38 96 cb 3a 92 64 f8 3b 95 d2 de 3c
       0.039463457 0.001553244 0.0075803483 0.027200023
000370 35 44 8f 3a dc e4 30 3d 5a 87 10 bd d2 83 d7 3c
       0.0010930361 0.043187007 -0.03528533 0.026307974
000380 e4 a1 38 bb 72 05 52 bd 0e 4b 90 3b f8 37 90 bc
       -0.0028172666 -0.051274724 0.0044034785 -0.017604813
000390 26 d3 52 3c 02 fa 68 bc f8 cd 8c 3c 96 26 96 ba
       0.0128677245 -0.014219763 0.017188057 -0.0011455591
0003a0 57 7c 27 bd 61 04 d2 3b 3d 5a 48 bd d0 f7 df 3c
       -0.040890064 0.0064092134 -0.048914183 0.027339846
0003b0 68 35 e6 3c 09 b4 30 bc 2d af 1e 3c 3c 59 8a 3b
       0.028101638 -0.010785111 0.00968532 0.0042220633
0003c0 c0 19 1f bd aa e3 4c 3d 17 6b c4 bc 86 92 88 bc
       -0.038842916 0.050021805 -0.023976846 -0.01667143
0003d0 36 be 17 3d 9f 00 a4 3c 83 97 e6 3c a3 15 29 bc
       0.037046634 0.020019827 0.028148418 -0.0103201
0003e0 20 ea 20 3c 81 2d 27 3b 30 21 22 3d 03 bf da 3c
       0.009821445 0.00255093 0.03958243 0.02670241
0003f0 9c 6a 52 bd 52 1a 74 bd 3d 97 02 3d a3 49 75 3c
       -0.051371202 -0.059595414 0.031882513 0.01497117

action_model._discrete_distribution.branches.1.bias f4 [3]
000000 9f 5e 1c bc 22 cc 47 bb a8 f9 48 3c
       -0.009544044 -0.0030486663 0.012266554
