Assets/OneDirt/SimpleCollector.onnx (onnx, 315955 bytes, 11 tensors)

discrete_action_output_shape f4 [1, 3]
00000000: 0000 4040 0000 4040 0000 0040
3.0 3.0 2.0

network_body._body_endoder.seq_layers.0.weight f4 [256, 39]
00000000: 8954 df3e e500 acbe 1b53 683d 1920 3c3e
00000010: 2553 063d d9b3 893e 386f 143c 677d 8bbe
00000020: 057f 223d a68e 033d 5c42 8bbd 408b 92ba
00000030: e28a 3dbd c7d6 b9bd 9bce 8cbb 6033 fa3d
00000040: 11ba be3e e733 8ebe 12b0 c7bb aaa8 cf3c
00000050: c311 03be 9689 62bc 518f f1bd a63a c5bd
00000060: b652 2dbe 30f3 783e 5b2f 473e a883 053e
00000070: c2a2 403c 7b6c 1a3c e50c e73d 6235 343d
00000080: 6232 283d 72d1 d1be 3a3e 453e d8f3 ee3d
00000090: d8be 57be ad67 48be c5a4 843c 5fbf 4f3e
000000a0: f95b 3abe 9997 5ebe 63b2 e7bd 1341 ae3d
000000b0: 292b 563c 5cd2 6c3e 5880 623d 3dae a8bd
000000c0: 92ca b3be fb1e 2b3e 485b 193e fd0c 56be
000000d0: d062 243e 58aa 43be 0bfe 82be a8d4 d8bd
000000e0: 61aa 443d 8c7e a3be ad1a 0b3e b9bc 1ebd
000000f0: 8796 d23d 102a c53d 254e c9bd 69cc 063d
00000100: 86a0 2b3e 488b 613e 515e ccbd c873 1a3d
00000110: 8aca 4cbd 5c89 713e 7219 b3bd f119 143e
00000120: 1dc9 f33d 8592 783e f875 11be 3636 283e
00000130: 59d4 a13d e5ff 85be 224c 093d 8f34 393e
00000140: 518d f8bd 9140 6ebe 92a6 80be 5fa5 283e
00000150: 63df 0d3c d190 cbbd 7248 83be 5efd 33be
00000160: 8f4f 1d3e 1a34 0bbe 1ffc 253e 04b9 1cbe
00000170: feeb 3bbe f7aa b3bd 5dd6 243d 792f 6f3d
00000180: db36 363d 0856 4b3e 7329 6b3c bead 40bd
00000190: fe0a 1ebc b930 d8bd e2c3 6fbd c562 723c
000001a0: d12a a43d 0c71 e9bc 672e b23e 403a 0f3d
000001b0: ade9 473e 2b99 d73d e039 a03d d353 c038
000001c0: 3574 03be c4f6 0ebe 3572 6a3e 3e01 2cbc
000001d0: 9341 a0bd 6a23 8a3d bc30 6fbd 0b93 57be
000001e0: 17d0 e13d c65d 3d3d b43b 57be 5f1c 933e
000001f0: dbd6 3d3d 1daa af3c 77a5 05be 6db0 c03d
00000200: 0cc5 3cbe 447c f1bb 06d8 213e 98bc 653c
00000210: 3450 583e bae3 3d3d 92cc d9bb ec44 053d
00000220: 2274 3a3e a5c6 17bc 3f8b 9c3e 73f3 443c
00000230: a2a9 823c 1f62 dabc 011b 9c3e e49a f4bd
00000240: 2f80 23bd c089 853e 3d7f 5abd 3488 92be
00000250: a467 903d 0472 cc3c a080 cfbe 3823 e7bd
00000260: 5fc8 ff3d 3f00 2bbd 05a0 e63b ef35 2cbe
00000270: 4dbd 3f3e 18f4 433d 90f3 e63c 247a d23d
00000280: 0110 34be 6242 393e 43db 0b3c 823f 34be
00000290: ad39 aa3d fda0 9a3e 21a5 863e b98c 91be
000002a0: 0d6c 863d bcee 923d d3c8 f0bc 8bdf 4e3e
000002b0: 30bf 38be fa2f 61bd 31f7 7d3d 028f cabc
000002c0: cc72 203d cd4e 92bd c51b 173e 66ec 393e
000002d0: f3a3 9cbe 089f 4fbc bebc f8bd 0d95 d93d
000002e0: 24ea d5bd ed4f 253e 849e f03b 985e 503d
000002f0: 27b6 473e 73ff 46bd 88dd 8e3e 7071 363e
00000300: 0cb4 e4bd ad00 a33d 4066 4d3d 2afe c3bd
00000310: 1aba 933d cef9 613d 199b 85bc 00cb 0b3d
00000320: d9a7 cd3e 63fc 8cbe 80c3 3e3e eb39 16be
00000330: f085 a33e f778 a7be 4d5c 40bd 3b37 06bc
00000340: 13a3 123e b498 04bd 9fe8 f5bc 0905 ce3c
00000350: 0ad5 04be 7cd6 d73d 6b62 55be 15a9 d53d
00000360: e7fa d63a 8c1e f1b9 2e6a 083f 4b62 ddbd
00000370: 2efb 82bd 25ba a4bb 8daf adbd 90cb 63bd
00000380: 2bb5 bbbe 3e37 5e3e 8676 69bb 25d0 1f3d
00000390: f575 6d3e d3f0 de3d dc56 80be ae68 f13d
000003a0: 7ae9 943e a5a3 99bd 689a dc3c abe7 59bd
000003b0: 6f67 00be 7897 29bd 2b4b 2a3e 39ad 473e
000003c0: 106a 4e3c 7c47 8b3e da73 1fbe 5db4 673d
000003d0: 5267 433e 3ca6 98be 05f7 833b 6511 a63e
000003e0: dcf2 9b3d b2b4 0c3e 3fb5 933d 12d2 863e
000003f0: ce99 8e3e 0dc6 06be e43f c1be 6ad8 6fbd
0.43619183 -0.33594432 0.05671988 0.1837162 0.032794137 0.26895025 0.00905972 -0.27244112
0.039671917 0.032118462 -0.067997664 -0.0011180416 -0.046275027 -0.09074169 -0.00429709 0.1221683
0.37251332 -0.27773973 -0.0060939873 0.02534898 -0.12799744 -0.013826748 -0.117949136 -0.09630327
-0.16926083 0.24311519 0.19451658 0.13038504 0.0117575545 0.009425278 0.11281756 0.043996222
0.041063674 -0.40980107 0.19262019 0.11667603 -0.21068895 -0.19570799 0.01619185 0.20287846
-0.18199147 -0.21737517 -0.113133214 0.08508506 0.013071814 0.2312712 0.05529818 -0.08236358
-0.35115486 0.16711037 0.14976227 -0.20903392 0.16053319 -0.1910795 -0.25584444 -0.10587436
0.04801405 -0.31932485 0.13584395 -0.0387542 0.10282617 0.096271634 -0.09829358 0.032909784
0.16760454 0.22025788 -0.09978927 0.037708074 -0.049997844 0.23587555 -0.08745088 0.14463021
0.11903594 0.24274643 -0.14205158 0.1642693 0.0790183 -0.26171795 0.03351987 0.18086456
-0.12136329 -0.23266818 -0.25127083 0.16469334 0.008659217 -0.09939731 -0.2564121 -0.1757712
0.1536238 -0.13594094 0.16209458 -0.15304953 -0.18351743 -0.08772843 0.040243495 0.058394883
0.044485908 0.19857037 0.014353144 -0.047040693 -0.009646175 -0.10556168 -0.058536418 0.014794056
0.08015979 -0.028496288 0.34801027 0.03496766 0.19522734 0.10527261 0.07823539 9.170887e-05
-0.12837298 -0.13961321 0.22895129 -0.010498343 -0.07825007 0.06745036 -0.058396086 -0.21052186
0.11026018 0.046232007 -0.21018869 0.28732583 0.04634748 0.021443421 -0.13051401 0.094086505
-0.18434542 -0.00736955 0.15805063 0.014022015 0.21124345 0.046359755 -0.006646701 0.032536432
0.18208364 -0.009263669 0.30574986 0.012020933 0.015950028 -0.026658116 0.30489352 -0.119436055
-0.039917167 0.26081657 -0.053344 -0.2861954 0.07051018 0.02495671 -0.4052782 -0.11286014
0.1248939 -0.04174828 0.007038119 -0.16817449 0.18724556 0.047840208 0.028192312 0.10277203
-0.1758423 0.1809173 0.008536163 -0.17602351 0.08311782 0.3020095 0.26297858 -0.28427675
0.06563578 0.07174441 -0.029392635 0.20202462 -0.18041682 -0.054977395 0.06200332 -0.024726395
0.03917198 -0.07143936 0.14756687 0.18156585 -0.30593833 -0.012672193 -0.12145375 0.10624132
-0.104450494 0.1614377 0.0073431153 0.05087146 0.1950308 -0.04858346 0.2790339 0.1781671
-0.11167154 0.07959113 0.05014634 -0.09569962 0.072132304 0.055169873 -0.016309308 0.034129143
0.4016712 -0.27536306 0.18629265 -0.14670531 0.31938124 -0.32709476 -0.046963025 -0.008191879
0.1432002 -0.03237219 -0.030018149 0.025148885 -0.12971893 0.105389565 -0.20838325 0.104326405
0.0016401679 -0.0004598986 0.5328702 -0.108097635 -0.06395565 -0.005027073 -0.08480749 -0.055614054
-0.36661658 0.2170076 -0.0035623624 0.03901686 0.23189528 0.10885777 -0.25066268 0.11787544
0.29084378 -0.07501916 0.026929095 -0.05319945 -0.12539457 -0.041404217 0.16630237 0.19499673
0.012598529 0.27202976 -0.15571538 0.056568492 0.19082382 -0.29814327 0.0040272498 0.32435146
0.07614681 0.13740805 0.07212304 0.26332146 0.2785172 -0.13161488 -0.37744057 -0.058555998

network_body._body_endoder.seq_layers.0.bias f4 [256]
00000000: dbed 2c3d a49a a43b 9eb7 403c 5402 ae3c
00000010: 41e5 8abc 2d1e 463d 001e daba 77d4 3d3c
00000020: 1053 203c 0779 833d 0efc 4ebd 9484 163d
00000030: 82c5 00bc 3905 1c3c a147 02bd 2130 613c
00000040: e17e c93b ed89 c2bc c7c7 8e3c 94ef 8a3c
00000050: c1f5 123d 0e22 ea3c 66c9 1cbb e46f 6dbd
00000060: d5e2 413d 795e 473c 78dd 323c e17f 00bd
00000070: 936c d1ba fc4f 4d3c 4e88 683c a586 6d3d
00000080: 2528 ce3c 84da beb8 4c8a 9abb a2df 18bd
00000090: 9afe 8dbc 3bc3 e53c dab8 06bd d2c3 5e3d
000000a0: 5213 fe3b f130 673c a6ab 09bd 228d 2bbc
000000b0: e49a 103c cd9c 0dbd 9604 3c3d 391c c73c
000000c0: 4f97 e93b 56b4 f33c 37dc 893c 1127 2c3c
000000d0: e6ff eebc 9f8a da3c e84c 0c3d 8326 31bc
000000e0: 53c6 6ebc b276 1f3d 3851 223b f4f2 633c
000000f0: 559a 023c 0466 393c f633 883c d814 233d
00000100: df20 203d db59 993c 6c92 513b 7577 e73c
00000110: 0725 2fbd 081b 27bc b7b5 6c3d c5c3 663c
00000120: 1125 953c 2920 b5bc 1396 41bd 2a71 133b
00000130: 1884 06bc ac67 6f3b b7c0 543c cebc 1f3d
00000140: 3d6b 9a3a 72c7 843c addd 4a3c 0331 9ebb
00000150: d953 093d 2524 983b 6d70 903c 3a6e 033d
00000160: 4f13 e83c bb05 57bc d560 3d3d 685f 01bc
00000170: fe31 d1bc 3a66 22bc a510 d8bc bedb 743c
00000180: 0c73 a43c f4ea 083d 1b14 df3b 7a30 d13c
00000190: ae81 ab3a 407a 58bc 315e 553b 4519 193c
000001a0: 027c 0b3d a848 953c f229 783a 77ad 493c
000001b0: d6c9 223c d81c e43b 26c4 a53b 02f5 103d
000001c0: 43d2 083b a282 55bd 1e2a 55b9 105a d03b
000001d0: 4b52 22bb 33f6 dbb9 e386 ceba f77f 853b
000001e0: e53c 163c 6d3e f2bb e653 a43c 1762 9abb
000001f0: 3d2d e03a 777e a33c aa05 88bc a81a 113c
00000200: 8411 833c cd1d e03c 5e00 023d ad0d fc3c
00000210: dbca 6c3c 7bfc cabc 7bc1 853c 42ad 97bc
00000220: 8cd5 383d 52e5 3a3d 49a7 f43c 4469 963a
00000230: 6e8c 613b 4a17 90bc f7fc c2bb 5ec4 9ebb
00000240: 2870 ce3b 75ba 003d fdba 963c c9bb 83bc
00000250: 5f39 14bc a3d4 6c3c 3131 ea3c 0330 1abc
00000260: 103b 04bc 0e5f b3bb 6ccb 6bbd 6521 d0bc
00000270: f34b 1abc dbe4 bdbc 2721 3b3c 2fe2 17bb
00000280: 8f54 173b a975 ad3b a7d8 bbbc c590 b9bc
00000290: 5390 e6b9 b7e1 c9bb 6425 c8ba 206b 763c
000002a0: 116e 9e3c 4342 443d fb06 cbbc 10f3 eabc
000002b0: 28f1 083b 40a2 4c3d c243 653a c579 473d
000002c0: d1bd 3a3d 6431 603d 0397 263d 2d28 f23c
000002d0: 6d01 ac3a 41bd 07bd d56c 20bb 2abe dd3c
000002e0: 76e8 a3bb 9cfb 083c d0bb 0abc 7cd7 97bc
000002f0: a465 413b 9cd1 873c 5588 dcbc 3dc1 d5bb
00000300: 43f1 8e3c c308 83bc 3960 77ba f8fb 69bc
00000310: 5944 b1bc b262 793c 22ab a43c 900e 2cba
00000320: 73b5 09ba f5ab 5abd 6fc3 91bc 12d2 173d
00000330: ebfd 903a 118f e43b da6c 40bd 3eb4 663b
00000340: d7d5 b7bc 3f83 833c 3ec8 c9bb fd29 24bc
00000350: c1a7 11bb 944a 1ebb b978 7d3b c20a 393c
00000360: a777 1e3d 3140 993c b17f 75b9 c151 123d
00000370: 0af8 c9bc c0e8 04bc 71b3 d3bb 03a8 263b
00000380: 772e e739 5e28 c63a b8a6 173d b57e 99bb
00000390: 02cc 773c 72e4 123d d4a5 e73c 59bb 153d
000003a0: cac3 c83a 4b4c 9ebc 5c1c 29bc f796 193c
000003b0: aed5 1eba 7c43 20bd 36cb cc3b da9e 893a
000003c0: d741 b13a 5ece 5f3d 8f45 b43c 2379 42bc
000003d0: 6b3e 9f3c c5a3 3ebd 8914 993c 111d 42bc
000003e0: 9b2c 9e3b 9371 823c 412d 633c 880b 093c
000003f0: 18a1 8abc deaa 0b3b a474 e9bc 15fc 1f3c
0.042219024 0.0050233174 0.011762528 0.021241345 -0.01695502 0.04836862 -0.0016641021 0.0115863
0.009785429 0.064195685 -0.050533347 0.03674753 -0.0078595895 0.00952273 -0.031806592 0.013744385
0.0061491583 -0.023747409 0.017429246 0.016959943 0.0358789 0.028580692 -0.0023923754 -0.057968035
0.047335465 0.01216852 0.01091706 -0.031371955 -0.0015977792 0.012531277 0.014192654 0.057989735
0.025165627 -9.100608e-05 -0.0047161933 -0.037322648 -0.017333318 0.028047195 -0.032891132 0.054385968
0.007753768 0.01411079 -0.033610962 -0.01047066 0.008825991 -0.034573365 0.04590281 0.02430545
0.007128633 0.029749077 0.01682864 0.010507361 -0.029174756 0.026677428 0.03425303 -0.010812405
-0.014573651 0.038931556 0.0024767648 0.013912905 0.007971366 0.011315826 0.01662634 0.0398148
0.03909385 0.018719604 0.0031978143 0.028255204 -0.04275992 -0.010199316 0.057790484 0.014084761
0.018206151 -0.022110062 -0.047262263 0.002249787 -0.008210205 0.00365303 0.0129854 0.038998418
0.0011781227 0.016208384 0.012381953 -0.00482762 0.03352723 0.0046429806 0.017631734 0.032087542
0.02832952 -0.013123925 0.046234924 -0.007896282 -0.025536533 -0.009912068 -0.026375124 0.014944969
0.02007439 0.033427194 0.0068078167 0.02553581 0.0013084912 -0.01321274 0.0032557363 0.009344404
0.03405381 0.018223122 0.00094666996 0.012309424 0.009935817 0.0069614463 0.005058783 0.035389908
0.002087728 -0.052126534 -0.00020328953 0.0063583925 -0.0024768289 -0.00041954368 -0.0015756752 0.0040740925
0.009169792 -0.0073926956 0.020059537 -0.0047114003 0.0017103326 0.019957764 -0.016604263 0.008856453
0.015999563 0.02735796 0.03173863 0.03076824 0.014452661 -0.024778595 0.01632761 -0.018515233
0.04512553 0.045628853 0.029864924 0.0011475463 0.0034415978 -0.01758923 -0.005950566 -0.004845186
0.006299991 0.03142782 0.01839971 -0.016080754 -0.009046881 0.014454993 0.02858791 -0.009410861
-0.008070722 -0.005473978 -0.057567045 -0.025406549 -0.009417522 -0.023180416 0.011421478 -0.0023175587
0.0023091172 0.005293567 -0.022930456 -0.02265204 -0.00043976548 -0.0061609405 -0.0015269932 0.015040189
0.019339593 0.047914755 -0.024783602 -0.028680354 0.0020895693 0.04995942 0.00087457534 0.048700113
0.04559118 0.054734603 0.04067136 0.029560173 0.0013122984 -0.03313947 -0.0024478931 0.027068216
-0.0050020767 0.00836077 -0.00846763 -0.018535368 0.0029510045 0.016579442 -0.026920477 -0.00652328
0.017449027 -0.015995389 -0.00094366405 -0.014281265 -0.021639036 0.015221285 0.020101134 -0.0006563449
-0.00052531733 -0.053386647 -0.017793385 0.037065573 0.0011062002 0.0069750627 -0.04697881 0.0035202648
-0.022440834 0.016053794 -0.006157904 -0.010019776 -0.0022225233 -0.0024153339 0.0038676693 0.011294069
0.038688328 0.018707367 -0.0002341259 0.035722498 -0.024654407 -0.008112133 -0.0064606 0.0025429733
0.00044094372 0.0015118232 0.03702423 -0.004684294 0.015124323 0.035862394 0.028277315 0.03655562
0.0015317139 -0.019323489 -0.010321703 0.009374372 -0.00060590624 -0.039126858 0.0062498106 0.0010499612
0.001352365 0.054640166 0.022005824 -0.011869702 0.019438943 -0.0465429 0.01868655 -0.01184775
0.0048270947 0.015923297 0.01386577 0.008364566 -0.016922519 0.0021311562 -0.028498001 0.009764691

network_body._body_endoder.seq_layers.2.weight f4 [256, 256]
00000000: 3572 e43c d6cb e43c 1853 a4bd 2fb7 3fbd
00000010: 373f 893c fa65 143e 19f5 2c3e 4648 d3bd
00000020: 0de4 97bc f92c d43c c2f4 723b d544 b8bd
00000030: 84bb 06bd 6a7f ea3d e7a5 4ebd c1a3 f8bc
00000040: 9e35 41bd 9432 49bc 8a33 d13d 6f62 ba3c
00000050: 4542 973d ac2e fa3d 01cc 513d 18e7 213d
00000060: d99b c03c 56b7 793d a956 413d 1a68 19bd
00000070: 681b 933d 3283 17bd cada 0abd cd62 3e3d
00000080: 43d8 77bc afd4 ab3d 8665 203d 12f3 7bbd
00000090: 34a0 0d3d 1097 4bbd d6de b9bd 350b 6c3d
000000a0: 752d 4c3d aebe 823d baf8 b13c 2a98 413d
000000b0: bec1 d5bd acaa a2bd ac5e b8bb 01c6 32bd
000000c0: b259 b9bd d417 e5bd 73c7 eebc 2eee 5cba
000000d0: 6f25 72bc 3981 a13c 797c 0a3d 1ad8 3bbd
000000e0: 62e3 9f3a afe7 c03d 5668 263d 7923 cdbc
000000f0: 472b 02bd ba33 7a3d 4867 ebbc e124 5d3c
00000100: dcc7 db3d cd2a d13d 7975 97bc b14b b0bb
00000110: ae82 c6bd 02d1 943d dd25 f73d 9916 b43c
00000120: 52da 94bc 8ab8 3cbb 63af 36bd e4e7 d7bd
00000130: d363 d2bd 3e07 b53d 709a 973c 88d2 24bd
00000140: 3852 15be b573 093d 5ac7 033e cce2 d9bd
00000150: e01b d63c fce6 373d 5a03 113d ee2e 94bd
00000160: 2f57 fdbd 26f3 2f3e 9115 88bd c042 9d3d
00000170: 3754 9abd f0ff 583d a0d5 7e3d 5ce4 8bbd
00000180: cd6a f0bc 51f7 dabd 7e9c 0fbd 9675 ba3d
00000190: 400b b23d a024 03be e729 36bd 6bc5 4abc
000001a0: 05c4 a93b 9c76 123d 6052 2bbd 171b c5bc
000001b0: b65b 38be 4f78 c43d f11f 9b3c ad99 973d
000001c0: 6ad1 48bd 25ad 0c3c 7596 343d 7e52 25bd
000001d0: 2ab1 84bc 37a9 cfbd 7f61 01be 7d14 3cbe
000001e0: 75e0 a2bd 7d46 893d 1053 653d 8742 31bd
000001f0: 8aa0 47bc aa85 0abe 4161 053d 1278 26bd
00000200: abbe dc3d e910 f33d c471 02be 5586 b23d
00000210: 9e33 19bd 76f3 b0bd 97b4 823d 8bf7 003d
00000220: 147c 683d 6f3d 82bd 3de8 063d ec34 3b3b
00000230: 5744 943d 529a ad3c 7b94 d23d 5aa7 e4bc
00000240: 31d0 25be 4b4c 5c3d ff26 d63d 9a42 cfbd
00000250: aad5 c1bd 2f09 bc3c d9ae b1bd 61f0 053d
00000260: ce42 1bbd 4cdf b53c 2f5c 9bbc 0b7f 103e
00000270: 7eb9 173d dfe7 b63c 97f2 fa3d a83a 92bd
00000280: eb03 873d 09eb d23d e17d 973c 60f9 96bd
00000290: 14c5 77bc 5594 513d 214b 10b9 6994 f53d
000002a0: 2147 8d3d 3e26 a6bd 416b 28bd f800 bb3c
000002b0: 6cab 28bd ac66 6d3d e705 173c d384 b93c
000002c0: b072 b13c 8802 a33c 538b 79bd acac ba3b
000002d0: 366c d93d c7a9 a9b9 c966 8a3d d443 c63d
000002e0: f8b6 dfbb 4f80 e3bc ad50 3b3d 1511 69bd
000002f0: 31ba d43c c184 ec3d 29f2 72bd 105b 10bc
00000300: 47e4 6fbd ac35 60bd 9180 5b3c 8b33 60bd
00000310: 5b42 8ebd 9517 863d 384a 063e 3ea0 493d
00000320: 9572 44bd cf07 3bbd f36b 25be dd43 213e
00000330: 8060 3fbc 8896 2f3d 0dbb f63c 2874 26bd
00000340: e417 b0bd 3330 d93b a646 a8bd ab1e 8a3c
00000350: 146c 273d 41cd c2bd 01e1 163e 1ae2 183c
00000360: d4ce 0c3e 220d 813d 7843 153e 9ef3 c6bc
00000370: 9fff f1bd a979 aabb b857 b4bc 5995 9dbc
00000380: 44d9 64bb 7a7e 9bbd 4de9 35bd 5919 943d
00000390: a2a4 bdbd 8e89 aa3c 6ddd d03d 1bf1 d5bc
000003a0: c1e6 17bd 850a 10be c730 8a3d 418c 9cbb
000003b0: f76e 15bd 638c a7bd 8a1a 4d3b 10e8 02bd
000003c0: 471e 8cbb 10f8 6f3d a43c a7bd 67a2 943d
000003d0: 39e9 98bc 992a 52bd f99e a33d cbe6 33bd
000003e0: 60de a5bd 70ed 6c3c d16f 343d 91a3 003e
000003f0: 698c 0dbd 1c5f 8abc 1d12 53bc 0bdb 74bd
0.02788649 0.027929228 -0.080236614 -0.046805557 0.016753776 0.14492026 0.16890372 -0.103165194
-0.01854136 0.02590035 0.0037072157 -0.08997504 -0.032893673 0.114500836 -0.050451186 -0.030351521
-0.047170274 -0.012280125 0.102149084 0.022752015 0.07385687 0.12215933 0.051219944 0.03952703
0.023511814 0.06096586 0.047201786 -0.037452795 0.07182962 -0.036990352 -0.03390006 0.046480943
-0.015127244 0.083901756 0.03915932 -0.061511107 0.03457661 -0.04970461 -0.09075706 0.057627875
0.04984804 0.063840255 0.021725047 0.047264256 -0.10437344 -0.07942709 -0.00562652 -0.043645862
-0.09050311 -0.111861855 -0.02914784 -0.00084278255 -0.014779433 0.019714938 0.033810113 -0.045860387
0.0012198503 0.0941919 0.040626846 -0.025041329 -0.031779554 0.061084487 -0.028735772 0.013497562
0.107314795 0.10213242 -0.018488633 -0.005380117 -0.09692894 0.072664276 0.12067769 0.021983432
-0.01817051 -0.0028796517 -0.044600856 -0.105422765 -0.10272946 0.08839272 0.018506259 -0.04023984
-0.14582145 0.033557612 0.12869015 -0.10638961 0.026136339 0.04489802 0.035403587 -0.07235514
-0.123701446 0.17182598 -0.066447385 0.07678747 -0.07535594 0.052978456 0.062215447 -0.068306655
-0.029347802 -0.10691703 -0.035061352 0.09104459 0.08693552 -0.1280694 -0.044473555 -0.01237617
0.005180838 0.035757646 -0.041826606 -0.024060769 -0.18003735 0.095932595 0.01893613 0.07402358
-0.049027838 0.008586203 0.0440888 -0.040361874 -0.01619776 -0.10139697 -0.12634848 -0.1836719
-0.07952968 0.06702898 0.055987418 -0.043276336 -0.012184272 -0.13527551 0.03256345 -0.04064185
0.107785545 0.1186846 -0.1273871 0.08717028 -0.03740274 -0.086401865 0.06382101 0.031486075
0.056758955 -0.06359374 0.032936323 0.002856548 0.07239597 0.02119175 0.10282227 -0.02791183
-0.161927 0.053783696 0.10456657 -0.10120125 -0.09464581 0.022953598 -0.08675928 0.032699946
-0.037905507 0.022201203 -0.018964855 0.14110963 0.037042134 0.022327362 0.122533016 -0.07140094
0.06592544 0.10298736 0.01849264 -0.07371783 -0.015122671 0.05116685 -0.00013760898 0.119911976
0.068983324 -0.08112763 -0.04111791 0.02282761 -0.041179106 0.057959244 0.009217716 0.022646343
0.021661133 0.019898668 -0.060923886 0.0056968536 0.10616343 -0.00032360686 0.06757886 0.09680906
-0.0068272315 -0.027771143 0.045731235 -0.056901056 0.02596769 0.11548758 -0.059312973 -0.0088107735
-0.05856731 -0.054738685 0.013397352 -0.054736655 -0.0694625 0.06547467 0.1311425 0.049225084
-0.047960836 -0.045661744 -0.1615446 0.15748544 -0.011680722 0.042868167 0.03011849 -0.04063812
-0.08598307 0.0066280602 -0.082166 0.016860327 0.040874556 -0.09511805 0.1473427 0.009331251
0.13750774 0.06301333 0.14576519 -0.024286088 -0.11816334 -0.0052024913 -0.022014484 -0.019236254
-0.003491954 -0.07592483 -0.044411946 0.07231397 -0.09259917 0.020817544 0.101984836 -0.026115945
-0.0370853 -0.14066513 0.06747585 -0.0047774618 -0.036482777 -0.081810735 0.0031296336 -0.031959593
-0.0042760703 0.05858618 -0.08165863 0.07257538 -0.018665897 -0.051310156 0.07989306 -0.043921273
-0.08099055 0.014460906 0.04405195 0.12562396 -0.034557734 -0.016891055 -0.0128827365 -0.05977921

network_body._body_endoder.seq_layers.2.bias f4 [256]
00000000: 8392 be3c fd41 b73c 4e6f 0bbc 3645 f23a
00000010: 0da9 21bc a506 11ba 6423 88ba e112 1bbb
00000020: c335 06bc e1a3 91bb e54e 103a 0cb6 81bb
00000030: c7cb 7d3c ecf6 0d3c 7a41 56bb fea2 0b3c
00000040: 425c a03c f878 883b 0b67 76bb ac3d 85bc
00000050: 12ae aabb 6258 8d3c 5cbb 813c d6aa 363c
00000060: 9055 563c 3b4e 00bc dd87 383c f6f2 e73b
00000070: 7d04 633c 595f 073b dd08 5c3c 5823 25bc
00000080: f29a 93bc 1088 2fbc acda 983c 4ea4 d0ba
00000090: 861c 823c 99a5 163c 8887 023c a0f1 00bc
000000a0: a515 8e3b d715 67bc 5fda f33b f4b8 7e3c
000000b0: 077f 503c bb99 aabb c86b d03b d1c4 1a3b
000000c0: 5bd9 8f3b a66f 2a3b c030 143c 7287 8f3a
000000d0: c787 013c 3530 1339 91ca 8ebc 3b5e 02bc
000000e0: d4cb f4b9 deda d239 a162 b23b 2c13 a93b
000000f0: 0a08 f53b 40b6 2b3b 6a9a d6b9 e075 1ebd
00000100: 2e7d 2bbb d58b b33a 0be1 783b db91 a3bb
00000110: 308a 463a fdff ad3b 32eb 1abc 97f2 383b
00000120: a306 c7bb ecaa 813b 21b5 96ba 91ad c33c
00000130: e835 a23c 3e1f c93b b922 72bc 6b6d 383b
00000140: e7ac 74bb 9d1b e139 b579 7cbc f865 dd3b
00000150: 1fc5 90bb 58c7 58b7 fcf4 5b3c ad5c 9c3c
00000160: 7bb5 18bc b291 203c 67c5 e4bb bafd 49bc
00000170: f8f0 0b3c aab4 b93b 2306 8cba cb7e 223b
00000180: f640 54bb 7f42 adba 0b34 7a3c 7ead 153b
00000190: 6f05 dc3b 1a23 92bb 67f5 c83b 32ed 383c
000001a0: 30b5 b53b 9ea8 b9ba 2151 a23b 6aa9 fe3b
000001b0: 36da 43ba 47a4 ff3a 04fb 8f3c e712 1a3b
000001c0: 84ad 3b3b 2e86 633b 6c72 bd3a 5d15 5f3c
000001d0: 62ba c6bc ddbd 953c c48e 3bbb e2dc a53b
000001e0: 4e6a dbbb 535b 463b 7cb3 dd3b 2b5c 4cbc
000001f0: 1f5e d9b9 c344 2cbb 1a61 553c 570a 143c
00000200: 74e6 c6bb 36b9 313c a1af 74bc d864 773c
00000210: 31b8 d33c f102 bebb 1458 9fba 5c7e 213c
00000220: 8279 293c 5e1f bb3b 36cc 95bc d5aa 1fbc
00000230: 194d a03c 93db ba3c 71ac f2bb 9827 18bb
00000240: 17b0 653c 5b37 6d3c c082 663c b294 293c
00000250: 437b 183c bfed 7a3a c7a4 ac3b cf9b 613b
00000260: 9433 bb3b 12e9 65bb 8971 dc3a 2804 253c
00000270: e913 0c3c d314 573c 5a1f 0dbc 3618 ed3b
00000280: 1b90 e83a d745 933c ffd4 583c 01ba 0d3c
00000290: 51e9 27bc d353 9abc c332 943b 0dac 29bb
000002a0: 03b3 baba 47dd f33b 56fd 853c c785 5d3c
000002b0: b0ca ebbb 9c39 cb3b 017b 06bc 6bcc d03a
000002c0: 1578 863c ba81 893c 8ba5 143c caa4 4ebc
000002d0: 6217 c73c 2a80 b03b 15dc 023b ebae b7bb
000002e0: 267e 72bb f92c 3ebb 8fbb ea3a bb63 bbbb
000002f0: aef5 393c 7602 2cbc 9a18 ed3b 7e64 86bc
00000300: aa4b ae3c 7793 f13b 0b86 6fbb 9b53 39bc
00000310: fce4 a7bb 055f 7cbc 2d1d 86bb 5b86 813b
00000320: 403b 59bc 208f 4e3c 3964 3c3c 2789 dd3b
00000330: 2f8a f9bb e5c2 4ebb f881 15bc fdf6 de3b
00000340: 6d6f 70bb 963b 1e3c 5252 353c 92fb b5bb
00000350: 74e2 acbc 5159 ad3a fc08 183b e714 503c
00000360: 5636 123c 8410 93bb 8973 8b3b 6714 dab9
00000370: b4ea 813c 7923 c7bb 6f5c 673c e55c 1bbb
00000380: dd81 48bb 47bb a23b 5ee8 2cba c4ba c33a
00000390: 7be5 4bbb 6274 b1b8 42b6 89ba 243e a338
000003a0: 6c28 db3b f9e5 a8bb d4b5 bd3b 88b6 973c
000003b0: 5bcd 8e3b 56f2 5d3c 14ba 8fbc b099 573b
000003c0: 28bd 203c e4f5 ed3a b005 c4bb 9a6e fab9
000003d0: 706b d7ba e346 683a c026 99bc 8c7c 2abb
000003e0: 9135 9a3c 3871 ae3c a98c 593b 0c69 fe39
000003f0: 2ce3 93bb 1181 913b 3340 92ba 93f6 a0bc
0.023263222 0.022370333 -0.008510424 0.0018483761 -0.009866965 -0.0005532301 -0.0010386524 -0.0023662376
-0.008191529 -0.0044445847 0.000550492 -0.0039584693 0.015490479 0.008664828 -0.0032692836 0.008522747
0.019575242 0.004164811 -0.003759804 -0.016264759 -0.005208739 0.017254058 0.01583641 0.011149129
0.013081923 -0.007831152 0.011262861 0.0070785237 0.013856051 0.0020656197 0.013429848 -0.010079227
-0.01801822 -0.010713592 0.018658958 -0.0015918107 0.015882742 0.009194755 0.0079668835 -0.007870108
0.0043360763 -0.014104328 0.0074418033 0.015547026 0.012725598 -0.0052063144 0.006360505 0.0023615847
0.0043899245 0.002600649 0.009044826 0.00109504 0.007905907 0.00014036971 -0.017430576 -0.007957037
-0.0004669117 0.0004021739 0.0054438864 0.005159756 0.007477765 0.0026201159 -0.00040932308 -0.038686633
-0.0026167142 0.0013698289 0.0037975933 -0.0049917526 0.0007573692 0.005310057 -0.009455489 0.0028220767
-0.006073789 0.003957143 -0.0011498072 0.023886474 0.019801095 0.0061377576 -0.014778786 0.002814139
-0.0037334503 0.00042935918 -0.015409877 0.0067565404 -0.00441803 -1.2921017e-05 0.013425108 0.01908716
-0.009320612 0.0098003615 -0.00698154 -0.0123285595 0.008541338 0.005667289 -0.0010682981 0.0024794813
-0.0032387353 -0.001321867 0.015271197 0.0022839005 0.006714515 -0.004459751 0.00613277 0.0112870205
0.005545281 -0.0014164632 0.004953519 0.0077716606 -0.00074711756 0.0019503915 0.017575748 0.0023509802
0.002863736 0.0034717428 0.0014453656 0.013615933 -0.024258796 0.01827901 -0.002861903 0.0050617317
-0.006696022 0.0030266836 0.006765781 -0.012473146 -0.0004145959 -0.0026286102 0.013023639 0.009035668
-0.0060699526 0.01084738 -0.014934451 0.015099727 0.025844665 -0.0057986905 -0.0012156987 0.009856787
0.010343911 0.0057105264 -0.018285852 -0.009745319 0.019568013 0.02280978 -0.0074058105 -0.002321696
0.014019034 0.01447853 0.014069259 0.010350393 0.009306732 0.000957217 0.0052686664 0.0034425145
0.0057129357 -0.0035081548 0.0016818504 0.010071792 0.008549669 0.0131275235 -0.008613432 0.007235552
0.0017743142 0.017977638 0.013234376 0.008650304 -0.010248498 -0.018838799 0.004522653 -0.0025889904
-0.0014244023 0.00744215 0.016356152 0.013520665 -0.007195793 0.006201936 -0.008208037 0.0015930062
0.016414681 0.016785491 0.009072672 -0.012612531 0.024303142 0.005386372 0.0019967605 -0.0056055686
-0.003700146 -0.0029018505 0.001790868 -0.005718676 0.0113500785 -0.010498634 0.0072355988 -0.01640534
0.021276314 0.0073723155 -0.0036548402 -0.011311437 -0.0051237326 -0.015403514 -0.0040928335 0.003952784
-0.013258755 0.012607366 0.011498504 0.0067607346 -0.0076153497 -0.0031549272 -0.009125225 0.0068043456
-0.0036687509 0.009657761 0.01106699 -0.005553671 -0.021104075 0.0013225471 0.0023198714 0.012700296
0.0089240875 -0.004488053 0.004255716 -0.000415954 0.015858985 -0.0060772267 0.014121159 -0.0023706493
-0.0030594983 0.004966173 -0.00065959047 0.001493298 -0.0031112123 -8.461696e-05 -0.0010506588 7.78402e-05
0.0066881683 -0.005154368 0.005789498 0.018519655 0.0043579764 0.013546547 -0.017544784 0.0032898001
0.009810723 0.0018154946 -0.0059821233 -0.0004776612 -0.0016435217 0.00088606606 -0.018695235 -0.0026014177
0.01882437 0.021294221 0.0033195412 0.0004852492 -0.004513165 0.0044404347 -0.0011158049 -0.019648826

action_model._discrete_distribution.branches.0.weight f4 [3, 256]
00000000: 4134 abba fe20 a3bc d10d 673d 5e8a fe3c
00000010: 6734 833c 1fec 963b 4401 6fbc 8af3 173d
00000020: 3c1c 9b3c e9b2 e1bc 4ea5 2a3c 7e24 34bc
00000030: 4a79 1abd e235 afbc a618 f73c c9a0 013c
00000040: d4c4 82bc 0b71 9ebc d207 a93c c5dc e53c
00000050: 295a a83c 9297 7d3d c7f4 17bd 150a ffbb
00000060: cfed c9bc 8b1f 933a 5338 15bd 925c 8abc
00000070: 57d5 55bc 2ad3 96bb f712 303c ca17 353c
00000080: cf55 453b 53eb f73c 2ff1 153c 22c5 cc3c
00000090: 3dac 07bd 601d d9bc d3b3 e5bc 2df1 793c
000000a0: 851d ecbc 6fea db3c d1a4 023c 6cdc 3bbc
000000b0: 84cc 5dbc a156 c93c dbaa 6abd 1d9d 9ebb
000000c0: d6af 2f3d bda6 cdbc 9cab 133c dda2 1abc
000000d0: 174d 253c 97e4 e03c 6a6a 193d 8f19 2b3c
000000e0: 6408 5c3d 5233 c03c ba35 7c3c f714 953c
000000f0: 8914 08bd 02ca b33b 8212 91bc a30d 363b
00000100: 9f5b 16bc ebb3 f43c 1b87 8bbc 8373 383d
00000110: 7b3d 90bc b4d8 87bb 53d4 4e3c 405d b7bc
00000120: 0870 c2bc 6726 653d 9bd1 c73b aaef 87bb
00000130: 58e4 69bd de25 08bd 685e 3e3c 5d4f 8fbc
00000140: d393 693c 684e 773c 2397 873c 0494 923c
00000150: 2d85 b13b 1056 1d3b 87d0 1abd f5d8 15bd
00000160: e173 663c e7d2 04bd 5351 ff3c 417f a1bb
00000170: dc74 9cbb 0111 3f3b 17e8 f137 1b6f 1fbd
00000180: 86be f53a 4b0d 043d 0397 213c 95b2 e73c
00000190: d6cc 9e3b 7078 9d3c fed9 9eba b348 f6bb
000001a0: 793d 263c b356 d63c 4f18 c2ba e0ca 493c
000001b0: 2842 96b8 d70c b83c 46be 873c af40 173c
000001c0: 6ec3 fe3b f275 013d 2d46 223b 2408 fdbc
000001d0: 6e78 6f3c b7e2 69bd 3be1 ec3c 7eaf 043d
000001e0: 9f4c 273d 1d7b b6bc 6eb8 d93c 7a17 63bb
000001f0: 6ec2 553c fe8e c2bc 25ff a8b9 1024 66bb
00000200: 7021 383d 0dff 0d3d f782 ec3c 8d26 1fbd
00000210: 0318 10ba ce1e 303c 5dd2 2ebb 65e8 c1bb
00000220: 6c03 03bb 4ffa 7fbc 6a33 9b3c b280 1e3d
00000230: 19b5 b1bc bb1f b3bc ee72 9f3c f66f 16bc
00000240: 9a4e a4bc e2e7 cfbb f0f6 523a 3d05 c8bc
00000250: 47b9 aabb c079 4a3c d104 623c 137f 9d3c
00000260: 2dc5 f13a f37c 873a 9699 28bb 5f73 a8bc
00000270: 0f15 813a 9ca7 38bc e675 163c 0b45 44bc
00000280: 11db b03c 5fdc e8bc 8054 0cbd e95b cfbc
00000290: 7642 843c 2168 c03c 761e d53c cd8a 3d3c
000002a0: c695 143c 339e 0c3c ee48 593b ec9e 98bc
000002b0: bc02 23bb 705b 443a 6921 2fbc 9629 833a
000002c0: 6054 8fba 6ec5 15bc 26c8 ae3c 6a39 953c
000002d0: 4de0 073d 2c75 6abb 0af3 073c a94e ea3b
000002e0: b2bd 473c d994 b93b c182 993b a29d 383b
000002f0: 7935 e4bc 0fa9 1b3d a232 be3b b72e 953c
00000300: af45 b9bc f939 c93c 47a8 813c 63f2 773b
00000310: 9d23 403c be40 b13b ab95 883c 781e b6bc
00000320: 4c5d 023d c8ae e53b e41d bd3c 98fe 6c3b
00000330: 0b9e 0a3d ddda cabc b257 593c 3b4d 8abc
00000340: 170f c3bc ac67 25bb 5217 803c afae 733d
00000350: 4cd3 783c 8092 ea3c ec9a f73b 5043 e23c
00000360: 8799 3c3c 66b5 113c 7fd6 69bc e02f 3fbc
00000370: 11d8 27bd 856f 1f3c 3abb f0bb 505a cc3b
00000380: 4713 dd3c 8c7d 533d 3a6c dbbc 45c1 603b
00000390: 27e4 c23a 0c5f 553c 173a bfbb 943b bf3c
000003a0: db92 dbbc 08d4 27bc 8ee5 f3bb 5a36 c83c
000003b0: 5bc4 c53b ab6a 703c f59b e73c 15f8 05bc
000003c0: 0f6d 973a b562 c73c 7877 e63c befd 223d
000003d0: 4a58 02bc 2774 403d d3e1 dc3c b3ad 3a3b
000003e0: 758c 35bc 1bce dc3b 2839 6b3c 86ae 813c
000003f0: c77d b53c 4c3f 9fbc 5c07 663d 6c9b 473c
-0.0013061838 -0.019913193 0.05640966 0.031071838 0.016016198 0.0046057845 -0.014587704 0.03709749
0.018934362 -0.027551131 0.010415388 -0.010995029 -0.037713327 -0.021387998 0.03016312 0.007911869
-0.015962996 -0.019341012 0.020633612 0.028059373 0.020550804 0.061912127 -0.037098672 -0.0077831843
-0.024649529 0.001122461 -0.036430668 -0.016889844 -0.013051352 -0.0046028094 0.010746709 0.011053035
0.003011096 0.030263579 0.009151741 0.024996344 -0.033123244 -0.026503265 -0.028039848 0.015255255
-0.02882267 0.026845185 0.007973866 -0.011466127 -0.01353753 0.02457744 -0.057291847 -0.0048405067
0.0428923 -0.025103921 0.009013083 -0.009438244 0.01008918 0.02745275 0.037455 0.010443105
0.05371894 0.023461971 0.015393669 0.018198473 -0.03322271 0.0054867277 -0.01770902 0.0027779124
-0.009177118 0.029870948 -0.017032197 0.045032036 -0.017607441 -0.004145706 0.012623864 -0.022383332
-0.023735061 0.055944826 0.006097985 -0.004148443 -0.05710253 -0.033239238 0.011619188 -0.017493898
0.014256435 0.015094377 0.01655156 0.017892845 0.005417487 0.0024007596 -0.037796523 -0.03658386
0.014065714 -0.032427695 0.031166708 -0.0049285 -0.004774673 0.0029154422 2.8837514e-05 -0.038924318
0.0018748797 0.03223924 0.009862664 0.028283397 0.0048461957 0.019222468 -0.001211941 -0.0075159906
0.010146492 0.026164388 -0.001480827 0.012316436 -7.16488e-05 0.02246706 0.016570222 0.00923173
0.007774762 0.031606622 0.0024761066 -0.03088767 0.014616115 -0.057100978 0.028915992 0.032393925
0.040844556 -0.022275502 0.0265772 -0.0034651444 0.013046844 -0.023749825 -0.00032233555 -0.003511671
0.044953763 0.034667064 0.028871043 -0.038855124 -0.0005496742 0.010749532 -0.002667568 -0.005917596
-0.0019991053 -0.015623643 0.018945415 0.038696952 -0.0216928 -0.021865716 0.019463982 -0.009181967
-0.020057011 -0.0063447813 0.0008047661 -0.02441656 -0.005210075 0.012358129 0.013795094 0.019225633
0.0018445604 0.001033692 -0.002572631 -0.020562826 0.0009848195 -0.01127043 0.009183383 -0.011979352
0.021588834 -0.028425394 -0.034260273 -0.02531238 0.016144972 0.023487153 0.026015501 0.011568737
0.009068912 0.0085826395 0.0033155042 -0.018630467 -0.0024873456 0.0007490432 -0.010689118 0.00100069
-0.001093518 -0.009141309 0.021335673 0.018215854 0.033172894 -0.0035775406 0.008297691 0.0071504903
0.012191223 0.005663496 0.0046847765 0.0028170128 -0.027857529 0.038003024 0.0058043757 0.018210752
-0.022616236 0.024563776 0.015827311 0.0037833683 0.011727241 0.005409329 0.01667293 -0.022231326
0.031827256 0.007009361 0.023085542 0.0036162492 0.033842128 -0.024762565 0.013265537 -0.01688253
-0.023810906 -0.0025238795 0.01563612 0.059492763 0.015187096 0.02863431 0.00755631 0.027619988
0.011511213 0.008893346 -0.014272331 -0.011669129 -0.04097754 0.009731178 -0.007346538 0.006236352
0.026986731 0.051633403 -0.026785005 0.0034294885 0.001486902 0.013023149 -0.0058357823 0.023343839
-0.026803425 -0.010243423 -0.0074431365 0.02443998 0.0060353703 0.014673869 0.028272608 -0.008176823
0.0011552888 0.02433906 0.028133139 0.03979277 -0.00795562 0.04698577 0.02696315 0.002848488
-0.011080851 0.006738437 0.014356889 0.01583029 0.022154702 -0.019439362 0.056159362 0.012183052

action_model._discrete_distribution.branches.0.bias f4 [3]
00000000: 0142 07bc 9746 9a3c 3246 28bc
-0.008255483 0.018832488 -0.010270642

action_model._discrete_distribution.branches.1.weight f4 [3, 256]
00000000: 059e 113d 389c 86bc a930 bebc f670 a9bb
00000010: 8548 12bc a299 903c d794 063d 2178 ebbc
00000020: 751a 87bc aab2 f73c ab26 ca3c 4f03 31bc
00000030: 6239 073d 225f 2dbb 65c7 fcbc 5022 03bd
00000040: 6d39 0bbc 4031 f83c 51f3 bfbc 172b a2bb
00000050: 07c4 c83c 1dc9 55bc fbec 673c 4a1a a2bc
00000060: 200a 83bc 4dc5 77bc 5bf3 d0bb 373d 853b
00000070: f65c 843b ac15 ae3b 0d3b 14bd cdd6 b73c
00000080: b79c 873b 2f16 6a3c 99d4 d7bc 9b14 31bd
00000090: e9ed 363c 5a4c 2cbc cb5e 643c 9417 ddbc
000000a0: b933 f03c 2ff0 de3c eee2 8fbc e1fb 93bb
000000b0: fe99 e83c 9bc9 30bd e3c8 393d 5b47 923a
000000c0: 79dd 18bc ea25 013d 30b6 2a3d 0393 fb3b
000000d0: 8c16 f8bb 85bc be3b 6084 2cbc 6fc3 9b3c
000000e0: 6185 8dbc 5e65 22bd c02f ec3b a586 6fbc
000000f0: c7a0 153d 9e76 4e3d d735 e13c 92d4 b93c
00000100: e357 8cbc 9f58 16bd a487 0abc ea63 fdbc
00000110: bd9e 48bc 7b43 cdbc 1840 11bc 8255 de3c
00000120: a3ce 273d 7f88 48bc 1b46 f63b f0bd 3dbb
00000130: 45e9 053d 6d37 db3c b63f b5bc 85af f03a
00000140: d53d fabc 614b 3dbc b217 e53c 6873 283d
00000150: 10da 4fbc 54e6 b0bb e148 e73c 0a8e 143d
00000160: 901f fb3c 222c 9b3c be6a bd3a 7bf4 c53c
00000170: 504d 52bd 85fd 7bbc ad73 03bd 742b ab3c
00000180: 1874 c43c 7e10 333c 5b90 e3bb 5eaa 19bd
00000190: 4d68 01ba d3d2 36bd 81c1 e5ba ce6c 9ebc
000001a0: 1384 b1bc ea18 ac3c fd03 c7bc a90a 47bd
000001b0: 5a3d eebb 0a28 94bc 3c70 39bd 37fc ad3c
000001c0: 0a8e f7bc f8e6 8dbb cadd c7bc dc03 d23c
000001d0: 5663 b5ba 4635 c53c c9a5 f03c 1d88 41bb
000001e0: d243 bbbb 2112 42bb 1b97 f53b 10f7 a13c
000001f0: f809 823c 5cd1 063d 0256 2f3d cfde 91bc
00000200: 36cd 2b3b 41d0 593c 81df 98bc 04b1 3a3d
00000210: 1b5c 1dbd 3605 a1bc af7c e33c 9980 0b3d
00000220: f088 84bb 2345 1a3b 8b95 b8bc 4f68 d2bb
00000230: 8e8d 6d3c d242 efba a1c7 bb3b de81 d3bb
00000240: 04be 20bd 5345 bc3c ca7d 37ba 3321 e43c
00000250: 8ed9 4f3d 3d0c 083d f88f 05bc 32bc 143d
00000260: f680 72bb 0c30 22bd 06aa f03c cce6 0bbd
00000270: 1728 20bc d294 c13b e166 14bc 333a 663d
00000280: d4df cdbc fb3d 3d3d 9193 2d3b 9c2d aabc
00000290: 6859 0e3c bca5 b53b 5dfa a63c 58a5 44bd
000002a0: 86e9 083d 1c62 5fbc 7f88 85bc 250c d33c
000002b0: 9859 e63c 32ce 6ebc 2052 c83c 97ac f2bb
000002c0: 77c3 07bd 3870 e4bc 050c fa3c 5004 22bd
000002d0: 9c01 cdbc 2991 c4bb bfe9 27bb 3149 bc3c
000002e0: c025 f0bc 05cd b63b dc5e 00bd 6567 003d
000002f0: da3b 033d e9bd 3abc 49b0 b4bc 7dd3 93bc
00000300: d2cb d03c b2b7 48bc bef8 87bc 6227 453c
00000310: f981 313d e221 d5bc 76f9 92bc ce09 b13c
00000320: 046d 18bc c334 c8bc 5eeb 66bc a6b0 d7bc
00000330: 7745 1d3b c874 77bc 4c73 03bb e8e3 403d
00000340: bcfc d03c e722 b9bc e187 b8bc 0d44 eabc
00000350: 7da8 a83c 1f31 e43c f033 1536 43af aebc
00000360: 89fb c3bc 973e ff3c 752c 8a3d 9218 0f3d
00000370: 6907 123c be96 213d 9d16 2dbb 6b02 03bd
00000380: e423 bf3c 6055 30bd a824 263d be59 973c
00000390: a3f3 613c 1fdc 213d e897 00bc bcb3 04bd
000003a0: babb 503c 7089 19bd cabb c8bc cf6b d9bc
000003b0: 170d 6d3c 37e6 95bc 1608 ed3c d2df 093c
000003c0: 2dbe 023d 4f13 a43c 73fa febc c85c 3bba
000003d0: 0294 65ba d0ea d8bc 2723 023c ec00 90bc
000003e0: 6e7b 3dbc 54a2 e83c a636 0abc 43fd 42bc
000003f0: 9c3e 15bd abfd c5bb 8056 53bb 781b 21bb
0.03555109 -0.016431913 -0.023216562 -0.0051709367 -0.008928423 0.017651383 0.03285679 -0.028743805
-0.016492108 0.03023656 0.024676641 -0.0108040115 0.03301371 -0.0026454409 -0.030856797 -0.032015145
-0.008497578 0.030296922 -0.023431452 -0.0049489844 0.024507536 -0.013048437 0.014155622 -0.019787926
-0.015996039 -0.015122724 -0.0063766665 0.0040661353 0.004039402 0.005312642 -0.036189128 0.022441292
0.004138555 0.014287516 -0.026346492 -0.04323254 0.011165121 -0.0105162505 0.013938616 -0.026988782
0.029321538 0.027214138 -0.017564263 -0.0045161103 0.028393742 -0.043161016 0.045357596 0.0011160182
-0.009330147 0.0315303 0.041677654 0.0076774373 -0.007571047 0.005820813 -0.010529608 0.019014088
-0.017275514 -0.039647453 0.0072078407 -0.014619504 0.036530282 0.05040609 0.027491493 0.02268437
-0.017131751 -0.03670561 -0.008455191 -0.030931432 -0.012244877 -0.025056591 -0.008865379 0.027140383
0.04096855 -0.012239574 0.0075156814 -0.0028952323 0.032693166 0.026759828 -0.022125106 0.0018362856
-0.030547062 -0.011553616 0.0279654 0.041125685 -0.0126862675 -0.005398551 0.028232994 0.03626827
0.030654699 0.018941943 0.0014451367 0.024164429 -0.051343262 -0.015380268 -0.03209274 0.020894744
0.023981139 0.010929225 -0.0069446987 -0.03751599 -0.00049365015 -0.04463465 -0.0017528982 -0.019338991
-0.021669423 0.021007974 -0.024293894 -0.04859415 -0.0072704973 -0.018085498 -0.04527305 0.02123843
-0.030219097 -0.004330512 -0.02439775 0.025636606 -0.0013838809 0.024073254 0.029375928 -0.0029530593
-0.005714872 -0.0029612856 0.00749482 0.019771129 0.015873894 0.032914504 0.042806633 -0.017806439
0.0026214845 0.0132942805 -0.018661262 0.04557897 -0.038417917 -0.019655805 0.027769415 0.034058187
-0.0040446445 0.0023539744 -0.022532245 -0.006421126 0.014499081 -0.0018254167 0.0057305847 -0.0064546904
-0.039243713 0.022982275 -0.000699964 0.027847862 0.050744586 0.033214796 -0.008152001 0.03631229
-0.0037003136 -0.039596602 0.029377948 -0.034155652 -0.009775183 0.0059076333 -0.009057731 0.056207847
-0.025131144 0.046201687 0.0026485662 -0.020773701 0.008688308 0.0055434387 0.020383054 -0.048009247
0.03342583 -0.013634231 -0.016300438 0.025762627 0.028118894 -0.014575528 0.024453223 -0.007405828
-0.033145394 -0.027885541 0.03052331 -0.039554894 -0.025025181 -0.0059987498 -0.0025621501 0.02298412
-0.029314876 0.0055786395 -0.031340465 0.031348605 0.0320395 -0.011397817 -0.022056716 -0.018045181
0.025487814 -0.012250828 -0.016598102 0.012033315 0.043336842 -0.026017133 -0.017941218 0.02161112
-0.009303335 -0.024439221 -0.014094202 -0.02632935 0.0023997703 -0.015103526 -0.0020057736 0.04709235
0.025511138 -0.02259965 -0.02252573 -0.028596902 0.020588154 0.027855454 2.2232962e-06 -0.021323806
-0.023923652 0.031157775 0.06746761 0.03493554 0.0089128995 0.0394504 -0.0026411184 -0.031984728
0.023332544 -0.04305017 0.040562302 0.01847541 0.013790998 0.039516564 -0.007848717 -0.03239797
0.01274007 -0.037484586 -0.024503607 -0.026540665 0.014468453 -0.018298252 0.02893452 0.008415179
0.031919647 0.020028738 -0.031125283 -0.00071473094 -0.00087577116 -0.026479155 0.007942951 -0.017578565
-0.011565072 0.028397717 -0.008435881 -0.011901203 -0.036436662 -0.0060422025 -0.0032247603 -0.0024583023

action_model._discrete_distribution.branches.1.bias f4 [3]
00000000: f46a 85bc d876 00bc 1c00 b03c
-0.01628635 -0.007840835 0.021484427

action_model._discrete_distribution.branches.2.weight f4 [2, 256]
00000000: 115b 03bb 77ff e03b 99df 95bc 6805 50bd
00000010: b07c e13c 0458 173c 03b6 d0bb 20d4 e13b
00000020: 47ea 883b b8b6 b8bb a86d 84bc 41d8 61bc
00000030: 0abc dd3b 3993 b1bc 857b 5dbc 3e03 003c
00000040: 1e0f fabc df33 d13b 46ad c33c 6d19 a03c
00000050: 94b2 8c3c 4f0e f7bc 1c8d 233c 65ed 2ebc
00000060: 369c 283d 1490 9bba c1e5 1bbc 82e6 9a3a
00000070: 43e0 e6bb 2191 55bc 246a 14bc 8237 273c
00000080: 185b 96bb 0fcb 0c3c 3a8a d7bc 04fc 57bc
00000090: 96e3 b1bc ce89 5ebb 31bc f5bb 768d 013b
000000a0: 00b9 133c c586 fe3a c767 cfbc 4c8f e0bc
000000b0: 9b1c b3bc a9a7 cf3b 7628 003c d9cd de3c
000000c0: d95d f5bc 7f46 d83b b12c bbba 6925 b63b
000000d0: 00e0 07bd 6a86 c8bb 7546 ed3b 0f46 dcbb
000000e0: 4f02 cfbc c714 d6bb e7b3 1f3d d265 04bd
000000f0: caaf a1ba 51e7 61bc 241c a0bc fdc0 4c3c
00000100: 1014 023c fbec 07bc 6682 33b9 eed3 463b
00000110: bb22 903d d831 e5bc 9b7d 04bd b386 cd3b
00000120: bbbd ae3a c435 81bd 3bd5 f73a ba59 81bc
00000130: 43f0 06bc 534e 0b3c 1c8a 64bc b39c 023a
00000140: f03d 773b b160 d7bc 640d 373c d4e0 16bb
00000150: f913 de3c e314 84bc cd2b da3b 1b85 70bb
00000160: d324 023d 793f ecbb 8d01 49bc c8f8 543b
00000170: c03c 43bb fcb2 2e3b 5e52 b43c 3eb3 a0bb
00000180: be4a b0bb d708 d8bb 7b84 6dbb 775d edbc
00000190: baf5 27bc 0670 1fbb f03c a63c b96c f0bb
000001a0: 0b22 11bd 4f82 95ba 2c50 9e3c a749 c4bb
000001b0: 0a0f 74bc 50a8 f8bc 04c5 87bc 1dcd dd3c
000001c0: 03c2 2a3d f7ba 9fbc fee1 12bc 4261 2eba
000001d0: b8ee 8cbb 719a fe3b a618 a7bb 88e6 03bd
000001e0: 9075 62ba f206 3ebb ffb5 3abc c430 e33c
000001f0: 4e2c d53c bff3 86bc 5491 b8bc 319e 98bc
00000200: 48bd 5fbd 96ee d3bc 6085 d9bb 8265 fe3b
00000210: bc64 5abc 3a99 6ebc 8b4d 9a3b c8e8 97bc
00000220: 861f 703c f54d 4a3b e45f c23b fdf5 7d3b
00000230: 294c 7cbc 3e90 b0bc 9d32 30bd a30e 773c
00000240: 25f3 88bc 556c d7bb 1725 0a3c 026e 2f3c
00000250: 9f09 09bc 0c86 a4bc b4a3 0fbd ed92 ccbc
00000260: 0fd2 29bc fd5a f63c 0ad0 ad3b 5421 2fbc
00000270: 7f1c f9bc eee7 a1bc f8b6 113c ea6f 723b
00000280: 7cb0 c9bc 2226 debb 60cb ae3a f02a e6bc
00000290: 057d 6f3c d7a7 59bb f367 6bbc 952c d6b9
000002a0: 5ee6 2cbc 9d44 b3ba 24ba 7ab9 d4f9 2bbb
000002b0: e971 eb3c 063f f8bc c103 623b d9c1 33bd
000002c0: b57f 1ebd dd59 84bc 5cf7 d2bc c176 423c
000002d0: 9362 f5bc 05ae 5f3c 880e 223d b51f 8dbc
000002e0: 40e0 283c a694 093d 6b74 553c 39b5 c43c
000002f0: 31a2 9bbc 9709 13bc c687 1dbd 7ba1 86bb
00000300: fd49 83bc e4ef 2abd 818d fcbc 260d 7cbb
00000310: d57c dcbb 1b5b 3c3d 3046 e1bc 8db1 b8bc
00000320: 77c2 02bb da17 96bc faa9 e13c 5189 a3bb
00000330: e648 23bc 984f 183d 6e35 023d 9ece d2bc
00000340: ab20 80bc b35c 8fbc a3bc 11bd 22ff 3ebc
00000350: ac91 473c 3c2f 06bb af98 3ebb c811 1abd
00000360: 07fe f5bc d180 72bc 3e2a 53bb 5193 913c
00000370: 7e15 3abb a1a2 15bc b41b d63c ea04 883c
00000380: 3260 32bc 2685 cabc 0845 463c a75f 313d
00000390: 4622 05bc 880f 1e3c afdc ef3c 9cb3 1ebd
000003a0: 8ae7 733a 65ce 5d3d df6b 08bc bef7 f6bc
000003b0: 86df 66bc 4b67 8ebc c4bf 093c ca2c 08bb
000003c0: 541f 923c b7d3 1fbc 4656 023c 1ab6 2fbd
000003d0: b0bd b8bc 4074 eebc c17c 753c 24ac 423d
000003e0: 8d61 a6bc 6068 56ba 7a22 953b a094 c9bc
000003f0: 18d5 633c 243c 593d 0f68 01bc 3d83 463c
-0.0020043293 0.0068663913 -0.018295096 -0.050786406 0.027525276 0.009237293 -0.0063693537 0.0068917423
0.0041783187 -0.005637016 -0.01616557 -0.013784469 0.006766801 -0.021676647 -0.013518219 0.007813273
-0.030524787 0.0063843573 0.023886334 0.019543374 0.017174996 -0.03015819 0.009982374 -0.010676716
0.0411646 -0.00118685 -0.009515227 0.0011817964 -0.007045777 -0.01303509 -0.009058509 0.010206105
-0.004588496 0.008593335 -0.026311029 -0.013182644 -0.021714967 -0.003395665 -0.007499241 0.0019768155
0.009016275 0.0019418827 -0.02531804 -0.02741208 -0.021864226 0.0063371253 0.007822147 0.027197765
-0.029951977 0.0066002007 -0.0014280287 0.005558659 -0.033172607 -0.006119539 0.007241065 -0.006722219
-0.025269656 -0.0065332386 0.038989928 -0.032323666 -0.0012335714 -0.01378806 -0.019544668 0.012497184
0.007939354 -0.008296247 -0.00017119347 0.0030338722 0.07037874 -0.027977869 -0.03234635 0.006272161
0.001333169 -0.06309083 0.0018908152 -0.015789855 -0.008235994 0.008502561 -0.0139489435 0.00049824564
0.0037726127 -0.026291223 0.011172626 -0.0023022192 0.027109133 -0.01612324 0.0066580535 -0.003670043
0.0317734 -0.007209715 -0.012268436 0.0032496918 -0.0029790848 0.0026656976 0.022011932 -0.00490418
-0.0053800037 -0.0065928507 -0.0036242295 -0.028975232 -0.010251457 -0.0024328246 0.02029273 -0.0073371795
-0.035432857 -0.0011406633 0.019325338 -0.0059902254 -0.014896164 -0.030353695 -0.016573437 0.027075345
0.04168893 -0.019498331 -0.008965014 -0.0006652066 -0.0043009184 0.0077698757 -0.005099374 -0.032202274
-0.0008638734 -0.002899584 -0.01139593 0.027733214 0.026022103 -0.01647365 -0.022530235 -0.018630119
-0.054623872 -0.025870603 -0.006638214 0.0077635655 -0.013329681 -0.014562899 0.004708951 -0.018543616
0.014655953 0.003086922 0.005931841 0.0038751357 -0.015399017 -0.021553155 -0.04301702 0.015079173
-0.016717503 -0.0065741935 0.0084316945 0.01070738 -0.00836411 -0.02008345 -0.03506823 -0.024972403
-0.010365023 0.030072683 0.005304341 -0.010689098 -0.030409096 -0.019763913 0.008893721 0.0036992976
-0.024620287 -0.006779448 0.0013335757 -0.028096646 0.014617209 -0.0033211613 -0.014368045 -0.00040850477
-0.010552971 -0.0013677065 -0.000239112 -0.0026241438 0.02874084 -0.03030349 0.00344871 -0.04388604
-0.03869601 -0.016156131 -0.025752716 0.011869133 -0.02995423 0.013652329 0.03956464 -0.017227033
0.010307372 0.033589028 0.0130282445 0.024012195 -0.018998237 -0.008974454 -0.03845956 -0.0041086054
-0.016026491 -0.041732684 -0.030829193 -0.0038459986 -0.0067287483 0.045985322 -0.027499288 -0.0225456
-0.0019952336 -0.01832192 0.027546871 -0.0049907346 -0.009966111 0.03718528 0.031789236 -0.025733288
-0.015640577 -0.017500257 -0.03558029 -0.011657508 0.012180727 -0.0020474931 -0.0029082706 -0.037614614
-0.030028356 -0.01480122 -0.0032221223 0.017770441 -0.0028394158 -0.009133012 0.026136257 0.016603906
-0.010887193 -0.024721693 0.012101419 0.04330411 -0.008125847 0.009647258 0.029280035 -0.038745508
0.00093042164 0.05415191 -0.0083265 -0.03014743 -0.014091378 -0.017383238 0.008407537 -0.002077865
0.017837204 -0.009755067 0.0079551395 -0.042898275 -0.022551388 -0.029108167 0.014983357 0.047527447
-0.020310188 -0.0008179005 0.004551229 -0.024607003 0.013905786 0.05303587 -0.007898345 0.012116251

action_model._discrete_distribution.branches.2.bias f4 [2]
00000000: 6bb6 42bc 62b6 423c
-0.011884312 0.011884304
