results/ThreeDirt/DirtAgent/DirtAgent-54114.onnx (onnx, 315955 bytes, 11 tensors)

discrete_action_output_shape f4 [1, 3]
0	0x40400000	3.0
1	0x40400000	3.0
2	0x40000000	2.0

network_body._body_endoder.seq_layers.0.weight f4 [256, 39]
0	0x3bf8f753	0.0075978427
1	0x3e5957f2	0.21224955
2	0xbdc214ed	-0.094766475
3	0xbd2580c6	-0.04040601
4	0x3e363e63	0.17797236
5	0xbdb0b856	-0.08628909
6	0xbd76f32b	-0.060290497
7	0xbe05bc56	-0.13060126
8	0x3e82a669	0.25517586
9	0x3e86c243	0.26320085
10	0xbf14de32	-0.58151543
11	0xbdb02f8d	-0.086028196
12	0xbd9851aa	-0.07437451
13	0x3d860bc3	0.06545212
14	0x3c9b147d	0.018930668
15	0xbe3ac1a7	-0.18237935
16	0x3e22ed81	0.15910913
17	0xbbbb05a1	-0.005707458
18	0x3e3adac8	0.18247521
19	0xbd95a2cd	-0.073064424
20	0x3d8e3368	0.06943399
21	0xbbd94977	-0.006631072
22	0xbb60ab99	-0.0034281968
23	0x3e4df405	0.20112617
24	0x3d516771	0.05112404
25	0x3e2c6eca	0.16839138
26	0xbe63f4ae	-0.22261307
27	0x3e3609a9	0.17777123
28	0x3e232973	0.1593378
29	0x3e1316f8	0.1436423
30	0x3b2eb794	0.0026659714
31	0xbce9c1a0	-0.02853471
32	0x3e0159a2	0.12631848
33	0xbe1ca47b	-0.1529712
34	0xbe479da9	-0.19493736
35	0xbe0caa29	-0.13736786
36	0xbe1d0500	-0.15333939
37	0x3dd7e0d7	0.10540932
38	0xbe0de236	-0.13855824
39	0x3e21f59e	0.15816352
40	0x3ea931ce	0.3304581
41	0xbde391df	-0.11111807
42	0xbe911046	-0.28332728
43	0xbcae0b14	-0.021245517
44	0x3b8a7e16	0.0042264564
45	0x3d0aea74	0.033915
46	0xbc2e54fb	-0.010640378
47	0xbe84d202	-0.25941473
48	0x3e7e7bf7	0.24851976
49	0x3e7b1578	0.24519908
50	0x3ed33f0c	0.41259038
51	0x3d8d3f95	0.06896893
52	0xbec0166e	-0.37517112
53	0xbe38d900	-0.18051529
54	0x3e9f1721	0.31072333
55	0xbd05f8a2	-0.032707818
56	0x3eb0b5a8	0.34513593
57	0xbdc34d7f	-0.095362656
58	0xbe17591a	-0.14780083
59	0xbdd77715	-0.1052076
60	0x3e3b50c8	0.18292534
61	0x3da0216f	0.07818877
62	0xbe4e947b	-0.20173828
63	0xbe40f1c5	-0.18842228
64	0xbe9a26f0	-0.30107832
65	0xbe205bcb	-0.15660016
66	0x3e0f5d5c	0.14000458
67	0xbe621eb4	-0.22082025
68	0x3d389d49	0.045071874
69	0xbde3cfa0	-0.11123586
70	0x3e877416	0.26455754
71	0x3e45598a	0.19272438
72	0xbd567d4a	-0.05236558
73	0x3d77ad91	0.06046826
74	0x3ea80bbb	0.3282145
75	0x3e35afda	0.17742863
76	0x3e43d495	0.19124062
77	0x3d0c1e52	0.034208603
78	0xbeb25e39	-0.3483751
79	0xbd439882	-0.047752865
80	0xbc9550dd	-0.018227035
81	0x3dc5d603	0.0965996
82	0xbe24d697	-0.16097485
83	0xbda8b326	-0.08237295
84	0x3ebcec9a	0.36899263
85	0xbe5f3a95	-0.21799691
86	0x3e00eff8	0.12591541
87	0x3d74d554	0.059773758
88	0x3df8da2c	0.12150988
89	0x3e8b2182	0.27174002
90	0xbdb4916b	-0.08816799
91	0x3d5c5c9c	0.053799257
92	0x3e04a08d	0.1295187
93	0xbc8c87f3	-0.01715467
94	0x3daf3f8c	0.085570425
95	0x3de6b085	0.11264137
96	0xbe812afa	-0.252281
97	0xbd50ab76	-0.050944768
98	0x3c411160	0.011783928
99	0x3cce4ec3	0.02518404
100	0x3c1daee0	0.009624213
101	0x3e703152	0.23456314
102	0xbdf22f89	-0.11825473
103	0xbe5a261e	-0.21303603
104	0x3afb14b3	0.0019155949
105	0xbd4ed35b	-0.050494533
106	0x3d8e2e42	0.06942417
107	0xbd591237	-0.052995887
108	0xbda815af	-0.08207261
109	0x3efffc1c	0.49997032
110	0xbcb75455	-0.02237908
111	0xbd777f3f	-0.060424086
112	0x3d602931	0.054726783
113	0xbd769ae5	-0.060206313
114	0xbc9b1819	-0.01893239
115	0x3e1e5ced	0.15465136
116	0xbe4e9706	-0.20174798
117	0x3e003036	0.12518391
118	0x3e45f14f	0.19330333
119	0xbb0f20bf	-0.0021839587
120	0xbedf9dca	-0.4367507
121	0xbe0a8863	-0.1352859
122	0x3e855781	0.26043323
123	0xbe2f6828	-0.17129576
124	0xbdc4e55b	-0.096140586
125	0x3d3f9eb8	0.046782225
126	0x3e37e9b0	0.17960238
127	0x3e955706	0.29167956
128	0xbd9c38fa	-0.07628055
129	0x3cf23ec5	0.029570946
130	0x3de43a2a	0.111439064
131	0x3c431e76	0.011909118
132	0x3d4a5f1d	0.049407113
133	0x3e71acf8	0.23601139
134	0x3d9eaf4e	0.077482805
135	0x3dc25c82	0.09490301
136	0x3ed2a435	0.41140905
137	0xbc86f2d4	-0.016473211
138	0xbd221c24	-0.03957762
139	0xbdf1622d	-0.11786304
140	0xbeab4859	-0.33453634
141	0x3e71831d	0.23585172
142	0x3b7d118e	0.00386152
143	0x3c971a76	0.018445235
144	0xbe199b71	-0.15000702
145	0xbcf4e0f1	-0.029892417
146	0x3e396e15	0.18108399
147	0xbe2f0802	-0.17092898
148	0x3d958412	0.07300581
149	0xbe07199d	-0.13193364
150	0xbe8d0024	-0.2753917
151	0xbd2a0994	-0.04151304
152	0xbe75a817	-0.23989902
153	0xbe4b26fb	-0.19839089
154	0x3dd959eb	0.106128536
155	0x3e0f2ed6	0.1398271
156	0x3e3a76a4	0.1820932
157	0xbd0529fa	-0.032510735
158	0x3d51d4d6	0.051228367
159	0x3e940ce9	0.289161
160	0x3e84ce12	0.2593847
161	0x3e073793	0.13204794
162	0x3e2167f6	0.15762314
163	0x3c4639f2	0.012098776
164	0xbd245eba	-0.0401294
165	0xbe89f4da	-0.2694462
166	0x3da527c3	0.080642246
167	0x3e190c8b	0.14946191
168	0xbe3884bf	-0.18019389
169	0xbdde79ef	-0.10863101
170	0xbe2ae6f5	-0.16689666
171	0x3d9d9896	0.07695119
172	0x3d500b41	0.050791983
173	0x3dc78921	0.09742952
174	0x3e49b887	0.19699298
175	0x3d1e7a07	0.038690593
176	0x3bc2ad14	0.0059410427
177	0x3c9eb18b	0.019371768
178	0x3d9459e5	0.072437085
179	0xbd8f9ba7	-0.0701211
180	0xbe1fcf40	-0.15606403
181	0xbd3b2890	-0.04569298
182	0xbe5a4bdd	-0.21318002
183	0xbdd0e6f6	-0.10200302
184	0x3de335a4	0.110942155
185	0x3d9250eb	0.0714434
186	0xbdbd446f	-0.09241568
187	0x3d24ad1c	0.040204152
188	0x3eee8a87	0.46590063
189	0xbe3763d5	-0.17909177
190	0xbd3c64c1	-0.045994524
191	0x3eb55b2e	0.35421127
192	0x3dc08dbe	0.09402035
193	0xbd49ead6	-0.049296223
194	0xbec25a80	-0.3795967
195	0xbd1c6f90	-0.03819233
196	0x3cb5deaa	0.022200901
197	0x3e668522	0.22511724
198	0x3c9baccd	0.019003296
199	0xbe1a90cc	-0.15094298
200	0x3e729acb	0.23691861
201	0x3dd7834b	0.10523089
202	0xbdca042f	-0.09864079
203	0xbdd9fb2c	-0.1064361
204	0x391b49fb	0.00014809512
205	0xbe042560	-0.12904882
206	0xbe46f5e0	-0.19429731
207	0xbe33390f	-0.17502235
208	0xbe07a214	-0.13245422
209	0x3df24e61	0.11831356
210	0xbe183dbe	-0.14867303
211	0x3e95044c	0.2910484
212	0xbe36ef62	-0.17864755
213	0xbc6ecd33	-0.0145752905
214	0x3e995a43	0.29951677
215	0x3e0c39f3	0.13693981
216	0xbccc9588	-0.024973646
217	0xbe51a50d	-0.20473118
218	0xbea62b66	-0.32454985
219	0x3e193ae0	0.14963865
220	0x3e4e6e6b	0.20159309
221	0xbcd9a118	-0.026566073
222	0xbd138fc3	-0.036025774
223	0xbe0aef24	-0.13567787
224	0x3b3b6d29	0.0028599
225	0x3d8a45c5	0.06751589
226	0xbc98e9de	-0.018666204
227	0x3ed2bce8	0.4115975
228	0x3d2b1dbd	0.041776408
229	0xbdde1db5	-0.1084551
230	0xbcfac89d	-0.030613238
231	0xbd0d1e79	-0.03445289
232	0x3c3d9d36	0.011573127
233	0xbd2903ca	-0.04126338
234	0x3d249554	0.040181473
235	0xbd675862	-0.056480773
236	0xbe00f2b0	-0.12592578
237	0xbe8f1d91	-0.27952245
238	0xbe0b372b	-0.13595264
239	0x3ab15974	0.0013530687
240	0x3d8edde2	0.069759145
241	0x3ba35b22	0.004985229
242	0xbe1e0d78	-0.15434825
243	0xbdabe484	-0.08393195
244	0x3edc5ec8	0.43041062
245	0xbd179646	-0.037008546
246	0x3e7b0e73	0.2451723
247	0xbd2d3020	-0.042282224
248	0x3af7aed4	0.0018896707
249	0x3d9bac68	0.07601243
250	0xbe7e4ae0	-0.2483325
251	0x3e8b2c70	0.2718234
252	0xbcc9a333	-0.024613952
253	0xbe494bdb	-0.19657843
254	0xbe5fbac3	-0.21848588
255	0xbda91fc5	-0.08258013

network_body._body_endoder.seq_layers.0.bias f4 [256]
0	0xbcc29f5b	-0.023757627
1	0x3c886d4e	0.016653683
2	0x399c3a58	0.00029798108
3	0xbc9c954e	-0.019114163
4	0x39453cf0	0.00018810085
5	0x3a32c8e2	0.0006820095
6	0x3ce1ada3	0.027548617
7	0x3c3c4732	0.011491584
8	0x3ac08e4b	0.0014690844
9	0xb895849c	-7.129574e-05
10	0xbc031d27	-0.008002556
11	0xbaa112cf	-0.0012288931
12	0xbc2e0dd3	-0.010623413
13	0x3b15c812	0.0022854847
14	0xbb47bfd0	-0.003047932
15	0x3c24ae51	0.010051326
16	0x3be701cc	0.0070497748
17	0x3ba56917	0.005047928
18	0x3b3dd9a1	0.0028968828
19	0xba829bc4	-0.0009964635
20	0xba8f62c4	-0.0010939469
21	0x3ad33fa1	0.0016116985
22	0x3c44edca	0.012019584
23	0x3b9f2a66	0.004857349
24	0x3c2b8d1f	0.010470658
25	0x3ceb7197	0.028740687
26	0x3cd928cf	0.026508717
27	0x3c3b3882	0.011427047
28	0x3b061c4b	0.0020463641
29	0x3b11ec97	0.0022266263
30	0xbc4f42c8	-0.012650199
31	0xbbb597e4	-0.0055417884
32	0x3bbefea9	0.0058286977
33	0xbca5c6ec	-0.020236455
34	0x3d4e9f34	0.050444797
35	0x3cfb94e6	0.030710649
36	0x3cead513	0.028666055
37	0x3c7b48e5	0.015337204
38	0x3c11df61	0.008903355
39	0x3c9dc48b	0.019258758
40	0x3c2d0c6e	0.0105620455
41	0x3c886fdc	0.016654901
42	0x3bd1f229	0.0064070416
43	0x3b9fc0ee	0.004875294
44	0x3c0309f8	0.007997982
45	0xbb1da5bc	-0.0024055084
46	0xbb97db2e	-0.0046342826
47	0xbafb8586	-0.0019189573
48	0xbc73ad61	-0.01487288
49	0xbc126f8c	-0.008937728
50	0x3c7aec24	0.015315089
51	0x3cd35edc	0.025802068
52	0x3c614a0e	0.013750566
53	0xba19f871	-0.00058735075
54	0x3ba907f0	0.005158417
55	0x3cb3f933	0.021969413
56	0x3bfa31e7	0.0076353434
57	0x3aacab6f	0.001317365
58	0xbc0e3703	-0.008680108
59	0xbca3448f	-0.019930152
60	0x3cd7a7e6	0.026325177
61	0x3c04138a	0.008061299
62	0xbcb30d82	-0.021857027
63	0x3cb122a1	0.021622958
64	0xbb34982e	-0.0027556526
65	0x3b19dccc	0.0023477552
66	0xbc2f718d	-0.010708225
67	0x3a15b978	0.0005711536
68	0xbb444918	-0.0029950794
69	0x3be9f342	0.0071395943
70	0x3caf9d02	0.021437172
71	0x3ccd38d3	0.02505151
72	0x3cca9b56	0.024732273
73	0x3c368e85	0.011142378
74	0xbbc43a14	-0.0059883688
75	0xbc9a35a6	-0.01882441
76	0xbb041b2b	-0.0020157795
77	0x3cb4b2cb	0.022057911
78	0xbb4a1fbb	-0.0030841667
79	0xbc3968fa	-0.011316532
80	0x3cbb7fe8	0.022888139
81	0x3c8124b5	0.015764574
82	0xbc5a3be2	-0.013319941
83	0x3bec7c1b	0.007216943
84	0x3bdba659	0.00670318
85	0x3b483545	0.003054933
86	0xbc95afef	-0.018272368
87	0x3c17cafb	0.009264703
88	0xbc210b3a	-0.009829337
89	0xbaf0c21e	-0.0018368398
90	0xbc2c0154	-0.0104983635
91	0x3b17b582	0.0023148959
92	0xba3c736a	-0.0007188829
93	0xbc76e93d	-0.015070257
94	0xbca3c9aa	-0.019993622
95	0xbbd59212	-0.006517657
96	0x3af93802	0.0019013884
97	0xbc6d45e7	-0.014481998
98	0x3ca95ac6	0.020673167
99	0xbc92418e	-0.017853525
100	0xb95fb522	-0.00021334414
101	0xbbb67dff	-0.005569219
102	0x3cabe077	0.020981057
103	0x3c8b6ea2	0.017020527
104	0x3b6aec6a	0.003584648
105	0xbbb9cdff	-0.0056703086
106	0x3d00df2d	0.031462837
107	0x3cafcd6d	0.02146026
108	0x3bf3000b	0.0074157766
109	0xbc8b0656	-0.016970795
110	0xbca09033	-0.01960001
111	0x3b8a0db5	0.00421306
112	0xbbc06684	-0.005871596
113	0xba85dd73	-0.0010213092
114	0x3c8986ea	0.016787965
115	0xbbb674de	-0.005568131
116	0x3b87da2b	0.0041458807
117	0x3c0f9a7e	0.008764861
118	0x3c28fef5	0.010314693
119	0x3d109740	0.035300493
120	0x3c477b9e	0.012175469
121	0xbc91b899	-0.017788218
122	0x3c6252b6	0.013813665
123	0x3b291ce0	0.0025804564
124	0x3bf607df	0.0075082625
125	0x3b8048df	0.003914937
126	0xbaf28228	-0.0018501924
127	0x3d2b40fd	0.041810025
128	0x3c66466d	0.014054877
129	0x3b94dbf9	0.0045428243
130	0x3d033704	0.03203489
131	0xbaa9635a	-0.0012923286
132	0x3c422ecd	0.0118519785
133	0x3bfdc1b0	0.0077440366
134	0x3b95a407	0.0045666727
135	0xbbe57573	-0.0070025264
136	0x3be8be8c	0.007102793
137	0x3cde7672	0.027156089
138	0x3d129e18	0.0357953
139	0x3c4d2074	0.012519944
140	0x3cb00815	0.021488229
141	0xbc146b73	-0.009058821
142	0x3bbecfcc	0.005823111
143	0x3cd09b5e	0.02546471
144	0x3ca23ae3	0.01980347
145	0x3c349db1	0.011023925
146	0x3be8a9e9	0.007100333
147	0xbbd00931	-0.006348752
148	0x3c800d06	0.01563121
149	0xbc67bfc3	-0.014144841
150	0xbc1bccda	-0.00950929
151	0x3d18432e	0.037173443
152	0xbb5105d5	-0.0031894345
153	0x3c6214ed	0.013798934
154	0xbc2e9189	-0.0106548155
155	0x3afa2cd7	0.001908685
156	0x3d07bb47	0.033137586
157	0x3d086d1d	0.033307184
158	0x3c06596a	0.008200029
159	0x3cd015b2	0.02540097
160	0x3c8b1368	0.016977027
161	0xbc0d9416	-0.0086412635
162	0x3d9332d9	0.07187433
163	0xbc4900de	-0.012268273
164	0x3c16bf83	0.009200933
165	0x3c0f16c4	0.008733455
166	0x3b355372	0.0027668145
167	0xbbc636ed	-0.006049028
168	0x37e491a4	2.7247537e-05
169	0xbbc515d3	-0.0060145645
170	0x3c43ade3	0.011943313
171	0xbb6bdadf	-0.0035988612
172	0x3c4c730a	0.012478599
173	0x3c95ade2	0.01827139
174	0x3c5d6329	0.013512411
175	0x3b428fa7	0.0029687674
176	0xbc157e26	-0.009124314
177	0x3bc6f56a	0.006071736
178	0xbcc026d8	-0.023456022
179	0xbb770df2	-0.003769752
180	0x3b9fbd50	0.0048748627
181	0xbc82f7f4	-0.015987374
182	0x3ba36faa	0.0049876766
183	0x3d166373	0.036715936
184	0x3c17f6d1	0.009275154
185	0x3c783371	0.015148983
186	0xbcc30c2f	-0.02380952
187	0x3d126e85	0.03574993
188	0x3c3f4b2f	0.01167564
189	0xbc04f2d9	-0.00811454
190	0x3c451b61	0.012030453
191	0x3cf092f7	0.029366953
192	0x3b7bc487	0.00384167
193	0xbb979f9e	-0.004627182
194	0x3c43ee06	0.011958605
195	0x3c8101ec	0.015747987
196	0xbc955daa	-0.018233139
197	0x3c5e8ce9	0.0135834
198	0x3c92d754	0.017924942
199	0x3d49e1a8	0.04928747
200	0x3c9fad69	0.019491868
201	0xbc101c88	-0.008795865
202	0x3cf3c80f	0.029758481
203	0x3c2764a3	0.010216865
204	0x3d3b55e9	0.045736227
205	0x3b7be7f9	0.0038437827
206	0x3b9c804c	0.0047760364
207	0xbc1ed834	-0.0096951015
208	0x3cc9e929	0.024647312
209	0x3d3fd801	0.046836857
210	0x3ceadc45	0.028669486
211	0x3b235ffe	0.0024929042
212	0x3d4cac98	0.049969286
213	0xbb9c333f	-0.004766851
214	0xbbe045cf	-0.0068442593
215	0x3aff8241	0.0019493775
216	0x3c858d7b	0.016302815
217	0x3c27842c	0.010224383
218	0xbb801016	-0.0039081676
219	0x3bbc6972	0.0057498747
220	0x3b82c693	0.003990957
221	0x3d05af2a	0.032637753
222	0x3bfef705	0.007780912
223	0x3c656ade	0.01400253
224	0x3bb7a7ec	0.0056047346
225	0x3c88b8bb	0.016689649
226	0xbb6e7f07	-0.0036391632
227	0x3b043442	0.002017275
228	0x3b84c528	0.004051823
229	0x3b267450	0.0025398917
230	0xbad9975f	-0.0016600898
231	0x3b637c02	0.0034711366
232	0xbb87c868	-0.0041437633
233	0x3c840dde	0.016119894
234	0xbc15f233	-0.009151983
235	0xbc7d37be	-0.0154551845
236	0xbb7f1b78	-0.0038926285
237	0x3c00745a	0.00784024
238	0x3c791f93	0.015205282
239	0xbc257475	-0.010098566
240	0x3c8852c3	0.016641026
241	0x3c48defd	0.012260196
242	0xbc931608	-0.017954841
243	0x3cf22ab0	0.02956137
244	0xbbbe37fc	-0.0058050137
245	0x3ca68f72	0.020332072
246	0x3c1160d1	0.0088731805
247	0xbc051f59	-0.00812515
248	0x3c90aeaa	0.017661411
249	0x3b7ff30c	0.003905478
250	0xbb7ba0d2	-0.0038395417
251	0x3d3be64d	0.04587393
252	0x3c09578d	0.00838269
253	0x3bcbc180	0.0062181354
254	0x3b09faeb	0.00210541
255	0x3b0a991a	0.0021148385

network_body._body_endoder.seq_layers.2.weight f4 [256, 256]
0	0x3bfefcfb	0.0077816225
1	0x3db59c79	0.088677354
2	0xbdbc43d9	-0.091926284
3	0x3d181670	0.037130773
4	0xbc8d75eb	-0.017268142
5	0xbda496d8	-0.08036584
6	0xbcefd031	-0.029274078
7	0xbbfe2cef	-0.0077568213
8	0x3c0f20c9	0.008735844
9	0xbd59c93d	-0.05317043
10	0x3d1d4fea	0.03840629
11	0xbcac7251	-0.021050604
12	0x3b7f6ddf	0.00389754
13	0xbccceaf7	-0.025014384
14	0xbd2b23d7	-0.041782226
15	0xbd182e10	-0.037153304
16	0xbd33a41a	-0.04385767
17	0x3c6a386c	0.014295679
18	0x3d9cd9a6	0.07658701
19	0xbdf9e1ca	-0.12201269
20	0x3d1724ac	0.036900207
21	0xbc604200	-0.013687611
22	0xbdcec79b	-0.100966655
23	0x3d6e0a9a	0.05811558
24	0xbdbae8ad	-0.09126411
25	0xbd3cf254	-0.04612954
26	0xbdbcdc67	-0.09221726
27	0x3d5986b9	0.053106997
28	0xbdce541d	-0.10074637
29	0xbdb4d8e9	-0.08830435
30	0xbd02c241	-0.031923536
31	0x3ca2a635	0.019854644
32	0xbd83cc50	-0.06435454
33	0x379b8731	1.8540393e-05
34	0xbd67116f	-0.05641311
35	0xbcd29950	-0.02570787
36	0xbd7e75b3	-0.062123965
37	0xbd43580e	-0.047691397
38	0xbcc59331	-0.024118038
39	0x3d3e2739	0.046424124
40	0x3e1b65ee	0.15175602
41	0xb9990da2	-0.0002919259
42	0x3d61b153	0.05510075
43	0xbd897f99	-0.067137904
44	0xbc969ce2	-0.018385354
45	0x3b3e82dd	0.00290697
46	0xbdbbb5f4	-0.09165564
47	0x3dc9c7a0	0.098525286
48	0x3d91b18e	0.07113944
49	0xbd7564e3	-0.059910666
50	0xbd3e4096	-0.046448313
51	0xbd9f77e3	-0.077865385
52	0xbbeb3976	-0.0071784807
53	0xbd6e96e3	-0.058249366
54	0x3d6175f9	0.055044148
55	0x3ce261e3	0.027634567
56	0x3c0751be	0.008259235
57	0x3d42f43b	0.047596198
58	0xbd15d3dd	-0.036579
59	0xbd28a9b6	-0.041177474
60	0x3c92d902	0.017925743
61	0xbd17b5a6	-0.037038468
62	0xbda71c9e	-0.08159755
63	0xbd331183	-0.043717872
64	0x3d2fd348	0.042926103
65	0xbcdeca5d	-0.027196104
66	0xbd8410d7	-0.064485244
67	0xbdf7bebb	-0.12096926
68	0x3e1987eb	0.14993255
69	0x3c878a7f	0.016545532
70	0xbe1fbfc0	-0.1560049
71	0xbcf4b1cd	-0.029869938
72	0x3d40f574	0.047109082
73	0x3bf229ed	0.007390252
74	0xbcf9647c	-0.030443422
75	0x3d4e0ab1	0.050303165
76	0xbe07db33	-0.13267212
77	0x3df667ec	0.1203154
78	0x3c999720	0.01874882
79	0xbd7e6c32	-0.0621149
80	0xbc9a4b16	-0.018834632
81	0xbd8d33b5	-0.06894628
82	0xbcade671	-0.021228047
83	0x3ca0d9d7	0.019635124
84	0xbd85b10a	-0.06527908
85	0x3dc8ab71	0.09798325
86	0xbcd37e8b	-0.025817176
87	0xbe12b38f	-0.14326309
88	0x3baf8cf8	0.005357381
89	0x3d77b40a	0.060474433
90	0x3bde41e4	0.006782757
91	0x3c9527fe	0.018207546
92	0xbe25d311	-0.16193797
93	0xbd530e16	-0.051527105
94	0xbdd649a0	-0.104632616
95	0x3b839347	0.0040153596
96	0xba22e69c	-0.0006214173
97	0xbc2a2fc7	-0.010387368
98	0xbd126785	-0.035743255
99	0x3dba574f	0.09098684
100	0xbc106850	-0.008813933
101	0x3d66af13	0.056319308
102	0xbd0f84ef	-0.035038885
103	0xbd4f2e2e	-0.05058115
104	0xbcc74851	-0.024326475
105	0x3d2b0f87	0.041762855
106	0xbcb3c762	-0.02194566
107	0xbd83a608	-0.06428152
108	0x3ba03545	0.0048891627
109	0x3bc75384	0.006082954
110	0xbd0fc2de	-0.03509795
111	0x3d62fc90	0.055416644
112	0xbd19eab2	-0.03757734
113	0x3d2243c4	0.039615408
114	0x3d417f85	0.047240753
115	0x3cd73a36	0.026272874
116	0x3dfa1c02	0.12212373
117	0xbd156d7f	-0.036481377
118	0xbdbe6fcb	-0.092986666
119	0x3d186770	0.03720802
120	0xbc326e1c	-0.01089051
121	0xbd46924f	-0.048479374
122	0x3b939726	0.0045041023
123	0x3d2d67d1	0.042335335
124	0xbd806641	-0.062695034
125	0xbd5afb07	-0.053462055
126	0x3d942d7a	0.072352365
127	0x3e0bfd98	0.13670957
128	0x3cfd4fa8	0.030921772
129	0xbca7dd65	-0.020491311
130	0xbd7c2536	-0.061558925
131	0xbd61db21	-0.05514062
132	0x3c777f8a	0.015106091
133	0xbd2a4b35	-0.04157563
134	0xbcd73da3	-0.026274508
135	0x3d410ac8	0.047129422
136	0xbd4f95f2	-0.05068011
137	0xbcef8d7b	-0.029242268
138	0xbcde58de	-0.027141985
139	0x3cafdd63	0.02146787
140	0x3e4afe71	0.19823624
141	0x3dc75450	0.09732878
142	0xbdb4ea21	-0.08833719
143	0xbb41d743	-0.002957777
144	0x3db99cdf	0.09063124
145	0x3b9541bc	0.0045549553
146	0xbd8d6bcb	-0.069053255
147	0xbd839bcf	-0.064262025
148	0xbd9a5757	-0.0753619
149	0x3e05e827	0.1307684
150	0x3ca7f186	0.02050091
151	0xbd3bd0e2	-0.045853503
152	0x3ca2e3c7	0.019884003
153	0xbdbc268a	-0.09187038
154	0xbc84b387	-0.016198887
155	0xbd2bc1c5	-0.04193284
156	0x3d9a3909	0.0753041
157	0xbd8f78e8	-0.07005483
158	0xbe222977	-0.1583613
159	0x3d82cd02	0.063867584
160	0xbd36153e	-0.044453852
161	0x3dbc43ac	0.09192595
162	0xbbac770b	-0.0052632145
163	0x3d8aa2a1	0.067693
164	0x3d1af611	0.037832323
165	0x3d3e808e	0.046509318
166	0x3cec7439	0.028864013
167	0x3ca6b9c2	0.020352248
168	0xbe0c77da	-0.13717595
169	0xbd92a253	-0.07159867
170	0xbd448ff4	-0.047988847
171	0x3caa0445	0.020753989
172	0x3cb7bc12	0.022428546
173	0xbcb7b861	-0.022426786
174	0xbcbc1ad6	-0.022962015
175	0x3cd5447b	0.02603363
176	0xbd42bba6	-0.047542237
177	0xbd5ddd5a	-0.054166175
178	0xbd5dfaa7	-0.05419412
179	0x3d852e1b	0.065029345
180	0xbd136649	-0.03598622
181	0x3d1756dc	0.03694807
182	0x3d931646	0.07181983
183	0xbbf4795d	-0.0074607567
184	0xbd2d8ada	-0.042368747
185	0xbd7f0269	-0.062258158
186	0xbd58e372	-0.052951284
187	0xbc856786	-0.016284715
188	0xbc44ba9c	-0.012007382
189	0x3d741d88	0.059598476
190	0xbd3c4a1a	-0.045969106
191	0x3d70b69e	0.058767907
192	0xbb824e05	-0.003976586
193	0xbd94364d	-0.072369196
194	0xbdd9f240	-0.10641909
195	0xbd2a1af3	-0.041529607
196	0x3dd11737	0.10209506
197	0xb9f6c7d1	-0.0004706965
198	0xbd341aac	-0.04397075
199	0xbd014101	-0.031556133
200	0x3c629f89	0.013831981
201	0xbcc9535f	-0.024575887
202	0x3bc1257a	0.00589436
203	0x3d8f5e72	0.07000436
204	0x3d8f18af	0.0698713
205	0x3a18d33b	0.00058298156
206	0x3c09cc48	0.008410521
207	0x3daf88d8	0.08571023
208	0xbd1dd97c	-0.038537487
209	0x3c8bb04d	0.01705184
210	0xbe0dfd99	-0.13866271
211	0x3d80ea47	0.06294685
212	0x3d8329ab	0.06404432
213	0xbc8d35e2	-0.017237607
214	0x3dccaeb8	0.099942625
215	0xbc481936	-0.012213042
216	0xbbcfc797	-0.0063409316
217	0xbd0f6dc1	-0.03501678
218	0xbd0cc45d	-0.034366954
219	0xbd448693	-0.047979902
220	0x3bb0483e	0.0053797057
221	0xbd7e3d71	-0.062070314
222	0x3c234ad1	0.009966568
223	0x3d66d3a4	0.05635418
224	0xba990649	-0.0011674847
225	0x3d128d13	0.03577907
226	0xba5103d2	-0.00079732866
227	0x3d41d3a9	0.047320995
228	0xbde6b985	-0.11265854
229	0xbd600728	-0.054694325
230	0xbd2faf60	-0.04289186
231	0x3d926b94	0.07149425
232	0xbc9ab57e	-0.01888537
233	0xbd96327b	-0.07333847
234	0x3c894d48	0.016760483
235	0x3da1d591	0.07902063
236	0x39a7996a	0.00031967025
237	0xbd8588b1	-0.065202124
238	0x3e3549f9	0.17704
239	0x3cf2a05d	0.029617483
240	0xbcfa1028	-0.030525282
241	0x3d906e8c	0.07052335
242	0x3db1f8f8	0.08690065
243	0x3d8e98c1	0.06962729
244	0xbe149e96	-0.1451362
245	0xbc2e180e	-0.010625852
246	0x3dfd66b4	0.12373105
247	0xbe103d36	-0.1408585
248	0x3d4f6375	0.05063196
249	0xbd0374d9	-0.032093856
250	0x3e047080	0.1293354
251	0x3d31ce10	0.043409407
252	0x3db5b3e0	0.08872199
253	0xbe559bbe	-0.20860192
254	0x3d284309	0.041079555
255	0xbd1035f8	-0.03520772

network_body._body_endoder.seq_layers.2.bias f4 [256]
0	0x3b92a167	0.004474807
1	0xbaa8adff	-0.0012869238
2	0xbc0d256a	-0.008614877
3	0xbb8d37f0	-0.004309647
4	0x3c617219	0.013760113
5	0x3c7f5a79	0.015585535
6	0x3c6f2c2d	0.014597935
7	0x3ae919ba	0.0017784156
8	0xb9e0c159	-0.00042868665
9	0xbc032bf2	-0.008006083
10	0x3cef1d95	0.02918891
11	0x3b90de39	0.0044210223
12	0x3a3773c5	0.0006998147
13	0x3c5b598e	0.013388051
14	0x3a8dbdec	0.0010814047
15	0x3c6e17de	0.014532058
16	0xbb9f1065	-0.0048542493
17	0x3c601621	0.013677151
18	0x3c666871	0.014062987
19	0x3adcf03e	0.0016856266
20	0xbc889acf	-0.016675381
21	0x3cae9ebb	0.021315923
22	0xbc474eaa	-0.012164751
23	0x3c137d32	0.009002017
24	0xbb59605f	-0.0033169014
25	0x3c1441d6	0.0090489
26	0x3c4563c5	0.012047713
27	0x3bb63197	0.005560111
28	0xbaa3f184	-0.001250789
29	0x3c35cba2	0.011095913
30	0x3c89d2e8	0.0168242
31	0x3bff3ca0	0.0077892095
32	0xb89ca036	-7.468501e-05
33	0xbbb0d4d2	-0.005396464
34	0x3b8838be	0.004157155
35	0x3c452253	0.012032109
36	0x3c39e30b	0.011345635
37	0xbb987faa	-0.0046538906
38	0xbc4de2e4	-0.012566302
39	0xbc4a7cf5	-0.012358894
40	0xbaa4237d	-0.0012522783
41	0xb9366d42	-0.00017397574
42	0xbb9e8463	-0.004837559
43	0xbace314e	-0.0015731247
44	0x3ce9c306	0.028535377
45	0x3bb17bb0	0.005416356
46	0xbb73d493	-0.0037205562
47	0xbc17a6fd	-0.009256122
48	0x3c5e144c	0.013554644
49	0x3c8cc488	0.017183557
50	0x3c9d14dd	0.019174987
51	0x3b6168b5	0.0034394686
52	0x3c7c3dc9	0.01539559
53	0xbb4ea9b8	-0.0031534266
54	0x3b8173d1	0.003950574
55	0x3b8d795f	0.004317447
56	0x3c020eb4	0.007938076
57	0x3c3ff548	0.011716194
58	0xbc3759ec	-0.011190873
59	0x3bf3081e	0.007416739
60	0xbbc6bb3d	-0.006064801
61	0xbb6653c3	-0.003514514
62	0xba79276e	-0.00095044717
63	0x3c57014e	0.01312287
64	0xbc2bb52a	-0.010480205
65	0xbb425f65	-0.002965891
66	0xbc33a778	-0.010965221
67	0x3c6d11a0	0.014469534
68	0xb9ccd8d6	-0.00039071467
69	0x3bc32524	0.0059553552
70	0x3b6e3f7c	0.0036353758
71	0x3b117921	0.0022197443
72	0x3b18444a	0.0023234063
73	0x3affae50	0.0019506905
74	0xbb2e1b24	-0.002656647
75	0x3c6b57fd	0.01436424
76	0x3c29f20f	0.010372653
77	0x3af227bc	0.0018474977
78	0x3cac1c13	0.02100948
79	0xbbcc3908	-0.0062323846
80	0x3c07b424	0.008282695
81	0x3b3b88e5	0.002861553
82	0x3aa5a7d3	0.0012638516
83	0x3b50cf7f	0.0031861959
84	0x3b857814	0.0040731523
85	0xbb8d6737	-0.0043152827
86	0x3c5a064a	0.0133071635
87	0xbc7d8c8f	-0.015475406
88	0xbb9a7fa7	-0.0047149244
89	0xbc4e1ac2	-0.012579622
90	0x3a3073f1	0.0006731144
91	0x3c8a9f60	0.016921699
92	0xbbeb5173	-0.0071813404
93	0xbaac9071	-0.0013165605
94	0x3c317703	0.010831597
95	0xba58707f	-0.00082565093
96	0x3c894b33	0.01675949
97	0x3b0fb08b	0.0021925296
98	0x3be3d08f	0.0069523524
99	0x3c92c061	0.017913999
100	0x3c435f1a	0.011924529
101	0x3b3751f5	0.0027972434
102	0x3c217dfe	0.009856699
103	0xbb92898f	-0.0044719647
104	0x3c0cb25a	0.008587444
105	0xb94ba364	-0.00019420456
106	0x38c2f663	9.296534e-05
107	0x3c7869dd	0.0151619585
108	0x3c5d2b19	0.013499045
109	0x3c1ed9b3	0.009695458
110	0x3b8e064a	0.004334246
111	0xbab57f56	-0.0013847153
112	0x3bde85d9	0.006790858
113	0x3c2a8690	0.010408059
114	0x3c2418dc	0.010015693
115	0x3ca4684c	0.020069264
116	0xbbb4619d	-0.0055048005
117	0x3c6a3a0f	0.014296069
118	0x3c15cce5	0.009143089
119	0x391a0332	0.00014687775
120	0xbc5a2c66	-0.0133162495
121	0x3c32ac43	0.010905328
122	0xbaa58256	-0.0012627344
123	0xbc60f6f1	-0.01373075
124	0x3c816c06	0.01579858
125	0x3a9b066a	0.0011827473
126	0xbbe18cca	-0.0068832384
127	0xba974774	-0.001154168
128	0x3c067fbe	0.008209167
129	0x3a62b120	0.00086476095
130	0xbb939b33	-0.004504585
131	0x3c748c81	0.014926077
132	0x3c285440	0.010273993
133	0x3b88e75f	0.004177972
134	0x3c423d07	0.01185537
135	0x3c519901	0.012792827
136	0xbba459be	-0.005015581
137	0x3a302ff2	0.00067210116
138	0x3c856896	0.016285222
139	0x3b76d891	0.0037665705
140	0x3c21dd0b	0.009879361
141	0x3b852d73	0.004064256
142	0x3c0285d1	0.007966475
143	0xbb74327d	-0.0037261539
144	0x3c3f3142	0.011669459
145	0xbbba731c	-0.0056899916
146	0xbc114a7e	-0.008867858
147	0x3babb79c	0.005240394
148	0xbb7608db	-0.00375419
149	0xb8509200	-4.9727038e-05
150	0xbbc2d408	-0.0059456863
151	0x3c9f8c63	0.019476121
152	0xbb42a909	-0.0029702804
153	0x3bb1a2de	0.0054210266
154	0xbbf6de94	-0.0075338576
155	0x3bbe93e0	0.005815968
156	0x39378223	0.0001750072
157	0xbc0ae8f2	-0.00847839
158	0xbb14f28d	-0.002272758
159	0xbbc3adbd	-0.005971639
160	0x3b860144	0.0040895063
161	0x3ae9a015	0.0017824197
162	0xbc023bce	-0.007948829
163	0xbb81b31a	-0.003958118
164	0xbb278cbe	-0.0025566067
165	0x3c0d3dfc	0.008620735
166	0x3a92d993	0.0011203758
167	0x3b6ace3e	0.0035828496
168	0x3c43b935	0.011946012
169	0xbc0a2916	-0.008432647
170	0x3c0f385b	0.008741464
171	0xbbabdb9d	-0.005244686
172	0xbc586652	-0.013207989
173	0xbaab56e7	-0.0013072164
174	0xbbb17c96	-0.005416463
175	0xbbdf05ef	-0.0068061273
176	0x3c056732	0.008142279
177	0x3add7614	0.0016896152
178	0xbc609cba	-0.0137092415
179	0x3ca68f85	0.020332107
180	0x3b732703	0.003710211
181	0x3b56e0b0	0.0032787733
182	0xbc560e3d	-0.013064918
183	0xbc067ebd	-0.008208928
184	0x3b72cedd	0.003704957
185	0x3bc622da	0.006046635
186	0x3bace4cb	0.0052762977
187	0xb918cce4	-0.00014572177
188	0xbc4e7397	-0.012600801
189	0xbbbbabe0	-0.005727276
190	0x3b54713d	0.0032416128
191	0xbb3d331e	-0.002886958
192	0x3ca891c3	0.020577317
193	0x3b79d2ef	0.003812011
194	0x3c98cc7b	0.018652191
195	0x3c00b1f4	0.007854927
196	0xbba7bc2a	-0.0051188665
197	0x3b295528	0.002583811
198	0xbc0a20d7	-0.008430681
199	0x3c1a0a5a	0.009401882
200	0xbb803c51	-0.0039134403
201	0x3b3d7ca6	0.0028913408
202	0xbbc105f2	-0.0058906013
203	0x3c35a3c3	0.011086407
204	0x3b214eb6	0.0024613566
205	0x3bedba0e	0.0072548455
206	0x3c77d0e5	0.015125488
207	0x3b7f521f	0.003895886
208	0x3bea7657	0.0071552205
209	0x3c57f786	0.013181573
210	0xbc4f39f7	-0.012648097
211	0xbbf8caf4	-0.0075925533
212	0x3bfba2fb	0.007679341
213	0x3b227dae	0.002479415
214	0x3bf7bfbe	0.0075606992
215	0xbc7d7448	-0.015469618
216	0xba53b329	-0.0008075708
217	0x3c8ec716	0.017428916
218	0xbb809d11	-0.003924974
219	0x3c282a69	0.010264018
220	0xbb3c97c1	-0.0028776976
221	0x3c582493	0.013192314
222	0xbbedec6c	-0.0072608497
223	0x3ba072f0	0.004896514
224	0xbbe09258	-0.006853383
225	0x3ccc767f	0.024958847
226	0xbc1690e5	-0.009189819
227	0x3c2aa170	0.010414466
228	0x3c79d607	0.015248782
229	0xbbcb8248	-0.006210599
230	0x3b6cbfcb	0.003612506
231	0xbc5ea459	-0.013588988
232	0x3c8dc152	0.017304096
233	0xbb2b8e04	-0.0026177177
234	0xbc2a5dc1	-0.010398329
235	0x3c5fc582	0.013657929
236	0x3b17ba79	0.0023151918
237	0xbace30bc	-0.0015731077
238	0xb9eec6a2	-0.0004554289
239	0x3c6c5c0c	0.014426243
240	0x3c6d728c	0.014492642
241	0xbc145f2a	-0.009055892
242	0x3c5cc316	0.0134742465
243	0x3c110a0f	0.008852496
244	0x3be7fb2e	0.0070795035
245	0x3c726d79	0.014796608
246	0xbbd51463	-0.0065026744
247	0x3c2d00f9	0.010559314
248	0x39be7eed	0.0003633419
249	0xbb0d08cc	-0.0021520136
250	0x3be1502b	0.006876012
251	0x3b307911	0.002692763
252	0x3b0e9913	0.002175872
253	0xbb98bb9d	-0.004661037
254	0x3c481b37	0.01221352
255	0x3ca7ab79	0.020467507

action_model._discrete_distribution.branches.0.weight f4 [3, 256]
0	0x3c0ee0cc	0.008720588
1	0xbb3ef29f	-0.0029136313
2	0xba9c3eb1	-0.0011920539
3	0xbb2b548d	-0.0026142925
4	0xb92ba054	-0.00016367558
5	0xbbb98359	-0.00566141
6	0x3c37ea36	0.011225274
7	0xbc916bcd	-0.017751599
8	0xbb805102	-0.003915907
9	0x3c19f6d7	0.00939723
10	0x3c8b7f5f	0.017028509
11	0x3ac04ca8	0.0014671283
12	0xbc5b7787	-0.013395197
13	0xbcaad3c6	-0.020852935
14	0xbc179a78	-0.009253137
15	0xbc993bed	-0.018705333
16	0xb9e46b5d	-0.0004356754
17	0xbc67e9d7	-0.014154873
18	0xbbdbf8c3	-0.0067130043
19	0x3c1c2820	0.009531051
20	0x3c8dcde5	0.017310092
21	0xbc8ebd34	-0.017424203
22	0x3c3210af	0.0108682355
23	0xb7cbf153	-2.4311861e-05
24	0x3ac15b80	0.0014752
25	0xbcd8a779	-0.026447045
26	0xbb606b11	-0.0034243504
27	0xbc55159b	-0.013005639
28	0x3be11788	0.00686926
29	0xbc659cf2	-0.014014469
30	0xbc2cad04	-0.010539297
31	0x3bc3fbcd	0.0059809447
32	0xbba02a98	-0.00488789
33	0xbc115faf	-0.00887291
34	0xbc1e3c5f	-0.009657948
35	0x3b868c32	0.004106068
36	0xbbb3d0d4	-0.0054875407
37	0xbc01a572	-0.00791298
38	0x3b8d5bf7	0.0043139416
39	0x3cad3ae2	0.021146242
40	0x3c93162a	0.017954905
41	0xbc938d09	-0.018011587
42	0xbb0d813d	-0.0021591925
43	0x3cb8ecf2	0.022573922
44	0x3c2a4100	0.010391474
45	0x3c75d82e	0.015005155
46	0x3c7ba72c	0.015359681
47	0x3bca1a58	0.006167691
48	0xbca5f0b4	-0.020256378
49	0x3c27f123	0.010250363
50	0xbc561063	-0.01306543
51	0x3bc76f58	0.0060862713
52	0xbc361ec3	-0.011115733
53	0x3ca48a21	0.020085396
54	0xbc04e8ad	-0.008112115
55	0xbc532e60	-0.012889475
56	0x3c37d089	0.011219152
57	0x3c476a15	0.012171288
58	0x3c6908e1	0.014223308
59	0xbc57527e	-0.013142226
60	0xbba40bfc	-0.0050063115
61	0x3c2ef15b	0.010677661
62	0x3a77466f	0.00094327977
63	0xbb91716b	-0.0044385693
64	0x3c5bd16f	0.013416632
65	0xbafe677f	-0.0019409506
66	0x3b685e88	0.0035456736
67	0xbbb6ee9a	-0.0055826427
68	0x3b7767da	0.003775111
69	0x3b89f55e	0.0042101583
70	0xbb33032a	-0.0027315118
71	0x3c8c1fec	0.017105065
72	0x3c857684	0.016291864
73	0xbbb273c8	-0.005445931
74	0xbaf53750	-0.0018708501
75	0x3c651847	0.013982839
76	0xbc4a7250	-0.012356356
77	0x3c593692	0.0132576395
78	0xbc2dbef7	-0.010604612
79	0x3c7c7873	0.015409577
80	0xbc9f9e1b	-0.01948457
81	0xbc98ef04	-0.018668659
82	0x3c06b609	0.0082221115
83	0x3b1161a2	0.0022183438
84	0x3c30f04a	0.010799477
85	0xbb82a6b9	-0.00398716
86	0x3c200c9b	0.00976863
87	0x3cbdbeae	0.023162212
88	0xbc4d719b	-0.012539293
89	0x3c1d4d65	0.009600972
90	0xbc8cd2bc	-0.01719033
91	0x3ba2abc7	0.004964325
92	0x3ba53d48	0.0050427057
93	0x3c972683	0.018450981
94	0xbcc60a60	-0.024174869
95	0x3bcc5d93	0.006236741
96	0xbc36bfbc	-0.0111541115
97	0xbbba6570	-0.005688362
98	0xbcb490a1	-0.02204162
99	0xbb2c1b72	-0.0026261476
100	0x3b390880	0.0028233826
101	0x3ba98ee2	0.0051745037
102	0xbc4c7092	-0.012478011
103	0x3b2eee14	0.0026692199
104	0xb90c6319	-0.00013388357
105	0x3bccc9ab	0.0062496266
106	0xbc130c56	-0.008975109
107	0x3ca106c9	0.019656556
108	0xbcf36577	-0.029711468
109	0xbc9bbce2	-0.019010965
110	0x3c4c34aa	0.012463728
111	0xba88e826	-0.0010445162
112	0x3c45d4d9	0.012074673
113	0x3b8924ca	0.004185294
114	0x3bc236ec	0.0059269574
115	0xbc639628	-0.0138907805
116	0xbc610f05	-0.013736491
117	0xbccb1850	-0.024791867
118	0xbcae35d2	-0.021265898
119	0x3ca92546	0.020647656
120	0x3b029a76	0.0019928492
121	0x3af729f6	0.001885711
122	0xbb2e598f	-0.0026603674
123	0xba32a2aa	-0.00068144
124	0x3bc8566b	0.0061138174
125	0x3c6229bc	0.013803896
126	0x3c4de3fd	0.012566564
127	0xbbdb486b	-0.0066919825
128	0xbc971f23	-0.018447464
129	0x3c7d127b	0.015446301
130	0x3c064c67	0.008196927
131	0x3c8a749c	0.016901307
132	0xbcae7014	-0.021293677
133	0xbb28208d	-0.0025654167
134	0xbb61d73c	-0.0034460565
135	0xbc9f4198	-0.019440457
136	0xb9c823eb	-0.00038173734
137	0x3b25ed53	0.0025318458
138	0x3b1e7259	0.0024177043
139	0xbc0325d3	-0.008004623
140	0x3c867ee2	0.016417924
141	0x3b5688da	0.0032735378
142	0xbc15ee37	-0.009151033
143	0x3bce4213	0.0062944978
144	0xbc9d7a6b	-0.019223412
145	0x3c361283	0.011112812
146	0x3b40df08	0.0029429812
147	0x3c993fb7	0.01870714
148	0x3c9060f3	0.017624354
149	0xbb739353	-0.003716667
150	0x3c18f70d	0.009336245
151	0xbcb9034c	-0.02258458
152	0x3c1d9c48	0.00961978
153	0xbb4da837	-0.0031380781
154	0xbc41f10f	-0.011837258
155	0x3b97c2bb	0.004631368
156	0x3c344dc9	0.011004874
157	0x3bb11cec	0.005405059
158	0x3c511dfd	0.012763497
159	0xbab7a2c1	-0.0014010296
160	0xbca452a5	-0.02005894
161	0xbc1bf154	-0.009517986
162	0x3c9c5d44	0.019087441
163	0x3a210f23	0.0006143918
164	0x3bcb963c	0.0062129777
165	0xbade40be	-0.001695655
166	0xbc787e09	-0.015166768
167	0x3c9d9215	0.019234696
168	0xbcc3a8ee	-0.023884263
169	0xbad5395d	-0.0016267706
170	0x3c5b4afc	0.013384577
171	0xbc6f22d1	-0.014595703
172	0x3bd14269	0.0063860905
173	0xba0b83a9	-0.0005322048
174	0xbc82cc30	-0.015966505
175	0xbc1108fb	-0.008852239
176	0xbc941ede	-0.018081125
177	0x3b40f404	0.002944232
178	0x3c0ebeee	0.008712513
179	0xbca62a67	-0.02028389
180	0xba9eff4e	-0.001213053
181	0xbbb05fdc	-0.005382521
182	0x3c61241f	0.013741522
183	0xbb87b2f9	-0.0041412083
184	0x3c6d3e35	0.014480163
185	0xb7e3b80a	-2.7146209e-05
186	0xbb612034	-0.003435147
187	0xbb6d288e	-0.0036187503
188	0x3c4f13de	0.012639014
189	0xbc770783	-0.0150774745
190	0xbc4604b8	-0.012086086
191	0x3c7b75da	0.015347922
192	0xbd0d1452	-0.034443207
193	0xbb5f006f	-0.0034027358
194	0xb7726658	-1.4448153e-05
195	0x3bf774a9	0.007551749
196	0x3c80316b	0.015648564
197	0xbc229f63	-0.009925696
198	0x3c6a5488	0.01430238
199	0xbba2bcf1	-0.004966371
200	0x3c101c03	0.008795741
201	0x3c899e20	0.016799033
202	0xbc2c6f07	-0.010524518
203	0x3b6cc140	0.0036125928
204	0x3c4eb587	0.012616522
205	0x3c86dc27	0.016462399
206	0x3cb17080	0.02166009
207	0xb9692518	-0.0002223443
208	0xbc903bb1	-0.017606588
209	0x3b254c6e	0.0025222558
210	0x3c2f8e94	0.010715146
211	0x3c81eaea	0.015859086
212	0xbc9776f7	-0.018489344
213	0x3cab63f1	0.02092168
214	0xbc2bfa5f	-0.010496705
215	0x3c150fcf	0.009098007
216	0xbc2a6889	-0.0104009
217	0x3a95519b	0.0011392118
218	0x3c7d54c9	0.015462109
219	0xbc172e3e	-0.009227334
220	0x39ad734a	0.00033083028
221	0x3c384ba7	0.011248506
222	0x3c8a3ee2	0.016875688
223	0xbbdf2342	-0.006809623
224	0x3c8f0db4	0.017462589
225	0xbc2332f6	-0.0099608805
226	0x3c497f09	0.012298354
227	0x3bdbcdde	0.006707891
228	0xbc136269	-0.008995631
229	0x3c49ef2a	0.012325088
230	0x3c3869c9	0.01125569
231	0xba6b464d	-0.0008975014
232	0x3c220926	0.0098898765
233	0x3ba759f6	0.0051071597
234	0xbaaa1642	-0.0012976604
235	0xbcd63376	-0.026147585
236	0x3c09b578	0.008405082
237	0x3b60a62a	0.003427873
238	0xbc266dd4	-0.010158021
239	0x3bb534ba	0.005529967
240	0xbccd73fd	-0.025079722
241	0x3c4a39c5	0.012342875
242	0x3b23199f	0.0024887098
243	0xbc79af9d	-0.015239623
244	0xbb937952	-0.0045005465
245	0xbcd45da8	-0.025923565
246	0xbc218811	-0.009859101
247	0xbca62a7e	-0.020283934
248	0x3c157d22	0.009124072
249	0xbc11a0ad	-0.008888406
250	0xbc12197c	-0.008917209
251	0x3b99a966	0.0046893833
252	0xbc178266	-0.009247398
253	0xbc0e8d87	-0.008700735
254	0x3cc90862	0.02454013
255	0x3b99b2a5	0.0046904855

action_model._discrete_distribution.branches.0.bias f4 [3]
0	0xbbfa564f	-0.0076396833
1	0x3c6c8989	0.014437088
2	0xbbd94ba5	-0.006631332

action_model._discrete_distribution.branches.1.weight f4 [3, 256]
0	0xbb1ca6b7	-0.002390308
1	0xbc4c7dd1	-0.012481169
2	0x3c1635bb	0.009168084
3	0xba94d040	-0.0011353567
4	0x3cea7e45	0.028624663
5	0x3c954bda	0.018224645
6	0x3cceff52	0.02526823
7	0xbbf1ced7	-0.0073793936
8	0x3b6059c9	0.0034233204
9	0x3b068be2	0.0020530154
10	0x3cdd44a0	0.027010262
11	0xbc295b99	-0.01033678
12	0x3a599a32	0.000830087
13	0x3c407919	0.011747622
14	0x3bd50061	0.0065002893
15	0x3ca536a9	0.020167666
16	0xbbe37023	-0.006940858
17	0x3caf2cfa	0.021383751
18	0xbc94bbcd	-0.018155957
19	0x3c5fb6ae	0.013654394
20	0xbc0be65c	-0.008538809
21	0x3cc35087	0.02384211
22	0x3bfdddd1	0.00774739
23	0x3c49e719	0.012323164
24	0xbc163b09	-0.0091693485
25	0xbb21d619	-0.0024694263
26	0x3b9b2638	0.0047347806
27	0x3b0f09dd	0.0021825947
28	0xbcc005c9	-0.023440259
29	0xbc4936a8	-0.0122810975
30	0x3c5bbce8	0.013411738
31	0x3c1f6412	0.009728448
32	0xbbb5d2aa	-0.0055487948
33	0xbc0a0dfa	-0.008426184
34	0x3c811698	0.015757844
35	0xba9cb0a6	-0.0011954501
36	0x3c13e093	0.009025711
37	0xbbac4324	-0.005257027
38	0xbc9c3359	-0.019067453
39	0xbcb149c4	-0.02164162
40	0xbb9db945	-0.0048133456
41	0xbba05ef6	-0.0048941327
42	0xbc6cbc7e	-0.014449237
43	0x3bd67c1a	0.006545556
44	0x3c8297c0	0.0159415
45	0x3c5df5b5	0.013547351
46	0xbca8aacb	-0.020589253
47	0xbb8983c5	-0.0041966164
48	0xbb51de7e	-0.0032023485
49	0x3cb34d71	0.021887513
50	0x3c8529ab	0.01625522
51	0xbc9d1a79	-0.019177662
52	0x3c611600	0.013738155
53	0x3c56a2c4	0.01310033
54	0xbc47f466	-0.012204265
55	0xbc880620	-0.016604483
56	0x3baf8860	0.0053568333
57	0xbc8bc47a	-0.01706146
58	0xbc2717f7	-0.010198585
59	0x3be7f6be	0.0070789745
60	0xbc2fec51	-0.010737495
61	0xbc1a97e0	-0.009435624
62	0x3bf1b21e	0.0073759696
63	0x3cc40e65	0.023932645
64	0xbcb0095a	-0.021488834
65	0xbc09460f	-0.00837852
66	0xbcda2fd9	-0.026634144
67	0xbbf2dc59	-0.0074115214
68	0xbbdc83ee	-0.0067295944
69	0x3c65e4d6	0.0140316095
70	0xb9def750	-0.00042527402
71	0x3c3e96a6	0.011632597
72	0x3c4a22a8	0.012337364
73	0xb9f2cffb	-0.00046312794
74	0xbc73b00b	-0.014873515
75	0x3d3406ac	0.043951675
76	0x3c767c4d	0.015044284
77	0xbad04fb8	-0.0015892899
78	0x3cb25197	0.02176742
79	0xbc818302	-0.01580954
80	0x3c3099d2	0.010778861
81	0x3bf03ebe	0.007331698
82	0xb9cabd01	-0.0003866926
83	0xba3e566c	-0.00072608027
84	0x3bd88fab	0.0066089234
85	0xbcbae98e	-0.022816446
86	0x3c83b588	0.016077772
87	0xbc3b02e9	-0.011414268
88	0xbc5096c2	-0.012731256
89	0xbcd841f4	-0.026398636
90	0xbc8f76a3	-0.017512625
91	0x3cc4367e	0.023951765
92	0xbca36732	-0.019946668
93	0x39915b90	0.00027724775
94	0x3c32ad9d	0.01090565
95	0xbcacb143	-0.021080619
96	0x3cba0eb3	0.022712087
97	0x3c1d0ca3	0.009585532
98	0xb98a4774	-0.00026374648
99	0x3c84a962	0.01619405
100	0x3c1b0306	0.00946117
101	0xbc2dd4b9	-0.010609799
102	0xbc23c151	-0.009994821
103	0xbbf1659d	-0.0073668496
104	0x3d1fc2ab	0.03900401
105	0xbb75d664	-0.003751182
106	0xbc5168fe	-0.01278138
107	0x3bfca68d	0.007710284
108	0x3ad6a908	0.001637728
109	0x3b688a3f	0.0035482792
110	0x3c877b30	0.016538233
111	0xbb9bf87b	-0.004759846
112	0xb9a18f6b	-0.00030815168
113	0x3cba8d31	0.022772403
114	0x3ca112e0	0.01966232
115	0x3bc59e88	0.0060308613
116	0xbc52a2a1	-0.012856157
117	0x3b9b445c	0.0047383737
118	0xbb45a926	-0.0030160635
119	0x3ac9081e	0.0015337502
120	0xbbe2b8ec	-0.006919017
121	0x3c8552b5	0.01627479
122	0xbbf3364e	-0.007422245
123	0xbc105b0f	-0.008810773
124	0x3d092a93	0.033487868
125	0x3c35d690	0.011098519
126	0xbc92bfcc	-0.017913722
127	0xbc1ce249	-0.009575435
128	0xba8f7c24	-0.0010947031
129	0x3c5f1e66	0.013618087
130	0xbcc83711	-0.02444032
131	0x3c5e7730	0.013578221
132	0xbc214e80	-0.009845376
133	0xbcacb325	-0.021081517
134	0xb9fd7ba9	-0.00048348054
135	0x3c445631	0.01198344
136	0xbc144961	-0.009050698
137	0xbcbfaa94	-0.023396768
138	0x3c727307	0.0147979325
139	0xbb6e193f	-0.0036330966
140	0x3c2a6ed2	0.010402398
141	0xbc02c699	-0.00798192
142	0x3c0e742d	0.008694691
143	0xbb8920da	-0.0041848244
144	0x3c4491b0	0.011997625
145	0xbc7cfea2	-0.015441569
146	0xbcd182b7	-0.025575025
147	0x3cba4a87	0.022740616
148	0xbc0bd41f	-0.00853446
149	0xbc2070bf	-0.009792506
150	0xbcc7cc13	-0.024389302
151	0x3c8c4a45	0.017125258
152	0xbc691539	-0.014226251
153	0xbc603a69	-0.013685801
154	0xbbf3df01	-0.0074423556
155	0x3ba0c292	0.004906007
156	0xbc0ea63b	-0.008706625
157	0xbbc32ffe	-0.005956649
158	0x3c99ef98	0.018791005
159	0xbc77efff	-0.015132903
160	0xbb99194d	-0.0046722055
161	0xbb27fe62	-0.0025633802
162	0xbcdba4e7	-0.02681203
163	0xbca5c562	-0.020235721
164	0xbbe78c35	-0.0070662745
165	0xbbfd4521	-0.007729188
166	0xbbdc47b9	-0.006722417
167	0xbbf716bb	-0.0075405515
168	0x3c98abd8	0.018636629
169	0xbbcb491a	-0.0062037827
170	0x3c8c414a	0.017120976
171	0xbc297475	-0.010342707
172	0x3b50d39a	0.0031864406
173	0xbb31dbd0	-0.0027139075
174	0x3b188703	0.0023273833
175	0xbbd6bf42	-0.0065535614
176	0x3b6291a4	0.0034571672
177	0xbc0501f6	-0.008118143
178	0xbcaea162	-0.021317188
179	0x3c79b587	0.015241033
180	0x3ba01149	0.004884873
181	0xbbb4d71b	-0.0055188066
182	0xbb45aa70	-0.0030161403
183	0xbba30d77	-0.0049759704
184	0x3bfa3529	0.0076357317
185	0xbcbd2857	-0.023090525
186	0x3b096835	0.0020966653
187	0xbb4e8550	-0.0031512566
188	0xbce20c84	-0.027593859
189	0xbbb934bc	-0.0056520384
190	0xbc8814e6	-0.016611528
191	0xbc3aac6e	-0.0113936495
192	0x3bbb19b2	0.00570985
193	0x3cbd9870	0.023143977
194	0x3c3e69a9	0.011621871
195	0xbacdcfcd	-0.0015702188
196	0xbc1d48a4	-0.009599838
197	0xbbf8a693	-0.0075882166
198	0xbc463c86	-0.012099391
199	0x3c0f3166	0.008739805
200	0xbc23c031	-0.0099945525
201	0x3c58b0c0	0.013225734
202	0xbc16865d	-0.009187308
203	0x3b15d5ab	0.0022862952
204	0x3b947a91	0.0045312126
205	0x3b47b291	0.0030471424
206	0x3cbb0093	0.022827422
207	0xbcc4b2bf	-0.024011014
208	0x3b88a1b3	0.0041696667
209	0x3cba1888	0.022716776
210	0xbc5c6f9e	-0.013454346
211	0xbc74767e	-0.014920829
212	0x3c408fd3	0.01175304
213	0xbb452858	-0.0030083861
214	0xbc0822e6	-0.008309102
215	0xbc5d1c36	-0.013495496
216	0xbb6fdb32	-0.0036599156
217	0x3ccdb861	0.025112333
218	0x3b927ab8	0.0044701956
219	0x3c9dbec6	0.019256007
220	0xbb890021	-0.0041809236
221	0x3cfb837a	0.030702341
222	0xbb66e8e0	-0.003523402
223	0x3a265a77	0.0006345878
224	0x3c336c49	0.01095111
225	0x3c9a1840	0.018810391
226	0xbcaf7fec	-0.021423303
227	0x3c86720a	0.0164118
228	0x3cec6882	0.028858427
229	0x3c14fc65	0.009093379
230	0x3ac12617	0.0014736083
231	0xbca5f948	-0.020260468
232	0x3ca5ed69	0.020254808
233	0xbbb6c932	-0.0055781836
234	0xbb6390a7	-0.003472367
235	0x3cc1096f	0.023564069
236	0x3b1c0274	0.0023805173
237	0xbbf0477d	-0.007332741
238	0xbc417d5d	-0.011809674
239	0x3cfb0d6b	0.030646047
240	0x3c1a2db9	0.009410315
241	0xbc74393b	-0.014906223
242	0x3cd969f1	0.026539775
243	0xbb168cd0	-0.0022972114
244	0x3baa42c3	0.005195947
245	0x3bb2ea2e	0.0054600453
246	0x3ae6b270	0.0017600786
247	0x3b62e4fa	0.0034621344
248	0xbb9eeb90	-0.0048498586
249	0x3bbcc41d	0.005760683
250	0xbb60ebad	-0.0034320161
251	0xbbab5529	-0.0052286577
252	0xbc10ca88	-0.00883735
253	0xbc6abe22	-0.014327558
254	0x3c57a096	0.013160845
255	0x3c09baf6	0.008406391

action_model._discrete_distribution.branches.1.bias f4 [3]
0	0xb8a32046	-7.778457e-05
1	0xbbf60f7c	-0.00750917
2	0x3bb61d52	0.0055576945

action_model._discrete_distribution.branches.2.weight f4 [2, 256]
0	0x3c1198c2	0.008886518
1	0x3c0148f1	0.007890926
2	0x3a9834df	0.0011612437
3	0xbbd8dfff	-0.0066184993
4	0xbac0d36c	-0.0014711446
5	0xbb8e9288	-0.004350964
6	0x3c2be89b	0.010492469
7	0x3afe9a43	0.0019424636
8	0xbc43ce6c	-0.01195107
9	0x3b00063f	0.0019534973
10	0xb8e56157	-0.00010937702
11	0xbc165088	-0.009174474
12	0xbb58bbec	-0.0033070995
13	0xbb595415	-0.003316169
14	0xbc01edbf	-0.007930218
15	0xbbf49e64	-0.0074651707
16	0x3cb1bf57	0.021697683
17	0xbc78bab8	-0.015181236
18	0xbb6f83fb	-0.0036547172
19	0x3bae5b8a	0.005320971
20	0x3bc06774	0.0058717076
21	0xbc47de55	-0.012199004
22	0xba467a0a	-0.0007571286
23	0x3c4a8226	0.012360131
24	0xbc5ada88	-0.013357766
25	0xbb135f95	-0.0022487391
26	0x3b38fd3d	0.0028227114
27	0xbae5b59f	-0.0017525441
28	0xbb79ef37	-0.0038136968
29	0xbbd5f70b	-0.006529694
30	0xbcd95bcf	-0.026533036
31	0x3bf742fa	0.007545826
32	0xbc129690	-0.00894703
33	0x3b0ea9b8	0.002176864
34	0xbc438ca8	-0.0119353905
35	0xb9c556fe	-0.00037639582
36	0xbb73495a	-0.0037122578
37	0x3b23a82e	0.002497207
38	0x3c8f97c0	0.017528415
39	0x3c82ba6f	0.01595804
40	0x3af8fdb6	0.001899651
41	0xbb6e9eee	-0.0036410647
42	0xba8dc719	-0.0010816782
43	0x3c29f71b	0.010373856
44	0x3c0ac8e8	0.008470751
45	0x397959c0	0.00023779925
46	0x3ca8440c	0.02054026
47	0xbc138aa3	-0.009005222
48	0xba811341	-0.0009847657
49	0x3bb0b321	0.0053924476
50	0xbc267a7e	-0.01016104
51	0x3bc844e0	0.006111726
52	0xbcc17ccf	-0.023619084
53	0xbc423fa7	-0.011855996
54	0xbba5614c	-0.005046999
55	0xbbb3ca9c	-0.0054867994
56	0xbc77e2dc	-0.015129771
57	0x3c8fcfaa	0.017555077
58	0x3b43c3cb	0.002987134
59	0xbc12823b	-0.008942182
60	0xbba8e323	-0.00515403
61	0xbc14fb35	-0.009093096
62	0x3afa55af	0.0019099022
63	0xbc07e360	-0.0082939565
64	0xbba4462d	-0.0050132484
65	0xba37a5ba	-0.0007005591
66	0xbb664a55	-0.003513952
67	0x3b3f6271	0.0029202963
68	0x3b63c7f9	0.0034756644
69	0x3c003efe	0.0078275185
70	0xbb518a5d	-0.003197334
71	0x3a33c8d8	0.0006858236
72	0x3c841bf5	0.016126612
73	0xbc55f391	-0.013058559
74	0x3b27542b	0.0025532346
75	0xbbd283de	-0.006424411
76	0xbc530864	-0.012880418
77	0x38c581f6	9.417899e-05
78	0xbcb6f7ab	-0.022334894
79	0xbb209e2b	-0.0024508338
80	0xbc17e194	-0.009270091
81	0xbc84a7ff	-0.016193388
82	0xbb1fd1a5	-0.0024386432
83	0x3c573dec	0.013137322
84	0x3c61e9ec	0.0137886815
85	0x3ac5c188	0.0015087584
86	0x3c0cef97	0.008602045
87	0x3ce8df37	0.02842675
88	0x3b9181ee	0.0044405377
89	0x3c999934	0.01874981
90	0xbb2c833b	-0.0026323337
91	0xbbdfc04b	-0.006828343
92	0xbb440e10	-0.0029915608
93	0x3bd3a730	0.0064591393
94	0xbbe759b7	-0.0070602554
95	0xb99412d1	-0.0002824278
96	0xbbf14f95	-0.0073642232
97	0x3a39cd0c	0.00070877443
98	0xbc92d6cd	-0.01792469
99	0xbb9e42a8	-0.0048297234
100	0x3bf61d7c	0.007510839
101	0x3c5587a5	0.013032828
102	0xbb98f3e4	-0.004667746
103	0x3caedba1	0.021344962
104	0xba808865	-0.0009806274
105	0x3c067ec8	0.008208938
106	0xba493a6b	-0.00076762465
107	0x3bf7da03	0.007563831
108	0xbc131ef0	-0.008979544
109	0xbc4b0ef1	-0.012393699
110	0x3a393332	0.00070648186
111	0x3ac72719	0.0015194147
112	0x3c768dcd	0.015048456
113	0xbc817c7f	-0.015806435
114	0x3b83a47e	0.0040174117
115	0x3a072d2a	0.0005156571
116	0xbb506e9c	-0.003180421
117	0xbc3ad33b	-0.0114029
118	0xba26af84	-0.00063585513
119	0xbc1bb3ae	-0.009503288
120	0x3c3d82f9	0.011566871
121	0x3ca4f508	0.020136371
122	0xbc23735a	-0.009976232
123	0x3b5eef26	0.0034017055
124	0xbb7d06c6	-0.0038608774
125	0xbc38717d	-0.011257526
126	0x393d8a15	0.00018075884
127	0xbb9b089b	-0.0047312505
128	0x390ed484	0.00013621344
129	0x3bfebd58	0.0077740364
130	0x3c33f941	0.01098472
131	0x3ba937ed	0.0051641376
132	0x3be134ed	0.0068727643
133	0xbbbf4803	-0.005837442
134	0xbc1f7ecf	-0.009734823
135	0xbc2a395c	-0.010389652
136	0xba976033	-0.0011549055
137	0x3b86fc80	0.004119456
138	0x3c89622f	0.01677045
139	0xbbbd1ed8	-0.005771499
140	0xbbd7d9f5	-0.006587262
141	0xbafcba78	-0.0019281646
142	0xba0e404a	-0.000542645
143	0x3ab869ad	0.001406958
144	0xbba96eed	-0.005170694
145	0x3c08ab77	0.008341662
146	0xbb432e23	-0.0029782138
147	0x3c6fd4f6	0.014638176
148	0x3cbb3789	0.02285363
149	0x390dbcae	0.00013517097
150	0x3a5a91e7	0.0008337781
151	0xbc6e78f5	-0.014555206
152	0xbb387843	-0.0028147853
153	0xbc36a7f6	-0.011148443
154	0xbc69ae3a	-0.01426273
155	0x3b4ea5f3	0.003153202
156	0x3b741a14	0.003724699
157	0xb8de10c6	-0.00010588909
158	0x3a9ac71d	0.0011808608
159	0x3c8a4234	0.016877271
160	0xbb8d5aa5	-0.004313784
161	0xbc9eac9c	-0.019369416
162	0xbb24df3e	-0.0025157477
163	0x3bce3a56	0.0062935753
164	0x3c6623be	0.014046608
165	0xbbc4c263	-0.006004618
166	0xbc28ebcc	-0.010310125
167	0x3aefb4aa	0.0018288095
168	0xbb0d44f5	-0.0021555994
169	0xbb37dbe4	-0.002805465
170	0x3c526c95	0.012843271
171	0x3a6f6b30	0.00091330986
172	0x3c39d1a1	0.011341483
173	0xbbbed333	-0.0058235168
174	0x3aa3568e	0.0012461708
175	0x3c0a9bc2	0.008459987
176	0xbbcdf0c3	-0.0062848045
177	0x3bcff134	0.0063458923
178	0xbc18f1aa	-0.009334961
179	0xbc83f951	-0.016110094
180	0xbb1224c3	-0.0022299744
181	0xbc53d7e1	-0.0129298875
182	0x3a37a84e	0.00070059753
183	0xbbfe02cd	-0.0077517987
184	0xbac26fab	-0.0014834305
185	0x3a109b27	0.00055162836
186	0xbc2e98fb	-0.010656591
187	0xbc316ea4	-0.010829601
188	0x3b97b5a2	0.0046298066
189	0x3bac3fd2	0.0052566314
190	0x3b3c04a1	0.0028689282
191	0xbbdc0ffb	-0.006715772
192	0xbcb23d6c	-0.021757804
193	0xbbf76173	-0.0075494586
194	0xbbb00134	-0.005371237
195	0xbbc449fb	-0.0059902645
196	0x3b9606d4	0.0045784507
197	0xbb1e1b98	-0.0024125334
198	0x3c60c09e	0.0137177985
199	0x3ba5815f	0.0050508226
200	0xbacaac15	-0.0015462661
201	0x3bf069cf	0.007336832
202	0xbbd46e8d	-0.0064829052
203	0x3bbb3587	0.005713168
204	0x3be771a2	0.0070631066
205	0x3c611441	0.013737739
206	0x3c6916ee	0.014226658
207	0x3a87b909	0.0010354827
208	0xbc9a1219	-0.018807458
209	0xbc536124	-0.012901578
210	0x3c6c57d1	0.014425234
211	0xba90ed67	-0.001105708
212	0xbc0e8fbe	-0.008701263
213	0x3c3d3f3d	0.011550722
214	0xbc81d041	-0.015846374
215	0x3c18655d	0.009301511
216	0x3bd29a78	0.0064271055
217	0xbbd0530b	-0.0063575557
218	0x3b8ed39b	0.0043587214
219	0xbc847792	-0.016170297
220	0xbbfbec6e	-0.0076880967
221	0xbc6e3944	-0.01454002
222	0x3c8b37af	0.016994325
223	0xbc11177d	-0.008855698
224	0x3bcb6650	0.006207265
225	0xbad2b5e9	-0.0016075942
226	0x39251c0f	0.00015746079
227	0xbb2bc5c8	-0.0026210416
228	0xbb8b301e	-0.0042476794
229	0x3c809054	0.015693821
230	0x3c546de5	0.012965654
231	0x3c2dd750	0.0106104165
232	0x3b8cbb36	0.004294778
233	0xbc823b57	-0.015897436
234	0xbb6c02f1	-0.0036012495
235	0xbc7ae6ef	-0.015313848
236	0x3c9964eb	0.01872488
237	0x3c3fb940	0.011701882
238	0xbbb6cb86	-0.005578461
239	0x3b07177b	0.002061336
240	0xbb7570d3	-0.0037451282
241	0x3b15e0ae	0.0022869515
242	0xbbdd005e	-0.0067444285
243	0xbc6ee6be	-0.01458138
244	0x3b33afc5	0.0027418
245	0xbbba1089	-0.0056782407
246	0xbbbb7e37	-0.005721833
247	0xbca1bdc2	-0.019743804
248	0x3c606e8e	0.013698233
249	0xbc62677e	-0.01381862
250	0x3b8df8c5	0.004332634
251	0x3ca518c2	0.020153407
252	0xba91ed9f	-0.0011133439
253	0xbb9f6227	-0.0048639956
254	0xba8c1d4c	-0.0010689883
255	0x39f2c927	0.00046307707

action_model._discrete_distribution.branches.2.bias f4 [2]
0	0xbbd26078	-0.0064201914
1	0x3bd26084	0.006420197
