results/test_environment/VacuumCleaner/VacuumCleaner-364858.onnx (onnx, 227638 bytes, 7 tensors)

network_body._body_endoder.seq_layers.0.weight f4 [128, 309]
0	0xbeb4c9e1	-0.3531027
1	0x3d09eda5	0.0336739
2	0x3d97ebf4	0.07418051
3	0xbf6f6f7c	-0.93529487
4	0x3ef56707	0.47930166
5	0x3e791874	0.24325734
6	0xbf041c1f	-0.5160541
7	0x3e5ad476	0.2137011
8	0x3e071e68	0.13195193
9	0xbd866645	-0.06562475
10	0x3d757762	0.059928305
11	0x3dadc81e	0.08485435
12	0xbeafb01b	-0.34314045
13	0xbcc1b6a6	-0.023646664
14	0x3d4e694a	0.05039338
15	0x3d15ea17	0.0366002
16	0xbd3fad77	-0.04679629
17	0xbd8c2b7d	-0.06844232
18	0xbe99bb37	-0.30025646
19	0x3daef170	0.08542144
20	0x3c444adc	0.0119807385
21	0x3d9d2872	0.0767373
22	0xbdbe89c9	-0.09303624
23	0x3d466633	0.04843731
24	0xbde0fa6f	-0.109852664
25	0xbd153852	-0.036430664
26	0xbd082828	-0.03324142
27	0x3ec53a88	0.38521218
28	0xbe683d68	-0.22679675
29	0xbe42d10e	-0.1902506
30	0x3c5baebf	0.013408362
31	0xbd9a5528	-0.075357735
32	0xbd8c61e6	-0.0685461
33	0x3d81c029	0.0633548
34	0xbdc220d0	-0.09478915
35	0x3c264c7b	0.01015007
36	0xbdcbad59	-0.09945173
37	0xbd26cae6	-0.040720843
38	0xbe151a84	-0.14560896
39	0xbec30cd7	-0.38095734
40	0x3ca18f3b	0.019721618
41	0x3e09e6b6	0.13466915
42	0x3e0a12f3	0.13483791
43	0xbd919d73	-0.07110109
44	0xbd33839a	-0.043826677
45	0xbf4e99ce	-0.8070344
46	0x3e1b7404	0.15180975
47	0x3c508102	0.01272607
48	0x3e1e7e18	0.15477788
49	0xbd8c497a	-0.06849952
50	0xbe0c22c9	-0.13685144
51	0xbf7fdd35	-0.9994691
52	0x3d356f39	0.044295523
53	0x3b8f4c02	0.0043730745
54	0x3e8ae892	0.27130562
55	0xbde61566	-0.1123455
56	0xbd4b034d	-0.049563695
57	0xbf413c5e	-0.7548274
58	0x3c925bc2	0.01786602
59	0xbd921383	-0.07132628
60	0x3e52f3ed	0.20600863
61	0xbde9f223	-0.11423137
62	0xbe0eb7d6	-0.13937315
63	0xbde6c45a	-0.1126792
64	0xbd660d22	-0.05616487
65	0x3cece82f	0.028919308
66	0xbeaf8fbb	-0.34289345
67	0x3c2baca5	0.010478173
68	0x3c4b9673	0.012426007
69	0xbe481aba	-0.19541445
70	0xbcb8dbc8	-0.022565737
71	0x3c24d31a	0.010060096
72	0xbe7767f4	-0.24160749
73	0x3dc2e862	0.0951698
74	0xbde7b8a2	-0.11314513
75	0xbebbc681	-0.36674884
76	0x3ddcea2c	0.10786852
77	0x3d00fe04	0.03149225
78	0xbd9b47a1	-0.075820215
79	0xbdad49db	-0.084613524
80	0xbe0b7842	-0.13620093
81	0xbe7170e2	-0.23578218
82	0x3e0cbd64	0.13744122
83	0xbda7cfaf	-0.081939094
84	0xbe93c497	-0.28860924
85	0x3d2726f1	0.04080862
86	0xbc0f8222	-0.008759053
87	0xbee9147f	-0.4552345
88	0xbd9fa52d	-0.07795177
89	0xbd40cdf6	-0.04707142
90	0x3e17e0f6	0.1483191
91	0xbddd230d	-0.10797701
92	0xbe185764	-0.14877087
93	0xbf2b2e17	-0.668672
94	0xbd209cae	-0.03921192
95	0x3ccd26cc	0.025042914
96	0x3d6fd14c	0.05854921
97	0xbd257cfc	-0.040402398
98	0xbdca4e3b	-0.098782025
99	0xbf1ef471	-0.6209174
100	0xbdf992b4	-0.121861845
101	0x3d0ecc3a	0.034862734
102	0xbe94493b	-0.2896212
103	0x3d1c612e	0.038178615
104	0xbd166bee	-0.036724024
105	0xbf1e9385	-0.61943847
106	0x3da1805b	0.0788581
107	0xbd5f9f29	-0.054595146
108	0xbe354800	-0.17703247
109	0x3d23114a	0.03981141
110	0xbde9927d	-0.114048935
111	0xbebdede8	-0.3709557
112	0x3ca63d9d	0.020293051
113	0x3c9d7895	0.019222537
114	0xbeec72c3	-0.46181306
115	0x3e2b0ab9	0.16703309
116	0x3cc82a28	0.024434164
117	0xbe9b23f7	-0.30300876
118	0x3cdefc20	0.027219832
119	0x3da573bd	0.08078716
120	0xbe977dc1	-0.2958813
121	0x3dcda820	0.10041833
122	0x3c3d58fb	0.011556859
123	0xbef79aec	-0.48360384
124	0x3cdfbcba	0.027311672
125	0xbc643b5d	-0.013930169
126	0x3d60f0f7	0.054917302
127	0x3bb7f339	0.005613711
128	0xba592a28	-0.0008284175
129	0xbed80576	-0.42191666
130	0x3dc1a0c5	0.094544925
131	0x3d651d5e	0.05593621
132	0x3dc253c8	0.09488636
133	0xbcbd6288	-0.023118272
134	0xbda71102	-0.08157541
135	0x3e8b524e	0.2721123
136	0xba7af416	-0.0009573115
137	0x3cae5f1b	0.021285584
138	0xbd059689	-0.032614265
139	0xbcb4f2c7	-0.022088422
140	0x3a87389a	0.0010316551
141	0x3f113189	0.5671621
142	0xbcd4c06d	-0.025970662
143	0xbc9d0b11	-0.019170316
144	0xbdd1d541	-0.10245753
145	0x39e03d72	0.0004277039
146	0x3d8a2925	0.06746129
147	0x3ecb1c4f	0.39670035
148	0xbe773d67	-0.24144517
149	0xbd62d74b	-0.0553811
150	0xbe3e4829	-0.18582214
151	0x3c47d746	0.012197321
152	0xbd06b274	-0.03288503
153	0x3dc39cb0	0.0955137
154	0x3d428d63	0.047498118
155	0xbd923abf	-0.07140111
156	0xbed85254	-0.4225031
157	0x3dd095eb	0.101848446
158	0x3b039f95	0.0020084132
159	0xbd9206a7	-0.07130175
160	0xbd11101e	-0.03541576
161	0x3c3e5daf	0.011619016
162	0xbf87ad58	-1.0599775
163	0x3d517f39	0.05114672
164	0x3cf61a92	0.030041967
165	0xbf0c8197	-0.5488524
166	0x3dbbed62	0.091761366
167	0xbd32464b	-0.043524068
168	0xbdc29232	-0.09500541
169	0x3d7b83ad	0.061404873
170	0x3e241321	0.16022922
171	0xbe5dcab8	-0.21659362
172	0x3d3f1134	0.046647266
173	0x3d961e5d	0.0733001
174	0xbcd76e31	-0.02629766
175	0xbcd8f3b3	-0.026483392
176	0x3ddd6f32	0.108122244
177	0xbf207cec	-0.62690616
178	0x3d79c34b	0.06097726
179	0x3cc54292	0.024079595
180	0xbdba776f	-0.091048114
181	0x3b26daa1	0.0025459903
182	0x3e0e6d74	0.1390894
183	0xbef33a17	-0.47505257
184	0x3ced6574	0.02897904
185	0xbc360502	-0.011109592
186	0xbd0c2420	-0.03421414
187	0xbe3ff30d	-0.1874506
188	0xbd1b9be8	-0.03799048
189	0xbe69bcad	-0.2282588
190	0xbd13e2ad	-0.036104847
191	0xbddedc18	-0.10881823
192	0xbf2c4fdc	-0.67309356
193	0x3e3342b9	0.17505921
194	0x3dd950a0	0.10611081
195	0xbe54694f	-0.20743297
196	0x3d2abad1	0.04168207
197	0x3c6a6f17	0.014308712
198	0xbf300528	-0.6875787
199	0x3de57286	0.11203484
200	0x3bc132e6	0.00589596
201	0x3cc65a39	0.024212943
202	0xbd835c42	-0.06414081
203	0x3d92e622	0.071728006
204	0xbe3963b8	-0.18104446
205	0xbb576b57	-0.0032870376
206	0xbc6063d2	-0.013695674
207	0xbdbc2d19	-0.09188289
208	0xbca182b3	-0.019715643
209	0xbd46ef05	-0.04856779
210	0xbea674f3	-0.325111
211	0x3dff04d5	0.124520935
212	0x3cb32b11	0.021871122
213	0xbe3bae30	-0.18328166
214	0xbc012034	-0.007881213
215	0x3a490dd0	0.00076696
216	0x3d3f49f6	0.046701394
217	0xbdb5409c	-0.08850214
218	0xbce0aa8a	-0.02742507
219	0x3db528b4	0.08845654
220	0xbc011edd	-0.007880894
221	0xbcf4a467	-0.02986355
222	0x3debe760	0.11518741
223	0xbda00f91	-0.07815469
224	0xbdb1358e	-0.08652793
225	0xbdcbebdd	-0.09957097
226	0xbe1fc7a9	-0.15603508
227	0xbd2b76ab	-0.041861217
228	0x3e5de2b7	0.21668516
229	0xbdedced3	-0.11611714
230	0xbe3ac2b8	-0.18238342
231	0xbe1a960f	-0.15096305
232	0xbce88f13	-0.028388536
233	0xbd40f2c4	-0.04710652
234	0x3e02c298	0.12769544
235	0xbdb77805	-0.08958439
236	0xbd97422d	-0.07385669
237	0xbe26d20e	-0.16291067
238	0xbdc4cb98	-0.09609145
239	0xbd63d349	-0.05562142
240	0xbef795e4	-0.48356545
241	0x3d23a9ec	0.039956972
242	0x3dfd8402	0.12378694
243	0xbddd58b5	-0.10807935
244	0xbc993bfa	-0.018705357
245	0xbccc7589	-0.024958389
246	0xbe9f1920	-0.31073856
247	0x3de72964	0.112871915
248	0x3d1c05cd	0.03809147
249	0xbe095803	-0.1341248
250	0xbe2f7e76	-0.17138085
251	0xbdc6a6ec	-0.096998066
252	0xbeb96f88	-0.36217904
253	0xbd54f863	-0.051994693
254	0x3c01a201	0.00791216
255	0xbec2168e	-0.37907833

network_body._body_endoder.seq_layers.0.bias f4 [128]
0	0xbd0212b8	-0.031756133
1	0x3ab75ddd	0.0013989765
2	0xbc194647	-0.009355134
3	0xbbbc2de8	-0.005742777
4	0xbb353105	-0.0027647626
5	0x3d38a641	0.045080427
6	0xbc52d56c	-0.012868267
7	0xbcc8774b	-0.024470946
8	0x3c706608	0.014672764
9	0xbb4d3fa2	-0.0031318446
10	0xbc8f3bb3	-0.017484521
11	0xba45a5e1	-0.00075396715
12	0xba3ab5c5	-0.00071224227
13	0xbc7794c2	-0.01511115
14	0x3ba98e2e	0.00517442
15	0xbcfb2aaa	-0.030659992
16	0xbb548bf0	-0.0032432042
17	0x3c8537dc	0.016261987
18	0x3c59e9fa	0.013300413
19	0xbb820c42	-0.0039687464
20	0xbc6b0000	-0.014343262
21	0xbc574336	-0.013138583
22	0x3b099ec8	0.0020999182
23	0xbaef8880	-0.0018274933
24	0xbc057b9f	-0.008147149
25	0xbb1cdfb3	-0.0023937046
26	0xbccec153	-0.025238669
27	0x3c73a6cf	0.014871313
28	0x39f5eb81	0.00046905506
29	0xbc0bd857	-0.008535466
30	0xbbfb66c5	-0.007672163
31	0xbc487ef9	-0.012237304
32	0xbbfe6c08	-0.007764343
33	0xbcda1971	-0.02662346
34	0xbb27dd6a	-0.002561415
35	0xbc912a1c	-0.017720275
36	0xbcc6badf	-0.024259029
37	0x3bfcba14	0.007712612
38	0xbc92578a	-0.017864008
39	0xbbf86d3c	-0.007581381
40	0x3b85fffc	0.0040893536
41	0xbc9d1ccd	-0.019178772
42	0xbcd3a6dc	-0.0258364
43	0xbc69f013	-0.01427843
44	0x3ac04bbf	0.0014671012
45	0xbc5e072f	-0.013551517
46	0x3bb3a2eb	0.005482068
47	0xbc9aa899	-0.018879222
48	0xbc93ee00	-0.018057823
49	0xbc5bae6f	-0.013408287
50	0x3b6fbb3e	0.003658011
51	0xbcdbc9a4	-0.026829548
52	0xbc14c91c	-0.009081151
53	0xbc7433ce	-0.014904929
54	0xbd0f87cf	-0.035041627
55	0xbce5fbe0	-0.028074205
56	0x3b0302b5	0.0019990627
57	0xba483f47	-0.00076388236
58	0x3c8b25cc	0.016985796
59	0x3c60bf64	0.013717506
60	0x3c15d5e2	0.009145232
61	0xbbb0b02b	-0.0053920946
62	0x3c91d964	0.017803855
63	0xbbf47fc7	-0.0074615213
64	0x3b1a9fac	0.0023593707
65	0x3c5222e2	0.0128256995
66	0xbc30dfa5	-0.0107955085
67	0xbc45c94b	-0.012071918
68	0xbc138aa9	-0.009005227
69	0x3bb8ba39	0.005637434
70	0x3d014fbb	0.031570178
71	0x3c11b3cd	0.0088929655
72	0xbcfe3d99	-0.031035231
73	0x3c8bc9ae	0.017063942
74	0xbac9ebaf	-0.0015405322
75	0x3b9356ec	0.004496446
76	0xbbd0931c	-0.006365193
77	0xbca6a9a2	-0.02034456
78	0x3b9b1c44	0.004733594
79	0xbc5219a3	-0.012823495
80	0xbc48cf6e	-0.012256486
81	0x3c15bd33	0.009139347
82	0xbc8ee62d	-0.01744374
83	0xbccb3b3c	-0.024808519
84	0xbcab4598	-0.020907208
85	0x3cab4f82	0.020911936
86	0xbb04f163	-0.002028548
87	0x3c057269	0.008144953
88	0xbd1b302a	-0.03788773
89	0x3ba1bd5f	0.004935905
90	0x39d62467	0.00040844383
91	0x399631a2	0.0002864721
92	0xbce2bae2	-0.027677003
93	0x3c5f7366	0.013638353
94	0xbbf82f0d	-0.0075739683
95	0x3c5ffe33	0.013671446
96	0xbc9a4718	-0.018832728
97	0xbc2f570f	-0.010701909
98	0xbc1b9f21	-0.0094983885
99	0xbbc37e05	-0.0059659504
100	0xbb93aeed	-0.0045069368
101	0xbcab63b8	-0.020921573
102	0x3d096791	0.033546034
103	0xbc90f65d	-0.0176956
104	0xbca21804	-0.019786842
105	0xbca9978f	-0.020702152
106	0xbd15de3c	-0.036588892
107	0xbcbe7fe4	-0.023254342
108	0x3b588432	0.003303778
109	0xbcb87898	-0.022518441
110	0xbcdb213d	-0.026749248
111	0x3c801607	0.015635503
112	0x3b316310	0.0027067102
113	0x3b8903b3	0.004181349
114	0xbbd35cd2	-0.006450274
115	0x3c28a5e5	0.010293459
116	0x3c2bd091	0.010486738
117	0xbc52fe3f	-0.012878
118	0xbbed14b3	-0.0072351336
119	0xbaf80778	-0.0018923124
120	0x3bbfe7d9	0.005856496
121	0xbb970c43	-0.004609616
122	0xbbe9de61	-0.0071371053
123	0xb9c381c3	-0.00037289978
124	0x3d3d2cac	0.04618518
125	0x3b93d9c5	0.004512044
126	0xbc16317a	-0.00916707
127	0xbcc2815a	-0.02374332

network_body._body_endoder.seq_layers.2.weight f4 [128, 128]
0	0x3eb35bae	0.35030884
1	0xbddbeb15	-0.10738198
2	0x3d8c26c7	0.06843334
3	0xbeb5511b	-0.3541344
4	0xbe13c9ea	-0.14432493
5	0x3d9db9db	0.07701465
6	0xbd565ab7	-0.052332606
7	0xbd49fe6b	-0.049314898
8	0x3db5b8ee	0.08873163
9	0x3e02a3ef	0.12757848
10	0x3dbffcec	0.09374413
11	0xbe1183f4	-0.14210492
12	0x3e024227	0.12720548
13	0x3d9108d2	0.070817605
14	0x3e53de55	0.20690282
15	0x3df883a6	0.12134485
16	0xbcae449b	-0.021272948
17	0x3ecbc5ba	0.3979929
18	0x3d916749	0.07099778
19	0x3d9837bc	0.074325055
20	0x3d0dd536	0.034627162
21	0xbd941605	-0.072307624
22	0x3e0b7aec	0.1362111
23	0xbd2cd110	-0.042191565
24	0xbe7e40a6	-0.24829349
25	0xbe3aa7ae	-0.18228027
26	0x3e7c4e93	0.24639349
27	0xbe0e9015	-0.1392215
28	0xbd8f78cf	-0.07005464
29	0x3e0a2855	0.13491948
30	0xbd046c5a	-0.032329895
31	0xbd3c0aa5	-0.04590859
32	0xbe19fa21	-0.15036823
33	0xbd89605c	-0.06707832
34	0xbe3c4d42	-0.18388847
35	0xbd576a10	-0.052591383
36	0x3d8a267e	0.06745623
37	0x3d4f5e50	0.050627053
38	0x3dae62df	0.08514952
39	0xbe929d44	-0.2863561
40	0xbf0a6002	-0.54052746
41	0x3e18f1e1	0.1493602
42	0x3b217130	0.0024634115
43	0xbcd8bf65	-0.026458452
44	0x3e917619	0.28410414
45	0xbcb4d35f	-0.022073446
46	0xbe92f121	-0.28699592
47	0xbd38cfe4	-0.045120135
48	0xbdd056b9	-0.10172791
49	0x3d7e28e8	0.06205073
50	0xbde34a79	-0.11098189
51	0x3c5e496f	0.013567313
52	0xbe83b262	-0.25722033
53	0xbd84265b	-0.06452628
54	0xbdf25e92	-0.11834444
55	0xbc9a59fb	-0.018841734
56	0x3e0bc79c	0.13650364
57	0xbd65ee9e	-0.056135766
58	0xbf1aae58	-0.6042228
59	0x3e205228	0.1565634
60	0x3cab1f8c	0.020889066
61	0x3e5a75f2	0.21334055
62	0x3e0ee851	0.13955809
63	0xbe91f290	-0.28505373
64	0xbe324af7	-0.1741141
65	0xbee76d09	-0.45200375
66	0xbbe15331	-0.0068763723
67	0x3e2b1ed1	0.16710974
68	0xbd26fc2c	-0.040767834
69	0x3c14cbfd	0.009081838
70	0xbe31f968	-0.17380297
71	0x3d3229dd	0.043496955
72	0xbe598ea1	-0.21245815
73	0xbe75c705	-0.24001701
74	0xbe4e75a7	-0.20162068
75	0x3d6a2155	0.057160694
76	0x3d2e34c7	0.0425308
77	0x3d1c4599	0.03815231
78	0xbe384b94	-0.17997581
79	0x3e658a02	0.22415927
80	0x3d7d79e2	0.061883815
81	0xbe2b9170	-0.16754699
82	0x3ea5b03f	0.32361028
83	0xbc8b46f6	-0.01700161
84	0x3c7db812	0.01548578
85	0xbe1ee764	-0.15517956
86	0xbe2b9a69	-0.16758122
87	0xbd2d0797	-0.042243566
88	0xbe072f98	-0.1320175
89	0x3cdafb30	0.026731104
90	0x3e04ee50	0.12981534
91	0xbe3090d0	-0.17242742
92	0x3cc62eab	0.024192175
93	0xbcba816e	-0.022766795
94	0xbd15064c	-0.03638296
95	0xbe4729cb	-0.19449537
96	0xbc7ac0ea	-0.015304783
97	0x3d9830e7	0.074312024
98	0x3d6136bd	0.054983843
99	0x3eb00bdc	0.34384048
100	0x3e57b849	0.21066393
101	0xba25a6af	-0.0006319088
102	0xbe12a700	-0.14321518
103	0x3d8a3999	0.06749267
104	0x3de115c0	0.109904766
105	0xbef5a3bc	-0.47976482
106	0xbe03d6b9	-0.12874879
107	0xbcf0025e	-0.029298004
108	0xbdc9590c	-0.098314375
109	0xbddd360f	-0.108013265
110	0x3e6c2ddb	0.23064367
111	0xbf17b986	-0.5926746
112	0xbd844a5c	-0.064594954
113	0xbe159cd5	-0.14610608
114	0xbd6c3d11	-0.057675425
115	0x3e47666d	0.19472666
116	0x3be9f0fd	0.0071393237
117	0x3eb322a8	0.34987378
118	0x3e3460a9	0.17614998
119	0xbd60934d	-0.054827977
120	0xbd386ed3	-0.045027565
121	0xbef92c85	-0.48666778
122	0x3da51e8a	0.080624655
123	0x3cc5fa45	0.02416719
124	0xbda4cc28	-0.08046752
125	0xbdb25e07	-0.087093405
126	0xbe90b0a0	-0.28259754
127	0xbdaa925a	-0.083286956
128	0xbe813204	-0.2523347
129	0x3d62b93c	0.055352435
130	0xbef56078	-0.47925162
131	0xbdd7536c	-0.10513958
132	0x3db976df	0.09055876
133	0xbdf77145	-0.12082151
134	0xbd974014	-0.07385269
135	0xbdb9c8a2	-0.09071471
136	0xbe740359	-0.23829402
137	0xbedf7e3b	-0.43650994
138	0xbe939a9e	-0.288289
139	0xbec5780a	-0.38568145
140	0x3e9f2a98	0.31087184
141	0xbe2b5771	-0.16732575
142	0xbd9cf34e	-0.07663594
143	0xbe6e48a0	-0.23269892
144	0x3e228246	0.15870008
145	0xbe732aac	-0.23746747
146	0xbd38dd21	-0.04513276
147	0xbea87737	-0.32903454
148	0xbf3ea172	-0.74465096
149	0xbe029dc1	-0.12755491
150	0x3de53ee1	0.11193634
151	0x3e324e5e	0.17412707
152	0xbd517287	-0.051134612
153	0xbeff2ee2	-0.49840456
154	0x3e8132f2	0.2523418
155	0xbe0f01fa	-0.13965598
156	0xbd05f51a	-0.03270445
157	0xbe9b4f1c	-0.30333793
158	0x3e0fafe7	0.14031945
159	0xbcbea5b0	-0.023272365
160	0xbc819c6e	-0.015821662
161	0xbd5232f6	-0.05131813
162	0xbda7dfac	-0.08196959
163	0xbca8e44a	-0.02061667
164	0x3e2302a2	0.15918973
165	0xbe92b78c	-0.2865566
166	0xbe3fab77	-0.18717752
167	0xbe633962	-0.22189859
168	0xbe9b44d9	-0.30325964
169	0xbe2443eb	-0.16041534
170	0xbd352ad6	-0.044230305
171	0xbe8c0515	-0.27347627
172	0x3dabdb3d	0.08391426
173	0xbf1ba367	-0.6079621
174	0xbe284cb0	-0.16435504
175	0xbdf2fcac	-0.118645996
176	0xbdef94a9	-0.116982765
177	0xbe82e60e	-0.25566143
178	0xbef0a0c8	-0.46997666
179	0x3d2b0343	0.041751157
180	0x3da0d600	0.07853317
181	0x3e3ace55	0.18242772
182	0xbe3ccb30	-0.18436885
183	0x3e90437d	0.2817649
184	0xbc80d395	-0.01572589
185	0xbc4f8279	-0.012665384
186	0xbd21a185	-0.039460678
187	0xbea07051	-0.3133569
188	0xbe46ea57	-0.19425331
189	0xbe9fd5aa	-0.312177
190	0x3e0e5e87	0.13903247
191	0xbd69e0d3	-0.057099175
192	0xbe7c49d4	-0.24637538
193	0xbe6d1ca1	-0.23155452
194	0x3e7300c3	0.2373076
195	0xbea4437e	-0.32082742
196	0x3ea63df5	0.32469144
197	0xbe81e69d	-0.25371256
198	0xbe4ef221	-0.20209552
199	0x3daae1f1	0.08343876
200	0x3ee1f071	0.44128755
201	0xb82f1347	-4.1741205e-05
202	0x3cb617a5	0.022228071
203	0xbeb934cb	-0.3617309
204	0x3e1d01f4	0.15332776
205	0xbe78df0c	-0.24303836
206	0x3e5a71bd	0.2133245
207	0x3e9ce413	0.30642757
208	0x3c78d70c	0.01518799
209	0x3d37ef84	0.044906154
210	0xbe4b5845	-0.19857891
211	0x39ca3547	0.00038568137
212	0x3db954a5	0.09049348
213	0x3d0c5c3b	0.034267645
214	0xbd0408b5	-0.032234866
215	0xbe9c1ba3	-0.30489835
216	0x3dd8411a	0.10559292
217	0xbec08528	-0.3760159
218	0xbe0c0722	-0.13674596
219	0xbe21876f	-0.1577432
220	0xbd8c19a2	-0.068408266
221	0xbd9317bd	-0.07182262
222	0xbed255db	-0.41081128
223	0xbe47f68b	-0.19527642
224	0xbe9708d0	-0.2949891
225	0xbeb5787b	-0.35443482
226	0xbdbc5973	-0.091967486
227	0x3dfe6212	0.12421049
228	0xbe401dbd	-0.18761344
229	0x3d70f6e3	0.0588292
230	0x3dd38251	0.1032759
231	0xbe3469c6	-0.17618474
232	0x3ea8b4d3	0.32950458
233	0x3dd02e7b	0.101651154
234	0x3df39e18	0.11895388
235	0x3e3c043d	0.18360992
236	0xbe687c5b	-0.22703688
237	0x3e4ce5ed	0.20009585
238	0x3cb58c42	0.022161607
239	0xbd97a242	-0.07403995
240	0xbdda4428	-0.10657531
241	0xbd7553b7	-0.05989429
242	0x3cf8b43d	0.030359382
243	0xbe40ab26	-0.18815288
244	0xbe419b58	-0.18906915
245	0xbd396a17	-0.04526719
246	0xbe394624	-0.18093163
247	0x3de5b505	0.11216167
248	0xbe8e870b	-0.27837405
249	0xbc45b121	-0.012066157
250	0xbe8ae350	-0.2712655
251	0x3d37bb5a	0.044856407
252	0x3c1f93df	0.009739845
253	0xbe6e5867	-0.2327591
254	0x3e92196e	0.28535026
255	0x3e1d4a3c	0.1536035

network_body._body_endoder.seq_layers.2.bias f4 [128]
0	0xbe897dbe	-0.26853746
1	0x3ddbd7ff	0.10734557
2	0xbd48e760	-0.04904878
3	0xbc024710	-0.007951513
4	0xbd977eb0	-0.073972106
5	0xbd88c74f	-0.0667864
6	0xbd98f5d1	-0.07468761
7	0xbd6ab1db	-0.057298522
8	0xbcd6fe4c	-0.026244305
9	0xbbec785f	-0.007216498
10	0xbd929dcc	-0.071590036
11	0xbde8a34d	-0.11359272
12	0x3d379b73	0.044825982
13	0xbdce39c3	-0.10069611
14	0xbc069f12	-0.008216636
15	0xbdb252ca	-0.08707197
16	0xbd046e21	-0.03233159
17	0x3db74c42	0.08950092
18	0xbe20655a	-0.15663663
19	0x3cbe5ab5	0.023236612
20	0xbdd08f6d	-0.10183606
21	0xbe641638	-0.22274101
22	0x3db2f35d	0.08737824
23	0xbda68224	-0.08130291
24	0xbc024869	-0.007951834
25	0xbe00a062	-0.12561181
26	0x3cd81dc4	0.02638138
27	0xbd4374fa	-0.04771898
28	0x3d614e72	0.055006452
29	0xbd418e96	-0.04725512
30	0x3cec9bfc	0.028882973
31	0xbe21c909	-0.15799345
32	0xbd8d95aa	-0.06913312
33	0xbe675753	-0.22591905
34	0xbe06695b	-0.13126127
35	0xbe4ab360	-0.19794989
36	0xbd1c63e5	-0.038181204
37	0xbe26d108	-0.16290677
38	0xbe1f5421	-0.15559436
39	0xbd6805aa	-0.056646027
40	0xbe208742	-0.15676597
41	0x3d2b6173	0.04184098
42	0xbe063524	-0.13106209
43	0x3d1b6965	0.03794231
44	0x3df86560	0.12128711
45	0xbeaf1c7c	-0.3420142
46	0xbd9e3944	-0.07725766
47	0x3d69357c	0.056935772
48	0xbde0f04a	-0.109833315
49	0xbcf0f24c	-0.029412411
50	0xbde0f3b2	-0.10983981
51	0x3c924677	0.017855866
52	0xbe217834	-0.1576851
53	0x3be0fc37	0.006866004
54	0x39d4d638	0.00040595396
55	0xbc7d216a	-0.015449861
56	0xbd4da0d1	-0.050202195
57	0xbe0d7dca	-0.13817516
58	0xbe26da0c	-0.16294116
59	0xbe19a751	-0.15005232
60	0xbd1acbe9	-0.03779212
61	0xbc98e922	-0.018665854
62	0xbe4aae97	-0.19793163
63	0xbda16da6	-0.07882242
64	0xbe11ad06	-0.1422616
65	0xbe2ffc0f	-0.17185996
66	0x3caf097d	0.021366829
67	0xbd21ca7d	-0.03949975
68	0xbda30d27	-0.07961493
69	0x3d238e7f	0.039930817
70	0x3c831545	0.016001353
71	0x3d23338f	0.039844092
72	0xbd8baac4	-0.0681968
73	0xbd2e7568	-0.042592436
74	0xbdf4eb95	-0.11958996
75	0xbd18ae74	-0.037275746
76	0xbebe747b	-0.37198243
77	0xbd88a08d	-0.06671248
78	0xbe6ebd4e	-0.23314402
79	0xbda376e4	-0.07981661
80	0xbe8d32d4	-0.2757784
81	0x3b796866	0.003805661
82	0x3d4f5809	0.050621066
83	0xbdf75e25	-0.120785035
84	0xbc154aba	-0.0091120545
85	0x3cf073a5	0.029352019
86	0x3d95118a	0.07278736
87	0xbd07202b	-0.032989662
88	0xbd1e4345	-0.038638372
89	0xbcd66b39	-0.026174175
90	0xbd412a00	-0.047159195
91	0x3bfe83ea	0.00776719
92	0xbcdc7508	-0.026911274
93	0x3cdf2591	0.027239593
94	0xbe0a03f2	-0.13478068
95	0xbc14deda	-0.009086335
96	0xbb9cd3ca	-0.0047859894
97	0xbe2c66ab	-0.1683604
98	0x3cf50239	0.029908286
99	0xbd59f960	-0.05321634
100	0x3d8360ff	0.06414985
101	0x3d5a851e	0.053349607
102	0xbe1f97a3	-0.15585189
103	0x3d8e9f31	0.06963957
104	0xbdc2a8d8	-0.09504861
105	0xbe53c821	-0.20681812
106	0x3cca8331	0.02472076
107	0xbe4c3888	-0.1994344
108	0xbd79f6c1	-0.06102634
109	0xbe99d721	-0.30046943
110	0x3dcb59ce	0.09929238
111	0xbe452951	-0.19254042
112	0xbdb88789	-0.09010226
113	0xbd9b008e	-0.07568465
114	0xbd6f292a	-0.058388866
115	0xbe656098	-0.22400129
116	0xbbae4ce9	-0.005319227
117	0x3d9837f9	0.07432551
118	0xbec17bc9	-0.37789753
119	0xbd34b940	-0.04412198
120	0x3ca11082	0.019661192
121	0x3d873817	0.06602495
122	0xbe1fc3d5	-0.15602048
123	0xbd82cdb1	-0.06386889
124	0x3d454f9e	0.048171632
125	0xbc531121	-0.012882502
126	0xbe12e5af	-0.1434543
127	0xbddf0da8	-0.108912766

action_model._continuous_distribution.log_sigma f4 [1, 2]
0	0xc0d12b82	-6.536561
1	0xc0cfe35d	-6.4965043

action_model._continuous_distribution.mu.weight f4 [2, 128]
0	0xbd96913b	-0.07351919
1	0xbd8b91c8	-0.06814915
2	0xbcb93635	-0.022608856
3	0xbab68f0f	-0.0013928133
4	0xbd36b712	-0.044608183
5	0x3c844d8f	0.016150264
6	0x3d02a36b	0.03189413
7	0x3b723b25	0.0036961522
8	0x3d65cf60	0.05610597
9	0xba88c1e4	-0.001043376
10	0x3d2175d8	0.039419025
11	0x3d01ca9c	0.031687364
12	0x3d284126	0.041077755
13	0x3b88823f	0.004165917
14	0xbb6d9172	-0.0036250022
15	0x3c94eda7	0.018179728
16	0xbb46114d	-0.0030222714
17	0x3d84225c	0.06451866
18	0xbd829405	-0.06375889
19	0xbbc46420	-0.005993381
20	0x3cb782d4	0.02240125
21	0xbdad73ca	-0.08469351
22	0x39106a10	0.00013772422
23	0xbb55f523	-0.0032647334
24	0xbacd3db4	-0.0015658648
25	0x3d8443d7	0.06458252
26	0x3d0e13cb	0.034686845
27	0xba3b859e	-0.00071533944
28	0xbd9aea73	-0.07564249
29	0x3dd46071	0.10369957
30	0xbb2acf83	-0.0026063628
31	0x3e15058c	0.14552897
32	0xbd532798	-0.05155143
33	0x3e2eb5e2	0.1706157
34	0x3ce5c1ef	0.028046576
35	0xbcc245ba	-0.023714889
36	0xbcebc252	-0.028779183
37	0x3d182d90	0.037152827
38	0x3d7d2350	0.061801255
39	0x3cc7cc22	0.02438933
40	0x3d87d127	0.066316895
41	0xbc928567	-0.017885877
42	0x3d170498	0.036869615
43	0xbd339614	-0.043844298
44	0xbd2cf978	-0.0422301
45	0xbcb085c3	-0.021548158
46	0xbdfb33a1	-0.12265707
47	0x3c59d3b8	0.013295107
48	0x3deb9995	0.11503903
49	0x3c88ef48	0.01671566
50	0x3df4a0cf	0.11944734
51	0xbb31155b	-0.0027020785
52	0x3c745e10	0.014915004
53	0x3d64e317	0.055880632
54	0xba1552f0	-0.00056962576
55	0xbd01905c	-0.031631812
56	0x3da2beb1	0.07946528
57	0xbce1a6f5	-0.027545432
58	0x3cd6bafa	0.026212204
59	0x3d91c799	0.07118148
60	0xba6123c6	-0.00085883995
61	0x3d55a9c3	0.05216385
62	0xbab73ed6	-0.0013980519
63	0x3d57a6a6	0.052649163
64	0xbc7c91ff	-0.015415668
65	0x3d48f90f	0.049065646
66	0xb92f7a68	-0.000167349
67	0xbd8f2a02	-0.06990434
68	0xbd062520	-0.03275025
69	0x3d38a113	0.045075487
70	0x3c9a131b	0.018807938
71	0x3d6679e6	0.056268595
72	0x3a76c75a	0.0009413861
73	0x3d2621b4	0.040559486
74	0xbd7fe051	-0.062469784
75	0xbd99490f	-0.07484638
76	0x3b78ee48	0.0037983824
77	0x3b5b440e	0.0033457312
78	0x3bce0ed3	0.0062883883
79	0x3d4fe62e	0.050756626
80	0xbd4f708b	-0.05064444
81	0xbe8edb7d	-0.2790183
82	0xbb25a971	-0.0025277997
83	0xbd69608e	-0.056976847
84	0x3bf558ee	0.007487408
85	0x3d1cafad	0.038253475
86	0xbcbc4f6e	-0.022987094
87	0x3aad3272	0.0013213886
88	0x3d8d8bc2	0.06911422
89	0x3aecd2ca	0.0018068191
90	0x3c7cf772	0.015439855
91	0x3d2a5d7a	0.041593052
92	0xbd53665e	-0.051611297
93	0x3c01f89d	0.007932809
94	0x3cdb9854	0.026806034
95	0xbc867d80	-0.016417265
96	0xbcaf9421	-0.021432938
97	0xbac902c6	-0.001533591
98	0x3cabd6f9	0.02097653
99	0x3a137cf5	0.0005626225
100	0xbca28457	-0.019838495
101	0xbd7c9b76	-0.061671697
102	0x3ce58ef5	0.028022269
103	0x3d225a7a	0.039637066
104	0x3d9398ad	0.07206855
105	0x3d71abf0	0.059001863
106	0xbca471c2	-0.020073775
107	0x3d66ff8e	0.05639606
108	0xbd9b12d8	-0.075719535
109	0xbd587eb3	-0.052855205
110	0xbd79b4ca	-0.06096343
111	0xbd326333	-0.043551635
112	0x39790b6e	0.00023750748
113	0x3ba5e45a	0.005062622
114	0xbcbe2e85	-0.023215542
115	0xbb8c372b	-0.0042790375
116	0xbd5676fe	-0.052359574
117	0xbd8f279b	-0.06989976
118	0xbcfe671d	-0.031055028
119	0x3d4f0000	0.05053711
120	0xbc0d75b2	-0.008634018
121	0xbd87754a	-0.06614168
122	0xbb0faba0	-0.0021922365
123	0x39649043	0.00021797516
124	0xbd64120a	-0.055681266
125	0xbde4fb32	-0.11180724
126	0xbd762d3b	-0.06010173
127	0x3b7d0955	0.0038610299
128	0x3b3b3adb	0.0028569016
129	0x3d26a17b	0.040681344
130	0xbd9d82c9	-0.07690961
131	0xb89da74f	-7.517507e-05
132	0xbafb18e2	-0.0019157196
133	0xbd8c0398	-0.06836623
134	0x3dacba64	0.08433989
135	0x3c2c07d7	0.010499916
136	0xbd6f3969	-0.05840436
137	0x3aebc6ea	0.0017988358
138	0x3bdf2dfa	0.0068109008
139	0x3c1b2216	0.009468576
140	0x3cbfb689	0.02340247
141	0xbc0103a8	-0.007874407
142	0xba167730	-0.0005739806
143	0xbd00263f	-0.031286474
144	0x3d47140a	0.048603095
145	0x3c5cd85e	0.01347932
146	0x3bdcdc32	0.0067401165
147	0xbd841dfb	-0.06451031
148	0xbb74a6fe	-0.003733098
149	0xbb710b2f	-0.0036780348
150	0x3dd7167f	0.10502338
151	0xba60e032	-0.00085783296
152	0xb9ec0af1	-0.0004502158
153	0x3e4d3d5a	0.20042935
154	0xbd1d6fad	-0.03843658
155	0x3d8acb95	0.067771114
156	0xbd88bbe9	-0.06676466
157	0xbc93a215	-0.018021623
158	0x3d369fbb	0.044585925
159	0xbe08bc5d	-0.13353105
160	0xbcbc7865	-0.023006627
161	0x386bb068	5.6192657e-05
162	0xba38fe72	-0.0007056958
163	0xbdba450c	-0.09095201
164	0x3cde3f88	0.027129903
165	0xbd81ad1e	-0.063318476
166	0xbb378725	-0.0028004136
167	0x3ca5dc30	0.020246595
168	0x3d3fd64b	0.046835225
169	0xbd47c75f	-0.04877412
170	0x3e5442e0	0.20728636
171	0x3d7e801e	0.0621339
172	0xbb1c7d58	-0.0023878422
173	0x3b87280d	0.0041246475
174	0xbe1cb6cc	-0.15304106
175	0x3b21d92a	0.002469609
176	0x3c6bc07c	0.014389154
177	0xbcd73d9b	-0.026274493
178	0xbbbdff75	-0.005798275
179	0xbc0b5632	-0.008504437
180	0x3c5922d3	0.013252932
181	0xba09159f	-0.0005229357
182	0x399f6711	0.00030403634
183	0xbd85c03d	-0.06530807
184	0xbc83ec03	-0.01610375
185	0x3d13edbd	0.036115397
186	0x3b7854c4	0.003789232
187	0xba8c8e83	-0.0010723624
188	0xbac4e76f	-0.0015022586
189	0xbceaf068	-0.028679088
190	0xbd79a7e6	-0.060951136
191	0xbd3c3e31	-0.045957748
192	0xbce649e7	-0.028111411
193	0x3c12d0d0	0.008960918
194	0x3b8941be	0.0041887453
195	0x3d99bc02	0.07506563
196	0x3c630d0e	0.013858093
197	0x3c537372	0.012905942
198	0xbd6e68c0	-0.058205366
199	0x3d0c9ec4	0.0343311
200	0x3c27b1fb	0.010235305
201	0xbd7134b8	-0.058888167
202	0xbce603b7	-0.028077943
203	0x3a224d2d	0.00061913097
204	0xbda8bdcd	-0.082393266
205	0x3d691137	0.056901183
206	0x3d91ca7b	0.07118698
207	0xbca9a1e7	-0.020707084
208	0xbce15fd7	-0.02751152
209	0x3d539017	0.051651087
210	0x3b0f784b	0.0021891769
211	0xbb27bfb2	-0.0025596437
212	0x3d8a0e25	0.06740979
213	0xbdad8504	-0.08472636
214	0xbdfe4655	-0.124157585
215	0x3b9b48e9	0.004738916
216	0xb9a890fa	-0.00032151473
217	0xba03efb0	-0.00050329696
218	0xbd4cbedf	-0.049986716
219	0x3d46d7b0	0.04854554
220	0xbd216b9b	-0.03940926
221	0x3c24b6fc	0.0100533925
222	0xbd871fcf	-0.06597864
223	0x3ae8a9b8	0.0017750775
224	0xbd2e6779	-0.042579148
225	0x3db02b1f	0.08601975
226	0x3d4a70a7	0.04942384
227	0x3d19ef7e	0.037581913
228	0xbd288d50	-0.04115039
229	0x3ceccedc	0.028907232
230	0x3b9bf3c4	0.0047592837
231	0x3d333f90	0.04376179
232	0x39a06ef9	0.0003060026
233	0x3d3d7764	0.046256438
234	0xbd197c93	-0.03747232
235	0x3c8cedfb	0.017203322
236	0xbddd0563	-0.10792043
237	0xbd0eca3c	-0.034860834
238	0x3d1e2641	0.0386107
239	0x3dd3090d	0.10304461
240	0x3afc6662	0.0019256587
241	0xbd1bedb0	-0.038068473
242	0x3c90664c	0.017626904
243	0x3cda4d0a	0.026648063
244	0x3d26b4bc	0.040699705
245	0x3c9869a3	0.018605059
246	0x3cd8de71	0.026473256
247	0x3cf556b7	0.029948575
248	0x3d8f07a6	0.06983881
249	0x3cafc65c	0.02145689
250	0xba78a492	-0.0009484972
251	0x3b6bbbdd	0.003597013
252	0x3d6d086a	0.057869352
253	0x3cf16a35	0.029469589
254	0xbd2511eb	-0.04030029
255	0x3b878d2b	0.0041367016

action_model._continuous_distribution.mu.bias f4 [2]
0	0xbd3c7e65	-0.046018977
1	0xbd658912	-0.056038924
