results/test_environment/VacuumCleaner/VacuumCleaner-6525.onnx (onnx, 83250 bytes, 7 tensors)

network_body._body_endoder.seq_layers.0.weight f4 [128, 27]
0.11538967 0.13573883 -0.12066112 0.005505211 -0.17725766 -0.09241171 -0.022469223 0.07584178
-0.09939668 0.040401373 -0.15578336 -0.113898896 0.06129958 0.015706452 0.0477387 -0.07330759
-0.23988837 0.35996217 -0.11401577 0.08722266 -0.2346099 -0.38662845 0.42310902 -0.09512724
0.0059966045 0.13141416 0.4284894 0.25432596 -0.006335197 -0.40858027 0.04495447 -0.07077264
-0.0075917994 0.48081788 0.41745254 -0.16817057 0.17666882 -0.13984317 0.06804682 -0.12836902
0.17633504 -0.36869314 -0.108829975 -0.11546033 -0.025550595 0.44288832 -0.01128837 -0.0071558035
0.024560057 0.31142244 -0.05575781 -0.33564627 -0.34735 0.23216435 -0.4429632 0.26224345
0.32305917 -0.07985489 -0.23769996 -0.1404734 -0.03389866 -0.31603453 0.16918738 -0.11564118
-0.015034559 0.20645303 -0.19891557 0.34615764 -0.047384903 0.21347412 0.12806562 -0.09708614
-0.045758814 0.23653889 0.32912764 -0.09597846 -0.41235211 0.17217976 -0.29954582 0.2473576
-0.19745366 0.3098446 -0.13030913 0.33084103 -0.17463128 -0.0063193017 -0.11870373 -0.45624697
0.11435151 -0.013037652 -0.011935951 0.07306988 0.033944454 0.22687054 -0.10900062 0.08676473
-0.14068311 0.11686598 0.2755614 0.114747204 -0.30489233 -0.18650798 0.2400285 -0.19888987
0.08859538 -0.1126857 -0.15571791 0.18767865 0.6447459 -0.16270642 -0.04264457 0.21023057
0.15397125 0.3485038 0.104993515 -0.1068188 0.03033384 0.24026895 -0.27479094 0.18371256
-0.20017996 -0.07358591 -0.002802193 -0.001002922 0.13209516 -0.119923405 0.10483334 0.1391423
0.1659225 0.030941691 -0.36168474 0.41759098 -0.092806675 0.061208636 -0.46403646 0.07986269
-0.12962884 -0.01727501 0.02535635 -0.097252466 -0.40326598 0.067575164 -0.4504701 -0.06560804
-0.19442369 -0.3319756 0.16706303 -0.043009907 0.023147758 0.22142054 -0.031639148 0.20273015
-0.07438236 -0.09485624 0.32485795 0.32707745 0.24729122 0.07369915 -0.18103997 -0.29715183
0.16797234 0.034495704 -0.12974505 0.31927726 0.15979388 -0.041292567 0.180462 0.41674826
-0.030912917 0.34898388 -0.037568048 -0.014419401 -0.20546284 0.27450818 -0.054198895 -0.105797775
0.021410972 0.023356631 -0.31561884 0.07154275 -0.0018373253 -0.116425574 -0.07209269 -0.14166932
0.03816023 -0.5775532 0.11445719 -0.06369518 0.19922952 0.00067725795 0.29996148 0.27401784
0.18493731 -0.08537044 -0.1862292 -0.09863663 0.061520837 0.32782713 0.29306254 -0.32982883
-0.10633637 -0.034730095 0.14933309 0.06716704 0.25620902 0.20371205 0.18472937 0.2111176
-0.32701567 0.24441478 0.37984627 -0.04017866 -0.027089566 -0.14676353 -0.28842306 -0.05610144
-0.12329315 -0.12514584 -0.17702116 0.29190147 -0.24319267 0.3074067 0.0068930276 -0.19471982
0.15520427 0.19337855 -0.18883848 0.49819043 0.12473427 0.24349755 -0.42144305 0.3061176
-0.24468163 0.46609864 -0.22888598 -0.1070864 0.10963275 0.21043463 0.5125103 -0.067101076
-0.23791854 -0.16466674 0.004583096 0.25680298 -0.28932822 0.15200861 0.3008126 -0.24033846
-0.10529996 -0.10239614 0.29442832 0.09128476 0.30696997 0.0036382445 0.03296309 -0.1745833
00000000: 6b51 ec3d 1fff 0a3e 2d1d f7bd 0f65 b43b
00000010: 0883 35be 5a42 bdbd 6011 b8bc ef52 9b3d
00000020: 7d90 cbbd e97b 253d ac85 1fbe d343 e9bd
00000030: 4515 7b3d d1aa 803c a889 433d 4a22 96bd
00000040: 4ca5 75be f64c b83e 1a81 e9bd cba1 b23d
00000050: 943d 70be 2af4 c5be bfa1 d83e 12d2 c2bd
00000060: 2a7f c43b 6f91 063e f662 db3e 0337 823e
00000070: 7c97 cfbb 6f31 d1be 2e22 383d 3ff1 90bd
00000080: a1c4 f8bb c32d f63e 57bc d53e e834 2cbe
00000090: ace8 343e 0c33 0fbe 225c 8b3d 2b73 03be
000000a0: 2c91 343e 59c5 bcbe 40e2 debd 7776 ecbd
000000b0: 7b4f d1bc 42c2 e23e dbf2 38bc 3b7b eabb
000000c0: 2c32 c93c c372 9f3e 4d62 64bd d4d9 abbe
000000d0: dcd7 b1be 7ebc 6d3e 13cc e2be c644 863e
000000e0: 0368 a53e f68a a3bd 9e67 73be 42d8 0fbe
000000f0: 52d9 0abd 47cf a1be 753f 2d3e 48d5 ecbd
00000100: 8353 76bc 6c68 533e 86b0 4bbe 933b b13e
00000110: ac16 42bd f698 5a3e a223 033e 19d5 c6bd
00000120: 986d 3bbd 4037 723e 6b83 a83e 5b90 c4bd
00000130: d11f d3be e44f 303e 125e 99be 504b 7d3e
00000140: 4b31 4abe f4a3 9e3e c26f 05be ff63 a93e
00000150: 8bd2 32be 2512 cfbb f11a f3bd 3499 e9be
00000160: 2031 ea3d e09b 55bc 028f 43bc a9a5 953d
00000170: 5709 0b3d c050 683e b83b dfbd b5b1 b13d
00000180: 3c0f 10be 6e57 ef3d 6216 8d3e 9500 eb3d
00000190: d91a 9cbe f3fb 3ebe 08ca 753e c9a9 4bbe
000001a0: 7f71 b53d c3c7 e6bd 8474 1fbe d52e 403e
000001b0: 110e 253f 839c 26be 13ac 2ebd af46 573e
000001c0: a4aa 1d3e 176f b23e d706 d73d d1c3 dabd
000001d0: ac7e f83c 1009 763e 66b1 8cbe 251f 3c3e
000001e0: fafb 4cbe 36b4 96bd ffa4 37bb 7a74 83ba
000001f0: f443 073e 679a f5bd ddb2 d63d 527b 0e3e
00000200: 96e7 293e 6e79 fd3c be2e b9be 7cce d53e
00000210: 6d11 bebd e8b5 7a3d 3096 edbe 0d8f a33d
00000220: 6cbd 04be 5284 8dbc 1fb8 cf3c 4d2c c7bd
00000230: e178 cebe d964 8a3d 04a4 e6be 825d 86bd
00000240: 0117 47be b5f8 a9be 9212 2b3e 282b 30bd
00000250: 5ea0 bd3c 11bc 623e 0d98 01bd 7e98 4f3e
00000260: c755 98bd fd43 c2bd c853 a63e b276 a73e
00000270: e939 7d3e 94ef 963d 8b62 39be 4924 98be
00000280: f100 2c3e 5e4b 0d3d e3db 04be 4f78 a33e
00000290: 02a1 233e 6522 29bd 08cb 383e 0760 d53e
000002a0: 163d fdbc 04ae b23e f4e0 19bd 5a3f 6cbc
000002b0: da64 52be 568c 8c3e a9ff 5dbd 81ac d8bd
000002c0: 1066 af3c 6856 bf3c cb98 a1be 0185 923d
000002d0: 68d2 f0ba 8870 eebd 55a5 93bd c311 11be
000002e0: e74d 1c3d 87da 13bf 8868 ea3d 9e72 82bd
000002f0: d302 4c3e 038a 313a 8d94 993e 114c 8c3e
00000300: 3560 3d3e b2d6 aebd deb2 3ebe 0002 cabd
00000310: 46fd 7b3d f5d8 a73e 4b0c 963e 53df a8be
00000320: e2c6 d9bd 2541 0ebd c6ea 183e e08e 893d
00000330: d42d 833e e499 503e b229 3d3e 362f 583e
00000340: 996e a7be de47 7a3e 367b c23e 6192 24bd
00000350: f0ea ddbc 2e49 16be 30ac 93be a0ca 65bd
00000360: 1e81 fcbd 3b26 00be 0945 35be 1c74 953e
00000370: 8007 79be 6964 9d3e e8de e13b a264 47be
00000380: deed 1e3e 0705 463e e05e 41be d112 ff3e
00000390: ae74 ff3d 6c57 793e 62c7 d7be 72bb 9c3e
000003a0: d28d 7abe 7ba4 ee3e 1661 6abe 1d50 dbbd
000003b0: 2387 e03d 2d7c 573e e033 033f 4a6c 89bd
000003c0: eba0 73be 669e 28be cc2d 963b ae7b 833e
000003d0: d422 94be 25a8 1b3e 1c04 9a3e 491b 76be
000003e0: 81a7 d7bd 11b5 d1bd 4fbf 963e 81f3 ba3d
000003f0: 2b2b 9d3e 9d6f 6e3b 4e04 073d f7c5 32be

network_body._body_endoder.seq_layers.0.bias f4 [128]
-0.026174983 0.010691666 0.02630514 0.003606442 0.04712344 0.044757765 0.011353195 -0.010824222
0.0021776077 0.013809613 0.0066407276 0.0076623615 -0.03292256 0.013567028 -0.034719545 0.019366035
0.014381394 0.0052382206 -0.0035047366 0.026626969 -0.015856868 0.017332576 0.037464533 -0.017325612
0.010598736 -0.028993836 0.0002032747 0.01760132 0.007389152 0.02205928 0.0021756024 0.002070287
0.08547584 -0.008985817 -0.05091419 0.0010108318 -0.020578729 -0.02058421 -0.014905774 0.058839384
-0.034671675 0.021624438 0.042193484 -0.010612778 -0.00043582649 -0.04138833 0.014435974 -0.048553463
0.023885058 0.01053854 0.018096915 0.003479565 0.06601835 0.044657167 0.013162971 -0.022818333
0.0066295033 0.036828477 -0.013997875 0.014977235 0.046552915 -7.889532e-05 -0.0015845234 0.028073814
-0.014509625 0.002951586 0.03432144 -0.004869458 -0.051670518 0.0658328 0.048903763 -0.0009861564
0.008319507 -0.0003381163 0.037073098 -0.010199787 -0.036169022 0.06348818 -0.0066506485 0.044720516
-0.016324315 0.03215994 -0.008981348 -0.021547077 -0.005649861 0.030990241 -0.002874311 0.0590171
-0.0058897897 -0.013314927 0.041459385 0.040839422 -0.018888626 0.02067323 -0.020230988 0.0041431687
-0.026356436 -0.051510032 -0.032709107 0.008205872 0.015183273 0.07425114 0.06309652 0.027371129
0.0026314915 -0.010005469 0.016157905 0.033518985 -0.046682842 -0.020709306 0.04045631 0.032234736
-0.028820088 0.028625663 -0.005073173 0.04232654 -0.056394506 -0.05132859 -0.059446964 -0.015584727
-0.037946284 -0.012230619 -0.0122068 0.019371172 -0.009963321 0.048685096 0.003936948 -0.007507476
00000000: eb6c d6bc 192c 2f3c e17d d73c 0e5a 6c3b
00000010: 8204 413d eb53 373d c002 3a3c 1458 31bc
00000020: 32b6 0e3b b741 623c 769a d93b 8c14 fb3b
00000030: ced9 06bd 3d48 5e3c 1536 0ebd 85a5 9e3c
00000040: f09f 6b3c 61a5 ab3b b9af 65bb cd20 da3c
00000050: 43e6 81bc 0cfd 8d3c 6974 193d 71ee 8dbc
00000060: 52a6 2d3c 7b84 edbc 2326 5539 a530 903c
00000070: b320 f23b aab5 b43c 8d94 0e3b a7ad 073b
00000080: f50d af3d 4039 13bc 668b 50bd e37d 843a
00000090: b994 a8bc 38a0 a8bc 5937 74bc 9101 713d
000000a0: e303 0ebd bc25 b13c 13d3 2c3d 38e1 2dbc
000000b0: a47f e4b9 cf86 29bd dd84 6c3c ffdf 46bd
000000c0: 99aa c33c d7a9 2c3c fb3f 943c 6a09 643b
000000d0: a134 873d 6fea 363d 80a9 573c 83ed babc
000000e0: 4e3c d93b 75d9 163d 5857 65bc 1463 753c
000000f0: 45ae 3e3d 9a74 a5b8 c8af cfba 0efb e53c
00000100: c7b9 6dbc 656f 413b a394 0c3d f98f 9fbb
00000110: 77a4 53bd 59d3 863d 504f 483d eb41 81ba
00000120: 8b4e 083c 3445 b1b9 f6d9 173d 021d 27bc
00000130: f825 14bd 1706 823d afed d9bb dc2c 373d
00000140: 92ba 85bc 24ba 033d 8126 13bc 7f83 b0bc
00000150: 7822 b9bb 3fdf fd3c f05e 3cbb eabb 713d
00000160: 23ff c0bb da26 5abc 51d1 293d 3d47 273d
00000170: 52bc 9abc e85a a93c 75bb a5bc 6bc3 873b
00000180: 74e9 d7bc 2ffc 52bd fcf9 05bd ec71 063c
00000190: 43c3 783c fb10 983d c038 813d 6b39 e03c
000001a0: 1a75 2c3b fbed 23bc 955d 843c 344b 093d
000001b0: 8236 3fbd 90a6 a9bc 84b5 253d 9208 043d
000001c0: 1b18 ecbc 5e80 ea3c dc3c a6bb 985e 2d3d
000001d0: edfd 66bd ed3d 52bd a97e 73bd 1557 7fbc
000001e0: 906d 1bbd ef62 48bc 08ff 47bc 4bb0 9e3c
000001f0: 323d 23bc 066a 473d 8301 813b 4601 f6bb

network_body._body_endoder.seq_layers.2.weight f4 [128, 128]
-0.046380848 -0.030877247 0.022925746 -0.06213227 -0.033993863 -0.14093141 -0.088135935 -0.009812682
-0.20162696 -0.1473722 0.051289175 -0.0493044 -0.18426861 -0.017417945 0.018518474 -0.23818223
-0.17694812 -0.11738175 0.02737487 0.29888722 0.035407607 -0.24466899 0.113902986 0.1903364
-0.2187933 -0.018414093 0.078155026 0.076793686 0.06490047 -0.08635046 -0.23616254 0.037846252
0.07666693 0.23194265 0.058361538 -0.06990011 0.09852645 -0.033360034 0.08174226 0.06595679
0.13495287 0.10591996 -0.1987873 0.03472201 0.0116624 0.13646178 -0.13507555 0.08371119
0.13163295 0.13707124 -0.14633077 -0.12479294 0.05398352 -0.07333985 -0.040412556 -0.12639375
0.22140613 -0.17258406 0.16313665 -0.17637943 0.043997567 0.048270974 0.18086866 -0.134692
-0.059823256 -0.086431764 -0.15344246 -0.28317428 -0.056481067 0.031398997 -0.19659 0.07664974
-0.1971854 -0.1451261 0.12717731 0.13195017 0.032633338 -0.08802112 -0.008519268 -0.032438766
-0.13043903 0.07563865 0.010596029 0.101038754 0.12969398 -0.15581235 0.08116586 -0.037292846
-0.015232043 0.10363925 0.10485455 -0.05853262 0.036239922 -0.056664094 0.12697503 0.053795077
0.07825655 -0.19693886 -0.08497502 0.006692214 -0.07713785 0.05030633 -0.008735788 0.0419967
0.06221175 -0.09049553 -0.01807264 -0.08265758 -0.07025366 -0.09527073 0.062352475 0.10572253
-0.016425591 0.015296679 -0.10361972 0.06217823 0.16221522 -0.0024399564 -0.013123014 -0.19248654
-0.030480359 0.20514965 -0.0146286655 0.0012959825 -0.121072456 0.18947423 0.12524576 -0.22518346
-0.14046004 -0.23214383 -0.02710611 0.027247215 -0.12886098 -0.063804366 0.02800456 -0.089678265
0.088807724 -0.08591717 -0.004418742 0.13223599 0.032356054 0.091104604 0.13590026 0.05371013
0.21482226 0.16009134 0.02660366 0.03841312 0.13440967 0.07052459 0.064517364 -0.20585978
-0.14149185 0.11587586 -0.026813757 0.05332359 -0.113942444 -0.0011295826 -0.04656864 -0.09896464
-0.02047837 -0.00939236 -0.06559139 -0.114959635 0.10657281 -0.0009459075 0.107381396 0.07954406
-0.04036151 -0.010852904 -0.001609772 -0.12890881 -0.1946366 -0.13031377 0.029605504 0.11338776
-0.08093973 0.21182998 -0.023747174 0.05749615 -0.024229424 -0.032026887 0.031879608 -0.075978205
-0.036954843 -0.051759496 -0.075798474 0.21492532 -0.059895597 0.060283847 0.1689794 0.03292051
-0.08185626 -0.012337545 0.044724006 -0.0013876811 0.10113288 -0.06012647 -0.11901815 0.07792674
-0.0055482644 0.06729933 0.08251478 -0.048368685 -0.013258299 0.049411945 0.13675734 0.12004626
-0.09806183 0.06564708 -0.17556226 -0.052995905 -0.02367959 -0.029511904 -0.028918808 0.056636523
0.04681715 -0.019858597 -0.09091725 -0.049312413 -0.024073353 0.001696744 0.0044567753 0.06673984
0.028605817 -0.022975158 0.08541819 0.14888391 0.18005328 0.03516576 0.21180569 -0.08088011
0.017440524 0.02895095 -0.014775599 -0.053034853 0.049080953 0.1391014 -0.09042833 -0.16346659
-0.027605576 0.052683547 -0.011772312 -0.006672524 0.073042095 -0.19330992 -0.022104824 0.057164554
-0.19767271 -0.031968407 -0.1368842 -0.20934452 0.020910466 0.008453561 -0.045802046 -0.09616939
00000000: d8f9 3dbd 48f2 fcbc c6ce bb3c 687e 7ebd
00000010: 263d 0bbd 5350 10be 9d80 b4bd 5fc5 20bc
00000020: 4c77 4ebe bde8 16be 9914 523d 69f3 49bd
00000030: e9b0 3cbe 14b0 8ebc 0eb4 973c 0be6 73be
00000040: e331 35be d865 f0bd 4341 e03c bf07 993e
00000050: 9107 113d 828a 7abe f845 e93d 8ce7 423e
00000060: 5a0b 60be 27d9 96bc be0f a03d 0246 9d3d
00000070: 8aea 843d 83d8 b0bd 98d4 71be ac04 1b3d
00000080: 8d03 9d3d 6082 6d3e 820c 6f3d ca27 8fbd
00000090: 3cc8 c93d 88a4 08bd 7c68 a73d 5a14 873d
000000a0: 1631 0a3e 90ec d83d e68e 4bbe ab38 0e3d
000000b0: a713 3f3c a3bc 0b3e 3f51 0abe c670 ab3d
000000c0: caca 063e 675c 0c3e bcd7 15be 7193 ffbd
000000d0: d31d 5d3d 3433 96bd a387 25bd 5d6d 01be
000000e0: 4ab8 623e e0b9 30be 4b0d 273e cf9c 34be
000000f0: cb36 343d c9b7 453d a235 393e b3ec 09be
00000100: 3b09 75bd 2303 b1bd 0520 1dbe 38fc 90be
00000110: b158 67bd 3c9c 003d e44e 49be 8afa 9c3d
00000120: f8ea 49be f09b 14be c53a 023e f21d 073e
00000130: 89aa 053d 6b44 b4bd 6694 0bbc 83de 04bd
00000140: cf91 05be 70e8 9a3d f89a 2d3c 68ed ce3d
00000150: 80ce 043e 468d 1fbe 493a a63d 62c0 18bd
00000160: d28f 79bc d140 d43d fbbd d63d e7bf 6fbd
00000170: 5070 143d 9c18 68bd be05 023e 3a58 5c3d
00000180: f844 a03d 57aa 49be 6207 aebd 5c4a db3b
00000190: 73fa 9dbd 030e 4e3d 8d20 0fbc bb04 2c3d
000001a0: bfd1 7e3d b855 b9bd 130d 94bc 6148 a9bd
000001b0: 27e1 8fbd 4d1d c3bd 4f65 7f3d 0e85 d83d
000001c0: f68e 86bc ec9e 7a3c 9336 d4bd 9aae 7e3d
000001d0: bf1b 263e ade7 1fbb e901 57bc 311b 45be
000001e0: f2b1 f9bc c012 523e 12ad 6fbc f5dd a93a
000001f0: d6f4 f7bd 8805 423e 6d40 003e 7e96 66be
00000200: c2d4 0fbe 1db7 6dbe a20d debc 8d35 df3c
00000210: 22f4 03be ddab 82bd d269 e53c 3da9 b7bd
00000220: d3e0 b53d 57f5 afbd 18cb 90bb df68 073e
00000230: c887 043d 0d95 ba3d 7029 0b3e 27ff 5b3d
00000240: 5efa 5b3e fcee 233e ebef d93c 1357 1d3d
00000250: b0a2 093e 326f 903d ae21 843d e8cc 52be
00000260: 3de3 10be 5350 ed3d 86a8 dbbc d669 5a3d
00000270: a85a e9bd 810e 94ba c2be 3ebd f9ad cabd
00000280: 41c2 a7bc 6ae2 19bc c754 86bd f56f ebbd
00000290: d842 da3d c7f6 77ba c7ea db3d ffe7 a23d
000002a0: 1c52 25bd 61d0 31bc fcfe d2ba ac00 04be
000002b0: d14e 47be f970 05be 3e87 f23c d837 e83d
000002c0: bbc3 a5bd f5e9 583e 6f89 c2bc 1581 6b3d
000002d0: c97c c6bc a02e 03bd 3194 023d 769a 9bbd
000002e0: f65d 17bd c401 54bd 3b3c 9bbd 6215 5c3e
000002f0: 1655 75bd 32ec 763d f008 2d3e a8d7 063d
00000300: 41a4 a7bd 6a23 4abc 8530 373d dae2 b5ba
00000310: c11e cf3d 2c47 76bd cabf f3bd 0e98 9f3d
00000320: 37ce b5bb 3bd4 893d 82fd a83d 3e1e 46bd
00000330: 5639 59bc 2e64 4a3d 1e0a 0c3e d0da f53d
00000340: a4d4 c8bd fa71 863d 98c6 33be 3c12 59bd
00000350: b3fb c1bc f3c2 f1bc 23e7 ecbc b3fb 673d
00000360: 57c3 3f3d 7fae a2bc d332 babd d0fb 49bd
00000370: 7b35 c5bc 4865 de3a 240a 923b e6ae 883d
00000380: bf56 ea3c 6636 bcbc bbef ae3d 0675 183e
00000390: e35f 383e f909 103d 97e3 583e 79a4 a5bd
000003a0: 6edf 8e3c 8b2a ed3c 5b15 72bc 133b 59bd
000003b0: 1c09 493d 9970 0e3e 7d32 b9bd c963 27be
000003c0: 1725 e2bc b4ca 573d a8e0 40bc 30a5 dabb
000003d0: 1897 953d 09f3 45be 2d15 b5bc 6125 6a3d
000003e0: b76a 4abe 4ef1 02bd 5f2b 0cbe 695e 56be
000003f0: 6d4c ab3c ce80 0a3c ed9a 3bbd 75f4 c4bd

network_body._body_endoder.seq_layers.2.bias f4 [128]
-0.0077431607 0.0018627006 -0.014115503 -0.022970479 0.017488142 -0.020398665 -0.034139063 -0.03776312
-0.007490357 -0.014034128 -0.01549954 -0.011064428 0.0011198461 -0.010150913 -0.0024884287 0.0055960687
-0.009760586 -0.031610362 -0.005394726 -0.0037217974 -0.05965843 -0.015053072 0.00036750175 0.009578613
0.015901983 0.019996814 0.0083338665 -0.026399368 -0.00018850014 0.003760286 -0.012318605 -0.022380866
-0.022569088 -0.012631367 -0.015091669 0.017348643 0.031051422 -0.012223212 -0.035173766 -0.02284119
-0.040038977 0.011067297 0.00067921146 -0.029079627 -0.036696915 -0.006328206 -0.0023786186 0.0074370243
-0.0008803356 -0.010072328 0.0438844 -0.014002292 -0.012418365 0.014008982 -0.0115035735 -0.008722015
0.020029223 -0.0045889043 0.014816472 -0.03703123 -0.024100985 -0.0033405854 -0.027112683 7.448691e-05
-0.013700213 -0.012015519 -0.011926148 -0.015060963 -0.012558218 0.03399864 -0.041926634 0.015451
0.020286454 0.00088034896 -0.01576067 -0.023153957 -0.018092507 0.016723087 -0.02237846 -0.04496454
0.049411494 -0.015530068 -0.0065580155 -0.009973301 -0.016285144 0.012235662 -0.035624903 -0.0070298086
-0.020090826 -0.033216022 -0.015953092 -0.00662337 -0.010851688 0.0032773581 0.006886837 -0.03292725
0.005622701 -0.03308639 -0.0028687608 -0.014908022 0.006519461 -0.013833598 -0.028834512 0.011316184
-0.018470272 0.0631944 -0.033689987 0.01153101 0.01477085 -0.0021368058 0.013255893 -0.029404208
-0.02048253 0.017367054 0.0028295727 -0.026587058 -0.0042846613 -0.03206327 -0.037965804 -0.044044726
-0.028126016 -0.044863407 0.029795159 -0.01634094 -0.005202271 -0.016416663 -0.010618272 -0.008273699
00000000: 57ba fdbb dc25 f43a b644 67bc 962c bcbc
00000010: 4b43 8f3c 1a1b a7bc 67d5 0bbd 80ad 1abd
00000020: ab71 f5bb 66ef 65bc c8f1 7dbc 9347 35bc
00000030: cdc7 923a 0450 26bc e814 23bb 3a5f b73b
00000040: ddea 1fbc de79 01bd 3ec6 b0bb 66e9 73bb
00000050: 665c 74bd 29a1 76bc 40ad c039 9def 1c3c
00000060: e044 823c 5cd0 a33c c58a 083c 7d43 d8bc
00000070: 1fa8 45b9 216f 763b f9d3 49bc 1458 b7bc
00000080: cfe2 b8bc cbf3 4ebc 0c43 77bc be1e 8e3c
00000090: 8d5f fe3c de43 48bc 5e12 10bd 731d bbbc
000000a0: e9ff 23bd 9c53 353c 1c0d 323a 6638 eebc
000000b0: 814f 16bd d75c cfbb 99e2 1bbb 48b2 f33b
000000c0: 52c6 66ba 6806 25bc 21c0 333d df69 65bc
000000d0: 6676 4bbc ee85 653c 7c79 3cbc c8e6 0ebc
000000e0: 5314 a43c 855e 96bb cac0 723c 0fae 17bd
000000f0: 6e6f c5bc b9ed 5abb 6b1b debc db35 9c38
00000100: dc76 60bc bddc 44bc e465 43bc 42c2 76bc
00000110: fcc0 4dbc 2842 0b3d 43bb 2bbd 3126 7d3c
00000120: c72f a63c 38c7 663a 851c 81bc 5ead bdbc
00000130: bd36 94bc dbfe 883c 0853 b7bc bd2c 38bd
00000140: b563 4a3d d471 7ebc 9fe4 d6bb 0e67 23bc
00000150: 6c68 85bc 1678 483c 6beb 11bd 4f5a e6bb
00000160: 8495 a4bc 860d 08bd 0fb0 82bc db08 d9bb
00000170: 47cb 31bc f2c8 563b faaa e13b b9de 06bd
00000180: a23e b83b 9885 07bd d201 3cbb c740 74bc
00000190: 34a1 d53b 51a6 62bc 5b36 ecbc 8467 393c
000001a0: f84e 97bc 116c 813d 83fe 09bd 90ec 3c3c
000001b0: 6f01 723c a709 0cbb 3f2f 593c 18e1 f0bc
000001c0: fbca a7bc 5a45 8e3c 5a70 393b 1acd d9bc
000001d0: 5866 8cbb c754 03bd 0882 1bbd 3e68 34bd
000001e0: 8868 e6bc b1c2 37bd fa14 f43c 6fdd 85bc
000001f0: d077 aabb 3d7c 86bc 43f8 2dbc 698e 07bc

action_model._continuous_distribution.log_sigma f4 [1, 2]
-2.8748643 -2.9547682
00000000: c7fd 37c0 ec1a 3dc0

action_model._continuous_distribution.mu.weight f4 [2, 128]
0.1176828 -0.023747602 -0.031855527 0.04254582 -0.040001657 0.027607141 0.019003816 0.048177145
-0.022863409 -0.05996623 0.026237644 0.0169908 0.1586737 -0.010078201 -0.004476055 -0.054354902
-0.032232687 0.041896295 -0.04418371 0.090308994 0.060566906 -0.0056693647 0.041842535 -0.021954173
0.04188924 0.07197868 -0.019971292 0.023214668 -0.034915242 -0.043022566 -0.14645159 -0.015757065
0.073182814 0.056020357 0.034025915 -0.05395614 0.08311707 0.05015703 0.0012302325 -0.03066556
0.009986435 0.006444207 -0.052551366 -0.009727029 0.058206532 0.05583087 0.0357123 0.028783696
0.07566041 0.014153721 0.07658531 0.038769126 -0.03763125 -0.11970703 -0.025298776 -0.06655356
-0.1028846 0.07238003 0.09285529 0.021789188 -0.031039804 -0.035137773 0.02520411 -0.095667124
-0.06536036 -0.10410273 0.025276251 0.05543219 -0.02630365 0.10132042 0.042982996 -0.12065277
-0.16149603 0.05891331 -0.04168753 -0.0108025605 0.080058165 -0.022674521 -0.031674318 0.0002853905
0.12899429 0.06643942 -0.03608926 -0.027693719 -0.060172085 0.063070565 -0.028406674 0.014462007
-0.013432089 -0.0013524476 -0.01641175 0.01461037 0.06537007 -0.08930787 -0.0015790474 -0.008220393
-0.024191223 -0.04933179 -0.053316806 0.065086 -0.110039756 0.097838804 0.068563856 0.10436879
-0.011466697 -0.08367971 0.016754104 0.013034577 0.021463087 0.010526567 0.037639007 0.025202775
0.0128771365 0.1236874 -0.07724434 0.014694491 -0.12906432 0.040972326 -0.047278 0.004287321
0.12717354 0.042238403 -0.08406075 0.000412744 -0.02957298 -0.06731584 0.06808233 0.03520542
-0.07842234 -0.058283992 0.049920514 -0.02478767 0.09430733 -0.012770124 0.030532517 0.019183112
0.06594901 0.02437465 -0.015840925 -0.06338787 0.05530712 -0.02913346 0.0017661776 -0.040252756
0.03249313 0.051479284 0.0754626 -0.014462193 0.024401747 0.04724369 -0.11147173 0.09896014
0.062284842 0.14680447 -0.07714907 -0.041007567 -0.06168793 -0.04681106 -0.009829838 0.023885801
0.0040160855 0.1172695 0.054791834 -0.0026484001 -0.092125595 -0.0225161 0.0005184745 -0.022822559
-0.007931335 0.09667649 0.023653138 -0.031919565 -0.006095264 -0.04009754 0.06242039 0.053549502
0.07928899 0.07053199 0.1058726 0.012612386 -0.023094008 0.056849446 -0.031300157 0.0011455372
0.052387938 -0.06046882 -0.06186066 -0.01888712 -0.04259792 0.104992956 -0.030386183 0.06483003
0.078174464 0.00054443785 -0.0057670977 0.035503466 -0.0074775666 -0.120782696 -0.018694257 -0.13905787
0.002352091 0.0686408 -0.052517686 -0.028014729 0.05654622 -0.12279638 -0.0176268 0.0011874139
0.0067142523 -0.065570034 -0.008159437 -0.07317887 0.056880593 0.04413046 -0.030031238 0.122864686
0.029502543 0.00010512551 -0.02748841 -0.07873767 -0.10214769 -0.052933898 0.090796985 0.0041957395
0.031301655 0.017560495 0.044944175 0.04708606 -0.0031626078 0.011937459 0.08606289 -0.048643325
-0.016074177 0.09922028 0.0064746775 -0.061113823 -0.050552927 -0.09352833 0.13712516 0.022759335
-0.06054893 0.052539833 0.0067863744 0.056821015 0.11818309 0.02901724 -0.008911414 -0.014971438
-0.0033464932 0.09223716 -0.053360518 -0.0007301409 -0.10525489 0.0005488051 0.004985838 -0.12390847
00000000: ae03 f13d 558a c2bc f17a 02bd 8744 2e3d
00000010: c7d8 23bd 5f28 e23c e4ad 9b3c 6655 453d
00000020: 0b4c bbbc 269f 75bd 54f0 d63c 4a30 8b3c
00000030: 5c7b 223e 0a1f 25bc dfab 92bb 3fa3 5ebd
00000040: 6c06 04bd 739b 2b3d faf9 34bd ecf3 b83d
00000050: 0115 783d 14c6 b9bb 1463 2b3d 3dd9 b3bc
00000060: 0d94 2b3d 8f69 933d d69a a3bc b02c be3c
00000070: 4903 0fbd 6e38 30bd 68f7 15be f614 81bc
00000080: dfe0 953d 9a75 653d c25e 0b3d 1d01 5dbd
00000090: 4839 aa3d 7571 4d3d c13f a13a 5736 fbbc
000000a0: 259e 233c ed29 d33b 1a40 57bd 1e5e 1fbc
000000b0: f969 6e3d e9ae 643d 1047 123d c9cb eb3c
000000c0: d8f3 9a3d 02e5 673c c2d8 9c3d 60cc 1e3d
000000d0: 3a23 1abd f628 f5bd 613f cfbc 3c4d 88bd
000000e0: 29b5 d2bd fb3b 943d ea2a be3d 3d7f b23c
000000f0: 3047 febc a0ec 0fbd da78 ce3c 20ed c3bd
00000100: a7db 85bd d033 d5bd 2410 cf3c dd0c 633d
00000110: c17a d7bc 1581 cf3d f00e 303d cd18 f7bd
00000120: 375f 25be 154f 713d 8bc0 2abd 39fd 30bc
00000130: 89f5 a33d ebbf b9bc eebc 01bd 77a0 9539
00000140: 1417 043e 6411 883d 55d2 13bd f0dd e2bc
00000150: 0177 76bd 242b 813d 1db5 e8bc 0ef2 6c3c
00000160: 4412 5cbc 9c44 b1ba ef71 86bc 5560 6f3c
00000170: bee0 853d 0be7 b6bd 0af8 ceba d4ae 06bc
00000180: ac2c c6bc 2210 4abd b962 5abd cf4b 853d
00000190: 865c e1bd b65f c83d 356b 8c3d 4ebf d53d
000001a0: d0de 3bbc 4560 abbd e73f 893c fa8e 553c
000001b0: 5bd3 af3c 9f77 2c3c 5c2b 1a3d 0d76 ce3c
000001c0: a0fa 523c d24f fd3d 4832 9ebd 2ac1 703c
000001d0: 7029 04be 99d2 273d 93a6 41bd a87c 8c3b
000001e0: c839 023e 2d02 2d3d 0b28 acbd 9065 d839
000001f0: 0943 f2bc e3dc 89bd c06e 8b3d 8f33 103d
00000200: e49b a0bd 32bb 6ebd 7479 4c3d 830f cbbc
00000210: 3424 c13d c839 51bc 541f fa3c e725 9d3c
00000220: 4610 873d 59ad c73c d4c4 81bc 80d1 81bd
00000230: b889 623d 4ba9 eebc 167f e73a 13e0 24bd
00000240: 8417 053d f1db 523d 238c 9a3d d5f2 6cbc
00000250: 2ce6 c73c 9982 413d 4a4b e4bd 9dab ca3d
00000260: 641e 7f3d e953 163e 5500 9ebd 8df7 27bd
00000270: 7cac 7cbd f4bc 3fbd 540d 21bc 28ac c33c
00000280: 5e99 833b fe2a f03d 676d 603d c890 2dbb
00000290: 58ac bcbd af73 b8bc 3cea 073a 60f6 babc
000002a0: 6ef2 01bc 53fe c53d 3ac4 c13c 17be 02bd
000002b0: c8ba c7bb 513d 24bd 86ac 7f3d b956 5b3d
000002c0: 4462 a23d 1373 903d bcd3 d83d 2ea4 4e3c
000002d0: a52f bdbc f7da 683d 9834 00bd da25 963a
000002e0: bc94 563d 27ae 77bd 9a61 7dbd 29b9 9abc
000002f0: 287b 2ebd 8c06 d73d 72ec f8bc 9bc5 843d
00000300: ef19 a03d 9bb8 0e3a ecf9 bcbb 156c 113d
00000310: 6006 f5bb eb5c f7bd b324 99bc 3065 0ebe
00000320: 8a25 1a3b 8c93 8c3d c91c 57bd 257f e5bc
00000330: 029d 673d ab7c fbbd 1466 90bc 00a3 9b3a
00000340: 3b03 dc3b 9549 86bd 29af 05bc cede 95bd
00000350: a0fb 683d 24c2 343d 1204 f6bc 7ba0 fb3d
00000360: 51af f13c d476 dc38 602f e1bc 3741 a1bd
00000370: cf32 d1bd 37d1 58bd c5f3 b93d 6a7c 893b
00000380: 2a36 003d 07db 8f3c 6217 383d 50dd 403d
00000390: c143 4fbb 5595 433c be41 b03d 393e 47bd
000003a0: fead 83bc 0134 cb3d 8829 d43b 7d52 7abd
000003b0: 9610 4fbd c88b bfbd 8a6a 0c3e c971 ba3c
000003c0: 2802 78bd 0234 573d 3c60 de3b 27bd 683d
000003d0: fa09 f23d 90b5 ed3c 2e01 12bc c34a 75bc
000003e0: d750 5bbb d6e6 bc3d 8f90 5abd ed66 3fba
000003f0: e08f d7bd b0dd 0f3a 3e60 a33b b9c3 fdbd

action_model._continuous_distribution.mu.bias f4 [2]
-0.008754825 -0.0061769965
00000000: 6670 0fbc 6768 cabb
