results/test_environment/VacuumCleaner/VacuumCleaner-1600.pt (torch, 590643 bytes, 44 tensors)

network_body._body_endoder.seq_layers.0.weight f4 [128, 27]
000000 14 98 ea bd 9d b1 1b 3d 79 44 64 3e e3 fd 9c 3e
       -0.11454788 0.038011182 0.22291745 0.3066245
000010 39 0a a2 be 40 0f 34 3e ab ac e7 3d c7 98 a9 be
       -0.31648424 0.17583942 0.11312231 -0.33124372
000020 0c 4f d0 bd d2 b4 14 3d 14 1d 27 3e 05 23 e3 3d
       -0.10171327 0.036305256 0.16319686 0.11090664
000030 7f 38 63 bd e5 1b 8e 3e 50 be b5 3e 97 60 65 3d
       -0.0554738 0.27755657 0.3549676 0.05600032
000040 1d 60 9f bd e2 c1 05 be 9e bb 3c be d3 dd b6 be
       -0.07782004 -0.13062242 -0.18430945 -0.35716113
000050 63 52 00 be 44 0a 16 bd b8 85 9a 3d 9f 54 8b 3e
       -0.12531428 -0.036630884 0.07545036 0.27212998
000060 cc bf fe 3d 87 dc 50 bb 39 54 17 3e e4 38 dd 3d
       0.12438926 -0.0031869726 0.14778222 0.10801867
000070 2a cb 58 be 65 5d 8d bc e3 c1 38 be 9f ea a4 3c
       -0.21171251 -0.017256448 -0.18042712 0.020131407
000080 8b cf c9 bc 9c 47 a2 3e c3 13 10 be 35 d1 21 bd
       -0.024635097 0.3169526 -0.14070038 -0.039506156
000090 ee 28 37 3e 6a 01 22 3e d8 a0 07 3e 60 48 ba bd
       0.17886707 0.15820852 0.13244951 -0.09095836
0000a0 ab 53 be bd 22 ec 7b be b3 08 35 be 2f c9 fd bd
       -0.09293302 -0.24601796 -0.176791 -0.12391888
0000b0 4d ef c2 bb c1 fd d3 3c cd 33 02 bc 2f a4 73 3e
       -0.005948937 0.025877835 -0.007946921 0.237931
0000c0 da e6 41 3b c8 87 77 be 50 ca 60 3e f9 ef 62 be
       0.002958706 -0.2417289 0.21952176 -0.22161855
0000d0 4a f1 07 3f f8 43 f9 bd 04 35 44 be aa 25 18 3e
       0.5310255 -0.12171167 -0.19160849 0.14858118
0000e0 d4 9a 20 be 9a a8 56 3e 23 3c 89 3e f0 05 cf 3d
       -0.15684062 0.20962754 0.26803693 0.10108554
0000f0 67 4f e7 3c c0 81 da 3d bf 34 a9 3d 92 bc 19 bd
       0.028236104 0.10669279 0.08262014 -0.03753335
000100 a1 4c 52 be bd ba 6c be a2 e4 ee 3e 36 87 11 3d
       -0.20537044 -0.2311811 0.46658808 0.035529338
000110 b6 d9 d2 bd 14 bb 4b be 71 36 bc be 3a f5 bb be
       -0.10295431 -0.19895583 -0.36760285 -0.3671053
000120 cf 79 c1 bd 3a 7b 05 bc 45 aa 5e 3d 55 9f 8c bd
       -0.09447061 -0.008147055 0.0543616 -0.06866328
000130 30 95 8b bd a8 66 11 be 34 e0 f7 be 95 64 bb bd
       -0.06815565 -0.14199317 -0.4841324 -0.09150044
000140 8e 54 56 bb 6b e1 8c bd 83 aa 6b 3e af 2f 28 3a
       -0.0032704207 -0.068789326 0.23014264 0.0006415797
000150 ed 18 ac bd 96 d2 c4 bd 0a 29 92 3d 22 05 fc 3d
       -0.08403192 -0.096104786 0.07136734 0.123056665
000160 df 1e 85 3d be 5b a8 bd bc 28 7b bd 33 f6 c0 be
       0.06500029 -0.082206234 -0.061318144 -0.37687835
000170 cb ba 62 be 8b fd 98 be a7 72 86 bd e5 a8 06 be
       -0.22141568 -0.29880938 -0.06564837 -0.13150366
000180 64 c4 08 39 58 24 dc bd 5d 6c 2b be dc 7d 71 3d
       0.00013043132 -0.107491195 -0.16740556 0.05895792
000190 81 07 43 3e 61 d1 04 3e e7 ad 6f be aa 9b 6d be
       0.19045831 0.12970497 -0.23406182 -0.23203912
0001a0 06 2f 48 bd 97 07 51 bc 98 3c f5 b8 18 b5 92 3d
       -0.04887297 -0.012758157 -0.00011693797 0.07163447
0001b0 0a a1 64 3e 8a 34 eb bd d9 b4 6c bd 83 f7 91 3d
       0.22327057 -0.114846304 -0.057789657 0.07127287
0001c0 98 48 d5 3d 06 eb 86 3e 67 dc ad 3c f7 15 22 3b
       0.10414237 0.26351184 0.02122326 0.002473233
0001d0 0d 34 88 bd 44 dc 92 3e f3 09 d4 be 1f cd 98 be
       -0.06650553 0.28683674 -0.4141384 -0.29843995
0001e0 cf 0e 02 3e c7 2c 4d 3e 8b 36 15 be aa ec 46 be
       0.12700962 0.20036612 -0.14571588 -0.19426218
0001f0 5a c0 32 bd e1 8f 22 3e 5f ba c8 bd 36 a5 d3 be
       -0.043640472 0.15875198 -0.098011725 -0.41336983
000200 e5 7e 8f 3c b8 2a 92 3d fe e3 bf bd fd 27 68 be
       0.017516563 0.07137054 -0.09369658 -0.22671504
000210 85 d1 69 3e 11 9e 9d be 70 1b 8f 3d 8f af b6 bc
       0.22833832 -0.30784658 0.06987655 -0.02230051
000220 af d3 73 be d0 98 42 be 4b 6c cf be de c0 d4 3d
       -0.2381122 -0.19003606 -0.40512308 0.10388349
000230 26 81 09 3e 4f f3 be bd cb 72 10 be bc 26 3e 3e
       0.13428172 -0.09323751 -0.1410629 0.18569463
000240 c4 c9 8d 3d a4 74 f4 be 73 4f 94 3c 11 3b bc bd
       0.06923249 -0.4774524 0.01810429 -0.091909535
000250 65 ea 66 be 3e 26 c7 3b 55 21 74 3e 66 a7 d2 3b
       -0.22550352 0.006077557 0.2384084 0.006428647
000260 d9 06 f8 3d f0 67 46 3e 1d 6c 1d 3e f7 68 07 3e
       0.12110681 0.19375587 0.15373273 0.13223635
000270 03 ba 05 bc 52 42 2a 3b 15 e3 ba 3d 3a cc 91 3e
       -0.008162024 0.0025979471 0.09125344 0.28476125
000280 cf b1 75 be 70 94 ef 3d c1 9d 90 3e a8 b1 d6 3e
       -0.2399361 0.11698234 0.28245357 0.41932416
000290 7f f1 a2 be 13 b8 a3 3e 78 02 11 be 98 c8 9c be
       -0.31824872 0.31976375 -0.14161098 -0.3062179
0002a0 eb a1 2b 3e a4 ee 9e 3c d0 82 c0 3d b9 68 a8 3d
       0.16760986 0.019400902 0.093999505 0.08223099
0002b0 d6 3a fb 3d d2 4a 46 3d d6 61 7a 3e ea 14 88 be
       0.122670814 0.048411198 0.24451384 -0.26578456
0002c0 b2 17 20 be da 60 a7 bc 0e 91 5f 3e 00 18 1e 3d
       -0.15634039 -0.020431925 0.21832678 0.038597107
0002d0 f4 d7 d0 3d 2b 18 f1 3d 13 2a 87 be 75 06 ea bd
       0.1019744 0.11772188 -0.26399288 -0.11427013
0002e0 03 dc 5e bd 1b 3e 20 be 88 ad 9e bd 3a 62 a0 be
       -0.05440904 -0.15648691 -0.07747942 -0.3132494
0002f0 35 72 8b 3e 15 58 bc 3c 63 c6 7c 3e b2 ee 36 be
       0.2723557 0.02299122 0.24685054 -0.17864493
000300 4e 74 33 3e 11 4d 00 be 10 c9 42 be b5 d6 72 3e
       0.17524835 -0.12529399 -0.19022012 0.23714717
000310 ec b8 2f be 83 1c 46 be b0 25 87 be 71 5f 9e 3c
       -0.17160386 -0.19346814 -0.2639594 0.01933262
000320 58 7f 12 3d 26 36 5c be 67 f4 73 3d fc b9 4e bd
       0.035765976 -0.21505031 0.059559252 -0.050470337
000330 6f 98 63 3e cc 08 9a bd 62 81 99 3e a3 98 e8 be
       0.22226118 -0.07521209 0.29981524 -0.45428953
000340 60 c8 1d 3e 56 ae 64 3b 18 9d 6d 3c 30 b3 c9 3e
       0.15408468 0.0034893951 0.014502786 0.39394522
000350 85 cd a9 bd d6 37 4a 3d 16 ca 43 3e 2c d3 71 3a
       -0.08291153 0.049369656 0.19120058 0.00092248875
000360 54 ca a6 be 91 a3 4a 3e 17 83 0d 3e f8 e8 fa be
       -0.3257624 0.19788958 0.13819538 -0.49005866
000370 4e 15 98 3e 9f 51 3f ba df 5d 51 3e 5e cf 8d 3d
       0.29703754 -0.0007298234 0.20445965 0.06924318
000380 34 06 66 bd 59 d6 22 bd 8b 36 38 bd 79 65 71 3e
       -0.05615826 -0.0397552 -0.04497389 0.23573865
000390 23 2b e1 3e c7 bf c0 bd 95 54 da bd 4e 68 09 3f
       0.43978223 -0.094115786 -0.10660664 0.5367478
0003a0 35 5e a4 be da b8 78 3e 51 c0 0b bc 7c 00 16 be
       -0.32103124 0.24289265 -0.0085297385 -0.14648622
0003b0 70 d4 dc bb 36 76 e3 bd 96 fd 2e be e8 b1 a2 be
       -0.0067391917 -0.11106531 -0.17088923 -0.31776357
0003c0 40 73 9a 3d 6a b6 b0 3e f5 69 88 bd a4 6f 11 3c
       0.075415134 0.3451417 -0.06660835 0.008876715
0003d0 d7 71 3f 3e f6 ae ba 3c bd c5 d8 3e e1 b3 9e bd
       0.1869577 0.022788506 0.42338362 -0.07749153
0003e0 7d fe 0a be 36 ff 83 3d 13 8d af be 2c 8d f0 3d
       -0.13573642 0.06445162 -0.3428732 0.117456764
0003f0 db f6 28 be 86 69 37 3e b7 c1 e5 3c 11 d5 de be
       -0.16500418 0.17911348 0.028046472 -0.43521932

network_body._body_endoder.seq_layers.0.bias f4 [128]
000000 19 6e 89 bc c9 6a 8b 3a 5a 6d 94 ba 8f 62 a5 3c
       -0.016776131 0.0010636683 -0.0011324093 0.020188598
000010 69 2d 05 3b dc a0 c2 3b dc 0e d6 bb b9 28 f7 3b
       0.0020321256 0.005939586 -0.006532533 0.0075426963
000020 41 29 f6 ba bf 90 99 3c 59 26 35 3c 33 a0 d8 bb
       -0.0018780605 0.018745778 0.011056506 -0.006610894
000030 08 69 af ba 89 22 b2 ba 95 f9 a4 3b 6c 92 d9 3c
       -0.0013382742 -0.0013590615 0.0050346353 0.026559077
000040 41 9a f8 bb c6 45 de bc ac 62 b1 ba 58 d0 46 3c
       -0.007586748 -0.02713288 -0.0013533435 0.012134634
000050 73 b4 85 bc 91 58 ae 3b 6d dd 86 3c 22 de c8 bc
       -0.016321396 0.0053206165 0.016463006 -0.024519984
000060 7d 43 12 3c 23 08 f1 3b d3 10 49 bc 79 33 6a 3c
       0.008927223 0.0073557063 -0.012272078 0.014294499
000070 c5 ec 40 3b 77 9f a6 bc 2a cb bb bc cd e9 e7 3b
       0.0029438 -0.02033971 -0.022924025 0.007077432
000080 99 e8 91 3c ed 6a 78 bb 84 c9 69 bb fc 8c 18 3c
       0.017811107 -0.003790553 -0.0035673091 0.009310957
000090 71 82 3e bc 1b bd a8 bc 8c f0 2f bb b0 ea 83 3b
       -0.011627779 -0.020597985 -0.0026846258 0.0040257797
0000a0 bb cf 21 bc de 6d 1a 3d 79 33 26 3c 12 4f c8 3c
       -0.009876187 0.037702434 0.010144108 0.024451766
0000b0 95 f4 34 3c d5 82 5b bb 9b 4e 6a bc ff 3c 3f ba
       0.011044641 -0.003349473 -0.014300968 -0.0007295161
0000c0 31 32 5b 3c c1 96 26 3b c0 45 d2 bc ce 21 3f bb
       0.013378666 0.0025419446 -0.025668025 -0.0029164436
0000d0 4e ae 6f 3b 87 fa e4 3b 05 41 e0 3b 5d 19 11 3c
       0.00365724 0.006987873 0.0068436884 0.008856145
0000e0 a9 09 89 bc cb b0 2b bc 3e 35 6a 3c 12 c9 94 3c
       -0.01672824 -0.010479162 0.0142949205 0.018162284
0000f0 9b ae b9 bc 78 b3 9a bb 61 e1 db 3c 2d 6f 41 3c
       -0.022666266 -0.0047211014 0.026840867 0.0118062915
000100 4c 30 d1 bb 08 23 7c 39 bb 65 ab 3c 94 96 05 3c
       -0.0063839313 0.00024045643 0.020922532 0.008153576
000110 03 0a 9b bc 1c 42 ac bb c0 ee 09 3d fd 09 87 3c
       -0.018925672 -0.0052569043 0.033674955 0.016484255
000120 c8 f6 02 3c dd 41 fd 3a 6f ab fa 3c 14 5f 8f 3a
       0.007993408 0.0019321997 0.030599324 0.001093837
000130 29 c1 aa bb 53 a1 6d 3b 02 29 b2 3c 1d e2 92 bc
       -0.0052110148 0.0036259487 0.02174807 -0.017930085
000140 8f d3 13 bc 0d 54 90 bc 0c 9d f8 3b e5 a6 3c 3c
       -0.0090226075 -0.017618204 0.007587081 0.0115144
000150 94 89 70 3d a3 d7 96 bc 69 15 91 3c d6 d8 76 bc
       0.058724955 -0.01841337 0.017710404 -0.015066346
000160 7b 0b 80 bc 28 e2 25 3c 64 d3 49 bc 9c b9 77 bc
       -0.015630474 0.010124721 -0.012318466 -0.015119936
000170 f8 71 48 3c 7e e2 5d bc b8 4d a9 3c f2 3c 87 ba
       0.0122342035 -0.0135427695 0.020666942 -0.0010317846
000180 a1 a7 33 bc 12 02 a8 bc 77 51 48 bb 7c 70 33 3c
       -0.010965259 -0.0205088 -0.0030566135 0.010952111
000190 ab bd 5e 3c 80 1b d7 bb 29 88 a1 3c ae fc ea bc
       0.013595025 -0.0065645576 0.019718247 -0.02868494
0001a0 72 20 c3 bc ac 88 d2 bb 85 f7 40 3b 95 39 36 3c
       -0.023819182 -0.006424984 0.0029444408 0.011122127
0001b0 9e f2 0e 3c 6c d7 f9 3b 99 77 38 bb e8 ad ff 3c
       0.008724837 0.0076245572 -0.0028147458 0.031210855
0001c0 ec 4b 3a 3c eb 0f 0f 3d 8e d9 83 bb 5b 38 6a bc
       0.01137064 0.03492729 -0.0040237373 -0.014295663
0001d0 ca 6f 5a 3c f0 af 23 3c a3 3e aa 3c b0 20 97 bc
       0.013332317 0.009990677 0.02078182 -0.018448204
0001e0 16 ec 3c bc c7 a8 6a 3b 80 be 97 bc b3 29 09 3c
       -0.011530897 0.0035806166 -0.018523455 0.008371758
0001f0 73 f7 97 bc fd fa 8a 3c 7e 58 8b 3c 6d a6 51 bc
       -0.01855061 0.016965384 0.01700997 -0.012796027

network_body._body_endoder.seq_layers.2.weight f4 [128, 128]
000000 45 d2 64 3c 68 69 a6 bd ba 63 01 be fe e5 02 3d
       0.013966148 -0.081255734 -0.12635699 0.03195762
000010 b7 0c 45 3e 61 01 f2 bc 0f b7 0e bd 22 4e 3d 3d
       0.19243132 -0.029541673 -0.034842547 0.04621709
000020 8f 10 02 be 51 1d 9b 3c e5 e2 21 bc d8 18 f7 bd
       -0.12701629 0.018934878 -0.009880756 -0.120652854
000030 97 a5 ce bd c0 a9 e2 bc c2 53 ea bd a0 06 12 3e
       -0.100901775 -0.027668834 -0.11441757 0.1426034
000040 b7 32 1d be e9 11 56 bd b3 26 eb bd 38 87 fa bc
       -0.15351377 -0.052263174 -0.11481991 -0.030582055
000050 06 e7 bb bd 8a 53 89 bc f3 8b 41 bd f6 73 cf 3d
       -0.091749236 -0.016763467 -0.047252607 0.1012954
000060 cc 7b 26 bb 5d a5 87 bd 42 c9 9d 3d 44 d8 67 3c
       -0.0025403379 -0.066233374 0.077044025 0.014150683
000070 19 9d 9e 3d 93 73 1b be e5 9f b8 bd f0 a3 90 bd
       0.07744808 -0.15180807 -0.090148725 -0.070625186
000080 02 dd 4a bd b5 f8 ae 3d d7 23 85 3c 41 a3 fb bd
       -0.049527176 0.08543531 0.016252441 -0.122869976
000090 d2 a1 9e bd 7c b0 c3 bd a9 c8 50 bd c0 25 2f bd
       -0.077457085 -0.09555146 -0.050972614 -0.04276061
0000a0 6c 74 d0 bd 47 fc 3b be 3e 1d ac bd f6 87 8f 3d
       -0.10178456 -0.18357955 -0.08404015 0.07008354
0000b0 72 d2 47 3e ce d3 5b 3e 97 92 bc bd 05 c8 8d bb
       0.19513872 0.21467516 -0.09207647 -0.0043268227
0000c0 40 64 55 bd 18 a1 01 bb 65 c8 b6 3d 4c bb cb bc
       -0.05209756 -0.0019779857 0.08924941 -0.024869584
0000d0 e3 4c 07 be 05 6e 0f 3c aa 77 c4 ba 16 0b 14 bd
       -0.13212924 0.008754258 -0.0014989276 -0.036143385
0000e0 df 0d ad bd 4d 7c 66 3d 67 71 08 3e c8 7f 91 bd
       -0.08449911 0.056270886 0.1332451 -0.071044505
0000f0 a8 45 1b 3d bd 06 45 bc 56 55 08 3e 59 8e b2 3d
       0.037908226 -0.012025532 0.13313803 0.08718557
000100 07 5c 0e 3d cf df 05 3e 04 d1 6b bd c7 a8 0f bc
       0.034755733 0.13073657 -0.05757238 -0.008768267
000110 80 0a df bd d1 f1 31 be a0 f0 7a bd ce 62 2b bd
       -0.108906746 -0.17377402 -0.061264634 -0.041842274
000120 59 e2 8f be 05 3c 1c be 08 c3 09 bd 5f dd d3 bd
       -0.28102377 -0.1525727 -0.033633262 -0.103449576
000130 c8 1c 0d 3d 65 ab d8 3c 9c 6d c8 bb e9 73 c3 bd
       0.034451276 0.026448915 -0.006116582 -0.095435925
000140 2d 03 01 bd dc 35 0f 3d f6 94 8f bd 17 d5 83 bd
       -0.03149717 0.034963474 -0.07010834 -0.06437128
000150 18 d5 2a bc f8 86 8d bc 9e 47 b9 bd 42 7d 7b bd
       -0.010426782 -0.017276272 -0.09046863 -0.061398752
000160 14 ad 28 3d e0 e5 ad 3c e0 11 24 be c5 9c f4 3d
       0.041180685 0.021227777 -0.16022444 0.11943964
000170 5d 3f 19 3e 8b 06 ab bd 75 11 19 3e 56 ae 0e be
       0.14965577 -0.08350857 0.14948066 -0.13933691
000180 80 01 80 bd 78 81 70 3d 92 a1 54 3d 1d c5 c4 bd
       -0.06250286 0.05871722 0.051911898 -0.09607909
000190 b5 ac 47 3e 2a 4f c2 bd b9 21 42 bd 75 e2 6f 3d
       0.19499476 -0.094877556 -0.04739544 0.058565576
0001a0 6b 3e d5 bd c6 1f 95 3d 76 07 97 bd 86 07 e4 bd
       -0.10412296 0.07281451 -0.0737447 -0.111342475
0001b0 e0 e8 ce 3c af 97 c7 3d b0 01 9f bc 1e 09 01 3e
       0.025257528 0.09745728 -0.019409984 0.12601134
0001c0 aa 97 e6 bd d2 d2 e2 bd d9 7b af 3c 85 a2 18 bc
       -0.112593964 -0.11075367 0.02142136 -0.009316091
0001d0 b3 ad e9 bd 65 83 4f bc 0b 1a b4 3d 6e 8a 53 3d
       -0.114100836 -0.012665604 0.0879403 0.05164569
0001e0 37 07 39 3e 51 85 b8 3d 60 7e 42 be 04 d5 8a bc
       0.18069158 0.09009803 -0.1899352 -0.016947277
0001f0 09 58 fb bd a8 7a 2f 3d 11 32 b0 bc c0 fd 24 bd
       -0.12272651 0.042841583 -0.021508249 -0.040281057
000200 ac ff b4 3d 69 1a e0 bc 21 90 88 bd 7f a9 fa bc
       0.08837828 -0.027356343 -0.066681154 -0.0305984
000210 2a e5 7c bd 4b 1a 41 bc 55 c0 5e 3c f0 86 39 bd
       -0.061741985 -0.011786054 0.01359566 -0.045294702
000220 79 10 35 bd b2 10 83 3d a8 02 86 3c b4 0d 91 3c
       -0.044205163 0.06399669 0.016358688 0.01770673
000230 2f 86 11 3d e6 de 20 be 8d 40 d6 3d e9 99 2f be
       0.035528358 -0.15710029 0.10461531 -0.17148556
000240 54 ee 44 3c d2 e7 64 3d c8 09 12 bd cb 4c d1 bc
       0.0120197125 0.055885144 -0.03565386 -0.025549313
000250 e8 2f cc bd 8b 06 a4 3d 87 12 1e 3d 47 18 f1 3d
       -0.09970075 0.080090605 0.038591888 0.11772209
000260 10 87 08 bd e9 05 25 3d e4 42 4b bd 66 52 84 bd
       -0.03333193 0.04028884 -0.04962434 -0.06461029
000270 36 11 e2 3c 23 3a 19 3e d0 b3 8f 3c 6b a5 80 3d
       0.027596097 0.14963584 0.017541796 0.06281551
000280 02 76 84 3b bc b0 1e 3e 3a 03 70 bd cf ad f9 bd
       0.004042388 0.15497106 -0.058596827 -0.121913545
000290 53 75 70 bc f9 9e 5f 3c e7 2b 86 bd 64 9f 49 be
       -0.01467641 0.013648742 -0.065513425 -0.19689709
0002a0 45 7d 93 bd 69 87 71 be ce fb 4d 3d 00 05 1c 3c
       -0.07201628 -0.23586811 0.050288968 0.0095226765
0002b0 2d 20 49 3e ee 03 39 be 07 73 6c bc 6a d2 92 be
       0.1964118 -0.18067905 -0.0144317215 -0.28676158
0002c0 88 88 a4 3d 16 49 a0 bd 67 a3 99 bb 88 32 93 3d
       0.08033854 -0.0782644 -0.0046886685 0.071873724
0002d0 85 75 24 be 59 69 e4 3c 07 26 3b be 52 2c 29 3c
       -0.16060455 0.027882265 -0.18276225 0.010325508
0002e0 d4 2c 7b bd 01 1d 3c 3e 10 be 47 3e 8d 48 3b 3d
       -0.06132205 0.18370439 0.19506097 0.045723487
0002f0 22 36 df bd 70 a6 5b bc 9a f0 f8 3c 46 10 dd bc
       -0.10898997 -0.013406381 0.030388165 -0.026985299
000300 75 83 bf 3d 25 b8 01 3d ed 1d d5 38 61 b2 fb bb
       0.09351245 0.031669755 0.000101622056 -0.0076811765
000310 cd de 55 bd 81 3d 0e be 14 03 b2 3d 05 28 a4 bd
       -0.052214433 -0.1389065 0.08691993 -0.080154456
000320 ec ba 84 bd 42 16 67 3b d5 50 7c 3c f3 e5 9f bd
       -0.06480965 0.003526107 0.015400131 -0.07807531
000330 a6 54 7f bd 71 60 cd 3d f5 5c 7e 3d 03 db fb bd
       -0.062336586 0.1002816 0.06210037 -0.122976325
000340 da 54 3e bd c3 70 ab 3d 7f 6f d4 bd a1 43 cc 3b
       -0.04646764 0.08371117 -0.10372829 0.006233648
000350 20 57 80 bd 49 8b 4f be d1 34 92 bd 40 0b c6 3d
       -0.06266618 -0.20267977 -0.0713898 0.096701145
000360 3d 8e 37 be 2f 26 20 3e 57 7b 03 be 93 2a dd bd
       -0.17925353 0.15639566 -0.12840019 -0.10799136
000370 10 03 9d 3d 6e 10 3b 3d 5b 51 53 bd fe 10 10 bd
       0.076666 0.045669965 -0.05159126 -0.035172455
000380 5c fb 59 3e 1d 32 f0 3c e2 bb af bd 5d d8 55 bd
       0.21287292 0.02932077 -0.08580758 -0.052208293
000390 37 25 8c 3c e4 dc db bd d0 3b 00 bd 25 86 0e 3e
       0.01710759 -0.10735491 -0.03130704 0.1391836
0003a0 b8 8f 9a bc 8a 14 a4 3d 3b ef e0 bd 45 cd 85 bd
       -0.018867359 0.0801173 -0.109831296 -0.06533293
0003b0 77 27 80 3e 29 30 b1 3d 3d ea c5 bd 73 e7 00 3e
       0.2503011 0.08651764 -0.09663818 0.12588291
0003c0 5f d7 99 bc b2 94 19 be c5 70 32 bd 63 e0 9a bd
       -0.018779455 -0.14998129 -0.043564577 -0.075623296
0003d0 e2 37 97 bd 22 fb cb bc 83 65 33 bd f9 58 a4 bd
       -0.07383706 -0.024900023 -0.04379798 -0.08024783
0003e0 f8 49 2a bd 68 df 8c bd 15 19 59 3b 52 a7 48 3d
       -0.04157445 -0.06878549 0.0033126522 0.048987694
0003f0 a4 ea 54 3e 64 6f 65 3b 38 89 9a 3d 05 4e bc 3d
       0.20792633 0.003500902 0.07545704 0.091945685

network_body._body_endoder.seq_layers.2.bias f4 [128]
000000 97 6d 2a bc b5 76 56 ba c4 8b aa bb 78 43 e1 39
       -0.010402105 -0.0008181141 -0.0052046496 0.00042965612
000010 43 7e d0 bb 85 2b 89 3c 87 23 7e bc 43 90 46 bc
       -0.006362708 0.016744385 -0.0155114 -0.012119356
000020 8e ce f9 3b 3a 6e 44 3c 72 8b 33 3c c0 d7 3e bb
       0.0076235 0.011989171 0.010958539 -0.0029120296
000030 50 66 fa bb dc d4 1d bc d6 7d fd 3a aa c6 0e bc
       -0.007641591 -0.009633269 0.001933987 -0.008714357
000040 13 07 c4 bc 08 d3 e5 bb 35 9a 9b bc 5e 33 bf 3c
       -0.023929155 -0.0070136823 -0.01899443 0.023339923
000050 5d 37 96 bb b0 b6 17 3c 85 98 d9 bb 90 51 60 3b
       -0.0045842365 0.009259865 -0.006640496 0.0034228303
000060 63 94 c2 b9 4e 7d ba bb 49 0e 09 bc cb 61 96 bb
       -0.0003711312 -0.005691207 -0.008365222 -0.0045892945
000070 f6 60 28 bb a2 9b 2e 3c 53 3c 70 bc 42 1b c2 3a
       -0.002569256 0.010657223 -0.01466282 0.0014809149
000080 06 68 57 bb 2c e6 d7 bb 0c 7b 97 bc 67 54 cf 3b
       -0.00328684 -0.006588718 -0.01849129 0.0063272
000090 25 f7 75 bb 08 8d f8 3c d8 0c 1e bc d1 ab 87 3c
       -0.0037531343 0.030340686 -0.009646617 0.01656142
0000a0 d7 d7 c4 3b 6c 0e 93 3b e2 b5 e3 bb 0d cd 9a bb
       0.0060071754 0.004487803 -0.0069491724 -0.004724151
0000b0 65 38 99 bb e6 cc b4 bc 09 73 90 bc cd d2 0b 3c
       -0.004675912 -0.02207036 -0.017632978 0.008534146
0000c0 62 6a 5b bc e0 32 46 bc 92 70 21 bc f6 bb c8 3a
       -0.013392063 -0.0120970905 -0.009853499 0.0015314806
0000d0 6c 31 1e 3d c0 c0 d5 bb 76 de eb 3b d3 b1 5f 3c
       0.03862135 -0.0065232217 0.0071981503 0.013653236
0000e0 7f 88 3a bc 9f a2 4f 3a cf 54 42 bc 18 cc 24 bc
       -0.011385082 0.0007920656 -0.01186104 -0.010058425
0000f0 8a 50 7a bc 6b 23 35 3d ca 7f a3 bb dc 8f e6 3c
       -0.015277991 0.04422323 -0.004989599 0.02814477
000100 de 61 17 bc 06 c4 00 3c 07 37 57 bc c3 96 80 bb
       -0.009239642 0.007859236 -0.013135678 -0.003924222
000110 69 17 18 bc c0 fb 0a bc 9a c7 0f 3b bb 03 a0 bc
       -0.009282925 -0.008482873 0.002193904 -0.019533029
000120 66 21 26 bb 84 b1 0e bc 28 82 e7 3b e9 f9 5a 3d
       -0.0025349497 -0.008709315 0.0070650764 0.05346099
000130 e5 eb dc bb a4 43 29 bc b6 e5 3e 3c fe 00 b2 bb
       -0.006741988 -0.010331068 0.011651447 -0.005432247
000140 da 37 89 3b 0f 52 38 bc 22 c6 98 bb 9f c7 d4 bb
       0.004187566 -0.011250033 -0.004662291 -0.0064935233
000150 41 08 c8 bb 68 be 32 3a 6d c2 b8 3c 97 21 4b bc
       -0.0061044996 0.0006818534 0.022553647 -0.012398145
000160 01 97 8b 3b 6b d0 9b bc c0 b2 3b 3b af 27 6e bc
       0.0042599444 -0.01902028 0.002864048 -0.0145358285
000170 f0 d6 cc bb 03 c3 d0 bc 77 47 a6 3a 1c ba 1b bc
       -0.0062512085 -0.025483614 0.0012686093 -0.009504821
000180 d0 21 1e 3c b6 ca 24 ba e4 00 69 bc 31 26 a1 bb
       0.009651616 -0.000628631 -0.014221404 -0.004917883
000190 44 ab 57 bc ce 72 13 bc 05 3a e9 bb 9d 7e b3 bb
       -0.0131633915 -0.00899954 -0.007117512 -0.00547774
0001a0 d6 10 d3 bb 59 43 6f bc 72 45 27 3c 62 28 16 3c
       -0.006441216 -0.014603459 0.010209428 0.009164901
0001b0 c8 d1 4b bc c2 4b 1c bc 90 49 a2 bb 13 1f 39 bc
       -0.0124401525 -0.009539546 -0.004952617 -0.011298913
0001c0 89 dc e9 b9 a2 cc 0c ba bb 3d 89 3c 43 ea e0 bb
       -0.00044605535 -0.0005371069 0.016753068 -0.0068638637
0001d0 91 c0 56 3c 32 f8 c8 bb d6 50 60 3c 8f 21 48 3c
       0.013107435 -0.006133103 0.013691148 0.012215032
0001e0 46 8c ea 3b f5 b8 83 3c 9f 9b be ba e2 25 cc 3c
       0.007157835 0.016079405 -0.0014542228 0.024920408
0001f0 88 eb ac bb c9 77 25 bc c2 d9 b8 bb c6 80 2d bb
       -0.005277101 -0.01009936 -0.005641193 -0.002647446

action_model._continuous_distribution.log_sigma f4 [1, 2]
000000 55 f7 5e bf 64 c8 5f bf
       -0.8709615 -0.87415147

action_model._continuous_distribution.mu.weight f4 [2, 128]
000000 64 c5 70 3d 35 50 59 3b 43 27 12 bd 30 18 f0 3c
       0.058781996 0.003315938 -0.035681974 0.029308408
000010 3b f3 16 3d 27 15 53 bd fe f2 bc bb 45 e6 63 bc
       0.036853056 -0.051533844 -0.0057662716 -0.013909881
000020 00 3d 2d 3d b5 f7 b9 3c 85 7e 2c bd 25 30 31 3c
       0.042294502 0.022701124 -0.042112846 0.010814701
000030 94 0f 74 3d 66 f6 e2 3c 41 b0 83 3d 58 7f 7b bc
       0.05958517 0.027705383 0.06430102 -0.015350185
000040 53 28 fc bb ad 3f ca bc f3 b8 16 bc f3 fd ea bc
       -0.0076952367 -0.024688566 -0.009199369 -0.028685546
000050 38 65 cf bc 12 d5 26 bd 35 aa 30 3b 9e 59 b1 3c
       -0.02531682 -0.040730543 0.002695692 0.021649178
000060 64 60 81 3c ba 76 7e 3d fc de 25 bd 12 ea 89 3c
       0.015793033 0.062124945 -0.040495858 0.016835246
000070 10 99 1f bd 32 97 a2 3d 14 be e9 bb 9e 08 32 3d
       -0.03896433 0.079389945 -0.007133255 0.04346525
000080 46 e0 4c bb be 0a a4 3c 78 76 87 bb d0 3b 89 bd
       -0.0031261607 0.020024654 -0.0041339956 -0.067008615
000090 b0 29 d7 3c d5 8f a9 bd 5a a5 87 3c 98 18 95 3c
       0.026264995 -0.08279387 0.016558338 0.018200204
0000a0 48 1f 29 bd 16 34 80 bd 55 07 41 3d 41 a8 19 bd
       -0.041289598 -0.062599346 0.047126133 -0.037513975
0000b0 09 48 93 3d 9f 31 74 bc 57 75 fa bb e7 23 77 bd
       0.07191474 -0.014904409 -0.0076433825 -0.060336974
0000c0 c7 69 ea 3b 71 cb 9f bc 88 94 67 3d 2f ce 1a bc
       0.007153723 -0.019506188 0.056538135 -0.009448572
0000d0 78 9a ae 3d 9d 4f 59 3d 4a 22 a6 bd d5 e9 04 bb
       0.08525556 0.05305444 -0.08112009 -0.0020280976
0000e0 a2 d1 a6 ba 42 3a 50 bd 08 83 74 3d 3a d6 af bb
       -0.001272727 -0.05083681 0.059695274 -0.005366114
0000f0 53 da a7 ba 98 37 b6 3d ef 26 50 3c 59 b3 b0 bd
       -0.0012806155 0.088973224 0.012704595 -0.08627958
000100 b5 9e 68 3d d0 98 85 3d ae 8f dc 3c 5e 76 11 bd
       0.05679198 0.06523287 0.02692398 -0.035513274
000110 10 cd f1 3c 05 f9 35 bc e5 57 c3 3c 9a 4c 10 bb
       0.029516727 -0.011106734 0.023845622 -0.0022018314
000120 b0 e1 8a bd 23 40 2c 3d b2 9d 8c bd aa 34 f8 3c
       -0.06781328 0.042053353 -0.068660155 0.03029855
000130 7a 1a 02 3d 69 53 0a 3d 4f 3e 42 3d fd 0c 8f bc
       0.03176353 0.033770952 0.047422703 -0.017462248
000140 49 8d 4e 3c 78 bd 58 3c 03 7a b5 bc 0f 7e 85 bc
       0.012606927 0.013228767 -0.022152906 -0.016295461
000150 ba c2 dd 3c d2 ba c8 bc 1d fb a7 bd 38 7b c5 bc
       0.027070392 -0.024503145 -0.08202193 -0.024106607
000160 2b 8d 6c bd 98 24 d4 ba 2d d5 e6 bc b9 a7 38 bc
       -0.057751816 -0.0016185222 -0.028177822 -0.011270457
000170 d3 83 3d 3d 7d fc 2e bb fa a8 16 3d cc d0 9e 3c
       0.046268295 -0.0026700788 0.036782242 0.019386671
000180 9a ba a1 bc 12 3a 54 bc a3 04 5f 3d 3c f6 28 bd
       -0.019742299 -0.012953298 0.05444778 -0.041250452
000190 26 80 7b 3c 07 b5 0e bc 45 0a 91 bc 3d 19 9a 3d
       0.015350377 -0.0087101525 -0.017705092 0.07524345
0001a0 60 3b 08 bd ab 34 12 bd f6 1d 3f bc 5d eb 24 bc
       -0.03325975 -0.03569476 -0.011664858 -0.010065881
0001b0 c2 5e ac ba f6 45 ca 3c fb b1 ce bb 8f af 3f ba
       -0.0013150799 0.024691563 -0.006307838 -0.0007312232
0001c0 04 95 80 3d 81 58 1a 3c cb ca 9d bb 80 71 10 bd
       0.062784225 0.009420515 -0.0048154346 -0.035264492
0001d0 98 3e c2 bc 5b d1 b2 bc 4d 6c 49 bd 0c fa 71 3d
       -0.023711488 -0.021828344 -0.04917555 0.059076354
0001e0 9c e3 08 bd 9b 0c a5 3d 77 93 52 bd 86 f5 44 3d
       -0.03342019 0.08059045 -0.051410165 0.048085712
0001f0 df 1d c4 bc 22 53 76 3c 4b 2b 08 bd a0 cf 0d 3c
       -0.023940025 0.015034469 -0.033244412 0.008655459
000200 55 17 19 bd 5b c0 7b bd c2 f1 a0 bb 89 16 d1 3c
       -0.037375767 -0.06146274 -0.0049116323 0.02552344
000210 c4 d0 08 bd 7a 71 bb bd 03 ad b1 bb 82 10 a6 3c
       -0.03340222 -0.09152503 -0.005422236 0.020271543
000220 06 11 56 3d 4b 4e df 3c aa b0 0f bd f4 fd 1d bd
       0.05226233 0.027259013 -0.03508059 -0.038572267
000230 40 e6 01 3c 4a 67 4b bc 93 ae b5 bb 2a 6b 57 3c
       0.007928431 -0.012414763 -0.0055444925 0.0131481085
000240 5f cf 3b bc f6 53 15 bd ac 05 d3 bc a0 8b c2 3d
       -0.011463015 -0.036457025 -0.02575954 0.094992876
000250 b1 1b af 3c 0b 65 c9 bc a0 03 7c 3d ab a2 a9 3c
       0.021375509 -0.024584314 0.061526895 0.020707449
000260 e1 6e 35 3d d2 be 70 3d 28 69 b4 3c f2 07 ff 3c
       0.044295195 0.05877573 0.022022799 0.031131718
000270 c7 5f 00 3d 95 d8 35 bd 90 8a ab 3c 54 a7 8f bc
       0.03134134 -0.044396 0.020940095 -0.017535843
000280 c5 82 e9 bc 89 d8 49 3c ab a5 6f bc 32 df 27 bd
       -0.028504739 0.012319692 -0.014626901 -0.04098434
000290 bc 8a 09 bd b9 5e b6 3c eb e3 37 bc 1c 89 ad 3d
       -0.033579573 0.022261964 -0.0112237735 0.08473417
0002a0 43 52 d1 bc c8 93 00 bd 33 e0 0f bc fc c7 a3 bc
       -0.02555192 -0.031390935 -0.008781481 -0.01999282
0002b0 1b 4e 2f bd b6 dd a0 3b a1 1f 44 3d 30 12 2a 3d
       -0.042799097 0.0049092425 0.047881726 0.04152125
0002c0 48 94 b6 bc e6 66 c9 bc 63 b9 7e bd bb 5b 56 bd
       -0.022287503 -0.024585199 -0.062188517 -0.052333575
0002d0 15 57 23 3d 0c 8f 77 3b 58 b2 52 3d e5 02 99 3c
       0.03987797 0.0037774472 0.051439613 0.018678138
0002e0 99 d7 62 bb 85 7b 4d 3c 5b b4 02 3d fc 78 6b bd
       -0.003461337 0.012541656 0.03191028 -0.057488427
0002f0 25 7d 0b bd 42 3d fa 3c c3 80 8f 3c 98 9e cd 3c
       -0.034054894 0.030546788 0.017517453 0.025100037
000300 8f 00 54 bd 13 27 dc 3b c8 87 35 3d 98 fc 46 3d
       -0.051758345 0.006718525 0.044318944 0.048580736
000310 bb dd dd bc fb a6 29 bb 07 e9 6e bd e0 cc 81 bd
       -0.027083268 -0.0025886882 -0.0583277 -0.06337905
000320 86 4c ee 3c 10 d5 60 3b 41 9c 77 bb 5a 9c 93 3d
       0.029089224 0.0034306683 -0.0037782344 0.07207556
000330 8d e6 b4 3c 09 e0 31 38 8b 49 86 bd ce dc dd bc
       0.022082591 4.2408737e-05 -0.06556996 -0.027082827
000340 ac b1 12 3d 01 10 68 3d 47 cd 0f 3c 51 45 12 3d
       0.035813972 0.056655888 0.008776969 0.035710637
000350 ae d3 02 bc f8 4e b2 3b 55 10 a2 3d c9 ca 14 3a
       -0.007985039 0.0054415427 0.07913271 0.00056759693
000360 4b 32 31 bd 9d 8e 12 3d bf 95 c2 3c fb da b8 bc
       -0.043260854 0.035780538 0.023753045 -0.022565356
000370 db 7c 04 3d 4a be d5 bb f7 6f 60 bd 5c 5c 5f 3c
       0.032345634 -0.0065229284 -0.054794278 0.01363286
000380 ae b0 1b 3d a9 5e 79 bd f8 20 0e bd 35 f1 10 bd
       0.03801029 -0.06088129 -0.03469941 -0.035386283
000390 19 7d 0b 3c 19 ed fa 3c 3b e6 28 bd 06 e5 87 3b
       0.008513712 0.030630635 -0.04123519 0.004147175
0003a0 a4 ed 4c bc b6 e8 97 bc 09 9e 53 3d 4d 6f 9f 3d
       -0.01250783 -0.018543582 0.051664386 0.07784901
0003b0 6e 42 10 3d 0e a7 9d bc 5d 17 4c 3d b9 9d bb 3c
       0.035219602 -0.019244697 0.04982697 0.022902356
0003c0 fe 82 3d 3d fd ef c9 3c 17 71 64 3d 5c 5e cb bc
       0.046267502 0.024650568 0.055771913 -0.024825267
0003d0 b8 46 53 3d 5c e8 57 bd 06 90 9e bc e0 6f ce bc
       0.051581115 -0.05271183 -0.019355785 -0.02519983
0003e0 2e 7f 71 3c 11 df 83 bd 51 db 30 bd f3 71 86 bd
       0.014739795 -0.06439031 -0.043177906 -0.06564703
0003f0 c0 41 ae 3b 54 ba 2b 3b cf 6d ff 3b c6 26 05 bd
       0.0053178966 0.002620359 0.0077950726 -0.03250768

action_model._continuous_distribution.mu.bias f4 [2]
000000 26 5e 5a bb 31 53 3a 3b
       -0.0033320277 0.0028430934

exp_avg f4 [128, 27]
000000 0b a5 7a aa 00 d8 af 36 00 d8 af 36 1e 65 54 a7
       -2.2261721e-13 5.240552e-06 5.240552e-06 -2.9475726e-15
000010 00 d8 af 36 00 d8 af 36 27 25 90 1a 00 d8 af 36
       5.240552e-06 5.240552e-06 5.961703e-23 5.240552e-06
000020 00 d8 af 36 00 00 00 00 00 d8 af 36 00 d8 af 36
       5.240552e-06 0.0 5.240552e-06 5.240552e-06
000030 81 c2 af 1c 00 d8 af 36 00 d8 af 36 ff 34 c4 9a
       1.1630807e-21 5.240552e-06 5.240552e-06 -8.114932e-23
000040 00 d8 af 36 00 d8 af 36 ff 34 c4 9a 00 d8 af 36
       5.240552e-06 5.240552e-06 -8.114932e-23 5.240552e-06
000050 00 d8 af 36 f6 d7 2b 3a 00 d8 af 36 d6 dc 28 b9
       5.240552e-06 0.0006555313 5.240552e-06 -0.00016103996
000060 e6 21 24 3a 20 d8 af 36 e0 cd 05 b9 99 5a 73 a9
       0.0006261155 5.2405667e-06 -0.00012760563 -5.403542e-14
000070 99 35 b0 ba 99 35 b0 ba 48 35 e3 28 99 35 b0 ba
       -0.0013443708 -0.0013443708 2.522517e-14 -0.0013443708
000080 99 35 b0 ba ec 7e 8a 19 99 35 b0 ba 99 35 b0 ba
       -0.0013443708 1.4320129e-23 -0.0013443708 -0.0013443708
000090 00 00 00 00 99 35 b0 ba 99 35 b0 ba 62 47 77 1b
       0.0 -0.0013443708 -0.0013443708 2.0454426e-22
0000a0 99 35 b0 ba 99 35 b0 ba 01 b2 c2 99 99 35 b0 ba
       -0.0013443708 -0.0013443708 -2.0131025e-23 -0.0013443708
0000b0 99 35 b0 ba 01 b2 c2 99 99 35 b0 ba 99 35 b0 ba
       -0.0013443708 -2.0131025e-23 -0.0013443708 -0.0013443708
0000c0 da bd c4 3a 99 35 b0 ba ce d9 4f 3a cf 5b c8 3a
       0.0015010193 -0.0013443708 0.0007928879 0.001528615
0000d0 98 35 b0 ba fe f9 bd 3a 4d 01 cc a9 7c 54 58 ba
       -0.0013443707 0.0014494059 -9.0596455e-14 -0.0008252335
0000e0 7c 54 58 ba a1 a1 32 28 7c 54 58 ba 7c 54 58 ba
       -0.0008252335 9.916033e-15 -0.0008252335 -0.0008252335
0000f0 f0 db 87 18 7c 54 58 ba 7c 54 58 ba 00 00 00 00
       3.5118762e-24 -0.0008252335 -0.0008252335 0.0
000100 7c 54 58 ba 7c 54 58 ba 87 5d 1a 1c 7c 54 58 ba
       -0.0008252335 -0.0008252335 5.1075207e-22 -0.0008252335
000110 7c 54 58 ba 96 03 07 98 7c 54 58 ba 7c 54 58 ba
       -0.0008252335 -1.7450151e-24 -0.0008252335 -0.0008252335
000120 96 03 07 98 7c 54 58 ba 7c 54 58 ba ea f5 12 3b
       -1.7450151e-24 -0.0008252335 -0.0008252335 0.0022424408
000130 7c 54 58 ba 33 e8 44 ba 26 88 0c 3b 7c 54 58 ba
       -0.0008252335 -0.0007511407 0.0021443455 -0.0008252335
000140 1e 71 f0 b9 7c 4e 51 aa 17 e1 22 3a 17 e1 22 3a
       -0.00045860646 -1.8590159e-13 0.00062133506 0.00062133506
000150 ce 23 c6 a4 17 e1 22 3a 17 e1 22 3a e1 97 e9 18
       -8.592947e-17 0.00062133506 0.00062133506 6.0382447e-24
000160 17 e1 22 3a 17 e1 22 3a 00 00 00 00 17 e1 22 3a
       0.00062133506 0.00062133506 0.0 0.00062133506
000170 17 e1 22 3a 37 f1 bc 1b 17 e1 22 3a 17 e1 22 3a
       0.00062133506 3.1257872e-22 0.00062133506 0.00062133506
000180 77 93 ca 97 17 e1 22 3a 17 e1 22 3a 77 93 ca 97
       -1.3091169e-24 0.00062133506 0.00062133506 -1.3091169e-24
000190 17 e1 22 3a 17 e1 22 3a 48 46 50 ba 17 e1 22 3a
       0.00062133506 0.00062133506 -0.0007945043 0.00062133506
0001a0 48 ad d1 b9 ad 0f 50 ba 14 e1 22 3a 12 b8 35 ba
       -0.0003999269 -0.0007936906 0.0006213349 -0.00069320307
0001b0 c0 37 bd ab 02 c3 dc b8 04 c3 dc b8 be e4 44 28
       -1.3444731e-12 -0.000105267405 -0.00010526742 1.0929786e-14
0001c0 04 c3 dc b8 04 c3 dc b8 7e b2 09 9a 04 c3 dc b8
       -0.00010526742 -0.00010526742 -2.847512e-23 -0.00010526742
0001d0 04 c3 dc b8 00 00 00 00 04 c3 dc b8 04 c3 dc b8
       -0.00010526742 0.0 -0.00010526742 -0.00010526742
0001e0 36 4b 8c 1c 04 c3 dc b8 04 c3 dc b8 da 26 84 99
       9.283864e-22 -0.00010526742 -0.00010526742 -1.3664172e-23
0001f0 04 c3 dc b8 04 c3 dc b8 da 26 84 99 04 c3 dc b8
       -0.00010526742 -0.00010526742 -1.3664172e-23 -0.00010526742
000200 04 c3 dc b8 fa 61 78 39 04 c3 dc b8 55 30 87 b8
       -0.00010526742 0.00023687622 -0.00010526742 -6.446304e-05
000210 84 25 77 39 02 c3 dc b8 11 9a 10 b8 bf f4 1e 2c
       0.00023569731 -0.000105267405 -3.447576e-05 2.2589012e-12
000220 88 17 c5 b6 88 17 c5 b6 f9 49 be a9 88 17 c5 b6
       -5.873797e-06 -5.873797e-06 -8.450527e-14 -5.873797e-06
000230 88 17 c5 b6 87 c9 23 99 88 17 c5 b6 88 17 c5 b6
       -5.873797e-06 -8.467601e-24 -5.873797e-06 -5.873797e-06
000240 00 00 00 00 88 17 c5 b6 88 17 c5 b6 78 95 46 9d
       0.0 -5.873797e-06 -5.873797e-06 -2.6282355e-21
000250 88 17 c5 b6 88 17 c5 b6 6a 6c 27 1a 88 17 c5 b6
       -5.873797e-06 -5.873797e-06 3.4622367e-23 -5.873797e-06
000260 88 17 c5 b6 6a 6c 27 1a 88 17 c5 b6 88 17 c5 b6
       -5.873797e-06 3.4622367e-23 -5.873797e-06 -5.873797e-06
000270 e6 e3 48 38 88 17 c5 b6 61 41 e5 b9 26 cb 4a 38
       4.7895963e-05 -5.873797e-06 -0.00043726995 4.834975e-05
000280 90 17 c5 b6 09 e9 e9 b9 5b 05 19 2b 53 bb f6 b9
       -5.8738005e-06 -0.00044614848 5.436395e-13 -0.00047060344
000290 53 bb f6 b9 a8 8f 6e 29 53 bb f6 b9 53 bb f6 b9
       -0.00047060344 5.2971218e-14 -0.00047060344 -0.00047060344
0002a0 8c f1 ce 98 53 bb f6 b9 53 bb f6 b9 00 00 00 00
       -5.349365e-24 -0.00047060344 -0.00047060344 0.0
0002b0 53 bb f6 b9 53 bb f6 b9 a6 9e 7f 1c 53 bb f6 b9
       -0.00047060344 -0.00047060344 8.457747e-22 -0.00047060344
0002c0 53 bb f6 b9 b3 8c cd 97 53 bb f6 b9 53 bb f6 b9
       -0.00047060344 -1.3283332e-24 -0.00047060344 -0.00047060344
0002d0 b3 8c cd 97 53 bb f6 b9 53 bb f6 b9 58 30 35 3a
       -1.3283332e-24 -0.00047060344 -0.00047060344 0.0006911806
0002e0 53 bb f6 b9 95 6a 91 3a 96 97 42 3a 4f bb f6 b9
       -0.00047060344 0.0011094386 0.0007423101 -0.00047060332
0002f0 78 b8 b9 3a ae 2d e6 ab da 59 16 39 da 59 16 39
       0.0014169356 -1.6355162e-12 0.00014338587 0.00014338587
000300 4b dd 0a 2a da 59 16 39 da 59 16 39 c5 58 59 9a
       1.2333639e-13 0.00014338587 0.00014338587 -4.4946256e-23
000310 da 59 16 39 da 59 16 39 00 00 00 00 da 59 16 39
       0.00014338587 0.00014338587 0.0 0.00014338587
000320 da 59 16 39 57 59 19 1e da 59 16 39 da 59 16 39
       0.00014338587 8.118228e-21 0.00014338587 0.00014338587
000330 bb 8a ce 99 da 59 16 39 da 59 16 39 bb 8a ce 99
       -2.1355934e-23 0.00014338587 0.00014338587 -2.1355934e-23
000340 da 59 16 39 da 59 16 39 6b f1 fe b9 da 59 16 39
       0.00014338587 0.00014338587 -0.00048626526 0.00014338587
000350 cc e9 6c b8 1b f6 ef b9 da 59 16 39 0e 4c 37 b9
       -5.6484525e-05 -0.00045768995 0.00014338587 -0.00017480573
000360 90 fc 1b 2c 8e 2c 02 bb 8e 2c 02 bb 71 25 97 a8
       2.2167025e-12 -0.0019862982 -0.0019862982 -1.6780605e-14
000370 8e 2c 02 bb 8e 2c 02 bb dc 55 ce 9a 8e 2c 02 bb
       -0.0019862982 -0.0019862982 -8.5338316e-23 -0.0019862982
000380 8e 2c 02 bb 00 00 00 00 8e 2c 02 bb 8e 2c 02 bb
       -0.0019862982 0.0 -0.0019862982 -0.0019862982
000390 ca de 7b 9d 8e 2c 02 bb 8e 2c 02 bb 6b 5c ff 98
       -3.3334753e-21 -0.0019862982 -0.0019862982 -6.6009273e-24
0003a0 8e 2c 02 bb 8e 2c 02 bb 6b 5c ff 98 8e 2c 02 bb
       -0.0019862982 -0.0019862982 -6.6009273e-24 -0.0019862982
0003b0 8e 2c 02 bb ea 4b 7f 3b 8e 2c 02 bb 0c 77 96 b9
       -0.0019862982 0.003895516 -0.0019862982 -0.00028698926
0003c0 c2 68 7f 3b 8f 2c 02 bb 82 79 50 39 82 bf b1 a9
       0.0038972353 -0.0019862985 0.00019881691 -7.8936e-14
0003d0 70 9b 69 3a 70 9b 69 3a 3f 67 9e a8 70 9b 69 3a
       0.00089114066 0.00089114066 -1.75863e-14 0.00089114066
0003e0 70 9b 69 3a 35 80 90 98 70 9b 69 3a 70 9b 69 3a
       0.00089114066 -3.7352584e-24 0.00089114066 0.00089114066
0003f0 00 00 00 00 70 9b 69 3a 70 9b 69 3a a8 c4 49 1b
       0.0 0.00089114066 0.00089114066 1.6689873e-22

exp_avg_sq f4 [128, 27]
000000 44 31 96 32 40 48 18 35 65 35 19 35 2c 51 83 32
       1.7484702e-08 5.672955e-07 5.707464e-07 1.528732e-08
000010 28 38 18 35 5c 6f 19 35 dd 0e 20 2b ee ad 1a 35
       5.670613e-07 5.715899e-07 5.6864046e-13 5.762257e-07
000020 ed ad 1a 35 00 00 00 00 e6 ad 1a 35 e6 ad 1a 35
       5.7622566e-07 0.0 5.7622526e-07 5.7622526e-07
000030 a4 a2 d9 2f 69 b9 1a 35 69 a6 1a 35 88 9c c9 30
       3.9587633e-10 5.763928e-07 5.761163e-07 1.4669164e-09
000040 3e bd 19 35 41 a0 1a 35 88 9c c9 30 3e bd 19 35
       5.7272325e-07 5.760267e-07 1.4669164e-09 5.7272325e-07
000050 41 a0 1a 35 ed 4f 56 36 06 83 1a 35 d6 a4 0f 36
       5.760267e-07 3.1935008e-06 5.7560135e-07 2.1404608e-06
000060 59 05 52 36 4f ae 1a 35 4c 4b 0e 36 42 fd 41 2f
       3.1295551e-06 5.7623123e-07 2.1203477e-06 1.7643223e-10
000070 e4 80 68 37 54 83 68 37 49 bf 07 32 7c 68 68 37
       1.3858287e-05 1.3858855e-05 7.901527e-09 1.3852605e-05
000080 1c 77 68 37 06 58 eb 2b a6 83 68 37 a4 83 68 37
       1.385601e-05 1.6722186e-12 1.3858929e-05 1.3858928e-05
000090 00 00 00 00 8e 83 68 37 8e 83 68 37 c8 02 cd 2e
       0.0 1.3858908e-05 1.3858908e-05 9.322815e-11
0000a0 27 82 68 37 ae 82 68 37 8e 5a cb 2e ae 83 68 37
       1.3858581e-05 1.3858704e-05 9.247457e-11 1.3858937e-05
0000b0 8c 83 68 37 8e 5a cb 2e ae 83 68 37 8c 83 68 37
       1.3858906e-05 9.247457e-11 1.3858937e-05 1.3858906e-05
0000c0 5b b6 c2 37 7c 83 68 37 30 4a 82 38 e5 df c3 37
       2.3211518e-05 1.3858891e-05 6.2127016e-05 2.335007e-05
0000d0 8f 83 68 37 14 ac 84 38 7a 14 70 2f 04 63 5d 35
       1.38589085e-05 6.3263025e-05 2.1835148e-10 8.2473e-07
0000e0 68 6c 5d 35 2b fd 78 30 fa 12 5d 35 aa 55 5d 35
       8.248667e-07 9.058165e-10 8.235653e-07 8.2453573e-07
0000f0 93 08 ce 29 50 71 5d 35 50 71 5d 35 00 00 00 00
       9.149725e-14 8.2493807e-07 8.2493807e-07 0.0
000100 54 71 5d 35 54 71 5d 35 cc 9c 59 2e 30 65 5d 35
       8.249383e-07 8.249383e-07 4.947935e-11 8.247616e-07
000110 6c 6a 5d 35 2d c7 50 2b 0e 71 5d 35 50 71 5d 35
       8.248378e-07 7.4172856e-13 8.249343e-07 8.2493807e-07
000120 2d c7 50 2b 0e 71 5d 35 50 71 5d 35 20 c4 7d 36
       7.4172856e-13 8.249343e-07 8.2493807e-07 3.7814098e-06
000130 56 71 5d 35 21 66 0b 36 0c e9 7c 36 58 71 5d 35
       8.249384e-07 2.077206e-06 3.7686577e-06 8.249385e-07
000140 ff a1 04 36 de 39 8d 31 6a 71 1c 36 d3 94 1c 36
       1.9763827e-06 4.110219e-09 2.3311827e-06 2.3332439e-06
000150 3b 34 d4 2f 11 9b 1c 36 42 9e 1c 36 1a 41 c9 2a
       3.8599687e-10 2.3336072e-06 2.333793e-06 3.5749946e-13
000160 52 a0 1c 36 54 a0 1c 36 00 00 00 00 6c a0 1c 36
       2.333913e-06 2.3339135e-06 0.0 2.333919e-06
000170 6c a0 1c 36 1c ed df 2e c3 9f 1c 36 5e 9f 1c 36
       2.333919e-06 1.0182985e-10 2.3338805e-06 2.3338575e-06
000180 ff dd dc 2a 71 a0 1c 36 6c a0 1c 36 ff dd dc 2a
       3.923389e-13 2.33392e-06 2.333919e-06 3.923389e-13
000190 71 a0 1c 36 6c a0 1c 36 bc 5f a0 36 e8 9f 1c 36
       2.33392e-06 2.333919e-06 4.7795165e-06 2.333889e-06
0001a0 75 ca 32 37 a1 96 9c 36 6c a0 1c 36 dd 17 35 37
       1.0656765e-05 4.666698e-06 2.333919e-06 1.0793997e-05
0001b0 5e 5e 56 34 27 9f c8 35 49 4a fd 35 87 dd 39 31
       1.9964634e-07 1.4947481e-06 1.8871589e-06 2.7046967e-09
0001c0 47 1d 04 36 fc 3b 04 36 13 0a 9f 2d 4e 51 04 36
       1.9686574e-06 1.9704448e-06 1.8080681e-11 1.9716858e-06
0001d0 94 51 04 36 00 00 00 00 8a 54 04 36 8a 54 04 36
       1.9717017e-06 0.0 1.971874e-06 1.971874e-06
0001e0 b3 e5 29 30 fd 69 04 36 50 60 04 36 8d 13 32 2e
       6.1808264e-10 1.9731226e-06 1.9725594e-06 4.048988e-11
0001f0 20 5a 04 36 bd 54 04 36 8d 13 32 2e 20 5a 04 36
       1.9721992e-06 1.9718857e-06 4.048988e-11 1.9721992e-06
000200 bd 54 04 36 c2 79 22 38 c5 54 04 36 d1 25 7e 37
       1.9718857e-06 3.8737206e-05 1.9718875e-06 1.5148385e-05
000210 17 a7 1d 38 e0 54 04 36 3a 7c 71 37 c4 78 81 34
       3.758733e-05 1.9718937e-06 1.4393643e-05 2.411599e-07
000220 92 29 82 36 2c 0d 87 36 cc bd 1a 34 75 1d 83 36
       3.8791413e-06 4.024847e-06 1.4411415e-07 3.9075335e-06
000230 e9 ff 86 36 96 61 83 2b ae a6 88 36 ac a6 88 36
       4.023303e-06 9.335195e-13 4.07252e-06 4.072519e-06
000240 00 00 00 00 97 a6 88 36 97 a6 88 36 93 a7 09 31
       0.0 4.0725095e-06 4.0725095e-06 2.0031379e-09
000250 5a 92 88 36 5b 97 88 36 bc cd 94 2f b1 a9 88 36
       4.0701534e-06 4.070736e-06 2.7067226e-10 4.0728705e-06
000260 9f a6 88 36 bc cd 94 2f b1 a9 88 36 9f a6 88 36
       4.072513e-06 2.7067226e-10 4.0728705e-06 4.072513e-06
000270 3a 51 f2 37 39 a9 88 36 ea 86 94 37 97 83 f4 37
       2.8886472e-05 4.072816e-06 1.77058e-05 2.9148343e-05
000280 c1 a6 88 36 3c fa 95 37 2e ac bc 31 5f f6 f3 36
       4.0725286e-06 1.7878709e-05 5.4910947e-09 7.2706457e-06
000290 57 01 f4 36 5d 9c 27 33 7d 97 f2 36 60 af f3 36
       7.2719226e-06 3.902493e-08 7.2297976e-06 7.2623807e-06
0002a0 f2 01 cc 2a 3c 09 f4 36 3c 09 f4 36 00 00 00 00
       3.623903e-13 7.2728417e-06 7.2728417e-06 0.0
0002b0 3e 09 f4 36 3e 09 f4 36 3d 6d 9a 2f 8d 08 f4 36
       7.2728426e-06 7.2728426e-06 2.8090055e-10 7.272762e-06
0002c0 50 08 f4 36 f4 29 e4 2a 46 09 f4 36 40 09 f4 36
       7.2727344e-06 4.0530047e-13 7.2728462e-06 7.2728435e-06
0002d0 f4 29 e4 2a 46 09 f4 36 40 09 f4 36 d2 bd 8d 37
       4.0530047e-13 7.2728462e-06 7.2728435e-06 1.6896902e-05
0002e0 f1 08 f4 36 f5 59 19 38 0b 7e 8e 37 40 09 f4 36
       7.2728076e-06 3.656182e-05 1.6986412e-05 7.2728435e-06
0002f0 0a 1c 1e 38 8e 36 1e 34 99 ed e0 36 18 f3 e7 36
       3.769625e-05 1.4734744e-07 6.70338e-06 6.9126363e-06
000300 8a 5f 31 34 a0 b6 e0 36 fc d4 e6 36 b1 c6 9e 2d
       1.6519166e-07 6.6969806e-06 6.879329e-06 1.8050757e-11
000310 8c b6 e9 36 34 b6 e9 36 00 00 00 00 74 b2 e9 36
       6.9651924e-06 6.9651524e-06 0.0 6.964716e-06
000320 74 b2 e9 36 2b 5d 54 32 c8 a8 e7 36 d2 93 e8 36
       6.964716e-06 1.2361208e-08 6.903985e-06 6.9313473e-06
000330 45 0e e0 2e 76 ae e9 36 42 b2 e9 36 45 0e e0 2e
       1.01888754e-10 6.964251e-06 6.964693e-06 1.01888754e-10
000340 76 ae e9 36 42 b2 e9 36 68 80 82 38 97 b2 e9 36
       6.964251e-06 6.964693e-06 6.2228006e-05 6.9647317e-06
000350 52 05 5d 38 d1 c2 7e 38 76 b2 e9 36 0b e4 54 38
       5.269546e-05 6.0739756e-05 6.9647167e-06 5.075712e-05
000360 34 af 6d 34 cb cc a8 37 8c 5f ae 37 68 06 84 32
       2.2136084e-07 2.0122525e-05 2.0786909e-05 1.5369736e-08
000370 41 53 af 37 6b 4f af 37 6a b8 39 2e 95 5a af 37
       2.0900394e-05 2.0898608e-05 4.2227923e-11 2.0903806e-05
000380 7e 5a af 37 00 00 00 00 8c 59 af 37 8c 59 af 37
       2.0903764e-05 0.0 2.0903324e-05 2.0903324e-05
000390 a2 e2 ba 31 86 49 af 37 46 51 af 37 fa 55 28 2d
       5.4390776e-09 2.0895863e-05 2.0899472e-05 9.568785e-12
0003a0 44 59 af 37 89 59 af 37 fa 55 28 2d 44 59 af 37
       2.0903193e-05 2.0903319e-05 9.568785e-12 2.0903193e-05
0003b0 89 59 af 37 d1 9c f8 38 ff 5b af 37 6d ed a7 38
       2.0903319e-05 0.00011854771 2.0904465e-05 8.0074045e-05
0003c0 8f 6a f0 38 98 59 af 37 ab db a0 38 8b 13 ff 30
       0.0001146394 2.0903346e-05 7.670311e-05 1.8559246e-09
0003d0 08 32 a1 36 8f 37 a1 36 54 f8 ef 32 f2 9e a0 36
       4.8039983e-06 4.804642e-06 2.7936188e-08 4.7868753e-06
0003e0 a9 fd a0 36 4d d7 d3 29 18 3b a1 36 19 3b a1 36
       4.7979015e-06 9.407631e-14 4.8050533e-06 4.805054e-06
0003f0 00 00 00 00 1a 3b a1 36 1a 3b a1 36 21 13 17 2e
       0.0 4.8050542e-06 4.8050542e-06 3.4350415e-11

exp_avg f4 [128]
000000 00 d8 af 36 99 35 b0 ba 7c 54 58 ba 17 e1 22 3a
       5.240552e-06 -0.0013443708 -0.0008252335 0.00062133506
000010 04 c3 dc b8 88 17 c5 b6 53 bb f6 b9 da 59 16 39
       -0.00010526742 -5.873797e-06 -0.00047060344 0.00014338587
000020 8e 2c 02 bb 70 9b 69 3a 29 30 db 39 75 79 67 ba
       -0.0019862982 0.00089114066 0.00041806817 -0.0008830049
000030 04 f0 64 ba 4a 1d 44 b9 4f d7 8f 39 dc d7 ef 39
       -0.0008733275 -0.00018702928 0.00027435503 0.0004574646
000040 af 59 a9 ba c8 0a 17 3a 6a 7f 01 ba 1d 26 a2 3a
       -0.0012920405 0.00057617994 -0.00049399456 0.0012370978
000050 2f c4 44 ba ea 16 f2 38 68 fc 10 39 ee 54 be b9
       -0.000750604 0.00011543727 0.00013826939 -0.00036302902
000060 b6 b6 eb 39 c4 da 0c ba 0b 52 0e 3a 01 59 1c 39
       0.00044958823 -0.0005373175 0.00054290955 0.00014910476
000070 15 4e 2b 3b 7d a1 a8 b9 7e c7 27 bb fa 2d 93 39
       0.002613907 -0.00032163775 -0.0025601084 0.0002807228
000080 85 cc 84 b9 bb 83 43 39 c4 be 10 3a 3e ea eb b9
       -0.0002532938 0.00018645723 0.00055215904 -0.00044997217
000090 ab 74 a5 ba 08 ba cf b9 10 51 9e 38 91 4d 46 b9
       -0.0012623271 -0.0003962072 7.549126e-05 -0.00018911647
0000a0 b2 a8 43 ba fa c9 c3 b9 38 6f c0 ba 01 ba 0f 3b
       -0.0007463797 -0.00037343783 -0.0014681583 0.0021930935
0000b0 14 78 13 3a ad ae 22 3b b8 18 da b8 b5 d2 6b ba
       0.0005625498 0.0024823353 -0.00010399654 -0.00089959364
0000c0 f5 5d 73 b9 4b 56 da ba 6c 6a de b9 34 d8 c7 39
       -0.00023209288 -0.0016657797 -0.0004242243 0.00038117322
0000d0 87 cb 1b ba be 47 34 3a fe ed 82 b8 e0 d1 a0 b9
       -0.00059431087 0.00068771455 -6.2432126e-05 -0.00030673947
0000e0 c0 44 57 3a e0 9e 26 39 db 11 12 39 f4 f4 ad ba
       0.00082118437 0.00015890179 0.00013930297 -0.0013271854
0000f0 5c 89 b1 b9 20 34 43 3b ca ef 35 3a 42 de 2d ba
       -0.00033862412 0.0029785708 0.00069403334 -0.0006632545
000100 87 55 53 ba e8 e5 7c b7 96 b2 f5 39 3c 9c 3a 39
       -0.0008061756 -1.50739e-05 0.00046863098 0.00017796544
000110 d3 0d 0f 3a 40 38 8a 35 2b c6 39 3a 2f 1c d3 3a
       0.0005457077 1.0298172e-06 0.0007086719 0.0016106422
000120 bb 6a d0 38 20 95 06 3a 97 82 33 bb d0 eb 9c b9
       9.938093e-05 0.00051339157 -0.002739107 -0.00029930333
000130 44 f2 c3 3a c8 72 39 b9 e5 3d 98 39 11 55 a9 b9
       0.001494952 -0.00017685734 0.00029037814 -0.0003229757
000140 80 49 ce 36 32 e1 a0 3a f3 71 d4 b9 48 cc 68 ba
       6.147835e-06 0.0012274145 -0.0004052069 -0.0008880538
000150 2d cd d6 ba be ce 11 3a c5 ca 21 ba f8 11 df 39
       -0.0016388051 0.0005562118 -0.00061718776 0.00042547262
000160 22 fc 8e 3a 58 73 af 39 ce e2 0b 3a 58 ca 19 b9
       0.0010908882 0.0003346454 0.0005336226 -0.00014666596
000170 78 65 43 3a 27 51 d9 3a 58 8d bd b8 61 20 5c ba
       0.00074537797 0.0016579971 -9.0385496e-05 -0.0008397159
000180 98 1e 4b 39 58 ec ac 39 b7 f1 02 ba 72 71 92 ba
       0.00019370986 0.00032982486 -0.0004995125 -0.0011172725
000190 dd 7a 36 3a 08 52 23 3a 82 52 54 ba 4b 17 c3 b7
       0.0006961057 0.000623018 -0.0008099453 -2.3256658e-05
0001a0 89 bf 4f 3a ba 5c 2a 3a 30 11 01 b8 6f 0d 92 3a
       0.00079249643 0.00064988027 -3.0772004e-05 0.001114292
0001b0 e7 fc 7c 39 c8 2c 70 3a 06 48 d9 37 22 97 1f 3b
       0.00024126806 0.00091619464 2.5901954e-05 0.0024351557
0001c0 84 81 7f 38 d8 2b 0f 39 56 ed f5 3a 4f c0 fc 39
       6.091736e-05 0.00013653876 0.0018762748 0.00048208467
0001d0 14 a2 08 bb 18 4b b3 b7 30 2e 4d ba de b1 c1 38
       -0.002084856 -2.1373431e-05 -0.0007827012 9.2360875e-05
0001e0 72 bf 05 3a 68 32 48 3a f0 bc f5 b9 1c 19 bf b9
       0.0005102075 0.00076369056 -0.0004687081 -0.00036449067
0001f0 42 b1 a9 ba 89 84 6f ba 3c 82 93 38 ea b0 af ba
       -0.0012946504 -0.0009136876 7.033764e-05 -0.0013404165
