results/test_environment/VacuumCleaner/VacuumCleaner-448.onnx (onnx, 86836 bytes, 7 tensors)

network_body._body_endoder.seq_layers.0.weight f4 [128, 34]
00000000: 4353 76bd 5a9d 923d 5f2b 863e acd7 203c
00000010: f01c c9bc 8067 933d 634c a3bc 3138 aabe
00000020: 12be 903d 17b6 06be e10d 42be ba9d 2d3e
00000030: d552 8abe 2bc1 0e3d f6fb 92bd e413 b0bd
00000040: 0058 d1bd 356d 91be e00e 39be daea c43d
00000050: 9772 a3be 2da8 c3be dd4f c73d c00a 21bd
00000060: 9d59 3e3e 559d 97bd 3be0 283d 816f a33e
00000070: ad48 adbe 5bb6 513e 7287 44be c115 50be
00000080: d1e9 6e3e acad 0d3e 2316 6c3e 37a6 233d
00000090: fb1f 88be e5af cc3d 3f27 aa3d 0dcd d7bc
000000a0: 0a0e d43d d060 f7bd 04cf bcbd 0ee7 78be
000000b0: 00c6 873e 6761 e9bd a9d0 163e a64f 743e
000000c0: 0d72 a13a 982e a9bd f4ac 863c 5717 803d
000000d0: 8ba5 073e 3c6f 4b3c 53d7 be3c 6015 2c3e
000000e0: 99c5 753e ace8 013e 790d 933e 92a3 84be
000000f0: 8f92 23bc b65a 18be fa7e 85ba 364a 2ebe
00000100: 9746 a23e 9044 dfbd 92eb 2ebd 83cb 97be
00000110: bf44 0dbc 1134 ef3d 0f0e 99be ffe6 81bd
00000120: ff3a e33d 16ce 97be 909e d8bd 9906 ee3c
00000130: 7ccb 07be 59bc 72bd 4a1d 2ebd f787 2e3e
00000140: 620e e73d 3a9a 63bc d9c1 4b3e d9aa 853c
00000150: 132d 12bd 3d83 47be ca06 9f3e 1105 92bd
00000160: ac1f 0f3d 5572 a63e 18e2 d03d 75b1 d03d
00000170: 41ee 833e b5f6 00be ecd6 333d a4a0 8f3e
00000180: d467 2fbd 5998 6fbe 16c0 97bd d68b 00be
00000190: 80bc 0c3e 3e8a a9be 7439 a63d 09bf 96bd
000001a0: fec5 2fbe fde3 bd3d 3e20 323d e57d 78be
000001b0: 7b83 103c ca22 cc3d 67fd e3bd c969 91be
000001c0: 9c62 2d3e 15c9 f3bd 91c3 063e f58f 3c3c
000001d0: 0ec6 053e e1c2 5e3e a0fe 79be 9dd1 623d
000001e0: 7aad 813e 83a9 9c3d 9632 6f3d a697 0ebe
000001f0: e1ff 3bbd 0372 d3bc 035f ea3e 5cdc fdbd
00000200: 2f1a 23bd e2b6 c9bd 5c1a 05be fa62 ba3e
00000210: 2981 64be 81a9 0fbe 900c 94be 4d31 81be
00000220: 7174 94bd 5faf 06bd 5dfa ecbd f11d d53d
00000230: d513 d63d 7467 ba3e 15af 543c 6390 b93c
00000240: ab83 83be 9984 44be 2978 4fbe 4736 293e
00000250: dd94 583e 70d6 8fbd 7f03 483e 15dc ba3c
00000260: 52bc 913d f923 23be 130f 6abe 881f a4bc
00000270: cbe4 153e 8df8 9e3d a095 3b3d 28d0 083e
00000280: 5ddd 44bd 767f 9f3c f604 15be f298 d13d
00000290: c674 473c be7f 3cbe bace 143e 8a50 2e3e
000002a0: 95ff 8e3d 93ea 773e 60d9 5c3e 889e 833d
000002b0: 388a 063d bfd5 393e 3f14 43be 3237 5bbd
000002c0: 7613 5ebd dbda b6bd 9822 a9bd 9fc9 2c3e
000002d0: bc55 b73d d87d 283e c5f0 e9bb 0a72 6cbe
000002e0: e2a0 8a3d 1bbb 92bd 4f1e a93d 0442 943e
000002f0: 3c05 6e3d 5208 adbc 2908 71be 0395 c4bd
00000300: 582e 263d b5d2 ad3e 9302 32bd f778 1cbe
00000310: e0db 9a3e e299 483e 2a64 25be 87cc c8bd
00000320: 6644 173e 3cbd 0d3e 4db9 da3d e451 46be
00000330: 8d4e d43d cf35 2dbe a528 e73e e955 c93d
00000340: fa50 993e 8de0 d23d c7c2 7b3e 77c4 02bd
00000350: feb6 ce3d dfef 523e 10ea 8b3e 0bd9 97be
00000360: cb23 d7bd 8ad6 4b3e 8911 bbbd dbac 6a3d
00000370: 63e0 35be c8d2 c13d 7c01 44bd 7d92 27bc
00000380: 5500 04bd ebcd 89bd 2c75 913e 953d 60be
00000390: 6b19 4a3e 2482 5f3d c7a0 ee3d 63a9 afbd
000003a0: 956d 203c 5e9b e83b 6f47 063e 949c 5c3c
000003b0: bd4c b5bd 9116 babe 64ee 5f3e 5504 013e
000003c0: 12c5 f83d 91f2 a13c d8c6 a3be 2512 db3d
000003d0: d6fc af3d a355 b7be 755d 6bbd 895d 883e
000003e0: f724 d23c 1858 a03e 2433 15be 28ba 5b3e
000003f0: 41b0 0cbe c1e6 0c3d e43c b0bd b1b1 483e
-0.060138 0.07158919 0.26204965 0.009817045 -0.024549931 0.071974754 -0.019933885 -0.33245996
0.07067503 -0.131554 -0.18950607 0.16954699 -0.2701632 0.034852188 -0.07176964 -0.08597544
-0.10221863 -0.2840363 -0.1807208 0.09615107 -0.31923363 -0.38214245 0.097320296 -0.039316893
0.18588872 -0.074030556 0.041229468 0.31921008 -0.3384451 0.2047972 -0.19192293 -0.20320798
0.23331381 0.13835782 0.2305532 0.039953437 -0.265869 0.09994487 0.08308267 -0.026342893
0.1035424 -0.120790124 -0.092191726 -0.2430689 0.2651825 -0.11395531 0.14728035 0.23858508
0.0012317315 -0.0826084 0.016439892 0.06254452 0.13246743 0.012416657 0.023296034 0.16805029
0.24001159 0.12686414 0.28721216 -0.25906044 -0.009983673 -0.14878353 -0.0010184937 -0.17020497
0.3169448 -0.10901749 -0.042705126 -0.29647455 -0.008622347 0.11679853 -0.29893538 -0.06342887
0.11095237 -0.2964942 -0.105771184 0.02905588 -0.13261217 -0.059261654 -0.0425084 0.17044054
0.1128204 -0.013891751 0.19898166 0.016316818 -0.035687517 -0.19483657 0.31059867 -0.071298726
0.034942314 0.32509103 0.10199374 0.10190097 0.2576771 -0.12594111 0.043906137 0.28052247
-0.042823628 -0.2339796 -0.07409684 -0.12553343 0.13743782 -0.33113283 0.08116427 -0.07360656
-0.17165372 0.09272001 0.04348778 -0.24266775 0.00882041 0.09967573 -0.11132317 -0.2840102
0.16932148 -0.11903588 0.1316054 0.011508931 0.13063833 0.21754028 -0.24413538 0.055375684
0.25327665 0.07649519 0.058397852 -0.13925037 -0.045898322 -0.025811201 0.45775613 -0.12395546
-0.039819892 -0.09849335 -0.12998337 0.36403638 -0.22314896 -0.14029504 -0.28915834 -0.25232926
-0.07248772 -0.03288209 -0.115711905 0.104061015 0.104530014 0.36407053 0.012981196 0.022651857
-0.25686392 -0.19191207 -0.20260681 0.16524611 0.21150537 -0.070233226 0.19532584 0.022810021
0.071159974 -0.15931691 -0.22857313 -0.020034567 0.14638059 0.07762251 0.04579699 0.13360655
-0.04806267 0.019469958 -0.14552674 0.1023425 0.012173837 -0.18408105 0.14531985 0.1702291
0.06982342 0.24210577 0.21567297 0.06426722 0.03284666 0.18147944 -0.19050692 -0.053519435
-0.05421778 -0.08928462 -0.08258551 0.16873787 0.089518994 0.16454256 -0.0071392977 -0.23090377
0.06768967 -0.07164594 0.08257734 0.28956616 0.05811046 -0.021122131 -0.23538269 -0.09598734
0.04057154 0.3394982 -0.043459486 -0.1528052 0.30245876 0.19589952 -0.16151491 -0.098046355
0.14772186 0.13841718 0.106798746 -0.19367176 0.10366545 -0.16915058 0.45148197 0.09830839
0.29944593 0.10296736 0.2458602 -0.031925645 0.10093497 0.20599316 0.27327013 -0.29657778
-0.10504874 0.19906059 -0.09134204 0.057293754 -0.17761378 0.094640315 -0.047852978 -0.010227797
-0.03222688 -0.06728729 0.28409708 -0.21898492 0.19736259 0.05456747 0.116517596 -0.0857723
0.009791751 0.0070985993 0.13113187 0.0134650655 -0.08852527 -0.36345342 0.21868283 0.12599309
0.12146963 0.019768985 -0.31987643 0.1069682 0.085931465 -0.35807523 -0.057462174 0.26633862
0.025652392 0.3131721 -0.1457029 0.21457732 -0.1373911 0.03439975 -0.08605364 0.19599034

network_body._body_endoder.seq_layers.0.bias f4 [128]
00000000: 2258 d4bb 28a0 03bc 8330 7f3b 3ba0 31bc
00000010: 036c 2d3b de74 5ebb 035c 7bba 6c49 c5bb
00000020: 36d1 a538 51f9 1cbc bab9 daba 7837 753b
00000030: 7fa8 0bbc 7c04 4c3c 1600 f337 b50d 3bbc
00000040: f2cd c5ba dd45 d7bb f6eb 4dbb 2249 e93b
00000050: 1ced b23c fc9d 35bb cf21 e43b fd9f 2e3b
00000060: c915 8abb b8d1 b4ba e105 923a 8af4 7ebb
00000070: 0677 273c 52f6 afbb 5391 d3bb e27d 44bb
00000080: fa9e 0e3c 2a91 043c e01c 333b 925c 87bb
00000090: 49f9 a03b fffc c8ba dddf 7ebb 49c0 dc37
000000a0: 75e0 8a3a 2e9d f23a 7b92 933b eb9d 983b
000000b0: 6327 f63b 616a 77bb 916f b6ba 7754 4f3c
000000c0: 7d1e c93b 30d8 243b 9be2 44bb f331 aa3b
000000d0: c412 9e3a 025f a33a 9249 483b c382 af3b
000000e0: f928 8fbb 627d 8d3c c9a0 cd3b 049e 81bb
000000f0: 7874 b8bb 70e3 4738 3c62 8639 9738 433c
00000100: e97c d63a 8e98 5a38 d01a 1c3b f8be c3bb
00000110: d188 fdbb 9cb4 deba 1fc1 05bc 9ffe d93b
00000120: 5c74 91bb 66a4 20ba 986a 02ba 5462 393c
00000130: 3b83 0abb 1072 cabb 90ef d3bb ebe0 4839
00000140: baee 2abb c198 8e3b 229b b43b 0bc4 413c
00000150: 6799 173b 62c4 87b9 5e43 133c 6978 80bb
00000160: 8562 3d3b 4d5c c03b 7f48 78ba bc21 4c3a
00000170: 9400 e4bb 5e36 903b 6cac 22bb 5942 d13b
00000180: 5d28 903a aac1 ffbb b46c 333b 659b 28bc
00000190: fe3f 973c ad95 a6bb bdbd 703c 3300 b438
000001a0: 4455 2b3c 7ce1 4f3b d02b 09bc 106a 56ba
000001b0: 0de1 323c 51fc 993b 42df 5fbb b4c0 ebba
000001c0: b98c 56bc 4d0b a0bc 3392 de3b 5da2 a23c
000001d0: 27b0 853c a747 883b 61c4 23bc 478a bcbb
000001e0: e159 d639 c817 073b 85a2 1bbc c40c a6ba
000001f0: 44e9 bebb 3b18 b9bb df1e 033c 31ee a03a
-0.006480233 -0.00803379 0.0038938827 -0.010841425 0.0026462085 -0.003394417 -0.0009588601 -0.0060207155
7.906782e-05 -0.009580926 -0.0016687431 0.0037417095 -0.008524059 0.012452241 2.8967897e-05 -0.011416842
-0.0015091284 -0.0065696076 -0.0031421161 0.007119314 0.021841578 -0.0027712574 0.006962038 0.0026645653
-0.004214023 -0.0013795411 0.0011140668 -0.003890308 0.0102212485 -0.00536994 -0.006456533 -0.0029982259
0.008704895 0.00809125 0.0027330443 -0.0041309083 0.0049125296 -0.0015334188 -0.0038890757 2.6315583e-05
0.0010595458 0.0018509978 0.004503546 0.004657497 0.0075120195 -0.0037752616 -0.0013918747 0.012654415
0.0061376677 0.0025153272 -0.0030042294 0.0051939427 0.0012060036 0.0012464228 0.003056143 0.005356164
-0.004368898 0.017271701 0.0062752706 -0.0039556045 -0.0056291185 4.7657115e-05 0.00025631662 0.011915348
0.001636413 5.2117328e-05 0.0023819692 -0.005973693 -0.007737257 -0.0016991082 -0.008163719 0.0066526677
-0.00443892 -0.0006128013 -0.000497499 0.011314947 -0.0021135348 -0.006178148 -0.006467767 0.00019157275
-0.0026082234 0.004351706 0.0055116573 0.011826525 0.0023132206 -0.00025895523 0.00898823 -0.003920604
0.0028897834 0.005870378 -0.0009471252 0.0007787009 -0.0069580767 0.0044010123 -0.002482201 0.006386083
0.0010998357 -0.007805069 0.0027378025 -0.010290955 0.018463131 -0.0050837607 0.014693675 8.583106e-05
0.010457341 0.0031720093 -0.008372262 -0.00081792567 0.010917914 0.004699268 -0.0034160172 -0.0017986507
-0.013095074 -0.019536639 0.0067923306 0.019852811 0.016319348 0.0041589322 -0.009995551 -0.0057537886
0.00040884226 0.002061354 -0.009499197 -0.0012668599 -0.0058261473 -0.0056486405 0.008002966 0.0012278018

network_body._body_endoder.seq_layers.2.weight f4 [128, 128]
00000000: 3e98 3b3d 0fe9 5a3c ac49 a1bd 7c7f d8bd
00000010: f541 ecbb 967e 62bd af32 ca3d 4675 593c
00000020: 1c14 393e 2db1 9cbc 2cea d0bd c140 183d
00000030: 5ba7 f23c d329 a43a 423c fdbd 228d a5bd
00000040: fb99 d2bb da75 6b3c 38b2 2e3d be68 80bd
00000050: b980 373e 9770 df3d 7b03 94bd 7bb5 233d
00000060: 34de c0bc 05a3 583d 6ca2 c1bc a71f 0bbb
00000070: 8729 e53c 1d8d 09bd 2542 0f3c 0ed9 3ebd
00000080: 2abd 223d ac30 0d3c fe29 1ebe 432a 45bd
00000090: f15a aabd ccb3 97bd ad07 283e 8cb0 32bd
000000a0: 9b31 bebd 9053 073d 0732 f83d 00fd 25bc
000000b0: 2eda f53b 7d6d b73d d60c f8bc f3bb 4bbd
000000c0: 5526 213d d9e0 fb3b f7a2 543e f05c 513e
000000d0: 03fc 3bbe 8469 a53c 6116 0dbd cdc1 0d3e
000000e0: 6d91 ac3b b740 1bbe 74cc 9fbc 8280 a5bd
000000f0: b9b3 d0bd 01d7 a83d 0c02 b4bb f4f3 81bb
00000100: 044b 8b3d ff0f 04bb e76e 13be fe70 39be
00000110: ee5a 8e3c a1cb 0c3d 955f 963d 4324 65bd
00000120: 9c77 213c 32bc f83c 1a05 ac3c de42 c539
00000130: 4652 d8bd 6e9f f13b 04c0 a1bd 9527 113d
00000140: d2b8 7d3d f2e4 0fbc 73cc 5a3d 50c8 61be
00000150: 9ff4 063e 86d7 ec3c 98b3 03be 895d aebd
00000160: 5143 01be 2c46 073e b860 593d a300 343d
00000170: 810d 1cbd b312 c53d 2ff5 29bc e35f 343d
00000180: d166 79be cb29 c03d 19e7 29bd da9c edbd
00000190: e747 633d 1edc a9bd b0a8 743d 3b87 d13d
000001a0: 7923 2cbd 1c27 01be 2351 c1bd b89b c13c
000001b0: 4f27 c23d 6398 323d b612 d8bd 8cb1 a3bd
000001c0: 3845 853e 605e d5bd b01c 233b 3c2d b23d
000001d0: bc93 eabd d95c d6bc bac0 cf3d 9178 09be
000001e0: 440f 443d e7b0 19be 039e a73d a3a1 143b
000001f0: 8508 e4bd c513 99bd eff9 fd3b 9286 c73b
00000200: 5a05 08be 4bca 4f3e 8e52 33bd 8138 b83d
00000210: 4d00 9fbc 7155 843d f012 bdbd da00 81bb
00000220: cb85 cbbc 2d90 bbbd 688d a6bd 6446 5abd
00000230: 772f 163c 88f9 6b3e 7751 8bbd 6506 27bd
00000240: c63a 98bd f796 f63d cd69 5fbd 4829 eb3c
00000250: 9fdf 803d e7d5 afbd ef34 12be f5eb bfbd
00000260: 3a72 9d3d 6223 ff3d d246 093c f6c7 1ebe
00000270: f9f5 abba 0178 a93c 99be 1ebd 0d5e e0ba
00000280: 9e27 503d f2f4 c43d 8b29 b73d 4658 a63c
00000290: 23e6 44bd e79d c03c 272a d8bd 0428 82bd
000002a0: b97d 8cbc cfad 913d bafa 023e 8741 14bd
000002b0: a4b4 ebbc ee60 c0bd dcd9 663c f2ac e93c
000002c0: 05e4 fc3d a6ff e03d 0e65 be3c 84bc 0b3e
000002d0: 2e72 97bd b34b cd3d 95de 6ebd d74f f43c
000002e0: dc57 e0bd 1b9a 6b3e d55a 123d 795d 13be
000002f0: 6391 50be a1f3 233d e648 33bd 44a6 8bbc
00000300: 2bc1 17bd 3803 9a3d 9097 bdbd 464b 223d
00000310: e044 643d efe7 573d cf27 aabd a88a dd3d
00000320: a145 853c f027 fcbc 4631 0c3e ce95 70be
00000330: 94ec 303e 5e72 bdbd 9747 f0bd d179 80bd
00000340: 1329 a43d 55f1 8b3d 1670 133e e5eb fdbc
00000350: d7fe c73d adcd 3b3d 7bc3 673d ea91 883d
00000360: 2051 ab3d 2eba b4bd 31f7 51bd 4d9f 7abd
00000370: 8a2c a6bc 916e 573d b79f 86bc 9525 fb3d
00000380: 8d5d 7cbd a6c7 f4bc 972d 883e d60e 16bd
00000390: 3b9a 3a3d 2a46 a73d 61d5 fc3d 88cd d2bd
000003a0: 1c2f adbd b086 12bd f8a7 483e 4c06 d23c
000003b0: b30e e13c 7a82 87bd ae0d 293d cad6 adbd
000003c0: 9172 1dbe 0b42 b6bd 312a 0a3e 58b8 5d3d
000003d0: 1306 fabd 1c22 b43d f8be 95bc 3ae8 fa3d
000003e0: 6079 3a3d 89dc 983d bc9b febd f220 773c
000003f0: be93 d53c ac79 11bd 8222 a53d 1d5e 55bc
0.045799486 0.01336123 -0.0787538 -0.10571191 -0.007210011 -0.055296503 0.098729484 0.013272589
0.18074077 -0.019127453 -0.10200915 0.03717113 0.029620817 0.0012524672 -0.12365009 -0.080835596
-0.0064270473 0.01437136 0.04265043 -0.06269978 0.17920198 0.10910147 -0.07227226 0.039967995
-0.023543455 0.052889843 -0.02363702 -0.0021228583 0.027973903 -0.03358184 0.008743797 -0.04659372
0.039731182 0.008617561 -0.15445706 -0.048136007 -0.08318127 -0.074073404 0.16409178 -0.0436254
-0.09286805 0.033038676 0.12118917 -0.010131121 0.0075028157 0.0895643 -0.030279558 -0.04973979
0.039343197 0.007686716 0.20765291 0.20445609 -0.18357854 0.020191915 -0.03444517 0.1384346
0.0052663595 -0.15161406 -0.01950667 -0.080811515 -0.101905294 0.08244134 -0.005493408 -0.003965849
0.068014175 -0.0020151136 -0.14397775 -0.1810951 0.017377343 0.034373883 0.073424496 -0.055942785
0.009855177 0.030363176 0.020998526 0.00037624588 -0.105625674 0.007373742 -0.07897952 0.03543814
0.061943837 -0.008782612 0.053417634 -0.2204907 0.13179253 0.028911363 -0.12861478 -0.08513934
-0.12623335 0.13210362 0.053070754 0.04394592 -0.038098816 0.09622707 -0.010373398 0.044036757
-0.24355628 0.093829714 -0.041480158 -0.11602183 0.055488493 -0.08293937 0.059731185 0.10230871
-0.042026017 -0.12612575 -0.09439304 0.023633823 0.09480154 0.04360236 -0.10550444 -0.07992849
0.26029372 -0.10418391 0.0024888925 0.08700034 -0.11453959 -0.02616732 0.101441815 -0.13424899
0.04786612 -0.15008889 0.08184435 0.002267935 -0.111344375 -0.07474474 0.0077507417 0.00608904
-0.13283291 0.20292012 -0.043779902 0.08995152 -0.019409323 0.06461609 -0.09232128 -0.003936869
-0.02484407 -0.09158359 -0.0813244 -0.053289786 0.00916659 0.23044407 -0.068026476 -0.040777583
-0.07433085 0.12040513 -0.05454426 0.028706208 0.06292652 -0.085857205 -0.14278005 -0.09371177
0.076878026 0.124579206 0.008378701 -0.15505967 -0.001311957 0.020687105 -0.038755987 -0.0017117873
0.050819032 0.09617032 0.089434706 0.020305764 -0.048071038 0.023512794 -0.10554915 -0.063552886
-0.017149793 0.071132295 0.12790957 -0.036195304 -0.02877266 -0.09393488 0.014090028 0.02852485
0.12348179 0.10986261 0.023241546 0.13646132 -0.07394825 0.10024204 -0.05831774 0.029823227
-0.10954258 0.23008005 0.035731155 -0.14391126 -0.2036796 0.040027265 -0.043770693 -0.017047055
-0.037049454 0.07520145 -0.09257424 0.039622568 0.055729747 0.052711423 -0.08308374 0.10817462
0.016268553 -0.030780762 0.13690671 -0.23494646 0.17277747 -0.092503294 -0.11732405 -0.06273235
0.08015647 0.0683314 0.14398226 -0.030996272 0.09765404 0.045850445 0.05658291 0.06668456
0.08365083 -0.088245735 -0.05126113 -0.061187077 -0.02028491 0.05259568 -0.01643358 0.122630276
-0.061612654 -0.029880356 0.26597282 -0.036635242 0.045557242 0.081676796 0.12345386 -0.10293108
-0.08456251 -0.03577298 0.19595325 0.025637768 0.02747283 -0.06616683 0.04127281 -0.084882334
-0.15375735 -0.088993154 0.13492657 0.054130882 -0.1220819 0.08795568 -0.018279538 0.12251325
0.04552591 0.07463939 -0.12432048 0.015083538 0.026071426 -0.035516426 0.080632225 -0.013022927

network_body._body_endoder.seq_layers.2.bias f4 [128]
00000000: 4f16 b13b 082f 26bb cfa3 223c cbcd da3a
00000010: f694 a7b9 6d03 703b 55df b1ba 1fe7 94bb
00000020: 7244 b93b 11b7 0739 f18a 153c 2cca 863b
00000030: a766 d43b faae 843b 42f3 c93b 1362 233a
00000040: 3324 213b 0281 133b 7d98 e13a 4c0b 91ba
00000050: 2d8b e63b 35f4 29bb ceab af39 389c f5bb
00000060: 1850 083c 8fb3 b13b 1714 7bbb 383e 93bb
00000070: 3924 f1ba 631a a8bb 9b64 74bb 9044 fc3b
00000080: 67b0 743b 3e00 f4ba e4f0 ea3b 01f7 8ab9
00000090: 5797 72bb 0886 173b 006d 9fbb 8928 53bb
000000a0: a4eb 4bbc 426c 99bb 222e 1b3b 4206 163b
000000b0: 2b3a c8bb 7141 593b 2406 e23b 2761 65bb
000000c0: a18f 8dbb 0af8 1b3c c937 4abb e9c8 cf3b
000000d0: 4387 d1ba d97a 0abc 447b 6fba 1a07 aa39
000000e0: f9dd ac3b 1383 aebb 4209 11ba f841 cabb
000000f0: e8be 9eba 51b8 cf3a b0bf 09bb fa4f 193c
00000100: 79d8 f4bb 36ce b6ba f6f1 983b 67e1 1d3b
00000110: f2f0 ebba a29e 9f3a f9af 86b9 4907 19b6
00000120: 5307 173b 7784 1f3c 31a9 d93b 7650 3abb
00000130: 7252 fabb 4ac7 2a3b 869c 033c 10d2 8e3b
00000140: 65e4 2dba 08ee 583c 97ab 89bb 0b3e b0bb
00000150: 1242 0ebc ecf0 05bb 9e6c 573b 37a7 2a3c
00000160: fe41 f9bb 355e 4539 8225 423b 9f00 abbb
00000170: 74b2 d63b a6ef 11bb 6a35 84bb f006 7cbb
00000180: a321 05bb db78 233a 9276 16bb 76a9 e1bb
00000190: e385 5d3b 29d1 5d3b 784a b438 a761 4b3b
000001a0: 5bf4 bcbb c0a8 73bb 7fd7 6fbb 3145 1c3a
000001b0: 185e f13b 185f d13b 6a3c f63a 6fff 4b3b
000001c0: 3abe 7839 3c55 623b 6aaf b23b fe35 393c
000001d0: c50c 043a bc2e 17bb 28a1 d1ba 4c73 e0ba
000001e0: 37f4 10bc 7707 e5ba c54a 363b defc b0b9
000001f0: c831 7f3b f0b7 ed3b 43a0 063b 8b36 7abb
0.0054042707 -0.0025357623 0.00992675 0.0016693411 -0.00031963707 0.0036623136 -0.0013570586 -0.0045441533
0.0056539113 0.00012942801 0.0091273645 0.0041134562 0.0064819637 0.004049179 0.006163032 0.0006232571
0.0024588227 0.0022507315 0.0017211583 -0.0011065989 0.007035634 -0.0025932912 0.00033506606 -0.0074954294
0.008319877 0.0054230164 -0.0038311535 -0.004493501 -0.0018397636 -0.0051300987 -0.003729141 0.007698603
0.003733659 -0.0018615795 0.0071698297 -0.00026505443 -0.0037016475 0.002312066 -0.0048652887 -0.0032220206
-0.012446318 -0.004682095 0.002367862 0.0022891914 -0.00611045 0.0033150578 0.0068977047 -0.0035000534
-0.0043201004 0.009519586 -0.0030856004 0.006341089 -0.0015985746 -0.008452141 -0.00091354945 0.00032430218
0.0052754846 -0.005325684 -0.00055326906 -0.006172415 -0.0012111338 0.0015847777 -0.0021018796 0.009357447
-0.0074720946 -0.0013946954 0.004667516 0.002409065 -0.0018000884 0.0012178014 -0.00025689582 -2.2803017e-06
0.0023045137 0.009736172 0.0066424836 -0.0028429306 -0.007639223 0.0026058727 0.008032924 0.0043585375
-0.00066334597 0.013240345 -0.0042013633 -0.00537849 -0.008682745 -0.002043779 0.0032871137 0.010415844
-0.007606744 0.00018822479 0.0029624407 -0.00521858 0.006552035 -0.0022268086 -0.0040346878 -0.0038456284
-0.0020314238 0.00062359654 -0.0022958857 -0.0068866564 0.0033801727 0.0033846593 8.59694e-05 0.0031033547
-0.005766434 -0.003717944 -0.0036596952 0.0005961238 0.007365953 0.00638951 0.0018786315 0.0031127592
0.00023721988 0.0034535667 0.00545304 0.011304377 0.0005037303 -0.0023068627 -0.0015993463 -0.0017124205
-0.008847288 -0.0017473538 0.0027815562 -0.00033757737 0.0038939584 0.007254593 0.00205423 -0.0038179483

action_model._continuous_distribution.log_sigma f4 [1, 2]
00000000: 7100 09be 5112 0bbe
-0.13379075 -0.13581206

action_model._continuous_distribution.mu.weight f4 [2, 128]
00000000: b559 d5bc 731e 5bbc 6659 c53c 51b4 443b
00000010: ffb3 373d 52af 96bb 25c7 123c dc0c cb3c
00000020: f356 aabc 1a88 ed3c 41ad 50bc c89d 123c
00000030: 48ec 1ebb 637e dcbc a70f 38bc dbac ca3c
00000040: 8c71 0ebd 2366 58bc e6c9 c3bb b52e e73c
00000050: 33a4 1abb be81 cc3c 493d a2bb 9fc3 8f3c
00000060: efb4 4e3c 8823 20bd d7e3 bfbb 9399 be3b
00000070: 8b33 c13b 078b ce3c f1e8 8e3b 9bfd c1bc
00000080: ef0c 853c 9397 823c 7b0f 763c aa1c 943c
00000090: e199 a0bc 5e4c 3cbc 91b3 8f3c 2db1 3a3b
000000a0: 844b 253d b32a 1fbc a62b 0b3c 28c6 bcbc
000000b0: a7d6 413c 3130 1abc 1a05 893b f842 923c
000000c0: 866e 17bc 3681 5abd eb6c b43c b726 bbbc
000000d0: 4a60 eabb 0e3d 173d b723 b83a cbd2 8e3c
000000e0: a603 733a 095d 813c ce6b c23c c53e 723c
000000f0: 3b52 9a3c 1d74 30ba 576b 21bb e9a5 103d
00000100: e4ad 0cbb 5ee1 91bc c88f 3ebc 5e42 2dbb
00000110: 57e0 263c 6aa5 c1bc ef96 0abb 7fc9 b43c
00000120: 6f44 0e3d 49c4 1a3b b9b5 24bc 4438 e03b
00000130: 6118 e13c f5d0 30bc 5ac3 233d b8a8 4dbc
00000140: 066f 403d 00e2 dfbc 68e5 8abc f7ab b63b
00000150: 85c8 be3b 96e0 363c 67c6 18bc 7ae8 383c
00000160: 321e 4ab9 57dd 3dbc 12bb ecbb 8114 b83b
00000170: e7eb b2bc 869c 02bc 70e2 943c a917 843c
00000180: 87c1 0bbc 1a65 6e3c 1240 d7bb 100f 4f3b
00000190: c531 a83b 6cf9 89bc 5100 663d f1aa 02bd
000001a0: 5dd7 ef3b 02b6 193c 952b 863c 760a dabc
000001b0: c941 35bc a295 ac3c 0cb9 cd3c 6ad5 d8bc
000001c0: 1c7c 90bc d888 c1bc a22b f0bc 5da4 cfbc
000001d0: 3494 3d3d 0107 813b 677c 7d3b 448a a63b
000001e0: c7cb c7ba 84bd 3a3d 7320 423c 710e 103c
000001f0: 74a3 1e3b 1715 313d 11df d03c 46ab b33c
00000200: 9a0b ac3c 646f 1d3c 2cdc bebc c091 8bbc
00000210: 3502 f73c b263 5dbc 7cb7 9a39 3312 a5bc
00000220: 806d bfbb ccfc 4c3a 532d 423d 7177 11bd
00000230: e846 65bd 1882 a6bc 40d3 acbb f5ef 203d
00000240: 21af b5bc e865 c13c 20f5 163d e52d b13a
00000250: c477 53bc 30aa f03b 811c d8bb d681 b4bc
00000260: 3ed1 b9bc 0df2 883b 55db b93c 630c fb3c
00000270: 0ffe d2bc 40c8 8e3b b41a 693c 712d 393c
00000280: 5a51 e2bb 3c6f b0ba 2544 9cbc 1f75 f3bc
00000290: 430f 5a3c 6c9a fabb 065e c2bb ba8f c63c
000002a0: c413 e43c 6db7 053d a54a 65bd f1b7 9a3a
000002b0: c121 2fbc 9ace d0bb 7aea 25bd 52d1 9c3b
000002c0: 8ef6 753c d881 083c 598b 42ba 7bd3 16bc
000002d0: 2a70 f6bc d7d0 d53c 9349 573b 5e32 3f3b
000002e0: c4f4 82bc 8326 14bb 25da 0d3d 9563 e03c
000002f0: 1633 973b e87a 843c d8e5 b33c cd9e 81bc
00000300: eac5 9aba 8562 e33c b428 893b 459f f9bc
00000310: 1735 80bc f074 8cbc 6114 9dbc d652 9539
00000320: d4b4 603c afde b2bc 916a dd3c 15ac 463c
00000330: c160 8b3c 4452 52bc dfa4 16bc f7b3 afbc
00000340: bf95 1f3a 6da9 1fbd 7f3c ee3c 951d f93c
00000350: 10ae c139 9bda 0e3d a191 77bc 1e4e 2fbd
00000360: 8766 263c 3a92 e3ba 1142 31bc 3ca5 ac3b
00000370: ac62 9dbc 8f87 6839 8038 e33b 12dd ce3c
00000380: 0728 523c 7d28 a6bb 6eb7 a93c ed46 383c
00000390: ad99 b3bc 7004 d93b a37f f63b 508c cfbb
000003a0: 6524 e9bb fe91 4fbc 8003 673c 0bc3 f63b
000003b0: 17d2 82bc 9aca 12bd 7497 64bc 5ed3 dcbc
000003c0: 6252 ce3c 2c72 06bd d717 78bb efa7 10bd
000003d0: c657 09bc 728b f5ba e43d d03c 8cd2 ed3c
000003e0: 16bf 493c 6205 0aba a743 b9bc 4f52 22bc
000003f0: 1bc7 39bc eae6 10ba ad55 fabc 74f7 83bc
-0.026043752 -0.013373959 0.02409048 0.0030014704 0.044849392 -0.0045985365 0.008958613 0.024786405
-0.020793414 0.028995562 -0.012736619 0.008948751 -0.0024249721 -0.026915735 -0.011234201 0.024740627
-0.034776255 -0.013207945 -0.005974996 0.028220514 -0.0023596406 0.02496421 -0.0049511534 0.017549334
0.01261638 -0.039096385 -0.005856018 0.0058166473 0.005896037 0.025212778 0.004361265 -0.023680499
0.016241519 0.015941417 0.015018339 0.018080074 -0.019604625 -0.011492817 0.017541679 0.0028486953
0.04035522 -0.00971477 0.008494293 -0.023043707 0.011830962 -0.009410904 0.0041815164 0.017854199
-0.009242659 -0.05334588 0.022024592 -0.02284561 -0.007152592 0.03692346 0.001404873 0.017434498
0.0009270258 0.015791433 0.023733046 0.014785473 0.018838039 -0.00067311694 -0.002463063 0.035314474
-0.0021465952 -0.017807659 -0.01163096 -0.0026437263 0.010185323 -0.023638446 -0.0021147092 0.022068737
0.034733232 0.002361553 -0.010053092 0.006842645 0.027477445 -0.010792007 0.039981224 -0.012552433
0.04698088 -0.027329445 -0.016955093 0.005574699 0.0058222436 0.011161944 -0.009324647 0.0112858955
-0.0001927547 -0.011588416 -0.007224449 0.0056176786 -0.021841003 -0.007971888 0.01817438 0.016124563
-0.008530027 0.014550472 -0.006568917 0.0031594671 0.005132886 -0.016842566 0.056152645 -0.031901304
0.0073193745 0.009381773 0.016378203 -0.026616316 -0.011063048 0.021067444 0.025112651 -0.026468951
-0.017637305 -0.023624822 -0.02931768 -0.02534693 0.046283916 0.0039376025 0.0038678886 0.0050824005
-0.0015243225 0.045590892 0.011848557 0.008792506 0.0024206312 0.043233003 0.025496991 0.021932255
0.021001626 0.009609077 -0.023298346 -0.017037272 0.03015242 -0.013512539 0.00029509875 -0.02015028
-0.005841911 0.0007819652 0.047406506 -0.0355143 -0.055975825 -0.020325705 -0.0052742064 0.03929134
-0.022178235 0.023608163 0.036854863 0.0013517706 -0.012906972 0.0073445067 -0.006595195 -0.022034567
-0.022682782 0.0041792453 0.022687593 0.030645555 -0.02575591 0.0043573678 0.014227558 0.011302338
-0.0069066705 -0.0013460885 -0.019075463 -0.029718934 0.013309303 -0.007647803 -0.0059316186 0.024238456
0.027841456 0.03264563 -0.05597939 0.0011804086 -0.0106892 -0.006372285 -0.040506817 0.004785695
0.0150123965 0.008331738 -0.0007421277 -0.009205694 -0.03008278 0.02610056 0.003285025 0.0029174308
-0.015985854 -0.0022605963 0.034631867 0.027391234 0.004614244 0.016171888 0.021960184 -0.015822792
-0.001180825 0.027756939 0.0041857604 -0.030471453 -0.015650315 -0.017145604 -0.019174756 0.00028481212
0.013714988 -0.0218347 0.027028354 0.0121259885 0.01701391 -0.0128369965 -0.009194582 -0.021448119
0.00060876826 -0.038979936 0.029081581 0.030409614 0.00036941515 0.034876447 -0.015110404 -0.042799108
0.01015628 -0.0017362304 -0.010818974 0.005268721 -0.01921209 0.00022175744 0.0069342256 0.025251899
0.012826926 -0.0050707445 0.020717349 0.011247379 -0.021923864 0.0066228434 0.0075225397 -0.006333865
-0.0071149343 -0.012669085 0.014099956 0.007530575 -0.01596932 -0.035837747 -0.013952125 -0.026956256
0.025185768 -0.032823727 -0.0037856007 -0.035316404 -0.008382743 -0.0018733575 0.025420137 0.02903106
0.012313625 -0.00052650843 -0.022615267 -0.009907319 -0.011338974 -0.0005527573 -0.030558432 -0.016109206

action_model._continuous_distribution.mu.bias f4 [2]
00000000: f960 deba 9827 6dbb
-0.0016966156 -0.003618693
