results/test_environment/VacuumCleaner/VacuumCleaner-499975.onnx (onnx, 227638 bytes, 7 tensors)

network_body._body_endoder.seq_layers.0.weight f4 [128, 309]
00000000: 6722 6f3e 3a83 093d 649f 06bc ff28 4abf
00000010: fd59 8f3e 7a22 f73d 11e5 2ebd 7606 fd3c
00000020: 055d 15bd 6970 d93e 1e38 afbd 8026 563b
00000030: ece1 83bc 5837 343c 3d4d 9ebd e4ca 1b3e
00000040: 150d 6bbc dd47 82bd b316 17bf a38f aa3d
00000050: 8940 cd3d 5634 3b3f f56d 05be dc7d dfbd
00000060: 9b02 27bf 348e 223e 0ca5 323c f922 0b3e
00000070: e41e bebd e5e0 6ebc 985c 95bc a35d e339
00000080: 5f86 55bd ea59 413e 3058 0bbd 1645 c3bc
00000090: 7efe 4bbb 5f1f a2bc e1b2 7cbd 03e1 6fbf
000000a0: 265a 513e ff0e f33d 79a7 3cbc 5a94 073d
000000b0: 75c2 88bd 96b7 02be 4639 7b3c ca39 69bc
000000c0: b85f a63d 4383 723d 2894 843d 3773 d53d
000000d0: c461 333d 7733 cd3c 18a0 3dbe 492e c6bd
000000e0: 2280 be3c 20d2 61be 01da 303d 130d c9bd
000000f0: b3a9 013e 3698 17bd 314a b0bd c2b4 753e
00000100: c9ef 21be 170f cabd 9d42 02bd ec2a 143d
00000110: 5d57 153d 9ac7 31bd 1342 06bd 93d9 613c
00000120: 27b4 1a3e fcfd 12be 6c10 d8bd d5d2 b0be
00000130: cb0e 353d 9432 883d f2f3 903d 8ed3 f0bc
00000140: dad0 64bc 5558 85be 99a3 59bc dceb 29bc
00000150: dd3c 5f3e 2d83 b4bd 212e c0bd 47ca 62be
00000160: 9236 f83d aaf3 b03d 277d 743d 169a 703b
00000170: ad4a abbd 8dbd 9f3e 1e75 a0bd 4fa1 0dbe
00000180: d801 da3d 89c0 b2bd 577b 44bd 8daa 29be
00000190: 0a28 b33c 972b 77bc 53a5 973e a43a 90bd
000001a0: b135 76bc e8e6 2f3e 71ea 8d3d e69d 4bbd
000001b0: e3b2 d33e b3a4 87bd 9b63 f9bd c696 b5bd
000001c0: d3c2 083e 412b 52bd 9b9b f8be 6749 663d
000001d0: 5595 f13d 9a5f b13d 9fd8 913d 42f9 6dbb
000001e0: eb6b c8be cb99 a93d 27d2 5e3d c276 9cbe
000001f0: 71b1 2d3c a5b0 ac3d 1d67 98be 8a41 743d
00000200: 573a 433c 4eee 18be 6fa2 3d3d 4882 133e
00000210: 922f 3ebf 9718 023e 8473 b43d 3d32 21bf
00000220: d7c4 c73d 1897 203d 2f3a 1bbf d920 96bc
00000230: f6e9 293d ba36 76be 1226 f63d b1f7 553c
00000240: 7af0 b3be e668 e13d 27f5 2c3d bdcc 9ebd
00000250: 8ed7 3dbd a0b0 3dbc 67cd d6bd 62ff 9dbc
00000260: c6ca 163d ac6f 9a3e 4327 a0bd 5662 19bd
00000270: c796 fd3e ed68 81bd 20f6 86bd 84bf f0bb
00000280: 2c48 40bd f3be 05bd 2596 503e 7a93 98bd
00000290: a886 2e3d 5412 003f a2c7 2fbe 297f 98bd
000002a0: 8da1 3cbf 4b78 903e c19a 4cbb 2c3a 53be
000002b0: b95c 963d c273 f53d 273f 993e ffef 9dbd
000002c0: 98f8 03bd e2e2 11be 25fc 5fbb 4c01 bd3c
000002d0: 7405 333e f392 e1bc 0fb5 cbbd e55f 3ebf
000002e0: 5a08 603e bd22 b23d 009c 883e 63a4 23be
000002f0: 24a3 19be ecf3 3dbd 03ff 4d3b 31a6 babb
00000300: 00d0 f63e 8466 63be b0a4 22be c9ae e03d
00000310: 027f bebd f4d3 f0bc 95bb a7be f1af ea3d
00000320: dcb0 013d b0cd 873d 3284 dcbd fc72 e23a
00000330: ad78 51be fd4c f03d 3545 cdbd 341f 173f
00000340: 965d c1bb 95ea 1bbe cb74 8f3e ef9b e2bd
00000350: 3318 b2bd 70aa 143e ddef 243e 262e 893d
00000360: 4fd7 55be bde4 1f3e bd91 883d 5d21 90be
00000370: 0588 af3d efc7 bd3d dad6 2f3e 148c 3b3d
00000380: e458 3b3d 6f57 2dbd bb2c a6bb 4634 d53c
00000390: bf10 ea3e 3da1 a6be 688e 42be 8572 d6be
000003a0: 9a0c e23d 554c bd3c fd9b 01bd dd62 11bd
000003b0: 238c 6e3d 62cb a7bd 898c cabc 8a5a a33c
000003c0: 9696 37be 8006 fc3d a286 633d 3f9e 1bbf
000003d0: b667 153e 69c4 e13d 1fbe 6ebc e7d0 2a3d
000003e0: d018 c9bc 5274 d5be ebe1 903c b83b 163e
000003f0: a89a 573f 97e3 ffbe ebb6 b8be 2248 2cbf
0.23352967 0.033572413 -0.008216713 -0.78968805 0.27998343 0.12067123 -0.042698923 0.03088687
-0.036465663 0.42468575 -0.085556254 0.0032676756 -0.016098939 0.010999523 -0.07729576 0.15214115
-0.014346381 -0.06361363 -0.5901901 0.08328178 0.10022075 0.73126733 -0.13030227 -0.10912678
-0.6523835 0.15874559 0.010903608 0.1358756 -0.09283236 -0.014579986 -0.018232629 0.0004336658
-0.0521301 0.18881956 -0.03401965 -0.023836654 -0.003112703 -0.01979035 -0.06169403 -0.93702716
0.20444545 0.11868095 -0.011514538 0.033100463 -0.06677715 -0.12765345 0.015333479 -0.014234969
0.08123726 0.059207212 0.06473571 0.10422366 0.04379441 0.025048954 -0.18518102 -0.09676797
0.023254458 -0.22052813 0.043176655 -0.09816947 0.12662391 -0.037010394 -0.08607901 0.23994735
-0.15814127 -0.098661594 -0.03180181 0.036173746 0.03646027 -0.043403246 -0.032777857 0.013784784
0.15107785 -0.143547 -0.10550007 -0.34535852 0.04420356 0.06650272 0.07077779 -0.029397752
-0.01396581 -0.26043954 -0.013283634 -0.010371175 0.21800561 -0.08814082 -0.093837984 -0.22147475
0.121197835 0.08640225 0.059689667 0.0036712936 -0.08363853 0.31199303 -0.07834838 -0.13831066
0.10644883 -0.087281294 -0.04796919 -0.16568966 0.021869678 -0.015086076 0.2961832 -0.07042435
-0.0150274495 0.17177927 0.06929482 -0.04971113 0.41347417 -0.06623211 -0.12177201 -0.088666484
0.1335557 -0.05131078 -0.48556218 0.056222346 0.11796061 0.08660813 0.07121395 -0.00363119
-0.39144835 0.08281287 0.054399636 -0.30559355 0.010601387 0.0843213 -0.2976617 0.059632815
0.011915765 -0.14934656 0.046297487 0.14405167 -0.74291337 0.12704693 0.08811095 -0.6296728
0.09754341 0.039206594 -0.60635656 -0.01832621 0.04148289 -0.24044314 0.1201898 0.0130595425
-0.35144407 0.11006336 0.042225983 -0.077538945 -0.046348147 -0.011577755 -0.10488396 -0.019286815
0.036814474 0.30163324 -0.078199886 -0.037447296 0.49529096 -0.06318841 -0.06589913 -0.007347049
-0.04694383 -0.032652806 0.20369776 -0.07450004 0.042608887 0.50027966 -0.17165998 -0.07446129
-0.73684007 0.28216776 -0.003122017 -0.2062766 0.07341904 0.1198497 0.29930994 -0.07711791
-0.0322195 -0.14246705 -0.003417739 0.023071907 0.17482549 -0.027535891 -0.099466436 -0.74365073
0.21878186 0.08698032 0.2668152 -0.15980677 -0.1500364 -0.0463752 0.0031432516 -0.005696081
0.48205566 -0.22207075 -0.15883136 0.109708376 -0.093015686 -0.029397942 -0.327603 0.114593394
0.031662807 0.06631029 -0.10767402 0.00172767 -0.2045619 0.11733434 -0.10022966 0.5903199
-0.005901049 -0.15226205 0.28018793 -0.11064898 -0.08696022 0.14518142 0.16107126 0.06698255
-0.20882915 0.156146 0.06668422 -0.28150454 0.085708655 0.0926665 0.17171803 0.045787886
0.04573907 -0.04231971 -0.0050712503 0.026025902 0.457159 -0.3254489 -0.18999636 -0.41884246
0.1103756 0.023107687 -0.031642903 -0.035494674 0.058239114 -0.08193089 -0.024725216 0.019940633
-0.17928538 0.12305927 0.055548318 -0.6078834 0.14590344 0.110237904 -0.014571696 0.04170313
-0.024547964 -0.41690308 0.017685851 0.14671218 0.8422036 -0.49978325 -0.36077055 -0.67297566

network_body._body_endoder.seq_layers.0.bias f4 [128]
00000000: 2a03 44bc 6c21 78bc cb0a f33a cf42 c7bb
00000010: e3aa c6bc 72b3 12bc 6f3e b0bc 5157 77bc
00000020: 616b e43c 39b4 033c 1adf 73bb 824e 3e3a
00000030: e874 aab7 6c2d 763c c944 c2bc 88cf c83b
00000040: e2b1 403b 3989 aabb a602 7abc 1b3c 5bbc
00000050: f372 b33c 30f0 113c cc35 0abd 215d 37bc
00000060: 473d b6bc 7bb3 8d3b f1d2 12bb cdce 793a
00000070: e6e2 ce3c 0162 123c f250 d03b 273d 01bc
00000080: 0148 67bc 9e4d 783b c92c 1fbc eef9 7db8
00000090: 2343 873c 3b47 0e3c fbb7 d5bc bcb0 d2bb
000000a0: e6ca cdbc 6935 d1bb e7df 683c 8cc0 bfbb
000000b0: 03ff d8bb a13f 9fbc 2a88 04bc e7c9 8cbc
000000c0: 5db6 3b3c db75 aabc a194 bfbc bb7c 22bb
000000d0: 77ab acbb cd47 dbbc d99a ebbb 16b6 7fbc
000000e0: 3db9 d03c ca5a 933b 91d2 313b 57ea 3cba
000000f0: aa6d 38bc c2dd f1bc 392c a7bc 40c6 1a35
00000100: d44a 3abc 26fe d13a b270 8bbc 3942 0ebd
00000110: 7cc6 82bc bbe8 05bc f799 0cbb 57a0 6f3b
00000120: ecea aabc 8aeb 11bc 870e 67bc 9283 74bc
00000130: 015e 9a3c cc74 813a 413f dabc e6ea a7bc
00000140: 80ab 2abb 47e7 edbc be00 a7bb 4efc c8ba
00000150: 08c3 10bc 2175 14bb 0bb5 9ebb a4a7 d8b9
00000160: 9ea3 8c3b 5a95 cdbb 4aef febc 14c2 923b
00000170: 7d65 89ba 8785 83bc 2f32 cfbb a769 1dbb
00000180: ac24 2e3c 28cf 9cbc aa77 e4bc 640e d0bc
00000190: 9172 9a3c c5ee 6cbc ac72 f4bc 7599 de3b
000001a0: bcf4 eb3b aa94 8cba 581e e4bc 1ea6 c4bc
000001b0: 9558 2bbd 3ab9 873c f7e2 0ebc aadf bc3b
000001c0: 78e5 afbc 7d05 89bb f5fe 303b 4f5d 15bc
000001d0: cf6a 11bc 9040 06bd 7c65 ccba 2677 22bc
000001e0: df57 28bc ad25 65bb 0850 6fbc 1257 3dbc
000001f0: c63c 603c 93fb 7fbb 736c 8fbc c55c 0ebb
-0.011963645 -0.015144687 0.0018542645 -0.0060809623 -0.024251407 -0.008953916 -0.021514146 -0.015096501
0.027883234 0.008038574 -0.0037211836 0.00072596234 -2.0320018e-05 0.015025478 -0.02371444 0.0061282553
0.0029402901 -0.0052043465 -0.0152594205 -0.0133810295 0.021905398 0.008907363 -0.03374271 -0.011191637
-0.022246016 0.0043243743 -0.0022403563 0.0009529412 0.025254678 0.008934499 0.0063573057 -0.007888115
-0.014116288 0.003788806 -0.009715267 -6.0552666e-05 0.016511505 0.008683975 -0.026088705 -0.00642976
-0.025121164 -0.006384541 0.014213539 -0.005851811 -0.0066221966 -0.01943952 -0.008089105 -0.017186118
0.011457053 -0.020808151 -0.023386301 -0.0024793583 -0.0052694636 -0.026767636 -0.00719009 -0.0156073775
0.025478953 0.004496907 0.0027133564 -0.000720655 -0.011256615 -0.029524688 -0.02040683 5.765796e-07
-0.0113703795 0.0016021177 -0.01702151 -0.034731124 -0.015963785 -0.008173163 -0.0021454075 0.0036564076
-0.020863973 -0.008906255 -0.014102585 -0.014923947 0.018843653 0.0009876727 -0.02664149 -0.02049775
-0.0026042163 -0.029040946 -0.005096524 -0.0015333982 -0.008835562 -0.0022652822 -0.0048433593 -0.00041323632
0.0042919656 -0.0062739076 -0.031119961 0.0044787023 -0.0010482516 -0.016054882 -0.006323121 -0.0024019273
0.01062886 -0.019141749 -0.027889092 -0.025397487 0.018853458 -0.014461224 -0.029839836 0.006793196
0.0072008055 -0.0010725458 -0.0278465 -0.024004992 -0.041832525 0.016567815 -0.008721105 0.0057639675
-0.021471724 -0.0041815625 0.0027007435 -0.009116485 -0.008875563 -0.032776415 -0.001559421 -0.0099161025
-0.010274856 -0.0034965083 -0.014606483 -0.011556404 0.0136863645 -0.0039059862 -0.017507767 -0.0021722775

network_body._body_endoder.seq_layers.2.weight f4 [128, 128]
00000000: 800e a0be 5426 cb3d cbc1 083d a976 03be
00000010: f0ce 2cbd 3c09 dfbe f044 e1bd 996f ef3c
00000020: 601a 103e 5966 003e 1e34 e9bc b814 09be
00000030: 2824 26bd 972a b3be 00fc 5e3d bbb0 96be
00000040: 2e6d 88bd 1e3e 9b3e f545 8b3d 1d3e 8c3c
00000050: ce91 9cbe a86c 403e 6581 d63c c01f 9c3c
00000060: 8ac7 99be a191 f4bd 4d12 563c daca 42bd
00000070: 0143 10be 9841 0bbd b184 d93c 6671 d1bd
00000080: 54a2 65be 979a 8cbe f39c 0dbd 560b e93d
00000090: 26da dabd fc2e f7bd 8f34 9dbe f965 c03d
000000a0: 046b aabd 8486 a2bd 2340 c2bd 0595 d6bd
000000b0: d0ae a3bd 468f fa3d b608 80bd 7d48 51be
000000c0: c139 f23d 4d66 173d c6e8 9f3d abc1 9dbd
000000d0: f5a5 e8bd 8e0b 04bd e500 3a3e d93c a3be
000000e0: 2403 48bd de12 bc3e 6958 63be e190 22be
000000f0: 9aaa a6bd e8aa 74be 7df1 f03d 1117 7e3d
00000100: bba8 f5bd cc6e 863d a3ce 243e 76bd 753e
00000110: 197f 11bf afd3 983e 3164 2a3e f8d0 863c
00000120: 662e 463c 2008 453d e851 4abe ed91 dd3e
00000130: d29a c9be c620 76be 0c72 ca3c a4b8 12bf
00000140: 1a96 64be 0ad0 983c 6466 8bbe c0be 883d
00000150: 4751 7c3e 46d1 4fbc 9ef8 84be 305a 05bd
00000160: 0822 e23d 1611 34bd 6ba3 14be 6d73 21bc
00000170: 987b 9bbe bbc7 63bd b428 eabd f266 933d
00000180: 590a 8bbe 0a8f b33b 50df c1be 4b12 64be
00000190: ec46 85bd 32f2 a8bd d29f fc3d d61a 1fbf
000001a0: 8a0f fb3c 64b8 8fbc 18ff 4b3e f17d fc3b
000001b0: 59ee c4bd 460a b3bd 21e8 29bd c252 193e
000001c0: 0131 e3bd e16e 4f3c db98 e4bd b1a0 783e
000001d0: 5d0e ed3d fa5a 3a3e 035f 623e 1545 c5be
000001e0: 2244 a33d faa7 a63d 4cf5 92be 6451 8a3e
000001f0: 807a b1be aff3 a5be abfa b43d e91e 90be
00000200: 3522 5dbe 5cd1 93bd 0cfe d23d 91d1 d2bd
00000210: 0323 86be faa1 433e a339 c1be e798 c1be
00000220: bb6d 10bf b00f 483d 8819 89bc fad4 fdbe
00000230: 72bb d63c 4198 bf3d 367c 24be 2549 ba3d
00000240: 2ae7 18be 4763 68be b90e fabd 8fdb 45bf
00000250: 085d 33bf b4bf 8bbe 8bda c63e 7b82 3d3e
00000260: 18ec c5bd 2925 0abe c0db a3bd a592 1c3e
00000270: 7c75 9cbd 132d 93bc 403b 85be 83f4 62bd
00000280: 8a88 7cbe 4841 e83d 420f a3be f117 94be
00000290: 80f4 93bd 7732 753e 53b0 98bd 7b74 3a3e
000002a0: 2f2a c6bd 0db7 25bd 8377 36bc c4f8 c43d
000002b0: 6e3b bebc 81bf 3cbe 3c7e 15be 4254 80bc
000002c0: 5f1a 2f3e cfa4 f63d 05ef ca3d bfc1 003e
000002d0: a320 03bd 6392 9f3c f8d3 343e cd3f 15be
000002e0: aa40 773c 54e5 bb3d d389 333d 0224 933d
000002f0: ae30 c9bd 7b74 c2bb 9589 5f3d cc4a 8cbd
00000300: b64c 0fbe 3db1 ccbd 6a34 a33b 3e12 ac3c
00000310: f82d 23be 9f93 12be c819 e13d ed91 13be
00000320: 3a77 a5bd 8774 84bd 01fe 02bd 7480 193e
00000330: 897a 373d 3293 aa3d 81e7 3a3e e224 42bd
00000340: 2552 b73b 10ef d7be 305e 86be 3206 82bd
00000350: 86b8 6cbd 1509 53be 5415 e9bc fad1 1f3d
00000360: 75fd cabc 0b62 f03c dd42 1d3d e320 3a3d
00000370: b987 de3c b8bc 1ebe edf5 883d 4b75 6ebb
00000380: 340a 02bb 5bf4 5bbe 3e52 d4bd 4661 e93d
00000390: 9e5d 42be a418 75be 1955 f33c 00cf 683d
000003a0: 0466 9b3e 2753 57be 10b7 80bc 54c6 8cbd
000003b0: 4ac2 9ebd f12f adbd 1a12 acbe a725 59be
000003c0: 7398 55be f809 06bd 0d47 bcbd d465 f13d
000003d0: 9bd9 00bc 42f7 3bbd d00b 053e 0905 f9bd
000003e0: 6a04 4dbe 4f27 bbbc 68d4 853d fe2d 94be
000003f0: c485 a53d fbb9 03bf eed2 3ebd cfe0 d6bd
-0.31261063 0.0991942 0.03338794 -0.12838234 -0.04218954 -0.43561733 -0.10999477 0.029228019
0.14072561 0.12539043 -0.028467234 -0.1338681 -0.040561825 -0.3499343 0.054439545 -0.2943171
-0.066614494 0.3032083 0.068004526 0.017119462 -0.3057999 0.18791449 0.026184747 0.019058108
-0.3003505 -0.11941839 0.013065887 -0.047556736 -0.1408806 -0.033998102 0.02655253 -0.10226707
-0.22425205 -0.27461693 -0.034573507 0.11379115 -0.1068614 -0.120695084 -0.30704162 0.0939445
-0.08321193 -0.07935813 -0.09484889 -0.10477642 -0.07992327 0.122343585 -0.062516615 -0.20437808
0.11827422 0.036962796 0.0780807 -0.07702955 -0.11359779 -0.032237582 0.18164404 -0.3188236
-0.04883112 0.36733145 -0.22201695 -0.1587558 -0.081380084 -0.2389332 0.1176481 0.062033717
-0.119950734 0.065641016 0.1609445 0.23998055 -0.5683456 0.29849002 0.16639782 0.016457066
0.012096023 0.04810345 -0.19757807 0.43275395 -0.3937593 -0.2403594 0.024712585 -0.5731299
-0.22322884 0.018653888 -0.27226555 0.06677008 0.2464038 -0.012684172 -0.2597093 -0.032556713
0.11041647 -0.043961607 -0.14515464 -0.00985418 -0.30367732 -0.0556104 -0.11433545 0.0719737
-0.27156332 0.005479698 -0.37865686 -0.22272603 -0.06507668 -0.0824932 0.12335171 -0.62150323
0.030647058 -0.017543979 0.1992153 0.007705443 -0.09615774 -0.08742194 -0.04148114 0.14972976
-0.11093331 0.012660713 -0.11161967 0.24280049 0.11575005 0.18198767 0.22106557 -0.38529268
0.0797198 0.08137508 -0.28702772 0.2701522 -0.34663773 -0.32412478 0.088368736 -0.28148583
-0.2159508 -0.072176665 0.10302362 -0.10293878 -0.26198587 0.19104758 -0.37739286 -0.37811968
-0.56417435 0.048843086 -0.016735807 -0.4957655 0.026212428 0.09355212 -0.16063008 0.090959825
-0.14931932 -0.22694121 -0.122098394 -0.77288145 -0.7006383 -0.27294695 0.3883861 0.18506806
-0.09664172 -0.13490738 -0.08000898 0.15290315 -0.07639596 -0.017965829 -0.26021767 -0.055408966
-0.2466146 0.113405764 -0.31847578 -0.28924516 -0.07224369 0.23945032 -0.07455506 0.18208496
-0.09676015 -0.040457774 -0.011136892 0.09617761 -0.023221698 -0.18432428 -0.14598936 -0.015665177
0.17099904 0.120431535 0.099088706 0.12573908 -0.032013547 0.019478982 0.17658985 -0.1457512
0.015091101 0.091746 0.04383261 0.07184602 -0.09823738 -0.0059342957 0.054574568 -0.06850204
-0.13994107 -0.09994743 0.0049806135 0.021004792 -0.15935504 -0.14314125 0.109912455 -0.14411135
-0.08079381 -0.06467538 -0.03198052 0.14990407 0.044794593 0.083288565 0.18252374 -0.047398455
0.005594509 -0.42174578 -0.26243734 -0.06348838 -0.057793163 -0.20608933 -0.028452553 0.03901861
-0.02477906 0.029343626 0.038393844 0.04544152 0.027164327 -0.15501678 0.066875316 -0.003638583
-0.0019842507 -0.21479933 -0.10367249 0.113955066 -0.18981025 -0.23935181 0.029703664 0.056838036
0.3035127 -0.21027814 -0.015712291 -0.068737656 -0.077519014 -0.0845641 -0.3360756 -0.2120577
-0.20858936 -0.03272435 -0.09193239 0.11787 -0.007864381 -0.0458901 0.12992787 -0.121591635
-0.20021215 -0.022845892 0.06534654 -0.2894134 0.080821544 -0.5145566 -0.046587877 -0.104920976

network_body._body_endoder.seq_layers.2.bias f4 [128]
00000000: 6507 29bd 3c8b 8dbd b459 9bbd c22f 9bbe
00000010: 274e a8bd 8977 0f3e c971 6c3c 99fe c0be
00000020: 6ccd febc e437 02bf 0146 28be 98fb 95bd
00000030: 693b e1bb 44e0 62be 2ea1 403d cd65 54be
00000040: 9819 afba bab2 92bd c5c9 23be b954 b1be
00000050: 57e9 a93b 6684 1f3c 3b27 6a3d 2111 f8bb
00000060: 3e06 bb3d 89cb e0bd 1e19 bf3d aa29 ea3c
00000070: b534 3fbe 6d62 c3bd f5f6 d63b 4aa1 9b3d
00000080: 1c63 a33c 7bf0 4abe eed4 0abe 9606 e13d
00000090: f58e 12be 00ce a83d fe2d 9cbd a98a 1dbd
000000a0: 4c3f 83bc 5b27 ee3b 3584 063d 8723 bfbe
000000b0: 45c2 3ebd 108c 5e3e ffb6 d8bc b5c2 44bd
000000c0: 9c31 3b3d 441e 18be 7dbf 043e cf70 913d
000000d0: bdfb be3d 216c 8dbd 6dba 593e aafd 88bd
000000e0: bb65 083d 193a a2be d16d 22bd 3f08 38be
000000f0: 964b 6abe a2e9 a0be 8d61 423d e483 58bd
00000100: f645 4ebe 8490 9dbe e8c2 16bd 5a3b 3a3e
00000110: 1a05 88bd 2ae3 25bd 3a76 b6bd a127 12bf
00000120: e3ec c6bc 68df 20bd 98e3 ae3c 781a 213e
00000130: 6485 92bd 130f 533d 22bd 88be 99fc 5fbe
00000140: 5938 80bd da7e 763d d90f 98be 740a c3bd
00000150: 5295 c9be 8a3e 1bbe 983a 03be 2556 a6bd
00000160: eba8 35be 7c5d 36be b5ba e4bd 4bb3 1cbe
00000170: a1b4 3cbe ea1d 60be d7e6 f8bd 1174 453e
00000180: e18c 51be 2356 c53d 43df 92bd e020 50bd
00000190: 51d0 e33c 89c0 87bd 5d4b 9dbe c356 1d3e
000001a0: 9e51 a4bd 4821 e8bc d017 e03c e62f 60bd
000001b0: 2188 75bd d5e5 0b3c 2970 cf3d fe65 52be
000001c0: 3c5d b6bd 4d85 dfbe 27cf 5fbe 3d6f 51be
000001d0: 8e91 9d3c 8c61 06be d1c0 8e3c f7ef 8cbd
000001e0: 6d9d 4f3d b8d1 cd3c dbe9 aebd edba 86ba
000001f0: 8cd4 02bd 12aa 833d 9588 39be a847 45bd
-0.041266818 -0.069113225 -0.07585469 -0.30309874 -0.082180314 0.14010443 0.014431425 -0.37694243
-0.031103812 -0.5086653 -0.16432954 -0.07323378 -0.0068735373 -0.22155863 0.047028713 -0.20741959
-0.0013359068 -0.07162996 -0.15994938 -0.3463495 0.005185287 0.009736156 0.05716632 -0.0075704013
0.0913205 -0.10976321 0.093309626 0.02858432 -0.1867245 -0.095402576 0.0065602013 0.07599123
0.01994472 -0.19818299 -0.13557789 0.10987584 -0.14312346 0.082424164 -0.0762596 -0.038462315
-0.016021393 0.007267875 0.032840926 -0.37331793 -0.04657199 0.21733117 -0.026454447 -0.04803725
0.045701608 -0.14855295 0.12963672 0.07101595 0.09325359 -0.069053896 0.21262522 -0.066890076
0.033300143 -0.3168495 -0.03965551 -0.17971896 -0.22880396 -0.31428248 0.047456313 -0.052860156
-0.20143875 -0.3077432 -0.03680697 0.18186703 -0.06641598 -0.040499844 -0.08909269 -0.5709172
-0.024282878 -0.039275557 0.02134876 0.15732753 -0.071543485 0.051528048 -0.26706797 -0.21873702
-0.062607475 0.06017957 -0.2969959 -0.09523478 -0.39371735 -0.15160576 -0.1281532 -0.081218995
-0.17740218 -0.17809099 -0.11168424 -0.1530277 -0.1842828 -0.21886411 -0.12153404 0.19282557
-0.20463897 0.0963557 -0.0717149 -0.050812602 0.027809294 -0.0662852 -0.3072156 0.15365128
-0.0802338 -0.028336182 0.027355105 -0.05473318 -0.059944276 0.008538683 0.10128815 -0.2054672
-0.08904502 -0.43656388 -0.21856366 -0.2045259 0.019234445 -0.13123149 0.017425926 -0.06881707
0.050687242 0.025124416 -0.08540698 -0.0010279097 -0.03194098 0.06428923 -0.18118508 -0.04816404

action_model._continuous_distribution.log_sigma f4 [1, 2]
00000000: b549 e2c0 4685 dec0
-7.0714974 -6.9537687

action_model._continuous_distribution.mu.weight f4 [2, 128]
00000000: 7d17 b03d df16 08b9 9f65 b63d 967a 9ebb
00000010: 2c18 03bd 7972 39bc f71d b5bc 1497 febd
00000020: 61a3 40bd f059 2f3e 2dd6 00be 9bf5 2d3d
00000030: 7e10 523c 1d11 85bd f648 9d3c 7fc4 92bd
00000040: 36de 283c a930 123d b4e7 583b 450e 883d
00000050: 7c4a 2d3b fe3c cebb a0e8 8f3d 5516 743d
00000060: 9ed1 58bc a813 373c 36d8 1d3d 6c11 f239
00000070: dcc9 88bb c38d 8c3c cad0 84bc db3c 1c3d
00000080: 9b43 13bd 4aef 283d 3819 623a d25d 85bb
00000090: 173f c0bd c49d b33b 8e6b babb fd89 80bc
000000a0: 38e7 ba39 e25f fab9 40d4 25bd 1951 e13d
000000b0: f4e1 aebd 8113 9ebd 951c ca3c 76a1 e6bc
000000c0: a304 923d 38cd ba3b 661b a7bb a48b b0bd
000000d0: 19e1 8b3d 35fc dc39 b363 76bd a462 c4bc
000000e0: 225b adbc 4448 733a 60cd 993d 1fe6 1d3b
000000f0: 0319 e6bb 9aa6 8a3d 43e7 883d 3da1 7fbb
00000100: b399 bebc 9b50 d1bd ad22 ecba 6bfb 18bd
00000110: 3eb7 893d 13c9 26bd 5ab6 5dbc 2fda 8abe
00000120: c2e6 393d b947 24bc a571 88bd ca12 f83c
00000130: d2c0 f3ba 496f 61bc 4802 6a3c 5f41 e2bd
00000140: 876c e13c fb34 93bd a61f 3b3d 2a16 a63d
00000150: 4681 883d 09c6 163b d555 85ba 3c04 6a3d
00000160: 7458 183d fde7 67bb c32f 263c 6a8c 05bc
00000170: 3221 b1bd cfa8 8e3d eff6 e83a b371 55bd
00000180: 11f3 21bd 7735 aebd 6824 85ba 3bbd 2abd
00000190: 44bb 373b 5f70 8dbd b566 203d 9be4 ae3c
000001a0: 9a50 403d 67a0 15bd 175c 743d bc15 82b9
000001b0: 354a 4e3d 2213 623d 2712 16bd 7c22 3b3e
000001c0: 1865 a3bb 2008 46bd 0f96 9a3c a37b 90bd
000001d0: 1de4 20b9 2a39 273d 275d d4bc f7fe 523b
000001e0: 034b 403d 6727 6cbb 8a83 39bd c979 a2b9
000001f0: 3a91 4b3b 3304 abbc cc69 32bd 67c8 e4bb
00000200: f6a9 7fbc 416f d53a 28bd 1bbc 2ff0 97bd
00000210: c13c 473d af87 60bd ced9 97ba b796 98bd
00000220: 3de6 59b9 5352 823e d277 413d 1e6c fbb9
00000230: a479 8dbd fc13 52bd 9f2d 973d 2578 82bd
00000240: 8721 1dbd 4082 ca3c 992f 74ba b7f3 9e3b
00000250: 8356 643d 312e 813d b4e6 1ebc 6627 ebbd
00000260: c95d 4d3d 54ae 3d3d 2374 b1bd b5de b43b
00000270: 579e 5a3d 1a7c 0fba 11bd 073d 0392 283d
00000280: 956d 323d 4c3d 273c e65e f6bc bf6b 37bd
00000290: d226 a0bc 9ad7 df3c 32ac bebc 941d 2cbc
000002a0: d9bc 1fb8 3d8f 4539 6ba4 3ebd dc14 3f3d
000002b0: 6ecf 16bd 1e64 86bc 30c6 4c3d dc75 c33c
000002c0: 8b23 1cbd 083c faba 2e03 9d3d 4e5a 173c
000002d0: 5f51 14ba a5fa ca39 bf0b fc3c b424 d33d
000002e0: 2805 413d be7a 3ebd 8df8 7dbd 68bb fdbb
000002f0: cc3d 61bd 7ad0 4b3d 9fae 28bb 1c3b 5e3a
00000300: b42a 6c3c 4412 493c c00e 0cb9 bd3d 423c
00000310: 0080 d03b 6cc8 b23c f5b6 a93d 47f1 0bbc
00000320: e196 8b3b ad32 533d 3300 533c 4f51 5abc
00000330: 43b2 0a3d f9e1 38bd 1029 02b9 e87e a5bc
00000340: fb91 a23c 8a50 a3bd 68e4 37bc 79bc 393d
00000350: ff2b 393b 2a1d c73c 4a8c 8e39 d72f 903c
00000360: fa48 083d 1354 9abd 8303 13bc 436c ddbc
00000370: 8801 5dbd 22cc 0c3b 2c04 b3bd 9471 88bc
00000380: 3ddb b83b ccfc eb3c 0d7d 7d39 4a33 9e3c
00000390: b1c7 443b ce41 403e 63d2 e23d 2e10 643c
000003a0: 2ad0 123d 1f2c 2c3d 2225 c9bc 2411 0fba
000003b0: e2db a43b d7fa 173d fc63 c0bc 24f6 38bc
000003c0: 3bb6 13bd fd4c fb3d a865 2c3d bf6b 3dba
000003d0: bccc 8b3a 4207 28bc 7ba3 ba3b 0f24 c73c
000003e0: b512 053b 1e64 36bc 1716 0bbd d425 14bb
000003f0: 4a85 a43a 2335 28bd 5675 043c 2bbb e73c
0.0859823 -0.00012978491 0.089061014 -0.0048363907 -0.032005474 -0.011318796 -0.022109015 -0.124311596
-0.04703081 0.17124152 -0.12581702 0.042470556 0.012821315 -0.06497405 0.01919983 -0.07166385
0.0103068855 0.035690937 0.003309709 0.06643347 0.0026442101 -0.006293892 0.070267916 0.05959161
-0.01323357 0.01117412 0.038536273 0.00046170817 -0.004174454 0.017157441 -0.01621284 0.038143974
-0.035953145 0.04124383 0.00086249737 -0.004070022 -0.093870334 0.0054814536 -0.005689091 -0.015690798
0.00035648956 -0.00047755154 -0.04048562 0.11001796 -0.08539191 -0.07718564 0.024671832 -0.028153162
0.07129791 0.0057007335 -0.0050997017 -0.08620384 0.06830043 0.0004214958 -0.060153674 -0.023972817
-0.02116162 0.0009280483 0.07509875 0.0024093462 -0.0070220246 0.06770058 0.06684735 -0.0039006018
-0.023266649 -0.102204524 -0.0018015705 -0.037349146 0.06724404 -0.040719103 -0.0135322455 -0.27119586
0.045386083 -0.010026866 -0.06662301 0.030282397 -0.0018596894 -0.013759443 0.01428277 -0.11047625
0.02751757 -0.071878396 0.04568448 0.08109696 0.06665282 0.0023006222 -0.0010172675 0.057132944
0.03719373 -0.0035386079 0.010143223 -0.008151153 -0.0864891 0.069657914 0.0017773787 -0.052110385
-0.039538447 -0.08506291 -0.0010157945 -0.04168437 0.0028035203 -0.06906199 0.03916045 0.021349242
0.046951868 -0.036529925 0.059658136 -0.00024811726 0.050363738 0.055194028 -0.036638405 0.18274873
-0.0049864165 -0.048347592 0.018870382 -0.07054832 -0.00015343768 0.040826 -0.025923325 0.0032195428
0.046946537 -0.0036034228 -0.04529146 -0.00030989785 0.0031061904 -0.020876026 -0.043557927 -0.0069818976
-0.015604487 0.0016283767 -0.009505548 -0.07418858 0.048641924 -0.054816898 -0.0011585297 -0.074506216
-0.00020780503 0.25453433 0.04723341 -0.00047955004 -0.06907967 -0.05128859 0.073817484 -0.06370572
-0.038362052 0.024720311 -0.0009314954 0.0048508304 0.055746567 0.063076384 -0.009698559 -0.11482124
0.05013827 0.04630883 -0.086647294 0.005519713 0.05337366 -0.00054735097 0.033139292 0.041154873
0.043561537 0.010207485 -0.030074548 -0.04478049 -0.019549761 0.027324487 -0.023275468 -0.010505099
-3.8084432e-05 0.00018840744 -0.04654352 0.046650752 -0.036818914 -0.016405161 0.049993694 0.02385991
-0.038119834 -0.0019091377 0.07666622 0.009237839 -0.0005657877 0.00038715187 0.03076732 0.10309735
0.047124058 -0.046503775 -0.062004615 -0.007743288 -0.054990575 0.049759366 -0.0025738848 0.0008477436
0.014414478 0.012272421 -0.00013356935 0.01185554 0.006362915 0.021824084 0.082868494 -0.008541412
0.0042599295 0.051562 0.0128784655 -0.01332505 0.03386141 -0.04513738 -0.00012413063 -0.020202115
0.019845 -0.07974346 -0.01122389 0.045345757 0.0028254983 0.024305899 0.00027188874 0.017600937
0.03327272 -0.07535567 -0.008973005 -0.027029162 -0.05395654 0.0021483977 -0.0874103 -0.01665572
0.0056413696 0.028807066 0.00024174545 0.019311566 0.0030026252 0.18775102 0.11075284 0.013919873
0.035843052 0.042034265 -0.02455384 -0.0005457571 0.005031095 0.037104454 -0.023485176 -0.011289153
-0.03606246 0.12270544 0.042089134 -0.0007225833 0.0010665874 -0.010255637 0.005695758 0.024309186
0.002030534 -0.011132268 -0.033956613 -0.0022605555 0.001255193 -0.0410663 0.008084616 0.02828749

action_model._continuous_distribution.mu.bias f4 [2]
00000000: a5b8 34bd fe47 83bd
-0.044121403 -0.06410216
