results/test_environment/VacuumCleaner/VacuumCleaner-51328.pt (torch, 615731 bytes, 44 tensors)

network_body._body_endoder.seq_layers.0.weight f4 [128, 34]
000000 d0 fb 48 3e 1b 70 ac be f8 3c 24 be 51 39 ac 3b
       0.19627309 -0.3367928 -0.16038883 0.005255856
000010 28 85 81 be 26 54 71 3d 9c 96 4c 3d 9a 47 98 be
       -0.25296903 0.05891814 0.04994832 -0.29742128
000020 25 be 0d bd 2b f3 4b 3e ff 4a 8c be c5 2c 1a be
       -0.034605164 0.1991698 -0.27400967 -0.1505614
000030 c0 15 ed bd a7 ac 6f 3e 1e a2 16 bf 3f b5 ab 3e
       -0.11576414 0.23405705 -0.5884112 0.33536717
000040 2c c1 20 bf 9c 3e ab bd 76 6f c6 3e 9e c7 ec 39
       -0.62794757 -0.08361551 0.38756913 0.00045162154
000050 55 56 eb 3d 21 e1 1d bc df de 61 3e 7e 6a 8f b9
       0.11491076 -0.009636194 0.22057675 -0.00027354428
000060 9b 75 7c 3e f1 9a 25 be c1 65 bf be 77 a7 06 3e
       0.24654238 -0.16172387 -0.3738232 0.1314982
000070 42 d6 09 be fd ae 0d 3f 63 04 22 3d a6 ec dc bd
       -0.13460639 0.55345136 0.039554965 -0.107873246
000080 c2 ab 3a 3d 58 b5 8f be d7 bb e7 be dd c3 f0 bd
       0.045573957 -0.28068042 -0.45260498 -0.11756108
000090 9e e0 2c 3e d5 21 b8 3d 12 55 8d be 35 ad 57 3e
       0.1688256 0.08990828 -0.27603966 0.21062167
0000a0 6e ff 00 bd 60 74 74 3d e4 21 85 3b 7d a5 3b 3e
       -0.031493597 0.059681296 0.004062878 0.18324848
0000b0 41 0e 5c bd c5 e6 6a 3e 82 0b 16 be 28 ba 16 3d
       -0.05372453 0.22939594 -0.14652827 0.036798626
0000c0 2f 48 5f be f9 a1 a4 be ee fc 79 3e b1 b7 19 3e
       -0.2180488 -0.32154825 0.24412891 0.15011479
0000d0 82 fd 8a bd 4d c7 26 3e 3f c2 e4 3e e7 da 58 3e
       -0.06786634 0.16286965 0.44679448 0.21177255
0000e0 40 42 a2 be 8b 19 98 3d 03 e7 67 3d cc 76 53 3d
       -0.3169117 0.07426747 0.056616794 0.051626965
0000f0 e8 af e3 bd b8 24 0e bd aa cc 73 bd 4d 5c fa 3d
       -0.11117536 -0.034702986 -0.059521355 0.12224636
000100 74 d0 ff 3d 1d d3 67 be 9d aa 82 3e 34 59 ff be
       0.12490931 -0.22639127 0.25520793 -0.49872744
000110 d3 28 a2 3e b9 12 b3 bb dc ff f6 3d 9f 9b 04 3e
       0.3167177 -0.0054648784 0.1206052 0.1294999
000120 55 af 14 3f f7 8b 9d be 35 c6 43 bd 4d ef e5 3c
       0.58080035 -0.30770847 -0.047796447 0.028068209
000130 91 32 a5 3e 71 f1 91 be f2 ad 5e be a8 83 08 bc
       0.32265142 -0.28504518 -0.21746042 -0.008332171
000140 38 da 99 be a3 a9 0c bf 98 ae 18 3f ea f7 6c 3e
       -0.300493 -0.54946345 0.5964141 0.23141447
000150 8b 7a 74 bd 3b 70 c8 bd 7c 47 bc 3d 50 dd c3 3d
       -0.05968718 -0.09787031 0.09193322 0.095636964
000160 62 22 ff 3d 72 92 8c bd ff 14 34 3e c5 7b 25 3e
       0.1245773 -0.0686387 0.17586134 0.16160496
000170 55 4f a5 3d dd 10 53 3e 17 f0 d7 b9 d8 85 3d bd
       0.08071772 0.20611902 -0.00041186876 -0.04627022
000180 e9 4d 07 be 01 04 a6 3d 45 fc a2 3e 15 cd 7e 3d
       -0.13213314 0.081062324 0.3183309 0.0622073
000190 b2 f1 72 3e 81 11 9b be 14 2a 1b be 26 94 5a 3e
       0.23725012 -0.30286792 -0.1515277 0.21345577
0001a0 86 4e ac 3d a9 5b 76 3c 3f c1 cb bd 44 94 04 3e
       0.08413415 0.015036502 -0.09948968 0.12947184
0001b0 c0 66 d4 bc 46 c1 87 be de 62 60 3d b6 9f 91 bd
       -0.025927901 -0.26514643 0.054781787 -0.071105406
0001c0 c1 d7 61 3e 53 80 da 3d 57 24 0e be c4 4e 5e be
       0.2205496 0.10669007 -0.1388105 -0.21709734
0001d0 38 c4 19 3b 3a 3e 74 be 5c d3 4a be 47 8b bb bd
       0.0023462903 -0.23851863 -0.1980719 -0.091574244
0001e0 58 a0 75 be 9d bc 54 be 40 cb a4 3d af 14 4d be
       -0.23986948 -0.20775075 0.08046579 -0.20027421
0001f0 54 28 c9 bd 09 3b d0 3e 85 e1 a1 3e b8 42 a3 3e
       -0.09822145 0.4067004 0.3161737 0.3188684
000200 b4 bf eb bd d0 83 df bc ad 23 3d 3e 48 f0 12 be
       -0.11511174 -0.027284533 0.1847064 -0.14349473
000210 57 cb a5 3e 17 c0 5a be 47 40 d7 bd 6f 01 be 3d
       0.32381698 -0.21362339 -0.10510307 0.09277617
000220 e4 2b a6 bd d1 90 86 3d 04 dd 2f be f2 3f e5 3d
       -0.0811384 0.0657059 -0.17174155 0.11193837
000230 99 dc cd be 38 32 2c 3e 71 b0 8e 3e a7 ff ae bd
       -0.40207365 0.16816032 0.2786899 -0.085448556
000240 ca bc 8f bd 77 29 cd 3c 0d 14 9d 3d 0d 81 56 be
       -0.070184305 0.025044186 0.0766984 -0.20947666
000250 d6 a9 a4 3d 8f fd b5 3e 92 cb 30 3d bd 12 2f be
       0.08040206 0.35545012 0.04316289 -0.17096992
000260 b9 ed 55 be 04 fc b0 3d 1b 2b 95 3e cd 44 a1 bc
       -0.20891465 0.08641818 0.2913445 -0.019686127
000270 b9 9c a5 bd 10 85 5c be 76 ee b1 3c b9 d5 ab bd
       -0.08086533 -0.21535134 0.021720152 -0.08390374
000280 e0 7c a3 3c 8c 3f a1 3e b8 aa 70 be 78 39 96 3e
       0.019957006 0.31493795 -0.23502624 0.2934072
000290 82 d7 d2 3d 89 69 ba 3e 16 9b ba be 2d e5 87 be
       0.10295011 0.36408642 -0.36446446 -0.26542035
0002a0 4d fc 78 bd fe cf 96 3e 16 40 0e be a4 12 97 be
       -0.060787488 0.2945556 -0.13891634 -0.2950641
0002b0 a8 40 03 3e 2c e8 77 bd 92 80 ee 3e 17 b9 21 3d
       0.12817633 -0.06052415 0.46582466 0.039483156
0002c0 87 6b 05 bf 41 5f ac be ce 39 b2 be e9 bd ac bd
       -0.521172 -0.33666423 -0.34809726 -0.0843466
0002d0 b4 a8 5a 3e 2f 25 da 3d 35 b2 c3 bc 55 9b 03 3e
       0.21353418 0.106516235 -0.023888687 0.12852223
0002e0 55 8f 40 3e 38 78 9e bc 5c 55 08 bf b8 68 b6 bd
       0.18804677 -0.019344434 -0.5325525 -0.08906692
0002f0 b2 6b b7 3d 22 d9 0c 3e 8f 0e 98 be b6 f7 a2 3c
       0.08956088 0.13754705 -0.29698607 0.019893508
000300 ad 9d b6 bd 0a ae bb be 57 f1 34 3d a1 bd 3c 3e
       -0.08916793 -0.3665622 0.044175472 0.18431713
000310 36 92 5d bd 64 02 be 3c 66 e8 da 3d 8c 1c 68 3d
       -0.054094516 0.0231945 0.10688858 0.05666785
000320 48 8c 34 3e c9 75 3e 3e c0 5d 70 3d 79 48 89 be
       0.17631638 0.18599619 0.058683157 -0.26813105
000330 b9 db 54 3e 9b 50 e1 bd 55 e9 dd bd b7 4b 0d be
       0.20786943 -0.110017024 -0.1083552 -0.13798414
000340 33 31 35 3e 43 a5 e2 bd d3 50 26 3d 30 a0 82 3d
       0.1769455 -0.110666774 0.040604424 0.063782096
000350 e2 35 29 3e 84 f5 f3 3d c0 7b 44 be a9 8a 93 bd
       0.16524461 0.11912063 -0.19187832 -0.07204182
000360 5b 32 97 be 1b 70 69 bd 70 15 0e 3d d1 af 08 3e
       -0.29530606 -0.056991678 0.034688413 0.13348319
000370 7b 73 c0 bd 0d d8 13 be d4 bc 99 3e 98 91 59 3d
       -0.09397026 -0.14437886 0.30026877 0.053117365
000380 0b 58 44 be dd be 34 bc d5 00 b7 3e ee df 23 3c
       -0.1917421 -0.0110318335 0.35742822 0.0100021195
000390 25 d6 18 be 30 eb f4 bd 5b fe ce 3e 66 8a d4 bd
       -0.1492544 -0.11958921 0.40428433 -0.1037796
0003a0 83 37 6e bc da f3 a8 bc 5c 26 dd be ae 7a e4 3d
       -0.014539602 -0.02062409 -0.43193328 0.11156212
0003b0 d0 8f 82 3d 82 7d da 3e 42 51 17 3e 36 d1 19 be
       0.06375086 0.4267388 0.14777091 -0.15021214
0003c0 f6 f7 ff 3d de 18 a7 3d 05 19 89 be af 6a 80 bd
       0.12498467 0.0815904 -0.267769 -0.06270348
0003d0 a8 67 4e 3e 30 87 4a 3e 87 b4 2a 3e 58 fc bf be
       0.20156729 0.19778132 0.16670428 -0.3749721
0003e0 ba d6 3b bd 07 eb dd bc 2a 30 29 3e 6e 90 57 3e
       -0.045859076 -0.027089609 0.1652228 0.2105119
0003f0 7a 40 83 3d 83 78 35 3d 39 80 f4 3d 38 ce 51 be
       0.06408782 0.044304382 0.11938519 -0.20488822

network_body._body_endoder.seq_layers.0.bias f4 [128]
000000 23 a7 60 3d 67 96 60 3d 12 43 96 3d b0 88 ad 3c
       0.054846894 0.054830935 0.073370114 0.021183342
000010 f9 35 8d 3d dc f8 41 3c 13 4a 8e ba 0b 05 04 3d
       0.0689506 0.011839118 -0.0010855816 0.03223137
000020 7d 7e 9a 3d 8a 7b aa 3d d2 fa 71 3d 62 0a 3e 3c
       0.07543657 0.083243445 0.05907709 0.011599155
000030 c3 fd 50 3c 06 dd 00 3d 9e b0 a9 3c 6a 7d c8 3c
       0.012755814 0.031460784 0.0207141 0.024473865
000040 a5 9f 35 3d 0c 91 7f 3d 3f 23 8e 3d b5 70 8b 3b
       0.044341702 0.062394187 0.069403164 0.004255379
000050 59 87 78 3d d4 93 6f 3d 5d 47 42 bb 08 26 d2 ba
       0.060675953 0.05849059 -0.0029644587 -0.0016033063
000060 cd 75 f2 3c b6 ae 36 bc d7 a6 b9 bc 2f e3 fb bb
       0.029597187 -0.011150053 -0.022662563 -0.0076869945
000070 e1 42 06 bd ca 40 39 bc 04 99 2e 3d ec d4 e2 3d
       -0.032778624 -0.011306951 0.042626396 0.11075768
000080 95 f8 b0 bd fc 5b 6b bd 35 b2 8f bb b7 1e 34 bc
       -0.08641163 -0.05746077 -0.0043852576 -0.010993651
000090 ae 73 ce 3c f8 8f a9 bc bd 1d 66 3d e4 ba 63 3a
       0.025201645 -0.020698532 0.056180704 0.00086872117
0000a0 94 b3 29 bd a5 ee 0c bd c9 b6 9b 3c f1 61 1e bb
       -0.041431025 -0.034407277 0.019008057 -0.0024167264
0000b0 e7 a8 2d 3d ed 4f 23 3d e5 12 c0 3b 66 a5 0f bd
       0.042397406 0.039871145 0.0058616274 -0.035069846
0000c0 1e e5 b9 bb 2d 7f 30 bd ba 3f c1 bc fb fb 3f 3d
       -0.005673065 -0.043090034 -0.023589958 0.046871167
0000d0 49 19 fb 3b 68 68 8c 3d 0a af d1 3b 80 35 3a 3d
       0.0076629263 0.068558514 0.00639904 0.045461178
0000e0 99 96 6a 3c 71 4e c3 bc 9a 5e 49 bc c3 74 91 ba
       0.014318132 -0.023841115 -0.012290621 -0.001109742
0000f0 c0 98 31 3c 6d 20 7d 3d ba 6b 9c 3d a6 45 b0 3c
       0.010839641 0.0617985 0.07637735 0.021517586
000100 cf bb d3 3b d4 30 64 3d 2a cf bb 3c 79 ec 83 3d
       0.0064615975 0.05571063 0.022925932 0.06441588
000110 f4 47 ca bc 4e 63 31 bd bc 93 29 3c db 77 69 3b
       -0.024692513 -0.043307595 0.010350164 0.0035624418
000120 f6 e1 03 3d df c0 b1 bc c6 0d 1c bb 35 63 33 3d
       0.032197915 -0.021698413 -0.002381192 0.043795783
000130 c3 72 21 3c d5 be 0e bc 9b 54 a4 3d 96 0a 95 3c
       0.0098540215 -0.00871249 0.0802395 0.018193524
000140 58 1b d1 bc 1c 56 3f bc 93 c4 df bc 09 88 cf bc
       -0.025525734 -0.011678245 -0.027315414 -0.025333421
000150 7e 02 4c bc e3 81 8e 3d 18 28 af 3c a9 63 de 3c
       -0.012451766 0.06958368 0.021381423 0.027147131
000160 ea f1 96 3d ec 18 3f 3c cf 9a 0f 3e 28 2e ae 3d
       0.0737036 0.011663657 0.14023899 0.08504897
000170 b2 78 2e bc 60 38 d0 bd b7 b8 69 3d 4a 08 98 bc
       -0.010648893 -0.10167003 0.057060923 -0.01855864
000180 c8 58 aa 3c cc 1b 79 bd de 36 2b 3c 4e dd 95 3c
       0.020794287 -0.060817525 0.010450093 0.018294003
000190 18 0f 36 bd 13 2a 90 3c c9 e2 51 3c 65 09 a0 3d
       -0.04444799 0.017598188 0.012810417 0.07814292
0001a0 b5 1e 85 bc 65 0b 49 3d 4b 86 ce 3d ae b8 23 bd
       -0.016249994 0.049083132 0.10084208 -0.039971046
0001b0 be ec 82 3c cb 2d 8e bc ab 65 50 3d b1 97 9c 3c
       0.015982028 -0.01735582 0.050878208 0.0191153
0001c0 3e f6 18 bd 59 19 33 3c 3a cf 84 bc a5 b7 d8 3d
       -0.03734421 0.010931336 -0.016212095 0.105819024
0001d0 e7 ec bb bb d3 76 3e 3d 79 6b 47 3d d0 ac fb 3c
       -0.005735028 0.04650004 0.04868648 0.030722052
0001e0 71 4d 21 3d 75 5b e9 bc 64 fd 8d bc 9e 38 41 bc
       0.039380495 -0.028485993 -0.01733274 -0.011793284
0001f0 27 32 d4 bc 43 45 33 bd 61 05 88 3d 29 9d be 3b
       -0.02590282 -0.043767225 0.06641651 0.005817075

network_body._body_endoder.seq_layers.2.weight f4 [128, 128]
000000 ed e7 a4 bd 92 de 42 3d 29 70 71 be eb de aa 3a
       -0.08052049 0.04757554 -0.23577942 0.0013036405
000010 03 55 19 3e ff 91 0d be d6 8e 76 3d e8 3a 28 bd
       0.14973836 -0.13825224 0.060194813 -0.041071802
000020 24 47 c7 be ca 14 88 3d 82 c5 24 3d 79 fc c9 3d
       -0.38921463 0.0664459 0.04022742 0.098626085
000030 48 5a 03 3d 97 23 de 3d eb 8a 11 be f5 d5 e0 3c
       0.03206852 0.10846632 -0.14213149 0.027445773
000040 d8 2d e8 3c 2b 9e a3 3d 18 d5 21 be b0 fa da 3d
       0.028342173 0.079891525 -0.15803945 0.10692346
000050 99 64 1e be e0 40 77 3e a2 2e e5 bd 7d e3 df 3c
       -0.15468062 0.24145842 -0.11190535 0.027330155
000060 42 f4 82 be 35 da 65 3d fa 61 47 3e f6 96 00 be
       -0.2557698 0.0561163 0.19470969 -0.12557587
000070 78 17 d3 bd fb ba d9 3d b9 d6 2c 3e 65 21 8c be
       -0.10307211 0.10631367 0.16878785 -0.27369228
000080 50 fc 49 bd dc e0 7c be 27 c3 74 be 81 a2 b7 3d
       -0.04931289 -0.24695152 -0.2390257 0.08966542
000090 10 2a 39 3d 99 4b 9d 3c 67 2f fd 3d 6c bc ab 3d
       0.04520613 0.019201087 0.12362557 0.08385548
0000a0 c7 e7 b1 3e 53 54 8b 3c bf 9d a0 bd d7 a7 81 3e
       0.34747145 0.017007982 -0.07842588 0.25323364
0000b0 c0 b6 cf 3d f8 78 78 be 55 f9 af bd 7f 04 92 3d
       0.10142279 -0.24264896 -0.08592478 0.07129764
0000c0 cb 9e d1 3d 04 54 82 bc ac 16 f5 bb ce ac 2b be
       0.102353655 -0.015909202 -0.0074795093 -0.16765139
0000d0 1c 17 f0 bd b6 c2 79 be 5a 17 cd bc 4d e8 01 3e
       -0.11723158 -0.24390683 -0.025035549 0.12686272
0000e0 0e 2b 05 bf 0e cc c4 bd 52 32 a6 bd 46 4a 0e 3e
       -0.5201882 -0.09609233 -0.081150666 0.1389552
0000f0 3e e6 90 be 35 92 cc 3d df 25 e2 bd bd 99 d3 be
       -0.2830066 0.09988824 -0.110423796 -0.4132823
000100 8f 12 1d be c5 78 a4 3c d4 f1 8b be 7d 95 43 3e
       -0.15339111 0.020077119 -0.27332938 0.19099994
000110 ed f9 2c be a7 a7 a3 bd b8 64 57 3d 04 45 82 3d
       -0.16892214 -0.079909615 0.052586287 0.0636082
000120 71 be b2 bd 3f 96 a3 bd 02 07 09 bb 42 81 73 39
       -0.0872773 -0.079876415 -0.0020908718 0.00023222438
000130 99 61 b0 be 31 c4 25 be 24 f0 52 3e 45 ce b5 3d
       -0.3444946 -0.16188122 0.20599419 0.088772334
000140 83 6c 13 3e 6e 91 69 3d fa ab d7 ba 83 38 40 be
       0.14396863 0.05702346 -0.0016454451 -0.18771558
000150 38 4b 05 be 0a de 9c 3c 6f 34 b0 3e 07 0a 5a bd
       -0.13016975 0.019148845 0.34415004 -0.05323222
000160 aa 07 7c 3c 77 50 58 3c 36 dd 1c 3d 39 3a c7 3c
       0.015382687 0.013202778 0.0382969 0.024319755
000170 c6 f6 92 3c 5b 8c 8e be f1 8d 5f bd a7 eb ae be
       0.017939936 -0.27841458 -0.054578725 -0.34164163
000180 6b 87 04 bf a8 a2 80 bd e6 1d 65 bd 33 a2 1c 3e
       -0.5176913 -0.06281024 -0.055936716 0.15296249
000190 40 d2 00 3e 72 f9 0b 3e ec 95 c4 3a a5 23 e6 3d
       0.12580204 0.13669375 0.0014998293 0.112372674
0001a0 fe 03 5e be e5 8d 2b bb 46 48 52 bb af d5 50 bd
       -0.2168121 -0.0026177105 -0.0032086535 -0.050985035
0001b0 11 40 eb 3d bc 09 fd 3d dc b8 a1 3b c8 13 aa bd
       0.11486829 0.12355372 0.004935367 -0.08304554
0001c0 48 f2 20 3e 00 9d 0b bf 04 9d 72 3d 47 39 1d 3d
       0.15717423 -0.5453644 0.059231773 0.038384702
0001d0 fe 42 67 bd e3 ba 4b be f2 c8 73 3e 27 81 92 3e
       -0.056460373 -0.1989551 0.23807123 0.2861416
0001e0 77 2b 3b bd 28 20 76 bd 1e 68 8d bc f6 5b 5e 3e
       -0.04569575 -0.06008926 -0.017261561 0.21714768
0001f0 c2 bb 27 3e d9 17 2d 3e 4e 94 80 be 8d 60 d9 3c
       0.16380218 0.16903628 -0.25113147 0.026535297
000200 19 7c f1 bd 38 15 ca bd 00 6e d4 3b 22 22 bd 3c
       -0.11791248 -0.098673284 0.0064828396 0.023087565
000210 3b 9f 8a 3c 46 8a 54 3d eb 4e 13 be 31 1c 38 be
       0.01692163 0.05188968 -0.14385574 -0.17979504
000220 92 d2 71 bc d6 de 0a 3e b6 c4 93 3d 1e 59 33 3e
       -0.0147596765 0.13561568 0.07215254 0.17514464
000230 a3 8e 95 bd ec e2 08 3e 1e 5c 8e 3e 49 09 6d be
       -0.073025964 0.13367814 0.27804655 -0.23148073
000240 e5 c0 54 bc 7f 48 e6 3d 61 e5 05 3e 01 ad 87 3e
       -0.012985443 0.11244296 0.13075782 0.2649918
000250 e5 a6 52 bd d5 2a e3 3c ac 03 4f 3e 27 d8 80 3d
       -0.051428694 0.027730385 0.20216244 0.06291228
000260 e4 e7 86 3e fb e0 e1 be 68 77 a8 be 11 17 69 be
       0.26348794 -0.4411696 -0.329036 -0.22762705
000270 a7 c0 6d 3e 45 46 f8 bd 31 28 44 3e 04 5f 7f be
       0.23218022 -0.12122778 0.19155957 -0.2493859
000280 9e 8d 43 3d a4 24 b8 3c 92 46 3f be b2 46 ce 3d
       0.04774248 0.02247841 -0.18679264 0.10072078
000290 b0 05 f2 3d 52 83 ec bd 87 8e 79 be 4d 72 34 3e
       0.11817491 -0.11548485 -0.24370776 0.17621727
0002a0 bb ce fa 3d 97 58 82 bc 2f 50 30 be 4d b0 31 3d
       0.12246462 -0.015911384 -0.17218088 0.043381024
0002b0 36 20 ad 3d e5 1f 07 be e3 e9 49 bc 2f f9 cb 3c
       0.084534094 -0.1319576 -0.012323829 0.024899093
0002c0 1d a1 49 bd 98 08 12 bd 6d 28 b9 3c 86 39 33 3d
       -0.049225915 -0.035652727 0.022602284 0.04375603
0002d0 cd 5b 5a 3b 8d 88 2e 3e 84 19 45 be c1 e6 20 3e
       0.0033318878 0.17044277 -0.19248015 0.15713026
0002e0 ab a9 bc bd aa 50 b8 bd 45 9b 4a bd d2 ab 74 3e
       -0.09212049 -0.089997604 -0.049464483 0.23893669
0002f0 05 a3 9a bd b8 e6 40 be 67 c9 e5 bd 3a 77 8b bd
       -0.07550625 -0.18838012 -0.11220055 -0.0680985
000300 b8 be 94 be 73 71 99 be 04 b7 94 be c6 6f 7f bd
       -0.29051757 -0.29969367 -0.2904588 -0.062362455
000310 8d 17 d5 3d af 04 18 3e 15 69 72 3e 99 06 27 be
       0.104048826 0.14845537 0.23672898 -0.1631111
000320 27 98 b3 bc fe 1b 31 3e 0c dc 90 3e 59 4c 4d 3d
       -0.021923138 0.17295834 0.28292882 0.05012164
000330 4f ef 0a 3e 34 c2 12 be 23 6d c0 be 0b f0 9e bd
       0.13567851 -0.14331895 -0.37583265 -0.07760628
000340 01 b5 bb 3d 47 bf 63 be 90 b6 84 3d 01 84 50 3e
       0.09165383 -0.22240935 0.064801335 0.20362855
000350 5f cd 5a 3d d7 9b 7c 3e 72 ed 0a be 2b f5 fe 3d
       0.053418513 0.24668823 -0.1356714 0.12449106
000360 8c 48 85 3e c4 d9 43 3e 55 e5 09 3d 6f 2a 24 3e
       0.2603191 0.1912604 0.033665974 0.16031812
000370 d4 69 43 3d 6b ce 11 3e 3b 76 ce 3c 33 7f e7 bc
       0.047708347 0.14238898 0.025202861 -0.028258896
000380 ae d6 e5 bc 39 31 03 3d 5c 85 84 3c dc 1f 5f bd
       -0.028056469 0.032029364 0.016176872 -0.054473743
000390 46 3c d5 3d 5b 3d 1a 3d 3b a7 ce 3d 42 7e 95 bc
       0.10411887 0.03765617 0.100904904 -0.018248681
0003a0 f0 f4 e3 bd 50 14 9e 3e 20 8a ae 3d 95 9d fd bd
       -0.111307025 0.30874872 0.08522439 -0.12383572
0003b0 d3 ed 39 3d 25 a6 88 3d 50 eb d9 bc e0 ea e9 bc
       0.045392822 0.066723146 -0.026601464 -0.02855438
0003c0 68 97 68 be ba 41 d1 3c 35 d2 33 be f8 27 22 be
       -0.22714007 0.025544036 -0.17560656 -0.1583556
0003d0 22 2a 11 3e a9 e9 89 be b5 76 19 3e 57 a7 91 3e
       0.14176229 -0.2693608 0.1498669 0.28447983
0003e0 9f 05 87 be d7 d6 c5 3d d6 6a 15 be eb 5d d9 bd
       -0.26371476 0.09660118 -0.14591536 -0.106136166
0003f0 ec 9e ac 3d 40 e6 90 bd 61 a3 28 3e 88 7d 57 bd
       0.084287494 -0.07075167 0.16468574 -0.05260995

network_body._body_endoder.seq_layers.2.bias f4 [128]
000000 b7 34 f7 bc 18 d6 76 bd 68 35 91 bd 9b d3 01 3c
       -0.030176504 -0.06026277 -0.070902646 0.007923986
000010 70 8a 46 3d ab 49 0f bb 58 ef 29 bd f0 d5 7c bc
       0.048471868 -0.0021863978 -0.04148802 -0.015431866
000020 34 bd ba 3b 5a 5d 6e bb e9 00 21 bd 0f 0f 83 3c
       0.0056988243 -0.003637156 -0.03930751 0.015998391
000030 b5 e7 b3 bb a9 3d 21 bd 61 ac 01 bd 50 f7 78 3c
       -0.005490268 -0.039365444 -0.031658534 0.015195683
000040 4f 87 13 bd c1 db b1 bc 69 29 63 bd 8f cc e7 bc
       -0.036017712 -0.021711232 -0.055459414 -0.028295783
000050 76 09 d5 bc f9 6d 5f bd e0 15 ea bc 15 79 51 3d
       -0.026005488 -0.054548237 -0.028574884 0.051140863
000060 86 2b 2f bd 2d 0a 29 bd af 6e bf 3a 40 dd e3 bc
       -0.042766117 -0.04126947 0.001460513 -0.027815461
000070 85 fc 02 3c 65 02 61 bc ba 43 9b bd 41 b0 27 bd
       0.007994776 -0.013733481 -0.07581277 -0.040939573
000080 98 70 2e bd a9 09 81 bc 3d 9b 99 bd c2 f7 87 bd
       -0.042587847 -0.015751677 -0.075003125 -0.06639053
000090 79 26 43 bd ca 73 b3 3c d8 13 54 bc 17 29 9c 3c
       -0.047644112 0.021905798 -0.012944184 0.019062562
0000a0 54 7a b4 bd 7c 5e ae bc f4 aa 88 bc 71 81 5c bd
       -0.08812395 -0.021285288 -0.01668308 -0.053834382
0000b0 11 7b 65 bb 2f 75 4b bc 19 95 ca bd 26 1e 35 bd
       -0.003501598 -0.012418075 -0.09891719 -0.044218205
0000c0 66 f1 c8 bc 2b 2b 57 3c 15 09 cd bd 4a d0 74 bd
       -0.02452917 0.013132851 -0.10011498 -0.059768952
0000d0 3e 11 92 bc d8 2c 83 3c 7a ad 13 3b f9 0f 12 3c
       -0.017830487 0.016012594 0.002253382 0.008914941
0000e0 17 7e 17 bd 6d e4 56 bd fa 2c 9f bb a3 8c 82 3c
       -0.036985483 -0.052463938 -0.0048576565 0.015936201
0000f0 86 ba 23 bc 8d e1 0b 3d 71 3e d3 bc e7 42 e6 bc
       -0.009993201 0.03415065 -0.02578661 -0.028108073
000100 36 9c 1e bd 96 c4 b3 ba 0d 90 aa bc 51 f6 90 bc
       -0.038723193 -0.0013715203 -0.020820642 -0.017695578
000110 33 fc 0e 3c 08 c3 9e 3c 65 ef 32 bd 1b 97 e7 3c
       0.008727121 0.019380108 -0.043685336 0.028270295
000120 f4 63 9b bd 68 04 c9 3b 7d c7 8a bd d8 00 4a bc
       -0.07587424 0.0061345585 -0.067763306 -0.012329303
000130 9e 8c 69 3b 99 08 81 bc b2 e9 6d bd 4e 87 47 bd
       0.0035636793 -0.01575117 -0.058084197 -0.04871302
000140 a4 58 71 bd 41 e1 29 3d 00 52 89 bd 24 0b 32 bd
       -0.058922425 0.041474584 -0.067050934 -0.043467656
000150 30 08 60 bc 8d 23 3d bd f5 09 72 bd 07 82 e2 bb
       -0.013673827 -0.046176482 -0.059091527 -0.006912473
000160 39 2d 0a bd e1 e0 51 bd 17 34 54 bc 8b 74 06 bb
       -0.033734534 -0.05123985 -0.012951872 -0.0020516242
000170 d6 2e c6 bc bc a9 cf bc 8c 0e 52 bd a3 c0 71 ba
       -0.024192255 -0.02534949 -0.051283404 -0.00092221255
000180 09 e4 7d bd 9c 94 5e bd 35 82 a0 3c db 4e 82 3d
       -0.06198505 -0.054340944 0.019593338 0.06362697
000190 32 3e ab 3d b9 ed 83 39 ac 35 03 bd e6 e9 33 bd
       0.08361472 0.00025163384 -0.032033607 -0.043924235
0001a0 d9 e1 59 bd be c8 ec 3c a0 1c 0c 3c de 57 56 bd
       -0.0531939 0.028904315 0.008551747 -0.05232989
0001b0 32 41 a5 bd d7 e9 94 3b 8e bc 68 3d 14 ce 2d bc
       -0.08069076 0.0045444774 0.056820445 -0.010608215
0001c0 b2 2e 1c bd 48 58 e8 bc 5e 1e 24 bc ab d5 b4 bd
       -0.03813047 -0.028362408 -0.010017006 -0.088298164
0001d0 65 8f 67 bd b6 d4 7b bb 2f c2 c8 3b 10 a7 a6 3c
       -0.056533236 -0.0038426346 0.006126664 0.020343333
0001e0 bc aa 4c bd 01 f4 b9 bd c7 68 bd bc e7 1d a5 3b
       -0.049967512 -0.09079743 -0.02312125 0.005038965
0001f0 ce 3d e5 bc 75 d8 08 bd 35 25 79 bd 08 3c 2c 3c
       -0.027983572 -0.033409555 -0.0608265 0.010512359

action_model._continuous_distribution.log_sigma f4 [1, 2]
000000 08 04 76 c0 48 a6 75 c0
       -3.843996 -3.838274

action_model._continuous_distribution.mu.weight f4 [2, 128]
000000 42 64 47 3e dd b4 a3 3d 4e ab 76 bd 3d 5c 1a bd
       0.19471839 0.07993481 -0.060221963 -0.03768562
000010 18 0b 58 3d 71 70 8c 3b 64 e9 23 3d cc a5 1a bd
       0.052744955 0.004285865 0.0400175 -0.037755772
000020 81 e1 ce bd 0d 05 50 3d 51 37 f5 bd 13 6a f3 bc
       -0.10101605 0.050786067 -0.119734414 -0.029713666
000030 9e 0d 89 ba 3f 3c a8 bc e1 62 6f bd 16 69 18 3e
       -0.0010456329 -0.02053654 -0.058443908 0.14883837
000040 0f 6d 97 3d 9a 1a 1b be 51 74 bc 3c 37 5a 20 ba
       0.07393848 -0.15146866 0.023004683 -0.00061169587
000050 f1 79 a3 3b f2 a2 b2 ba 3d 10 f4 3c bd ed 48 be
       0.004988902 -0.0013628884 0.0297929 -0.1962194
000060 8b b5 85 bd e4 1a ae 3c 9f ec 12 3e a3 f4 0a 3b
       -0.06528767 0.021253057 0.14348076 0.0021202944
000070 73 93 ef bd 63 79 cc 3d 2b 5f ca bc 8e b4 03 3d
       -0.116980456 0.0998409 -0.024703583 0.032154612
000080 51 9b b2 bc f1 df 16 3d e9 db d2 3b d3 0e 9f bd
       -0.021802576 0.03683466 0.0064349067 -0.07766499
000090 4a ad a1 3d 7b 5b 45 bb 2d 8d bd 3d cd c6 b4 bc
       0.078943804 -0.003011434 0.09255443 -0.022067452
0000a0 e4 b2 49 bd 5b 76 0e 3d 25 8f f9 3d a9 66 88 bd
       -0.04924287 0.03478084 0.12185506 -0.06660206
0000b0 19 d5 c2 3d cb e6 19 3e 37 f6 ae 3b 31 67 66 bd
       0.095133014 0.15029447 0.0053394097 -0.056250755
0000c0 d5 7a 14 3e f2 b0 96 bc 65 44 9a bd 5e 24 9e bd
       0.14499982 -0.018394921 -0.075325765 -0.0772178
0000d0 e9 b2 ce 3b b5 9d b5 be 5e 0f 62 bd 47 4e 27 be
       0.006307949 -0.35471883 -0.055190437 -0.16338454
0000e0 3b 8d af bd 7c 31 bf 3c 6f 1f be 3d cd bf 27 be
       -0.085718594 0.023339026 0.09283339 -0.1638176
0000f0 12 15 ad 3d 20 5f 80 bd 86 ac 9b bd a2 10 7c 3e
       0.084512845 -0.06268144 -0.076012656 0.2461572
000100 b3 50 25 3e 8b 91 b3 3d 18 2b 8f bc ee c5 0a 3d
       0.16144066 0.087679945 -0.017476603 0.033880167
000110 d9 d9 24 3d c7 89 cc 3d 17 f9 3f bb d3 1b da 3c
       0.04024682 0.099872164 -0.0029292756 0.026624596
000120 9e 7e 7f bc cf 48 c1 bd 92 a9 cb bc 3d 0a e6 3c
       -0.015594153 -0.09437715 -0.02486113 0.028081054
000130 42 b9 4f bd 9a 43 b9 bd a4 cf c5 3c 46 49 1a bd
       -0.050713785 -0.09046097 0.024146862 -0.037667535
000140 7b f5 1f bc 43 d5 f4 bd 68 22 45 bd 0a c5 f6 bc
       -0.009763117 -0.11954739 -0.048128515 -0.030123252
000150 e5 1a a9 ba 7d 52 1e 3c 2d df 76 3c ac ef 13 bd
       -0.0012901692 0.009663221 0.015067858 -0.03611724
000160 19 54 58 3d f1 97 1e bc 43 d3 b5 3b 02 46 dc 3c
       0.052814577 -0.00967978 0.005548866 0.026888851
000170 2e 67 91 3c dd 54 aa 3d 48 95 38 bd 3a fa dd bd
       0.017749395 0.08316968 -0.04506424 -0.108387426
000180 e4 e5 e9 3c f4 35 a0 bd 22 c5 15 3e 65 15 89 bc
       0.028552003 -0.07822791 0.14625981 -0.016733835
000190 86 01 10 3d 64 38 49 bd 46 c8 5c bd de 73 8d bd
       0.035157703 -0.049126044 -0.053901933 -0.069068655
0001a0 70 a8 8e bc 89 7d 02 be 9a 81 f7 3d 4f f8 e9 bc
       -0.017414302 -0.127432 0.120852664 -0.028560786
0001b0 3d f2 ca bd b9 53 34 bd 90 9d 1b be 8d 9a d7 bc
       -0.099094845 -0.044025157 -0.15196824 -0.026318813
0001c0 9c 44 35 be d5 dd 42 bb 14 55 a8 3d 2e cf 58 bc
       -0.17701954 -0.0029734273 0.08219352 -0.013232989
0001d0 6b 6d 2e bd d8 46 19 3e 58 cb cd bd 5e 97 4c 3d
       -0.042584818 0.14968431 -0.1004855 0.049949042
0001e0 3b e7 1b 3e 56 65 9c 3d ea 5d 8d 3d ad 8f f6 bd
       0.15224926 0.07636516 0.06902678 -0.12039123
0001f0 fd f8 00 be 5a a5 18 3d 71 25 1c bd 65 d8 90 3d
       -0.12594981 0.037267067 -0.038121644 0.07072524
000200 83 db 42 bc ab 70 8a 3d 85 99 e8 3d 41 58 2e bc
       -0.011893156 0.06759771 0.113574065 -0.010641159
000210 0e 05 08 3e 67 de 96 bc 93 ee 70 3d cf 29 cd bc
       0.13283178 -0.018416597 0.058821272 -0.02504435
000220 bb f0 95 3d 45 9a 08 3c dd ae 24 bd 45 b4 17 3e
       0.07321306 0.008337562 -0.040205825 0.14814861
000230 6d a9 91 3b 32 b7 a6 bd 1f 01 dd bd 09 ce 1e 3e
       0.004445246 -0.081404105 -0.107912295 0.15508284
000240 8d 48 a0 bc d0 00 b5 bd 2a 9a a3 3c 59 b6 82 bc
       -0.019565845 -0.088380456 0.019970972 -0.01595609
000250 96 84 d4 bb b8 09 85 3b 0c 1d 76 bc 36 21 39 bd
       -0.006485532 0.0040599965 -0.015021574 -0.045197688
000260 a7 c8 73 bc cc e4 2a bd 08 27 30 3d 6c db 17 bd
       -0.014879382 -0.041722104 0.043005973 -0.03707449
000270 bd 51 9d bd 58 d1 d4 bd 74 e8 b2 3d 47 2c 81 3d
       -0.07681606 -0.10391492 0.08735743 0.06307273
000280 73 26 21 3d 14 40 0c bd 1d 83 0e 3e 56 d2 6a 3d
       0.03934331 -0.034240797 0.13917203 0.0573295
000290 f3 52 15 3e e0 61 21 3e 22 f8 0f 3e 70 ec b8 bd
       0.14582424 0.15759993 0.14059499 -0.09029472
0002a0 55 5f 3d 3c 1f 55 e1 bc ca 42 b9 3c ca 96 f8 3d
       0.011558373 -0.02750641 0.022614855 0.12138136
0002b0 72 7b 55 3c 42 8f c4 3d 17 ce 54 bc 98 c1 2a 3e
       0.01302992 0.09597637 -0.012988589 0.16675413
0002c0 ea da fc bd e5 43 cc bc 49 e6 00 3d db 01 98 3c
       -0.12346442 -0.024934718 0.031469617 0.018555572
0002d0 03 11 11 bd e3 8b 46 be d7 e9 3e 3d 91 c1 2d bc
       -0.035416614 -0.193893 0.046609726 -0.010605232
0002e0 70 cd 90 3d 95 7a 82 3d d3 3c 0e 3d 20 b8 0f bd
       0.07070434 0.06371037 0.034725975 -0.035087705
0002f0 37 e4 e7 3c 39 6b 17 be d3 47 ff 3d 4a 18 23 3e
       0.028307064 -0.14786996 0.12464871 0.15927234
000300 5a c8 75 3d d9 bb 5f 3d 9e b1 04 bc 38 f8 93 3d
       0.060005523 0.054622505 -0.008098988 0.07225078
000310 a1 4b e0 bc 07 24 9c 3c 41 66 5b 3e b4 f4 93 bd
       -0.027379813 0.019060148 0.21425726 -0.07224408
000320 0d 04 bd bd bb 3e 8d bd 84 a0 e2 3d 6d 42 e6 bc
       -0.09229288 -0.068967305 0.11065772 -0.028107846
000330 2d ee 52 bd 24 15 2f bd bd 98 90 bc 4e 2a 0a 3e
       -0.051496673 -0.04274477 -0.017650956 0.134927
000340 c5 9c f2 3d f4 a2 d0 3d ea 2e bf bd 5d c0 a8 bd
       0.11846308 0.10187331 -0.0933512 -0.082398154
000350 6d 43 f9 3d d4 37 8c bd a9 f4 a1 3c b7 8e c5 3c
       0.121710636 -0.06846586 0.019769983 0.024115903
000360 e2 53 67 bb 3f 1c 54 bc c5 0e 70 3c fc c4 51 3c
       -0.00352978 -0.0129461875 0.014651959 0.012803312
000370 d3 46 1e 3c ea b5 b2 3d 9e a3 ff 3b 91 14 e3 bc
       0.0096604405 0.087261036 0.007801487 -0.027719768
000380 ff 54 97 3d 03 60 97 3d f8 5c 86 3d 9e 9e 1d be
       0.073892586 0.0739136 0.06560701 -0.15392539
000390 8b c9 e3 3d 54 54 10 be 14 90 d9 bc 7f 9a a3 3d
       0.11122426 -0.14094669 -0.02655796 0.07988452
0003a0 a2 81 2e 3e 2b 05 f0 bd 88 02 31 3d 25 4e 1b 3e
       0.17041638 -0.11719736 0.043215305 0.15166529
0003b0 c0 97 72 3c bf 74 a9 bd 49 b6 ab 3d 18 e5 03 3c
       0.014806688 -0.08274221 0.083843775 0.008050226
0003c0 cc 0c a0 3a 45 97 56 bc 28 0b a1 bd 9f 8f 17 bc
       0.0012210845 -0.013097589 -0.07863456 -0.0092505505
0003d0 9e 2c a8 bc 43 57 79 3b 54 22 7f 3c f2 d1 d3 bd
       -0.020529088 0.0038046397 0.015572149 -0.10342778
0003e0 27 b1 c0 3d 51 10 68 3d 29 09 49 3d 47 e7 30 bd
       0.09408789 0.056656186 0.049081 -0.043189313
0003f0 9d ba 0c 3e 5c 1b cb bc 0c fd 47 3d 21 4b 2d bc
       0.13743062 -0.02479332 0.04882531 -0.010576994

action_model._continuous_distribution.mu.bias f4 [2]
000000 a6 df 8d ba c0 5d 0d bd
       -0.0010824099 -0.034513235

exp_avg f4 [128, 34]
000000 04 00 00 00 04 00 00 80 23 d8 8a b9 23 d8 8a b9
       6e-45 -6e-45 -0.00026482446 -0.00026482446
000010 04 00 00 00 04 00 00 80 23 d8 8a b9 23 d8 8a b9
       6e-45 -6e-45 -0.00026482446 -0.00026482446
000020 04 00 00 00 04 00 00 00 23 d8 8a b9 23 d8 8a b9
       6e-45 6e-45 -0.00026482446 -0.00026482446
000030 00 00 00 00 04 00 00 80 23 d8 8a b9 23 d8 8a b9
       0.0 -6e-45 -0.00026482446 -0.00026482446
000040 00 00 00 00 04 00 00 80 23 d8 8a b9 23 d8 8a b9
       0.0 -6e-45 -0.00026482446 -0.00026482446
000050 00 00 00 00 04 00 00 80 23 d8 8a b9 23 d8 8a b9
       0.0 -6e-45 -0.00026482446 -0.00026482446
000060 00 00 00 00 04 00 00 80 23 d8 8a b9 23 d8 8a b9
       0.0 -6e-45 -0.00026482446 -0.00026482446
000070 06 08 f3 ba 77 e0 8a b9 5e 2a ca 3a 1b 0a f3 ba
       -0.001854182 -0.0002648865 0.0015424003 -0.001854244
000080 d9 e1 8a b9 be 4f ca 3a 04 00 00 00 04 00 00 00
       -0.0002648968 0.0015435142 6e-45 6e-45
000090 1a 87 6f bb 1a 87 6f bb 04 00 00 00 04 00 00 00
       -0.0036549033 -0.0036549033 6e-45 6e-45
0000a0 1a 87 6f bb 1a 87 6f bb 04 00 00 80 04 00 00 80
       -0.0036549033 -0.0036549033 -6e-45 -6e-45
0000b0 1a 87 6f bb 1a 87 6f bb 00 00 00 00 04 00 00 80
       -0.0036549033 -0.0036549033 0.0 -6e-45
0000c0 1a 87 6f bb 1a 87 6f bb 00 00 00 00 04 00 00 00
       -0.0036549033 -0.0036549033 0.0 6e-45
0000d0 1a 87 6f bb 1a 87 6f bb 00 00 00 00 04 00 00 00
       -0.0036549033 -0.0036549033 0.0 6e-45
0000e0 1a 87 6f bb 1a 87 6f bb 00 00 00 00 04 00 00 00
       -0.0036549033 -0.0036549033 0.0 6e-45
0000f0 1a 87 6f bb 1a 87 6f bb 0b a2 d1 bc b1 94 6f bb
       -0.0036549033 -0.0036549033 -0.025589963 -0.0036557133
000100 ce 7b ad 3c 24 a4 d1 bc 3d 9a 6f bb fd ab ad 3c
       0.021177199 -0.025590964 -0.003656044 0.021200174
000110 04 00 00 80 04 00 00 00 4e d3 3b bc 4e d3 3b bc
       -6e-45 6e-45 -0.011463953 -0.011463953
000120 04 00 00 80 04 00 00 00 4e d3 3b bc 4e d3 3b bc
       -6e-45 6e-45 -0.011463953 -0.011463953
000130 04 00 00 80 04 00 00 80 4e d3 3b bc 4e d3 3b bc
       -6e-45 -6e-45 -0.011463953 -0.011463953
000140 00 00 00 00 04 00 00 80 4e d3 3b bc 4e d3 3b bc
       0.0 -6e-45 -0.011463953 -0.011463953
000150 00 00 00 00 04 00 00 00 4e d3 3b bc 4e d3 3b bc
       0.0 6e-45 -0.011463953 -0.011463953
000160 00 00 00 00 04 00 00 00 4e d3 3b bc 4e d3 3b bc
       0.0 6e-45 -0.011463953 -0.011463953
000170 00 00 00 00 04 00 00 00 4e d3 3b bc 4e d3 3b bc
       0.0 6e-45 -0.011463953 -0.011463953
000180 2e 62 a4 bd 02 de 3b bc de e9 87 3d ce 63 a4 bd
       -0.08026539 -0.011466505 0.066364035 -0.08026849
000190 84 e2 3b bc 66 10 88 3d 04 00 00 00 04 00 00 00
       -0.01146758 0.06643753 6e-45 6e-45
0001a0 10 d7 12 b9 10 d7 12 b9 04 00 00 00 04 00 00 00
       -0.00014003762 -0.00014003762 6e-45 6e-45
0001b0 10 d7 12 b9 10 d7 12 b9 04 00 00 00 04 00 00 00
       -0.00014003762 -0.00014003762 6e-45 6e-45
0001c0 10 d7 12 b9 10 d7 12 b9 00 00 00 00 04 00 00 80
       -0.00014003762 -0.00014003762 0.0 -6e-45
0001d0 10 d7 12 b9 10 d7 12 b9 00 00 00 00 04 00 00 00
       -0.00014003762 -0.00014003762 0.0 6e-45
0001e0 10 d7 12 b9 10 d7 12 b9 00 00 00 00 04 00 00 00
       -0.00014003762 -0.00014003762 0.0 6e-45
0001f0 10 d7 12 b9 10 d7 12 b9 00 00 00 00 04 00 00 00
       -0.00014003762 -0.00014003762 0.0 6e-45
000200 10 d7 12 b9 10 d7 12 b9 64 83 80 ba d9 de 12 b9
       -0.00014003762 -0.00014003762 -0.0009804782 -0.00014006662
000210 f3 11 53 3a e0 84 80 ba f9 e4 12 b9 f1 6b 53 3a
       0.0008051686 -0.0009805225 -0.00014008944 0.0008065096
000220 04 00 00 00 04 00 00 80 6e 02 99 3b 6e 02 99 3b
       6e-45 -6e-45 0.004669479 0.004669479
000230 04 00 00 00 04 00 00 80 6e 02 99 3b 6e 02 99 3b
       6e-45 -6e-45 0.004669479 0.004669479
000240 04 00 00 00 04 00 00 00 6e 02 99 3b 6e 02 99 3b
       6e-45 6e-45 0.004669479 0.004669479
000250 00 00 00 00 04 00 00 00 6e 02 99 3b 6e 02 99 3b
       0.0 6e-45 0.004669479 0.004669479
000260 00 00 00 00 04 00 00 80 6e 02 99 3b 6e 02 99 3b
       0.0 -6e-45 0.004669479 0.004669479
000270 00 00 00 00 04 00 00 80 6e 02 99 3b 6e 02 99 3b
       0.0 -6e-45 0.004669479 0.004669479
000280 00 00 00 00 04 00 00 80 6e 02 99 3b 6e 02 99 3b
       0.0 -6e-45 0.004669479 0.004669479
000290 b0 e9 05 3d 74 0b 99 3b 57 25 de bc e6 ea 05 3d
       0.032693565 0.004670555 -0.027117414 0.03269472
0002a0 c7 0d 99 3b ae 54 de bc 04 00 00 00 04 00 00 80
       0.004670832 -0.027139988 6e-45 -6e-45
0002b0 90 9c 1d bc 90 9c 1d bc 04 00 00 00 04 00 00 80
       -0.009619847 -0.009619847 6e-45 -6e-45
0002c0 90 9c 1d bc 90 9c 1d bc 04 00 00 00 04 00 00 80
       -0.009619847 -0.009619847 6e-45 -6e-45
0002d0 90 9c 1d bc 90 9c 1d bc 00 00 00 00 04 00 00 80
       -0.009619847 -0.009619847 0.0 -6e-45
0002e0 90 9c 1d bc 90 9c 1d bc 00 00 00 00 04 00 00 00
       -0.009619847 -0.009619847 0.0 6e-45
0002f0 90 9c 1d bc 90 9c 1d bc 00 00 00 00 04 00 00 00
       -0.009619847 -0.009619847 0.0 6e-45
000300 90 9c 1d bc 90 9c 1d bc 00 00 00 00 04 00 00 00
       -0.009619847 -0.009619847 0.0 6e-45
000310 90 9c 1d bc 90 9c 1d bc c4 f0 89 bd a9 a5 1d bc
       -0.009619847 -0.009619847 -0.067353755 -0.009622016
000320 7e 67 64 3d 1c f2 89 bd f7 a8 1d bc a5 a3 64 3d
       0.05576276 -0.06735632 -0.009622804 0.055820126
000330 04 00 00 00 04 00 00 80 86 f7 8a 3c 86 f7 8a 3c
       6e-45 -6e-45 0.016963731 0.016963731
000340 04 00 00 80 04 00 00 80 86 f7 8a 3c 86 f7 8a 3c
       -6e-45 -6e-45 0.016963731 0.016963731
000350 04 00 00 00 04 00 00 80 86 f7 8a 3c 86 f7 8a 3c
       6e-45 -6e-45 0.016963731 0.016963731
000360 00 00 00 00 04 00 00 00 86 f7 8a 3c 86 f7 8a 3c
       0.0 6e-45 0.016963731 0.016963731
000370 00 00 00 00 04 00 00 80 86 f7 8a 3c 86 f7 8a 3c
       0.0 -6e-45 0.016963731 0.016963731
000380 00 00 00 00 04 00 00 80 86 f7 8a 3c 86 f7 8a 3c
       0.0 -6e-45 0.016963731 0.016963731
000390 00 00 00 00 04 00 00 80 86 f7 8a 3c 86 f7 8a 3c
       0.0 -6e-45 0.016963731 0.016963731
0003a0 de 3e f3 3d 08 ff 8a 3c 08 44 c8 bd 8a 41 f3 3d
       0.11877225 0.016967312 -0.09778601 0.11877735
0003b0 f8 03 8b 3c 29 8e c8 bd 04 00 00 80 04 00 00 00
       0.016969666 -0.0979274 -6e-45 6e-45
0003c0 ec cf 16 bc ec cf 16 bc 04 00 00 00 04 00 00 00
       -0.009204846 -0.009204846 6e-45 6e-45
0003d0 ec cf 16 bc ec cf 16 bc 04 00 00 80 04 00 00 80
       -0.009204846 -0.009204846 -6e-45 -6e-45
0003e0 ec cf 16 bc ec cf 16 bc 00 00 00 00 04 00 00 80
       -0.009204846 -0.009204846 0.0 -6e-45
0003f0 ec cf 16 bc ec cf 16 bc 00 00 00 00 04 00 00 00
       -0.009204846 -0.009204846 0.0 6e-45

exp_avg_sq f4 [128, 34]
000000 e3 f2 b2 2a c6 35 b4 35 bb a8 9c 3a a0 be 9c 3a
       3.1787688e-13 1.3426695e-06 0.0011952141 0.0011958666
000010 1f c9 05 29 41 55 56 37 78 49 9b 3a 79 49 9b 3a
       2.9706377e-14 1.2775244e-05 0.0011847457 0.0011847458
000020 fe 04 9b 28 10 be c6 27 57 f2 9c 3a 57 f2 9c 3a
       1.7210622e-14 5.5162106e-15 0.0011974078 0.0011974078
000030 00 00 00 00 9a da 56 38 58 8c 96 3a 75 8f 96 3a
       0.0 5.1225164e-05 0.0011485917 0.0011486845
000040 00 00 00 00 0e b1 4a 38 93 9c 96 3a c3 ed 97 3a
       0.0 4.8325448e-05 0.0011490755 0.0011591244
000050 00 00 00 00 a9 ef 8a 38 56 8a 94 3a 00 5b 95 3a
       0.0 6.624993e-05 0.0011332731 0.0011394918
000060 00 00 00 00 a9 ef 8a 38 56 8a 94 3a 00 5b 95 3a
       0.0 6.624993e-05 0.0011332731 0.0011394918
000070 25 7d 70 3d d2 a1 9f 3a f4 7a 47 3d 13 80 70 3d
       0.058713097 0.0012178964 0.04870124 0.05871589
000080 f6 b6 9f 3a 70 9a 47 3d 6e aa 1b 2b ca 6b 61 38
       0.0012185264 0.048731267 5.530358e-13 5.3744567e-05
000090 42 df 56 3d bc f6 56 3d 2a f7 d1 29 96 63 d4 39
       0.05245901 0.052481398 9.3243406e-14 0.00040509988
0000a0 63 21 55 3d 6f 21 55 3d a9 d6 33 29 e4 21 8b 2a
       0.052033793 0.052033838 3.9932172e-14 2.4714876e-13
0000b0 b7 4b 57 3d b7 4b 57 3d 00 00 00 00 ad 60 34 3c
       0.05256244 0.05256244 0.0 0.011009377
0000c0 86 9a 27 3d e6 c4 27 3d 00 00 00 00 f7 a2 a9 3c
       0.04091885 0.04095926 0.0 0.02070759
0000d0 6c 99 fd 3c 55 cf 21 3d 00 00 00 00 be 00 b3 3c
       0.030956946 0.039504368 0.0 0.02185094
0000e0 de b1 f7 3c 8f 48 05 3d 00 00 00 00 be 00 b3 3c
       0.03023618 0.0325399 0.0 0.02185094
0000f0 de b1 f7 3c 8f 48 05 3d ab f9 24 40 bb 7d 5b 3d
       0.03023618 0.0325399 2.5777385 0.053586703
000100 a0 0a 01 40 83 f5 24 40 8d 7b 5b 3d 78 eb 00 40
       2.0162735 2.5774848 0.053584624 2.0143719
000110 20 c7 07 2b a9 df 1d 38 50 90 a2 3e 97 91 a2 3e
       4.8237976e-13 3.7640017e-05 0.31750727 0.317517
000120 28 67 b3 29 41 dc d0 39 84 4b a2 3e 85 4b a2 3e
       7.9670916e-14 0.00039836954 0.3169824 0.31698242
000130 c9 3c c1 29 d1 59 ed 29 59 9d a2 3e 59 9d a2 3e
       8.581466e-14 1.0540495e-13 0.31760672 0.31760672
000140 00 00 00 00 54 bb ed 3b 2d 6b 9e 3e d6 6f 9e 3e
       0.0 0.0072549973 0.30941144 0.309447
000150 00 00 00 00 9f df 44 3d f5 eb 88 3e 99 07 9b 3e
       0.0 0.048064824 0.2674252 0.30279234
000160 00 00 00 00 27 0d 57 3d f8 59 87 3e 5e 46 8c 3e
       0.0 0.052502777 0.26435828 0.27397436
000170 00 00 00 00 27 0d 57 3d f8 59 87 3e 5e 46 8c 3e
       0.0 0.052502777 0.26435828 0.27397436
000180 b9 2a 79 41 7f 36 a4 3e 81 cd 36 41 ef 2a 79 41
       15.57293 0.32072827 11.425172 15.572982
000190 33 33 a4 3e b7 c1 36 41 b8 87 09 28 0a 28 27 34
       0.32070312 11.422294 7.634457e-15 1.5567653e-07
0001a0 c2 21 a2 39 e1 26 a2 39 32 22 a5 26 18 19 32 36
       0.000309242 0.00030928015 1.1458444e-15 2.6538673e-06
0001b0 f7 e6 a0 39 f3 e6 a0 39 4f aa ce 26 95 be 47 26
       0.0003068966 0.0003068965 1.4340284e-15 6.930028e-16
0001c0 51 58 a2 39 51 58 a2 39 00 00 00 00 03 c7 43 38
       0.0003096485 0.0003096485 0.0 4.6676967e-05
0001d0 88 50 89 39 50 74 89 39 00 00 00 00 4d 0a 40 39
       0.00026190677 0.00026217336 0.0 0.00018314384
0001e0 8c 99 03 39 e0 62 53 39 00 00 00 00 ba 1c 41 39
       0.00012550334 0.00020159362 0.0 0.00018416616
0001f0 fe f1 02 39 b9 06 17 39 00 00 00 00 ba 1c 41 39
       0.00012487915 0.00014402987 0.0 0.00018416616
000200 fe f1 02 39 b9 06 17 39 b5 d5 78 3c 5a e9 a4 39
       0.00012487915 0.00014402987 0.0151876705 0.00031454378
000210 8f 61 40 3c 66 d1 78 3c b3 eb a4 39 f9 5b 40 3c
       0.01174201 0.015186643 0.00031456127 0.011740678
000220 53 f1 41 2c 45 d7 45 38 26 04 90 3d 46 10 90 3d
       2.7560911e-12 4.7168945e-05 0.07032041 0.07034354
000230 eb ed 97 2a 11 41 11 39 b9 bc 8f 3d bf bc 8f 3d
       2.6988077e-13 0.00013852517 0.07018418 0.07018422
000240 7d ab 0b 2b 91 cc 0b 2b 7c 2c 90 3d 7c 2c 90 3d
       4.962071e-13 4.9666613e-13 0.07039735 0.07039735
000250 00 00 00 00 b9 bb bd 3b e2 8c 83 3d fa a3 83 3d
       0.0 0.0057902006 0.06423356 0.064277604
000260 00 00 00 00 bd 57 1d 3c e8 ed 76 3d ea 52 82 3d
       0.0 0.009603438 0.06028548 0.06363471
000270 00 00 00 00 61 52 2f 3c c3 89 73 3d 3d cf 77 3d
       0.0 0.010700793 0.05945755 0.060500372
000280 00 00 00 00 61 52 2f 3c c3 89 73 3d 3d cf 77 3d
       0.0 0.010700793 0.05945755 0.060500372
000290 41 ea 5c 40 b8 0d 93 3d 37 d6 28 40 0c ea 5c 40
       3.4517977 0.07180351 2.6380746 3.451785
0002a0 29 10 93 3d a6 ca 28 40 07 60 0d 2d 67 72 03 38
       0.07180817 2.6373687 8.036244e-12 3.133938e-05
0002b0 26 57 9c 3e 6e 59 9c 3e 49 46 63 2b 28 55 db 38
       0.3053524 0.3053698 8.074414e-13 0.00010458595
0002c0 29 54 9c 3e 29 54 9c 3e ed de 28 2b bb 96 05 28
       0.3053296 0.3053296 5.999496e-13 7.4156676e-15
0002d0 af 5f 9c 3e af 5f 9c 3e 00 00 00 00 eb 8c 52 3c
       0.3054175 0.3054175 0.0 0.01285098
0002e0 02 66 95 3e 30 6d 95 3e 00 00 00 00 fd 5a c6 3d
       0.29179388 0.29184866 0.0 0.096853234
0002f0 b7 49 54 3e 8b ea 7e 3e 00 00 00 00 c7 02 ca 3d
       0.20731245 0.24894159 0.0 0.09863811
000300 9f 14 53 3e d7 13 5e 3e 00 00 00 00 c7 02 ca 3d
       0.20613335 0.21687256 0.0 0.09863811
000310 9f 14 53 3e d7 13 5e 3e dd a3 6f 41 1a 02 9e 3e
       0.20613335 0.21687256 14.977506 0.30860978
000320 d2 42 35 41 97 a2 6f 41 3d 01 9e 3e a1 3e 35 41
       11.328814 14.977195 0.3086032 11.32779
000330 11 2f 84 2c e8 1c 24 39 55 4b cb 3f 84 4d cb 3f
       3.756891e-12 0.00015651027 1.5882365 1.5883031
000340 cb 42 95 2a 87 b4 80 3a ea 24 cb 3f ee 24 cb 3f
       2.6514064e-13 0.0009819426 1.587064 1.5870645
000350 4b aa 57 2b 01 ee 8f 28 d7 55 cb 3f d7 55 cb 3f
       7.6619673e-13 1.5979407e-14 1.5885571 1.5885571
000360 00 00 00 00 04 cb c4 3c 73 ec c7 3f 67 f1 c7 3f
       0.0 0.024022587 1.5619034 1.5620545
000370 00 00 00 00 32 46 0b 3e a4 40 b9 3f f3 71 c2 3f
       0.0 0.13600996 1.4472852 1.5191025
000380 00 00 00 00 f0 f7 1a 3e 2c b1 b7 3f c4 62 ba 3f
       0.0 0.15133643 1.4350944 1.4561391
000390 00 00 00 00 f0 f7 1a 3e 2c b1 b7 3f c4 62 ba 3f
       0.0 0.15133643 1.4350944 1.4561391
0003a0 52 c7 9b 42 5f 54 cd 3f 67 88 67 42 a2 c7 9b 42
       77.8893 1.6041373 57.883205 77.88991
0003b0 6a 55 cd 3f 9f 7e 67 42 98 ae 74 2a a8 d9 90 37
       1.6041691 57.873653 2.1732128e-13 1.7267492e-05
0003c0 2d 90 2a 3e c7 91 2a 3e 04 1c 1d 2a 37 37 52 39
       0.16656561 0.16657172 1.3954121e-13 0.0002004773
0003d0 f2 53 2a 3e f4 53 2a 3e cb 84 ad 29 6a 84 3f 2c
       0.16633585 0.16633588 7.705779e-14 2.7216237e-12
0003e0 0e 9a 2a 3e 0e 9a 2a 3e 00 00 00 00 6d aa 97 3b
       0.1666033 0.1666033 0.0 0.0046284706
0003f0 1d 59 25 3e 8a 5e 25 3e 00 00 00 00 e3 66 1c 3c
       0.16147275 0.16149345 0.0 0.0095460145

exp_avg f4 [128]
000000 23 d8 8a b9 1a 87 6f bb 4e d3 3b bc 10 d7 12 b9
       -0.00026482446 -0.0036549033 -0.011463953 -0.00014003762
000010 6e 02 99 3b 90 9c 1d bc 86 f7 8a 3c ec cf 16 bc
       0.004669479 -0.009619847 0.016963731 -0.009204846
000020 21 5b 13 bc 8d e9 64 39 01 b5 7e bb 38 6a 0f 3b
       -0.008993895 0.00021830779 -0.003886521 0.002188338
000030 82 55 a8 3b f5 a7 ec ba a4 36 3c 38 8a a2 30 3a
       0.0051371465 -0.0018055426 4.487358e-05 0.00067380874
000040 97 01 24 b9 de 00 44 b9 01 39 9a 38 86 4d ea 3b
       -0.00015640851 -0.0001869234 7.35391e-05 0.007150355
000050 48 a6 44 bc 3d d6 69 3a 87 23 ce 38 32 ca d3 b8
       -0.012002535 0.00089201686 9.829463e-05 -0.00010098926
000060 45 42 80 ba e0 35 25 bc 53 c2 e4 ba 60 2b d3 bb
       -0.0009785375 -0.010083646 -0.0017452933 -0.0064443797
000070 38 fd 90 39 e7 92 97 3a 8f 57 20 3a 05 3f 69 3a
       0.00027654483 0.0011564166 0.0006116563 0.0008897635
000080 73 5e 47 b6 f9 a2 4e bb fe 3e 3f bb 6c 24 8b 3b
       -2.9708287e-06 -0.0031530245 -0.0029181833 0.004246285
000090 be 09 56 b9 12 35 69 39 c6 66 04 bc 0b 07 62 36
       -0.0002041226 0.00022240382 -0.008081144 3.3680724e-06
0000a0 34 ca 1e b9 9c 5e 6f b6 59 ba e8 bb 5c a6 05 b9
       -0.00015143381 -3.5668845e-06 -0.0071022925 -0.00012745842
0000b0 87 c7 3b 3b a8 ac e2 bb 6c ef 8c bb bc 3d 0d ba
       0.0028652863 -0.006917555 -0.0043010022 -0.0005387922
0000c0 64 be 87 3b e7 1b 3e 3b 19 41 44 39 f6 b3 e3 b9
       0.0041425694 0.002900833 0.00018716267 -0.00043430895
0000d0 8f 24 46 3b b5 b5 b0 37 8b 57 dd bb c9 5e 8b ba
       0.0030234193 2.1065449e-05 -0.0067548207 -0.0010633107
0000e0 88 d4 8f 3c 76 c4 60 ba 39 26 cb bb 6b 63 13 b9
       0.017557397 -0.0008574197 -0.006199625 -0.00014056049
0000f0 dd 75 6d bb 48 7a e1 3a 8b 07 23 bb d5 63 9c ba
       -0.0036233582 0.001720258 -0.0024876322 -0.0011931608
000100 10 5b b3 bb f2 e6 65 bb 5a 0a 17 39 2f d7 0b b9
       -0.005473502 -0.003508028 0.00014404338 -0.00013336235
000110 b0 01 8e ba f1 bb dd 3b 6d b1 d5 b9 3a e1 82 bb
       -0.0010834243 0.006766789 -0.00040758718 -0.0039941343
000120 8d c8 45 bb 19 cf 4a 39 3a b6 8e b8 3c 11 a6 b7
       -0.0030179352 0.00019341371 -6.80503e-05 -1.9796767e-05
000130 df e5 8a bb 21 21 47 bc 69 b5 e0 bb 5f fd c0 39
       -0.0042388286 -0.012153895 -0.0068575633 0.0003680987
000140 d7 f3 9d 38 42 e9 da 3b 97 b7 85 38 4a 81 98 39
       7.531762e-05 0.0066806385 6.3761305e-05 0.00029088027
000150 ec 46 e2 ba 31 b5 fc b9 10 0a fd 39 bf db 3d 3a
       -0.0017263568 -0.00048200184 0.00048263418 0.00072425226
000160 7d 01 bb 38 a8 f7 68 ba 3e 0f 1e 3b df 28 c1 38
       8.917132e-05 -0.00088870013 0.0024117972 9.21057e-05
000170 1a 89 22 3a d0 f1 1b 3b 33 c8 ab 39 7e 3c cd b8
       0.00062002393 0.0023795255 0.00032764822 -9.786429e-05
000180 3e 89 c2 bb 9f 17 e1 38 26 80 bb 38 50 6f f2 38
       -0.0059367707 0.00010733236 8.9407244e-05 0.00011560193
000190 c2 87 26 3c 8b e7 ae 3b c4 ee 23 3b c8 57 8d bb
       0.010164203 0.0053376607 0.0025014142 -0.004313443
0001a0 e0 7f 5e bb 91 1f 89 37 b4 d0 c6 b9 a2 43 7b ba
       -0.003395073 1.6346372e-05 -0.00037921 -0.0009584968
0001b0 57 6f e8 3a 68 31 e3 ba 96 ee 75 37 46 c2 db b9
       0.0017733377 -0.001733345 1.4658688e-05 -0.0004191568
0001c0 8e 6f 76 b9 04 be 3e 3b 9b 3b c7 3b 25 e8 77 3a
       -0.00023501946 0.0029104957 0.0060801036 0.00094568945
0001d0 92 18 e0 b9 c5 53 4c ba fd 87 c2 b9 63 45 88 ba
       -0.00042742916 -0.0007794465 -0.00037103883 -0.0010396655
0001e0 fa 7e d2 bb 96 4b 8f 38 3a 46 0e ba ab 64 13 3c
       -0.006423828 6.83285e-05 -0.00054273347 0.008996169
0001f0 cf 79 eb 37 86 8d f5 37 14 ec a9 b9 e1 68 ce bb
       2.8070905e-05 2.9272178e-05 -0.00032410084 -0.0062991236

exp_avg_sq f4 [128]
000000 57 f2 9c 3a b7 4b 57 3d 59 9d a2 3e 51 58 a2 39
       0.0011974078 0.05256244 0.31760672 0.0003096485
000010 7c 2c 90 3d af 5f 9c 3e d7 55 cb 3f 0e 9a 2a 3e
       0.07039735 0.3054175 1.5885571 0.1666033
000020 b1 d1 6c 3e 4d 2d 8b 3b 1c 56 3f 3d ff db 7b 3c
       0.23126866 0.0042473436 0.04671298 0.015372275
000030 06 09 57 3e 26 83 4c 3c 10 a3 a4 39 e6 03 a5 3c
       0.20999536 0.01248244 0.0003140201 0.02014346
000040 c9 95 15 39 32 bf 16 3c ef 17 04 3a d6 f7 b8 3e
       0.00014265547 0.009200858 0.0005038967 0.36126584
000050 d2 2a 7b 3f 38 62 9d 3b 77 fd 92 38 ce 42 f8 37
       0.98112214 0.0048029684 7.009034e-05 2.9595012e-05
000060 be 7e 29 3e 4c 3e 8f 3f e2 11 ad 3f 0b cf f2 3e
       0.16552255 1.1190886 1.3521082 0.47423586
000070 8e 35 2c 3a 53 b1 e0 3b f2 34 f8 3a 1e 94 36 3c
       0.00065692596 0.006857076 0.0018936677 0.011143712
000080 02 18 bc 38 01 e7 c3 3c c6 df 14 3f 6a 61 18 3f
       8.9690104e-05 0.023913862 0.5815395 0.5952364
000090 0f 21 d7 3b 9d 37 41 3b 65 fc db 3e 59 ca 65 3a
       0.00656522 0.002948261 0.42966 0.0008765809
0000a0 36 02 a8 38 d0 9c c5 37 85 f2 00 3e 9c 62 86 3a
       8.011276e-05 2.3557252e-05 0.12592514 0.0010252777
0000b0 16 eb ab 3e ae 58 0f 3e b4 02 40 3e 5d 86 ab 3e
       0.33577794 0.13998672 0.18751031 0.3350095
0000c0 61 80 14 3f 23 cc 7a 3e 2b f5 13 39 82 f4 7b 3b
       0.5800839 0.24491934 0.00014110345 0.0038445299
0000d0 64 ee d9 3c 29 20 ef 38 b0 11 15 3e b5 b6 7e 3d
       0.026602931 0.000114023984 0.14557528 0.06218596
0000e0 89 43 ae 3f 1f 76 48 3e 43 7a 0e 3e f9 de 3a 39
       1.361436 0.1957631 0.13913827 0.00017821406
0000f0 ee 1c c7 3d c8 81 d9 3d 04 a8 cb 3c 06 8a 6b 3f
       0.09722315 0.10620457 0.02486039 0.9200748
000100 0b cf 18 3e d9 1a b6 3c d8 26 b2 3d 3b 46 00 3d
       0.1492273 0.022229599 0.08698815 0.031316977
000110 8f 8c c7 3d 97 c8 58 3f 2a e2 a2 3d e7 6b 78 40
       0.09743606 0.84681076 0.079532936 3.8815858
000120 2c cd de 3d 7c be 8b 3b a9 3f 2a 39 d1 8d 4a 3a
       0.10878977 0.004264651 0.00016236179 0.0007726821
000130 f2 07 11 3e 97 68 1f 3f a2 e0 40 3e 11 e8 a5 3c
       0.14163187 0.62268966 0.1883569 0.02025226
000140 d0 b1 c4 39 57 f8 fc 3e 13 c6 4e 3b 0e 81 e0 39
       0.00037516514 0.49408218 0.0031551167 0.00042820763
000150 7e 3f e5 3c 15 6b 91 3c 63 7b 36 3d eb c9 9a 3f
       0.027984377 0.017751256 0.044551264 1.209287
000160 0f 09 06 3a cb 19 54 3c 5d e1 8e 3c 63 41 d7 38
       0.0005113044 0.012945603 0.017441446 0.00010264178
000170 5e 63 38 3d 5d 34 ff 3e d7 c0 88 3f 8b 2e c2 3f
       0.04501664 0.49844638 1.068385 1.5170454
000180 41 35 d7 3f 60 2a b0 3b 8a 10 83 3d 2f 89 c4 39
       1.6813127 0.0053761452 0.06399639 0.00037486243
000190 cd 4e f0 3e a6 22 2e 3e 0c 63 83 3c b5 0e f2 3c
       0.4693512 0.17005405 0.01603844 0.029548028
0001a0 a5 86 85 3d 5f bf ec 3a 4e c5 a3 3b c1 a7 fc 3c
       0.06519822 0.0018062404 0.004997886 0.03084171
0001b0 f7 89 7e 3c 3c 1e 61 3d 0f 27 88 39 1d 58 0c 3d
       0.015535823 0.054960474 0.00025969042 0.03426372
0001c0 b1 2a ac 3d 68 00 b5 3f f2 85 bf 3e 7a 42 08 3d
       0.0840658 1.4140749 0.3740688 0.033266522
0001d0 1f 69 c7 3c 35 16 06 3c 95 b8 0b 3a bb 54 22 3b
       0.024342118 0.0081840055 0.0005329934 0.0024769742
0001e0 6c 0c 98 3e 48 da 82 37 89 0c 00 3f 72 bb 53 3e
       0.29696977 1.5598853e-05 0.5001913 0.20676973
0001f0 9f 69 73 38 7b d0 c9 37 b1 00 8a 3a 03 ee a0 3d
       5.8034082e-05 2.4058148e-05 0.001052877 0.07857897
