results/test_environment/VacuumCleaner/VacuumCleaner-47230.onnx (onnx, 227638 bytes, 7 tensors)

network_body._body_endoder.seq_layers.0.weight f4 [128, 309]
0	0xbe4a3bfe	-0.19749448
1	0xbc8804d8	-0.016603872
2	0xbd40fdd2	-0.047117062
3	0xbe2e4ca1	-0.17021419
4	0x3d431d21	0.0476352
5	0xbd973b65	-0.073843755
6	0xbe9bc6a4	-0.30424988
7	0xbdb3a078	-0.08770841
8	0x3d49f145	0.04930236
9	0xbcf6565f	-0.030070482
10	0xbc55fd0e	-0.013060821
11	0x3d1ba3b3	0.037997913
12	0x3d51ad91	0.051190916
13	0xbdb6011f	-0.088869326
14	0xbd92f722	-0.07176043
15	0xbd3de310	-0.04635912
16	0xbcac299e	-0.021015938
17	0xbce9fee0	-0.028563917
18	0x3db0afc1	0.086272724
19	0xbca45083	-0.020057922
20	0x3db730f7	0.08944886
21	0xbe009df9	-0.12560262
22	0x3cbce7ee	0.023059811
23	0x3dea6c26	0.11446409
24	0x3dbd39e8	0.0923956
25	0xbdff7f95	-0.12475506
26	0xbe3c4a63	-0.18387751
27	0xbe0e4b6a	-0.13895956
28	0x3db37736	0.08762972
29	0x3dd3676c	0.103224605
30	0x3d1384c3	0.036015283
31	0x3c9f3b12	0.019437347
32	0xbb45c38f	-0.0030176376
33	0xbe51ddf4	-0.20494825
34	0xbcd0f487	-0.025507225
35	0x3d942d41	0.07235194
36	0x3d7fb6c9	0.062430177
37	0xbb85a680	-0.0040786862
38	0x3bcd39d6	0.006262998
39	0x3d656fb3	0.056014728
40	0xbc440548	-0.01196415
41	0xbb8a6b22	-0.004224197
42	0x3df3e4bd	0.11908863
43	0xbd8db118	-0.069185436
44	0x3d9c11b7	0.07620566
45	0x3e2ef2b0	0.17084765
46	0xbc9295ac	-0.017893635
47	0xbd432867	-0.047645953
48	0xbdc57359	-0.096411414
49	0x3d62acd5	0.055340607
50	0x3ce2382b	0.027614674
51	0x3e38e6e7	0.18056832
52	0x3c2d63eb	0.010582904
53	0xbd92a96a	-0.071612194
54	0xbb80c032	-0.0039291615
55	0xbd09ebb7	-0.03367206
56	0x3c490346	0.012268847
57	0x3e4beac4	0.19913775
58	0xbd03d2c3	-0.03218342
59	0xbdc71936	-0.097216055
60	0x3d782f80	0.060592175
61	0xbdad3e93	-0.08459201
62	0x3cf7c467	0.03024502
63	0xbda941bb	-0.0826449
64	0xbcb11760	-0.021617591
65	0x3d3d9982	0.046288975
66	0xbec72758	-0.38897204
67	0x3d1b72be	0.037951224
68	0x3d6b010a	0.057374038
69	0x3d3469fb	0.044046383
70	0xbcd6a950	-0.026203781
71	0x3cd33af7	0.025784953
72	0xbd883346	-0.06650405
73	0x3d0b8f58	0.03407225
74	0x3d85b765	0.0652912
75	0x3e49c559	0.19704188
76	0x3dcc542c	0.09976992
77	0x3d71f01c	0.059066877
78	0xbdaa4f14	-0.08315864
79	0xbd19becf	-0.037535485
80	0xbdb9fd64	-0.090815336
81	0xbe5c4af2	-0.21512964
82	0xbc172eb9	-0.009227448
83	0x3d8a7c03	0.067619346
84	0xbe7e7d86	-0.24852571
85	0xbcb3ddf7	-0.021956427
86	0x3d929a59	0.07158346
87	0x3db7c74d	0.089735605
88	0xbbe5e025	-0.0070152455
89	0x3e20f205	0.15717323
90	0xbe19e2a3	-0.15027861
91	0x3dd25d6b	0.10271724
92	0x3c65bf25	0.014022623
93	0xbe57d47a	-0.21077147
94	0xbd555bd3	-0.052089524
95	0x3c26671b	0.010156418
96	0x3dc5ec85	0.09664253
97	0x3cfb6acf	0.030690579
98	0x3d64ae33	0.05583019
99	0xbe2f065b	-0.17092268
100	0x3b566f01	0.0032719972
101	0x3c28dbe8	0.010306336
102	0x3c95b97a	0.018276919
103	0x398896ca	0.00026052288
104	0xbcc784e8	-0.024355367
105	0xbe62adb4	-0.22136575
106	0x3b3a1b63	0.0028397671
107	0x3cbde622	0.023181025
108	0xbdfcf7be	-0.123519406
109	0x3db543ce	0.08850823
110	0x3ce450e9	0.027870612
111	0xbe40683a	-0.1878976
112	0x3c8ac9f0	0.016941994
113	0x3ccd3957	0.025051756
114	0xbeaacfb0	-0.33361578
115	0xbd0309c8	-0.03199175
116	0xbc68f535	-0.014218618
117	0xbd7eb230	-0.06218165
118	0xbd5786c4	-0.052618757
119	0xbd7f9cc0	-0.062405348
120	0xbe1914b1	-0.149493
121	0xbca4c42d	-0.020113075
122	0x3ca059c5	0.019574055
123	0xbe3a68d2	-0.18204048
124	0x3dd855c6	0.10563235
125	0x3d043bb5	0.032283504
126	0xbe4b9a8f	-0.19883178
127	0x3d8e592e	0.069506034
128	0x3c00f0ee	0.007869942
129	0xbcc661d8	-0.024216577
130	0x3d785bd0	0.060634434
131	0x3d1f2060	0.038849235
132	0x3d3f57dd	0.046714652
133	0xbb2bba8f	-0.0026203727
134	0xbcfc56d0	-0.030803114
135	0x3b9c015c	0.0047609042
136	0x3deadb9b	0.11467668
137	0x3c7fd8fe	0.0156157
138	0xbe6b09ab	-0.22952907
139	0x3c8aee36	0.016959291
140	0x3c9a72dd	0.0188536
141	0xbe0cda8f	-0.13755248
142	0x3da1bbb1	0.078971274
143	0xbdb4a52c	-0.088205665
144	0xbd70385c	-0.0586475
145	0x3c430513	0.011903065
146	0x3d8833cd	0.06650505
147	0xbe1ab74f	-0.15108989
148	0x3dcb0b3a	0.09914251
149	0x3dcca988	0.09993273
150	0xbda2e1fe	-0.07953261
151	0xbc3035be	-0.010755001
152	0x3d876471	0.066109546
153	0x3d162b0b	0.036662143
154	0x3d097c42	0.033565767
155	0x3d50d1ef	0.05098146
156	0xbe00df3d	-0.12585159
157	0x3d9f4128	0.077760994
158	0xbbee8701	-0.0072792773
159	0xbdf59f6b	-0.11993297
160	0xbcc1c8f0	-0.023655385
161	0x3cdd94e9	0.027048545
162	0xbdd3830d	-0.1032773
163	0xbd48143b	-0.04884742
164	0x3e0eb313	0.13935499
165	0xbd44aa86	-0.048014186
166	0xbd6e5e79	-0.058195565
167	0xbcd59067	-0.026069833
168	0xbe35545e	-0.17707965
169	0x3d2487b1	0.040168468
170	0x3c346f84	0.0110129155
171	0x3d18c28f	0.03729492
172	0x3d2c01a7	0.041993763
173	0xbd3b3f4e	-0.04571467
174	0xbe3fe91d	-0.1874127
175	0x3de4b8e5	0.11168078
176	0xba107e66	-0.0005511999
177	0xbc0af934	-0.008482266
178	0xbcd655c4	-0.026163943
179	0xbbbfb073	-0.005849892
180	0xbdf45733	-0.119306944
181	0x3d08e7f3	0.03342433
182	0x3cd377dd	0.025813991
183	0xbe77673e	-0.24160478
184	0xbcc5e2f1	-0.024156066
185	0x3d2bda33	0.041956138
186	0xbec505c7	-0.3848097
187	0x3dd36c66	0.1032341
188	0x3e17e089	0.14831747
189	0xbc41e4e7	-0.01183436
190	0x3d7e2ac3	0.0620525
191	0xbd88bb8a	-0.06676395
192	0xbe153226	-0.14569911
193	0x3cc978e9	0.024593787
194	0xbc72beb5	-0.014815976
195	0x3dd895e8	0.10575467
196	0xbd9fa902	-0.077959076
197	0xbd0bfc08	-0.034175903
198	0x3dcd43d3	0.10022702
199	0x3da203c0	0.079108715
200	0x3c004b92	0.007830517
201	0xbdc1549c	-0.09439966
202	0x3ca805b5	0.020510534
203	0xbdbf92f0	-0.09354198
204	0x3e2932e9	0.16523327
205	0xbd4e440e	-0.05035787
206	0x3b40709d	0.0029363998
207	0xbdfeb87a	-0.1243753
208	0x3daa8dc1	0.08327819
209	0xbc83c8ef	-0.016087024
210	0xbe06786b	-0.13131873
211	0x3c9ef12a	0.019402105
212	0x3cd608b6	0.0261272
213	0xbe92c7be	-0.28668016
214	0x3d642863	0.05570258
215	0x3c39cc03	0.011340144
216	0xbe62c421	-0.2214513
217	0x3e495db4	0.19664651
218	0xbd1c131d	-0.038104165
219	0xbdde50d0	-0.108552575
220	0x3c6850ba	0.014179403
221	0x3d1ee1b4	0.038789466
222	0xbee5331d	-0.4476556
223	0x3dcd0919	0.10011501
224	0x3cad0e6e	0.021125045
225	0xbd9334a8	-0.07187778
226	0xbceb6bd3	-0.028737938
227	0xbcea18ec	-0.028576337
228	0x3c701398	0.014653109
229	0x3cd3b145	0.025841365
230	0x3d99e40e	0.07514201
231	0xbc8f79d4	-0.017514147
232	0x3ac38369	0.0014916483
233	0xbd6d380b	-0.057914775
234	0x3e048131	0.12939908
235	0xbe101ac2	-0.14072707
236	0xbd959463	-0.07303693
237	0xbe0eef68	-0.13958514
238	0x3ddab2ea	0.106786564
239	0x3d70ecf5	0.05881973
240	0x3d5ab367	0.053393748
241	0xbd5d0918	-0.05396375
242	0x3cca437b	0.02469038
243	0xbd20a315	-0.039218027
244	0xbdf26a5a	-0.11836691
245	0x3ce8b5f3	0.028407073
246	0x3e569fb7	0.20959364
247	0xbde31cd2	-0.110894814
248	0x3d7de3b6	0.06198474
249	0xbd2e9c6d	-0.042629648
250	0xbd8f4c06	-0.06996922
251	0xbcb12d38	-0.021628007
252	0x3e0d5311	0.13801219
253	0xbdb8fd0e	-0.09032641
254	0xbdee4a32	-0.116352454
255	0xbe36b0a7	-0.17840825

network_body._body_endoder.seq_layers.0.bias f4 [128]
0	0xbbae9142	-0.0053273747
1	0x3c005ddf	0.007834881
2	0xbc4253d8	-0.01186081
3	0x3a848a1e	0.0010111963
4	0xbd27940f	-0.040912684
5	0x3b65be8d	0.0035056204
6	0xbb8cc327	-0.004295725
7	0xbd6d66bc	-0.057959303
8	0xbc837b44	-0.016049989
9	0x3b9347fe	0.004494666
10	0xbbd2853c	-0.006424574
11	0xbb1dd9f1	-0.0024086202
12	0x3b7491a0	0.0037318245
13	0x3c66270a	0.014047394
14	0xbbb5dbed	-0.005549899
15	0xbbf39f4e	-0.007434762
16	0xbd3e6645	-0.04648425
17	0xbd7584f7	-0.05994126
18	0x3b32a1bc	0.0027257046
19	0xbbd71be6	-0.006564605
20	0xbc092c49	-0.008372375
21	0xbc2b6b65	-0.010462617
22	0xbc5d8202	-0.013519766
23	0x3bc55ca9	0.006023009
24	0xbba4c0c7	-0.0050278637
25	0x39a9a9a7	0.00032360593
26	0xb9e8892f	-0.00044352698
27	0xbc28c91c	-0.010301854
28	0x3c4e4939	0.0125907
29	0xbca83eda	-0.020537782
30	0x3ba92b98	0.0051626675
31	0xbadd873f	-0.0016901268
32	0x3bb872f0	0.005628936
33	0xbbf0d964	-0.0073501337
34	0x3aa28fc8	0.0012402469
35	0xbc79afce	-0.015239669
36	0x3c236058	0.009971701
37	0xbc6e01ad	-0.014526767
38	0x3bb3675b	0.0054749674
39	0xbbf01b83	-0.0073274984
40	0xbb9c5929	-0.004771371
41	0xbc519cb6	-0.01279371
42	0xba7d4e10	-0.00096628163
43	0x3c5dd20d	0.01353885
44	0xbac50340	-0.0015030876
45	0x3b6dc619	0.0036281405
46	0xbb5e2265	-0.0033895012
47	0xbbde3adf	-0.0067819203
48	0x3bd54a5a	0.0065091075
49	0x3c7b713b	0.0153468205
50	0x3af00b88	0.0018313983
51	0xbb5525ad	-0.0032523677
52	0xbc142967	-0.009043074
53	0x3b2b4c68	0.002613807
54	0xbc0bdbf7	-0.00853633
55	0x3c6d7fe0	0.01449582
56	0x3c10572b	0.008809845
57	0x3b13a28a	0.00225273
58	0xbc414b1a	-0.011797691
59	0xbbc3b1f5	-0.005972142
60	0xb9c143e3	-0.00036862408
61	0xbc89f82e	-0.016841974
62	0x3b9f4426	0.004860419
63	0x3c736819	0.014856362
64	0x3b5a8d95	0.003334855
65	0x3c29c196	0.010361096
66	0xbaee4aa0	-0.0018180199
67	0xbafe657f	-0.001940891
68	0xbc034430	-0.008011863
69	0xbbc1c270	-0.0059130713
70	0x3c1988c9	0.009370991
71	0xbb060a1e	-0.0020452808
72	0xbab561d4	-0.0013838359
73	0x3ba8c04f	0.005149878
74	0x3bc1286c	0.0058947112
75	0x3ba1dcb8	0.004939642
76	0xbcac4c63	-0.021032518
77	0x3b3696db	0.0027860913
78	0x3a88207d	0.0010385659
79	0xba36cf42	-0.0006973633
80	0x3b4e0717	0.0031437331
81	0xbb336939	-0.002737595
82	0xbc9f192d	-0.019421184
83	0x3c10a673	0.008828747
84	0x3a901124	0.0010991436
85	0xbac4d192	-0.001501607
86	0x3aa228c6	0.001237177
87	0x3a1b76ca	0.0005930482
88	0x3c87f141	0.016594531
89	0xbb93827d	-0.0045016394
90	0x3b9f52fd	0.004862188
91	0x3b8eb0f6	0.0043545915
92	0x3bf3bbea	0.0074381726
93	0x3bb59983	0.0055419817
94	0xbb837646	-0.004011902
95	0xbc322c51	-0.010874824
96	0x3b03323d	0.0020018958
97	0x3c3399d5	0.010961969
98	0xbbc4084c	-0.0059824344
99	0x3c24d4d2	0.010060506
100	0xbbbbae6e	-0.0057275807
101	0x3ac170bb	0.0014758328
102	0x3b9dbb81	0.004813612
103	0x3b4c2acc	0.0031153439
104	0x3b00c393	0.0019647821
105	0x3b463ebd	0.0030249797
106	0x3bbda420	0.0057873875
107	0x3bdfdfd2	0.0068321014
108	0xbb3db001	-0.0028944018
109	0x3c790a87	0.015200264
110	0xbd4b0f7e	-0.04957532
111	0xbc5c345e	-0.01344022
112	0x3b556dd0	0.0032566674
113	0x3a07c608	0.000517935
114	0xbbfd1b5b	-0.0077242083
115	0x3a3d0710	0.000721083
116	0xbb02209c	-0.0019855862
117	0xbc2379d7	-0.009977779
118	0x3aa5b86b	0.0012643462
119	0xbbdda3d0	-0.0067639127
120	0x3b769a0d	0.0037628443
121	0xbc236642	-0.009973111
122	0xbc283cb7	-0.010268382
123	0xbbb318b7	-0.0054655927
124	0xba98f7b4	-0.0011670501
125	0x3bf031bc	0.0073301475
126	0x3b6d12de	0.0036174576
127	0x3b5044fc	0.00317794

network_body._body_endoder.seq_layers.2.weight f4 [128, 128]
0	0xbcaa3674	-0.020777918
1	0xbcac6536	-0.021044355
2	0x3d3baf60	0.045821548
3	0x3e541483	0.2071095
4	0x3d92b900	0.07164192
5	0x3d5cd150	0.053910553
6	0xbe61bca7	-0.22044621
7	0x3d9daa19	0.07698459
8	0xbe389d19	-0.18028678
9	0xbd1005f2	-0.03516192
10	0x3de1c81e	0.110244974
11	0x3e199547	0.14998351
12	0xbdce5373	-0.100745104
13	0xbd790b84	-0.060801998
14	0x3d13438e	0.035953097
15	0xbe596e10	-0.21233392
16	0x3df8a5e7	0.12141018
17	0xbc35fb67	-0.011107302
18	0xbdd368fb	-0.10322758
19	0x3ca2cd73	0.019873356
20	0x3b479aa8	0.0030457173
21	0xbd16e774	-0.036841825
22	0x3e345e86	0.17614183
23	0xbdc4e2d9	-0.0961358
24	0x3e86e215	0.26344362
25	0x3e293c07	0.16526805
26	0xbe28a8c0	-0.16470623
27	0xbdd8f232	-0.1059307
28	0x3d853d5b	0.06505843
29	0x3d872b6a	0.066000775
30	0xbb85e039	-0.0040855673
31	0x3e8a8b50	0.27059412
32	0x3dd558cd	0.10417328
33	0xbc304a9c	-0.010759976
34	0xbe382480	-0.17982674
35	0x3e3723ea	0.17884794
36	0xbda31be1	-0.07964302
37	0x3ca23b33	0.019803619
38	0x3e26fdbd	0.16307731
39	0xbd281f9d	-0.041045774
40	0x3df4c1d4	0.11951032
41	0xbe276fc6	-0.16351232
42	0x3d81dd6a	0.063410595
43	0xbe0a0505	-0.13478477
44	0x3e0976c1	0.13424207
45	0x3daf7129	0.085665055
46	0xbdfa59a2	-0.12224127
47	0x3d84715e	0.064669356
48	0xbd37c3af	-0.044864353
49	0xbe2d6222	-0.16931966
50	0xbc142d3a	-0.009043986
51	0xbe222739	-0.15835275
52	0xbe576aee	-0.21036884
53	0x3eb2794c	0.34858167
54	0x3e14a3fe	0.14515683
55	0x3d060f79	0.0327296
56	0x3db4aea4	0.088223726
57	0xb690dd08	-4.317266e-06
58	0xbc9504f7	-0.018190844
59	0x3c525b13	0.012839097
60	0xbde01a35	-0.109424986
61	0xbd473b7a	-0.048640706
62	0x3df40122	0.119142786
63	0x3cc2c32d	0.023774708
64	0x3e41e957	0.18936668
65	0x3cb978e7	0.022640659
66	0x3d870513	0.06592765
67	0x3d8f4442	0.06995441
68	0xbe022a26	-0.12711391
69	0xbd6b3f92	-0.057433672
70	0xbd6da7cd	-0.058021355
71	0x3d32e607	0.043676402
72	0xbe39ebbe	-0.18156335
73	0x3cb7412e	0.022369947
74	0xba06b61e	-0.0005138832
75	0xbd9d5c5c	-0.07683632
76	0xbc8d8a39	-0.017277824
77	0xbcf5bcbf	-0.029997228
78	0x3e651a58	0.2237333
79	0xbdd36ddc	-0.103236884
80	0x3e8616d6	0.26189297
81	0xbded8251	-0.115971215
82	0x3da3c8b9	0.07997269
83	0xbe085bb5	-0.13316233
84	0xbddcb843	-0.10777333
85	0x3d5fbbe6	0.054622553
86	0x3ca5c374	0.0202348
87	0x3dfdea1f	0.12398171
88	0xbdff7628	-0.124737084
89	0xbd3ef1a2	-0.046617158
90	0x3c455e43	0.0120463995
91	0x3d7021fb	0.058626156
92	0xbd7bd0a9	-0.06147829
93	0x3dcb3e5c	0.099240035
94	0xbc6c8138	-0.014435105
95	0xbe33f3cc	-0.1757347
96	0xbe957296	-0.29188985
97	0xbea4d451	-0.32193235
98	0xbe3e8fc4	-0.1860953
99	0xbddfbbfa	-0.109245256
100	0xbdb9eff4	-0.090789706
101	0xbd23e87b	-0.040016633
102	0xbe131bbe	-0.14366052
103	0x3c386ca0	0.011256367
104	0x3e2ef9ab	0.17087428
105	0x3d768082	0.06018115
106	0x3e399241	0.18122198
107	0x3e0d1b4e	0.13779947
108	0xbba1742c	-0.004927179
109	0xbc9275c2	-0.017878417
110	0x3baac4fa	0.0052114697
111	0x3e88c5f2	0.2671352
112	0xbe4e9406	-0.20173654
113	0x3d9f1677	0.07767957
114	0xbb6d2138	-0.003618313
115	0x3bc0243d	0.005863695
116	0xbcd8a0ed	-0.026443923
117	0xbde3906b	-0.1111153
118	0x3dc8b322	0.09799792
119	0xbc953ff3	-0.01821897
120	0xbe9f23df	-0.31082055
121	0xbc204914	-0.009783048
122	0xbe132cf0	-0.14372611
123	0xbd8343e5	-0.06409434
124	0x3c3052d8	0.010761939
125	0xbd288a8e	-0.04114776
126	0xbe046ebe	-0.1293287
127	0xbcc23bed	-0.023710215
128	0xbdaa5e33	-0.08318748
129	0x3dcb24db	0.09919139
130	0xbe20904c	-0.15680045
131	0xbc93e956	-0.0180556
132	0x3bedf34a	0.0072616683
133	0x3e76b0c9	0.24090876
134	0xbda4d81f	-0.08049034
135	0x3e0bc3f6	0.13648972
136	0xbc71f0d1	-0.014766888
137	0xbe38b8e1	-0.18039276
138	0xbe40ceaa	-0.18828836
139	0xbbf75af0	-0.0075486824
140	0xbdeb3586	-0.11484818
141	0xbe532aa8	-0.20621741
142	0xbcde9204	-0.027169235
143	0xbd7eed10	-0.0622378
144	0xbdf9bce7	-0.121942334
145	0x3d9e2110	0.0772115
146	0xbc084dc9	-0.008319327
147	0x3e2bd3be	0.16779992
148	0x3ed0a5bf	0.40751454
149	0xbc64338c	-0.013928305
150	0xbe14a709	-0.14516844
151	0xbdebdadd	-0.11516354
152	0x3dfdca31	0.123920806
153	0x3de7a431	0.11310614
154	0xbd8627b6	-0.06550543
155	0xbe0fd45a	-0.1404585
156	0x3d745bbe	0.059657805
157	0x3e2bd9a6	0.16782245
158	0x3cb16de1	0.02165884
159	0xbe0d4e7a	-0.13799468
160	0xbc6e01a8	-0.014526762
161	0xbcb47039	-0.022026168
162	0xbdb759ff	-0.08952712
163	0xbe8d08f6	-0.275459
164	0xbe5047aa	-0.20339838
165	0x3df68891	0.12037767
166	0xbdaa7295	-0.08322636
167	0x3e190e41	0.14946844
168	0xbdfb8ef5	-0.12283126
169	0x3dfabd1f	0.12243103
170	0x3e57831f	0.21046112
171	0x3d3a72dd	0.0455197
172	0xbd9a3e0b	-0.07531365
173	0xbe2d3206	-0.16913614
174	0xbe0b7a41	-0.13620855
175	0xbda507af	-0.08058106
176	0x3e35c3bf	0.17750452
177	0xbd312acb	-0.0432537
178	0xbe8f8243	-0.2802907
179	0x3dec62c0	0.115422726
180	0x3def337c	0.11679742
181	0xbd70401c	-0.05865489
182	0xbaac7c34	-0.0013159574
183	0xbdc621d5	-0.09674422
184	0x3b9bd96f	0.0047561447
185	0xbc49c5a0	-0.012315184
186	0xbdb97018	-0.09054583
187	0x3c0be9d5	0.008539637
188	0xbdfcd113	-0.12344565
189	0xbdba73fe	-0.09104155
190	0xbdd411d8	-0.10354966
191	0xbe20f138	-0.15717018
192	0x3da04c84	0.07827094
193	0x3e03633c	0.12830824
194	0xbd05597e	-0.03255605
195	0x3e063cfa	0.13109198
196	0xbe151469	-0.14558567
197	0x3cc892a4	0.024483986
198	0xbe1abb22	-0.15110448
199	0xbe3e9438	-0.18611228
200	0xbdaddd59	-0.08489484
201	0xbc784d94	-0.015155215
202	0x3e5445dc	0.20729774
203	0x3e85b935	0.26117864
204	0xbd2c5c67	-0.04208031
205	0xbb0cceba	-0.0021485523
206	0x3d8497ad	0.06474242
207	0xbe286a8f	-0.16446899
208	0xbdf13b33	-0.117788695
209	0xbd03b45e	-0.032154433
210	0xbdf4b988	-0.1194945
211	0x3df04029	0.117309876
212	0xbe965386	-0.29360598
213	0xbd66d90f	-0.056359347
214	0x3c3abbee	0.011397345
215	0xbbc79896	-0.0060911877
216	0x3de49b7e	0.1116247
217	0x3e6a65c3	0.22890382
218	0x3c12b83a	0.008955056
219	0xbe2bb4ff	-0.16768263
220	0xbc213c80	-0.0098410845
221	0xbda00a7e	-0.07814501
222	0x3df1df78	0.118102014
223	0xbd90df63	-0.07073858
224	0x3e26402f	0.16235422
225	0x3e4fd71c	0.20296901
226	0x3d92ff0d	0.07177553
227	0xbe1d77c5	-0.1537772
228	0x3e27d72e	0.16390678
229	0x3cb5643a	0.022142518
230	0xbc8018c4	-0.01563681
231	0xbd9a845f	-0.07544779
232	0xbe00d405	-0.12580879
233	0x3eb42987	0.35187933
234	0x3c5e0b33	0.013552475
235	0x3d39593e	0.045251124
236	0xbd101ad1	-0.035181824
237	0x3b7472c8	0.003729986
238	0x3d9c5520	0.07633424
239	0xbd386bfb	-0.045024853
240	0x3c670c83	0.014102104
241	0x3d756aab	0.05991618
242	0x3d959b1f	0.073049776
243	0xbe320ba4	-0.17387253
244	0x3c32246b	0.0108729405
245	0xbee243e2	-0.44192415
246	0x3d430517	0.047612276
247	0xbdba90c6	-0.091096446
248	0x3db5b787	0.08872896
249	0xbd353835	-0.044243056
250	0xbda19913	-0.07890525
251	0x3e1d5d8b	0.15367715
252	0xbdf7446b	-0.120735966
253	0xbe3a8306	-0.18214044
254	0xbe57a2a7	-0.2105814
255	0xbb9ab531	-0.0047213067

network_body._body_endoder.seq_layers.2.bias f4 [128]
0	0xbcf09b7d	-0.029371018
1	0xbcc35caa	-0.023847897
2	0x3ceaba46	0.028653275
3	0xbd2b5524	-0.041829243
4	0xbd733eae	-0.059385948
5	0xbc8d8052	-0.017273102
6	0xbc49e5b5	-0.012322833
7	0xbd182c28	-0.037151486
8	0x3c2618eb	0.010137777
9	0xbd0f04ae	-0.034916572
10	0x3c2fe222	0.010735067
11	0xbdd53300	-0.10410118
12	0xbce52652	-0.027972374
13	0xbd104fd6	-0.035232387
14	0xbd672115	-0.056428034
15	0x3d896d40	0.06710291
16	0x3d0c4d4a	0.034253396
17	0x3b7570f0	0.003745135
18	0x3d241638	0.040060252
19	0xbac7d1a6	-0.0015244975
20	0xbd0383fe	-0.0321083
21	0x3d18d33a	0.037310816
22	0x3b2195cd	0.0024655939
23	0xbc875d01	-0.01652384
24	0xbd8ebdc6	-0.0696979
25	0x3d882c31	0.06649054
26	0xbca1938d	-0.019723678
27	0xbd0ed45f	-0.0348705
28	0xbd06ea15	-0.03293808
29	0xbc3a5a7d	-0.011374113
30	0xbd811973	-0.06303682
31	0x3c57dc6c	0.013175111
32	0xbc02cef3	-0.007983911
33	0xbd2a8afe	-0.04163646
34	0x3caa3cba	0.02078091
35	0xbcae58b5	-0.021282533
36	0x3cca0d73	0.024664616
37	0xbc1affc7	-0.009460396
38	0xbb6063fc	-0.0034239283
39	0xbd4ddef2	-0.050261445
40	0xbc41ff8c	-0.011840712
41	0xbc463436	-0.012097409
42	0xbd2096ca	-0.039206304
43	0xbd2bfd7a	-0.04198978
44	0x3aadf9d5	0.0013273308
45	0xbc0cdbe8	-0.008597352
46	0xbe056fdb	-0.1303095
47	0xbb517b1f	-0.0031964255
48	0xbc89d5b2	-0.01682553
49	0x3c76c16c	0.015060764
50	0x3b5756aa	0.0032858052
51	0xbabfb2fc	-0.0014625485
52	0xbca3d822	-0.020000521
53	0xbd428e78	-0.04749915
54	0xbc9c65d3	-0.019091522
55	0xbcc69ba8	-0.024244145
56	0xbd2b7c6d	-0.04186671
57	0x3cd0da90	0.025494844
58	0xbd8fe3ac	-0.07025847
59	0xbcbfb7f6	-0.02340315
60	0xbc8e9504	-0.01740504
61	0xbd1c31ee	-0.038133554
62	0x3bee8b65	0.0072798007
63	0x3b9d0576	0.0047919108
64	0x3c8a589a	0.016887952
65	0x3ca9c2bf	0.020722745
66	0x3d73ac93	0.05949075
67	0x3b56c398	0.0032770392
68	0xbd21dba9	-0.039516125
69	0xbcd8f6d9	-0.026484894
70	0xbd6b822f	-0.0574972
71	0x3cbb3449	0.02285208
72	0xbbbc5900	-0.0057479143
73	0x3c2cb7e3	0.010541889
74	0x3b1472e0	0.0022651479
75	0xbd99a5a1	-0.07502294
76	0xbd324637	-0.043523993
77	0xbd6d2a20	-0.0579015
78	0x3b7cca76	0.0038572825
79	0x3b6b1806	0.0035872473
80	0xbbc6ddae	-0.0060689067
81	0xbc31283f	-0.010812818
82	0x3ca69021	0.020332398
83	0xbcfaaacb	-0.030599019
84	0xbc9c33ff	-0.019067762
85	0xbcda7fdb	-0.026672294
86	0xbc3ed897	-0.011648319
87	0x3cdfeefb	0.027335634
88	0xbb85105b	-0.0040607876
89	0xbd4e81b7	-0.050416674
90	0xbd0cde78	-0.03439185
91	0xbc03b574	-0.008038867
92	0xbd0bcc48	-0.034130365
93	0xbbbf264f	-0.005833424
94	0xbc4206e3	-0.011842462
95	0xbbe68e30	-0.007035993
96	0x3cc0c9b7	0.023533685
97	0x3c652fe9	0.013988473
98	0xbc478609	-0.012177953
99	0x3b6b5dae	0.0035913992
100	0x3c7ea461	0.015542121
101	0xbdb952e1	-0.09049011
102	0xbd8f85d1	-0.07007945
103	0xbd560700	-0.05225277
104	0xbda67e3e	-0.081295475
105	0xbd48bc6c	-0.049007818
106	0xbd33a406	-0.043857597
107	0xbd2aa52f	-0.041661438
108	0x3b2038c0	0.0024447888
109	0xbd6831db	-0.05668817
110	0xbc0749ca	-0.008257339
111	0x3cd06238	0.02543746
112	0xbb8d3738	-0.004309561
113	0x3cb90e7c	0.022589915
114	0xbd699024	-0.05702223
115	0xbd800269	-0.0625046
116	0xb80afbee	-3.313639e-05
117	0xbb573be1	-0.0032842087
118	0xbd129fe1	-0.035797004
119	0x3d3ae706	0.045630477
120	0xbd67f5fc	-0.056631073
121	0xbd83ef61	-0.06442142
122	0xbc89d159	-0.016823458
123	0xbda5fa2e	-0.081043586
124	0x3cdd13af	0.026986925
125	0xbd824934	-0.06361619
126	0xbdb988c1	-0.09059287
127	0xbd2461e0	-0.040132403

action_model._continuous_distribution.log_sigma f4 [1, 2]
0	0xc0a3a220	-5.1135406
1	0xc0a359ea	-5.104726

action_model._continuous_distribution.mu.weight f4 [2, 128]
0	0x3cde9d6a	0.02717467
1	0x3e005087	0.12530719
2	0x3c0f44c7	0.008744425
3	0x3def98a2	0.11699034
4	0x3d22a95f	0.039712306
5	0x3ddad5fa	0.10685344
6	0x3dd55660	0.10416865
7	0xbd1ae67f	-0.037817474
8	0xbc8f038c	-0.017457746
9	0x3d655a54	0.055994347
10	0xbd132b60	-0.035930037
11	0x3c923961	0.017849626
12	0x3d4125e8	0.04715529
13	0x3e096f87	0.1342145
14	0x3d9797f9	0.07402033
15	0x3e67ddab	0.22643153
16	0x3d95e043	0.07318165
17	0x3d1f20eb	0.038849752
18	0xbcc13572	-0.023585055
19	0xbc8e53dd	-0.017373974
20	0xbd1b88a7	-0.03797212
21	0x3e23299c	0.15933841
22	0x3b974306	0.004616144
23	0xbd75fcdd	-0.060055602
24	0xbab05e07	-0.0013455757
25	0x3e12ab33	0.1432312
26	0x3a8af7f5	0.0010602461
27	0xbbd4449e	-0.0064779064
28	0x3d58b5b9	0.05290768
29	0xbd98c982	-0.074603096
30	0xbd738da3	-0.059461247
31	0x3dbc7854	0.09202638
32	0x3d7089ac	0.058725044
33	0x3adc63fc	0.0016814466
34	0x3e037553	0.12837724
35	0x3cb59a3b	0.02216827
36	0xbdc0664b	-0.09394511
37	0xbd6b84e6	-0.05749979
38	0xbdadcd20	-0.0848639
39	0xbd8d5d3c	-0.06902549
40	0x3d9bb344	0.076025516
41	0xbdf3b9c0	-0.119006634
42	0xbca071ef	-0.019585578
43	0x3df229d7	0.118243866
44	0xbd45fb46	-0.048335336
45	0xba2de7ad	-0.00066339487
46	0xbb046772	-0.002020326
47	0x3de6252e	0.1123756
48	0x3d26997a	0.04067371
49	0xbdf5ed02	-0.12008096
50	0x3d12b753	0.035819363
51	0x3c8d2b22	0.017232481
52	0x3dbfcb04	0.09364894
53	0x3d22ed99	0.039777372
54	0x3e195b24	0.14976174
55	0xbda31f94	-0.079650074
56	0x3d2ed507	0.042683627
57	0x3df32d19	0.11873836
58	0xbb4a3154	-0.0030852156
59	0xbd8b7d5b	-0.06811019
60	0xbd3a4283	-0.045473587
61	0x3d041545	0.032246847
62	0x3e3daf04	0.18523794
63	0xbe175303	-0.1477776
64	0x3b6a5a4f	0.0035759395
65	0xbe37781f	-0.17916916
66	0xbe7a2170	-0.24426818
67	0x3e0eb85a	0.13937512
68	0xbe333e65	-0.1750427
69	0x3dc26ef4	0.09493819
70	0xbe1ef26c	-0.15522164
71	0x3d86290a	0.06550796
72	0x3d39517a	0.045243718
73	0xbcde5b04	-0.027143009
74	0x3dec8e8f	0.115506284
75	0xbbdaf368	-0.0066818483
76	0x3d7cb487	0.0616956
77	0xbddeaed7	-0.10873192
78	0x3e6f4c16	0.23368868
79	0xbd163700	-0.036673546
80	0x3d1accf7	0.037793126
81	0xbb682a67	-0.0035425664
82	0xbd1fe87e	-0.03904008
83	0x3c8eaff3	0.017417884
84	0xbd05169c	-0.032492265
85	0xbda145a6	-0.078746125
86	0x3d2d93d5	0.04237731
87	0xbe1b6bc3	-0.15177827
88	0xbd97b005	-0.0740662
89	0xbd840b03	-0.06447413
90	0x3dfbd2ca	0.12296064
91	0x3e1789c7	0.14798652
92	0xbc61b3bd	-0.013775763
93	0x3bc114b2	0.0058923597
94	0xb930bca8	-0.00016854948
95	0xbd5d99f6	-0.054101907
96	0x399804ad	0.00028995183
97	0x3da518c9	0.08061368
98	0x3d3fa9c3	0.046792757
99	0xbde4bc46	-0.11168723
100	0xbae8bd56	-0.0017756622
101	0x3a821b1f	0.0009926296
102	0x3d035cec	0.03207104
103	0x3dbd36a9	0.09238941
104	0x3d7a4d8d	0.061109114
105	0xbe04555f	-0.12923191
106	0x3d4476f7	0.047965016
107	0x3e312d18	0.17302358
108	0xbd9cd998	-0.0765869
109	0x3ce13e6c	0.027495585
110	0x3dd0a876	0.101883814
111	0xbd0a3ce9	-0.033749495
112	0x3e6b4dce	0.22978899
113	0x3e25f8c3	0.16208176
114	0xbdf373df	-0.11887335
115	0xbd0ba0a5	-0.03408875
116	0x3d60b6c6	0.054861806
117	0xbdf17e29	-0.11791641
118	0xbd8da52d	-0.069162704
119	0x3e025f3c	0.12731642
120	0x3d2e6401	0.04257584
121	0x3dba01fd	0.090824105
122	0x3cab3ac6	0.020902049
123	0xbd91e3a5	-0.07123498
124	0x3d1b7c7f	0.037960526
125	0xbc9ce22a	-0.019150812
126	0x3c38a668	0.011270143
127	0x3d8a16cc	0.067426294
128	0x3dace011	0.08441175
129	0xbca30793	-0.019901073
130	0xbe69b1fb	-0.228218
131	0x3da5f986	0.081042334
132	0x3e49d6e7	0.19710885
133	0x3dcb1726	0.099165246
134	0x3b91170c	0.004427796
135	0x3c99effa	0.018791188
136	0xbdc072b7	-0.0939688
137	0x394155ae	0.00018437832
138	0x3cbc6d30	0.023001283
139	0xbd545886	-0.051842235
140	0xbdaa3fcb	-0.08312949
141	0xbcb13773	-0.021632886
142	0xbd703892	-0.0586477
143	0x3daed750	0.08537161
144	0x3d453033	0.04814167
145	0xbc06cfb8	-0.008228235
146	0xbe209532	-0.15681913
147	0xbc96a18d	-0.01838758
148	0x3a7a7f50	0.0009555714
149	0x3dc538fd	0.0963001
150	0xbcd65a70	-0.02616617
151	0xbd296ff2	-0.041366525
152	0x3a78c4e2	0.0009489787
153	0xbd423b7e	-0.047420017
154	0x3ab641c2	0.0013905095
155	0xbdcbf3f0	-0.09958637
156	0xbcb40e21	-0.021979393
157	0xbcf5b6c2	-0.029994372
158	0x3e0703f4	0.13185102
159	0xbe35ab32	-0.17741087
160	0xbdc292b2	-0.09500636
161	0x3d2c20a6	0.042023323
162	0x3d4ab228	0.04948631
163	0x3b82ef88	0.0039958395
164	0xbde1ef2c	-0.110319465
165	0xbd5005ce	-0.050786786
166	0x3d99c25b	0.075077735
167	0xbb6bf6d4	-0.0036005275
168	0x3da9a13c	0.08282706
169	0xbd8d8c15	-0.06911484
170	0x3debb3f0	0.1150893
171	0x3c9132cc	0.017724417
172	0xbd11575f	-0.035483714
173	0xb9635f6f	-0.00021683959
174	0x3b22b7e9	0.0024828857
175	0xbe04abbf	-0.12956141
176	0xbe57a1ba	-0.21057788
177	0x3d116843	0.035499822
178	0xbdf047f8	-0.11732477
179	0x3d803ade	0.06261228
180	0x3cb453cf	0.02201262
181	0xbc9d8503	-0.019228464
182	0xbcb33b6a	-0.021878917
183	0xbdad0d58	-0.08449811
184	0x3c20adb6	0.009807041
185	0xbdc6648e	-0.09687148
186	0xbbbd7669	-0.005781938
187	0x3e0ee69a	0.13955155
188	0x3a0a2199	0.00052692887
189	0xbd6e6f0f	-0.058211382
190	0xbc79b0e2	-0.015239926
191	0xbd892194	-0.06695858
192	0x3d6e4229	0.058168564
193	0xbd53a0a3	-0.051666867
194	0xbd2dbd8c	-0.042417094
195	0xbd9d775d	-0.07688782
196	0x3d92d488	0.07169443
197	0xbd8ec8f5	-0.06971923
198	0x3cef5cd1	0.029219063
199	0x3ce83a0f	0.028347997
200	0xbd86e616	-0.06586854
201	0x3d316b2f	0.04331511
202	0xbd6648a4	-0.05622162
203	0xbd7126d6	-0.058874927
204	0xbc8416a0	-0.01612407
205	0xbccee628	-0.025256231
206	0x3b1add0f	0.0023630296
207	0xbd8e441d	-0.06946585
208	0xbd8abd6f	-0.06774413
209	0xbd11542a	-0.035480656
210	0x3e017a69	0.12644352
211	0xbc6833ac	-0.014172476
212	0x3d9276fd	0.071516015
213	0x3e03001c	0.1279301
214	0xbe0d6baa	-0.13810602
215	0x3d8d0aea	0.06886847
216	0xbdf8a43b	-0.121406995
217	0xbbcaa78a	-0.006184523
218	0x3d01503c	0.031570658
219	0xbe01deeb	-0.12682693
220	0x3d0d8c1d	0.03455745
221	0xbd287445	-0.04112651
222	0x3a52a267	0.0008035064
223	0xbe218f9e	-0.15777442
224	0xb957b290	-0.00020570518
225	0xbe021ae6	-0.12705573
226	0xbd33c0af	-0.04388493
227	0xbd51aef2	-0.05119223
228	0xbd487ce8	-0.048947245
229	0x3d2f1bf2	0.04275126
230	0x3e12e9c0	0.14346981
231	0x3e11542a	0.14192262
232	0x3dd61a3a	0.10454221
233	0x3def238a	0.116767004
234	0x3cb9e18d	0.022690559
235	0x3cb0d7dd	0.021587307
236	0xbd132650	-0.03592521
237	0x3d0c8afb	0.03431223
238	0x3b633356	0.003466805
239	0xbb206401	-0.002447367
240	0xbc0ceb89	-0.008601078
241	0x3d9e1009	0.07717902
242	0xbdb12b18	-0.086507976
243	0x3c823f4e	0.015899327
244	0xbd788142	-0.060670145
245	0xbdcb6c93	-0.09932818
246	0x3ce52e78	0.02797626
247	0xbdf59ede	-0.11993192
248	0x3c1cb533	0.009564686
249	0xbd83d517	-0.06437128
250	0xbdad0e02	-0.084499374
251	0xbc98704c	-0.018608235
252	0x3e4217b9	0.18954362
253	0x3c9e31c0	0.019310832
254	0xbb04bc17	-0.0020253712
255	0x3da1aca8	0.0789426

action_model._continuous_distribution.mu.bias f4 [2]
0	0xbd390d62	-0.04517878
1	0x3c0fd29f	0.008778243
