results/test_environment/VacuumCleaner/VacuumCleaner-2944.pt (torch, 615731 bytes, 44 tensors)

network_body._body_endoder.seq_layers.0.weight f4 [128, 34]
0.19576405 0.09366036 -0.15602048 0.29247528 -0.058625817 0.28186643 -0.11034531 0.19241323
0.24866115 0.14982337 0.13268171 -0.06541237 0.038876154 -0.045317687 -0.28460833 -0.3436842
-0.05370053 -0.20210329 -0.26043314 -0.07004925 0.039346702 0.09485738 -0.25512958 0.13785613
-0.00012215349 0.2009037 -0.24884118 0.239615 -0.15445787 0.40366077 -0.13432914 -0.21418934
0.17419945 0.058438126 0.07036807 0.18439247 0.22265108 0.15960655 0.09938606 -0.13100173
0.15661898 -0.018263478 -0.24070571 -0.020138571 0.12944658 -0.13387832 0.00048497377 0.0707926
0.006233714 -0.21657783 0.017176453 -0.21390188 0.11342779 0.107721865 -0.24187301 -0.08779527
-0.3737009 0.015355604 0.1439477 0.029385071 -0.17969184 0.029539093 -0.014088644 0.10921965
0.032465864 0.25091448 -0.05971572 0.038264137 -0.36229074 -0.0839293 0.017747948 -0.102125674
0.054028027 0.18738659 -0.15343408 0.08020157 0.257901 -0.0065932777 -0.052138362 0.02091173
-0.012846816 0.12891391 0.22435877 0.13142239 0.17748207 0.019758303 -0.012340269 0.19878317
-0.07828626 0.16220823 0.2517327 0.23833875 0.29602078 0.047146372 0.07535948 0.24194519
-0.10090878 -0.09645448 -0.18715474 -0.15982182 0.0059467633 -0.32207975 -0.065657616 0.05162683
0.023147032 0.07974537 0.13841666 -0.019646738 -0.0038141452 0.03228584 -0.4299504 0.07852974
0.19197981 0.2540952 0.07895639 -0.06912488 0.033577908 -0.008176207 0.07851274 -0.15360828
-0.30526242 -0.29604414 0.061023533 0.011260145 0.15799473 0.12308257 -0.0028319045 -0.12286232
0.038458437 0.004284262 0.016481362 -0.015831789 0.17326212 0.10948191 -0.07381752 0.084456384
0.20697957 0.0076786047 -0.06606117 -0.06487486 -0.06985849 0.112826794 -0.040488403 -0.22883098
0.045935642 0.3081279 -0.033366777 -0.05336802 0.102894686 -0.20241317 0.11169584 0.014110903
-0.15723084 0.024853824 -0.17512338 -0.0040979167 -0.07948862 -0.14686249 -0.14175034 -0.053675614
-0.089298114 0.22536586 0.28361806 -0.081973806 0.12825158 0.08526355 -0.040427044 -0.013573939
0.10471357 -0.007219606 0.2551328 0.12416345 0.061625924 -0.3611904 0.15599488 -0.068623394
0.08972561 0.10502629 -0.07505048 -0.20351532 -0.025503693 -0.28012747 -0.08825324 0.2668318
0.012291509 -0.06505415 0.10432037 0.22237408 -0.3627754 -0.06242624 -0.08807686 0.24859884
-0.1666328 -0.0796481 0.1142512 0.21298985 -0.17362244 0.122620456 -0.29232776 0.020156322
0.14209358 -0.114267215 -0.1934265 0.14674318 0.13358133 -0.1172967 -0.14873074 0.040065106
-0.12611431 -0.112775356 0.22191472 -0.009378277 0.1439969 -0.047326207 0.06387003 0.29346862
-0.117622904 -0.15094869 0.28661937 -0.063942425 -0.28955066 -0.1359093 0.08815678 0.019530134
-0.22599421 0.0924079 0.10152338 0.0069192224 0.49734938 0.17400394 -0.009276714 -0.06442047
0.046167072 0.11669404 0.08192255 0.22357398 0.048456185 0.043916654 0.21594252 0.045072436
0.1362749 0.18681733 0.22274631 0.15605992 0.10481091 -0.29506356 -0.022838352 0.056864657
0.1536798 0.102916576 0.1366913 -0.14060278 0.084276296 0.06742319 0.10300163 0.083960354
00000000: 5f76 483e 01d1 bf3d d5c3 1fbe 52bf 953e
00000010: a021 70bd cc50 903e b9fc e1bd f907 453e
00000020: 07a1 7e3e 4c6b 193e b7dd 073e ecf6 85bd
00000030: 9a3c 1f3d 0a9f 39bd 2fb8 91be 60f7 afbe
00000040: 16f5 5bbd 2af4 4ebe 7e57 85be fb75 8fbd
00000050: 022a 213d 9644 c23d 58a0 82be 282a 0d3e
00000060: 5416 00b9 b3b9 4d3e 39d0 7ebe a25d 753e
00000070: 342a 1ebe a0ac ce3e 948d 09be 7354 5bbe
00000080: 5761 323e d15c 6f3d 221d 903d 61d1 3c3e
00000090: a5fe 633e e66f 233e eb8a cb3d 5125 06be
000000a0: ba60 203e 4a9d 95bc 8f7b 76be a5f9 a4bc
000000b0: a58d 043e 6617 09be 1444 fe39 b6fb 903d
000000c0: 2f44 cc3b 94c6 5dbe a2b5 8c3c 1809 5bbe
000000d0: d44c e83d 489d dc3d 8fad 77be 02ce b3bd
000000e0: b955 bfbe 1296 7b3c 0767 133e f6b8 f03c
000000f0: 2301 38be f8fb f13c 0ed4 66bc 8dae df3d
00000100: edfa 043d dd77 803e 7998 74bd dbba 1c3d
00000110: 2c7e b9be 20e3 abbd 2564 913c 4427 d1bd
00000120: 7e4c 5d3d 45e2 3f3e d31d 1dbe b940 a43d
00000130: 9a0b 843e 6c0c d8bb 098f 55bd 144f ab3c
00000140: 747b 52bc 0202 043e 4ebe 653e 9793 063e
00000150: dcbd 353e 2adc a13c d72e 4abc d18d 4b3e
00000160: 8c54 a0bd ea19 263e 1ce3 803e 130f 743e
00000170: 0990 973e 8e1c 413d 1256 9a3d 7bc0 773e
00000180: 43a9 cebd ed89 c5bd 7ea5 3fbe 55a8 23be
00000190: 11dd c23b a3e7 a4be 8077 86bd a876 533d
000001a0: d89e bd3c 8a51 a33d 19bd 0d3e 32f2 a0bc
000001b0: bdf6 79bb 283e 043d 7522 dcbe 33d4 a03d
000001c0: 5b96 443e c418 823e e3b3 a13d 5891 8dbd
000001d0: fd88 093d 7ff5 05bc 4acb a03d 7d4b 1dbe
000001e0: 5b4b 9cbe 1993 97be d0f3 793d 797c 383c
000001f0: 5fc9 213e b712 fc3d 7997 39bb 3d9f fbbd
00000200: 9886 1d3d ff62 8c3b ec03 873c abb1 81bc
00000210: a06b 313e 0d38 e03d a42d 97bd 78f7 ac3d
00000220: 74f2 533e ce9c fb3b 144b 87bd 1cdd 84bd
00000230: f811 8fbd bc11 e73d 2bd7 25bd ab52 6abe
00000240: 0327 3c3d f1c2 9d3e 9aab 08bd 6d98 5abd
00000250: 73ba d23d 6645 4fbe cac0 e43d 6b31 673c
00000260: 1f01 21be 3f9a cb3c 8b53 33be d147 86bb
00000270: eeca a2bd 1f63 16be 0027 11be f6da 5bbd
00000280: eee1 b6bd 4fc6 663e 6336 913e e2e1 a7bd
00000290: 6254 033e a89e ae3d d496 25bd 3a65 5ebc
000002a0: 1174 d63d 7292 ecbb c4a0 823e 6849 fe3d
000002b0: 776b 7c3d f3ed b8be 1fbd 1f3e 6c8a 8cbd
000002c0: 10c2 b73d 0618 d73d 11b4 99bd 5266 50be
000002d0: 1fed d0bc de6c 8fbe 1dbe b4bd 2d9e 883e
000002e0: 5362 493c 1c3b 85bd eba5 d53d 08b6 633e
000002f0: b2bd b9be a8b2 7fbd a461 b4bd b290 7e3e
00000300: caa1 2abe 8b1e a3bd 88fc e93d 031a 5a3e
00000310: 15ca 31be 6f20 fb3d fcab 95be df1e a53c
00000320: fb80 113e ee04 eabd 9911 46be d843 163e
00000330: 8bc9 083e 4139 f0bd df4c 18be 4f1b 243d
00000340: 1c24 01be c4f6 e6bd 9d3d 633e 58a7 19bc
00000350: ec73 133e 20d9 41bd 4ace 823d 8541 963e
00000360: 47e4 f0bd 4b92 1abe c6bf 923e 3ff4 82bd
00000370: fc3f 94be cf2b 0bbe 8b8b b43d a9fd 9f3c
00000380: 076b 67be 5a40 bd3d 7deb cf3d a5ba e23b
00000390: 94a4 fe3e 172e 323e 5cfd 17bc e1ee 83bd
000003a0: af19 3d3d 49fd ee3d 03c7 a73d 94f0 643e
000003b0: fe79 463d f3e1 333d 0920 5d3e e09d 383d
000003c0: a68b 0b3e 0b4d 3f3e 9c17 643e 2cce 1f3e
000003d0: 1aa7 d63d 9212 97be 7f17 bbbc eaea 683d
000003e0: 3d5e 1d3e edc5 d23d cef8 0b3e 2dfa 0fbe
000003f0: 0d99 ac3d 2b15 8a3d 85f2 d23d 68f3 ab3d

network_body._body_endoder.seq_layers.0.bias f4 [128]
-0.0046043363 -0.0024092884 0.0047558765 -0.006869914 -0.000113764305 -0.023503073 -0.02003641 0.022811878
0.01379751 -0.012773552 0.0016050726 -0.013374351 0.010874286 0.0016326156 0.016554926 0.009585922
0.020837178 -0.0063150986 0.012209224 0.023394253 0.002707187 0.015424821 0.00032851158 -0.013678611
0.0030306082 -0.00055763527 -0.0017148551 0.010933316 -0.0033874037 0.0015595347 -0.0061337897 0.0040510804
-0.0026725843 0.0076501104 0.0045358394 0.02564681 0.007344636 -0.005491264 -0.013784921 -0.0037493478
-0.010093044 0.0096717365 0.003731862 0.009693164 -0.011631493 0.0007663678 0.009587215 0.002790979
-0.0048121465 -0.0071638706 0.016550459 0.00020402616 0.010814425 -0.0044096224 -0.00047814858 0.00767413
0.0036814488 0.013916439 -0.0027940914 -0.012030597 0.012291815 -0.010841067 -0.009563648 -0.011150184
-0.013086948 0.0046907905 0.015966574 -0.0061987955 0.011576326 0.0050158836 0.024137102 -0.023085466
-0.007102171 0.008210901 0.012793032 0.007580513 0.006937556 0.022244992 0.021537926 0.012313651
-0.019841932 0.0023228645 0.010528153 0.019829553 0.0005294254 0.003317621 0.0053765294 0.007170441
0.008533001 0.001765275 -0.025135214 0.01929928 -0.00044705477 0.009497129 -0.007637907 0.0021025578
0.0029033402 -0.010305947 -0.0029301094 0.017234774 -0.007184423 -0.008993701 0.010390493 0.014038159
0.01908228 0.008656195 -0.00941273 0.00065404485 0.000446408 0.015427403 0.014173698 -0.0014968667
0.0092134895 -0.0015697487 0.020746028 0.008042874 0.018721571 0.0150807 0.010059556 -0.009183057
-0.00029846965 0.012410985 -0.010495533 -0.009383865 0.007828802 0.013317231 -0.005924365 0.005509124
00000000: f9df 96bb 27e5 1dbb 2fd7 9b3b 041d e1bb
00000010: bf94 eeb8 8489 c0bc 6623 a4bc fadf ba3c
00000020: f40e 623c 2948 51bc 4d61 d23a 1820 5bbc
00000030: 102a 323c 7dfd d53a 329e 873c 450e 1d3c
00000040: bbb2 aa3c e3ee cebb 3209 483c 4ea5 bf3c
00000050: 106b 313b 63b8 7c3c 143c ac39 411c 60bc
00000060: 2b9d 463b 452e 12ba fdc4 e0ba a721 333c
00000070: 34ff 5dbb 4d69 cc3a f5fd c8bb edbe 843b
00000080: 8626 2fbb c7ad fa3b 61a1 943b 4219 d23c
00000090: 46ab f03b 10f0 b3bb 26da 61bc 9eb7 75bb
000000a0: 4b5d 25bc 3476 1e3c 4192 743b 14d0 1e3c
000000b0: 0592 3ebc 13e6 483a b213 1d3c dce8 363b
000000c0: 36af 9dbb e7be eabb d494 873c dbef 5539
000000d0: fc2e 313c 987e 90bb 04b0 fab9 4577 fb3b
000000e0: 7644 713b c701 643c 131d 37bb fb1b 45bc
000000f0: 9c63 493c bb9e 31bc d9b0 1cbc 43af 36bc
00000100: a36a 56bc 34b5 993b 55cc 823c 441f cbbb
00000110: a1aa 3d3c 485c a43b 2cbb c53c bb1d bdbc
00000120: 54b9 e8bb 0487 063c de99 513c f465 f83b
00000130: 7054 e33b 213b b63c 4e70 b03c 32bf 493c
00000140: 8c8b a2bc 333b 183b 467e 2c3c 9671 a23c
00000150: 23c9 0a3a 726c 593b 992d b03b 05f6 ea3b
00000160: 00ce 0b3c cd60 e73a 5de8 cdbc 8619 9e3c
00000170: ad62 eab9 d999 1b3c 6847 fabb 11cb 093b
00000180: f745 3e3b 46da 28bc 1407 40bb f12f 8d3c
00000190: 4f6b ebbb 515a 13bc e33c 2a3c 4e00 663c
000001a0: 7152 9c3c b7d2 0d3c da37 1abc 3574 2b3a
000001b0: de0b ea39 38c3 7c3c cc38 683c 8332 c4ba
000001c0: 2df4 163c 07c0 cdba 93f3 a93c 42c6 033c
000001d0: fb5d 993c 0a15 773c d6d0 243c 8874 16bc
000001e0: eb7b 9cb9 7257 4b3c 75f5 2bbc c8be 19bc
000001f0: 6044 003c 8430 5a3c 2d21 c2bb e285 b43b

network_body._body_endoder.seq_layers.2.weight f4 [128, 128]
0.1593825 -0.13294517 -0.11150686 -0.0012752585 -0.08492042 -0.01220483 -0.084546834 0.056133356
-0.19342592 -0.013617446 -0.043074876 -0.10540822 -0.035622537 -0.036389064 -0.123291165 -0.01282341
-0.10430364 0.009166249 -0.09330594 -0.03651527 -0.07398525 -0.04337098 0.016320545 0.0034986758
-0.15364303 0.15803316 -0.04949844 0.13466278 -0.13189739 -0.038040746 -0.08055161 0.0016534481
-0.020597087 -0.07697063 -0.15829875 0.12578142 0.06032091 -0.06444503 0.16330674 0.03391091
0.10210143 -0.14003704 -0.008361512 0.08320065 -0.020923927 0.007154704 -0.0548524 0.029310757
-0.18871361 -0.06325637 0.03838466 -0.012061816 -0.17008114 -0.07275468 -0.04103566 -0.14150682
-0.08139329 0.049556162 0.12488316 -0.008754014 0.023829117 -0.12011827 -0.25682595 -0.0028470773
-0.18977447 0.14188348 -0.106362686 -0.04370115 -0.05555444 -0.016308729 -0.002558081 0.14883643
0.061195824 -0.11773932 0.21607247 0.025926165 0.11375347 -0.0882668 0.06687265 0.048583955
0.048715424 0.0507662 -0.14366314 -0.16372728 0.18080212 -0.021445628 -0.06650383 0.13615158
0.099909924 0.11459227 0.039008487 0.1259671 0.14563432 0.12613183 0.049965374 -0.16200596
0.04809644 0.008113467 -0.036912788 -0.00628462 -0.09886835 -0.072334185 -0.12708287 0.026895054
0.081369415 -0.08224199 -0.04873456 -0.046097495 -0.092529655 0.11184621 0.042995825 0.09544261
-0.1299664 -0.09755588 0.037149783 -0.15557833 -0.09333578 0.10821209 -0.08642543 -0.103336714
-0.07925667 -0.10593328 -0.070239775 -0.012714507 -0.03759277 0.116722316 -0.09894095 0.049925424
-0.04457665 -0.0069332337 0.08368173 -0.048214663 -0.003552074 -0.07265745 -0.07006571 0.037276648
0.02007756 0.016265353 -0.05140805 0.069833174 0.030288149 0.0877411 0.087237194 -0.009293219
0.13779205 0.0206607 0.027826965 0.034683753 -0.02569355 -0.0032645282 -0.17286475 -0.002160033
0.01781722 -0.00052362843 -0.099522956 0.03871106 0.24966353 0.06071183 -0.012214054 0.055618968
0.11566751 0.1305571 -0.035520658 -0.037146267 0.015153867 0.028821353 0.020204969 -0.068711944
0.123611756 -0.14018677 -0.10745248 -0.22990026 -0.24897647 -0.09596299 0.10297445 0.10318759
0.0759031 0.018806677 0.032988004 0.014630096 0.019647421 -0.10315796 -0.13776079 0.011703723
-0.04574903 0.021765202 -0.088137075 -0.14190392 0.03152507 0.071412124 -0.011842921 0.21543014
0.13052438 0.117204234 -0.020929758 0.0006492505 0.055892352 -0.10824762 0.040080678 -0.05773816
-0.013218172 0.09706468 0.013936685 0.09055946 -0.09143201 0.08651527 -0.0049864696 0.08146161
0.02268698 0.026797296 -0.019670649 0.013111334 -0.087599225 -0.042645082 0.1862601 0.0012340149
-0.015119217 -0.0153124835 0.054908797 -0.012417353 -0.024407052 0.15665813 -0.08614762 0.082147375
0.0025535692 -0.0557355 0.1449089 -0.04175635 -0.07509552 -0.0072589805 0.013515366 -0.11959955
-0.07484395 0.010479058 0.18275386 -0.087401725 0.02526362 -0.034054816 0.098522566 0.16956374
-0.005010108 0.0053478545 0.094552025 0.021869304 -0.0684842 0.0035770633 0.0411233 -0.0707487
0.042677447 0.052370023 -0.057739478 -0.0723199 -0.05678777 0.037887838 -0.017513365 0.098297596
00000000: 2b35 233e c722 08be b55d e4bd 9326 a7ba
00000010: c2ea adbd c4f6 47bc e426 adbd 17ec 653d
00000020: 7211 46be b51b 5fbc 486f 30bd 44e0 d7bd
00000030: f0e8 11bd b30c 15bd 1480 fcbd 4819 52bc
00000040: 269d d5bd 092e 163c 2f17 bfbd 0991 15bd
00000050: 9485 97bd c5a5 31bd aab2 853c 0a4a 653b
00000060: 9954 1dbe 72d3 213e e0be 4abd 0ae5 093e
00000070: 1c10 07be 9dd0 1bbd 3ef8 a4bd 83b8 d83a
00000080: 39bb a8bc c7a2 9dbd 1119 22be d8cc 003e
00000090: 0f13 773d c2fb 83bd e239 273e 2be6 0a3d
000000a0: 8e1a d13d df65 0fbe b9fe 08bc 1a65 aa3d
000000b0: a868 abbc 0272 ea3b e9ac 60bd 1d1d f03c
000000c0: 243e 41be 8e8c 81bd 3c39 1d3d ec9e 45bc
000000d0: c029 2ebe 6800 95bd 0215 28bd 2ae7 10be
000000e0: 86b1 a6bd 67fb 4a3d bec2 ff3d ff6c 0fbc
000000f0: 4835 c33c 9100 f6bd b17e 83be 0896 3abb
00000100: 3d54 42be e749 113e aed4 d9bd faff 32bd
00000110: 0d8d 63bd e299 85bc 7aa5 27bb 9468 183e
00000120: 79a8 7a3d 5021 f1bd 1a42 5d3e 1c63 d43c
00000130: 94f7 e83d 39c5 b4bd 87f4 883d f8ff 463d
00000140: d389 473d 38f0 4f3d 6e1c 13be 20a8 27be
00000150: 3124 393e beae afbc 2933 88bd 526b 0b3e
00000160: 939d cc3d 5aaf ea3d 5dc7 1f3d 85fd 003e
00000170: 2a21 153e b428 013e 7ea8 4c3d e4e4 25be
00000180: c600 453d 59ee 043c dd31 17bd 37ef cdbb
00000190: 7d7b cabd f223 94bd 0322 02be 0453 dc3c
000001a0: 02a5 a63d 7d6e a8bd e49d 47bd bad0 3cbd
000001b0: 3080 bdbd a00f e53d 641c 303d 6a77 c33d
000001c0: e915 05be 61cb c7bd 5f2a 183d ed4f 1fbe
000001d0: d426 bfbd 4d9e dd3d d1ff b0bd 33a2 d3bd
000001e0: 5251 a2bd 8cf3 d8bd dfd9 8fbd 8250 50bc
000001f0: e0fa 19bd 1c0c ef3d 8ea1 cabd 9a7e 4c3d
00000200: 0196 36bd 2e30 e3bb 5461 ab3d bd7c 45bd
00000210: eac9 68bb 6ecd 94bd 9c7e 8fbd 66af 183d
00000220: b279 a43c eb3e 853c 3f91 52bd b204 8f3d
00000230: da1e f83c 9bb1 b33d 6aa9 b23d 9642 18bc
00000240: 5c19 0d3e a140 a93c 60f5 e33c 8d10 0e3d
00000250: 487b d2bc b2f1 55bb 7503 31be 578f 0dbb
00000260: 6bf5 913c 1c44 09ba b1d2 cbbd 7d8f 1e3d
00000270: cca7 7f3e f8ac 783d 751d 48bc b7d0 633d
00000280: 16e3 ec3d c3b0 053e 1c7e 11bd af26 18bd
00000290: ed47 783c c21a ec3c e484 a53c d9b8 8cbd
000002a0: 2928 fd3d 1f8d 0fbe 0c10 dcbd f96a 6bbe
000002b0: b0f3 7ebe 3e88 c4bd 45e4 d23d 0454 d33d
000002c0: 1673 9b3d 7610 9a3c 6e1e 073d 12b3 6f3c
000002d0: a1f3 a03c 7b44 d3bd 2a11 0dbe f9c0 3f3c
000002e0: 5663 3bbd f04c b23c 3681 b4bd 434f 11be
000002f0: 6f20 013d 8540 923d d008 42bc b899 5c3e
00000300: 2fa8 053e c608 f03d e274 abbc 7732 2a3a
00000310: 61ef 643d eeb0 ddbd a32b 243d d97e 6cbd
00000320: 0891 58bc d9c9 c63d b256 643c 3d77 b93d
00000330: b540 bbbd eb2e b13d 8a65 a3bb 58d5 a63d
00000340: 0cda b93c 0186 db3c 5724 a1bc ecd0 563c
00000350: 3967 b3bd 9cac 2ebd f8ba 3e3e abbe a13a
00000360: 98b6 77bc 36e1 7abc 0ce8 603d 2772 4bbc
00000370: 4cf1 c7bc fd6a 203e 2a6e b0bd e23c a83d
00000380: c859 273b e84a 64bd 0063 143e b508 2bbd
00000390: aecb 99bd bedc edbb 8e6f 5d3c 9cf0 f4bd
000003a0: c947 99bd 5bb0 2b3c d423 3b3e adff b2bd
000003b0: a7f5 ce3c 107d 0bbd 33c6 c93d 1ea2 2d3e
000003c0: d52b a4bb 0e3d af3b 7ea4 c13d 4127 b33c
000003d0: 7241 8cbd 2a6d 6a3b e870 283d b2e4 90bd
000003e0: 8cce 2e3d f381 563d 3b80 6cbd 751c 94bd
000003f0: 4b9a 68bd 4730 1b3d 3078 8fbc 4050 c93d

network_body._body_endoder.seq_layers.2.bias f4 [128]
0.005825292 0.0033786127 0.0021965061 0.0055287387 0.003382436 0.00392175 0.018577632 0.0046441806
-0.0064326213 -0.00027753774 0.0007293863 -0.00050279265 0.012783502 -0.0026540144 9.8862234e-05 -0.00022400274
-0.0024362917 -0.005884698 -0.006002974 0.007523743 0.00809382 0.008526109 0.005511527 -0.00017965758
-0.009439621 0.01105149 0.0032112664 -0.0025822087 -0.00052321574 0.009356594 0.012646222 0.018349681
0.009201151 0.025751079 0.0031107995 -0.005464002 0.004552863 -0.0034259185 0.0035333617 0.009677865
0.0015251775 -0.0009775088 -0.011316736 -0.00077148556 0.005480561 -0.015023296 0.00053725066 0.010042203
-0.010915905 -0.0014139841 -0.0023104656 -0.0034424532 -0.008751965 2.8721974e-05 0.0070349276 -0.006857664
-7.034061e-05 0.0048408355 0.006005018 0.018807676 0.004153488 0.01292503 0.0025961173 0.001173947
-0.00952626 -0.0042057857 0.008709469 0.0051499973 -0.0051842416 -0.0049232394 -0.00067314156 -0.009005098
-0.000790043 -0.0050338553 -0.0049413685 0.012109644 0.0009413112 0.0097251525 -0.00040785395 -0.00018921467
-0.0016685883 -0.0042277398 -0.003035643 -0.0034614261 -0.0056841085 -0.004580398 -0.007867712 0.012140913
0.00089152134 -0.00842143 0.0019657407 0.0028768983 0.00034634906 0.00019430247 -0.006507713 0.0021102082
-0.0048208996 -0.0064907796 -0.00040760587 0.0038245947 0.0006307495 0.0059909075 -0.004030456 0.005337074
0.0010178998 0.0019266062 0.009962663 -0.001800761 -0.0057890736 -0.016757566 0.005123006 0.0011015278
0.0078087174 0.019029154 -0.0025879315 0.010828797 -0.010132173 0.00026969198 0.02608439 -0.009637647
-0.011784824 -0.0061839647 0.0039627273 0.004953813 -0.0039244224 0.012453768 0.006636722 -0.00045869942
00000000: 17e2 be3b b76b 5d3b 42f3 0f3b 6c2a b53b
00000010: dcab 5d3b 0682 803b 1e30 983c 362e 983b
00000020: bdc8 d2bb 7c82 91b9 4934 3f3a d8cd 03ba
00000030: e571 513c f9ee 2dbb 4254 cf38 47e2 6ab9
00000040: 31aa 1fbb 6dd4 c0bb 99b4 c4bb bb89 f63b
00000050: f19b 043c 18b1 0b3c 0a9a b43b 7762 3cb9
00000060: a4a8 1abc 4f11 353c 1c74 523b 463a 29bb
00000070: 6a28 09ba 664c 193c 1932 4f3c 1252 963c
00000080: 6dc0 163c edf3 d23c 8ede 4b3b 5f0b b3bb
00000090: 2f30 953b 6085 60bb f98f 673b e88f 1e3c
000000a0: 77e8 c73a c11f 80ba d569 39bc 853d 4aba
000000b0: 4796 b33b 4524 76bc 48d6 0c3a 0d88 243c
000000c0: a0d8 32bc 6f55 b9ba 2e6b 17bb c89a 61bb
000000d0: 6764 0fbc f8ef f037 4085 e63b 41b6 e0bb
000000e0: d483 93b8 df9f 9e3b bec5 c43b 8e12 9a3c
000000f0: fc19 883b 81c3 533c 9f23 2a3b 20df 993a
00000100: 0814 1cbc b0d0 89bb 29b2 0e3c 4fc1 a83b
00000110: 92e0 a9bb 2053 a1bb c475 30ba 1e8a 13bc
00000120: e31a 4fba 0af3 a4bb 34eb a1bb 8767 463c
00000130: 53c2 763a 3f56 1f3c 3bd5 d5b9 ed67 46b9
00000140: 88b4 daba da88 8abb a3f1 46bb 18d9 62bb
00000150: c241 babb 2a17 96bb 93e7 00bc aeea 463c
00000160: fcb4 693a 0afa 09bc a8d3 003b 588a 3c3b
00000170: 2f96 b539 acbd 4b39 a73e d5bb 6b4b 0a3b
00000180: a3f8 9dbb 9bb0 d4bb efb3 d5b9 0da6 7a3b
00000190: e258 253a 604f c43b ea11 84bb 9fe2 ae3b
000001a0: 0d6b 853a 2d86 fc3a 703a 233c 8307 ecba
000001b0: 45b2 bdbb 2a47 89bc e4de a73b 2461 903a
000001c0: 45e0 ff3b 07e3 9b3c 499a 29bb 446b 313c
000001d0: 6a01 26bc 7265 8d39 eeae d53c 39e7 1dbc
000001e0: 2215 41bc dba2 cabb c4d9 813b 9853 a23b
000001f0: 7198 80bb e40a 4c3c dc78 d93b 987d f0b9

action_model._continuous_distribution.log_sigma f4 [1, 2]
-0.3994026 -0.41143474
00000000: 7f7e ccbe 93a7 d2be

action_model._continuous_distribution.mu.weight f4 [2, 128]
-0.037639577 -0.018714642 0.015647793 0.02747774 0.030736508 -0.011651433 -0.06990593 0.009838253
0.0017562361 -0.002251673 -0.0048538214 0.054552503 0.046698507 0.014833317 0.025061376 -0.010249003
-0.021553217 -0.003791939 0.011886881 0.045014147 0.03565165 -0.04963081 -0.028478593 0.0094927745
0.04587132 -0.054665245 0.0036103765 0.02027396 0.012911296 -0.03151063 0.07328714 -0.02763255
-0.022593062 0.036910187 0.01891088 -0.0018474257 -0.026897239 0.014114275 -0.04215672 -0.02582783
-0.019112224 0.016811546 0.0012909714 0.0071734376 -0.03551514 -0.006238499 0.009280655 -0.026223566
-0.018967265 -0.027425725 0.01443416 0.018661926 -0.022023939 0.018534461 -0.03568343 0.023114325
-0.0061203116 -0.018016709 0.039214376 0.023725886 0.026322609 -0.061691623 0.0063160653 0.0016729161
-0.0044912463 -0.0070353025 0.034807023 -0.025421772 -0.013179341 0.013171774 -0.014188073 -0.020420963
-0.02219957 0.00093151006 0.019377956 0.030588346 0.038171194 -0.004933168 -0.021174876 0.010324578
-0.009066857 -0.0075789713 -0.015972015 0.00032988162 -0.03312647 0.0042493436 -0.0016521581 -0.028557712
0.014610451 0.017946417 0.044610508 0.031971876 0.011119926 0.010217988 -0.010693863 -0.045100536
0.006433134 -0.0313358 -0.01771464 0.018681332 0.028136708 -0.018952023 0.0054752873 0.02805804
0.0031926625 -0.015596496 0.016653068 -0.0004602803 -0.04710661 0.0049298373 0.024267703 -0.0397761
-0.045306176 0.052279014 -0.02135635 0.04278782 0.020143716 0.012633176 -0.07986383 -0.0089972885
-0.012070436 0.0046484745 -0.02060534 0.02205738 0.014223469 0.03317998 -0.043154713 0.037020434
0.032709703 -0.02483704 -0.022414666 -0.035475597 0.022936776 -0.056468647 0.04384927 -0.0037630794
-0.0042133774 -0.042059787 0.039024755 -0.0042472417 -0.01734828 -0.0012748052 -0.0027108148 -0.025026236
0.019592408 -0.015220843 0.010938704 0.004426738 0.0067106816 -0.00049450394 -0.03842092 -0.0109735215
0.04339334 -0.0030765997 0.03278099 0.0250285 0.0276895 0.007905597 0.0014269092 -0.010017881
0.030040985 -0.023769585 0.0045351437 -0.006597776 0.026882252 0.01395296 -0.030601213 0.010252818
0.02418039 -0.0063541937 -0.019812388 -0.007008976 -0.038343385 -0.0008077434 0.017421098 0.025745813
0.0012324803 -0.015965056 0.021150203 -0.026381575 -0.003239895 -0.014760067 0.015559956 0.01629861
-0.015868658 -0.0060168784 -0.037780717 -0.012804322 -0.011294524 0.039412167 0.009603141 -0.0015299969
0.03682555 -0.03574589 -0.009495298 0.020271199 -0.0073821754 0.020773903 -0.0025957408 -0.016245412
0.02255412 -0.008059534 0.0335712 0.027609956 0.014389102 -0.056989133 0.03365195 -0.050799634
0.04345116 0.024093127 0.04733215 0.0032294572 -0.021854874 -0.006580838 0.011988589 -0.030188188
-0.040985353 -0.0024641918 -0.029269181 0.013775816 0.0054218806 -0.0041772625 0.00688394 0.016834628
0.0023157038 0.0350667 0.04160842 -0.00026463746 0.02903 0.05847429 0.01404743 -0.0039667534
-0.02997031 0.006816742 0.00932557 0.010543625 0.027127037 -0.000775207 -0.039440755 0.0074993847
0.03822962 -0.011945713 -0.004539253 -0.004292499 0.0105171325 -0.0023648746 -0.02821239 -0.014070863
-0.01098058 -0.010820453 0.0037345565 -0.023255996 0.0009555994 -0.005532173 -0.0122602815 -0.02378044
00000000: f52b 1abd 734f 99bc cd2f 803c ff18 e13c
00000010: 21cb fb3c a7e5 3ebc d72a 8fbd a030 213c
00000020: 8131 e63a ce90 13bb ce0c 9fbb 7272 5f3d
00000030: ef46 3f3d 7107 733c 844d cd3c 6feb 27bc
00000040: 5f90 b0bc 2e82 78bb 31c1 423c c160 383d
00000050: 7707 123d ad49 4bbd f04b e9bc 9587 1b3c
00000060: 91e3 3b3d aae8 5fbd 119c 6c3b 9315 a63c
00000070: e789 533c 4a11 01bd 9117 963d a85d e2bc
00000080: 1615 b9bc 232f 173d fdea 9a3c 5225 f2ba
00000090: 9957 dcbc 8f3f 673c 86ac 2cbd e394 d3bc
000000a0: 3d91 9cbc 5eb8 893c d035 a93a 280f eb3b
000000b0: 5378 11bd 536c ccbb e30d 183c ced2 d6bc
000000c0: 3d61 9bbc eaab e0bc 417d 6c3c e5e0 983c
000000d0: 8c6b b4bc 95d5 973c ca28 12bd 415a bd3c
000000e0: e58c c8bb c797 93bc 419f 203d ca5c c23c
000000f0: 83a2 d73c 5bb0 7cbd fff6 ce3b c045 db3a
00000100: 4e2b 93bb 6588 e6bb cf91 0e3d 5241 d0bc
00000110: 2aee 57bc 6dce 573c 1775 68bc dd49 a7bc
00000120: dfdb b5bc 9530 743a 85be 9e3c 6994 fa3c
00000130: 6659 1c3d 6aa6 a1bb ef76 adbc 6b28 293c
00000140: 288d 14bc 0559 f8bb bed7 82bc f6f3 ac39
00000150: 9faf 07bd 143e 8b3b 3a8d d8ba ddf1 e9bc
00000160: ac60 6f3c 5d04 933c 82b9 363d f1f4 023d
00000170: 5a30 363c 5969 273c 5035 2fbc 57bb 38bd
00000180: 0acd d23b f859 00bd 4b1e 91bc 9809 993c
00000190: f47e e63c 4641 9bbc 0a6a b33b fad9 e53c
000001a0: fd3b 513b 7288 7fbc 046c 883c c751 f1b9
000001b0: dcf2 40bd 798a a13b 10cd c63c 44ec 22bd
000001c0: f892 39bd 8522 563d 83f3 aebc 4842 2f3d
000001d0: 6f04 a53c 61fb 4e3c a68f a3bd 5d69 13bc
000001e0: 14c3 45bc 3b52 983b 88cc a8bc aeb1 b43c
000001f0: 8e09 693c bbe7 073d ffc2 30bd bda2 173d
00000200: 9cfa 053d 0c77 cbbc f69e b7bc dc4e 11bd
00000210: e8e5 bb3c ab4b 67bd 4b9b 333d ff9d 76bb
00000220: 5f10 8abb e246 2cbd 6cd8 1f3d 722c 8bbb
00000230: fb1d 8ebc 5d17 a7ba eda7 31bb d203 cdbc
00000240: 4280 a03c d860 79bc 4038 333c 2b0e 913b
00000250: 47e5 db3b 99a1 01ba 415f 1dbd 49ca 33bc
00000260: 37bd 313d c7a0 49bb 5c45 063d 9208 cd3c
00000270: 17d5 e23c 7a86 013c 2107 bb3a 0a22 24bc
00000280: 8318 f63c 6fb8 c2bc 8b9b 943b 2832 d8bb
00000290: 2b38 dc3c f59a 643c 65af fabc 70fb 273c
000002a0: f415 c63c d736 d0bb 974d a2bc 8dab e5bb
000002b0: f40d 1dbd bebe 53ba b1b6 8e3c e2e8 d23c
000002c0: 2d8b a13a 26c9 82bc 3143 ad3c 2c1e d8bc
000002d0: 6b54 54bb 35d4 71bc 30ef 7e3c aa84 853c
000002e0: fdfe 81bc 3c29 c5bb f4bf 1abd 38c9 51bc
000002f0: ab0c 39bc a76e 213d 7e56 1d3c 2d8a c8ba
00000300: 63d6 163d 486a 12bd 2b92 1bbc c90f a63c
00000310: 2de6 f1bb 082e aa3c 4e1d 2abb 1915 85bc
00000320: 6bc3 b83c 230c 04bc f481 093d 462e e23c
00000330: 45c0 6b3c 706d 69bd a1d6 093d 4713 50bd
00000340: d8f9 313d f35e c53c 5bdf 413d 4da5 533b
00000350: fe08 b3bc 12a4 d7bb c96b 443c 384d f7bc
00000360: 42e0 27bd 477e 21bb ecc5 efbc f6b3 613c
00000370: 08aa b13b 6be1 88bb ad92 e13b c6e8 893c
00000380: 10c3 173b 1aa2 0f3d 976d 2a3d 0abf 8ab9
00000390: 53d0 ed3c bd82 6f3d 3127 663c 8afb 81bb
000003a0: 4c84 f5bc fa5e df3b 47ca 183c 2bbf 2c3c
000003b0: 8539 de3c 4337 4bba a18c 21bd 66bd f53b
000003c0: a996 1c3d f4b7 43bc 04be 94bb 17a8 8cbb
000003d0: 0d50 2c3c 03fc 1abb ac1d e7bc 7a89 66bc
000003e0: e4e7 33bc 4548 31bc 76bf 743b 5c83 bebc
000003f0: 3181 7a3a 3b47 b5bb 59df 48bc 33cf c2bc

action_model._continuous_distribution.mu.bias f4 [2]
0.0038324175 -0.00018421053
00000000: 4c29 7b3b a328 41b9

exp_avg f4 [128, 34]
0.0 -1.2649907e-05 -6.7081446e-06 -8.356056e-06 1.0228667e-38 -2.9921895e-05 1.0563857e-05 7.69848e-06
-5.845e-42 -1.2649907e-05 -6.7081446e-06 -1.002022e-05 1.2152551e-38 -1.6379514e-05 -2.978534e-06 -4.9708624e-06
1.1265089e-38 0.0 -1.9358045e-05 -1.9358045e-05 0.0 -2.6112026e-05 6.753974e-06 3.8915023e-06
0.0 -2.6112026e-05 6.753974e-06 3.8915023e-06 -0.00013357525 -1.935609e-05 -0.00013323383 -0.00013020594
-1.9369169e-05 -0.00013051515 0.0 0.0003480479 -0.0001521369 -0.00016537009 -1.0786715e-38 0.00039613928
-0.00020022833 -0.00020281621 -2.17788e-40 0.0003480479 -0.0001521369 -0.00017769281 -1.356251e-38 0.00059125695
-0.00039534603 -0.0003812422 -1.2708826e-38 0.0 0.000195911 0.000195911 0.0 0.00018511462
1.079635e-05 3.9527164e-05 0.0 0.00018511462 1.079635e-05 3.9527164e-05 0.001319487 0.00019625759
0.0013924341 0.0013353783 0.00019535342 0.0014136846 0.0 3.2454723e-06 1.1149498e-05 1.3088877e-05
-8.009507e-39 1.1772561e-05 2.622413e-06 5.1585184e-06 7.4499e-41 3.2454723e-06 1.1149498e-05 1.4999324e-05
-9.073632e-39 -5.147319e-06 1.9542289e-05 2.0815294e-05 -5.439514e-39 0.0 1.4394974e-05 1.4394974e-05
0.0 6.7690526e-06 7.6259203e-06 8.383018e-06 0.0 6.7690526e-06 7.6259203e-06 8.383018e-06
9.962255e-05 1.4381244e-05 9.7000164e-05 9.739359e-05 1.4430189e-05 9.483928e-05 0.0 0.00013451661
0.00016518691 0.00018813212 -3.682511e-39 7.6864286e-05 0.0002228392 0.0002337767 1.0162e-40 0.00013451661
0.00016518691 0.00021104714 -3.557467e-39 -4.343826e-05 0.00034314173 0.00034782596 -1.352399e-39 0.0
0.00029970348 0.00029970348 0.0 0.0001102894 0.00018941404 0.00020339784 0.0 0.0001102894
0.00018941404 0.00020339784 0.0020984644 0.00029989617 0.0020522894 0.0020861807 0.00030005228 0.0020277374
0.0 -0.0004904506 7.752375e-06 -4.9010705e-06 -1.1455168e-38 -0.00071573554 0.00023303741 0.00019877192
-9.1862e-41 -0.0004904506 7.752375e-06 -1.8609564e-05 -1.3593189e-38 -0.00073701266 0.0002543145 0.00022094537
-1.1959024e-38 0.0 -0.00048269817 -0.00048269817 0.0 -0.0005932188 0.000110520574 3.6805555e-05
0.0 -0.0005932188 0.000110520574 3.6805555e-05 -0.0033209168 -0.0004829984 -0.0033637926 -0.0032904046
-0.00048234197 -0.0033410022 0.0 5.1841183e-05 6.367982e-06 8.11109e-06 4.18949e-39 4.0702016e-05
1.7507151e-05 1.6813796e-05 6.6864e-41 5.1841183e-05 6.367982e-06 9.949979e-06 5.687059e-39 3.8969076e-05
1.924009e-05 1.8962808e-05 5.291104e-39 0.0 5.8209167e-05 5.8209167e-05 0.0 4.419963e-05
1.4009536e-05 1.8995817e-05 0.0 4.419963e-05 1.4009536e-05 1.8995817e-05 0.00040785762 5.8299476e-05
0.0004048212 0.00040832933 5.8219008e-05 0.0004022543 0.0 -0.0007071631 -2.9759394e-06 -2.610749e-05
-5.694246e-39 -0.0012088341 0.0004986952 0.0004289155 -9.0183e-41 -0.0007071631 -2.9759394e-06 -5.0954586e-05
-7.461187e-39 -0.0011030663 0.00039292735 0.0003319928 -6.145833e-39 0.0 -0.0007101391 -0.0007101391
0.0 -0.0010690226 0.0003588835 0.000230304 0.0 -0.0010690226 0.0003588835 0.000230304
-0.004887195 -0.0007106196 -0.0049590995 -0.0048091123 -0.000709756 -0.0049018255 0.0 2.11285e-05
2.6731532e-06 3.248837e-06 -1.372135e-39 2.9036371e-05 -5.2347114e-06 -3.9358e-06 1.05315e-40 2.11285e-05
2.6731532e-06 3.8581347e-06 -1.399608e-39 2.9032519e-05 -5.2308587e-06 -3.933189e-06 -7.59535e-40 0.0
00000000: 0000 0000 f03a 54b7 8616 e1b6 fd30 0cb7
00000010: 5d61 6f00 c800 fbb7 6c3b 3137 b828 0137
00000020: 4b10 0080 f03a 54b7 8616 e1b6 841c 28b7
00000030: 5e54 8400 bd66 89b7 d3e2 47b6 62cb a6b6
00000040: 7caa 7a00 0000 0000 1663 a2b7 1663 a2b7
00000050: 0000 0000 260b dbb7 32a0 e236 c093 8236
00000060: 0000 0000 260b dbb7 32a0 e236 c093 8236
00000070: 5510 0cb9 e35e a2b7 afb4 0bb9 e487 08b9
00000080: f97a a2b7 e5da 08b9 0000 0000 337a b639
00000090: f086 1fb9 3267 2db9 f974 7580 eab0 cf39
000000a0: 62f4 51b9 10ab 54b9 1b5f 0280 337a b639
000000b0: f086 1fb9 0d53 3ab9 c3ae 9380 95fe 1a3a
000000c0: 7246 cfb9 76e1 c7b9 0963 8a80 0000 0000
000000d0: 756d 4d39 756d 4d39 0000 0000 541b 4239
000000e0: f821 3537 f8c9 2538 0000 0000 541b 4239
000000f0: f821 3537 f8c9 2538 a3f2 ac3a 7fca 4d39
00000100: 5682 b63a dc07 af3a c9d7 4c39 624b b93a
00000110: 0000 0000 cacc 5936 bb0e 3b37 4c98 5b37
00000120: 3f37 5780 c482 4537 b6fc 2f36 5617 ad36
00000130: accf 0000 cacc 5936 bb0e 3b37 9ba5 7b37
00000140: 98cd 6280 22b7 acb6 bfee a337 819c ae37
00000150: 273b 3b80 0000 0000 f181 7137 f181 7137
00000160: 0000 0000 b821 e336 28e2 ff36 caa4 0c37
00000170: 0000 0000 b821 e336 28e2 ff36 caa4 0c37
00000180: 73ec d038 f946 7137 916c cb38 c93f cc38
00000190: 3119 7237 73e4 c638 0000 0000 070d 0d39
000001a0: 0636 2d39 5545 4539 5819 2880 3332 a138
000001b0: f1a9 6939 f421 7539 461b 0100 070d 0d39
000001c0: 0636 2d39 894c 5d39 c5bc 2680 7a31 36b8
000001d0: b4e7 b339 695c b639 f0b9 0e80 0000 0000
000001e0: 8521 9d39 8521 9d39 0000 0000 2c4b e738
000001f0: 729d 4639 3147 5539 0000 0000 2c4b e738
00000200: 729d 4639 3147 5539 6486 093b 623b 9d39
00000210: b47f 063b 4eb8 083b 5650 9d39 cae3 043b
00000220: 0000 0000 9591 00ba 3210 0237 e073 a4b6
00000230: 59bc 7c80 33a0 3bba 815b 7439 6e6d 5039
00000240: 1300 0180 9591 00ba 3210 0237 bc1b 9cb7
00000250: 4804 9480 1534 41ba 8455 8539 92ad 6739
00000260: e538 8280 0000 0000 a712 fdb9 a712 fdb9
00000270: 0000 0000 3d82 1bba 48c7 e738 aa5f 1a38
00000280: 0000 0000 3d82 1bba 48c7 e738 aa5f 1a38
00000290: bda3 59bb f33a fdb9 1373 5cbb d4a3 57bb
000002a0: d8e2 fcb9 b7f4 5abb 0000 0000 0c70 5938
000002b0: 8dac d536 de14 0837 989e 2d00 75b7 2a38
000002c0: 52dc 9237 5a0b 8d37 64ba 0000 0c70 5938
000002d0: 8dac d536 d6ee 2637 35ed 3d00 ba72 2338
000002e0: c765 a137 5212 9f37 729d 3900 0000 0000
000002f0: 9e25 7438 9e25 7438 0000 0000 fe62 3938
00000300: 800a 6b37 3559 9f37 0000 0000 fe62 3938
00000310: 800a 6b37 3559 9f37 b9d5 d539 9686 7438
00000320: 2f3e d439 0915 d639 2f30 7438 a9e5 d239
00000330: 0000 0000 ea60 39ba 40b6 47b6 6801 dbb7
00000340: 3e01 3e80 be71 9eba deba 023a 10e0 e039
00000350: 65fb 0080 ea60 39ba 40b6 47b6 12b8 55b8
00000360: c13e 5180 c394 90ba d101 ce39 520f ae39
00000370: 15ec 4280 0000 0000 a128 3aba a128 3aba
00000380: 0000 0000 721e 8cba 8728 bc39 c27d 7139
00000390: 0000 0000 721e 8cba 8728 bc39 c27d 7139
000003a0: c324 a0bb e048 3aba f17f a2bb c295 9dbb
000003b0: eb0e 3aba 7e9f a0bb 0000 0000 1c3d b137
000003c0: 6c64 3336 9806 5a36 f4f0 0e80 2293 f337
000003d0: d4a5 afb6 4410 84b6 9325 0100 1c3d b137
000003e0: 6c64 3336 2075 8136 8a3d 0f80 dc8a f337
000003f0: bc84 afb6 d6f9 83b6 4645 0880 0000 0000

exp_avg_sq f4 [128, 34]
0.0 2.68291e-08 1.00689505e-07 1.0594129e-07 6.437833e-08 3.7645574e-08 1.9538545e-08 2.462551e-08
9.40593e-09 1.7190846e-08 1.05200215e-07 1.0723056e-07 6.37928e-08 3.216256e-08 3.23443e-08 3.5247275e-08
6.632571e-08 0.0 5.5005668e-08 8.050051e-08 0.0 1.4959557e-09 1.2700953e-07 1.2698155e-07
0.0 1.4959557e-09 1.2700953e-07 1.2698155e-07 2.7544581e-06 1.2785104e-07 1.4347844e-06 2.7708645e-06
1.2773675e-07 1.4254107e-06 0.0 6.211869e-07 1.4244312e-06 1.5044502e-06 1.3748695e-07 1.0472183e-06
8.5987125e-07 8.959474e-07 3.1502886e-08 4.991514e-07 1.5144998e-06 1.5638734e-06 8.784241e-08 9.832683e-07
1.0252336e-06 1.050758e-06 1.3042204e-07 0.0 1.8991327e-06 1.9387594e-06 0.0 1.0889462e-07
1.947382e-06 1.9689535e-06 0.0 1.0889462e-07 1.947382e-06 1.9689535e-06 8.5607026e-05 2.020564e-06
3.3445536e-05 8.594555e-05 2.0333864e-06 3.333919e-05 0.0 3.9208956e-08 9.1324665e-08 1.0511335e-07
5.5405184e-08 4.9219306e-08 2.369926e-08 3.6204217e-08 4.475728e-08 1.9518131e-08 6.955016e-08 7.7815706e-08
1.3486728e-08 4.1551147e-08 7.841498e-08 8.093459e-08 4.7442114e-08 0.0 7.9090036e-08 8.8427186e-08
0.0 9.986334e-10 1.3065923e-07 1.3072098e-07 0.0 9.986334e-10 1.3065923e-07 1.3072098e-07
3.342917e-06 1.3094017e-07 1.5561781e-06 3.3541419e-06 1.3091278e-07 1.5560661e-06 0.0 4.6845946e-07
9.596104e-07 1.0635216e-06 1.6140022e-07 7.7716425e-07 4.857392e-07 5.087001e-07 8.918772e-09 3.399696e-07
1.0772446e-06 1.1137931e-06 1.4054396e-07 6.531126e-07 6.6653973e-07 6.8331565e-07 1.552462e-07 0.0
1.2556563e-06 1.3187314e-06 0.0 3.4784176e-08 1.406637e-06 1.4184535e-06 0.0 3.4784176e-08
1.406637e-06 1.4184535e-06 5.8719193e-05 1.4279248e-06 2.3665427e-05 5.896964e-05 1.4369008e-06 2.3632012e-05
0.0 2.3918478e-06 1.1384293e-06 1.5210497e-06 5.7310444e-08 2.5426962e-06 9.803596e-07 1.0210698e-06
2.3367827e-08 1.9306083e-06 1.5866685e-06 1.9073782e-06 5.2183015e-08 2.0617374e-06 1.6645614e-06 1.6894807e-06
5.99279e-08 0.0 3.4719742e-06 3.4738305e-06 0.0 3.4617244e-07 3.3772737e-06 3.3795532e-06
0.0 3.4617244e-07 3.3772737e-06 3.3795532e-06 0.0001624802 3.504057e-06 9.983025e-05 0.00016303014
3.5039582e-06 9.971671e-05 0.0 5.192682e-09 1.497766e-08 1.5674532e-08 8.256902e-09 5.5870326e-09
4.8400133e-09 6.047489e-09 2.1091804e-09 4.1400305e-09 1.616399e-08 1.5873031e-08 8.539693e-09 4.446472e-09
7.4346973e-09 8.015415e-09 9.502037e-09 0.0 9.437173e-09 1.2889202e-08 0.0 2.281885e-09
1.7216289e-08 1.7564087e-08 0.0 2.281885e-09 1.7216289e-08 1.7564087e-08 4.497137e-07 1.9911939e-08
2.823134e-07 4.5192175e-07 2.0208214e-08 2.790536e-07 0.0 4.981382e-06 1.3127955e-06 1.8732519e-06
2.3178742e-08 5.046462e-06 1.340187e-06 1.3834966e-06 5.1159508e-09 4.275297e-06 1.9961813e-06 2.413818e-06
1.7644707e-08 4.346198e-06 2.5660086e-06 2.5959018e-06 2.5845429e-08 0.0 5.9724234e-06 5.9690947e-06
0.0 1.0081021e-06 5.64832e-06 5.6253916e-06 0.0 1.0081021e-06 5.64832e-06 5.6253916e-06
0.00028138392 5.9796985e-06 0.0002174112 0.0002820452 5.979458e-06 0.0002173346 0.0 3.783087e-09
1.9080373e-08 2.0815454e-08 9.974692e-09 1.04643725e-08 2.7877463e-09 4.345494e-09 5.039568e-09 1.2451253e-09
1.631715e-08 1.7212617e-08 3.0277958e-09 1.0259325e-08 1.0220584e-08 1.0342905e-08 8.527082e-09 0.0
00000000: 0000 0000 d175 e632 a43a d833 d781 e333
00000010: 5c40 8a33 bfaf 2133 b7d5 a732 1288 d332
00000020: b897 2132 12ab 9332 6eea e133 a046 e633
00000030: 76fe 8833 1c23 0a33 efea 0a33 ca62 1733
00000040: f26e 8e33 0000 0000 5f3f 6c33 a0df ac33
00000050: 0000 0000 439a cd30 1d60 0834 6c58 0834
00000060: 0000 0000 439a cd30 1d60 0834 6c58 0834
00000070: 3bd9 3836 6d47 0934 d192 c035 17f3 3936
00000080: 0328 0934 bd50 bf35 0000 0000 a4bf 2635
00000090: 152f bf35 84ec c935 20a0 1334 268e 8c35
000000a0: e7d1 6635 0981 7035 ca4d 0733 6cfd 0535
000000b0: d145 cb35 48e6 d135 e0a3 bc33 d7f8 8335
000000c0: c29a 8935 c507 8d35 230a 0c34 0000 0000
000000d0: b4e5 fe35 a21b 0236 0000 0000 73d9 e933
000000e0: c5af 0236 5d22 0436 0000 0000 73d9 e933
000000f0: c5af 0236 5d22 0436 ec87 b338 0699 0736
00000100: df47 0c38 aa3d b438 5075 0836 afd5 0b38
00000110: 0000 0000 b466 2833 441e c433 adba e133
00000120: a5f6 6d33 3365 5333 3993 cb32 f57e 1b33
00000130: 263b 4033 d3a8 a732 9b5b 9533 a31b a733
00000140: 42b3 6732 f875 3233 1765 a833 43ce ad33
00000150: 28c3 4b33 0000 0000 35d8 a933 5ce5 bd33
00000160: 0000 0000 4a40 8930 564b 0c34 4f5c 0c34
00000170: 0000 0000 4a40 8930 564b 0c34 4f5c 0c34
00000180: e056 6036 8f98 0c34 dfdd d035 b817 6136
00000190: 0891 0c34 06da d035 0000 0000 9480 fb34
000001a0: f6cb 8035 53be 8e35 5b4d 2d34 529e 5035
000001b0: be63 0235 9b8d 0835 2d39 1932 1185 b634
000001c0: d895 9035 a47d 9535 6ee8 1634 8e51 2f35
000001d0: 43ec 3235 186d 3735 c0b1 2634 0000 0000
000001e0: 0688 a835 44ff b035 0000 0000 9b65 1533
000001f0: aecb bc35 b161 be35 0000 0000 9b65 1533
00000200: aecb bc35 b161 be35 4149 7638 1fa7 bf35
00000210: 1e85 c637 2b56 7738 89db c035 5c3d c637
00000220: 0000 0000 a283 2036 22cc 9835 df26 cc35
00000230: 8025 7633 30a3 2a36 e694 8335 b10b 8935
00000240: 65ba c832 998f 0136 84f5 d435 8200 0036
00000250: d51f 6033 615c 0a36 e569 df35 1dc2 e235
00000260: b6b1 8033 0000 0000 1000 6936 f41f 6936
00000270: 0000 0000 94d9 b934 1fa5 6236 48cc 6236
00000280: 0000 0000 94d9 b934 1fa5 6236 48cc 6236
00000290: 725f 2a39 3e27 6b36 f55b d138 12f3 2a39
000002a0: 8b25 6b36 001f d138 0000 0000 506b b231
000002b0: 39a8 8032 a9a4 8632 3dda 0d32 0ff8 bf31
000002c0: 354d a631 47ca cf31 18f1 1031 1840 8e31
000002d0: fdd8 8a32 2a59 8832 f8b5 1232 95c7 9831
000002e0: 4a74 ff31 2bb4 0932 673e 2332 0000 0000
000002f0: 2021 2232 4f6f 5d32 0000 0000 58cf 1c31
00000300: 05e3 9332 d6df 9632 0000 0000 58cf 1c31
00000310: 05e3 9332 d6df 9632 2e70 f134 d10a ab32
00000320: dc90 9734 a79f f234 5596 ad32 d6d0 9534
00000330: 0000 0000 bf25 a736 4f33 b035 726c fb35
00000340: 981a c732 c754 a936 7ae0 b335 95b0 b935
00000350: 61c8 af31 8674 8f36 22f6 0536 14fd 2136
00000360: 1f91 9732 8ed5 9136 b133 2c36 4135 2e36
00000370: b302 de32 0000 0000 ba66 c836 224a c836
00000380: 0000 0000 204e 8735 b386 bd36 bfc1 bc36
00000390: 0000 0000 204e 8735 b386 bd36 bfc1 bc36
000003a0: b686 9339 38a5 c836 e0f8 6339 77df 9339
000003b0: 27a3 c836 50e4 6339 0000 0000 63fc 8131
000003c0: 2fe6 a332 abcd b232 295d 2b32 ccc6 3332
000003d0: 8d92 3f31 5f4f 9531 8228 ad31 f420 ab30
000003e0: cb29 8c32 f2da 9332 8c11 5031 fd40 3032
000003f0: 9b96 2f32 94b0 3132 817e 1232 0000 0000

exp_avg f4 [128]
-1.9358045e-05 0.000195911 1.4394974e-05 0.00029970348 -0.00048269817 5.8209167e-05 -0.0007101391 2.3801658e-05
-0.00048792217 0.00015310715 -2.8232596e-05 4.598246e-07 -6.562969e-05 0.0016974594 4.4414614e-05 -7.9919286e-05
0.00048737746 -0.00013562449 -5.6407647e-05 2.00875e-05 -1.0486913e-05 -0.00041015857 -2.8348424e-05 0.00048546784
-5.312398e-05 -0.00038633926 -0.0005311575 -2.6590962e-05 1.468086e-05 2.59698e-05 -0.00011934429 0.0006653969
1.9529965e-05 5.4115524e-05 -0.00047430623 4.5967914e-05 -2.0408226e-05 -3.121708e-05 -0.00036151914 0.00047644094
2.5976303e-06 -0.00016421708 0.00065448903 8.663234e-06 0.0010354569 6.4205306e-05 0.0007701398 0.00015716716
3.4288187e-05 -0.00023725088 -0.00034531657 -1.1968489e-06 -0.00011943925 -1.1477061e-05 0.00029431944 -0.00016616493
-5.2122574e-05 -1.549012e-05 0.0003596063 2.9050884e-06 -0.0004166965 -0.00019992131 9.114755e-05 -0.0006592491
7.5803246e-06 0.00017639603 -9.691696e-06 0.00010299023 1.5800615e-05 -0.00045924098 -3.5889698e-05 -9.011742e-05
1.2921009e-06 -9.674626e-06 -0.00023979387 9.552144e-05 1.0003323e-05 0.000102662896 -0.00031888156 0.00017873448
0.000751351 0.00016245007 -9.13185e-07 -7.900802e-06 -4.1660278e-05 0.00021564493 -4.332139e-05 -0.00012526818
3.1947588e-05 1.3912264e-05 -9.99448e-06 0.000121508725 -0.0006526008 4.9067385e-05 -0.00029933796 -0.00019393851
-0.0010057979 5.229278e-06 0.000118602475 -0.00018423838 -1.365105e-05 -0.00015421525 -0.00027238717 0.000110208384
-6.845359e-06 -3.131552e-05 6.837755e-05 -3.725018e-05 0.0006329061 -0.00018215633 -0.0002169366 -4.090502e-06
-1.838617e-05 -0.00017889516 -2.9935132e-05 -0.00051111594 3.612014e-05 4.06361e-05 -2.9465678e-05 -2.416602e-05
-0.00073703274 -9.495453e-05 0.000344772 -0.00023896672 -0.0002042693 0.00015407139 -8.067823e-05 0.00076544896
00000000: 1663 a2b7 756d 4d39 f181 7137 8521 9d39
00000010: a712 fdb9 9e25 7438 a128 3aba aca9 c737
00000020: cecf ffb9 638b 2039 0ad5 ecb7 d0dd f634
00000030: aca2 89b8 497d de3a d449 3a38 579a a7b8
00000040: b286 ff39 6c36 0eb9 4097 6cb8 9481 a837
00000050: f3f0 2fb7 8d0a d7b9 c7cd edb7 6486 fe39
00000060: 70d1 5eb8 948d cab9 603d 0bba a80f dfb7
00000070: d04d 7637 b9d9 d937 7a48 fab8 086e 2e3a
00000080: 48d4 a337 1afa 6238 4eac f8b9 accd 4038
00000090: 5532 abb7 16ef 02b8 478a bdb9 d2ca f939
000000a0: f352 2e36 b031 2cb9 0492 2b3a 4f58 1137
000000b0: 2bb8 873a f6a5 8638 35e3 493a 3dcd 2439
000000c0: a9d0 0f38 8cc6 78b9 9b0b b5b9 6aa3 a0b5
000000d0: 767b fab8 9a8d 40b7 e34e 9a39 8f3c 2eb9
000000e0: 309e 5ab8 c8f0 81b7 8a89 bc39 0af5 4236
000000f0: 0f78 dab9 f8a1 51b9 7826 bf38 75d1 2cba
00000100: 7e5a fe36 f3f6 3839 8499 22b7 75fc d738
00000110: 908b 8437 48c6 f0b9 4588 16b8 6cfd bcb8
00000120: 406c ad35 3450 22b7 2d71 7bb9 af52 c838
00000130: f2d3 2737 b94c d738 8f2f a7b9 ac6a 3b39
00000140: 50f6 443a 5c57 2a39 9821 75b5 b08d 04b7
00000150: 62bc 2eb8 bf1e 6239 fdb3 35b8 6c5a 03b9
00000160: 76ff 0538 b868 6937 f7ad 27b7 80d2 fe38
00000170: 4c13 2bba b4cd 4d38 76f0 9cb9 f95b 4bb9
00000180: fad4 83ba 2877 af36 38ba f838 1d30 41b9
00000190: d006 65b7 d7b4 21b9 30cf 8eb9 ad1f e738
000001a0: 30b1 e5b6 c958 03b8 eb65 8f38 143d 1cb8
000001b0: 9ce9 253a 3801 3fb9 7a79 63b9 2541 89b6
000001c0: 003c 9ab7 ce95 3bb9 351d fbb7 69fc 05ba
000001d0: b47f 1738 ae70 2a38 102d f7b7 22b8 cab7
000001e0: 6e35 41ba 5322 c7b8 84c2 b439 2493 7ab9
000001f0: 1f31 56b9 398e 2139 cb31 a9b8 69a8 483a

exp_avg_sq f4 [128]
1.2772307e-07 2.0328625e-06 1.3089763e-07 1.4365413e-06 3.503465e-06 2.0205489e-08 5.978859e-06 2.2719021e-08
8.320329e-06 5.725994e-06 6.236211e-07 1.8196673e-08 1.4779278e-07 4.2281743e-05 3.5585919e-07 6.683794e-08
6.384692e-06 3.710281e-07 6.1243185e-07 6.4373618e-09 7.607805e-09 3.5421572e-06 8.3447327e-07 1.5758188e-06
3.744044e-08 7.068731e-06 1.0812241e-05 2.4741508e-08 4.007285e-06 1.2800716e-07 9.335226e-07 3.6975007e-06
8.794014e-07 2.1824438e-07 1.570325e-05 2.48339e-08 4.5557502e-07 5.3595824e-07 3.1290797e-06 1.1657732e-05
4.7881956e-09 3.4300751e-06 7.909107e-06 1.1109534e-08 1.7137103e-05 1.8526106e-06 7.861254e-06 6.4931083e-07
3.6302268e-08 4.2661404e-06 5.797772e-07 4.0815216e-08 8.7522324e-08 2.4757412e-08 4.3884115e-06 8.095078e-06
7.2628595e-08 1.8609523e-08 5.817636e-06 1.6278193e-08 2.0869072e-06 2.960787e-06 7.485898e-07 1.6832992e-05
7.1859136e-09 1.832641e-06 6.225145e-09 2.082077e-06 1.6770704e-08 9.122383e-06 6.6279796e-08 3.2042027e-07
2.3275243e-05 9.746148e-08 1.649387e-05 1.383869e-07 5.636638e-06 2.890733e-07 3.4262202e-06 4.042658e-07
1.1387196e-05 6.6772877e-06 4.5863747e-08 8.0137966e-07 5.110635e-08 1.2456275e-07 3.3291006e-08 9.546602e-06
1.9110122e-07 2.470637e-06 6.9818524e-09 3.6371733e-07 5.3579924e-06 1.881119e-07 1.6781667e-05 3.4504212e-06
8.34039e-06 3.9221613e-06 2.1031603e-06 1.7389592e-06 1.6686469e-06 9.283116e-06 2.2749248e-06 2.8769286e-08
2.0109456e-07 9.383617e-08 2.7174414e-07 1.1881509e-06 7.781094e-06 4.0869557e-07 4.850493e-06 8.286879e-07
5.3265003e-06 7.4143946e-07 9.020085e-07 3.350185e-06 2.0094815e-06 1.9460371e-07 3.2340775e-08 4.5296215e-06
8.829142e-06 7.889619e-06 3.1342765e-07 9.590126e-06 4.7629333e-06 4.2404818e-06 1.1498788e-06 1.0183623e-05
00000000: 4024 0934 506c 0836 de8c 0c34 2fcf c035
00000010: 121d 6b36 5790 ad32 029e c836 a827 c332
00000020: 8a97 0b37 ea21 c036 ea66 2735 e84e 9c32
00000030: f8b0 1e34 ad57 3138 ea0c bf34 8c88 8f33
00000040: 163c d636 b731 c734 ff65 2435 a22f dd31
00000050: 7bb3 0232 ccb5 6d36 9100 6035 b980 d335
00000060: 33ce 2033 f02f ed36 3966 3537 2787 d432
00000070: 5176 8636 5772 0934 2f97 7a35 9422 7836
00000080: 0110 6c35 8f56 6a34 79ba 8337 5352 d532
00000090: c195 f434 c5de 0f35 2efd 5136 9495 4337
000000a0: 6a85 a431 3e30 6636 5bb1 0437 3fdc 3e32
000000b0: a6c1 8f37 37a7 f835 d4e3 0337 4d4c 2e35
000000c0: c4ea 1b33 de25 8f36 fca1 1b35 ce4c 2f33
000000d0: e8f3 bb33 20aa d432 2b40 9336 18d0 0737
000000e0: fef7 9b33 c6da 9f32 1d35 c336 20d4 8b32
000000f0: cb0c 0c36 efb1 4636 b3f2 4835 9334 8d37
00000100: f7e7 f631 11f9 f535 f4e4 d531 cfb9 0b36
00000110: 2b0f 9032 560c 1937 b455 8e33 3a06 ac34
00000120: 343f c337 044c d133 515c 8a37 8097 1434
00000130: 5a22 bd36 ef31 9b34 04ee 6536 de09 d934
00000140: a20b 3f37 770d e036 b9fb 4433 641e 5735
00000150: 0780 5b33 8cbf 0534 d9fb 0e33 582a 2037
00000160: 8131 4d34 38cd 2536 06e5 ef31 ee44 c334
00000170: cec8 b336 cefb 4934 5bc6 8c37 c98d 6736
00000180: b4ed 0b37 1c9b 8336 0524 0d36 2f66 e935
00000190: 45f6 df35 aebe 1b37 e9aa 1836 5420 f732
000001a0: 74ec 5734 fb82 c933 3be4 9134 8e78 9f35
000001b0: 8b8b 0237 b16a db34 6bc1 a236 0073 5e35
000001c0: 4aba b236 5507 4735 8d21 7235 bdd3 6036
000001d0: a1da 0636 43f4 5034 0fe7 0a33 27fd 9736
000001e0: e020 1437 a85d 0437 2b45 a834 47e5 2037
000001f0: 49d1 9f36 7649 8e36 8955 9a35 54da 2a37
