results/test_environment/VacuumCleaner/VacuumCleaner-9728.onnx (onnx, 227638 bytes, 7 tensors)

network_body._body_endoder.seq_layers.0.weight f4 [128, 309]
0	0xbe3408fe	-0.17581555
1	0x3d6e8ced	0.058239866
2	0xbd4a1f78	-0.049346417
3	0xbecc0dee	-0.39854378
4	0x3d883fe5	0.06652812
5	0xbc117c3b	-0.0088797165
6	0xbc089c8a	-0.008338103
7	0x3df03ffa	0.117309526
8	0xbb80c781	-0.0039300327
9	0xbdbcfc05	-0.092277564
10	0xbd816230	-0.06317556
11	0x3dea6f09	0.114469595
12	0xbe7438f7	-0.23849855
13	0x3e071d44	0.13194758
14	0xbca6b7b9	-0.020351278
15	0x3cfeb498	0.031091973
16	0xbd930c62	-0.07180096
17	0x3c864819	0.0163918
18	0xbe39916f	-0.18121885
19	0x3db4eac2	0.08833839
20	0x3dea798f	0.11448967
21	0x3dd9b096	0.10629384
22	0xbc2c627b	-0.010521526
23	0xbd2f56e1	-0.042807464
24	0xbdeb7a99	-0.11497993
25	0x3e09a210	0.13440728
26	0xbd250768	-0.040290266
27	0x3d998b15	0.07497231
28	0xbc1e0b20	-0.009646207
29	0x3cf0365f	0.029322801
30	0xbd6fabdc	-0.058513507
31	0xbd8c5dc2	-0.068538204
32	0x3cb72bf7	0.022359831
33	0x3d0678f3	0.03283019
34	0xbd0e5b08	-0.034754783
35	0xbcfce478	-0.030870661
36	0xbe9110bf	-0.2833309
37	0x3b9aa65b	0.004719538
38	0x3cc5242e	0.024065103
39	0x3d97f097	0.07418936
40	0x3c5e516b	0.013569216
41	0x3c655cd8	0.013999186
42	0xbeb7360e	-0.35783428
43	0x3d3045f0	0.043035448
44	0x3cbb8353	0.022889769
45	0xbcc01cb6	-0.02345119
46	0xbd0fd84f	-0.035118397
47	0xbc78b69d	-0.015180257
48	0xbe87fc7c	-0.26559818
49	0x3deb1842	0.11479236
50	0x3d93f3f4	0.07224265
51	0xbe1819a3	-0.1485353
52	0x3c6be741	0.014398397
53	0x3dd9ea33	0.10640373
54	0xbda047b7	-0.078261785
55	0x3d872448	0.06598717
56	0x3d2d69f5	0.042337377
57	0xbd571693	-0.052511763
58	0xbcac2576	-0.021013957
59	0xbdc68219	-0.09692783
60	0xbe6386b0	-0.22219348
61	0xbd2371f6	-0.039903603
62	0x3c8454fc	0.016153805
63	0x3dea35ee	0.114360675
64	0xbd5c55cc	-0.05379276
65	0xbc779695	-0.015111585
66	0xbe24685e	-0.16055438
67	0x3d7deaa4	0.06199135
68	0x3c8705cd	0.016482258
69	0x3d88f08c	0.06686506
70	0xbb9335ce	-0.004492498
71	0x3dad9dd4	0.08477369
72	0xbe07e839	-0.1327218
73	0xbcfc3648	-0.030787602
74	0x3cf9c3f2	0.030488942
75	0x3d702382	0.058627613
76	0xbcc41515	-0.023935834
77	0xbd6c2ad1	-0.05765802
78	0xbd66d51d	-0.056355584
79	0x3d81809c	0.063233584
80	0x3d2c82f0	0.04211706
81	0x3c8b2fa7	0.016990496
82	0x3c2b4c8d	0.010455263
83	0xbc8367b3	-0.016040659
84	0xbe0530df	-0.13006924
85	0x3d7da216	0.061922155
86	0x3cd2aa03	0.025715834
87	0x3e33ae27	0.17546903
88	0xbc0633c0	-0.008191049
89	0xbd0ba6c2	-0.03409458
90	0xbd8beb4c	-0.06831989
91	0xbcafb71a	-0.021449614
92	0xbd632e26	-0.055463932
93	0x3cd02bac	0.02541145
94	0x3c077dc7	0.008269734
95	0x3d634fed	0.055496145
96	0xbd956a15	-0.07295624
97	0x3da3db6c	0.08000836
98	0x3d9eeab9	0.077596135
99	0x3dc5dcda	0.09661265
100	0xbd92b8fb	-0.071641885
101	0x3ce4b038	0.027916059
102	0xbdb87ae2	-0.09007813
103	0x3d395bc6	0.045253538
104	0xbd5a1191	-0.05323941
105	0x3df02fe7	0.11727887
106	0xbd942335	-0.07233278
107	0xbc34ef15	-0.01104333
108	0xbcbf108f	-0.023323325
109	0x3c8c20ec	0.017105542
110	0xbccb092f	-0.024784653
111	0x3df0a579	0.117503114
112	0xbd4ccb06	-0.049998306
113	0xbd3376f5	-0.04381462
114	0x3d7e63f9	0.06210706
115	0xbc09270e	-0.008371128
116	0xbd46535b	-0.048419338
117	0x3e4fac0a	0.20280471
118	0x3d487bb1	0.048946086
119	0xbde3dc0d	-0.11125956
120	0xbd870758	-0.065931976
121	0xbd586a4b	-0.052835744
122	0x3c859b5b	0.01630943
123	0x3dacd2b9	0.0843863
124	0xbd61085a	-0.054939605
125	0x3cdb7a66	0.026791763
126	0x3deeb9bb	0.11656519
127	0xbd4be73c	-0.04978107
128	0xbd7846b0	-0.060614288
129	0x3e0afa76	0.13572106
130	0xbd9d71dd	-0.07687733
131	0xbde34582	-0.11097242
132	0x3dee38cd	0.11631928
133	0xbe5ea014	-0.21740752
134	0x3b9e00a8	0.0048218556
135	0x3c7e668a	0.015527377
136	0xba2b304e	-0.000653033
137	0xbd8e6b53	-0.06954064
138	0x3dff2987	0.124590926
139	0xbc9134ce	-0.017725375
140	0xbd439c2d	-0.047756363
141	0x3d0c50dd	0.034256805
142	0xbd3d3dbc	-0.046201453
143	0xbe0689ec	-0.1313855
144	0x3d957b82	0.07298948
145	0x3cbb9a8b	0.02290084
146	0x3c7eec52	0.015559273
147	0x3e315485	0.17317398
148	0xbde09414	-0.10965744
149	0x3d15911e	0.036515348
150	0xbc70a223	-0.014687094
151	0xbd5e9304	-0.054339424
152	0x3d7c293d	0.061562765
153	0x3c5944f9	0.013261073
154	0xbc1875ce	-0.009305431
155	0x3d8a3912	0.067491665
156	0x3c7247f2	0.014787661
157	0xbe2b73cd	-0.16743393
158	0xbdb26e0a	-0.087123945
159	0x3d556626	0.05209937
160	0x3cfdbb38	0.030973062
161	0xbc426e97	-0.011867187
162	0x3da5d03d	0.08096359
163	0x3ca64f30	0.020301431
164	0xbd5845b1	-0.052800838
165	0x3e167c50	0.14695859
166	0xbd68dff1	-0.056854192
167	0x3d4d0384	0.05005218
168	0x3d7e84d4	0.062138394
169	0xbce7382d	-0.028225029
170	0xbb4b3765	-0.003100836
171	0x3d9b8a38	0.075947225
172	0xbce04870	-0.02737829
173	0x3ce1d290	0.027566224
174	0x3da5339c	0.08066484
175	0xbdf4f426	-0.1196063
176	0x3cacf3f8	0.021112427
177	0x3cd31e0f	0.025771169
178	0xbdb42907	-0.08796888
179	0xbd1c6ecb	-0.038191598
180	0x3daf7f4a	0.085692
181	0xbe58f62e	-0.2118766
182	0xbdc164f9	-0.09443087
183	0xbe6bbf3e	-0.23022172
184	0x3e29dc7c	0.16588014
185	0x3b53d19e	0.0032320987
186	0x3d8049cc	0.06264076
187	0xbe1da7b8	-0.15396011
188	0xbdd404e9	-0.10352499
189	0xbdea468b	-0.11439236
190	0xbd1e407d	-0.03863572
191	0x3d505088	0.05085805
192	0x3dcc532b	0.099768005
193	0xbda329e6	-0.07966976
194	0xbe0c1505	-0.13679893
195	0xbe573ce2	-0.21019319
196	0xbd26a997	-0.040689077
197	0x3dbacb1c	0.09120771
198	0xbd02b8c6	-0.031914495
199	0xbdc66787	-0.09687715
200	0xbda67734	-0.08128205
201	0x3de7a233	0.11310234
202	0xbc5e42ad	-0.013565701
203	0x3da3e625	0.08002881
204	0x3e1581ed	0.14600344
205	0xbd312bd8	-0.043254703
206	0xbe369f61	-0.17834236
207	0xbd6836d9	-0.05669293
208	0xbdbca596	-0.092112705
209	0x3cdc221a	0.02687173
210	0x3dc6ccd0	0.09707034
211	0x3d082111	0.03323466
212	0xbd60d5ae	-0.05489128
213	0x3db88547	0.09009796
214	0xbd3f6ef5	-0.046736676
215	0xbd8cf407	-0.06882482
216	0x3e23a7e7	0.15982018
217	0xbdd1f614	-0.10252014
218	0xbe1643a4	-0.1467424
219	0xbba4a2b7	-0.00502428
220	0x3c0b86a1	0.008515985
221	0x3cd45115	0.02591757
222	0x3dc4ec47	0.09615379
223	0x3cd96f9f	0.026542483
224	0xbc969378	-0.018380865
225	0xbe1af940	-0.15134144
226	0xbdc6c79f	-0.097060435
227	0xbc2ec507	-0.010667092
228	0x3a97fb6f	0.0011595319
229	0xbdfcb6c7	-0.123395495
230	0xbe077c87	-0.13231097
231	0x3d988403	0.07447054
232	0x3da27b68	0.07933694
233	0xbcd66000	-0.026168823
234	0x3dfb19c4	0.12260774
235	0xbc0a0a1b	-0.008425261
236	0xbdea60f4	-0.114442736
237	0x3c8a8a85	0.016911754
238	0xbc95db72	-0.018293116
239	0xbc812c6c	-0.015768252
240	0x3dd92eae	0.106046066
241	0xbd3e2429	-0.046421204
242	0x3d9afff3	0.0756835
243	0x3d457616	0.04820832
244	0x3d941305	0.0723019
245	0x3cd5e1dc	0.026108675
246	0x3ddef543	0.10886624
247	0xbe2139c0	-0.15744686
248	0xbd15fbcf	-0.036617097
249	0x3d9b6ce8	0.075891316
250	0x3bb5fd78	0.0055538975
251	0x3da11c6d	0.0786675
252	0x3e3b2c54	0.18278629
253	0xbe3c3fa3	-0.1838365
254	0xbe2d3110	-0.16913247
255	0x3d61f981	0.055169586

network_body._body_endoder.seq_layers.0.bias f4 [128]
0	0x39baa210	0.0003559743
1	0xbb95375a	-0.0045537176
2	0xb9608afd	-0.00021414082
3	0xbc1d9f85	-0.009620552
4	0x3b773b74	0.0037724646
5	0x3bfb02ee	0.0076602614
6	0x3b6e5e99	0.0036372303
7	0xbb151130	-0.002274584
8	0xbba31270	-0.004976563
9	0x3c399cf7	0.011328927
10	0x3c5b778a	0.0133952
11	0x3c337481	0.01095307
12	0xbcfb8d28	-0.030706957
13	0x3cc95411	0.024576219
14	0xbbdd9966	-0.0067626713
15	0x3c23a8ee	0.009989006
16	0x3a0889b6	0.0005208509
17	0xbb901b9c	-0.0043978225
18	0x398add30	0.0002648621
19	0xbb8e1c8f	-0.0043369005
20	0x3bb4135d	0.0054954723
21	0x3ac7a491	0.001523154
22	0xbc0a19bd	-0.008428988
23	0x3bcad59d	0.0061900155
24	0xb91fb91d	-0.00015232382
25	0xbba8dc12	-0.0051531876
26	0x3b9696d3	0.0045956164
27	0xbc11e7db	-0.008905376
28	0xbc10ec57	-0.00884541
29	0x3c72c626	0.01481775
30	0xba2001ce	-0.00061037845
31	0xbbda82b2	-0.006668412
32	0xbbd8d564	-0.006617235
33	0xbaaf0077	-0.0013351579
34	0xbc1199c2	-0.008886756
35	0xbb163554	-0.002291997
36	0xbc53599a	-0.012899781
37	0xbc3cbe12	-0.011519926
38	0xbc2928a9	-0.010324636
39	0xbc702a91	-0.014658586
40	0x3b3564ed	0.0027678565
41	0xbbd94f59	-0.0066317734
42	0xbaf76568	-0.0018874826
43	0xbc5559b9	-0.01302188
44	0xbb9d3a7d	-0.004798232
45	0xbbb5fb5d	-0.0055536465
46	0x3b3fedf4	0.0029286118
47	0x3b9954c0	0.0046792924
48	0x3c3b7977	0.011442534
49	0xb9c2421b	-0.00037051816
50	0xba89cbc8	-0.0010513002
51	0xbbac0a2f	-0.0052502374
52	0xba4eeb9d	-0.00078933855
53	0xbbe970f7	-0.007124062
54	0xbc17d821	-0.009267838
55	0xbb65aa2f	-0.0035044064
56	0xbbc55c05	-0.0060229325
57	0xbc13094c	-0.0089743845
58	0x3b24ffb4	0.0025176825
59	0xbcb22ac7	-0.021748913
60	0xbbc4e4c5	-0.0060087168
61	0xbc47af36	-0.01218777
62	0x3c20d3ea	0.009816149
63	0xbb68e90b	-0.0035539295
64	0xbbde000c	-0.006774908
65	0xba7718ef	-0.00094260176
66	0x3b44b729	0.0030016399
67	0xbb662430	-0.0035116784
68	0xbc024577	-0.007951132
69	0x3afcc74b	0.0019285468
70	0xbbd4e540	-0.0064970553
71	0x3b10b38a	0.002207967
72	0xbba92fb9	-0.0051631597
73	0xbcb66949	-0.022267
74	0xbba79269	-0.005113889
75	0x3ae3f6da	0.0017392293
76	0xbb91a09a	-0.004444194
77	0xba08c6dd	-0.0005217621
78	0xbba2af6e	-0.0049647605
79	0xbad74f20	-0.0016426779
80	0xbb6b71a2	-0.0035925885
81	0x3b95f362	0.0045761326
82	0xb8af8992	-8.370275e-05
83	0xba044f9c	-0.0005047263
84	0xbbadd904	-0.0053054113
85	0xbad1a808	-0.0015995512
86	0x3c544dee	0.012958033
87	0xbc34d479	-0.011036986
88	0x3ac9178f	0.0015342104
89	0x3b70af3d	0.0036725544
90	0xbb047a26	-0.0020214408
91	0x3a5d8c2d	0.0008451369
92	0xbb909be3	-0.0044131144
93	0xbc2ad053	-0.010425645
94	0xbc5eaf26	-0.013591563
95	0xbb6ccbd2	-0.0036132229
96	0xbc20c0c0	-0.00981158
97	0xbc194dc1	-0.009356917
98	0x3654a790	3.1687996e-06
99	0x3ba1aca0	0.0049339086
100	0x3b8ac7dc	0.004235251
101	0xb8f47348	-0.000116562995
102	0x3bf43aa1	0.007453278
103	0x3aac8ee2	0.0013165141
104	0xbbdbb377	-0.0067047435
105	0xbbc5b45c	-0.0060334634
106	0x3c172d22	0.009227069
107	0x3ab765f8	0.0013992181
108	0x3c073054	0.008251268
109	0x3be190a6	0.0068836985
110	0x3b8f810e	0.004379398
111	0xbb85631f	-0.004070654
112	0x3c5d8adb	0.013521875
113	0xbb0b724d	-0.0021277845
114	0xbc81effd	-0.015861506
115	0x3c19ff07	0.009399182
116	0xbaa25ec1	-0.0012387858
117	0xbb263460	-0.0025360808
118	0x3c1cbc9a	0.0095664505
119	0x3afb8da6	0.0019191995
120	0xbb42a0bb	-0.0029697854
121	0xbb379afa	-0.0028015957
122	0xbc10c28a	-0.008835444
123	0xbc58c5c8	-0.0132307485
124	0xbc0052e1	-0.00783226
125	0x3bcd6825	0.0062685185
126	0xbb1287f2	-0.0022358862
127	0x3ae4ae41	0.0017446951

network_body._body_endoder.seq_layers.2.weight f4 [128, 128]
0	0xbd97ea1c	-0.074177
1	0x3c32a423	0.010903391
2	0x3c29f54d	0.010373426
3	0xbd50259c	-0.050817117
4	0xbe177054	-0.14788944
5	0xbd67f540	-0.056630373
6	0x3dbba902	0.09163095
7	0x3d206df8	0.039167374
8	0x3ba267bd	0.004956214
9	0x3ab64981	0.0013907404
10	0xbde3ca11	-0.111225255
11	0x3dfd864e	0.12379132
12	0xbd61553b	-0.055012923
13	0x3da21909	0.07914931
14	0x3d40517f	0.04695272
15	0xbe4982ce	-0.19678804
16	0x3dfec4d1	0.124398835
17	0x3b8e1f33	0.0043372153
18	0x3dbfdf94	0.09368816
19	0x3d42bc6c	0.047542974
20	0x3dadec77	0.08492368
21	0xbd81437f	-0.06311702
22	0x3e3669f0	0.1781385
23	0x3d07107f	0.032974716
24	0xbe233eb0	-0.15941882
25	0x3c96e353	0.018418944
26	0xbdba4b93	-0.09096446
27	0x3dd53fc9	0.10412557
28	0x3d465152	0.048417397
29	0x3db6c0b9	0.08923478
30	0x3c18f681	0.009336115
31	0x3e28db06	0.16489801
32	0x3e1dafcd	0.15399094
33	0x3dc2145e	0.09476541
34	0xbd3dfd3a	-0.046384074
35	0x3b6d1dcd	0.0036181093
36	0xbdad4c4c	-0.08461818
37	0x39bbe952	0.00035841257
38	0x3cdfc570	0.027315825
39	0x3e5de9ca	0.21671215
40	0xbc9fe6ff	-0.019519327
41	0x3d1fdc02	0.039028175
42	0x3d3590ac	0.044327423
43	0xbc83546d	-0.016031468
44	0x3d0aa09b	0.03384457
45	0xbd340d57	-0.043958034
46	0x3dc8ebed	0.09810624
47	0xbe08763e	-0.13326356
48	0xbd109ac8	-0.03530386
49	0x3c28f694	0.010312695
50	0x3df13fdb	0.117797576
51	0x3d50807c	0.050903782
52	0xbe0c723f	-0.13715456
53	0xbd9d9eef	-0.0769633
54	0xbd9e3bea	-0.077262715
55	0xbe20ed52	-0.1571553
56	0x3dc8cb00	0.09804344
57	0xbd5fafdc	-0.054611072
58	0x3dc27b0e	0.09496127
59	0xbe218c62	-0.15776208
60	0xbdb2c5f2	-0.08729161
61	0x3d0b03e5	0.03393926
62	0xbe0ca98a	-0.13736549
63	0x3d694467	0.05695
64	0xbd6c6763	-0.057715785
65	0x3e2e4781	0.17019464
66	0x3c696628	0.014245547
67	0x3a77dc5b	0.0009455138
68	0xbd705cb4	-0.05868216
69	0xbe164702	-0.14675525
70	0x3d34ad5f	0.044110652
71	0xbe802030	-0.25024557
72	0x3e23204d	0.1593029
73	0x3e30838b	0.1723768
74	0x3c8f1b23	0.017468994
75	0xbe2a4e91	-0.16631533
76	0xbcfafb70	-0.030637473
77	0xbdb80966	-0.089861676
78	0x3ea08844	0.31353962
79	0xbe4acd1d	-0.19804807
80	0xbe5d6f83	-0.2162457
81	0xbc9d5001	-0.019203188
82	0xbde8cc31	-0.113670714
83	0x3c9690d9	0.018379616
84	0xbc63daa4	-0.013907108
85	0xbe8e7ac3	-0.27828035
86	0x3c737906	0.014860397
87	0x3e15099d	0.14554448
88	0x3dff5a89	0.1246844
89	0x3d44dbe5	0.04806127
90	0x3d04e60e	0.03244596
91	0x3ce8a13d	0.028397197
92	0xbb1626ed	-0.0022911385
93	0xbc44eba0	-0.012019068
94	0x3dd20463	0.10254743
95	0xbd4cfed4	-0.05004771
96	0xbdd354b4	-0.1031889
97	0xbd460b6e	-0.048350744
98	0xbc963e0a	-0.01834013
99	0x3db49172	0.08816804
100	0xbe0498d1	-0.1294892
101	0xbe34800c	-0.17626971
102	0x3c46e8c6	0.012140458
103	0xbe39831e	-0.18116423
104	0x3df2c74f	0.11854421
105	0xbd9ea1a8	-0.07745677
106	0xbdd0cf15	-0.10195748
107	0xbdcb2980	-0.09920025
108	0xbd30af39	-0.043135855
109	0x3dcee525	0.101022996
110	0xbdc79578	-0.09745306
111	0x3b0af326	0.0021202057
112	0xbe81e634	-0.25370944
113	0xbce814cf	-0.028330235
114	0xbc8cb8b3	-0.017177915
115	0xbdf97f19	-0.12182445
116	0x3d63fe06	0.055662178
117	0xbe2b9ea8	-0.16759741
118	0x3e960683	0.29301843
119	0xbcd4ba9e	-0.025967892
120	0x3e26cb96	0.162886
121	0x3c285494	0.010274071
122	0xbda0505a	-0.07827826
123	0x3cfddf32	0.030990217
124	0xbe140d91	-0.144583
125	0xbe05f499	-0.13081588
126	0xbd2d841d	-0.04236232
127	0xbdcf8db4	-0.101344496
128	0x3dae7f50	0.08520377
129	0x3df51a61	0.11967922
130	0x3df1fb86	0.118155524
131	0x3d2d3be5	0.042293448
132	0xbdb18eab	-0.0866979
133	0xbddbfb3f	-0.10741281
134	0x3ddd73fe	0.108131394
135	0x3bc96051	0.006145515
136	0x3dbd1183	0.09231856
137	0x3d3f05ea	0.0466365
138	0xbc9f544e	-0.01944938
139	0x3c86a7a6	0.016437363
140	0x3d43eca4	0.0478331
141	0xbc6040c8	-0.01368732
142	0x3cadf71b	0.021235993
143	0x3d87a544	0.06623319
144	0xbd151437	-0.03639623
145	0xbdf0a646	-0.11750464
146	0x3e2f8fa4	0.17144638
147	0x3dec411d	0.11535857
148	0xbcafcb9f	-0.021459399
149	0xbcd646ab	-0.026156744
150	0xbc1e8454	-0.009675104
151	0x3d5c1ce2	0.053738482
152	0x3ce93f25	0.028472492
153	0xbddbd0ba	-0.10733171
154	0x3d7e375e	0.06206452
155	0x3ca7c93e	0.020481702
156	0x3d0bd8ae	0.03414219
157	0x3d08811f	0.033326264
158	0x3d3630f3	0.044480275
159	0xbd0bfa79	-0.034174416
160	0x3c734e3f	0.014850198
161	0xbddcb240	-0.10776186
162	0xbdedc970	-0.11610687
163	0xbde7cef1	-0.11318768
164	0x3da2d184	0.07950118
165	0xbda167e3	-0.07881143
166	0xbd4da633	-0.050207328
167	0xbdb76864	-0.08955458
168	0x3b90b9f6	0.0044166995
169	0x3e431a8a	0.19053093
170	0xbd55b49e	-0.052174203
171	0x3bff8777	0.007798131
172	0x3bdb1136	0.0066854013
173	0x3e280abc	0.16410345
174	0x3de4e24d	0.11175976
175	0x3dcf01ef	0.10107791
176	0xbc77e0d1	-0.015129284
177	0x3d302c0a	0.04301075
178	0x3d470f5e	0.04859864
179	0xbcbcdb44	-0.023053773
180	0xbd524fe3	-0.051345717
181	0xb9ac8ecb	-0.00032912786
182	0xbe2c727d	-0.16840549
183	0xbda8fe52	-0.08251633
184	0xbcf6bcc8	-0.030119315
185	0xbdcbcc80	-0.09951115
186	0x3dc8bc8d	0.09801588
187	0x3dda4e9c	0.10659525
188	0xbe3b05fc	-0.18264002
189	0xbce9d041	-0.028541686
190	0xbe326afe	-0.17423627
191	0xbdffaf6c	-0.12484631
192	0x3d58b956	0.052911125
193	0xbd0d29bc	-0.03446363
194	0xbd8a9d1c	-0.067682475
195	0xbcd68538	-0.02618657
196	0x3d627bcc	0.055293843
197	0x3d3d66cf	0.046240624
198	0x3d2c9002	0.042129524
199	0xbda61694	-0.08109775
200	0xbd8685dc	-0.065685004
201	0xbd854cc3	-0.06508782
202	0xbb251f17	-0.0025195533
203	0xbde30be6	-0.11086254
204	0x3df5fa9f	0.12010693
205	0xbd202a4d	-0.03910284
206	0xbd3938cb	-0.045220178
207	0x3c523c3f	0.012831747
208	0x3cd0ba51	0.025479468
209	0xbdbb911a	-0.09158535
210	0x3d8de0a7	0.06927615
211	0x3dcb0db1	0.09914721
212	0x3e803f15	0.25048128
213	0x3d85bcbd	0.065301396
214	0xbe38ca27	-0.18045865
215	0x3a7a25ef	0.0009542396
216	0xbc2f0bfc	-0.01068401
217	0x3cd07295	0.025445262
218	0x3da7e08c	0.08197126
219	0xbe55343a	-0.20820704
220	0xbdad4a7c	-0.084614724
221	0x3ddf3f19	0.10900707
222	0xbda48573	-0.08033266
223	0xbd154692	-0.036444254
224	0xbcec2d9f	-0.028830348
225	0x3da2c82b	0.07948335
226	0xbd802206	-0.062564895
227	0x3df1b6bd	0.11802433
228	0xbe82984f	-0.25506827
229	0x3da44bda	0.0802228
230	0xbd48523e	-0.048906557
231	0x3e2079dc	0.15671486
232	0xbd917f2e	-0.07104336
233	0xbe2bcb9d	-0.16776891
234	0x39aedc18	0.0003335185
235	0xbb8ecff4	-0.004358286
236	0xbd52b73c	-0.051444277
237	0x3db2d984	0.08732894
238	0x3d2bfda9	0.041989956
239	0x3d0169f8	0.0315952
240	0x3ce485ff	0.027895926
241	0x3d2960c5	0.041352052
242	0xbc2ce63c	-0.010552939
243	0xbd6927ed	-0.05692284
244	0x3d9a4271	0.07532204
245	0xbda0f52e	-0.07859264
246	0x3dc10722	0.094251886
247	0x3c89f35d	0.016839677
248	0x3b6852ea	0.0035449811
249	0xbccdda64	-0.02512855
250	0xbe40f355	-0.18842824
251	0xbcb8a51f	-0.022539673
252	0xbb3445bf	-0.0027507392
253	0xbd93b9dd	-0.07213185
254	0x3e634946	0.2219592
255	0x3e1ceed8	0.15325487

network_body._body_endoder.seq_layers.2.bias f4 [128]
0	0xbc942ee8	-0.018088773
1	0xbd3b2e06	-0.04569819
2	0xbcbc4264	-0.022980876
3	0xb9c91e32	-0.00038360205
4	0xbd9f5455	-0.07779757
5	0xbc844025	-0.016143868
6	0xbc983ecd	-0.018584633
7	0x3cfd3ef4	0.030913807
8	0xbc89b735	-0.016810993
9	0xba4352b2	-0.0007450982
10	0x3c9b05b3	0.018923616
11	0x3b0e3b3c	0.0021702787
12	0xbd48baa5	-0.049006123
13	0x3b9ee17f	0.0048486586
14	0xbbaade62	-0.0052144984
15	0x3c11117a	0.008854264
16	0x3c77a00f	0.015113845
17	0xbd662ed3	-0.056197
18	0xbc2b0011	-0.010437028
19	0xbbba0695	-0.005677054
20	0xbd3caade	-0.04606139
21	0xbcd558d8	-0.02604334
22	0xbd768cf5	-0.06019302
23	0xbcce0323	-0.02514798
24	0xbb1f19d8	-0.0024276879
25	0xbc99b67d	-0.018763775
26	0xbc98b8f4	-0.01864288
27	0xbd26bc79	-0.040707085
28	0xbbc600bb	-0.0060425675
29	0x3c1b6030	0.009483382
30	0xbbb3267e	-0.005467235
31	0xbca25086	-0.019813787
32	0xbbb1404c	-0.005409276
33	0xbc4e6591	-0.0125974575
34	0xbd83cc0c	-0.06435403
35	0x3c574cf1	0.013140903
36	0x3cadd152	0.021217976
37	0xbd1e8429	-0.038700256
38	0xbc88ea66	-0.016713332
39	0xbcd0dda3	-0.02549631
40	0x3bfcabd1	0.007710912
41	0xb9b9c6cd	-0.00035434068
42	0xbc9bfec1	-0.019042375
43	0x3d017ac4	0.03161122
44	0x3cbf3934	0.023342706
45	0xbcf991b2	-0.03046498
46	0xbd619e50	-0.05508262
47	0xbd3c2e06	-0.04594233
48	0xbcb622af	-0.022233335
49	0xbb766be6	-0.0037600934
50	0xbd2edc55	-0.042690594
51	0x3b25a51b	0.0025275412
52	0xbd05424f	-0.03253394
53	0xbd1b8acb	-0.03797416
54	0xbcb60ceb	-0.022222957
55	0xbc355383	-0.011067274
56	0xbc83f9ff	-0.016110418
57	0xbcae7987	-0.021298183
58	0xbd4562b1	-0.048189823
59	0xbc65cd05	-0.014025931
60	0xbd2c961e	-0.04213535
61	0x3b57994f	0.0032897776
62	0xbd073ebb	-0.03301881
63	0xbc61924d	-0.013767791
64	0x3c9df01e	0.019279536
65	0x3c7bb2ad	0.015362424
66	0x3c83b28c	0.016076349
67	0xbcb8cfd0	-0.02256003
68	0x3b22a6d6	0.002481868
69	0x3c017bd9	0.007903063
70	0xbce8e4cd	-0.028429413
71	0xbd6c1db0	-0.0576455
72	0xbbe44178	-0.0069658123
73	0x3992ee6a	0.00028024922
74	0xbd47c031	-0.048767272
75	0x3c872ff8	0.016502365
76	0xbcbc378b	-0.022975704
77	0xbcecc843	-0.028904086
78	0xbb3eae0b	-0.0029095437
79	0x3c112643	0.00885922
80	0xbcc3f400	-0.02392006
81	0xbd351c04	-0.04421617
82	0xbd064771	-0.032782976
83	0xbd440860	-0.04785955
84	0xbcc33bfb	-0.023832312
85	0x3ccc9441	0.024973037
86	0xbca3f7d3	-0.020015633
87	0xbd4fdce7	-0.05074778
88	0x3bde47c8	0.0067834593
89	0xbd0fe790	-0.035132945
90	0xbc34d01b	-0.011035944
91	0xbd7020eb	-0.058625143
92	0xbccc5e44	-0.024947293
93	0xbd31be1d	-0.043394197
94	0xbcb918cd	-0.022594834
95	0xbcce3cae	-0.025175419
96	0x3b1f7656	0.0024332008
97	0xbcfee0ea	-0.031113107
98	0x3c5e3b44	0.013563935
99	0xbc1eefde	-0.0097007435
100	0xbb37b917	-0.0028033906
101	0xbc328fa6	-0.010898506
102	0xbc86aeda	-0.016440798
103	0xbb9ab4c8	-0.004721258
104	0x3d19b29d	0.037523855
105	0xbd398a16	-0.045297705
106	0x3a962a0e	0.0011456625
107	0xbb56fd50	-0.0032804795
108	0xbc8000c1	-0.01562536
109	0x3c830d67	0.015997602
110	0xbcc5a32b	-0.024125656
111	0xbbe0777c	-0.006850181
112	0xbd00a904	-0.031411186
113	0xbcc1b399	-0.02364521
114	0x3c8a34d2	0.01687089
115	0x3c18484c	0.009294581
116	0xbd1c59a1	-0.038171414
117	0xbd0cf33f	-0.034411665
118	0xbc7aa5ad	-0.015298289
119	0xbb822acc	-0.003972387
120	0xbd3adcc7	-0.045620706
121	0xbc927ae4	-0.017880864
122	0xbb1de6b5	-0.002409381
123	0x3c98bbdb	0.018644264
124	0x3cd83bc0	0.026395679
125	0x3c8d5c7e	0.017256018
126	0xbcfa2b15	-0.030538121
127	0xbce2ddc8	-0.027693644

action_model._continuous_distribution.log_sigma f4 [1, 2]
0	0xc04f7710	-3.241642
1	0xc04ededf	-3.232353

action_model._continuous_distribution.mu.weight f4 [2, 128]
0	0x3d9e3252	0.077244416
1	0x3c97cff4	0.018531777
2	0x3d61d08c	0.055130526
3	0xbd462798	-0.048377603
4	0x3e0360be	0.12829873
5	0x3de53881	0.11192418
6	0xbdfb49ae	-0.12269913
7	0x3dc846fd	0.09779165
8	0x3dc10a30	0.09425771
9	0xbe0a321b	-0.13495676
10	0x3d78f1d8	0.060777515
11	0x3dc092ee	0.094030246
12	0xbc37eca1	-0.01122585
13	0xbd88f780	-0.06687832
14	0x3d2300bb	0.03979562
15	0x3dd3db40	0.10344553
16	0xbdde5d62	-0.10857655
17	0x3c098d60	0.008395523
18	0xbceb76b9	-0.028743135
19	0xbd793ebc	-0.060850844
20	0x3cee1dc3	0.029066926
21	0xb991196b	-0.00027675493
22	0x3dfd7054	0.123749405
23	0xbd7ee3af	-0.062228855
24	0x3d84d660	0.06486201
25	0xbb0f52a6	-0.002186933
26	0x3cf33659	0.029689
27	0x3d76e6eb	0.060278814
28	0xbca9ef6d	-0.02074405
29	0xbe01988b	-0.12655847
30	0xbc19a031	-0.0093765715
31	0x3dccc130	0.09997785
32	0xbdd01ad1	-0.10161365
33	0xbd2c027b	-0.041994553
34	0xbb5efbb4	-0.0034024538
35	0x3ddd760c	0.10813531
36	0x3da53fbe	0.080687985
37	0xbb811512	-0.0039392794
38	0xbd2b95b0	-0.0418908
39	0x3e3980e3	0.18115573
40	0xbd0b3c97	-0.03399333
41	0xbd0f725d	-0.035021175
42	0x3e181e59	0.14855327
43	0xbdbfaa47	-0.0935865
44	0xbc6f3d5c	-0.014602032
45	0x3ce1e205	0.027573595
46	0x3c412e24	0.011790786
47	0x3daa3653	0.08311143
48	0xbd95eeea	-0.0732096
49	0x3d8275cb	0.063701235
50	0x3b4abf24	0.0030936683
51	0x3d22d511	0.039753977
52	0x3da24e5f	0.07925104
53	0x3d70f2ab	0.058825176
54	0xbda1a78f	-0.078932874
55	0xbcedee27	-0.029044224
56	0xbce2e501	-0.027697088
57	0x3adc714d	0.0016818434
58	0x3c2d0608	0.01056052
59	0xbd7dd794	-0.06197317
60	0x3b25c72d	0.002529572
61	0x3ca382f2	0.0199599
62	0x3d950f92	0.072783604
63	0x3b975429	0.004618187
64	0xbd459a5d	-0.048242915
65	0x3e384146	0.1799365
66	0xbdf7c4bb	-0.1209807
67	0xbd9b626e	-0.07587133
68	0x3c411f1f	0.011787205
69	0xbdc37905	-0.09544567
70	0xbc55b5fc	-0.013043877
71	0xbd5ee9ce	-0.054422192
72	0xbd9001ab	-0.07031568
73	0xba85235e	-0.0010157635
74	0xbcb136aa	-0.021632511
75	0xbd5289a5	-0.0514008
76	0x3ae288e9	0.0017283234
77	0x3c3053fd	0.010762212
78	0x3d9608be	0.07325886
79	0x3d449784	0.04799606
80	0xbd2b08d0	-0.04175645
81	0x3d7a551f	0.061116334
82	0x3d32d0d9	0.043656204
83	0x3dc11d84	0.09429458
84	0xbc92fa9f	-0.017941771
85	0x3cfc0dd5	0.030768314
86	0xbd487f21	-0.048949365
87	0x3d81da80	0.06340504
88	0x3dad121f	0.08450722
89	0x3d5e350a	0.0542498
90	0xbda26a47	-0.07930427
91	0x3d19c84a	0.037544526
92	0x3ceb3e09	0.028716104
93	0xbd9dc60d	-0.07703791
94	0xbd0a2f67	-0.033736613
95	0xbd1f1e13	-0.03884704
96	0xbdaf8f83	-0.085722946
97	0x3c8cce58	0.017188236
98	0xbd15a707	-0.036536243
99	0xbd4d4484	-0.05011417
100	0xbd6f000f	-0.058349665
101	0xbd336d8f	-0.043805655
102	0x3cbbbbac	0.022916637
103	0xbe001993	-0.12509756
104	0x3c124d14	0.00892951
105	0xbcf0416c	-0.02932807
106	0x3d1a1754	0.037619904
107	0x3ce41520	0.027842104
108	0x3da6252e	0.0811256
109	0x3e1f37a3	0.15548567
110	0x3dc04060	0.093872786
111	0x3d6e458f	0.058171805
112	0x3d16f641	0.03685594
113	0x3ddc265e	0.107495055
114	0x3dfa81fc	0.12231824
115	0xbde227da	-0.11042757
116	0xbd4d20df	-0.050080176
117	0x3daa8718	0.08326548
118	0x3caada7e	0.020856138
119	0xbd8540d6	-0.06506507
120	0x39ecf53e	0.00045196147
121	0x3a49aa99	0.00076929625
122	0x3e2df424	0.16987664
123	0xbb176950	-0.0023103543
124	0xbb614e81	-0.0034379067
125	0x3d86e726	0.06587057
126	0x39445722	0.00018724476
127	0x3c740349	0.014893361
128	0xbd62fe69	-0.055418406
129	0x3c2cb021	0.010540039
130	0xbcd6cf83	-0.026221996
131	0xbdb3402f	-0.087524764
132	0x3e3a4153	0.18188982
133	0x3d85c6c5	0.06532053
134	0xbdf5f9f1	-0.12010563
135	0xbd3f72a4	-0.04674019
136	0xbcd57313	-0.026055848
137	0xbc5c401e	-0.013443021
138	0xbe00f6ad	-0.125941
139	0xbba29289	-0.004961316
140	0x3c790bbd	0.0152005525
141	0xbd2d96d2	-0.04238016
142	0xbcd45153	-0.025917685
143	0xbbe50d43	-0.0069901063
144	0x3d99b990	0.07506096
145	0x3a20eca2	0.00061387767
146	0xbd71945d	-0.05897938
147	0x3dcae885	0.09907631
148	0x3aae2c9a	0.0013288439
149	0xbda8e40e	-0.08246623
150	0x3e4fd438	0.20295799
151	0x3cc731f5	0.024315814
152	0x3df857f5	0.121261515
153	0xbcbe4e49	-0.023230689
154	0x3d070727	0.032965805
155	0xb83386e2	-4.2802545e-05
156	0x3cdb9492	0.026804242
157	0xbc47a208	-0.012184627
158	0x3d3b78ae	0.045769386
159	0xbc18527d	-0.0092970105
160	0x3b892632	0.0041854614
161	0xbd82085e	-0.06349252
162	0x3cfeda8e	0.031110074
163	0x3c7e254a	0.01551182
164	0x3e10d358	0.14143121
165	0xbd819bc1	-0.06328536
166	0xbc937ad5	-0.018002907
167	0xbd1bc412	-0.038028784
168	0x3d0177d6	0.031608425
169	0xbd925122	-0.07144381
170	0xbd426bfa	-0.047466256
171	0xbdf0b161	-0.11752582
172	0x3e394c2a	0.1809546
173	0xbbdff718	-0.006834876
174	0x3cab4564	0.020907111
175	0x3d4d7e1c	0.050169095
176	0xbdc53751	-0.096296914
177	0xbbd201f0	-0.0064089224
178	0xbc1a0a45	-0.0094018625
179	0x3e0a0bfd	0.13481136
180	0xbdda88ac	-0.10670599
181	0xbc70e45f	-0.014702885
182	0x3d1a8e80	0.037733555
183	0xbd612415	-0.05496605
184	0xbd04f89d	-0.03246366
185	0x3d69a5a0	0.057042718
186	0x3d4a8789	0.049445663
187	0xbcd77684	-0.02630163
188	0xbc66acbd	-0.01407927
189	0x3e276666	0.16347656
190	0xbe2ae138	-0.16687477
191	0xbd811a56	-0.06303851
192	0x3d8f84fc	0.07007787
193	0xbd1452c9	-0.036211763
194	0x3d231033	0.03981037
195	0xbd51a864	-0.05118598
196	0xbdd5a437	-0.10431712
197	0xbbe412e2	-0.006960259
198	0xbc947fdb	-0.018127372
199	0x3ded7eb9	0.11596436
200	0x3cc1e2b7	0.023667676
201	0xba3e8143	-0.00072671863
202	0x3afd3521	0.0019318202
203	0x3ce63cca	0.028105158
204	0xbd142d94	-0.03617628
205	0x3da988b0	0.08278024
206	0xbd5d969f	-0.05409872
207	0xbdf86309	-0.121282645
208	0x3c9aba1e	0.018887576
209	0x3ca97de1	0.020689907
210	0xbe1b6c36	-0.15177998
211	0x3c67d15b	0.014149035
212	0xbd48c57c	-0.04901646
213	0xbd3abd5b	-0.04559074
214	0x3a652d16	0.0008742375
215	0x3cd3faa2	0.025876347
216	0x3e1861ae	0.14881012
217	0xbd055f26	-0.032561444
218	0x3cd8d70d	0.026469732
219	0x3de30445	0.11084799
220	0x3c73e989	0.014887222
221	0x3bb702fd	0.005585073
222	0xbe3a48a9	-0.1819178
223	0xbb6ba888	-0.0035958607
224	0x3da8bbf4	0.08238974
225	0xbb19d5fe	-0.0023473497
226	0x3cdcfe78	0.026976809
227	0x3da59fa6	0.08087091
228	0xbceef683	-0.02917028
229	0x3d91d600	0.071208954
230	0xbd51839a	-0.051150896
231	0x3d7a4d27	0.061108734
232	0xbbf209d1	-0.007386424
233	0xbcfda031	-0.030960174
234	0x3e299b87	0.16563235
235	0x3d00918c	0.031388804
236	0x3ddc044b	0.10743006
237	0x3d3bca71	0.04584736
238	0xbc70995c	-0.014685001
239	0xbd9666d9	-0.073438354
240	0xbc7e4b8e	-0.015520943
241	0x3ccf7fed	0.025329554
242	0xbda7ae46	-0.08187537
243	0x3d61cb31	0.05512542
244	0x3c7a466e	0.015275581
245	0x3d02bfad	0.031921078
246	0xbdb75df4	-0.08953467
247	0xbd1d5caf	-0.038418468
248	0xba36504f	-0.0006954716
249	0xbcd1d26b	-0.02561303
250	0x3e1274af	0.14302324
251	0x3b1c5f61	0.0023860561
252	0xbe04bae4	-0.12961918
253	0x3db3a78f	0.08772194
254	0xb910342b	-0.00013752344
255	0x3d714d5d	0.05891167

action_model._continuous_distribution.mu.bias f4 [2]
0	0xbc5772a7	-0.013149894
1	0xbc27486b	-0.010210137
