results/test_environment/VacuumCleaner/VacuumCleaner-55040.pt (torch, 590643 bytes, 44 tensors)

network_body._body_endoder.seq_layers.0.weight f4 [128, 27]
0	0x3f37fa30	0.7186613
1	0xbec3826d	-0.38185444
2	0xbedf22b7	-0.43581173
3	0xbeb3230a	-0.3498767
4	0x3d1afb7a	0.037837483
5	0xbd439716	-0.04775151
6	0x3e4c5a6c	0.19956368
7	0xbab90a39	-0.0014117426
8	0x3dfdff28	0.12402183
9	0xbdbf0314	-0.09326759
10	0xbdded7fd	-0.1088104
11	0x3c83c19b	0.01608353
12	0x3b1ba7d3	0.0023751154
13	0xbec10b1c	-0.37703788
14	0xbec0debe	-0.3766994
15	0xbe10e18c	-0.1414854
16	0xbdeb4f37	-0.114897184
17	0xbe2cc615	-0.16872437
18	0x3e6770cc	0.22601622
19	0xbe19fc9d	-0.1503777
20	0x3e1719d1	0.14755942
21	0x3eac133d	0.33608428
22	0x3f47f5f7	0.7810969
23	0xbd5fe3c8	-0.05466059
24	0x3e1fc899	0.15603866
25	0x3e16462d	0.14675207
26	0xbef69c91	-0.48166326
27	0x3e5f7963	0.21823649
28	0xbe9b556f	-0.30338618
29	0xbdbf83b1	-0.0935129
30	0x3dde5b15	0.10857216
31	0xbd13bc0d	-0.03606801
32	0x3e4ab13f	0.19794177
33	0xbf7ba99a	-0.98305666
34	0x3d15487e	0.036446087
35	0xbe8301c5	-0.25587288
36	0x3d0edfa5	0.034881253
37	0x3c700d97	0.014651678
38	0x3e8d5245	0.2760183
39	0x3ed6eecf	0.41979071
40	0x3cf372d2	0.029717837
41	0xbf252789	-0.6451345
42	0x3ea3fe80	0.32030106
43	0xbce25690	-0.027629167
44	0x3d69af83	0.057052147
45	0xbd3d0213	-0.046144556
46	0xbe28051f	-0.16408204
47	0x3e65f7d0	0.22457814
48	0xbeb59f0d	-0.3547291
49	0xbdd090bc	-0.10183856
50	0x3eb11185	0.3458368
51	0x3e9cfc56	0.30661267
52	0xbe644c14	-0.22294647
53	0xbe6edca2	-0.23326352
54	0x3ef1142e	0.47085708
55	0x3ea54298	0.3227737
56	0x3db66a87	0.08907037
57	0xbeaf2f60	-0.34215832
58	0xbc72c280	-0.01481688
59	0xbdd0729c	-0.1017811
60	0x3f3e2722	0.7427846
61	0xbe5ee61e	-0.2176747
62	0x3db64211	0.0889932
63	0xbf3214e9	-0.69563156
64	0x3c884137	0.01663266
65	0xbdf648e4	-0.120256215
66	0xbd3c2477	-0.045933213
67	0xbdab81ef	-0.08374392
68	0xbe56a216	-0.20960268
69	0xbe1ac778	-0.15115154
70	0x3e06de7c	0.13170809
71	0x3e2ad906	0.1668435
72	0x3e4539d6	0.19260344
73	0xbe7701a6	-0.24121723
74	0x3e650ca4	0.22368103
75	0x3e3bc6d4	0.18337566
76	0x3e5ad2ae	0.2136943
77	0xbdc24b91	-0.094870694
78	0xbe60a627	-0.21938382
79	0xbdcae7b0	-0.09907472
80	0x3e8b3aed	0.27193394
81	0x3ea31336	0.31850594
82	0xbdbaa1bd	-0.091128804
83	0x3d15a1ca	0.036531247
84	0x3f3cb7d2	0.7371799
85	0xbed0939c	-0.40737617
86	0xbe4a20c1	-0.19739057
87	0xbece80a1	-0.4033251
88	0x3d9c6140	0.076357365
89	0x3cef1b7c	0.02918791
90	0x3e0d09cc	0.13773268
91	0x3d9a43d4	0.075324684
92	0xbe268b84	-0.16264158
93	0xbfb59374	-1.4185624
94	0x3eea4390	0.4575467
95	0x3e911f89	0.28344372
96	0x3d9e361c	0.07725164
97	0xbea30205	-0.31837478
98	0x3ec84fcc	0.3912338
99	0x3c8b8b91	0.017034324
100	0xbdd78def	-0.105251186
101	0x3eb2f998	0.3495605
102	0xbe0b1469	-0.13582005
103	0xbf568db4	-0.8380997
104	0xbcc8c9f3	-0.02451036
105	0xbd34ab8d	-0.044108916
106	0x3d47426e	0.048647337
107	0xbd56469b	-0.05231343
108	0xbe6a1e67	-0.2286316
109	0xbec59be4	-0.38595498
110	0xbf0b1ae1	-0.5433789
111	0xbf2359f0	-0.6380911
112	0x3e8b97b2	0.27264172
113	0x3e20c039	0.15698327
114	0xbf066887	-0.52503246
115	0x3d251395	0.040301878
116	0xbdc732ff	-0.097265236
117	0xbee17323	-0.44033155
118	0x3e89e53f	0.26932713
119	0xbdbdef1c	-0.09274122
120	0xbe60a9dc	-0.21939796
121	0x3ebdcb09	0.37068966
122	0xbe07d3b3	-0.1326435
123	0x3e5eef5b	0.21770994
124	0xbd545e94	-0.05184801
125	0x3e23efd2	0.16009453
126	0x3f00923c	0.50223136
127	0x3e5a4615	0.21315797
128	0xbdae8125	-0.08520726
129	0xbebdd337	-0.37075207
130	0xbf732c17	-0.9498915
131	0xbeac32d6	-0.33632535
132	0x3eca0a52	0.39461
133	0x3e09aba0	0.13444376
134	0x3edd1688	0.43181252
135	0x3f65939a	0.8967835
136	0xbe10ee24	-0.14153343
137	0xbdd08654	-0.10181871
138	0x3f677d68	0.9042573
139	0xbcd56d11	-0.026052983
140	0x3ef385c0	0.4756298
141	0xbd7587f2	-0.0599441
142	0x3d31693c	0.04331325
143	0x3cc8fd3f	0.02453482
144	0x3e9d8397	0.30764458
145	0xbebdb931	-0.37055352
146	0xbe574142	-0.21020988
147	0xbc661db2	-0.014045166
148	0xbe43811d	-0.19092222
149	0x3e65f33c	0.22456068
150	0xbe960017	-0.29296944
151	0x3d7cf8d8	0.061760753
152	0xbdd7168d	-0.10502348
153	0xbe91ef7f	-0.28503034
154	0x3e689257	0.22712074
155	0x3de8b6e7	0.11363011
156	0xbe333000	-0.1749878
157	0xbf62c64d	-0.8858383
158	0x3e55b3d1	0.20869376
159	0x3e310184	0.17285734
160	0x3ea16bf0	0.31527662
161	0x3cb03594	0.021509923
162	0x3d0403b4	0.032230094
163	0x3e46a431	0.19398572
164	0xbc0ecb38	-0.008715443
165	0xbe9fef09	-0.31237057
166	0x3eac1483	0.336094
167	0x3e420e5b	0.18950789
168	0x3e5c66d8	0.21523607
169	0x3e72ea9f	0.23722313
170	0xbed65063	-0.41858205
171	0xbf644242	-0.891636
172	0x3e144f39	0.14483346
173	0x3e7a040d	0.24415608
174	0x3f18950f	0.59602445
175	0xbdf5221c	-0.119693965
176	0xbe1089a9	-0.14115013
177	0xbe6ce143	-0.23132806
178	0xbe56f300	-0.20991135
179	0xbeb221c3	-0.34791383
180	0x3eb2bf30	0.3491149
181	0x3e906670	0.28203154
182	0x3dcf6187	0.10126024
183	0xbe4b9021	-0.198792
184	0xbe8d6cf5	-0.2762219
185	0xbf1d000c	-0.61328197
186	0x3ec97143	0.39344224
187	0xbbf39c3c	-0.007434396
188	0x3f1909d1	0.59780604
189	0x3e2714e1	0.16316558
190	0xbeb4da89	-0.3532298
191	0xbd1984ba	-0.037480094
192	0xbefe12c2	-0.49623686
193	0x3ecca01e	0.3996591
194	0xbec3899c	-0.38190925
195	0x3d97aefa	0.07406421
196	0xbe51604b	-0.20446889
197	0xbe94b844	-0.29046834
198	0xbeda0382	-0.425808
199	0xbc1df6f6	-0.0096414
200	0x3e245159	0.16046657
201	0xbcbf6fab	-0.023368677
202	0xbe14fe7e	-0.14550206
203	0x3e50f53f	0.20406054
204	0x3e434b96	0.19071802
205	0xbdbc17d6	-0.09184234
206	0xbdc79d56	-0.09746806
207	0x3dc9cb55	0.09853236
208	0x3e77cbf7	0.241989
209	0xbee497fe	-0.4464721
210	0x3f077976	0.5291971
211	0x3eb43dcb	0.35203394
212	0x3e3bac5e	0.18327472
213	0xbf1def1b	-0.6169297
214	0x3e02f99c	0.12790531
215	0xbda0048f	-0.078133695
216	0x3d578673	0.052618455
217	0x3d8b8405	0.0681229
218	0xbd5b69ff	-0.053567883
219	0x3e0f7e35	0.14012988
220	0xbec3e887	-0.38263342
221	0xbf10c212	-0.5654613
222	0xbe73eb68	-0.23820269
223	0xbdb47144	-0.08810666
224	0xbeda1d07	-0.4260027
225	0x3f223abf	0.6337089
226	0xbe201cb9	-0.15635957
227	0xbecc39c0	-0.3988781
228	0x3de277be	0.11057995
229	0x3dd7fda8	0.10546428
230	0xbd944106	-0.07238965
231	0xbe0ed7b0	-0.13949466
232	0x3c4208d9	0.01184293
233	0x3e4cf197	0.20014034
234	0x3cf81695	0.030284205
235	0x3e64e90b	0.22354524
236	0xbdb6ef06	-0.08932309
237	0xbe803e07	-0.25047323
238	0x3f0016d8	0.50034857
239	0xbe98e820	-0.29864597
240	0x3ec63224	0.3871013
241	0xbd7dfab3	-0.062006664
242	0x3f21eea3	0.63254756
243	0xbe4c94e7	-0.19978677
244	0x3ea47c68	0.32126164
245	0x3e463c3f	0.1935892
246	0xbf381cf1	-0.7191916
247	0x3e9404a7	0.289098
248	0x3d9196c2	0.07108833
249	0x3ec09435	0.37613073
250	0xbe684d60	-0.22685766
251	0xbe9caff5	-0.30602995
252	0xbef79b48	-0.48360658
253	0x3e9d30fc	0.30701435
254	0x3e88af4a	0.26696235
255	0xbd511023	-0.05104078

network_body._body_endoder.seq_layers.0.bias f4 [128]
0	0xbc3ce11e	-0.0115282815
1	0xbc822ec0	-0.015891433
2	0xbda2a080	-0.07940769
3	0x3ca7c416	0.020479243
4	0x3d85d9ea	0.065357044
5	0x3d9c8dc3	0.076442264
6	0x3d2e723f	0.042589422
7	0xbde29231	-0.1106304
8	0xbd6d427e	-0.05792474
9	0x3a3271ba	0.0006807108
10	0xbcdfe0bb	-0.02732884
11	0x3d153c32	0.03643436
12	0x3ca2e57a	0.019884814
13	0x3c32a645	0.0109039
14	0x3bf0d3a9	0.0073494506
15	0xbe0ede45	-0.13951977
16	0xbd06e9cd	-0.032937814
17	0x3db8e54b	0.09028109
18	0x3d1405e8	0.036138445
19	0x3c8202d0	0.015870482
20	0xbd912ac8	-0.07088238
21	0xbab88a80	-0.0014079362
22	0xbd943880	-0.07237339
23	0x3c60989a	0.013708258
24	0xbd2f77c5	-0.04283883
25	0xbd51afef	-0.051193174
26	0xbda9a469	-0.08283312
27	0xbcdad61d	-0.026713425
28	0xbd115dd2	-0.035489865
29	0xbc224124	-0.009903226
30	0x3d42445c	0.047428474
31	0x3d82820c	0.06372461
32	0xbe39c431	-0.18141247
33	0x3d723b2f	0.059138473
34	0x3b9e5a74	0.00483256
35	0xbde9405b	-0.11389228
36	0x3dacee31	0.08443869
37	0xbc9a989e	-0.018871602
38	0xbc378031	-0.011199997
39	0x3c1fdb69	0.009756901
40	0xbc307f20	-0.010772496
41	0x3cdeff06	0.027221214
42	0x3d616103	0.05502416
43	0xbbdd0d74	-0.0067459885
44	0xbd8deb27	-0.069296174
45	0x3d447346	0.047961496
46	0x3e08debf	0.13366221
47	0xbc1acca5	-0.009448205
48	0xbca53879	-0.02016853
49	0xbd0c2eb3	-0.034224223
50	0x3cfaaef3	0.030601
51	0x3d39115e	0.04518258
52	0xbdab894f	-0.08375799
53	0xbdef9971	-0.116991885
54	0xbbd23a5b	-0.006415648
55	0xbd605de9	-0.05477706
56	0x3d1c05c7	0.038091447
57	0x3d37ffb8	0.044921607
58	0x3d5dafc1	0.05412269
59	0x3ca42ef6	0.020041924
60	0x3ca50cf2	0.020147774
61	0xbda5f47e	-0.08103274
62	0xbc80943c	-0.015695684
63	0x3c068470	0.0082102865
64	0xbdfaa7e2	-0.12239052
65	0x3dba49fb	0.09096142
66	0xbc489c1a	-0.012244249
67	0xbcd254e0	-0.025675237
68	0x3d3f6557	0.046727505
69	0x3d978966	0.073992535
70	0xbd91e0c0	-0.07122946
71	0xbcf2e918	-0.029652163
72	0x3d951666	0.07279663
73	0xbd644a63	-0.055735003
74	0x3d076bf3	0.033061933
75	0xbcab39af	-0.02090153
76	0xbd9569c9	-0.072955675
77	0xbdc8b905	-0.09800915
78	0x3c644b54	0.013933975
79	0x3cbd227f	0.023087738
80	0x3dcb165a	0.099163726
81	0xbb4f398b	-0.0031619992
82	0x3d92ec71	0.07174004
83	0x3caad483	0.020853287
84	0xbd654dca	-0.05598239
85	0x3da50e8a	0.08059414
86	0x3ceaffeb	0.028686484
87	0xbe574c3b	-0.21025173
88	0x3d558d34	0.052136615
89	0xbddc282b	-0.10749849
90	0x3c5c729c	0.013455059
91	0xbd21996b	-0.03945295
92	0xbbdc258b	-0.0067183427
93	0x3c389c9d	0.011267808
94	0x3b00091b	0.0019536677
95	0xb862edce	-5.410407e-05
96	0x3de07c55	0.109612145
97	0xbd86f21b	-0.06589147
98	0xbdf2ea6b	-0.11861118
99	0xbce884c9	-0.02838363
100	0x3d5f5ef2	0.054533906
101	0xbd6a2ee3	-0.05717362
102	0xbd075a5d	-0.03304516
103	0x3cd0cfa4	0.025489636
104	0xbdbe4a35	-0.092914976
105	0x3c70ce48	0.014697619
106	0xbd5a12f9	-0.05324075
107	0x3cb011d3	0.021492874
108	0x3d0e5427	0.034748223
109	0x3da4ad28	0.080408394
110	0x3dea722d	0.114475586
111	0xbd34ffe7	-0.04418936
112	0xbd7ea5cf	-0.062169846
113	0x3e076612	0.1322253
114	0x3d9c9aaf	0.07646691
115	0x3d9adb00	0.07561302
116	0xbd4e3d99	-0.050351713
117	0xbc9a6b84	-0.018850096
118	0x3db358e9	0.08757193
119	0x3daf891a	0.08571072
120	0xbd44fb66	-0.048091315
121	0x3c82b955	0.015957514
122	0xbd55f133	-0.05223198
123	0xbd4038fb	-0.04692934
124	0xbd070947	-0.032967832
125	0x3d18f899	0.037346456
126	0x3d0df760	0.034659743
127	0xbd3a47a4	-0.045478478

network_body._body_endoder.seq_layers.2.weight f4 [128, 128]
0	0x3cbe3a1a	0.023221064
1	0x3da36ff9	0.079803415
2	0xbd8be0eb	-0.06830009
3	0xbbfceb70	-0.007718496
4	0x3e1413f7	0.14460741
5	0x3e073435	0.13203509
6	0xbcfc01c2	-0.030762557
7	0xbe274ee4	-0.16338688
8	0x3e144502	0.1447945
9	0xbdfb9e5e	-0.122860655
10	0x3e1b8ca9	0.15190376
11	0x3db2742d	0.08713565
12	0xbc113c1f	-0.008864432
13	0x3e066e46	0.13128003
14	0xbf0b041a	-0.54303133
15	0xba411009	-0.0007364755
16	0xbe1580bf	-0.14599894
17	0xbbc1306c	-0.005895665
18	0x3d528282	0.051393993
19	0xbb92a1c6	-0.0044748513
20	0x3e84c722	0.25933176
21	0x3c7446fe	0.014909504
22	0x3e27bf2c	0.1638152
23	0xbd1fcf1e	-0.03901588
24	0xbd875e26	-0.06609754
25	0xbd48d315	-0.04902943
26	0x3d38d348	0.04512337
27	0x3e511bb8	0.2042073
28	0xbe8840d3	-0.26611957
29	0x3e98a113	0.2981039
30	0xbdb04c69	-0.08608324
31	0x3dfb9d91	0.12285913
32	0x3d34020e	0.043947272
33	0x3e13cd30	0.14433742
34	0xbe91a0e9	-0.28443077
35	0x3d56bb30	0.05242461
36	0xbd523bb0	-0.051326454
37	0xbd18a281	-0.03726435
38	0xbdae6ca4	-0.08516815
39	0x3dde9a73	0.108693026
40	0xbdb33aa8	-0.08751422
41	0x3c7d48e5	0.015459274
42	0xbd178fa6	-0.03700223
43	0x3df207d9	0.11817903
44	0xbd9a9eb0	-0.075497985
45	0xbe8c2b3e	-0.2737674
46	0xbf129df6	-0.5727228
47	0x3e5954a3	0.21223693
48	0x3d285d84	0.04110481
49	0xbc4facc5	-0.012675469
50	0xbe19c316	-0.15015826
51	0x3df0f6f8	0.117658556
52	0xbd9ce849	-0.076614924
53	0xbd95e5e7	-0.07319241
54	0x3ea47c5d	0.32126132
55	0xbdb6f29b	-0.08932992
56	0xbd2d44a0	-0.042301774
57	0xbdff085d	-0.12452767
58	0xbcd4fd9e	-0.02599984
59	0xbe83492a	-0.25641757
60	0xbdfae7db	-0.12251254
61	0x3ea17589	0.31534985
62	0xbdf9428e	-0.121708974
63	0xbd9c3c8b	-0.07628735
64	0x3c74d7ea	0.014944056
65	0x3e823dc0	0.25437737
66	0xbe3ceb1d	-0.18449064
67	0x3da59113	0.08084311
68	0xbd8ff68f	-0.07029449
69	0x3d20eb0a	0.03928665
70	0xbce25237	-0.027627094
71	0xbdd24a6f	-0.10268103
72	0xbe54c5eb	-0.20778625
73	0xbd539571	-0.05165619
74	0xbe9a62de	-0.30153555
75	0xbcd2c358	-0.025727913
76	0xbdc3ea97	-0.09566229
77	0xbc159706	-0.009130245
78	0x3d57d70c	0.05269532
79	0xbdc89bb8	-0.09795326
80	0x3cf4311a	0.02980857
81	0xbd97ff54	-0.07421747
82	0xbec9af4a	-0.39391547
83	0x3ded5374	0.11588183
84	0x3dc0234d	0.09381733
85	0x3d814ba3	0.06313255
86	0xbe4bf6c5	-0.19918354
87	0x3cdec912	0.027195487
88	0xbe5c05c2	-0.21486571
89	0x3de41df5	0.11138526
90	0x3d608639	0.054815505
91	0xbd8a89e3	-0.06764581
92	0x3d1578a0	0.03649199
93	0xbe289b7e	-0.16465566
94	0xbdb84aef	-0.089986674
95	0xbe0abcb2	-0.13548544
96	0xbea2019a	-0.31641847
97	0xbc3aa393	-0.011391538
98	0x3dec415d	0.115359046
99	0x3dc3e426	0.09565
100	0x3dc99670	0.09843147
101	0xbcf30d25	-0.029669354
102	0xbddf3cf2	-0.10900296
103	0x3e9a7049	0.30163792
104	0xbe255919	-0.1614727
105	0xbe3d6177	-0.18494211
106	0x3e83b034	0.2572037
107	0xbdf7be5a	-0.120968536
108	0xbd9e0fdc	-0.07717869
109	0xbe19aef3	-0.15008144
110	0xbaf16340	-0.001841642
111	0xbebd7e74	-0.3701054
112	0x3e67f84d	0.22653313
113	0x3d035f89	0.03207353
114	0xbe3c9394	-0.18415672
115	0x3d9050a2	0.070466295
116	0x3cac6fe1	0.021049442
117	0x3e4837da	0.19552556
118	0x3d65799e	0.056024186
119	0x3ce46312	0.027879272
120	0x3eca2653	0.39482364
121	0x3def8691	0.116955884
122	0x3d193757	0.03740629
123	0xbdfe73fb	-0.12424465
124	0xbdd705a9	-0.104991265
125	0xbdf3b9b9	-0.11900658
126	0x3db63326	0.088964745
127	0x3d9bdf52	0.07610954
128	0xbd2931dc	-0.041307315
129	0x3cd29036	0.02570353
130	0x3d1a3a65	0.037653346
131	0xbcc74b44	-0.024327882
132	0x3d354517	0.044255342
133	0x3d60bee3	0.054869544
134	0xbe08614a	-0.13318363
135	0x3e075210	0.13214898
136	0xbd2f2cf2	-0.042767473
137	0xbd816921	-0.0631888
138	0xbc7981f4	-0.015228737
139	0xbf5912a2	-0.84794056
140	0x3caa76bf	0.020808576
141	0x3d4ab965	0.049493212
142	0x3e3b9ce6	0.18321571
143	0xbcc4d146	-0.02402557
144	0xbdbcaa2e	-0.09212147
145	0xbe159068	-0.14605868
146	0xbcafa8b4	-0.021442749
147	0xbe2a7abf	-0.16648386
148	0xbe936f62	-0.28795916
149	0x3eaf5e3e	0.3425159
150	0x3da5ee91	0.081021436
151	0xbcdf9a2a	-0.02729519
152	0xbd8c51e6	-0.068515584
153	0x3e4481bc	0.19190115
154	0xbd7c9223	-0.061662804
155	0xbe35f293	-0.17768316
156	0xbc3a2111	-0.011360423
157	0xbde7fedb	-0.11327907
158	0xbe310113	-0.17285566
159	0xbd926fb8	-0.07150215
160	0xbdfe36c1	-0.12412787
161	0x3e005847	0.12533675
162	0x3dde23de	0.10846685
163	0xbe197d7c	-0.14989275
164	0xbdccbab0	-0.09996545
165	0x3c88a5c2	0.016680602
166	0x3e2b1f82	0.16711238
167	0x3cd37ebd	0.02581727
168	0x3e461529	0.1934401
169	0x3dc7ed9d	0.09762118
170	0xbdbfe378	-0.09369558
171	0x3da0cb4b	0.07851275
172	0xbdea7681	-0.11448384
173	0x3e19cf93	0.1502059
174	0x3dfdd699	0.12394447
175	0xbdc94d7f	-0.09829234
176	0x3d868874	0.06568995
177	0xbdd0c955	-0.10194651
178	0xbe901ef6	-0.2814862
179	0xbe383b61	-0.17991401
180	0x3e3c66a6	0.18398532
181	0x3d50c7cb	0.050971787
182	0x3e144f6b	0.1448342
183	0xbd0f39b9	-0.034967158
184	0xbd93d348	-0.07218033
185	0xbe316ac1	-0.1732588
186	0x3ddb329f	0.107030146
187	0x3d87df29	0.06634361
188	0xbd6ff9ce	-0.05858784
189	0xbbd653a9	-0.006540735
190	0xbe0dd46c	-0.13850564
191	0xbdc8a480	-0.09797001
192	0xbe15dab2	-0.14634207
193	0x3c9d81fb	0.019227019
194	0xbd879336	-0.06619875
195	0x3d9127d1	0.070876725
196	0xbe5a9955	-0.21347554
197	0x3ca10e01	0.019659998
198	0xbd4f0109	-0.050538097
199	0x3d63f153	0.055650067
200	0x3db1dbbf	0.08684491
201	0x3c05009b	0.00811782
202	0x3dd7c905	0.10536388
203	0x3d4bb756	0.04973539
204	0xbddbf954	-0.10740915
205	0x3e0f6c35	0.14006121
206	0xbd80e271	-0.0629319
207	0xbd855d9a	-0.06511994
208	0x3abdcd69	0.0014480773
209	0x3cc7dc64	0.024397083
210	0xbc42d1b7	-0.01189082
211	0x3e2a3dfa	0.16625205
212	0x3e2f8f9f	0.17144631
213	0x3d7f320e	0.062303595
214	0xbdff9f24	-0.124815255
215	0x3d82ff7e	0.063963875
216	0xbdf446d5	-0.11927573
217	0x3bcb9478	0.006212767
218	0xbc4c9343	-0.012486282
219	0x3e2094a7	0.15681706
220	0xbe408d5b	-0.18803923
221	0x3e3cabdd	0.18424936
222	0x3d72fbe1	0.05932224
223	0xbec6e56b	-0.38846907
224	0xbeaa7e3d	-0.33299437
225	0xbcc5df2b	-0.024154266
226	0x3d7dda23	0.06197561
227	0x3dc09573	0.09403505
228	0xbd21a7ce	-0.03946667
229	0xbd356aee	-0.04429143
230	0xbeaa705b	-0.33288845
231	0xbed35861	-0.41278365
232	0xbd7d4a40	-0.06183839
233	0x3e606b50	0.21915936
234	0xbdafb620	-0.085796595
235	0x3d2f9bc1	0.042873148
236	0xbee955ee	-0.45573372
237	0xbe339dd2	-0.17540672
238	0x3df3b1ac	0.118991226
239	0x3c8021cf	0.015641121
240	0xbe9cef00	-0.30651093
241	0xbe5538a5	-0.2082239
242	0x3e014d1c	0.12627071
243	0xbdc7d048	-0.09756523
244	0xbd9f47ea	-0.077773884
245	0x3d079140	0.033097506
246	0x3dc2b0f5	0.09506408
247	0x3dddc7b3	0.10829105
248	0x3e3ac419	0.18238868
249	0xbc999d5d	-0.018751794
250	0x3d83bdba	0.06432672
251	0x3e5621d5	0.20911343
252	0xbd86d2bf	-0.065831654
253	0xbd60a7b0	-0.05484742
254	0xbd56187d	-0.052269448
255	0x3e241938	0.16025245

network_body._body_endoder.seq_layers.2.bias f4 [128]
0	0xbdefd891	-0.11711229
1	0xba2ebc55	-0.0006665637
2	0xbc8b5d4d	-0.017012263
3	0xbe3e7eee	-0.18603107
4	0xbdad9446	-0.084755465
5	0xbe0efd2e	-0.13963768
6	0xbdbdd2fa	-0.09268756
7	0xbd35082a	-0.04419724
8	0xbe3d19b3	-0.18466835
9	0xbe1405a1	-0.14455272
10	0xbbbac059	-0.005699199
11	0xbe1a40b3	-0.15063743
12	0xbd7f76c8	-0.062369138
13	0xbd0fc5eb	-0.03510086
14	0xbc07dcae	-0.00829236
15	0x3d0ee51f	0.034886476
16	0x3da90440	0.08252764
17	0x3bc4796e	0.005995921
18	0x3d46ee87	0.04856732
19	0xbd2a9a4d	-0.04165106
20	0xbcaa8746	-0.020816457
21	0xbdabea1d	-0.08394263
22	0xbdc9d832	-0.09855689
23	0xbcf79df1	-0.03022668
24	0xbd85658a	-0.06513508
25	0xbe5c02f7	-0.21485506
26	0xbc2f9a76	-0.010717979
27	0x3dd327c3	0.10310318
28	0xbd6771b6	-0.056504928
29	0x3d9c9678	0.07645887
30	0x3c242cda	0.010020459
31	0x3d0c8863	0.034309756
32	0xbd5976d7	-0.05309185
33	0x3c854522	0.016268317
34	0x3da7ba38	0.08189815
35	0xbd3fc8ac	-0.046822235
36	0xbce214be	-0.027597781
37	0x3dcd8c79	0.10036559
38	0x3dc1a4d8	0.094552696
39	0x3d299c74	0.04140897
40	0x3da2a944	0.07942441
41	0x3d445478	0.04793212
42	0xbd1cb0d3	-0.03825457
43	0xbd15fc89	-0.03661779
44	0x3d08e043	0.033416998
45	0x3dcaf210	0.09909451
46	0x3d246121	0.04013169
47	0xbd5e288a	-0.05423788
48	0xbd2e81e8	-0.042604357
49	0xbce3c925	-0.027805874
50	0x3d89c72b	0.067274414
51	0xbdd0229a	-0.1016285
52	0xbe05cfae	-0.13067505
53	0xbcdfaa8f	-0.027303008
54	0xbd047f5f	-0.032348033
55	0x3c154287	0.0091101
56	0x3caa98c6	0.020824801
57	0xbcd6d077	-0.02622245
58	0xbbbdebb7	-0.0057959217
59	0x3c98af7d	0.018638367
60	0xbce63715	-0.028102437
61	0xbe1275e8	-0.1430279
62	0xbd102477	-0.035191026
63	0x3cb7f991	0.02245787
64	0x3bc1ea01	0.005917788
65	0xbd7f93e8	-0.062396914
66	0xbd549b28	-0.05190578
67	0x3b978169	0.004623581
68	0xbdc3659a	-0.09540863
69	0x3d0a2af4	0.03373237
70	0xbd646cf7	-0.05576798
71	0xbdc2c45e	-0.0951011
72	0xbdde8c11	-0.10866559
73	0xbd12f147	-0.03587463
74	0x3ca26a58	0.0198261
75	0xbc4e15a6	-0.012578404
76	0x3d7b59c7	0.061364915
77	0xbd0f0cd3	-0.03492434
78	0x3d36abbf	0.044597384
79	0xbdb24884	-0.087052375
80	0x3d4f5fe2	0.05062855
81	0x3da025fe	0.078197464
82	0xbb607e08	-0.0034254808
83	0xbd1da0ab	-0.038483303
84	0xbc513788	-0.012769587
85	0x3c4b0deb	0.012393455
86	0xbd733845	-0.059379835
87	0x3e042731	0.12905575
88	0xbcf7db9a	-0.030256081
89	0xbde85494	-0.11344257
90	0xbcf19b7c	-0.029493086
91	0x3d14c8ea	0.03632442
92	0xbd7b6597	-0.06137618
93	0x3e06e75e	0.13174197
94	0xbd355d73	-0.044278573
95	0xbd4f0751	-0.050544087
96	0xbda88fb5	-0.08230535
97	0x3d3298b5	0.043602664
98	0x3da583da	0.08081789
99	0x3bef88a2	0.007309989
100	0xbde20133	-0.11035385
101	0xbd7166fa	-0.058936097
102	0x3d914369	0.070929356
103	0xbd48dfde	-0.04904162
104	0xbce72559	-0.028216051
105	0xbdbf3aa6	-0.09337358
106	0xbcbe417c	-0.023224585
107	0xbd9aef6e	-0.07565199
108	0xbd89f466	-0.067360684
109	0xbd9f23ef	-0.07770526
110	0xbb51cafb	-0.0032011855
111	0xbdfc4994	-0.123187214
112	0xbdd49c20	-0.10381341
113	0xbd2e917f	-0.042619225
114	0xbdf57f2f	-0.11987149
115	0x3d8d0008	0.068847716
116	0x3c8d1f9f	0.017226992
117	0xbd2b8ba5	-0.041881222
118	0xbe3a231f	-0.1817746
119	0xbd15cd2b	-0.036572617
120	0x3b156893	0.0022797927
121	0xbbfc7750	-0.007704653
122	0x3c978d7d	0.018500084
123	0x3d88bfb0	0.066771865
124	0xbc18264c	-0.009286474
125	0xbd91f735	-0.07127229
126	0xbda1fed3	-0.07909932
127	0xbd8cb19f	-0.06869816

action_model._continuous_distribution.log_sigma f4 [1, 2]
0	0xc0b9c19f	-5.8048854
1	0xc0bb46b4	-5.8523808

action_model._continuous_distribution.mu.weight f4 [2, 128]
0	0x3d095cab	0.03353564
1	0xbc2af5f8	-0.01043462
2	0x3e210644	0.15725046
3	0xbc150764	-0.009096
4	0x3b6d9246	0.0036250516
5	0xbe1176b1	-0.14205433
6	0x3d89fe94	0.0673801
7	0x3e83df54	0.25756323
8	0x3dad9d2a	0.08477242
9	0xbc483195	-0.0122188525
10	0x3e101672	0.14071062
11	0xbe719112	-0.23590496
12	0xbd39eca4	-0.045391694
13	0xbe2d61c6	-0.16931829
14	0x3d4ab444	0.04948832
15	0x3e390f32	0.18072203
16	0xbe2f1678	-0.17098415
17	0xbe0eb7a8	-0.13937247
18	0xbdb74409	-0.089485236
19	0x3be425c1	0.0069625084
20	0x3e335f3e	0.17516801
21	0xbe19a0df	-0.15002774
22	0xbe073057	-0.13202034
23	0xbd1d2152	-0.038361855
24	0x3cd02b8f	0.025411395
25	0x3d99809a	0.07495232
26	0x3e8fc52f	0.28080127
27	0x3dfb6f99	0.12277145
28	0x3d055206	0.032548927
29	0x3c969d27	0.018385483
30	0x3e21c472	0.15797594
31	0x3dcc5561	0.09977222
32	0x3d13d6a1	0.036093358
33	0xbe2357a9	-0.15951408
34	0xbdd7fcbb	-0.105462514
35	0xbe1edd75	-0.15514167
36	0xbd10a524	-0.03531374
37	0xbddc46d7	-0.10755699
38	0xbe2ede0f	-0.17076896
39	0xbcf31423	-0.029672688
40	0x3e2b42b8	0.1672467
41	0x3e9a29ea	0.30110103
42	0x3e87ba00	0.26509094
43	0x3e22330a	0.15839782
44	0xbe180f0a	-0.14849487
45	0xbe75ec40	-0.24015903
46	0xbd51f414	-0.05125816
47	0x3df5d24a	0.12003
48	0xbe53ecff	-0.20695876
49	0xbd92bf60	-0.07165408
50	0x3e30dbca	0.17271343
51	0x3c1f01c0	0.009705007
52	0x3ea974b7	0.3309686
53	0xbe4ba6c5	-0.19887836
54	0xbda75279	-0.08170027
55	0x3a46f9b4	0.0007590309
56	0xbe136439	-0.143937
57	0x3b83e9f8	0.004025694
58	0x3cb18080	0.021667719
59	0xbebd0a4d	-0.3692192
60	0xbd915817	-0.0709688
61	0x377a71d0	1.492766e-05
62	0xbe916efa	-0.2840498
63	0x3e078408	0.1323396
64	0xbd896c26	-0.06710081
65	0xbba4da43	-0.0050309016
66	0xbdddb70b	-0.10825928
67	0x3dae6f98	0.085173786
68	0xbcfe516b	-0.031044682
69	0xbd2a43e9	-0.04156867
70	0x398dce98	0.0002704754
71	0x3d5f40d5	0.054505188
72	0xbdf82581	-0.12116528
73	0xbd671e98	-0.05642566
74	0x3da741e0	0.081668615
75	0x3e04ed13	0.12981062
76	0x3cf4b390	0.029870778
77	0x3a03acaf	0.0005022985
78	0x3d789e41	0.060697798
79	0x3e4b2132	0.19836882
80	0x3d24db9e	0.040248506
81	0xbe157805	-0.14596565
82	0x3e14aac2	0.14518264
83	0xbe1957c1	-0.14974882
84	0x3d5b7222	0.053575642
85	0xbd8ed703	-0.06974604
86	0x3dbd3ecd	0.09240494
87	0x3ee318fc	0.44355
88	0x3dd12b72	0.10213365
89	0x3d93ad4b	0.072107874
90	0xbbe6dc66	-0.0070453165
91	0x3deb755d	0.11496995
92	0x3e0ab9ed	0.13547488
93	0xbe7ecf4e	-0.24883768
94	0x3e10132f	0.14069818
95	0xbd6bb233	-0.05754299
96	0xbca30fea	-0.01990505
97	0xbe6429c2	-0.22281554
98	0x3d4c5d93	0.049893927
99	0x3dc6833c	0.09693
100	0xbb5b2413	-0.003343825
101	0xbe4e032a	-0.20118394
102	0xbdb9369d	-0.0904362
103	0x3da6b7b1	0.08140505
104	0xbd2bacbb	-0.041912775
105	0xbda0ab46	-0.07845168
106	0xbe1f13c4	-0.15534884
107	0x3d0a403b	0.03375266
108	0xba7fefc1	-0.0009763204
109	0xbe4e4634	-0.20143968
110	0xbe22faf9	-0.15916051
111	0x39aa8f2e	0.00032531604
112	0x3ddecb83	0.108786605
113	0x3e886a57	0.2664363
114	0x3e07b257	0.13251625
115	0xbe97c3fb	-0.2964171
116	0x3d3d037c	0.0461459
117	0xbd22f84a	-0.03978757
118	0xbe8efe80	-0.27928543
119	0x3e1fcbe6	0.15605125
120	0x3e0b5818	0.13607824
121	0x3ceb858a	0.0287502
122	0xbcb1e225	-0.02171428
123	0xbcaf1ce2	-0.021376077
124	0xbdc5cc52	-0.09658112
125	0x3d166681	0.03671885
126	0xbdd1dd40	-0.10247278
127	0xbd3dfd8e	-0.046384387
128	0xbddf568b	-0.10905179
129	0x3d54b477	0.051929917
130	0xbd103313	-0.03520496
131	0x3dbe26ca	0.09284742
132	0x3e213aaa	0.15745035
133	0x3db5ed5b	0.088831626
134	0x3dd25207	0.10269552
135	0x3debfe4d	0.115231134
136	0xbdec79fb	-0.115467034
137	0xbe1a99a2	-0.15097669
138	0x3da6ee7c	0.08150956
139	0x3def528e	0.11685668
140	0x3e1cf921	0.1532941
141	0x3d2cb18e	0.042161517
142	0xbd948cf7	-0.072534494
143	0x3dd28e90	0.10281098
144	0xbe0a91c9	-0.13532175
145	0xbb72a87e	-0.0037026699
146	0x3e1f4447	0.1555339
147	0xbe3a3509	-0.18184294
148	0xbe09f486	-0.13472185
149	0xbda7ed48	-0.08199555
150	0x3ce941b6	0.028473716
151	0xbe047d77	-0.12938486
152	0x3d0aed30	0.033917606
153	0x3d03678e	0.03208118
154	0x3cd03a75	0.0254185
155	0x3e251623	0.16121726
156	0x3d955704	0.072919875
157	0xbebf4be2	-0.37362581
158	0xbdb48b04	-0.088155776
159	0xbe7defcb	-0.24798505
160	0x3e7ef3b6	0.24897656
161	0x3d2ba419	0.041904543
162	0xbd17d971	-0.037072603
163	0xbe2818cd	-0.16415711
164	0xbd961e6f	-0.073300235
165	0x3e35ec50	0.17765927
166	0xbe632588	-0.22182286
167	0xbe8d2dba	-0.2757395
168	0x3e878438	0.26468062
169	0x3d935165	0.07193259
170	0xbd71d36b	-0.059039515
171	0x3e5fced9	0.2185625
172	0x3dca7222	0.0988505
173	0xbe769dfc	-0.24083704
174	0x3e372251	0.17884184
175	0xbdb06c1b	-0.086143695
176	0x3d990971	0.07472504
177	0xbd7636a0	-0.06011069
178	0xbdea69a3	-0.1144593
179	0xbcdc021d	-0.026856476
180	0x3c422971	0.011850701
181	0x3dc1b31c	0.094579905
182	0xba919ce3	-0.0011109378
183	0xba6b5726	-0.00089775247
184	0x3db8213a	0.089907125
185	0xbe3a1066	-0.18170318
186	0x3e2b110f	0.16705726
187	0x3e1feea4	0.15618378
188	0xbd8b119a	-0.067904666
189	0xba90aae5	-0.0011037259
190	0x3d48db18	0.04903707
191	0xbd8951a3	-0.06705024
192	0xbe487d42	-0.19579032
193	0x3dd80d3b	0.105493985
194	0xbe213aab	-0.15745036
195	0x3e0667a5	0.13125475
196	0xbe9ab455	-0.30215707
197	0xbe1e5a45	-0.15464123
198	0x3a6b6261	0.0008979198
199	0xbdaa10ef	-0.08304011
200	0xbe4c37bb	-0.19943134
201	0x3deba2c6	0.11505656
202	0x3e73c1b0	0.23804355
203	0x3e0fdaac	0.1404826
204	0xbe2a4a87	-0.16629992
205	0x3ae7c3f1	0.0017682296
206	0x3e52c2cf	0.20582126
207	0x3d375148	0.04475525
208	0x3e967104	0.293831
209	0x3c489d9c	0.012244608
210	0xbd7c16aa	-0.06154505
211	0x3c47d4b5	0.012196709
212	0x3eab6f25	0.33483234
213	0x3dbbedbe	0.09176205
214	0xbde68ccc	-0.112573236
215	0x3dd46035	0.103699125
216	0xbe4deedf	-0.20110653
217	0x3d35efb9	0.04441807
218	0xbe681bde	-0.2266688
219	0xbc7af6ca	-0.015317628
220	0xbd7015d1	-0.058614556
221	0xbe2e102a	-0.16998354
222	0xbe2587c0	-0.16165066
223	0xbe03a4c9	-0.1285583
224	0x3e990891	0.29889348
225	0x3e2a4173	0.1662653
226	0x3e8fa2dc	0.2805394
227	0xbe026de1	-0.12737228
228	0x3e07f642	0.13277534
229	0x3d67f689	0.0566316
230	0xbe0ae424	-0.13563591
231	0xbc139958	-0.009008728
232	0xbe42915e	-0.19000766
233	0x3e011c9b	0.12608568
234	0x3db3dc7d	0.08782289
235	0xbb97e163	-0.0046350225
236	0xbdb5ad2d	-0.08870921
237	0xbd951126	-0.072786614
238	0xbdfa81f9	-0.122318216
239	0x3e37994e	0.17929575
240	0x3d9d5bc4	0.076835185
241	0xbeda8756	-0.42681378
242	0xbdc0c9ee	-0.09413515
243	0x3d124af0	0.035715997
244	0xbe371175	-0.17877753
245	0x3e701fc2	0.23449615
246	0xbdc04360	-0.09387851
247	0xbd9acdb4	-0.07558766
248	0xbcb9595a	-0.022625614
249	0xbe08b81d	-0.13351484
250	0x3de4a82f	0.11164891
251	0xbe075a4d	-0.13218041
252	0x3e52a615	0.20571168
253	0xbd33a7fd	-0.043861378
254	0x3e32060e	0.17385122
255	0x3e8a1f24	0.26976883

action_model._continuous_distribution.mu.bias f4 [2]
0	0x3cc7993b	0.024365058
1	0x3c9fb0cc	0.019493483

exp_avg f4 [128, 27]
0	0x00000000	0.0
1	0xb780f6cb	-1.5373711e-05
2	0xb780f6cb	-1.5373711e-05
3	0x80000004	-6e-45
4	0xb780f6cb	-1.5373711e-05
5	0xb780f6cb	-1.5373711e-05
6	0x00000000	0.0
7	0xb780f6cb	-1.5373711e-05
8	0xb780f6cb	-1.5373711e-05
9	0x00000004	6e-45
10	0xb780f6cb	-1.5373711e-05
11	0xb780f6cb	-1.5373711e-05
12	0x80000004	-6e-45
13	0xb780f6cb	-1.5373711e-05
14	0xb780f6cb	-1.5373711e-05
15	0x80000004	-6e-45
16	0xb780f6cb	-1.5373711e-05
17	0xb780f6cb	-1.5373711e-05
18	0x80000004	-6e-45
19	0xb780f6cb	-1.5373711e-05
20	0xb780f6cb	-1.5373711e-05
21	0x3842c2dd	4.6434685e-05
22	0xb78106b4	-1.538112e-05
23	0xb8e1a20a	-0.00010759018
24	0x38431bc7	4.6517493e-05
25	0xb781062d	-1.5380874e-05
26	0xb8e1cfc7	-0.000107675376
27	0x00000000	0.0
28	0xbc85f157	-0.016350431
29	0xbc85f157	-0.016350431
30	0x80000004	-6e-45
31	0xbc85f157	-0.016350431
32	0xbc85f157	-0.016350431
33	0x00000000	0.0
34	0xbc85f157	-0.016350431
35	0xbc85f157	-0.016350431
36	0x80000004	-6e-45
37	0xbc85f157	-0.016350431
38	0xbc85f157	-0.016350431
39	0x80000004	-6e-45
40	0xbc85f157	-0.016350431
41	0xbc85f157	-0.016350431
42	0x00000004	6e-45
43	0xbc85f157	-0.016350431
44	0xbc85f157	-0.016350431
45	0x00000004	6e-45
46	0xbc85f157	-0.016350431
47	0xbc85f157	-0.016350431
48	0x3d6a9d5d	0.05727898
49	0xbc85f2fa	-0.016351212
50	0xbdea71d9	-0.11447496
51	0x3d6b1b17	0.05739888
52	0xbc85f146	-0.0163504
53	0xbdea7617	-0.11448305
54	0x00000000	0.0
55	0x3ae01f56	0.0017099183
56	0x3ae01f56	0.0017099183
57	0x00000004	6e-45
58	0x3ae01f56	0.0017099183
59	0x3ae01f56	0.0017099183
60	0x00000000	0.0
61	0x3ae01f56	0.0017099183
62	0x3ae01f56	0.0017099183
63	0x00000004	6e-45
64	0x3ae01f56	0.0017099183
65	0x3ae01f56	0.0017099183
66	0x00000004	6e-45
67	0x3ae01f56	0.0017099183
68	0x3ae01f56	0.0017099183
69	0x80000004	-6e-45
70	0x3ae01f56	0.0017099183
71	0x3ae01f56	0.0017099183
72	0x80000004	-6e-45
73	0x3ae01f56	0.0017099183
74	0x3ae01f56	0.0017099183
75	0xbb812ad5	-0.0039418736
76	0x3ae04f67	0.0017113507
77	0x3c43f462	0.011960121
78	0xbb81ecd3	-0.003964999
79	0x3ae03c6e	0.0017107853
80	0x3c444f23	0.011981758
81	0x00000000	0.0
82	0xbb9184be	-0.004440873
83	0xbb9184be	-0.004440873
84	0x00000004	6e-45
85	0xbb9184be	-0.004440873
86	0xbb9184be	-0.004440873
87	0x00000000	0.0
88	0xbb9184be	-0.004440873
89	0xbb9184be	-0.004440873
90	0x80000004	-6e-45
91	0xbb9184be	-0.004440873
92	0xbb9184be	-0.004440873
93	0x00000004	6e-45
94	0xbb9184be	-0.004440873
95	0xbb9184be	-0.004440873
96	0x00000004	6e-45
97	0xbb9184be	-0.004440873
98	0xbb9184be	-0.004440873
99	0x00000004	6e-45
100	0xbb9184be	-0.004440873
101	0xbb9184be	-0.004440873
102	0x3c86b69a	0.016444493
103	0xbb9181d9	-0.004440528
104	0xbcfebebe	-0.031096812
105	0x3c86f0d4	0.016472258
106	0xbb9181ab	-0.0044405065
107	0xbcfeb159	-0.031090425
108	0x00000000	0.0
109	0x3c368026	0.011138951
110	0x3c368026	0.011138951
111	0x80000004	-6e-45
112	0x3c368026	0.011138951
113	0x3c368026	0.011138951
114	0x00000000	0.0
115	0x3c368026	0.011138951
116	0x3c368026	0.011138951
117	0x80000004	-6e-45
118	0x3c368026	0.011138951
119	0x3c368026	0.011138951
120	0x80000004	-6e-45
121	0x3c368026	0.011138951
122	0x3c368026	0.011138951
123	0x00000004	6e-45
124	0x3c368026	0.011138951
125	0x3c368026	0.011138951
126	0x00000004	6e-45
127	0x3c368026	0.011138951
128	0x3c368026	0.011138951
129	0xbd21aea8	-0.039473206
130	0x3c368183	0.011139276
131	0x3d9fb8de	0.077989325
132	0xbd2204af	-0.039555248
133	0x3c367f16	0.011138698
134	0x3d9fba47	0.077992015
135	0x00000000	0.0
136	0xbb8745e5	-0.004128205
137	0xbb8745e5	-0.004128205
138	0x80000004	-6e-45
139	0xbb8745e5	-0.004128205
140	0xbb8745e5	-0.004128205
141	0x00000000	0.0
142	0xbb8745e5	-0.004128205
143	0xbb8745e5	-0.004128205
144	0x80000004	-6e-45
145	0xbb8745e5	-0.004128205
146	0xbb8745e5	-0.004128205
147	0x80000004	-6e-45
148	0xbb8745e5	-0.004128205
149	0xbb8745e5	-0.004128205
150	0x80000004	-6e-45
151	0xbb8745e5	-0.004128205
152	0xbb8745e5	-0.004128205
153	0x80000004	-6e-45
154	0xbb8745e5	-0.004128205
155	0xbb8745e5	-0.004128205
156	0x3c5cc400	0.013474464
157	0xbb875001	-0.0041294103
158	0xbcecb5bd	-0.028895253
159	0x3c5d5077	0.013507954
160	0xbb874c27	-0.004128951
161	0xbcecd6b5	-0.028910974
162	0x00000000	0.0
163	0x3c5575de	0.01302859
164	0x3c5575de	0.01302859
165	0x00000004	6e-45
166	0x3c5575de	0.01302859
167	0x3c5575de	0.01302859
168	0x00000000	0.0
169	0x3c5575de	0.01302859
170	0x3c5575de	0.01302859
171	0x80000004	-6e-45
172	0x3c5575de	0.01302859
173	0x3c5575de	0.01302859
174	0x00000004	6e-45
175	0x3c5575de	0.01302859
176	0x3c5575de	0.01302859
177	0x80000004	-6e-45
178	0x3c5575de	0.01302859
179	0x3c5575de	0.01302859
180	0x80000004	-6e-45
181	0x3c5575de	0.01302859
182	0x3c5575de	0.01302859
183	0xbd3d85dd	-0.04627024
184	0x3c557720	0.01302889
185	0x3dbad1a9	0.09122021
186	0xbd3dea81	-0.04636622
187	0x3c557457	0.013028226
188	0x3dbad2c9	0.09122235
189	0x00000000	0.0
190	0x3bf20a78	0.007386502
191	0x3bf20a78	0.007386502
192	0x00000004	6e-45
193	0x3bf20a78	0.007386502
194	0x3bf20a78	0.007386502
195	0x00000000	0.0
196	0x3bf20a78	0.007386502
197	0x3bf20a78	0.007386502
198	0x00000004	6e-45
199	0x3bf20a78	0.007386502
200	0x3bf20a78	0.007386502
201	0x00000004	6e-45
202	0x3bf20a78	0.007386502
203	0x3bf20a78	0.007386502
204	0x00000004	6e-45
205	0x3bf20a78	0.007386502
206	0x3bf20a78	0.007386502
207	0x00000004	6e-45
208	0x3bf20a78	0.007386502
209	0x3bf20a78	0.007386502
210	0xbcc2b751	-0.023769053
211	0x3bf216fc	0.007387994
212	0x3d53c8f9	0.051705334
213	0xbcc341d9	-0.02383511
214	0x3bf21024	0.007387178
215	0x3d53e00f	0.05172735
216	0x00000000	0.0
217	0x3cd83d08	0.02639629
218	0x3cd83d08	0.02639629
219	0x80000004	-6e-45
220	0x3cd83d08	0.02639629
221	0x3cd83d08	0.02639629
222	0x00000000	0.0
223	0x3cd83d08	0.02639629
224	0x3cd83d08	0.02639629
225	0x80000004	-6e-45
226	0x3cd83d08	0.02639629
227	0x3cd83d08	0.02639629
228	0x80000004	-6e-45
229	0x3cd83d08	0.02639629
230	0x3cd83d08	0.02639629
231	0x00000004	6e-45
232	0x3cd83d08	0.02639629
233	0x3cd83d08	0.02639629
234	0x00000004	6e-45
235	0x3cd83d08	0.02639629
236	0x3cd83d08	0.02639629
237	0xbdbe8452	-0.09302582
238	0x3cd83e90	0.02639702
239	0x3e3d3f87	0.18481265
240	0xbdbeec7c	-0.093224496
241	0x3cd83b77	0.026395543
242	0x3e3d419c	0.18482059
243	0x00000000	0.0
244	0x390a84ad	0.00013210131
245	0x390a84ad	0.00013210131
246	0x80000004	-6e-45
247	0x390a84ad	0.00013210131
248	0x390a84ad	0.00013210131
249	0x00000000	0.0
250	0x390a84ad	0.00013210131
251	0x390a84ad	0.00013210131
252	0x80000004	-6e-45
253	0x390a84ad	0.00013210131
254	0x390a84ad	0.00013210131
255	0x80000004	-6e-45

exp_avg_sq f4 [128, 27]
0	0x00000000	0.0
1	0x3dde41ed	0.10852418
2	0x3dde41ed	0.10852418
3	0x264bc0b1	7.069092e-16
4	0x3dde41ed	0.10852418
5	0x3dde41ed	0.10852418
6	0x00000000	0.0
7	0x3dde41ed	0.10852418
8	0x3dde41ed	0.10852418
9	0x2691892b	1.0098576e-15
10	0x3dde41ed	0.10852418
11	0x3dde41ed	0.10852418
12	0x3a356cf8	0.00069208397
13	0x3ddc1a69	0.10747225
14	0x3ddd5022	0.108063
15	0x3c2e5fa5	0.010642921
16	0x3dcd3cc7	0.10021358
17	0x3dde0395	0.10840527
18	0x3c2e5fa5	0.010642921
19	0x3dcd3cc7	0.10021358
20	0x3dde0395	0.10840527
21	0x409c2425	4.879412
22	0x3dde45bc	0.108531445
23	0x3f2d1e40	0.6762428
24	0x409c7ea4	4.890459
25	0x3dde4634	0.10853234
26	0x3f2d5f81	0.6772385
27	0x00000000	0.0
28	0x3e855401	0.26040652
29	0x3e855401	0.26040652
30	0x26b9c533	1.2890405e-15
31	0x3e855401	0.26040652
32	0x3e855401	0.26040652
33	0x00000000	0.0
34	0x3e855401	0.26040652
35	0x3e855401	0.26040652
36	0x263d7681	6.573315e-16
37	0x3e855401	0.26040652
38	0x3e855401	0.26040652
39	0x39e2049c	0.00043109513
40	0x3e851e22	0.25999552
41	0x3e8531b9	0.26014498
42	0x3bade7f3	0.0053071915
43	0x3e8294b6	0.25504082
44	0x3e8538ae	0.26019806
45	0x3bade7f3	0.0053071915
46	0x3e8294b6	0.25504082
47	0x3e8538ae	0.26019806
48	0x401023e6	2.252191
49	0x3e855ef0	0.26048994
50	0x4146bbf8	12.420891
51	0x40105b07	2.2555559
52	0x3e855e2a	0.26048404
53	0x4146b9fe	12.420408
54	0x00000000	0.0
55	0x3ed8ab43	0.42318162
56	0x3ed8ab43	0.42318162
57	0x26c6a9fc	1.3785084e-15
58	0x3ed8ab43	0.42318162
59	0x3ed8ab43	0.42318162
60	0x00000000	0.0
61	0x3ed8ab43	0.42318162
62	0x3ed8ab43	0.42318162
63	0x2687f502	9.433916e-16
64	0x3ed8ab43	0.42318162
65	0x3ed8ab43	0.42318162
66	0x3ad3f7bd	0.0016171854
67	0x3ed715db	0.42008862
68	0x3ed7dd8a	0.42161208
69	0x3c472d52	0.012156801
70	0x3ed2f513	0.41202602
71	0x3ed86a58	0.42268634
72	0x3c472d52	0.012156801
73	0x3ed2f513	0.41202602
74	0x3ed86a58	0.42268634
75	0x408cd609	4.4011273
76	0x3ed8ad79	0.4231985
77	0x4191b208	18.21193
78	0x408cea8d	4.4036317
79	0x3ed8aedd	0.4232091
80	0x4191bee3	18.218206
81	0x00000000	0.0
82	0x3d71ea81	0.05906153
83	0x3d71ea81	0.05906153
84	0x25bf686a	3.3203972e-16
85	0x3d71ea81	0.05906153
86	0x3d71ea81	0.05906153
87	0x00000000	0.0
88	0x3d71ea81	0.05906153
89	0x3d71ea81	0.05906153
90	0x24cf4deb	8.990394e-17
91	0x3d71ea81	0.05906153
92	0x3d71ea81	0.05906153
93	0x389f1d2d	7.587145e-05
94	0x3d7179ac	0.058953926
95	0x3d71b09c	0.05900632
96	0x3a08f33b	0.00052242324
97	0x3d6fdc3c	0.05855964
98	0x3d71de7d	0.059050072
99	0x3a08f33b	0.00052242324
100	0x3d6fdc3c	0.05855964
101	0x3d71de7d	0.059050072
102	0x3f0df956	0.5545858
103	0x3d71ebd2	0.059062786
104	0x4035f637	2.8431528
105	0x3f0e2b6c	0.55535007
106	0x3d71ed23	0.05906404
107	0x4035f4da	2.8430696
108	0x00000000	0.0
109	0x3eb7a226	0.35865897
110	0x3eb7a226	0.35865897
111	0x252e6e7e	1.512953e-16
112	0x3eb7a226	0.35865897
113	0x3eb7a226	0.35865897
114	0x00000000	0.0
115	0x3eb7a226	0.35865897
116	0x3eb7a226	0.35865897
117	0x2604a660	4.602218e-16
118	0x3eb7a226	0.35865897
119	0x3eb7a226	0.35865897
120	0x3a1d595a	0.0006002389
121	0x3eb69db8	0.35667205
122	0x3eb7246c	0.35769975
123	0x3b9d719a	0.004804802
124	0x3eb58441	0.35452464
125	0x3eb6f0f5	0.3573071
126	0x3b9d719a	0.004804802
127	0x3eb58441	0.35452464
128	0x3eb6f0f5	0.3573071
129	0x406c71b7	3.6944406
130	0x3eb7adfc	0.35874927
131	0x41751c0c	15.319347
132	0x406cdcb2	3.7009702
133	0x3eb7ad76	0.35874528
134	0x41752fbd	15.324155
135	0x00000000	0.0
136	0x3ea97f21	0.33104804
137	0x3ea97f21	0.33104804
138	0x2815221d	8.278559e-15
139	0x3ea97f21	0.33104804
140	0x3ea97f21	0.33104804
141	0x00000000	0.0
142	0x3ea97f21	0.33104804
143	0x3ea97f21	0.33104804
144	0x28482b20	1.11115815e-14
145	0x3ea97f21	0.33104804
146	0x3ea97f21	0.33104804
147	0x3b8a1491	0.0042138775
148	0x3ea74609	0.3267062
149	0x3ea8518d	0.32874718
150	0x3b6a9a0f	0.0035797392
151	0x3ea6bce2	0.3256598
152	0x3ea92bd5	0.33041254
153	0x3b6a9a0f	0.0035797392
154	0x3ea6bce2	0.3256598
155	0x3ea92bd5	0.33041254
156	0x40d1c992	6.5558558
157	0x3ea981b9	0.33106783
158	0x4127c5e9	10.485818
159	0x40d218e5	6.565539
160	0x3ea981d5	0.33106866
161	0x4127c95f	10.486663
162	0x00000000	0.0
163	0x403c5d87	2.9432085
164	0x403c5d87	2.9432085
165	0x2739ed92	2.5802695e-15
166	0x403c5d87	2.9432085
167	0x403c5d87	2.9432085
168	0x00000000	0.0
169	0x403c5d87	2.9432085
170	0x403c5d87	2.9432085
171	0x265b515d	7.6091156e-16
172	0x403c5d87	2.9432085
173	0x403c5d87	2.9432085
174	0x3d0902cf	0.033449944
175	0x403b5c4b	2.927508
176	0x403b7f2a	2.9296365
177	0x3e897fc5	0.26855293
178	0x402d479f	2.7074964
179	0x403c4f08	2.9423237
180	0x3e897fc5	0.26855293
181	0x402d479f	2.7074964
182	0x403c4f08	2.9423237
183	0x42e34fae	113.655624
184	0x403c69e6	2.9439635
185	0x421d6781	39.351078
186	0x42e39da4	113.80789
187	0x403c69ed	2.9439652
188	0x421d859e	39.380486
189	0x00000000	0.0
190	0x3e47d549	0.19514956
191	0x3e47d549	0.19514956
192	0x2661e408	7.8371596e-16
193	0x3e47d549	0.19514956
194	0x3e47d549	0.19514956
195	0x00000000	0.0
196	0x3e47d549	0.19514956
197	0x3e47d549	0.19514956
198	0x257845db	2.1534239e-16
199	0x3e47d549	0.19514956
200	0x3e47d549	0.19514956
201	0x36fd472c	7.548273e-06
202	0x3e47d2cb	0.19514005
203	0x3e47d40c	0.19514483
204	0x390ff3df	0.00013728392
205	0x3e47b1a3	0.19501357
206	0x3e47cf4e	0.19512674
207	0x390ff3df	0.00013728392
208	0x3e47b1a3	0.19501357
209	0x3e47cf4e	0.19512674
210	0x3f964c03	1.1741947
211	0x3e47d785	0.19515808
212	0x4118cd25	9.550084
213	0x3f9629ae	1.173147
214	0x3e47d80b	0.19516008
215	0x4118d78e	9.552626
216	0x00000000	0.0
217	0x3fa81370	1.3130932
218	0x3fa81370	1.3130932
219	0x27d3160c	5.8588168e-15
220	0x3fa81370	1.3130932
221	0x3fa81370	1.3130932
222	0x00000000	0.0
223	0x3fa81370	1.3130932
224	0x3fa81370	1.3130932
225	0x27dd2838	6.1383427e-15
226	0x3fa81370	1.3130932
227	0x3fa81370	1.3130932
228	0x3a13410a	0.00056172966
229	0x3fa81d45	1.3133932
230	0x3fa8126a	1.313062
231	0x3ae4e69f	0.001746375
232	0x3fa7daa6	1.3113601
233	0x3fa7fc89	1.3123943
234	0x3ae4e69f	0.001746375
235	0x3fa7daa6	1.3113601
236	0x3fa7fc89	1.3123943
237	0x41552644	13.321842
238	0x3fa831bb	1.3140177
239	0x426cf7e2	59.242073
240	0x4155962f	13.349166
241	0x3fa8329a	1.3140442
242	0x426d169e	59.272087
243	0x00000000	0.0
244	0x3c5aa048	0.013343878
245	0x3c5aa048	0.013343878
246	0x2436bf19	3.9626825e-17
247	0x3c5aa048	0.013343878
248	0x3c5aa048	0.013343878
249	0x00000000	0.0
250	0x3c5aa048	0.013343878
251	0x3c5aa048	0.013343878
252	0x238f01a5	1.5504788e-17
253	0x3c5aa048	0.013343878
254	0x3c5aa048	0.013343878
255	0x3822df0d	3.8831542e-05

exp_avg f4 [128]
0	0xb780f6cb	-1.5373711e-05
1	0xbc85f157	-0.016350431
2	0x3ae01f56	0.0017099183
3	0xbb9184be	-0.004440873
4	0x3c368026	0.011138951
5	0xbb8745e5	-0.004128205
6	0x3c5575de	0.01302859
7	0x3bf20a78	0.007386502
8	0x3cd83d08	0.02639629
9	0x390a84ad	0.00013210131
10	0xbac7ec42	-0.0015252905
11	0xbd2e616b	-0.042573374
12	0xbb14b962	-0.0022693505
13	0xbbba6d7c	-0.005689321
14	0xbc73166c	-0.014836889
15	0x3a23b7d9	0.0006245352
16	0xba547ae9	-0.0008105473
17	0xbb1ba304	-0.0023748288
18	0x3b6e5790	0.003636811
19	0xbaee2a8c	-0.0018170639
20	0x3a5ccd0d	0.0008422889
21	0x3c824428	0.01590164
22	0xbbf1710a	-0.0073682116
23	0xbca4ea2f	-0.020131199
24	0x3cda13be	0.026620742
25	0x3b118416	0.0022203973
26	0x3d01fa10	0.03173262
27	0x39a50e41	0.00031481872
28	0x3a7753a7	0.00094347674
29	0xb862bde8	-5.4059463e-05
30	0xbc4f5441	-0.012654365
31	0xbc8c1f4d	-0.01710477
32	0xbae70f45	-0.0017628452
33	0x392a4f3c	0.0001624198
34	0x3a318561	0.0006771889
35	0x3a0366ea	0.0005012589
36	0x3bd8e82e	0.006619475
37	0x3ac069f5	0.0014680015
38	0x3acd2dd5	0.0015653918
39	0xbc252202	-0.010078909
40	0x3abd8965	0.0014460502
41	0x3b0990c8	0.0020990837
42	0xba3e64d1	-0.00072629476
43	0x3bd586de	0.0065163216
44	0xbb2d9dc8	-0.002649175
45	0x3bad04a5	0.0052800947
46	0xb9b476cb	-0.00034420783
47	0x3c1492f0	0.009068236
48	0x3ac5a3ee	0.0015078762
49	0x3b32311e	0.002718992
50	0xbc6b32ea	-0.014355401
51	0xbb6bb8e3	-0.0035968355
52	0xbc871ec5	-0.016494164
53	0xb98ce838	-0.00026875897
54	0x3d315f90	0.043304026
55	0x3c3e505f	0.011615842
56	0x3b85edfa	0.004087207
57	0xbb5a4884	-0.0033307383
58	0xbc2da735	-0.010598947
59	0xbb7040c8	-0.0036659706
60	0xbc9a432b	-0.018830856
61	0xbaaabfc4	-0.0013027121
62	0xbd07a724	-0.033118382
63	0x3cd41a8d	0.025891567
64	0x37f82918	2.958304e-05
65	0xb99a82d4	-0.00029470643
66	0xbbaa45cb	-0.0051963083
67	0xbaf01a2e	-0.0018318349
68	0x3a4e31ea	0.0007865714
69	0x3ca003d2	0.019533072
70	0x3d07a025	0.03311171
71	0x3bf84ed1	0.007577755
72	0xbd33c483	-0.04388858
73	0x3a11c62e	0.0005560842
74	0x3c2650bc	0.0101510845
75	0x3cd29f2f	0.02571067
76	0x3b03c4c8	0.0020106304
77	0x3d045b53	0.032313656
78	0x3a0272de	0.0004976223
79	0x39029e7b	0.00012456805
80	0x3a9c1754	0.0011908808
81	0x3bdc8420	0.0067296177
82	0xbb8c9456	-0.004290144
83	0x3c503220	0.012707263
84	0xb8f75f77	-0.000117956595
85	0xbca932d9	-0.020654129
86	0xbc367b2a	-0.011137763
87	0x3b5c292a	0.0033593872
88	0x3b0a70bc	0.0021124324
89	0xbb744184	-0.0037270496
90	0x39a3297b	0.00031120688
91	0xbb8c2ae1	-0.0042775725
92	0xbcced78a	-0.025249261
93	0xba9415a9	-0.0011297959
94	0x3c88c213	0.016694104
95	0x3b2c48ab	0.002628843
96	0xbb516468	-0.0031950716
97	0xb914c90d	-0.00014189277
98	0xbba2cea6	-0.004968482
99	0xbc5cdde5	-0.013480638
100	0xbc0fbc56	-0.00877293
101	0xb5529fb7	-7.846351e-07
102	0x3b8a745b	0.0042252964
103	0xbb1a3280	-0.0023528636
104	0xbb283084	-0.0025663683
105	0x3b7a2d83	0.00381741
106	0x3b2870bb	0.0025701958
107	0xb9bb4b45	-0.000357235
108	0xbcc4ecd9	-0.024038719
109	0xbaaa03a1	-0.0012971052
110	0xbb0c2058	-0.0021381583
111	0xbcdf303b	-0.027244678
112	0x397bd712	0.00024017345
113	0x3c4221dc	0.011848893
114	0x3b316376	0.002706734
115	0xb8299e91	-4.0440416e-05
116	0x3cbbe8fb	0.022938242
117	0x3c4ae884	0.012384538
118	0x3b56cdb5	0.003277642
119	0x3b10f005	0.002211572
120	0x3c903f8f	0.017608432
121	0x3c00319d	0.007824329
122	0x3ba4326b	0.005010893
123	0x3aae3669	0.0013291362
124	0x3c926370	0.017869681
125	0x3aa57f42	0.0012626427
126	0x3c17b992	0.009260552
127	0x3abf1677	0.0014578839

exp_avg_sq f4 [128]
0	0x3dde41ed	0.10852418
1	0x3e855401	0.26040652
2	0x3ed8ab43	0.42318162
3	0x3d71ea81	0.05906153
4	0x3eb7a226	0.35865897
5	0x3ea97f21	0.33104804
6	0x403c5d87	2.9432085
7	0x3e47d549	0.19514956
8	0x3fa81370	1.3130932
9	0x3c5aa048	0.013343878
10	0x3d93c13a	0.072145894
11	0x3fdbb075	1.7163225
12	0x3eaa9f49	0.3332465
13	0x3d705456	0.05867418
14	0x3ec54665	0.3853027
15	0x3f39563d	0.72397214
16	0x3ed9aa64	0.4251281
17	0x3c81ff8d	0.015868926
18	0x3d502b2b	0.05082242
19	0x3f337e3c	0.70114493
20	0x3c16c18a	0.009201417
21	0x3f91d2dc	1.1392474
22	0x40037e24	2.054574
23	0x3f0e4908	0.55580187
24	0x3f87caec	1.0608802
25	0x3f81b4f9	1.0133353
26	0x3fb00c76	1.3753803
27	0x3bb98800	0.0056619644
28	0x3c87d0fe	0.016579147
29	0x3ab24713	0.0013601504
30	0x3f2e374b	0.6805312
31	0x3ecfef91	0.40612462
32	0x3e105ec1	0.14098646
33	0x3eb1d746	0.34734553
34	0x3bfc0eda	0.0076922
35	0x3b8c012d	0.004272601
36	0x3e6f53f1	0.23371865
37	0x3ddc7d27	0.107660584
38	0x3f1ce7a6	0.6129097
39	0x3e1fbf1d	0.15600248
40	0x3bb61fd9	0.0055579958
41	0x3d8b84cb	0.068124376
42	0x3e8d8bd9	0.27645758
43	0x3eb94d93	0.36191997
44	0x3dfd1739	0.12357945
45	0x3e317c80	0.17332649
46	0x3e3eb862	0.18625024
47	0x3da6eb50	0.08150351
48	0x3f390fa1	0.7228947
49	0x3e1a16b1	0.15047719
50	0x3f9d09ac	1.2268577
51	0x3e1afd25	0.1513563
52	0x3e44def0	0.19225669
53	0x3e6d9f78	0.23205364
54	0x3fbfbb82	1.4979098
55	0x400c4e3c	2.192275
56	0x3e5fdac4	0.21860796
57	0x3ec85b08	0.3913195
58	0x3de54f32	0.11196746
59	0x3e94c30d	0.29055062
60	0x401ec32a	2.4806619
61	0x3d865902	0.06559946
62	0x3f88e89b	1.0695986
63	0x403b44e5	2.92608
64	0x3ddc30ed	0.10751519
65	0x3a01776c	0.0004938755
66	0x3d07b38a	0.033130206
67	0x3ea09b66	0.3136856
68	0x3db6f4bc	0.08933398
69	0x3f5c227e	0.8599013
70	0x3fea2a16	1.8294094
71	0x3dac9e9a	0.08428688
72	0x40178a81	2.3678286
73	0x3c07a019	0.008277916
74	0x3eed6dfd	0.46372977
75	0x3fa53f3a	1.290992
76	0x3c42f43e	0.011899052
77	0x405b450b	3.426089
78	0x3d3e48ae	0.04645603
79	0x3a88615d	0.0010404993
80	0x3c05a82e	0.008157773
81	0x3f295c00	0.66156006
82	0x3e37569f	0.17904137
83	0x3f15b0ce	0.5847291
84	0x3b6e7aa1	0.003638901
85	0x4004be43	2.0741127
86	0x3e3a86fb	0.18215553
87	0x3d8913bf	0.066932194
88	0x3ebb084a	0.36529762
89	0x3c9e5259	0.019326376
90	0x3d181904	0.03713323
91	0x3d5163fd	0.051120747
92	0x3ffb94e0	1.9654808
93	0x3e624bbf	0.22099207
94	0x3e3fb316	0.1872066
95	0x3ed282ec	0.4111551
96	0x3de334b0	0.11094034
97	0x3c131c53	0.008978921
98	0x3e8639dd	0.2621602
99	0x3f91dc2a	1.1395314
100	0x3dbe9349	0.09305436
101	0x3b0071c1	0.0019599053
102	0x3f7261db	0.94680566
103	0x3c17ca03	0.009264472
104	0x3c1654d1	0.009175495
105	0x3f45b64e	0.772313
106	0x3bc03aa5	0.005866366
107	0x3e9434e5	0.28946605
108	0x405bf034	3.4365358
109	0x3b9900d6	0.004669289
110	0x3d082cf4	0.033245996
111	0x3fc626ca	1.5480587
112	0x3bad1a00	0.0052826405
113	0x3f3babf9	0.73309284
114	0x3fce9b36	1.6141117
115	0x3c0aef37	0.008479885
116	0x3f61f5fd	0.88265973
117	0x3e4df8e9	0.20114483
118	0x3d4588a6	0.04822602
119	0x3bfba5a4	0.007679658
120	0x3faf1acc	1.3680053
121	0x3f866265	1.0498778
122	0x3eaf1cf5	0.3420178
123	0x3e2f1c7d	0.17100711
124	0x3fb59f44	1.4189229
125	0x3f15b6b5	0.58481914
126	0x3d976a19	0.073932834
127	0x3e2c9c7d	0.1685657
