results/test_environment/VacuumCleaner/VacuumCleaner-733319.onnx (onnx, 227638 bytes, 7 tensors)

network_body._body_endoder.seq_layers.0.weight f4 [128, 309]
0	0x3e10f73e	0.14156815
1	0x3d2fca96	0.04291781
2	0xbbb31918	-0.005465638
3	0xbf805f7c	-1.002914
4	0x3eb22db8	0.34800506
5	0x3e28659c	0.16445011
6	0xbd8f3aa9	-0.069936104
7	0x3d05be18	0.03265199
8	0xbd216200	-0.0394001
9	0x3ee02d19	0.43784407
10	0xbdccd3a0	-0.10001302
11	0xbc0d28ed	-0.0086157145
12	0xbcdecf72	-0.027198527
13	0x3c248701	0.010041953
14	0xbda2a087	-0.079407744
15	0x3e45bfec	0.19311494
16	0xbd296408	-0.041355163
17	0xbda04317	-0.07825296
18	0xbf380bca	-0.7189299
19	0x3dbdfe66	0.09277038
20	0x3ddadcfe	0.10686682
21	0x3f4967e6	0.7867416
22	0xbe2bb4e6	-0.16768226
23	0xbe088e8d	-0.13335629
24	0xbf522133	-0.8208191
25	0x3e2fafea	0.1715695
26	0x3cadf8db	0.021236828
27	0x3e0abb07	0.13547908
28	0xbddc26b4	-0.107495695
29	0xbce2faa5	-0.027707407
30	0xbe3ef577	-0.18648325
31	0x3bb8db4f	0.005641378
32	0xbd286527	-0.04111209
33	0x3e4c7f23	0.19970374
34	0xbd650261	-0.05591047
35	0xbd10a2aa	-0.03531138
36	0xbe3f388a	-0.18673912
37	0xbc47383b	-0.0121594025
38	0xbd48342f	-0.04887789
39	0xbf87fd0f	-1.0624102
40	0x3e685033	0.22686844
41	0x3e065694	0.13118964
42	0xbe336b12	-0.17521313
43	0x3d4fdc42	0.050747164
44	0xbd5c2a38	-0.0537512
45	0xbe480f95	-0.19537194
46	0x3cbb0576	0.022829752
47	0xbc88549d	-0.01664191
48	0x3e3e6309	0.18592466
49	0x3d1da08f	0.0384832
50	0x3d43226b	0.047640245
51	0x3d6f40da	0.058411457
52	0x3d3ef57b	0.046620827
53	0x3c9a4442	0.018831376
54	0xbdece99d	-0.11567996
55	0xbde59929	-0.112108536
56	0x3bf97bfb	0.0076136566
57	0xbe9e255d	-0.3088788
58	0x3d55b501	0.052174572
59	0xbdcd3fbf	-0.10021924
60	0x3e2cf2a3	0.16889434
61	0xbd46b44c	-0.04851179
62	0xbdcfab34	-0.10140076
63	0x3e81fbb5	0.2538735
64	0xbe2821f3	-0.164192
65	0xbdda9423	-0.10672786
66	0x3d55feb8	0.05224487
67	0x3c8b6534	0.01701603
68	0x3cbd359e	0.023096856
69	0xbc6562e0	-0.014000624
70	0xbcf7fbba	-0.0302714
71	0x3af47e74	0.0018653409
72	0x3e5e5a88	0.21714222
73	0xbe17585d	-0.14779802
74	0xbe00c263	-0.12574153
75	0xbeabc988	-0.33552194
76	0x3d4f6b1e	0.050639264
77	0x3d6c96d4	0.05776103
78	0x3d811f6f	0.063048236
79	0xbd45a35d	-0.0482515
80	0xbcc39bf5	-0.023878077
81	0xbe94401b	-0.2895516
82	0xbc5ed483	-0.013600471
83	0xbc5d2145	-0.013496702
84	0x3e7c5406	0.24641427
85	0xbe05ef43	-0.13079552
86	0xbde00795	-0.10938946
87	0xbe8dcb71	-0.27694276
88	0x3dfac5c8	0.12244755
89	0x3daf0a45	0.08546881
90	0x3daaf86c	0.08348164
91	0xbd047595	-0.032338697
92	0xbdcf2829	-0.10115082
93	0x3ef140ff	0.471199
94	0xbdc71327	-0.0972045
95	0xbe197edb	-0.14989798
96	0x3e1f6a33	0.15567856
97	0xbddf0cfe	-0.1089115
98	0xbd6b7887	-0.05748799
99	0xbe0bf9fb	-0.13669579
100	0x3c7eb0f9	0.015545123
101	0xbcaa8336	-0.02081452
102	0x3ea41e97	0.32054588
103	0xbda02e7e	-0.07821368
104	0xbca12eab	-0.019675573
105	0x3ea5b463	0.32364187
106	0x3d5b129a	0.053484537
107	0xbd7e12e0	-0.06202972
108	0x3eead64b	0.45866618
109	0xbda19819	-0.078903385
110	0xbe0477d7	-0.1293634
111	0x3d6383bd	0.055545557
112	0x3df04d9a	0.11733551
113	0xbd835aa5	-0.064137734
114	0xbeeb5976	-0.4596669
115	0x3d4fa795	0.050696928
116	0x3de5b68f	0.11216461
117	0x3e1f3b58	0.15549982
118	0x3d767152	0.060166664
119	0xbc58c28c	-0.013229977
120	0xbebfcb60	-0.3745985
121	0x3d9c0285	0.07617668
122	0x3d2a2f54	0.041549042
123	0xbe9d5da4	-0.30735505
124	0x3b51bd01	0.0032003524
125	0x3da2d1f3	0.07950201
126	0xbe8b7a89	-0.27241924
127	0x3d3fcea6	0.046827935
128	0x3aeec11e	0.0018215512
129	0xbd9e4662	-0.07728268
130	0x3d1ddd04	0.038540855
131	0x3e0cb474	0.13740712
132	0xbf5757f6	-0.8411859
133	0x3e1470f4	0.14496213
134	0x3dd8d27d	0.105870225
135	0xbf1faf02	-0.62376416
136	0x3dc6fc9f	0.097161524
137	0x3d138218	0.03601274
138	0xbf362efb	-0.71165437
139	0x3b566ce6	0.0032718717
140	0x3d5ccd8b	0.05390696
141	0xbe448147	-0.1918994
142	0x3df4feed	0.11962686
143	0x3c03be84	0.008041028
144	0xbede8c14	-0.43466246
145	0x3e0885c1	0.13332273
146	0x3d63d830	0.055626094
147	0xbd283255	-0.041063625
148	0xbd50ae0a	-0.050947227
149	0xbc667edc	-0.014068332
150	0xbe4b9504	-0.19881064
151	0x3b86e7cd	0.0041169883
152	0x3d510aff	0.051035877
153	0x3e8d8bb3	0.27645645
154	0xbd9dd251	-0.0770613
155	0xbd15ab7f	-0.036540505
156	0x3f2abdd4	0.66695905
157	0xbda36498	-0.07978171
158	0xbdb08498	-0.0861904
159	0xbd77ba95	-0.060480673
160	0xbd2c3d12	-0.04205043
161	0xbce7df88	-0.02830483
162	0x3ea7eec8	0.32799363
163	0xbdc5733e	-0.09641121
164	0x3cc297d2	0.023754034
165	0x3ee580d5	0.44824854
166	0xbe2d394e	-0.16916391
167	0xbd94a4f2	-0.07258023
168	0xbf68cbbd	-0.9093588
169	0x3ea6f3b3	0.32607803
170	0x3c77d690	0.015126839
171	0xbe8b3012	-0.27185112
172	0x3d9e9cbc	0.077447385
173	0x3df8af0c	0.121427625
174	0x3e8615b3	0.2618843
175	0xbda01b9b	-0.07817765
176	0xbd35dbd0	-0.044399083
177	0xbe26deb2	-0.16295889
178	0xbbe05b88	-0.006846849
179	0x3ca3734f	0.019952444
180	0x3e9824b5	0.29715505
181	0xbdb75abe	-0.089528546
182	0xbe14dfc6	-0.14538488
183	0xbf4e67d3	-0.80627173
184	0x3e5fe20a	0.21863571
185	0x3daefa56	0.085438415
186	0x3ec40200	0.38282776
187	0xbe54969b	-0.20760576
188	0xbe349a40	-0.17636967
189	0x3d31a2e8	0.04336825
190	0xbc75b831	-0.014997528
191	0xbc844631	-0.016146751
192	0x3f056037	0.5209994
193	0xbe75f205	-0.24018104
194	0xbe20344d	-0.15644951
195	0x3d19d84c	0.037559792
196	0xbde44822	-0.11146571
197	0xbcf76d71	-0.030203553
198	0xbeb99950	-0.3624978
199	0x3e0c4378	0.13697612
200	0x3d660be8	0.0561637
201	0xbbb70008	-0.0055847205
202	0xbdf609ab	-0.12013563
203	0x3bb72e26	0.005590218
204	0xbe988df0	-0.2979579
205	0x3e307799	0.17233123
206	0xbd926948	-0.07148987
207	0x3f15a7d7	0.5845923
208	0xbc8c99f5	-0.017163256
209	0xbe1fc360	-0.15601873
210	0x3e23bc18	0.15989721
211	0xbd554134	-0.052064136
212	0xbd79cfe8	-0.06098929
213	0x3decd405	0.11563877
214	0x3e2b3959	0.16721095
215	0x3d871814	0.065963894
216	0xbe8697da	-0.2628773
217	0x3e2c2b1b	0.16813318
218	0x3d9b915d	0.07596085
219	0xbe84ca9f	-0.25935838
220	0x3da0525c	0.07828209
221	0x3dba302e	0.09091221
222	0x3e279da9	0.16368736
223	0x3d4986bc	0.04920076
224	0x3d54de61	0.05196989
225	0xbd5bd60c	-0.053670928
226	0xbb939f01	-0.0045050387
227	0x3cd5ee1c	0.026114516
228	0x3f1eee45	0.6208232
229	0xbecfdaa0	-0.40596485
230	0xbe654126	-0.22388133
231	0xbf10a056	-0.56494653
232	0x3dffacc7	0.124841265
233	0x3cecc27e	0.028901335
234	0x3c7f2d0a	0.015574703
235	0xbd8764c9	-0.0661102
236	0x3d4143a1	0.047183637
237	0xbe41dc84	-0.18931776
238	0xbca99463	-0.02070064
239	0x3cc0cb6c	0.0235345
240	0xbe8bc9b7	-0.27302334
241	0x3e42fb65	0.19041212
242	0x3de753d3	0.11295285
243	0xbf38156b	-0.7190768
244	0x3e2b6831	0.16738965
245	0x3deeaa8a	0.116536215
246	0xbdb3f677	-0.08787244
247	0x3dba6436	0.09101145
248	0x3c80bb74	0.015714385
249	0xbf1e074e	-0.61729896
250	0x3d4f60da	0.050629474
251	0x3e217d79	0.1577052
252	0x3f73272a	0.94981635
253	0xbf0e00a2	-0.55469716
254	0xbec4b3c7	-0.3841841
255	0xbf5d2f1e	-0.8640002

network_body._body_endoder.seq_layers.0.bias f4 [128]
0	0xbc868c51	-0.01642433
1	0xbc60bc88	-0.013716824
2	0x3adb460c	0.001672925
3	0xbc01b54c	-0.00791676
4	0xbcf060e7	-0.029343082
5	0xbc751d26	-0.014960563
6	0xbcc5e92b	-0.024159035
7	0xbcb2b07e	-0.021812674
8	0x3d0cc9ba	0.03437207
9	0x3bca7e4c	0.0061796065
10	0xbbbf0cf2	-0.0058304006
11	0xbae1bb07	-0.0017221876
12	0xbab90592	-0.001411604
13	0x3c982b2b	0.018575272
14	0xbceb93cd	-0.028757
15	0x3b45d322	0.003018566
16	0x3b877c79	0.0041347113
17	0xbad4c4df	-0.0016232989
18	0xbc23261e	-0.009957818
19	0xbc984d5f	-0.01859158
20	0x3ce678a1	0.028133692
21	0x3bca79ac	0.006179055
22	0xbcf8c8cf	-0.03036919
23	0xbc5f705d	-0.013637629
24	0xbce5d955	-0.028057734
25	0x3bef6414	0.0073056314
26	0xbb506b98	-0.0031802412
27	0xbb7479b8	-0.0037303995
28	0x3cbdffd6	0.023193281
29	0x3c137014	0.0089988895
30	0x3b9671c5	0.004591199
31	0xbc80e6ea	-0.015735108
32	0xbc6eeb58	-0.0145824775
33	0x3ad566df	0.0016281268
34	0xbc6bd757	-0.014394603
35	0x3b0f99fa	0.0021911846
36	0x3c8dc0f2	0.017303918
37	0x3bb48291	0.005508729
38	0xbd05c37a	-0.032657124
39	0xbc21cec0	-0.009875953
40	0xbccaa9d5	-0.024739185
41	0xbc16288d	-0.0091649415
42	0x3c3f478d	0.011674774
43	0xbbef8742	-0.007309825
44	0xbc5852f5	-0.013203372
45	0xbcad6bf0	-0.021169633
46	0xbbf8e5cc	-0.0075957533
47	0xbca3e1b4	-0.020005085
48	0x3c040852	0.008058624
49	0xbcc40897	-0.023929877
50	0xbcad7ba0	-0.021177113
51	0xbb8ae124	-0.0042382646
52	0xbaa5dc5a	-0.0012654171
53	0xbceb2524	-0.028704233
54	0xbc4ba25e	-0.012428848
55	0xbc987c87	-0.018614067
56	0x3ce04a45	0.027379164
57	0x3b96bebc	0.004600374
58	0x3b815bd9	0.0039477167
59	0xbbc4f105	-0.006010177
60	0xbc329230	-0.010899112
61	0xbcfa4829	-0.030551987
62	0xbcbe538e	-0.023233201
63	0x38936aae	7.029377e-05
64	0xbc993741	-0.018703105
65	0xbbb52889	-0.005528514
66	0xbcb0e7d2	-0.021594916
67	0xbd21e4ce	-0.039524846
68	0xbc57602f	-0.013145491
69	0xbc3f8d06	-0.011691337
70	0xbbbf8294	-0.0058444235
71	0xba6bc786	-0.000899427
72	0xbcd5f89f	-0.026119528
73	0xbc4729c8	-0.0121559575
74	0xbca6e3d1	-0.020372303
75	0xbc90c7b0	-0.017673343
76	0x3c89a0b2	0.016800258
77	0xbb4af0f0	-0.0030966364
78	0xbcf8d139	-0.030373203
79	0xbcdf7cc1	-0.027281167
80	0xbc3c895f	-0.011507361
81	0xbcf8b66a	-0.03036042
82	0xbb7e70cd	-0.0038824559
83	0x3ab59439	0.0013853378
84	0xbc38ddda	-0.011283362
85	0xbb95b7ea	-0.0045690434
86	0xbba9ca93	-0.0051816194
87	0xbb03b229	-0.0020095205
88	0xbbb65f41	-0.0055655544
89	0xbc624458	-0.01381024
90	0xbd04764b	-0.032339375
91	0x3c44b0a9	0.01200501
92	0xbb8f1673	-0.00436669
93	0xbc936778	-0.017993674
94	0xbbc35807	-0.0059614214
95	0xbb9981e1	-0.004684672
96	0x3bfc93a4	0.00770803
97	0xbcc39776	-0.023875933
98	0xbce558f4	-0.027996518
99	0xbce2e858	-0.02769868
100	0x3cb2379f	0.021755038
101	0xbc960608	-0.018313423
102	0xbd0c0e86	-0.034193538
103	0x3c3d2cf4	0.011546362
104	0x3c12bfeb	0.00895689
105	0xbb560377	-0.0032655874
106	0xbcf61958	-0.030041382
107	0xbd00deb2	-0.03146238
108	0xbd4c97de	-0.04994952
109	0x3c928f17	0.017890496
110	0xbc16b315	-0.00919797
111	0x3b9e667e	0.0048339954
112	0xbcd8bb17	-0.026456399
113	0xbbe4b545	-0.006979617
114	0x3b0fb245	0.0021926325
115	0xbc37f761	-0.011228413
116	0xbc41deb5	-0.011832883
117	0xbd167907	-0.036736514
118	0xbaf03507	-0.001832635
119	0xbc40a878	-0.011758916
120	0xbc4c7e1a	-0.012481237
121	0xbc024a01	-0.007952214
122	0xbc5806cf	-0.013185217
123	0xbc6498a3	-0.013952407
124	0x3c75306d	0.014965159
125	0xbbea08d3	-0.007142165
126	0xbc92803b	-0.01788341
127	0xbb19a25c	-0.002344272

network_body._body_endoder.seq_layers.2.weight f4 [128, 128]
0	0xbea3ddc5	-0.32005134
1	0x3e184be7	0.14872704
2	0xbd2e93c9	-0.042621408
3	0xbe344f27	-0.17608319
4	0xbd0bd93e	-0.034142725
5	0xbf119882	-0.56873333
6	0xbe44a591	-0.19203784
7	0xbd11e633	-0.035619926
8	0x3e2b4a2f	0.16727518
9	0x3e0675c7	0.13130866
10	0x3cd6cc27	0.026220394
11	0xbe445b58	-0.1917547
12	0xbdcf07c2	-0.101089016
13	0xbee080cc	-0.43848264
14	0xbda7a94b	-0.08186587
15	0xbe9afad9	-0.30269507
16	0xbde02eba	-0.109464124
17	0x3e8c5908	0.27411675
18	0x3e199687	0.14998828
19	0x3cb5d3ff	0.022195814
20	0xbe61a992	-0.22037342
21	0x3e4dbb21	0.20090915
22	0xbc3d241c	-0.011544254
23	0x3d3c7846	0.04601314
24	0xbe7c0e3e	-0.24614808
25	0xbdaaffb8	-0.08349556
26	0x3dcfbf82	0.10143949
27	0xbce4affd	-0.027915949
28	0xbde5f8d3	-0.112291
29	0xbc308b21	-0.010775358
30	0x3c07f5e2	0.008298369
31	0xbdecdd22	-0.11565615
32	0xbe0d26ce	-0.13784334
33	0xbeae5392	-0.34048134
34	0x3d588efc	0.052870736
35	0x3d87324c	0.0660139
36	0xbe16c040	-0.14721775
37	0xbe24bdfa	-0.16088095
38	0xbebeeb50	-0.37288904
39	0x3de11ff8	0.10992426
40	0xbe222d6d	-0.15837641
41	0xbd1ee992	-0.03879697
42	0xbdc6e508	-0.09711653
43	0xbdd76a04	-0.10518268
44	0xbdfd0bbe	-0.12355755
45	0x3d1689d8	0.03675255
46	0xbe0df05b	-0.1386122
47	0xbe461e8d	-0.19347592
48	0x3e0d8d8d	0.13823529
49	0x3d3a8158	0.045533508
50	0x3d750df8	0.059827775
51	0xbe09070f	-0.13381599
52	0xbd9bcf7b	-0.07607933
53	0xbca4ca25	-0.020115921
54	0x3e5a69ff	0.21329497
55	0xbee251cc	-0.4420303
56	0xbc8933db	-0.01674836
57	0x3ec9041b	0.39260945
58	0xbe4ec881	-0.20193674
59	0xbdd25d56	-0.10271709
60	0xbdeef4ce	-0.116677865
61	0xbe9347bc	-0.28765666
62	0x3d825148	0.063631594
63	0x3e327065	0.17425688
64	0xbe295d78	-0.16539562
65	0x3da391f1	0.079868205
66	0x3e04c4d8	0.12965715
67	0x3ea2625d	0.3171567
68	0xbf308f08	-0.6896825
69	0x3ea3ef1c	0.32018363
70	0x3de0dcc5	0.109796084
71	0xbc230bae	-0.009951515
72	0x3dd63af5	0.10460464
73	0x3dd31e03	0.10308459
74	0xbe8e6a3e	-0.2781543
75	0x3edd5fda	0.4323719
76	0xbef519b7	-0.4787118
77	0xbe88d989	-0.26728466
78	0x3ddc276a	0.10749705
79	0xbef204b1	-0.47269204
80	0xbdf0428f	-0.11731445
81	0x3de5b3c0	0.11215925
82	0xbe8a9510	-0.2706685
83	0x3da9ee84	0.08297446
84	0x3e7ebd00	0.24876785
85	0xba8fa049	-0.0010957803
86	0xbe4c045c	-0.19923538
87	0xbd18ac6e	-0.037273817
88	0x3e5f0cc2	0.2178221
89	0xbc97bc3e	-0.018522378
90	0xbd8a5f1a	-0.067564204
91	0x3da14289	0.07874019
92	0xbecde1be	-0.4021129
93	0xbdf2799b	-0.11839601
94	0xbde19d3c	-0.11016318
95	0x3dd98355	0.10620753
96	0xbe9eac26	-0.30990714
97	0x3dd5c827	0.10438567
98	0xbeb9ec8c	-0.36313283
99	0xbe898408	-0.26858544
100	0xbe1cb7d2	-0.15304497
101	0xbe5607e0	-0.20901442
102	0x3e5a90cc	0.21344298
103	0xbf350260	-0.7070675
104	0x3d44db9d	0.048061002
105	0xbd91128b	-0.07083615
106	0x3e4358a1	0.19076778
107	0xbd1dac95	-0.038494665
108	0xbda654b1	-0.08121622
109	0xbdb2e8cb	-0.08735808
110	0xbd6993cb	-0.057025712
111	0x3da9a3ae	0.082831725
112	0xbc8edb28	-0.017438486
113	0x3d79eb6c	0.06101553
114	0xbe17586c	-0.14779824
115	0x3e3456e5	0.17611273
116	0x3e3bd18f	0.18341659
117	0x3dc9b171	0.098482974
118	0x3e2568b5	0.16153224
119	0xbeb66fce	-0.35632175
120	0x3d4abb60	0.0494951
121	0x3d731bb1	0.05935258
122	0xbe9daca6	-0.30795783
123	0x3e3cbcb8	0.18431365
124	0xbeb2ff0b	-0.34960207
125	0xbeb74b04	-0.3579942
126	0x3d79c738	0.060981005
127	0xbe8b3ed9	-0.27196386
128	0xbecf5323	-0.40493116
129	0x3df1a957	0.11799877
130	0x3da855a9	0.082194634
131	0xbe9b8c43	-0.3038045
132	0xbeb543c6	-0.3540327
133	0x3e1f3bb5	0.1555012
134	0xbeb5bf3d	-0.35497466
135	0xbed1d351	-0.40981534
136	0xbf3384f5	-0.7012475
137	0xbcc20eac	-0.023688637
138	0x3c48f247	0.012264795
139	0xbf3a0b6f	-0.72673696
140	0x3e08dc06	0.13365182
141	0x3d6db758	0.05803618
142	0xbe0b2005	-0.13586433
143	0x3e647561	0.22310401
144	0xbe79d0c9	-0.24396051
145	0xbe90d692	-0.28288704
146	0xbec1666c	-0.37773454
147	0xbf7dfc8d	-0.99213487
148	0xbf204441	-0.6260415
149	0xbeddf715	-0.4335257
150	0x3f1d4e92	0.61448014
151	0x3bb07b3f	0.005385786
152	0x3ca3ab23	0.019979065
153	0xbdf7adcf	-0.12093698
154	0x3a4b9359	0.0007765792
155	0x3cd5c77f	0.026096104
156	0xbe548184	-0.20752531
157	0xbc35d2a4	-0.011097584
158	0xbebf7f29	-0.37401703
159	0xbe3d92c4	-0.18513018
160	0xbf06d1d6	-0.52663934
161	0x3e09a22b	0.13440768
162	0xbef01461	-0.46890548
163	0xbf088167	-0.5332245
164	0xbba607bb	-0.0050668395
165	0x3e808bb3	0.25106582
166	0xbe1fa0ea	-0.15588728
167	0x3ee53cab	0.44772848
168	0xbe1f228c	-0.15540522
169	0xbd9e1110	-0.07718098
170	0x3bcbe354	0.006222168
171	0xbd1a1f59	-0.03762755
172	0xbc8a9441	-0.016916396
173	0xbe544ba3	-0.20731978
174	0xbd9912be	-0.07474278
175	0xbba4bca1	-0.005027369
176	0x3e2fdaf8	0.17173374
177	0x3e8ddb14	0.27706206
178	0x3f3a6041	0.7280312
179	0x3e745272	0.23859575
180	0xbdb64572	-0.088999644
181	0x3ce8a116	0.028397124
182	0x3e87ac56	0.2649867
183	0xbe09d89a	-0.13461533
184	0xbcba1ca5	-0.022718737
185	0xbe8b68a1	-0.27228263
186	0xbe4bff15	-0.19921525
187	0x3d0df309	0.034655605
188	0xbc9a698e	-0.01884916
189	0xbe0846c0	-0.13308239
190	0x3da33bdc	0.07970402
191	0xbe8ff955	-0.28119913
192	0xbe6bc165	-0.23022993
193	0xbc8a55c9	-0.016886609
194	0x3da5765a	0.080792144
195	0x3da17a40	0.078846455
196	0xbe7befe3	-0.24603228
197	0xbe1c2faa	-0.15252557
198	0x3e07719d	0.13226934
199	0xbdb73fc2	-0.08947708
200	0x3e1f1f9f	0.15539406
201	0xbd36c1a0	-0.04461825
202	0x3cd7d966	0.02634878
203	0x3e39a163	0.1812797
204	0xbd053eba	-0.032530524
205	0x3d7ddb69	0.061976824
206	0x3e24111d	0.16022153
207	0xbeb6104b	-0.35559306
208	0xbd83a92c	-0.06428751
209	0xbf4c8827	-0.7989525
210	0xbf268425	-0.65045387
211	0xbdf4449e	-0.1192715
212	0xbbb2cddb	-0.005456669
213	0xbe2aed4a	-0.16692081
214	0x39821775	0.0002481301
215	0xbc5220b1	-0.012825177
216	0xbc94a1c7	-0.018143548
217	0x3d1e74b5	0.03868552
218	0x3dda2575	0.106516756
219	0x3ca7da1f	0.02048975
220	0xbe2a7beb	-0.16648833
221	0xbe3f7af0	-0.1869924
222	0x3d644328	0.055728108
223	0xbd8001b3	-0.06250324
224	0xbca2af15	-0.019858876
225	0xbe374091	-0.17895724
226	0xbea28f40	-0.31749916
227	0x3e886dcf	0.26646277
228	0xbf03d1c6	-0.51491964
229	0xbecec460	-0.40384197
230	0xbc2f7bb5	-0.010710646
231	0x3e48d8f0	0.19614005
232	0x3ec980a5	0.3935596
233	0xbe1b58cd	-0.15170594
234	0xbdaa19f3	-0.08305731
235	0xbcffb1f9	-0.031212794
236	0xbe2b140d	-0.16706868
237	0xbe195d72	-0.14977053
238	0xbf34ffc2	-0.70702755
239	0xbd324bb3	-0.043529224
240	0xbe1247ee	-0.14285251
241	0xbc909895	-0.017650882
242	0xbe1844ae	-0.14869949
243	0x3ea459b8	0.320997
244	0x3c46b1b2	0.012127327
245	0xbe9386b5	-0.2881371
246	0x3ec6c199	0.38819578
247	0xbe60cdc9	-0.21953501
248	0xbe6482f0	-0.22315574
249	0x3b889445	0.0041680657
250	0x3e003bb4	0.12522775
251	0xbeeea0dc	-0.466071
252	0x3e414c8e	0.1887686
253	0xbf614856	-0.88001
254	0xbdf6600b	-0.120300375
255	0x3d58671e	0.052832715

network_body._body_endoder.seq_layers.2.bias f4 [128]
0	0xbdc3e342	-0.0956483
1	0xbe492e4a	-0.19646564
2	0xbe225040	-0.15850925
3	0xbebcf356	-0.369044
4	0xbdfa6ce5	-0.12227801
5	0x3e1fa7e7	0.15591393
6	0xbd6123db	-0.054965835
7	0xbecfe6eb	-0.40605864
8	0xbd8bad98	-0.0682022
9	0xbeeb5f8e	-0.4597134
10	0xbe3b84cf	-0.18312381
11	0xbd8ca1e9	-0.068668194
12	0xbdcacacd	-0.099019624
13	0xbe8e020b	-0.27735934
14	0x3dafc15a	0.08581801
15	0xbe48d872	-0.19613817
16	0x3be40f10	0.0069598034
17	0xbd89f713	-0.06736579
18	0xbe242065	-0.16027983
19	0xbecde837	-0.40216228
20	0xbd7225eb	-0.059118193
21	0x3d13df3e	0.036101572
22	0x3ddc05aa	0.10743268
23	0xbd1a14d8	-0.037617534
24	0x3db6f73f	0.08933877
25	0xbdb50ea9	-0.08840687
26	0x3da196bb	0.07890078
27	0xbc357180	-0.011074424
28	0xbe960203	-0.2929841
29	0xbd1b1c98	-0.037869066
30	0x3bd89296	0.0066092713
31	0x3df61c21	0.12017084
32	0x3c34cfff	0.011035918
33	0xbe412173	-0.18860416
34	0xbe1ecf04	-0.15508658
35	0x3e0c77d5	0.13717587
36	0xbe447c87	-0.19188128
37	0x3d3f2b25	0.046672005
38	0xbd8e1a91	-0.06938661
39	0xbcc21434	-0.023691274
40	0xbd0825a5	-0.033239026
41	0xbcb9ab94	-0.022664823
42	0x3d13192d	0.03591268
43	0xbedb5b86	-0.42843264
44	0xbde0f5f6	-0.10984413
45	0x3ea3b506	0.31974047
46	0xbdb2e2cb	-0.087346636
47	0xbdb22c23	-0.08699825
48	0x3d6e100a	0.058120765
49	0xbe1b8892	-0.15188816
50	0x3e598a3b	0.21244137
51	0x3d5a82e6	0.05334749
52	0x3e0917d3	0.13387994
53	0xbdac6a11	-0.08418668
54	0x3e88e886	0.267399
55	0xbdc75159	-0.09732313
56	0xbcd05e32	-0.02543554
57	0xbeac0adf	-0.33602044
58	0xbda9f4c4	-0.082986385
59	0xbe3a2d50	-0.18181348
60	0xbe9feeda	-0.31236917
61	0xbede7646	-0.4344961
62	0x3ca8ef6e	0.020621981
63	0xbcf7b1f0	-0.030236214
64	0xbe48d17d	-0.19611163
65	0xbec8e941	-0.3924046
66	0x3c0f1072	0.008731948
67	0x3e679094	0.22613746
68	0xbdb0b6d4	-0.08628622
69	0xbd01e2ff	-0.03171062
70	0xbdd317d1	-0.10307277
71	0xbf0c84c7	-0.548901
72	0xbc4d42f7	-0.012528173
73	0xbd351f12	-0.044219084
74	0x3cdde7f3	0.027088141
75	0x3dfee7ee	0.12446581
76	0xbdca9818	-0.09892291
77	0x3d9d9537	0.07694476
78	0xbeb21ba6	-0.3478672
79	0xbe5692d7	-0.20954452
80	0xbda079d5	-0.078357376
81	0x3ceef266	0.029168319
82	0xbebaa75a	-0.36455804
83	0xbe3a5e1a	-0.1819996
84	0xbf07b09c	-0.5300386
85	0xbe2b523a	-0.16730586
86	0xbe1bd96b	-0.15219657
87	0xbd45f609	-0.04833034
88	0xbe837505	-0.25675216
89	0xbe6dda66	-0.23227844
90	0xbe27dc71	-0.16392685
91	0xbe2fa16b	-0.1715142
92	0xbe5b776f	-0.21432279
93	0xbe872b4b	-0.26400217
94	0xbda372f3	-0.07980909
95	0x3e420816	0.18948397
96	0xbe8ffe64	-0.28123772
97	0x3e05749e	0.13032767
98	0xbdf21364	-0.11820105
99	0xbd3efaab	-0.046625774
100	0xbd7c7b4f	-0.061641034
101	0xbd3ee1ed	-0.04660218
102	0xbeb3919b	-0.35072026
103	0x3e1ff24e	0.15619776
104	0xbdb1852b	-0.08667978
105	0xbd4b2384	-0.049594417
106	0xbc85048c	-0.01623752
107	0xbd7629a5	-0.06009831
108	0xbdc7389e	-0.09727596
109	0x3d52549a	0.051350214
110	0x3dee05f0	0.11622226
111	0xbe578e0c	-0.2105028
112	0xbdc7b465	-0.097512044
113	0xbf060fe1	-0.5236798
114	0xbeb05aa2	-0.34444147
115	0xbe7d6d4a	-0.24748722
116	0x3d4d2ea2	0.0500933
117	0xbe23d942	-0.16000846
118	0xbd842d33	-0.064539336
119	0xbd38405e	-0.04498326
120	0x3d9cc487	0.07654672
121	0xbd92f3d8	-0.07175416
122	0xbe07ddc5	-0.13268192
123	0xbd1c52ac	-0.03816478
124	0xbd9f8b21	-0.077902086
125	0x3d2a05d2	0.041509457
126	0xbe528998	-0.205603
127	0xbcba501c	-0.022743277

action_model._continuous_distribution.log_sigma f4 [1, 2]
0	0xc0ec359c	-7.381544
1	0xc0e5254e	-7.160804

action_model._continuous_distribution.mu.weight f4 [2, 128]
0	0x3dfaea4e	0.12251721
1	0x3a00b192	0.00049092725
2	0x3dac82b9	0.08423371
3	0xbc05e1d3	-0.0081715165
4	0xbcb650a1	-0.022255244
5	0xbc6d7997	-0.014494321
6	0xbca6bb7a	-0.020353068
7	0xbe0980ef	-0.1342809
8	0xbd2d9e3d	-0.042387236
9	0x3e8a06e6	0.26958388
10	0xbde1d59d	-0.110270716
11	0x3d15b1b9	0.036546443
12	0x3c496d78	0.012294166
13	0xbd8951cb	-0.06705054
14	0x3caec7e6	0.021335553
15	0xbd9cf812	-0.07664503
16	0x3c1ea735	0.00968342
17	0x3d229be0	0.039699435
18	0x3a9f592e	0.0012157315
19	0x3dcf7089	0.10128886
20	0x3b2878e0	0.0025706813
21	0xb85a3e27	-5.2033134e-05
22	0x3d624681	0.05524302
23	0x3d3eaf96	0.04655417
24	0xbbb479af	-0.00550767
25	0x3bf4352f	0.007452629
26	0x3cadb3ae	0.021203842
27	0x3a839bb5	0.0010040911
28	0xbb8b6664	-0.0042541493
29	0x3ad4a4d9	0.0016223445
30	0xbc878b49	-0.016545909
31	0x3cdab61b	0.026698163
32	0xbce2cf1c	-0.027686648
33	0x3d5fb46f	0.054615434
34	0xbb803480	-0.0039125085
35	0xbab2f724	-0.0013653976
36	0xbda046b6	-0.07825987
37	0xbb2a63e3	-0.0025999479
38	0xbc55bd1b	-0.013045575
39	0x39a36467	0.00031164588
40	0xb98d6f10	-0.00026976364
41	0xbad3422e	-0.0016117746
42	0xbcbcf22d	-0.023064697
43	0x3dbd2705	0.09235958
44	0xbd95c3c5	-0.07312731
45	0xbd9167a2	-0.070998445
46	0x3cb01236	0.021493059
47	0xbc9797a7	-0.01850493
48	0x3d7752b7	0.060381617
49	0x3acfb9ac	0.0015848181
50	0xbc1b635f	-0.009484141
51	0xbd7a02e9	-0.06103793
52	0x3d88ed87	0.0668593
53	0xb982d4f6	-0.000249542
54	0xbcf20a16	-0.029545825
55	0xbcd17c2a	-0.025571901
56	0xbc75f237	-0.015011362
57	0xb9d3fb70	-0.00040432392
58	0x3d2fb825	0.042900223
59	0x3ab539e7	0.001382646
60	0xbbde712a	-0.0067883926
61	0x3d83f302	0.064428344
62	0x3d595b2c	0.053065464
63	0x396c4557	0.00022532545
64	0xbc8717f6	-0.016490918
65	0xbdbfc985	-0.09364609
66	0xba97ba24	-0.001157586
67	0xbd16163b	-0.036642294
68	0x3d850f87	0.06497102
69	0xbd31b0a4	-0.04338135
70	0xbcac1e0d	-0.021010423
71	0xbecfb69c	-0.40569007
72	0x3d5b8461	0.053593043
73	0xbc9d1299	-0.019173907
74	0xbd6c4c40	-0.057689905
75	0x3cbca99a	0.023030091
76	0xbaf45367	-0.0018640578
77	0xbbf5a4ea	-0.007496466
78	0x3cdc7df3	0.026915526
79	0xbe37e08b	-0.1795675
80	0x3ce418a7	0.027843786
81	0xbd45209e	-0.04812681
82	0x3d073934	0.033013538
83	0x3dc1d07d	0.09463594
84	0x3d638bc6	0.05555322
85	0xb910dd48	-0.00013815344
86	0x39e588bf	0.00043780167
87	0x3d488625	0.048956055
88	0x3d6949a1	0.056954984
89	0xba206ad6	-0.00061194354
90	0x3bd8eac1	0.0066197817
91	0xbbac143f	-0.005251437
92	0xbd9c3ea4	-0.07629135
93	0x3d52c8b4	0.051460937
94	0xb9a729c2	-0.00031883834
95	0xbd238089	-0.039917503
96	0xbd435cf0	-0.047696054
97	0xbd910ab0	-0.070821166
98	0xb9f95f66	-0.00047564058
99	0xbd0143ac	-0.031558678
100	0xbb591ad3	-0.003312756
101	0xbd84436b	-0.064581715
102	0x3ced0ece	0.028937723
103	0x3c398085	0.011322145
104	0x3d476c21	0.048687104
105	0xbd2f32ba	-0.042772986
106	0x3d315052	0.04328949
107	0x39a4239c	0.0003130705
108	0x3d08919c	0.03334199
109	0x3d645200	0.055742264
110	0xbd1c76d4	-0.03819926
111	0x3e65d888	0.22445881
112	0xbc0c2d65	-0.008555745
113	0xbd29d662	-0.041464217
114	0x3bb95794	0.005656192
115	0xbd9dd3d7	-0.07706421
116	0xba4fd36e	-0.0007927929
117	0x3d4a1612	0.049337454
118	0xbcc7c3e1	-0.024385395
119	0x3ca17481	0.019708874
120	0x3d3c003b	0.045898657
121	0x392b30c9	0.00016326005
122	0xbcf4290c	-0.029804729
123	0xb9c96654	-0.00038413948
124	0x3a04a6ce	0.0005060256
125	0xbc6a97d2	-0.014318423
126	0xbd37c686	-0.04486706
127	0xbaec451b	-0.0018025966
128	0xbcc6769d	-0.024226481
129	0x39e5f15a	0.00043858105
130	0xbc13df76	-0.009025445
131	0xbd97d86b	-0.07414325
132	0x3d3c8971	0.04602951
133	0xbd3699e7	-0.044580366
134	0xb9bb1e08	-0.00035689794
135	0xbda80b6a	-0.08205302
136	0x39a3df09	0.00031255957
137	0x3ee27573	0.44230232
138	0x3d47fc0c	0.048824355
139	0xbb807489	-0.003920142
140	0xbd497a1e	-0.049188726
141	0xbd78075c	-0.060553893
142	0x3d9c3e88	0.076291144
143	0xbdf5df4c	-0.12005481
144	0xbd1b2faa	-0.037887253
145	0x3ca75691	0.02042702
146	0x3a5c0495	0.0008393017
147	0x3aed6d80	0.0018114299
148	0x3cde4e24	0.02713687
149	0x3d5e3b20	0.054255605
150	0xbb2a93ad	-0.0026027963
151	0xbd8b5073	-0.06802454
152	0x3d266f6c	0.040633604
153	0x3cf3a026	0.02973945
154	0xbd909c51	-0.07061065
155	0x3a5b6e30	0.0008370606
156	0x3d267e31	0.04064769
157	0xba99013d	-0.0011673343
158	0x3c8891aa	0.01667102
159	0x3d0bd1d9	0.034135673
160	0x3d309a29	0.04311577
161	0x3c225975	0.0099090235
162	0xbcc4dd9f	-0.024031458
163	0xbd1f0994	-0.038827494
164	0xbc7fe56c	-0.015618663
165	0x3cae1c19	0.021253632
166	0xbccd0c71	-0.025030347
167	0xbaaa4d8e	-0.0012993084
168	0xb89027ef	-6.873893e-05
169	0x3a1bbd9c	0.0005941035
170	0xbd49e980	-0.04929495
171	0x3d677b08	0.056513816
172	0xbc1eebc9	-0.00969977
173	0xbc5513e7	-0.013005233
174	0x3d37340a	0.044727363
175	0x3c49f26f	0.012325867
176	0xbd337158	-0.043809265
177	0x39994c37	0.0002923922
178	0x3d9aa339	0.075506635
179	0x3af1063e	0.0018388701
180	0x3a3d66b1	0.000722508
181	0x3a6208bd	0.0008622518
182	0x3ccd9e56	0.025099915
183	0x3dc0fd37	0.09423297
184	0x3cffed63	0.031241124
185	0xbd7b5800	-0.06136322
186	0xbd684697	-0.056707945
187	0xb9e03cb3	-0.00042769834
188	0xbd5c0358	-0.053714126
189	0x3d1ecd90	0.03877026
190	0xbb4d50b5	-0.0031328623
191	0xba1a19f2	-0.00058785
192	0x3bc6d465	0.0060678
193	0x3cc381e5	0.02386565
194	0x3980dc1f	0.00024578065
195	0x3c39b8d0	0.011335567
196	0x3b482691	0.0030540565
197	0x3cc25585	0.02372242
198	0x3da018ad	0.078172065
199	0x3d93825e	0.072026
200	0x3a26b37f	0.00063591445
201	0x3d469b40	0.0484879
202	0x3c3c1c6e	0.011481388
203	0xbc0bc23f	-0.008530199
204	0x3ce0f949	0.027462618
205	0xbd0bc914	-0.03412731
206	0x39ed2db5	0.00045238217
207	0xbdb10a77	-0.08644574
208	0x3c959a0d	0.018261934
209	0xbd5520b6	-0.05203315
210	0xbce0bcab	-0.027433714
211	0x3d2b02e3	0.0417508
212	0x39ec098f	0.0004502055
213	0x3c8c1058	0.017097637
214	0x38e451ca	0.000108871216
215	0x3d06d9c1	0.03292251
216	0x3d1b9432	0.037983127
217	0xbd912c27	-0.070884995
218	0xbc3e205e	-0.011604397
219	0xbcc750c7	-0.02433051
220	0xbd466c81	-0.04844332
221	0x3a643352	0.0008705157
222	0xbdab955c	-0.083780974
223	0xbc8ca56a	-0.01716872
224	0x3b954fd0	0.0045566335
225	0x3d1e7494	0.038685396
226	0xb89f2064	-7.587744e-05
227	0x3c172b22	0.009226592
228	0x38f00d2f	0.000114465474
229	0x3e40ac7d	0.18815799
230	0x3e3345b3	0.17507057
231	0x39834abc	0.00025041949
232	0x3d16fa47	0.036859777
233	0x3cd35524	0.025797434
234	0xbd5b3686	-0.053518794
235	0xba86263a	-0.0010234781
236	0x3b39db69	0.0028359538
237	0x3cba0cfc	0.02271127
238	0xbc5afafe	-0.013365505
239	0xbcc5448d	-0.02408054
240	0xbce55df7	-0.027998907
241	0x3dc2bfb5	0.095092215
242	0x3ccfafe6	0.02535243
243	0x3be87777	0.0070943194
244	0xb9ddbf30	-0.0004229485
245	0xbb26414d	-0.0025368512
246	0x3b226500	0.002477944
247	0x3d1663fc	0.036716446
248	0x3b041603	0.0020154722
249	0x3a8fa225	0.0010958357
250	0xbcd847ce	-0.026401427
251	0xba8ffcea	-0.0010985408
252	0x3a8c02ef	0.0010682027
253	0xbd04efa8	-0.032455117
254	0x3bb84dd0	0.0056245103
255	0x3c90ff7e	0.017699953

action_model._continuous_distribution.mu.bias f4 [2]
0	0xbd506032	-0.05087299
1	0xbd64036f	-0.055667337
