results/test_environment/VacuumCleaner/VacuumCleaner-7232.onnx (onnx, 83250 bytes, 7 tensors)

network_body._body_endoder.seq_layers.0.weight f4 [128, 27]
000000 61 c4 e9 3d 8d 4a b5 3d 42 1e a1 3e 44 39 e5 bd
       0.114144094 0.0885211 0.31468397 -0.11192563
000010 b9 7a 4e 3e 21 97 c9 3c 71 61 bc 3e 57 92 e0 be
       0.20164002 0.024608197 0.36793092 -0.43861648
000020 97 bb 83 3e bf 3e c9 be 7e 29 66 be 59 05 fb 3d
       0.25729057 -0.39305684 -0.22476766 0.12256879
000030 69 5e 08 be 23 a7 98 3e 22 71 32 be 34 e9 31 be
       -0.13317265 0.29815015 -0.17425969 -0.17374116
000040 f9 71 8d 3d 63 92 e8 bd c9 1e aa bd de 23 04 be
       0.06906504 -0.11356046 -0.08306653 -0.12904307
000050 70 c4 28 be c9 ca 3a 3e cf 23 2b bc fb 04 f5 bd
       -0.16481185 0.18241419 -0.010445549 -0.119638406
000060 6f 97 0d be ce ac 5a be 98 eb 75 3c e2 ea 5d bd
       -0.13827299 -0.21354982 0.015009783 -0.05417908
000070 3c 03 0e be b5 1d 92 be 3d 1b 4c 3e cf a1 3b 3d
       -0.13868421 -0.2853829 0.19932266 0.04580861
000080 c1 ff 12 bf 96 fe a6 3d f9 b4 be bd b9 2b 4c 3e
       -0.574215 0.08154027 -0.093118615 0.19938554
000090 85 47 e5 bd 8c de a8 3d c3 1b bd ba 67 15 67 3d
       -0.11195282 0.082455724 -0.0014427829 0.056416895
0000a0 b1 03 1a 3e 6f cb e4 3e f1 7a 04 be 89 fe 17 bf
       0.1504047 0.44686458 -0.12937523 -0.59372765
0000b0 51 9d 14 3e 16 d8 a3 3e 67 46 73 be a1 85 97 3e
       0.14513136 0.32000798 -0.23757325 0.29594138
0000c0 98 0e 85 be 09 f6 21 3e f8 82 47 be cc b4 da 3d
       -0.25987697 0.15816511 -0.19483554 0.106790155
0000d0 ed 5b 40 3e a8 0d a0 3e e5 87 c5 3d d4 56 0b 3e
       0.18785067 0.3126042 0.096450604 0.13607341
0000e0 a8 4a c5 3d 06 2c ec 3d b1 af bf bd e9 e3 fa be
       0.0963338 0.11531834 -0.09359682 -0.49002007
0000f0 92 fd 9c be 94 68 ad 3d d1 45 5f 3e b2 7e 4f be
       -0.3066221 0.08467212 0.21803977 -0.20263174
000100 7b ae 0d 3d ec 8c 59 3e aa c8 65 be 8c ef dc 3e
       0.034590226 0.21245164 -0.22439829 0.4315151
000110 6f 15 41 3c cf 69 70 3e 3a ff d2 3c 7e a1 dd 3d
       0.011784895 0.23477863 0.025756467 0.10821818
000120 e6 0c db 3d 2f b2 fe 3d 04 2e 02 bf 46 36 9d 3e
       0.106958196 0.124363296 -0.50851464 0.3070547
000130 ab 54 19 bf 5c bf 83 bd d4 7a cd be ff 4c b8 3d
       -0.5989482 -0.06432983 -0.40132773 0.08999061
000140 df 35 cf 3d a8 52 65 3e 36 e1 fc bd 65 a3 b6 bd
       0.10117697 0.22394812 -0.12347643 -0.08917884
000150 88 a1 92 be ed 3a 3f 3e 5a 51 e5 3c 99 dc 7f bd
       -0.28638864 0.18674822 0.027992893 -0.062466238
000160 e5 0c 17 be 29 ee 26 be 62 a2 dc bd e3 64 12 3d
       -0.14751013 -0.16301788 -0.107731596 0.035740744
000170 ee b0 3d 3e b4 b6 c2 3d a9 50 e1 bd 2f 62 64 3e
       0.18524525 0.09507504 -0.11001713 0.22303079
000180 12 55 77 3d 73 51 60 3e 98 d1 9d 3d a2 92 5d be
       0.060383864 0.2190607 0.077059925 -0.21637967
000190 97 56 6d 3d 45 0c 01 bc 42 6a ed be 11 3d 62 3d
       0.057943907 -0.00787646 -0.4637013 0.05523402
0001a0 08 d6 f8 3c 9a 22 a8 be 7e 52 ba 3c 82 02 bb be
       0.030375496 -0.328389 0.022744413 -0.3652535
0001b0 50 28 2d 3e fe 19 44 3c a2 ac f3 3e d5 ae 9b bd
       0.16909909 0.011969088 0.47592646 -0.07601706
0001c0 58 c4 3c 3e 2a 06 5e 3e 1c 84 f4 be 40 f9 05 bf
       0.18434274 0.21682039 -0.4775704 -0.5233345
0001d0 4b 0c 24 be 85 6f 08 be 9c 63 da bd 1d 9b 89 bd
       -0.16020314 -0.13323791 -0.1066353 -0.06719039
0001e0 10 23 3c be 07 eb c3 bd 1e 26 ba bd 43 26 b5 3e
       -0.1837275 -0.09566312 -0.090893015 0.35380754
0001f0 7c 93 b9 be 64 1c fe 3e 35 1d 7d 3e df c0 6d 3d
       -0.36245334 0.49631035 0.24718173 0.058045264
000200 ad 2a 62 3d b9 52 c4 3d db ca d8 ba c4 42 a9 3e
       0.05521648 0.095860906 -0.0016539948 0.3305875
000210 f2 4e 6f 3d 9d d4 24 3d 42 9d d5 3c e7 f4 42 be
       0.058424897 0.040241826 0.026075963 -0.19038735
000220 05 ac 84 3c fe f5 25 3d ac d8 92 bd 39 3f b1 3d
       0.016195307 0.0405178 -0.07170233 0.08654637
000230 38 42 8c 3d 89 59 0f be 96 19 86 3d fb f0 22 be
       0.06848568 -0.13998999 0.06547849 -0.15912239
000240 db ef e3 3e bc c7 d0 bc 71 2e fe bd 39 61 79 bd
       0.44518933 -0.025485866 -0.12411202 -0.060883734
000250 1c 79 4a 3e 4a 48 06 be 3f 3f 82 3e 02 26 fd bd
       0.19772762 -0.13113514 0.25438878 -0.12360765
000260 fc 34 f4 3d 55 0d 06 3e 2e da c0 3d 28 98 bf 3d
       0.119241685 0.13091023 0.094166145 0.093551934
000270 b5 42 2e bd f4 73 56 3e e6 4a dd 3d 95 4b 06 3e
       -0.042544086 0.2094267 0.10805301 0.1311477
000280 30 38 1c 3e d2 c3 e4 bd 87 c8 41 be 24 69 ab be
       0.15255809 -0.11170162 -0.18924151 -0.33478653
000290 3b a9 29 bc 70 d7 7e be d9 be f1 3d 95 04 41 3e
       -0.010355289 -0.2488687 0.118039794 0.18849404
0002a0 ed 39 9d 3e 6b 43 0b 3d c8 99 1b bd be e4 97 3e
       0.30708256 0.03399984 -0.037988454 0.29666704
0002b0 2a 9b 8a 3d 08 94 7c 3d 23 4a d1 ba ba 11 4b 3d
       0.067678764 0.06166461 -0.0015967529 0.049577452
0002c0 5f 95 da bc fa 43 21 3e 24 1a 9a bd cb c5 18 bc
       -0.026682554 0.15748587 -0.07524517 -0.009324501
0002d0 f8 43 46 3e fa d1 d3 bd c7 88 de 3d 44 1e 69 3e
       0.19361866 -0.10342784 0.10865932 0.22765452
0002e0 4f 67 f3 be f7 af 4e 3e 94 f4 07 be fe 62 9d be
       -0.47539756 0.20184313 -0.13276893 -0.30739588
0002f0 a5 f7 e5 3e f4 37 75 3e 24 1e b5 bc 39 bf 8f 3e
       0.449155 0.23947126 -0.022109099 0.2807558
000300 c5 6b aa ba ae 2d c8 3d e8 9d ff bd ba a7 5e 3d
       -0.0013002089 0.09774338 -0.1248129 0.054359175
000310 5e f6 fe bc 73 cd 38 3e 3e e5 29 3e 5c b4 3b 3e
       -0.031123336 0.18047123 0.16591355 0.1833052
000320 f4 9a a4 3b 00 83 93 be 4c 2d 17 3e 7b f1 15 3e
       0.0050233547 -0.28810883 0.14763373 0.14642899
000330 ce 95 fe be 0a 24 75 3e 6c 58 22 be b4 e9 03 3d
       -0.49723667 0.23939529 -0.15854043 0.0322053
000340 7a c9 95 be 37 c1 81 3d df e0 49 be c1 14 41 be
       -0.29255277 0.06335681 -0.19714688 -0.18855573
000350 86 ab 3f bd b5 84 6a 3e dd 64 83 3e ef 24 06 3e
       -0.046794437 0.22902186 0.2566289 0.13100027
000360 62 66 c1 be df 7a c3 bd d0 82 9f 3e fb 30 ca 3e
       -0.37773424 -0.0954492 0.3115449 0.39490494
000370 5c 7e 04 be ab 6f 23 be 0b e0 85 3e d2 27 08 be
       -0.12938827 -0.15960567 0.26147494 -0.1329644
000380 42 36 8b 3c 9b d6 f5 bb e7 2e 3b be 7e d0 b2 bd
       0.016993646 -0.0075023896 -0.1827961 -0.08731173
000390 5a ba 27 bc 39 60 27 3d 42 b9 ba 3d f9 f9 d9 3d
       -0.010237301 0.04086325 0.091173664 0.106433816
0003a0 31 5d 07 be 0d 9d c6 3e 10 64 91 be 7d 46 15 bd
       -0.13219143 0.38791695 -0.28396654 -0.036444176
0003b0 91 c0 ee be a1 7d 12 be 76 40 aa 3e cf b7 f0 be
       -0.46631292 -0.14305736 0.33252305 -0.47015235
0003c0 67 b2 e8 3d 5e ff 87 3e 5a ce 01 3f 9b d3 ac bd
       0.113621525 0.26562017 0.5070549 -0.08438798
0003d0 72 a9 2e 3d f4 fb bd bd d1 cd 1d 3e 83 16 de bc
       0.042642064 -0.09276572 0.15410544 -0.027110344
0003e0 93 27 b9 bd d7 9b 34 3d 03 2d c7 3d bf c9 33 3d
       -0.09040751 0.044093933 0.09725382 0.043893572
0003f0 81 8d 2b be 27 16 10 3d ab 77 ca bc 49 3c 62 be
       -0.16753198 0.035177376 -0.024715265 -0.2209331

network_body._body_endoder.seq_layers.0.bias f4 [128]
000000 a6 2b 02 3d e4 ef 87 bd 8c fa ac 3d c7 a6 c3 bc
       0.031779908 -0.066375524 0.084462255 -0.023883237
000010 69 77 87 bb 99 4d 04 bd 69 d3 a2 bd ce 92 31 bc
       -0.004134108 -0.032300565 -0.079504795 -0.010838224
000020 fa 7e 6d 3d d3 46 b7 3a 23 59 31 3c 13 f9 2f bc
       0.057982422 0.0013982899 0.0108244745 -0.010740536
000030 1d ec 94 bb 61 6b 45 3a 38 10 58 3c 89 24 dd 3c
       -0.0045447485 0.00075309543 0.013187461 0.02699496
000040 10 64 26 bd 87 8a c8 bc 90 20 75 3a 39 b9 96 bc
       -0.04062277 -0.024480117 0.00093508605 -0.018398868
000050 4b 4d 98 bb b4 c6 6b 3c e6 ae ec bc 23 1b a2 bb
       -0.004647886 0.014390636 -0.028891992 -0.0049470826
000060 aa ae 80 bd 98 aa b1 3c cc b9 ca bc 2e 99 10 bd
       -0.062833145 0.02168779 -0.024746798 -0.035302334
000070 2c e3 e0 3b e8 a1 08 bd d7 70 de 3c 7b 7d fa bc
       0.0068630185 -0.03335753 0.027153416 -0.030577412
000080 ae 77 6a bc 7e ce bf bc 03 a4 d4 bc 4d be c0 3c
       -0.01431076 -0.023413893 -0.025957113 0.023528242
000090 5e 9a 82 3d ad 28 e4 bc ab c5 30 bd 59 9c 5e 3c
       0.063770995 -0.027851427 -0.04315726 0.013587081
0000a0 16 25 0e bd c6 4e a0 3c eb 2d 0c bd 6b 6a ce bc
       -0.034703337 0.019568812 -0.03422348 -0.025197228
0000b0 a3 a7 95 3c c8 27 74 bd 28 c1 9d 3c d2 d6 f4 3c
       0.018268412 -0.05960825 0.019257143 0.02988759
0000c0 20 75 da bc f0 a6 f3 bc eb 2a 57 bd c5 66 f5 3c
       -0.026667178 -0.029742688 -0.052531164 0.02995623
0000d0 48 66 47 3d be 05 d1 bc b0 14 be bb 65 9e 22 bd
       0.048681527 -0.025515433 -0.005800806 -0.039701838
0000e0 f5 b8 66 3b 88 a2 a1 bc 2c 9f 10 3c 0f a9 1a bd
       0.0035205458 -0.019730821 0.008827012 -0.037758883
0000f0 15 1a e5 3c 15 98 c7 bc b6 43 07 bd bb 90 93 3c
       0.027966538 -0.02436451 -0.03302356 0.018013349
000100 63 c2 0a bc 3d 14 80 bb c6 a7 51 3c 98 50 32 bd
       -0.008469197 -0.0039086626 0.012796348 -0.04353389
000110 b6 e6 61 3d 5e 13 1d bd a0 78 8e bc de 5b cc 3c
       0.055151664 -0.038348548 -0.017391503 0.02494615
000120 3b 10 e9 3c a0 6d 69 3c d0 8f 2d bc d4 e5 da bb
       0.028450122 0.014247328 -0.01059337 -0.0066802297
000130 a4 5a 7f 3d 4f df 5c 3c de 03 1a bd 33 0b 93 bc
       0.0623423 0.013480975 -0.037601344 -0.017949676
000140 fd ca 3e bc c6 f4 0a bd c6 00 60 3d 6f b6 d3 3a
       -0.011645076 -0.03392484 0.054688238 0.0016152392
000150 49 5f 83 bc 30 42 0d bd 47 b7 a1 3b bd 79 d1 bc
       -0.016036646 -0.03448695 0.0049351784 -0.025570745
000160 f2 4d 23 bd b0 f0 56 3c ac ad 84 bc 5a cf 70 3b
       -0.039869256 0.013118908 -0.016196094 0.0036744685
000170 2a 55 58 3b fb 37 54 3d 40 92 c1 bc 27 b9 5b bd
       0.0033009746 0.0518112 -0.023629308 -0.053643372
000180 d7 1b af bc 16 f9 93 3d 9f 2d 1e bd 34 e3 75 3d
       -0.02137558 0.07225244 -0.038617726 0.06003113
000190 7a c9 26 3d 1b 12 4f 3d 84 38 86 3c 0b af 34 ba
       0.040719487 0.050554376 0.01638437 -0.00068925385
0001a0 75 bb 0a bc ed 41 3f bd bb b5 fb bb fa 60 06 bd
       -0.008467545 -0.04669373 -0.007681576 -0.032807328
0001b0 81 8b d8 bc 18 ed de 3c 3c ba 77 3d 63 55 47 3c
       -0.026433708 0.027212664 0.06048034 0.012166354
0001c0 d7 f8 78 39 0b 9e 4a 3b cb bc a3 bc 52 db 6e 3d
       0.00023743823 0.0030916955 -0.019987484 0.05831463
0001d0 ec 19 0c bc ad bb 70 3a 60 e6 30 3d 73 71 92 3d
       -0.008551102 0.00091832393 0.043188453 0.07150545
0001e0 fe 4a 36 bd f4 2e 6e 3d 66 fe 05 bd dc bb b1 3c
       -0.044505112 0.058150247 -0.032713316 0.021696024
0001f0 98 2e 48 3d 31 ed 68 3c fd 99 0e 3d 91 78 50 bd
       0.04887256 0.014216707 0.034814823 -0.05089623

network_body._body_endoder.seq_layers.2.weight f4 [128, 128]
000000 c7 97 04 be db 1f 0d 3d 6b ca d7 bc b3 69 42 be
       -0.12948523 0.034454208 -0.026341638 -0.18985634
000010 4b 91 99 bd 91 c3 2b be 08 fd f8 3c bd c2 23 bd
       -0.074984156 -0.16773821 0.030394092 -0.03998064
000020 1d b3 3d bc b4 5d bb 3d 03 41 04 bc 5a d6 d2 bd
       -0.011578348 0.09148732 -0.008072141 -0.102947906
000030 f8 16 35 be 08 75 89 bc bb 4c 7d bd fc 04 04 3e
       -0.17684543 -0.016779438 -0.061840754 0.12892526
000040 80 ba 67 3d f0 fa 84 3d 42 2d 8d be 03 d0 72 3d
       0.056574345 0.06493175 -0.2757359 0.059280407
000050 66 10 24 3c 15 2a a9 be ce 8e 12 be 6d cc 3d 3d
       0.010013675 -0.3303992 -0.14312288 0.046337534
000060 64 a4 b2 3d da a5 36 bd 1e 48 0c bd d0 62 92 bd
       0.08722761 -0.044591762 -0.034248464 -0.07147753
000070 75 cb d6 3d 98 61 42 3d b2 42 37 bd 10 53 ca bc
       0.10488025 0.047456354 -0.04474134 -0.02469781
000080 1d 74 d4 3d 99 20 bf bd 5c 10 25 3d 0a 51 67 3d
       0.10373709 -0.093323894 0.040298805 0.05647377
000090 fa 37 f2 3d 0e 7b 00 3e b2 6f fd bd 42 3e 1f be
       0.11827083 0.12546942 -0.1237482 -0.15551093
0000a0 76 e9 61 be 7e 2f 95 be 7d 05 9f bd 5f b4 e6 bd
       -0.22061715 -0.29137796 -0.07764719 -0.11264872
0000b0 30 58 7c 3c b4 f1 84 3d 7d 38 39 3e 0e 39 2e be
       0.015401885 0.06491414 0.18087955 -0.17013952
0000c0 e4 f3 c2 bd fd 0c f7 3b 3e c3 a8 bd 42 90 4c 3e
       -0.09519175 0.00753939 -0.082403645 0.19976905
0000d0 18 eb a0 3e 1b 79 56 be 30 a1 94 3d d7 18 cb 3c
       0.31429362 -0.20944636 0.072573066 0.024792118
0000e0 9a 2b e0 3d 3d 0b fb 3d 51 9c 42 3d c6 dc 18 be
       0.10945816 0.12258003 0.047512356 -0.14927968
0000f0 94 4d 3a be 8c 43 0d be e9 44 28 3e de 87 b1 3d
       -0.18193656 -0.13795298 0.16432537 0.08668493
000100 02 52 05 be 8a fb ba bd 46 6b 1d be 58 f1 68 3d
       -0.13019565 -0.091300085 -0.15372953 0.05687079
000110 08 37 38 bd 3f b5 46 3d 01 4b 19 bd 9b 90 d7 bb
       -0.044974357 0.048512693 -0.037425045 -0.0065785176
000120 e8 83 83 3c d8 a1 de 3c 36 66 39 be b5 41 e6 bb
       0.016054109 0.027176782 -0.18105397 -0.007026876
000130 99 a3 26 be 2d af d2 3c f5 72 51 bc e5 38 a4 3d
       -0.16273345 0.025718296 -0.012783756 0.08018664
000140 8b d9 74 bc 82 68 ba 3d 87 b1 f1 bc d6 e9 2f 3c
       -0.014944444 0.091019645 -0.029503597 0.010736903
000150 f1 07 a4 bc 69 31 21 be 58 54 a7 bd 9b fc 53 bd
       -0.020023318 -0.15741505 -0.08170384 -0.051754575
000160 71 79 fe 3d 17 d7 92 3c 59 55 08 bd fa 8c ac 3d
       0.12425507 0.017924828 -0.03328452 0.08425327
000170 d6 03 00 3e a9 0a 11 3e 90 99 8b be de 90 ca bd
       0.12501463 0.14164223 -0.27265596 -0.098909125
000180 79 f3 2b bd 9b ea ca 3d 63 c7 fe 3d 3d 4d e9 bc
       -0.04198024 0.09908029 0.12440374 -0.028479213
000190 a5 d1 b4 3d 17 fa ec 3d 52 21 e2 bd a0 8d 1e bf
       0.08829049 0.11571138 -0.110415116 -0.6193485
0001a0 5c b5 a1 bd f5 52 c6 3c 6f 46 c7 bd 79 d5 0a 3e
       -0.0789592 0.024209479 -0.09730231 0.13557996
0001b0 8a 6e 8e 3e b6 04 78 bc 5c ef 0b 3e b3 01 6e bc
       0.2781871 -0.015137842 0.13665527 -0.014526772
0001c0 8e 6b ce 3b 6c 34 c1 bd 6d e2 24 bd c9 d8 99 3d
       0.0062994426 -0.09433827 -0.040255 0.075120516
0001d0 75 bd af bd 77 de 9f bd f6 cc 5d be 51 11 46 3e
       -0.08581058 -0.07806104 -0.21660218 0.19342543
0001e0 ef 2d 4d bd 23 dc c7 3e 9e 70 cb bd a2 5e cf bc
       -0.050092634 0.39035138 -0.099335894 -0.02531368
0001f0 eb ff 6e bd 54 32 3e be 18 9e 90 be e3 60 e8 bc
       -0.05834953 -0.18573886 -0.28245616 -0.028366512
000200 2d 7b 45 be f2 42 a7 3c e8 73 9a bd 3f ab 2f 3e
       -0.19285269 0.020417664 -0.075416386 0.17155169
000210 6d b1 84 3d 65 07 a9 3d 4e 74 01 bd 3a 7f 08 be
       0.06479154 0.082533635 -0.031605057 -0.13329783
000220 2e eb ce bd 30 09 82 3d 76 0d c1 bd 30 8c 58 be
       -0.10103451 0.063494086 -0.094263956 -0.21147227
000230 11 4f ae bc 7d ae 5d bb 15 e4 87 3e 24 ad 85 3d
       -0.021277936 -0.0033825927 0.265412 0.065271646
000240 67 df f2 3d e6 82 d6 bd 2d d0 6b be 57 5e b0 bb
       0.11859017 -0.10474186 -0.23028632 -0.00538234
000250 65 a8 c7 3d 7e eb 1c bd 40 c7 92 be b2 4b f4 bd
       0.097489156 -0.03831052 -0.2866764 -0.119285
000260 66 53 45 3b cd 6f 6d 3d 12 f4 9d 3d 31 ff c4 3d
       0.0030109524 0.05796795 0.07712568 0.096189864
000270 10 dd a4 3d 54 fe 9e bd ee 47 80 bc 40 6a ad bc
       0.08049977 -0.07763353 -0.015659299 -0.021168828
000280 72 8e 55 3d 51 8c 50 3e e4 56 56 3e 13 69 9c 3c
       0.0521378 0.20366026 0.20931584 0.019093072
000290 b5 22 74 3d 2e 5a 54 bd 22 9c d7 bd 09 35 60 be
       0.05960341 -0.051843815 -0.10527827 -0.21895231
0002a0 3d 5c 9c be 51 ec 2e be 32 cb 4a bd 3b 23 b2 bd
       -0.30539122 -0.17082335 -0.04951019 -0.08698126
0002b0 2c f1 46 bd 82 90 77 bd 88 69 cd bd c7 61 75 bc
       -0.048569843 -0.060440548 -0.10029894 -0.014976925
0002c0 7a d4 97 3d 6c cb a9 3c 84 b2 90 bd ff 2c 5a 3d
       0.074135736 0.020726882 -0.07065299 0.053265568
0002d0 18 ed 42 3d 5e 84 9e bd c5 cc 53 bd 1b 28 5a 3e
       0.04758939 -0.07740091 -0.051708955 0.21304362
0002e0 2a 1e 6b 3e aa d4 a4 bd 2c fd c7 ba 72 70 3e 3d
       0.22960725 -0.08048375 -0.0015257946 0.046493955
0002f0 16 30 fd 3d 2c 7a 58 3d a5 ac 88 bd 94 78 ac 3c
       0.12362687 0.052850887 -0.06673554 0.02105359
000300 e5 0e 09 be 42 2f ad bc 86 77 02 3d fe 9d f9 bd
       -0.13384588 -0.021140698 0.031852268 -0.12188338
000310 e9 80 a4 3d 3a 29 a5 3d 6d 93 3d be 97 77 26 3c
       0.080324 0.08064504 -0.1851327 0.010160348
000320 d2 23 79 bc 60 6b 27 bd ec 8e 5f bd e9 1e 44 bd
       -0.015206294 -0.040873885 -0.05457966 -0.04788104
000330 49 d5 14 3e 17 a2 de bb 11 7e 6c bd b6 1c 27 be
       0.14534487 -0.006794225 -0.057737414 -0.16319546
000340 b5 40 80 bc 07 59 02 3d 2a 0b a6 3c ff 25 05 3d
       -0.015655855 0.031823184 0.020268995 0.03250694
000350 ba cb d7 3d a7 85 ed 3c 3e 52 5b bd a3 bc e6 bd
       0.10536905 0.028994394 -0.05354523 -0.11266448
000360 91 a0 dd bd 77 bd fe 3d 88 81 53 bd c0 4c 64 bd
       -0.10821641 0.12438481 -0.051637203 -0.055737257
000370 24 b5 2f bd d6 d0 c0 3d b8 8f b3 3d e9 eb b6 bd
       -0.04289736 0.09414832 0.087676466 -0.08931715
000380 61 76 8b bd 91 53 26 3d fe 88 08 be 48 a0 91 be
       -0.06809688 0.04060704 -0.13333508 -0.28442597
000390 13 c4 b2 bd ee e4 38 bd 97 51 86 bd 2e 8a f8 bc
       -0.087288044 -0.0451402 -0.06558531 -0.030339327
0003a0 0d b1 c0 3d 7c af ce bd a6 7d aa bd 25 b0 ad 3d
       0.0940877 -0.10092065 -0.08324747 0.084808625
0003b0 ad 30 d8 bd 6c 3b 36 bd 6a 95 01 3d e5 14 51 bd
       -0.10556159 -0.044490263 0.031636633 -0.051045317
0003c0 f7 85 a1 bd 69 62 f8 3d 56 34 c9 bd c0 84 8a 3d
       -0.0788688 0.12128145 -0.098244354 0.06763601
0003d0 57 f1 a6 bd 01 83 a0 3e 20 c0 30 bd 67 7d ea 3d
       -0.08151501 0.31349948 -0.043151975 0.114497
0003e0 6d 71 d0 bd 20 c1 65 3d d6 51 e8 bb 75 7d 1a 3e
       -0.10177884 0.05609238 -0.0070898337 0.1508692
0003f0 3f 68 2c bc 5a 76 04 3e e2 c0 b9 3d 67 f8 11 3e
       -0.010522901 0.12935773 0.090699926 0.14254914

network_body._body_endoder.seq_layers.2.bias f4 [128]
000000 47 14 4c 3c 38 08 4d bd 3d 41 6f bc 60 22 a2 bc
       0.012456006 -0.050056666 -0.014602956 -0.019791782
000010 13 7e 16 3d 1a ba 2f 3d 8a 45 e5 bc 2e 83 0c 3a
       0.036741327 0.04290209 -0.02798726 0.00053601235
000020 42 70 f8 3c 59 f2 46 bc 58 92 88 b9 88 5d a6 bb
       0.030326966 -0.012142741 -0.00026048976 -0.0050770678
000030 e5 58 de bc f7 88 48 bb 51 64 a7 bc d3 d4 28 bd
       -0.027141998 -0.0030599216 -0.020433577 -0.04121859
000040 4b cb 14 bd 25 76 e3 bc d1 19 01 bd 25 44 ee bb
       -0.036326688 -0.027766297 -0.03151876 -0.007271307
000050 4f 09 8c bc 55 74 71 3c 33 90 4b bc 20 80 25 3c
       -0.017094282 0.014737208 -0.0124245165 0.010101348
000060 7a c5 8e bb 3f e3 ff bc 3b a2 ce bb 30 d4 97 bb
       -0.004357037 -0.03123629 -0.0063059605 -0.004633449
000070 bd 1b 26 bd 58 8c d5 bb b4 e9 b9 3b 3e 3e ad bc
       -0.040553797 -0.0065169744 0.0056736115 -0.021147843
000080 ee 4f 70 bd f7 4c 06 bd 7d da 8a 3c aa 7c 4e bc
       -0.058669977 -0.032788243 0.016949886 -0.012602964
000090 bf 0c fa bc 56 29 51 bd 96 53 1b 3c 00 03 38 3d
       -0.030523656 -0.05106481 0.009480378 0.044924736
0000a0 34 94 1b bd 3d 0f b2 bc 63 45 59 bc 39 af 01 bd
       -0.037983134 -0.021735782 -0.013261172 -0.031661246
0000b0 43 97 80 bc ab 14 5e 3b 2a 71 0f bd e8 f5 27 bc
       -0.015697127 0.003388683 -0.03502003 -0.0102515
0000c0 a9 49 3d bd 9e 67 1a bd 55 83 b0 3c 72 63 06 bc
       -0.046212826 -0.037696473 0.021546999 -0.008202421
0000d0 7b ac c5 bc 16 d2 79 3c 47 d5 31 bc 7e 43 63 bc
       -0.024130097 0.015247842 -0.010854072 -0.013871072
0000e0 7f 5c 26 bd ea 69 5b 3d a5 53 1c bd 8c b9 67 bc
       -0.040615555 0.053567804 -0.038165707 -0.014143359
0000f0 0f c8 55 3c 3f dd 17 bd 83 c8 1b 3c 84 35 46 bd
       0.013048186 -0.03707623 0.009508255 -0.04839088
000100 ca 96 06 bd c2 65 72 3c 65 e8 0b bc 19 2d 0f 3b
       -0.032858647 0.014794769 -0.008539294 0.0021846949
000110 a6 15 0f bd 7f 13 24 3d 40 dc f2 3c d8 07 82 3c
       -0.034932755 0.040057655 0.029646039 0.01587288
000120 e0 7b b1 bc f4 e0 03 3b fa 51 b6 bc f3 9b 90 bc
       -0.021665514 0.0020123096 -0.022255886 -0.017652487
000130 56 37 ab 3b 5d b8 33 bd 6f ad 2d 3b fa b3 af bc
       0.0052251024 -0.043876994 0.002650108 -0.021448124
000140 f9 5b 98 bc a6 7f f3 bb dc 10 0c bd 95 ee f0 3c
       -0.018598543 -0.0074309884 -0.034195766 0.02941064
000150 75 f3 c8 39 54 7b b1 bc 24 ba 01 3d e0 e4 32 bc
       0.00038328362 -0.021665253 0.03167166 -0.010918826
000160 e5 9b c7 bc af b2 4e bc d0 a9 53 3c f8 8a 96 3c
       -0.024366328 -0.012615844 0.012918904 0.018376812
000170 17 a8 6c bc 4b 13 3a bd db 1d 3d bd de 87 e1 3c
       -0.014444373 -0.045428555 -0.04617105 0.027530607
000180 65 1d 87 bc f7 02 17 bc 1e 3c 1e bc ef ac 95 3c
       -0.016493509 -0.0092170155 -0.009657888 0.018270938
000190 f3 1c 11 bc 99 56 3e 3c ef 94 99 3b b4 3f 06 bd
       -0.008857 0.011617326 0.0046869437 -0.032775596
0001a0 37 62 82 3a 94 c4 cd 3b 89 a6 f3 ba 04 29 82 3c
       0.0009947483 0.0062795375 -0.001858906 0.015888698
0001b0 5e f3 62 bd 21 29 bf bc 0f 62 16 bc 17 60 c4 bc
       -0.055407874 -0.023335041 -0.009178652 -0.0239716
0001c0 b6 0a c4 3a 59 46 16 bd 40 ec 2a bd a4 41 6f bd
       0.0014956805 -0.036688183 -0.04172921 -0.05841221
0001d0 97 b8 7d bb e1 76 b6 bc 37 84 14 bd a2 03 27 bd
       -0.003871476 -0.022273483 -0.036258902 -0.04077495
0001e0 b8 00 70 3c e7 79 da bc b0 7d 8c 3b 61 4f 84 3c
       0.014648609 -0.026669456 0.004287444 0.016151132
0001f0 b9 32 8b bc 62 3a 00 3c fe 3c 30 bc 19 d6 b3 bc
       -0.01699196 0.00782642 -0.010756729 -0.021952676

action_model._continuous_distribution.log_sigma f4 [1, 2]
000000 e8 65 66 c0 2a f0 68 c0
       -3.5999699 -3.6396585

action_model._continuous_distribution.mu.weight f4 [2, 128]
000000 86 e1 b9 bd 1d 74 b7 bc b9 71 61 3a db f3 88 bd
       -0.09076218 -0.022394234 0.0008600015 -0.06687137
000010 ae 8c 36 3d 62 d9 d2 bd 2f 70 2b bc 29 07 87 3d
       0.044567756 -0.10295369 -0.010463758 0.065931626
000020 88 c1 bc bc f7 24 80 bb a2 cb 49 bd 62 da 58 bd
       -0.023041502 -0.0039106566 -0.049266465 -0.05294264
000030 42 1f 20 3c bf 3b 52 bd b0 71 02 39 f2 28 a6 bd
       0.009773077 -0.05132651 0.00012440118 -0.081132784
000040 81 db c6 3c 4d 1a 9f 3d de 7a 9a 3c 38 fc 06 bd
       0.02427459 0.07768688 0.018857416 -0.03295538
000050 27 b6 00 3d a8 54 83 bd ab 77 c8 3c 73 65 66 3d
       0.031423714 -0.06412631 0.024471125 0.056249093
000060 4f dd 20 3d 53 3f 51 3d 2d 0b 96 bc b8 de b7 3d
       0.039273556 0.05108578 -0.018315876 0.08978027
000070 cf 18 88 bc 24 53 ef 3c 9c 6c a4 bd 38 95 00 bd
       -0.016613392 0.02921445 -0.08028528 -0.031392306
000080 f5 47 29 3d 41 a1 62 3c d1 05 a1 3c 83 ed e0 bc
       0.04132839 0.013832391 0.019656094 -0.027457004
000090 d0 e4 6d bd 5a c6 3b ba 4d cd 7c 3d 44 cc c5 bd
       -0.05807954 -0.00071630406 0.061719228 -0.09658101
0000a0 7a 73 52 3c eb 0d 66 3d 7d c5 20 bd dd 17 6a 3a
       0.012844915 0.056165617 -0.03925084 0.00089299475
0000b0 47 67 57 bc 3d a5 0e be 35 30 4d bd 4a 91 d1 3d
       -0.013147182 -0.13930221 -0.050094802 0.1023279
0000c0 08 c4 dc bb 6d af d6 3b 56 d0 e4 3d b5 6f 03 bd
       -0.006737236 0.006551674 0.111725494 -0.032088954
0000d0 16 06 5a bc 86 1b ac bd 0e c2 34 3a b2 d8 70 bc
       -0.013307115 -0.08403687 0.00068953715 -0.014700102
0000e0 bf 38 82 bc 14 00 05 be 9f e8 09 bd 2e d7 ec 3d
       -0.0158962 -0.12988311 -0.03366911 0.1156448
0000f0 ad 62 e0 bd c4 fa 33 39 12 c2 92 3d 9b f7 16 3e
       -0.10956321 0.00017164188 0.07165922 0.14742891
000100 02 91 18 ba 73 7b 81 3a b7 c0 bf bb 19 ca 86 3d
       -0.00058199477 0.000987871 -0.005851831 0.06581516
000110 8e bf 5f bd 89 db d2 bd ac 5d f2 3d 73 19 c3 3d
       -0.05462604 -0.10295779 0.11834273 0.095263384
000120 6f 66 6f b8 d4 dd 1e bd 7f ba 04 3d 1c 18 41 bd
       -5.707744e-05 -0.03878577 0.03240442 -0.047142133
000130 d7 5e 24 bd 8e db 98 3d 1b ea 75 3d db ea 36 ba
       -0.04012951 0.07463752 0.060037713 -0.0006977745
000140 1d f6 22 bc d2 c0 cf bc e1 1d 84 bc 56 ae 10 bd
       -0.009946373 -0.025360499 -0.016127529 -0.03532251
000150 85 b1 31 3d ff 61 d9 3d 26 78 5f bd 83 66 97 bb
       0.043382186 0.106143944 -0.05455794 -0.0046203746
000160 f3 48 a7 3d 2a 2a 92 3c 29 8b 43 3d 3e 82 38 bc
       0.08168211 0.017842371 0.047740135 -0.011261521
000170 5a 05 5f bd 19 27 0a bd d3 d5 08 bd c0 b1 8d bd
       -0.054448463 -0.033728693 -0.033407044 -0.06918669
000180 52 23 58 3d 53 3d 1f ba e1 7d 4b bd 11 2d 61 3d
       0.05276806 -0.00060745067 -0.049680594 0.05497462
000190 e6 8f 26 bd 34 6d cd 3d 8d 6d 04 3e 9f 73 8a ba
       -0.040664576 0.100305945 0.12932415 -0.0010563022
0001a0 06 01 22 ba 46 f0 05 bd 24 50 00 3e 96 68 aa bd
       -0.0006179962 -0.032699846 0.12530571 -0.083207294
0001b0 a1 61 52 bc c0 5b 9d bd e6 36 35 bb 36 53 51 3c
       -0.012840659 -0.076835155 -0.002765113 0.012776187
0001c0 e4 46 b3 3d f2 65 a0 3c 0b 69 19 3d 42 58 d6 37
       0.08753756 0.019579861 0.037453692 2.5551886e-05
0001d0 e7 06 54 bd 3b a1 02 3d bf bc a1 bd 61 20 de 3c
       -0.051764395 0.031892043 -0.078973286 0.027115049
0001e0 d5 98 19 3e ac f3 e8 bc be 88 19 be 2a 4d 93 bd
       0.14999707 -0.028436504 -0.14993569 -0.07192452
0001f0 b2 30 c3 bc 8f 7a db 3d 62 09 42 bd 74 46 b7 3d
       -0.02382693 0.107167356 -0.04737223 0.08948985
000200 bd a5 7a bd cb a1 03 bd bc 91 2d 3a 39 f5 1f bd
       -0.061193217 -0.03213672 0.00066211424 -0.039052222
000210 27 2f c5 3d 60 1a a4 bd 9f 90 7d bd 75 b2 d1 bc
       0.09628134 -0.08012843 -0.0619055 -0.02559779
000220 a8 12 cd bd 33 65 f1 3b 59 09 3c bd a3 5d 53 bc
       -0.10013324 0.0073668 -0.045907352 -0.012900743
000230 ea 53 ca 3c 7f 73 c1 bd 43 8f 5e 3d d9 e5 69 3c
       0.024698216 -0.09445857 0.054335844 0.014275991
000240 53 95 b1 bb ae ee 9a 3b c3 96 21 3c 76 08 c0 3d
       -0.005419412 0.00472816 0.009862605 0.09376614
000250 de 65 ad 3d 1a 8c a3 bd 5f 88 a9 3b fd 3e d4 3c
       0.08466695 -0.079857066 0.0051737274 0.025908941
000260 92 dd de bd 60 ea 2a 3d 43 54 ba 3d 60 29 a2 bd
       -0.10882105 0.041727424 0.09098103 -0.07918048
000270 27 38 9d bb bf fc fd bc 53 b2 19 be 4f 8d ce bd
       -0.0047979536 -0.031004308 -0.15009432 -0.10085546
000280 3c 9c 28 3c f4 b2 21 3d 29 15 37 be 7c 09 99 bc
       0.010291155 0.039477304 -0.17879166 -0.01868128
000290 97 96 10 bd ca 2a 24 b9 1a e7 6c 3c 03 17 69 3d
       -0.035299864 -0.00015656199 0.014459396 0.05690671
0002a0 16 6b a8 bc 23 6f b3 bc 19 23 c6 bd fc 2c 5a 39
       -0.020558875 -0.02190358 -0.09674663 0.00020806858
0002b0 e7 3d 55 3d 77 16 31 3d d2 fc 36 bc 4b a8 f7 3b
       0.052060988 0.043234315 -0.0111686755 0.007557904
0002c0 b7 dc 5f bb f2 cf 00 3c ab 74 14 bc ce 56 ca bc
       -0.0034158656 0.007862078 -0.009061019 -0.024699595
0002d0 7c fe 00 3c dd 11 9a bd 70 81 0c 39 33 dd 2e 3c
       0.007873174 -0.075229384 0.0001339966 0.010672855
0002e0 14 ad 74 bd 2f f7 a4 3d 3b 9b 95 bd 8d 59 5a 3d
       -0.059735373 0.08054959 -0.073049985 0.05330806
0002f0 73 ad 02 3d 10 09 3e b9 0e fb a7 bd b0 3b 00 3e
       0.031903695 -0.00018123188 -0.08202182 0.12522769
000300 13 fb b1 3a 2d da 97 bd 28 04 10 bc 70 a8 fe bd
       0.0013578854 -0.074146606 -0.008790053 -0.12434471
000310 0a 3b 5b bd e1 f9 3a be a1 3e 9b 39 2c e4 08 be
       -0.0535231 -0.18259384 0.00029610566 -0.1336829
000320 97 80 80 39 6a 35 dc bd c4 82 12 3d f9 21 f1 bc
       0.0002450987 -0.107523754 0.03576924 -0.029435145
000330 60 7b 82 3d a5 f0 ab bd d2 a1 cb bc f1 da 0f bb
       0.06371188 -0.08395509 -0.024857435 -0.0021950568
000340 8b 26 84 bd 4b d6 40 3d f2 46 98 3c 7e f5 dd bd
       -0.06452664 0.047079366 0.018588517 -0.108378395
000350 9a 13 f6 3d 27 6d 5e 3b a2 d2 06 3e 18 1b 58 bd
       0.120154575 0.0033939572 0.13166288 -0.052760214
000360 b3 bc a1 3c 34 92 c4 bd 7e 5f 5e 3b 97 26 ba bd
       0.0197433 -0.095981985 0.003393143 -0.09089392
000370 d2 93 4f bd d1 bb 11 bd 9c f6 86 3c ab e7 f5 3d
       -0.05067808 -0.035579506 0.016475014 0.12007078
000380 20 dd d2 3c 0b 6b 16 ba 84 ba ef 3d da 54 88 3d
       0.025740206 -0.00057379965 0.11705497 0.06656809
000390 12 3f 25 bd a0 e0 95 bc 63 31 40 bd 0f a3 6e ba
       -0.04034335 -0.018295586 -0.0469221 -0.0009103277
0003a0 5f 17 35 3c f9 d2 b7 bd 26 0b 30 bc 70 32 7d bd
       0.011052935 -0.08975787 -0.0107448455 -0.06181568
0003b0 bc d5 0a 3e f1 29 7c 3c bd f2 b1 3c 98 87 42 bd
       0.13558096 0.015390859 0.021722192 -0.047492594
0003c0 31 13 c7 bc 1e d1 2d bd 29 44 8f 3d ff 6f b0 3a
       -0.024301143 -0.042435758 0.069954224 0.0013461112
0003d0 5a 9c a1 3b 9d c4 3c bd 70 29 d6 3c db 47 c1 bc
       0.0049319686 -0.046085943 0.026142806 -0.023593834
0003e0 de ae a8 bb a8 b5 76 3c d6 0b 99 3d 2e d7 54 bd
       -0.005147799 0.015057959 0.07472961 -0.051963024
0003f0 dc 5e 66 3d 6f fd 60 bd f5 28 aa 3c 79 ec 43 3c
       0.05624281 -0.054929193 0.020771483 0.011958235

action_model._continuous_distribution.mu.bias f4 [2]
000000 8a 97 b0 3b 90 5b 12 3c
       0.0053891586 0.008932963
