results/test_environment/VacuumCleaner/VacuumCleaner-5888.onnx (onnx, 86836 bytes, 7 tensors)

network_body._body_endoder.seq_layers.0.weight f4 [128, 34]
000000 58 82 83 3e 7d 50 c6 bd 34 4c a0 3c f4 b4 d4 be
       0.25685382 -0.09683321 0.019567586 -0.41544306
000010 d6 fd 1c 3a 9e 83 03 be e0 f2 68 3e 9d 64 a2 bd
       0.0005988752 -0.12843177 0.227489 -0.07929347
000020 02 18 e6 3a 58 74 14 3e fe d9 76 be d9 35 94 3d
       0.0017554762 0.14497507 -0.24106595 0.07236833
000030 6a 95 a5 bc 2f f8 50 3d 44 69 54 bd b4 d8 70 3d
       -0.020212848 0.051017936 -0.0518582 0.058800414
000040 74 29 4a 3e e4 f1 c0 bd 67 a2 90 bd b1 89 a7 be
       0.19742376 -0.09421137 -0.07062226 -0.32722238
000050 3b 59 eb bc 1b 7b 1d bc e2 73 5b 3e 8f d8 d5 3d
       -0.028729072 -0.00961187 0.21430925 0.10441696
000060 b4 e8 90 be 92 4f 4a be e6 17 2d bd 07 a8 e5 3a
       -0.28302538 -0.19756916 -0.04225912 0.001752139
000070 2a 06 2a 3d f2 ac 9b 3e a9 1f 15 bd 59 db 51 3e
       0.041509785 0.30405384 -0.036407147 0.2049383
000080 44 a9 99 3d 2b 3d 64 3e cf 11 1b be 64 f8 9a bd
       0.07502988 0.22288959 -0.15143512 -0.07566908
000090 df 19 bc bd 6f 8f f0 3d 6a 76 b2 be 4e 47 57 bd
       -0.09184622 0.11746108 -0.34855968 -0.052558236
0000a0 af 63 87 be b4 7e be 3d 3a 2e cf 3d dd 69 51 bd
       -0.2644324 0.093015105 0.10116239 -0.05112635
0000b0 e0 82 fe bd 92 cd d4 bd 50 8f d3 3d 7d 2c 70 3e
       -0.12427306 -0.10390772 0.10330069 0.23454471
0000c0 03 ef d6 3d 06 6d 1c be 4d 71 0d 3e 25 11 ef be
       0.104948066 -0.15275964 0.13812752 -0.46692768
0000d0 a1 6b a3 be c6 30 f0 3d da 65 89 be 5a b3 40 3c
       -0.31918052 0.11728053 -0.2683552 0.011761511
0000e0 47 5b 60 bd 3d 95 06 3e 1c b9 c7 bd 13 37 c2 3e
       -0.05477455 0.13142867 -0.09752104 0.37932643
0000f0 51 7d 41 bd eb ea 84 be 0d f5 d7 bd ef 4a a7 be
       -0.04723865 -0.25960478 -0.105447866 -0.32674357
000100 a5 d6 9b bb 43 72 73 3d bc d8 cf bd 8e ff 7c 3d
       -0.004755812 0.05943514 -0.10148761 0.061767153
000110 63 ae 90 3d 4f 59 a7 3e cb f9 c0 bd 27 d6 1c 3e
       0.070645116 0.32685325 -0.09422644 0.15316068
000120 a2 f4 93 be 38 8f 08 bd d2 9d 5e 3c be 72 08 be
       -0.28897578 -0.03333971 0.013587432 -0.1332502
000130 1e a1 cc be bc 2f 82 be ab c8 6e bd 8c c2 c4 bd
       -0.39966673 -0.25427043 -0.05829684 -0.09607419
000140 47 a9 d5 bd 56 7d 9b bd fc 5e 8f be 8c 4a c9 bd
       -0.10432678 -0.07592265 -0.28002155 -0.09828672
000150 4d 05 31 be 16 91 49 3e a4 ba 7e 3d 83 2f 19 bd
       -0.17287178 0.19684252 0.062189713 -0.037398826
000160 69 63 2a be 9b bb 95 be cc 97 82 3e 2b 35 2a be
       -0.16639484 -0.29244694 0.25506437 -0.16621844
000170 9f 1e bf be a4 2c 44 3d f2 66 b5 3e b5 83 1a be
       -0.3732805 0.047894135 0.35430104 -0.15089305
000180 22 ba 65 bd 7d 50 99 3d 27 3b 49 3e d1 c4 b8 bd
       -0.056085713 0.07486055 0.19651471 -0.09021915
000190 8f 0a 52 bc 82 8a aa 3e 0d 57 b2 bc 16 df 67 3e
       -0.0128199 0.33308798 -0.021770025 0.22643694
0001a0 78 0b 73 bd b4 d4 8a 3e 70 88 c0 be 8a 4b a9 3e
       -0.05933711 0.27115405 -0.37604094 0.33065444
0001b0 13 43 ce be 50 c7 26 3d 43 7c 15 be 14 ca 2e be
       -0.4028555 0.040717423 -0.14598183 -0.17069274
0001c0 86 4c 1f be 38 93 a8 3c 20 94 da 3d a4 2b e7 bd
       -0.15556535 0.020578012 0.10672784 -0.11287621
0001d0 d5 4c 9a bd 54 21 94 be 43 9c 22 be b9 0d 45 3e
       -0.07534186 -0.28931677 -0.15879922 0.19243516
0001e0 42 6f be 3e 95 78 e7 3a 47 f6 f3 bd a6 b4 fb 3c
       0.37194258 0.0017659838 -0.11912208 0.030725788
0001f0 54 e2 c9 3d 1a 7d 31 3e d5 33 10 3d d0 24 5e ba
       0.09857622 0.17332879 0.03520568 -0.00084741134
000200 d5 43 2e 3e 93 a6 ff 3d dd ab 8a bd 67 ee e1 bd
       0.17018063 0.124829434 -0.067710616 -0.110318
000210 c3 c1 e8 bd da cd c4 be c3 d6 10 3e e3 82 07 bc
       -0.11365082 -0.38438302 0.14144425 -0.008270952
000220 57 bc 7b be 0d fe 1e be 0f ab df bc b8 68 16 be
       -0.24583565 -0.155266 -0.027303247 -0.14688385
000230 6f bc 0e be bb 68 cd 3d 8d 54 a7 3d 67 c3 9c bd
       -0.13939069 0.100297414 0.08170424 -0.076544575
000240 c9 2f 9e bd 2c 46 e6 bd 31 3f 38 3e c4 53 04 bd
       -0.07723958 -0.11243853 0.17992856 -0.032306448
000250 dd 4f 6e 3e a7 d7 c4 bd 36 22 f4 bd 19 e4 79 bc
       0.23272653 -0.09611445 -0.11920588 -0.015252137
000260 48 02 1b be 88 b9 d7 bc 0d ff bd bd dd d2 6f 3e
       -0.15137589 -0.026333585 -0.09277163 0.23420282
000270 4b d6 e9 bd 9c dc 2d 3e 54 1b ce 3b 47 7e 9e 3c
       -0.11417826 0.16978687 0.006289879 0.019347323
000280 2e 22 74 be 0c 30 3d bb 19 90 9e be 21 38 83 3b
       -0.23841164 -0.002886775 -0.30969313 0.004004494
000290 99 fe ba 3d ba 6e 43 bd 31 f2 33 be 49 5c 6f be
       0.09130592 -0.04771302 -0.17572857 -0.23375048
0002a0 56 b9 3f 3e e6 8b 26 be 60 99 25 be 0b a3 95 3e
       0.18723044 -0.16264305 -0.16171789 0.29225954
0002b0 e4 16 de 3d d5 a2 05 bd 98 d1 34 3e 00 4a d5 3d
       0.1084421 -0.03262599 0.17658079 0.10414505
0002c0 29 86 1f bd 02 99 0e be f9 c8 ac bd 0e 77 e3 3e
       -0.038946304 -0.13925555 -0.0843677 0.4442677
0002d0 ef a1 96 bd f0 1e 01 3e 31 06 8d bd 4e ca 2c be
       -0.07355105 0.12609458 -0.068859465 -0.16874048
0002e0 6e e3 f5 3d f3 c3 01 3d 0f 52 ca 3d 79 c1 cc 3c
       0.120062694 0.031681012 0.09878933 0.024994599
0002f0 04 5b 29 be c7 df 0a be 12 9b f7 bc dd c9 7d 3c
       -0.16538626 -0.13561927 -0.03022531 0.0154900225
000300 72 0c 46 be 32 a8 66 3d 53 82 be 3d 7a a5 3e 3e
       -0.19340685 0.056312747 0.09302201 0.18617812
000310 7f c3 b3 3e ef b2 81 be 3a 4f 58 3d 31 27 78 bd
       0.3511009 -0.25331828 0.05280993 -0.06058425
000320 06 b8 9f 3e a1 e6 8b be 1f bb 54 3e cf d4 4d be
       0.31195086 -0.27324393 0.20774506 -0.20100711
000330 f9 23 82 be bd 6e e9 3d 95 4e 72 3e 13 93 2b be
       -0.2541807 0.11398075 0.23662789 -0.16755323
000340 ab 78 a2 3d 11 ab e9 3d d4 31 af bd 27 34 26 bd
       0.07933172 0.114095815 -0.08554426 -0.04057708
000350 3d 8d d4 be e1 69 d0 3d 95 99 5d be 41 26 d5 3c
       -0.41514006 0.10176445 -0.21640618 0.026019217
000360 4e ff 6d be 24 c8 44 3e c1 04 77 3d 83 da af 3c
       -0.23241922 0.19216973 0.060307268 0.0214665
000370 cf 28 48 bd c1 e0 f3 3d 6f fc ad 3e b6 1c 90 bd
       -0.048867043 0.11908103 0.33981654 -0.07036726
000380 1a d2 9a bc 85 a3 50 3e 53 38 d8 be e2 b9 68 3d
       -0.018899012 0.20374878 -0.42230472 0.056817897
000390 d2 d3 83 be 37 56 2a 3e 88 0b 48 be 88 46 2c 3e
       -0.25747544 0.16634451 -0.19535649 0.1682378
0003a0 b1 7f b3 bc f0 2b 58 be f7 cc 6a 3d 0b c2 81 bd
       -0.021911474 -0.21110511 0.057324376 -0.06335839
0003b0 e7 45 0d bd d4 10 f2 bd ea 91 89 be 3a 6c 83 3d
       -0.034490492 -0.11819616 -0.26869136 0.06417127
0003c0 d6 5d 2f 3e df 4c 3a bc cf 35 8d 3e e1 73 28 3e
       0.1712564 -0.011370867 0.27580115 0.16450454
0003d0 60 a2 e6 3c 91 78 81 3e cd 89 84 bd 41 dd e7 3d
       0.028153598 0.25287297 -0.06471596 0.11321498
0003e0 93 50 95 3e d1 b9 eb 3e 53 4e 2f 3c c4 1c 05 bf
       0.29163036 0.46040204 0.010699826 -0.5199702
0003f0 19 43 9a 3d 46 d7 26 be e0 92 25 3d 61 e4 80 3d
       0.07532329 -0.16293058 0.040423274 0.0629356

network_body._body_endoder.seq_layers.0.bias f4 [128]
000000 c1 bf 19 bc 75 bd 01 3d ef 6a d1 3b b8 11 d6 b9
       -0.009384097 0.03167482 0.0063909213 -0.00040830462
000010 6d 1d 67 3b c7 cd a9 3c e8 8d 0c 3c 75 81 ce 3c
       0.0035265342 0.020728005 0.008578755 0.025208214
000020 0c 4f 45 ba 96 3e 3d 3c 3a 0c 1a 3c 10 55 04 bc
       -0.00075267325 0.011550566 0.009402329 -0.008076921
000030 25 4e c1 ba 35 27 fa 3b 21 2b 03 3c b6 99 2c 3d
       -0.001474802 0.0076340684 0.008005888 0.042138778
000040 f3 27 de 3c 27 7b 15 3c 88 ac 5a 3b af 71 a2 3c
       0.027118659 0.0091236 0.0033366997 0.0198296
000050 e0 2a 17 3c 02 d2 2b 38 66 05 6d 3c f7 e1 3d bc
       0.009226531 4.0965162e-05 0.014466619 -0.011589519
000060 12 26 30 3c 01 c6 dc 3c 4f fe d8 bb f4 63 07 3c
       0.010751264 0.026949884 -0.006622113 0.008263577
000070 42 10 a1 3c ec b4 0c bc 69 06 9d 3b 0b bf 56 3b
       0.019661073 -0.008588057 0.004792024 0.003276768
000080 54 f7 07 3d 78 71 89 bb 57 a1 f1 b8 11 75 30 bc
       0.033194855 -0.0041944347 -0.000115218274 -0.010770098
000090 f5 48 d6 b9 93 59 29 3c 3f 9a 64 bb c8 7c 08 3b
       -0.00040871618 0.010336298 -0.0034881977 0.0020826329
0000a0 f8 a0 c5 bc 27 f8 b9 bb 6a 18 d0 3c a6 03 cc bb
       -0.024124607 -0.005675334 0.025402267 -0.006226021
0000b0 19 4e a7 bb cd 60 81 3c 8d 74 49 bc 5c 5c 25 3c
       -0.0051057455 0.015793229 -0.012295854 0.010092821
0000c0 4d f5 ab 3c 5f b1 a7 3c 9f d9 22 bb 00 56 25 3b
       0.020990992 0.02047032 -0.002484895 0.0025228262
0000d0 16 b2 3f 3c c8 82 fe b9 13 9f 6b 3b 5e f2 6d 3c
       0.011700174 -0.00048544095 0.003595297 0.014523117
0000e0 c5 eb d5 3c 6e 8e d0 3c 93 c9 48 bb 96 1e 89 3c
       0.0261134 0.02545854 -0.0030637726 0.016738217
0000f0 2e 9b 9e 3c 32 ba 38 3b 2a ba f0 3b 97 61 51 bc
       0.019361105 0.0028187153 0.0073464112 -0.012779615
000100 d7 04 99 bc 5d 0e 0e bc c2 fa 63 bb 11 20 06 3d
       -0.018679066 -0.008670417 -0.0034786914 0.032745425
000110 a5 0b 55 3c de ec f6 bb 31 5b e9 bb ac 0e 4c ba
       0.013003265 -0.007535561 -0.0071214666 -0.00077841687
000120 26 ed cb bb 16 9d e2 3b 42 a0 93 3b c7 3c 05 3d
       -0.0062233387 0.0069156988 0.004505188 0.032528665
000130 86 01 c9 3c 5d 20 77 bc 17 2f d2 3c 71 7a 40 bc
       0.02453686 -0.0150834 0.02565722 -0.011747942
000140 1f 3a b7 3c 27 f6 b3 bb a8 31 92 bc d8 85 5b 3a
       0.022366581 -0.00549199 -0.017845944 0.0008374131
000150 ab 3f f8 3b ac ab 8d 3c a7 b2 d7 3b 51 6e 92 3c
       0.007575949 0.017293774 0.0065825763 0.017874869
000160 73 70 e8 3a 80 f6 5a 3d 9c 80 1c 3d 3e e1 5d 3d
       0.0017733708 0.053457737 0.03820859 0.054169886
000170 b8 bd 15 bc cb b0 e5 bb c1 48 8b 3b a1 fd 48 bb
       -0.009139471 -0.0070096008 0.0042506163 -0.0030668753
000180 2e e0 ca 39 78 22 43 bc b9 4d 7f 3c af fb 87 3c
       0.0003869547 -0.011910073 0.015582495 0.016599504
000190 b1 65 fa 3c 4a e1 2f 3c 28 92 96 3c bf b5 ac 3b
       0.030566068 0.010734865 0.01838024 0.0052706893
0001a0 fd e1 5f 3c 4c 3b ae 3b 62 2a 24 3c 45 0a 33 3c
       0.01366472 0.0053171273 0.0100198705 0.010927741
0001b0 6c 97 fa 3a 14 e4 ad bc 46 1e 36 3c 94 e5 d3 bb
       0.0019118614 -0.02122692 0.011115616 -0.006466577
0001c0 e1 dd de 3c eb 70 80 bb a0 85 a6 3c 68 15 5b 3b
       0.02720541 -0.003919711 0.02032739 0.0033429507
0001d0 ef c9 23 3b 3b 17 88 3c 15 c9 1f bc 0e 7c 11 bb
       0.0024992188 0.01661264 -0.009752532 -0.0022199186
0001e0 65 f4 0e 3b 03 2b 3f bc cf 33 75 bc 69 31 3f 3b
       0.002181315 -0.01166797 -0.014965965 0.0029173738
0001f0 ad 88 cf bc c3 af 2b 3b 86 45 87 3c ba 3a c5 3b
       -0.025333727 0.0026197291 0.016512644 0.0060189636

network_body._body_endoder.seq_layers.2.weight f4 [128, 128]
000000 9c 61 15 be 71 a4 06 be 7e da ee bd e1 e9 c6 3c
       -0.14588016 -0.13148667 -0.11662768 0.024281444
000010 bb 14 47 bd 5f a3 27 be a8 de 63 bd 6b e2 2c bc
       -0.048603754 -0.16370915 -0.055632263 -0.010552029
000020 7e d3 6b be a3 0a b2 3c 0f 7f d6 bc fd d2 c3 bd
       -0.23029897 0.021733588 -0.026183633 -0.09561727
000030 0b 48 7e 3d 81 5d fc bd fe 95 bd bd 7c f7 0b ba
       0.062080424 -0.12322522 -0.09257124 -0.0005339307
000040 ea 58 70 3b f2 dd 19 bd 4a 17 1d bc 29 62 a1 bc
       0.003667409 -0.03756518 -0.009588072 -0.019700127
000050 4d 91 de bd 1a d2 27 bc 33 99 53 be af 78 d3 bd
       -0.10867558 -0.010242963 -0.2066391 -0.10325753
000060 d3 48 4d ba 70 b0 a4 bc 74 57 01 be 41 1e a5 3d
       -0.0007830981 -0.020103663 -0.12631017 0.08062411
000070 16 73 9c bd 09 72 90 bd 2f c8 aa bb e8 fb 35 3d
       -0.076391384 -0.070530005 -0.005211852 0.04442969
000080 87 55 d5 bd 11 fd ee bb 40 69 69 35 b1 63 12 3e
       -0.10416704 -0.0072933515 8.6952423e-07 0.14295842
000090 33 e2 91 3c 2e df 1d 3d eb ce 17 bd cf 0e 1b be
       0.017808056 0.03854292 -0.037062567 -0.15142368
0000a0 2e e9 05 be 63 7d bf bd 31 ee 8a 3c 85 01 8b bd
       -0.13077232 -0.093500875 0.016959282 -0.06787399
0000b0 ac 0b e2 bd 6f 58 86 3d 3a 72 1d 3d 3a 9c 89 3c
       -0.110373825 0.06559836 0.038439013 0.016798127
0000c0 27 0d 0d bc f1 ea aa 3d 76 77 bf 3c ec fe 0b 3d
       -0.008609093 0.08345593 0.023372393 0.03417866
0000d0 fd 27 57 3c 02 99 37 be cd fb a6 bd b5 f8 2a 3e
       0.013132093 -0.17929462 -0.08153496 0.16696437
0000e0 a0 57 26 3e 3b 7f 2d be 9f 5a d8 3c b2 73 41 3e
       0.16244364 -0.16943066 0.026410399 0.1889179
0000f0 16 ff 71 3e 6e 02 5a 3d 73 be f0 3c 60 00 b5 bd
       0.23632464 0.053224973 0.029387688 -0.08837962
000100 84 31 20 3b 6b 39 a1 3d fb 2a b5 3d c9 8a 26 bd
       0.0024443576 0.0787228 0.088460885 -0.0406597
000110 e7 92 70 bd af 33 83 3d 56 ae d6 bc 0f 27 3b bc
       -0.058733847 0.06406342 -0.026206177 -0.0114228865
000120 b1 c4 26 bd ca 50 8f bd 9f 5e ce 3b 1f 53 69 3d
       -0.040714923 -0.06997831 0.006297901 0.056964036
000130 9f 77 1d 3e 0d 80 c2 3d 8c 73 8a bc 8c 75 46 bd
       0.15377663 0.0949708 -0.0169008 -0.048451945
000140 c1 61 8f 3d e1 14 42 3c a0 08 5f bd 70 73 c2 bd
       0.07001067 0.011845798 -0.054451585 -0.09494674
000150 e9 c9 87 3c 03 a5 78 bd 07 48 a9 bc a1 b9 67 bd
       0.01657577 -0.060704242 -0.020664228 -0.056573514
000160 f6 55 c8 bd 6f 27 73 bb 97 59 36 3d 7e da a6 3b
       -0.09782021 -0.0037102362 0.044519033 0.0050919643
000170 6c db b4 bc 22 f2 28 be 22 ef f4 bd 20 af 47 3d
       -0.022077285 -0.16498616 -0.119596735 0.048750997
000180 df 8d 6e 3d 78 8c c1 bd ac 09 85 3c fd 61 53 be
       0.058240768 -0.094506204 0.016239963 -0.20642848
000190 f9 94 04 bc 59 92 71 bd 82 94 fd bd 70 82 da 3a
       -0.0080921585 -0.05897746 -0.12381841 0.0016670953
0001a0 6c 20 96 3d 73 1a ba bd 90 bc 63 3d 60 91 04 3e
       0.07330403 -0.09087076 0.05559975 0.12946081
0001b0 11 0a 05 be 5c 99 3e bd 4d aa 29 3c 18 68 a0 3d
       -0.12992121 -0.046532974 0.010355544 0.07832354
0001c0 29 78 dc 3c 54 0d 9b 3d 37 fe 85 bd 8e 50 21 3e
       0.026912766 0.075709015 -0.06542628 0.15753385
0001d0 e7 19 34 3e 72 54 6c bd 93 2f f6 ba 0f 0f 22 3d
       0.17588006 -0.05769772 -0.0018782489 0.039565142
0001e0 dd 78 4d bd 23 42 6b 3e bb 52 e1 3b c3 1e a8 3d
       -0.050164092 0.22974448 0.0068763173 0.08208992
0001f0 fd e8 4b 3d 57 cd 18 3d 92 89 d6 3b 25 e4 08 bd
       0.04978274 0.037305202 0.0065471614 -0.0334207
000200 6a cc 29 bd fd a9 5b bd c1 81 96 3b 29 72 02 3c
       -0.04145471 -0.05362891 0.0045931046 0.007961788
000210 28 94 19 bd 27 fd 35 3d d0 77 98 bc 8a b0 6f bd
       -0.03749481 0.044430878 -0.018611819 -0.05851797
000220 7e dd 4b bd b5 6c 83 bc d0 58 ba bd 7d df c2 bd
       -0.04977178 -0.016043046 -0.09098971 -0.09515283
000230 e5 d6 31 bc 84 99 7a 3d bf a7 d7 3d 4d 9a be bc
       -0.0108544575 0.06118156 0.10530042 -0.023266936
000240 c1 c5 69 bd 6e 42 ee bd 99 82 16 3c 36 af 8a 3c
       -0.05707336 -0.11633764 0.00918641 0.01692925
000250 ea e2 ad bd 7f e0 56 bd ff f8 3e be af 94 41 3d
       -0.08490546 -0.05246019 -0.18649672 0.047260936
000260 34 d4 33 3c 29 b3 28 bd ba b5 61 be d3 26 38 3d
       0.010975886 -0.041186485 -0.2204198 0.0449589
000270 34 2e 44 bc 36 04 be bc 5c 74 9f 3d 6a 82 c3 3c
       -0.011973906 -0.023195367 0.07785866 0.023865897
000280 62 4e cd 3d 2d 05 8e 3e bd 41 0a 3e 83 37 63 bc
       0.10024716 0.27738324 0.1350164 -0.0138682155
000290 bd d2 2f 3d 59 e0 32 bc b7 eb 61 38 ed 59 2a 3e
       0.042925585 -0.010917746 5.3863707e-05 0.16635866
0002a0 3a 75 00 3e f2 f1 3c 3d 62 46 8d 3d d3 3f cd bd
       0.12544718 0.046129175 0.0689819 -0.10021939
0002b0 99 c7 18 be 2c 6f 75 3c de f5 c0 3d 73 33 27 3d
       -0.1491989 0.014980119 0.094218954 0.04082055
0002c0 40 08 5e be 60 a0 60 bc b9 a2 c6 bb 75 e4 40 bd
       -0.21682835 -0.013710111 -0.0060618785 -0.047092874
0002d0 bc 90 f9 bd 29 86 a3 bd de 2c 7e 3d d5 9a 57 bd
       -0.12185809 -0.079845734 0.062054507 -0.052637894
0002e0 64 65 22 3e 77 53 05 be f8 ba 90 3d ea 5f 64 3e
       0.1585899 -0.1302012 0.070669115 0.22302213
0002f0 c2 5d f3 3d fa d2 17 bd 32 d7 72 bd d3 dd 76 3d
       0.11883117 -0.037066437 -0.059287257 0.06027014
000300 1d b8 86 bd 52 e5 60 3d 03 37 98 bd 44 b6 eb bd
       -0.065780856 0.054906197 -0.07432368 -0.11509374
000310 15 d0 c4 bd f1 28 8f be 6c b4 88 ba c0 f8 af 3d
       -0.09610001 -0.27960923 -0.0010429746 0.08592367
000320 07 34 05 be c2 15 c1 bd d0 1b cf 3d e0 e0 02 3e
       -0.13008128 -0.09427978 0.10112727 0.12781096
000330 e6 3c 0d 3d 7e aa 2c be 46 92 42 3c 1a 25 a2 bd
       0.034481905 -0.16861913 0.011875695 -0.07917233
000340 bf 96 16 3e 6a 3e a6 3d d0 70 24 be 01 cb b9 bc
       0.14705943 0.08117373 -0.1605866 -0.022679808
000350 b7 b7 c8 3d 70 94 8c 3d fb 92 2f bd 99 04 66 bd
       0.09800666 0.0686425 -0.04286478 -0.05615673
000360 da c9 d7 3c 87 be c5 3b 47 93 3a bd 68 ae b2 3d
       0.026341368 0.0060346755 -0.04555061 0.087246716
000370 79 1b 11 bc 09 7a ed 3b 15 8e 67 bd 7e 29 9c ba
       -0.008856648 0.0072472137 -0.056531984 -0.0011914221
000380 b7 67 aa 3d e8 2a b2 bd 84 62 0c 3c de b3 cf bd
       0.08320563 -0.0869959 0.00856841 -0.10141729
000390 32 cb 45 be 7a f1 b3 bd 7e ee 19 bd 58 69 80 3d
       -0.19315794 -0.087862924 -0.03758096 0.06270093
0003a0 d2 ab a4 3d 4d 28 3c be c8 c3 b2 bd 8c 17 a2 bd
       0.080405846 -0.18374749 -0.087287486 -0.079146475
0003b0 7a fa 36 3e 59 14 99 bd e9 47 a1 bc 47 80 b2 bd
       0.17868987 -0.07474584 -0.01968761 -0.08715873
0003c0 6a b8 24 3d 5d db 76 bd e3 f6 b9 3d 27 34 a3 3c
       0.040214933 -0.060267795 0.09080293 0.01992233
0003d0 25 48 4e be c6 fd 18 bd 89 d0 1a bd b0 8a 08 be
       -0.20144708 -0.037351392 -0.03779653 -0.13334155
0003e0 e4 1e 15 be de 42 29 3d 9b 0c 7a 3d 80 ba 0a 3e
       -0.14562565 0.041323535 0.061047178 0.13547707
0003f0 4d c1 4d 3d 71 eb 23 be b5 de cc bc 19 3e f0 3d
       0.050233174 -0.16007783 -0.025008539 0.11730594

network_body._body_endoder.seq_layers.2.bias f4 [128]
000000 9b 43 28 3c 5c 2d 07 3b ef f5 13 3c 2f 22 94 ba
       0.010270025 0.0020626402 0.009030803 -0.0011301691
000010 25 53 8c bc 4e 73 75 3b ee dc 67 bc 38 cb 8b bb
       -0.01712949 0.003745276 -0.014151795 -0.004266169
000020 0c ff 9a 3c 3d 93 c4 bb 76 d1 1f bc 6d 64 19 3c
       0.018920444 -0.0059989975 -0.009754529 0.009362322
000030 cd 7b 10 3b e1 83 0f 3b 8b ab ef bb 39 40 5a 3c
       0.0022046447 0.0021898674 -0.0073141507 0.013320976
000040 4e d3 27 3c 8c b6 76 3c 2e 7f 2c 3b a7 24 ab b8
       0.01024325 0.015058171 0.0026320922 -8.1607424e-05
000050 c5 43 d2 3a 1f 0e 92 3b 72 47 49 bc 3e 73 70 3c
       0.0016041925 0.00445725 -0.0122851 0.014675913
000060 4e b1 92 bb 65 19 67 bc e9 74 69 bc 35 00 3a 3c
       -0.004476703 -0.014105176 -0.014249065 0.011352588
000070 7c cc 61 bc de ef f7 3b b5 0e ed 3a 77 a3 94 bb
       -0.013781663 0.007566436 0.0018086048 -0.004536088
000080 71 a2 63 3c 01 2e fd 3b 08 3b c9 3a 95 9b d4 39
       0.0138937095 0.0077264314 0.0015352676 0.0004055171
000090 8a ca 19 3b 83 4c 1e 3b ac 94 43 bc c6 1f f2 3a
       0.002346667 0.0024154491 -0.011937302 0.0018472604
0000a0 3f 22 43 38 70 3e b9 3b 77 9f 60 ba 78 b6 26 3c
       4.6523517e-05 0.005653195 -0.0008568684 0.01017534
0000b0 1c 73 6f 3b bd df b2 3a 39 18 88 3b 91 3d ac bb
       0.0036537116 0.0013647001 0.004153278 -0.0052563627
0000c0 30 1d b2 bb c6 9d f8 3a 57 d1 05 bc c1 f8 d2 3a
       -0.0054356083 0.0018967919 -0.008167586 0.0016095863
0000d0 43 2b 98 bb c9 c5 08 bb cf 18 72 bb da 4e 98 bc
       -0.004643829 -0.0020869842 -0.0036941057 -0.018592287
0000e0 b2 7d cc bb 59 14 34 bc 05 bc a3 3b a9 09 9d 3b
       -0.00624057 -0.010991179 0.004996779 0.0047924113
0000f0 46 b5 37 bb a5 db 2e 3a 39 db e8 bb 09 e1 45 ba
       -0.0028031631 0.0006670303 -0.0071062115 -0.00075484865
000100 a1 ab 32 3b fd 7f 9c ba b6 90 a0 bb 97 30 7f 3c
       0.0027262943 -0.0011939999 -0.0049000634 0.01557555
000110 5c 02 c6 3b a9 d0 fb 3b 21 5d 32 bc 88 4f bf 3c
       0.0060427617 0.0076847863 -0.0108864615 0.023353353
000120 82 55 88 3b 85 79 8c 39 ef 92 94 3b f8 c0 78 bc
       0.004160584 0.0002679342 0.0045341174 -0.015182726
000130 7c 49 42 bc 5d 5d e7 bb 41 18 a5 3b e9 35 52 bc
       -0.01185834 -0.0070606903 0.0050382917 -0.012830236
000140 08 4f 90 3c 22 2e ad bb ae 84 86 ba 3d d1 58 bb
       0.01761581 -0.0052850405 -0.001026293 -0.00330837
000150 74 67 bb 3b 66 38 35 bb 94 a2 0e bc 35 9d be bb
       0.0057191197 -0.0027652024 -0.008705754 -0.0058170804
000160 f2 3b 63 bc fe 99 c9 bb e3 84 0e 3b 51 66 3e bb
       -0.013869273 -0.0061523905 0.0021746687 -0.0029052685
000170 36 1d c5 3b 1d 24 34 3a 95 80 81 3b ae 79 0a bc
       0.006015445 0.00068718364 0.0039520958 -0.008451862
000180 57 f0 64 bc 56 2b 42 bc dd 5f 5b bc b9 1c 1e 3d
       -0.013973317 -0.011851152 -0.013389555 0.03860161
000190 46 e8 9a bb e7 40 3c b9 64 c4 e9 bb cf 3c 2a bc
       -0.004727396 -0.00017953255 -0.0071340073 -0.010390474
0001a0 73 71 30 bc 15 47 35 bc 8a 68 a0 ba d2 b5 97 bc
       -0.010769236 -0.011064311 -0.0012238186 -0.018519316
0001b0 3c 63 05 bb 80 c8 b4 bb 48 52 61 bc 1d 3c 16 3d
       -0.0020353338 -0.0055170655 -0.013752528 0.036678422
0001c0 26 1f 31 bb 72 fb af 3c fc ea 22 bc a9 65 a5 3c
       -0.0027026623 0.021482203 -0.00994372 0.020190077
0001d0 75 5c 93 3a 23 a0 e3 3b 94 eb 0d bc af 3f cb bc
       0.0011242764 0.00694658 -0.008662123 -0.02481064
0001e0 28 05 a6 3a 2b d0 f5 3b bb 80 82 3c ab 00 f3 bb
       0.0012666332 0.007501622 0.015930524 -0.007415851
0001f0 51 1a 0a bc 6c a0 a6 ba 94 56 46 bc 30 5d 8f bb
       -0.008429126 -0.0012712604 -0.012105603 -0.0043751225

action_model._continuous_distribution.log_sigma f4 [1, 2]
000000 2b 50 4d bf 9c 62 42 bf
       -0.8020045 -0.75931716

action_model._continuous_distribution.mu.weight f4 [2, 128]
000000 0e f7 e5 bc c0 93 9b bc 09 51 11 bd 83 74 df bc
       -0.028071906 -0.018991351 -0.03547767 -0.027277237
000010 54 f3 38 3c 98 e9 e2 bb 72 aa 9a bc cb ad df 3c
       0.011288483 -0.006924819 -0.018880103 0.02730455
000020 3e dc 80 bd 0b 72 2a 3d 8c 93 cd 3c 8f 7f 3b bd
       -0.06292008 0.041612666 0.02509477 -0.045775946
000030 00 b5 19 bd 98 3a 74 bc b2 1a ef 3b f5 5a 10 3d
       -0.03752613 -0.014906548 0.0072968835 0.035242993
000040 75 61 2b bd 4e f1 7a bd 7b 2b c7 bc 21 a9 b0 bc
       -0.04184099 -0.061265282 -0.024312725 -0.021565022
000050 68 2e 6c 3d c3 c2 93 3b e7 02 a2 3c 78 a3 95 3d
       0.057661444 0.0045093014 0.019776775 0.0730657
000060 f1 b7 49 b9 8e c8 8c 3a 27 fe 01 3d 0b 41 2b bd
       -0.00019237377 0.0010740922 0.03173652 -0.041810077
000070 9b 7f da 3b 5d 42 8e bc ab 78 42 3d 4f d6 e1 bc
       0.006668044 -0.017365629 0.04747836 -0.02756801
000080 97 c8 08 bd f0 11 5e bd 17 7d 6b bc 9e 8e 5c 3c
       -0.033394422 -0.054216325 -0.014373085 0.013461737
000090 0f 6a 61 bc b5 32 38 3c 51 3d 9e 3c a5 27 22 bc
       -0.0137581965 0.011242558 0.019316347 -0.009897147
0000a0 9e 12 e1 3c d0 98 1b ba b4 ba 26 3d 3e 27 4b bc
       0.027474698 -0.00059355516 0.040705398 -0.012399493
0000b0 e3 ba 4b bd 8e 0a 2e 3d 3a 6b 42 3c 0f 98 68 3d
       -0.049738776 0.042490534 0.011866385 0.05678564
0000c0 41 cf 45 3d dc 07 22 3c e2 56 37 3d fb 8c 92 3c
       0.048293356 0.009889569 0.044760592 0.01788949
0000d0 33 05 79 bc 75 f5 01 bd f0 5c d5 bc e1 8b 35 3c
       -0.0151989935 -0.031728227 -0.026045293 0.011080713
0000e0 21 67 b6 3b 72 53 8e 3c 79 69 60 3c 39 ae f9 bc
       0.005566493 0.017373774 0.013697022 -0.030478584
0000f0 fb 27 06 bd 5b c9 33 3d 38 b6 53 bc 2c f2 ba 37
       -0.032752972 0.0438932 -0.012921862 2.2285698e-05
000100 21 6c 83 3d 61 da bb bb 51 2a a8 3c 3c 59 da bc
       0.06417108 -0.00573282 0.02052799 -0.026653878
000110 af 14 3f 3d dd 83 a2 3c a5 f5 b1 3c b2 ce 1a 3d
       0.046650585 0.019838268 0.021723578 0.037794776
000120 0a 75 98 3d fa 52 7d 3d f4 27 ec 3c 96 74 4e 3b
       0.074441984 0.06184671 0.028827645 0.0031502596
000130 af ad f2 3c 41 47 88 ba 32 31 9c bc 29 02 8f 3b
       0.029623834 -0.0010397212 -0.019066427 0.004364271
000140 7e 5d 8c bd 9d 0b d0 3c d0 2d 4e 3d df d6 e2 3c
       -0.0685377 0.025396163 0.05033666 0.02769035
000150 f8 fb 56 bd 37 2c fd 3b a7 f3 16 3d 50 ba 24 3b
       -0.05248639 0.007726218 0.03685346 0.0025135465
000160 5b 63 f3 ba d9 93 01 3d 67 e1 29 bd b1 14 4c 3d
       -0.0018569039 0.03163514 -0.041474726 0.04982442
000170 63 76 11 3b de 6f aa bc ca 45 51 bc 2d ee 94 3c
       0.0022195808 -0.020805296 -0.012772987 0.018179977
000180 df 47 8a 3a 17 3c 06 bc 8f fc 1c ba 1b 52 25 bd
       0.0010549984 -0.0081930375 -0.0005988562 -0.040361505
000190 07 f6 46 3c 6f 8e 96 bc 16 06 8f 3c 4b 40 35 3c
       0.012143618 -0.018378465 0.017458957 0.011062692
0001a0 52 d9 95 3c 93 88 9e 3c 33 6c ba bb e5 8b 09 3d
       0.018292103 0.019352233 -0.005689168 0.03358068
0001b0 31 ad eb bc 61 da e3 3c 56 b7 7f 3c 61 60 7c bd
       -0.028769108 0.027814092 0.015607676 -0.06161535
0001c0 d7 65 fe 3c 00 7c 6d bd 38 0b 27 3d f9 28 94 bd
       0.03105442 -0.057979584 0.040782183 -0.072343774
0001d0 06 4c 43 3d 00 e4 c4 3d 15 82 ae 3c 8f 1f a4 3c
       0.047679923 0.096138 0.021302262 0.02003458
0001e0 ce 7c c4 bc 9a f1 20 bd 3b 4c 75 bd 10 3d 93 bc
       -0.023985293 -0.03929291 -0.059887152 -0.017973453
0001f0 2c d4 97 3c f5 86 3c bd 42 b3 a0 3b 2b 80 2a bd
       0.018533789 -0.046027143 0.0049041817 -0.041626137
000200 03 41 dc 3c a3 7e c0 3c f6 de 3b 3d d9 15 6e 3c
       0.026886469 0.023497885 0.04586693 0.014531576
000210 a9 d4 b3 bc ae 9a 3b 3d 2d 9c 41 bd 9a ee a3 bc
       -0.02195199 0.04580181 -0.04726808 -0.020011235
000220 ab 33 16 bd da b5 27 bd 8a 38 21 bc b1 10 f4 3c
       -0.03667037 -0.04094491 -0.00984014 0.029793115
000230 4a 94 8b bc fa 28 04 bd d8 7b a5 3c fe 1a 17 bd
       -0.017038483 -0.03226564 0.020200655 -0.036890976
000240 62 05 a2 3c 03 e2 c8 3d c6 8a fc ba 50 1f 83 bc
       0.019777957 0.09808733 -0.0019267432 -0.016006142
000250 11 5f 35 3a 2c 07 6d bd cf 95 1d bd 23 e3 25 bc
       0.0006918768 -0.057868168 -0.038472947 -0.010124954
000260 e5 41 da bc 2f 98 0e bb 0a ac 91 3c ab f2 2e bd
       -0.02664275 -0.002175819 0.01778223 -0.042711895
000270 c3 23 c7 3a bf b2 9c 3c 67 8e 92 3c 81 b0 83 3b
       0.0015193153 0.019128202 0.017890168 0.0040188436
000280 b4 44 f5 3b 2b de 03 3d ec d1 38 3b 49 2b 79 bd
       0.0074849967 0.032194298 0.0028201295 -0.060832296
000290 28 11 8c bc 63 3f bf 3d 2d 99 e5 bc c0 04 65 3c
       -0.017098024 0.09338262 -0.028027141 0.013978183
0002a0 e6 86 89 bd 21 65 96 3d 81 e0 08 bd b6 f9 8a 3d
       -0.06715183 0.073435076 -0.03341723 0.0678591
0002b0 b0 15 d3 bc fb 2f 2f bd 56 91 9e 3a ca 46 65 3c
       -0.025767177 -0.042770367 0.0012097757 0.013993928
0002c0 97 97 55 3d 50 f3 87 bd d1 66 a1 3c 02 6f 44 bc
       0.05214652 -0.06638205 0.019702347 -0.011989357
0002d0 83 d3 20 3d 78 5c ab bb 1e 33 34 3d 52 05 1a 3c
       0.039264213 -0.005229529 0.04399406 0.0094006825
0002e0 e3 ea 6e 3c d1 0f eb bc 10 31 29 3d ea 89 81 bc
       0.014582369 -0.028694065 0.041306555 -0.015812833
0002f0 c4 d5 7b bc a0 90 82 3c 02 18 52 bc 75 27 94 3b
       -0.01537079 0.015938103 -0.012823107 0.004521305
000300 96 97 ee 3c 34 38 16 bd 14 0e 1c bd 63 80 db bc
       0.029125016 -0.036674693 -0.038099363 -0.026794618
000310 9c 65 46 bd 88 5c 0b 3d 8b 07 4d 3c bb 87 81 3d
       -0.048436746 0.03402379 0.012514005 0.06324717
000320 2d 32 ac 3c e8 9f 51 bd e3 08 64 bd bf 0f 6e 3c
       0.02102002 -0.05117789 -0.055672538 0.014530121
000330 2a da 85 bc 4b 2c 28 3d b2 2a 1e 3d bb 90 db 3b
       -0.01633938 0.041057866 0.038614936 0.006700603
000340 d6 c3 0c 3d d8 a7 52 3c c5 5f 09 bd 1f c5 48 3d
       0.03436645 0.0128574 -0.0335386 0.049016114
000350 c1 89 85 ba 15 d0 a4 bb 41 51 83 bc cd ac 07 3c
       -0.0010188149 -0.005029688 -0.016029956 0.008280945
000360 c0 e9 b3 39 22 a1 d6 bc c8 10 07 3c 11 7d c2 ba
       0.00034315698 -0.026199881 0.008243747 -0.0014838298
000370 ab ac 63 bd 1e dc 9b bc f1 b4 34 3d 79 6b f5 bc
       -0.05558459 -0.019025858 0.04411787 -0.029958474
000380 4c 0e ed 3a 32 18 ce bc 80 c3 b0 3c c4 bb 7b 3d
       0.0018085926 -0.025158022 0.021577597 0.061458364
000390 0e ed a3 bc 92 ca b0 3c 61 95 06 bc b5 71 e0 bc
       -0.020010497 0.021580968 -0.008214326 -0.02739797
0003a0 2e 54 07 3d 1a 6f fa 3c 75 7d bd 3a dd 7c 73 3c
       0.033039264 0.030570555 0.0014456945 0.014861313
0003b0 36 5d 24 3d 47 27 f3 bb 5b 6d 8e 3c b1 fd 70 3d
       0.040127955 -0.0074204537 0.01738613 0.05883569
0003c0 38 40 31 bc 34 a0 7c bc 48 a5 86 3c 82 8a 17 3d
       -0.010818534 -0.015419055 0.016436234 0.036997326
0003d0 06 58 86 bc a4 d6 f4 3b 9f 16 cf 3c c1 f9 e5 3b
       -0.016399395 0.007471876 0.025279341 0.0070182984
0003e0 40 b8 9c bc 03 70 93 3c 8b 58 10 bd f7 c1 20 bd
       -0.019130826 0.017997747 -0.03524069 -0.03924748
0003f0 c2 f7 cd bc 4c 10 b2 bc 11 14 0a 3d 3f 39 65 bd
       -0.025142554 -0.021736287 0.033710543 -0.055962797

action_model._continuous_distribution.mu.bias f4 [2]
000000 d4 9b c9 bb 59 84 50 39
       -0.0061526094 0.00019885729
