results/test_environment/VacuumCleaner/VacuumCleaner-3186.onnx (onnx, 83250 bytes, 7 tensors)

network_body._body_endoder.seq_layers.0.weight f4 [128, 27]
-0.06371924 0.212664 -0.28405207 0.069337614 0.20749667 0.35050136 0.41044223 -0.17367837
-0.08716794 -0.006590758 -0.46398672 0.08686035 -0.03937816 0.16619529 0.28406003 -0.06710845
0.20329288 -0.07415265 0.28763738 0.25397584 0.29979715 0.36279628 0.24720824 -0.06482685
-0.3148367 0.26896685 -0.026649445 0.41256025 -0.10826529 -0.06359858 0.017897049 0.14113945
0.09659197 -0.4134857 0.27347848 -0.053844754 0.13093552 0.15492865 -0.119457886 -0.081644684
0.027231358 -0.23836337 -0.0034597141 -0.013451572 -0.16008091 0.39981306 -0.23529153 -0.113902725
0.26757407 -0.07454617 0.23549964 0.13517722 0.0020720877 -0.26201114 0.23356068 0.30227953
0.19150211 0.087468036 0.44470045 0.12073785 0.47636846 0.041598782 0.14795794 0.32064608
-0.36897862 -0.08996528 0.05877099 -0.101260036 -0.13303934 0.3414991 0.20017934 -0.053272918
-0.017314812 0.043524213 -0.27169898 0.38517687 -0.05508552 -0.0028170636 0.2580435 0.12550347
-0.30263278 0.20511714 0.14543194 0.025799643 0.14519386 0.20428851 -0.330273 -0.298751
0.28260678 -0.01807742 0.13669398 0.16751215 0.050434243 -0.03383046 -0.027315853 0.030626154
-0.18095978 -0.00518943 -0.21241504 -0.15641011 -0.15656294 0.18013132 -0.23479472 0.008131736
0.13247761 0.5768223 -0.095513225 0.058625024 -0.013723394 0.10398802 -0.0077300356 -0.10126525
-0.35884884 -0.09152028 0.04521239 -0.343442 -0.17637292 -0.1271193 -0.25471312 -0.07890664
-0.21363083 -0.20003071 0.2660803 -0.1405375 -0.062708825 -0.12572329 0.11163453 -0.12054654
-0.07796945 -0.16030054 -0.10910565 -0.08702949 -0.04690646 0.014267176 -0.1563912 -0.08422736
0.012941964 -0.32416308 0.068017 0.4644154 -0.007273269 -0.033570275 -0.1684566 0.1996687
-0.16458543 0.04999398 0.009689291 0.17651482 0.075398244 -0.13930239 0.20569757 0.024386866
0.21292125 0.07740505 0.11176571 -0.020049797 0.37935114 -0.19201465 -0.28442964 -0.0037170139
-0.26977485 0.017947605 -0.26952484 0.1495663 -0.092615865 0.32571477 0.18796624 0.04419741
-0.008258147 -0.09262511 -0.31936586 0.005403741 0.07590107 0.2437451 0.05182619 -0.28705105
0.015835917 -0.05659777 -0.120367855 -0.103039846 0.012164424 -0.18138868 -0.18220949 0.17568606
-0.123093076 -0.10751365 -0.0792299 -0.025170263 -0.1380502 -0.13417293 -0.26881403 0.205432
0.031635284 0.045424405 -0.3112755 0.31569627 0.11129233 0.17320737 -0.117212676 0.15883343
0.19075385 -0.5005238 0.16136941 -0.004469699 -0.28328666 0.23608997 0.15716925 -0.27517483
0.05699711 -0.2263146 -0.18836755 -0.15342015 0.4620985 0.0955786 -0.24452704 0.10802872
-0.26796225 -0.013691539 0.16852203 0.07664848 0.33052373 0.0700885 0.038793314 0.10176289
-0.23054424 0.44473395 0.06008335 0.10408157 -0.19615532 0.20030686 0.063396335 0.14271317
0.107035175 -0.32828042 -0.25189853 -0.27582848 0.040920693 -0.03656779 -0.27459994 -0.3091414
0.23308858 -0.04160407 0.0019205207 -0.11408139 -0.22183096 0.21397856 0.0008789667 0.2721682
-0.23704186 0.18675445 0.13275282 -0.07988845 0.15567867 0.09009052 -0.34378326 0.19258335
00000000: 3c7f 82bd 97c4 593e 466f 91be e100 8e3d
00000010: 027a 543e ea74 b33e 7c25 d23e bed8 31be
00000020: 1b85 b2bd 49f7 d7bb ab8f edbe d7e3 b13d
00000030: fe4a 21bd 192f 2a3e 5170 913e 2870 89bd
00000040: 022c 503e 58dd 97bd 3545 933e 1f09 823e
00000050: 037f 993e 6fc0 b93e 2824 7d3e f1c3 84bd
00000060: 4732 a1be 06b6 893e f04f dabc 193b d33e
00000070: 31ba ddbd f93f 82bd d59c 923c dc86 103e
00000080: 03d2 c53d 66b4 d3be 5f05 8c3e 518c 5cbd
00000090: f613 063e 9ea5 1e3e 56a6 f4bd 5435 a7bd
000000a0: 4c14 df3c 8715 74be 5fbc 62bb fb63 5cbc
000000b0: 40ec 23be 4cb4 cc3e 43f0 70be d545 e9bd
000000c0: 78ff 883e aaab 98bd d126 713e e66b 0a3e
000000d0: ddcb 073b 5326 86be 882a 6f3e 62c4 9a3e
000000e0: 2119 443e 7122 b33d c7af e33e 6845 f73d
000000f0: 91e6 f33e 7c63 2a3d 4982 173e b92b a43e
00000100: c4ea bcbe b73f b8bd dab9 703d 6c61 cfbd
00000110: 773b 08be f8d8 ae3e d0fb 4c3e b434 5abd
00000120: cbd7 8dbc 7246 323d 211c 8bbe e735 c53e
00000130: 5ba1 61bd 7c9e 38bb 471e 843e fb83 003e
00000140: aff2 9abe 3a0a 523e 1cec 143e c659 d33c
00000150: b3ad 143e 0231 513e 8b19 a9be e4f5 98be
00000160: d6b1 903e 1917 94bc 82f9 0b3e 4e88 2b3e
00000170: 2394 4e3d cf91 0abd 7fc5 dfbc b3e3 fa3c
00000180: 854d 39be 180c aabb 5483 59be f929 20be
00000190: 0952 20be 5874 383e 076e 70be f93a 053c
000001a0: 36a8 073e a0aa 133f 709c c3bd cb20 703d
000001b0: 16d8 60bc acf7 d43d 3d4c fdbb 2864 cfbd
000001c0: 09bb b7be fc6e bbbd a130 393d a1d7 afbe
000001d0: 1a9b 34be 902b 02be c269 82be ce99 a1bd
000001e0: 0ac2 5abe dad4 4cbe ad3b 883e 10e9 0fbe
000001f0: 7c6d 80bd 9bbd 00be a5a0 e43d 1be1 f6bd
00000200: 72ae 9fbd d325 24be c872 dfbd 843c b2bd
00000210: fd20 40bd e0c0 693c 0425 20be 657f acbd
00000220: 880a 543c b4f8 a5be 7f4c 8b3d dbc7 ed3e
00000230: 9a54 eebb fc80 09bd e37f 2cbe f475 4c3e
00000240: 1589 28be 7dc6 4c3d d5bf 1e3c 4dc0 343e
00000250: 656a 9a3d 49a5 0ebe 62a2 523e f7c6 c73c
00000260: 0708 5a3e 8a86 9e3d 6ce5 e43d 793f a4bc
00000270: 503a c23e 7d9f 44be c3a0 91be 2599 73bb
00000280: ee1f 8abe db06 933c 29ff 89be e827 193e
00000290: 63ad bdbd 16c4 a63e 397a 403e 5808 353d
000002a0: 2e4d 07bc 3cb2 bdbd ec83 a3be dd11 b13b
000002b0: 0572 9b3d 5198 793e b347 543d 5bf8 92be
000002c0: 53ba 813c 10d3 67bd 6c83 f6bd 8e06 d3bd
000002d0: 4b4d 473c f4bd 39be 2095 3abe 0ce7 333e
000002e0: 3918 fcbd 1e30 dcbd 4943 a2bd de31 cebc
000002f0: 085d 0dbe a164 09be fea1 89be c45c 523e
00000300: 0094 013d f10e 3a3d 815f 9fbe f1a2 a13e
00000310: 3ced e33d 465d 313e 330d f0bd 3ba5 223e
00000320: fa54 433e 5422 00bf 063e 253e 8e76 92bb
00000330: f30a 91be 92c1 713e faf0 203e b7e3 8cbe
00000340: cd75 693d 04bf 67be 6ce3 40be 2c1a 1dbe
00000350: 2d98 ec3e b7be c33d 4c65 7abe 293e dd3d
00000360: 5932 89be 7a52 60bc 0a91 2c3e e1f9 9c3d
00000370: 683a a93e 8f8a 8f3d bde5 1e3d 1069 d03d
00000380: ca13 6cbe 2bb4 e33e f519 763d b828 d53d
00000390: f1dc 48be 3e1d 4d3e f0d5 813d 6723 123e
000003a0: 4235 db3d 5f14 a8be d8f8 80be 6439 8dbe
000003b0: 759c 273d 1bc8 15bd 5d98 8cbe c847 9ebe
000003c0: c6ae 6e3e 0869 2abd fbb9 fb3a 81a3 e9bd
000003d0: a827 63be 321d 5b3e 756a 663a a159 8b3e
000003e0: 1abb 72be 8f3c 3f3e 5bf0 073e 8e9c a3bd
000003f0: 3b6a 1f3e 6181 b83d 5c04 b0be 9234 453e

network_body._body_endoder.seq_layers.0.bias f4 [128]
-0.003391718 0.01577441 0.008309096 0.040677335 -0.020695578 -0.014340032 -0.011696835 -0.0027087382
-0.023980463 0.035698805 0.01590999 -0.006729271 0.015117727 0.07477648 -0.00780416 0.003844993
-0.007978309 0.008765364 -0.03120034 0.030367589 0.011494936 0.02801716 0.014729629 0.058842223
-0.020878408 0.03783529 -0.0060642213 -0.038809918 -0.022312324 -0.011932827 0.0072833635 0.016930956
0.007868517 0.019577166 0.024242245 0.0055677374 0.024576595 0.0048524328 0.01271995 -0.013045584
-0.019023482 -0.0013683019 0.012065505 0.030407505 0.004992448 -0.03922072 -0.013013221 -0.008059705
0.020213133 0.008114732 0.0160157 0.020722495 0.012064019 -0.025404563 0.026842058 0.021591948
0.0038604524 0.048475273 -0.028688928 -0.026902864 0.009720993 0.0012604431 -0.014385493 0.04085238
-0.042098865 0.0051255487 0.026909407 0.0040111793 -0.015427864 -0.009276055 0.05045921 0.0043450906
-0.023609966 0.01506154 0.018360732 0.011900864 0.032199457 0.012281212 -0.018503485 0.03070595
0.021064956 0.012810257 -0.013518176 -0.009996156 0.033739157 -0.033744033 0.008086194 0.04026754
0.04709959 -0.025846338 0.016212383 -0.050225563 -0.0052715866 -0.00065053196 -0.0022141596 0.032363776
0.008143984 0.018546022 -0.009151042 0.015603813 0.035933692 -0.011922463 0.022838281 0.0036620917
0.009009315 0.0012844685 -0.008837011 0.025674164 -0.00079771207 -0.008580247 0.008986486 0.0066347844
0.013056905 0.012669026 0.03016267 -0.007856582 0.013535227 0.060026348 -0.015292544 0.009497278
0.0452894 -0.010334764 0.07198664 0.010542803 0.014679719 -0.017899629 0.0016959436 0.0005771809
00000000: 9647 5ebb 5639 813c e022 083c 479d 263d
00000010: c689 a9bc 74f2 6abc 15a4 3fbc 1685 31bb
00000020: ad72 c4bc e938 123d ab55 823c 3781 dcbb
00000030: 58b0 773c 6924 993d 0aba ffbb 47fc 7b3b
00000040: 74b7 02bc 9a9c 0f3c db97 ffbc 73c5 f83c
00000050: 4255 3c3c 3e84 e53c 8b54 713c 8b04 713d
00000060: 3209 abbc 2df9 1a3d 60b6 c6bb 26f7 1ebd
00000070: 56c8 b6bc e781 43bc 48a9 ee3b cab2 8a3c
00000080: f4ea 003c 4b60 a03c ac97 c63c 9171 b63b
00000090: db54 c93c 2801 9f3b 5667 503c 25bd 55bc
000000a0: 22d7 9bbc 9858 b3ba 65ae 453c 2919 f93c
000000b0: b097 a33b e8a5 20bd 6835 55bc da0c 04bc
000000c0: 0396 a53c a7f3 043c 5b33 833c 39c2 a93c
000000d0: 2aa8 453c 3b1d d0bc e0e3 db3c 99e1 b03c
000000e0: a5ff 7c3b 028e 463d 0b05 ebbc 6563 dcbc
000000f0: cd44 1f3c 7435 a53a 21b1 6bbc d354 273d
00000100: dc6f 2cbd 38f4 a73b 1e71 dc3c 3670 833b
00000110: 27c5 7cbc 98fa 17bc 51ae 4e3d 4361 8e3b
00000120: b069 c1bc adc4 763c 3f69 963c d7fb 423c
00000130: 94e3 033d 2337 493c 9f94 97bc 0b8b fb3c
00000140: 6a90 ac3c 1de2 513c 577b 5dbc ebc6 23bc
00000150: 1232 0a3d 2f37 0abd f57b 043c 93ef 243d
00000160: 80eb 403d b3bb d3bc d5cf 843c 52b9 4dbd
00000170: 46bd acbb 7688 2aba 6f1b 11bb e18f 043d
00000180: 586e 053c d4ed 973c 41ee 15bc 23a7 7f3c
00000190: 352f 133d 6f56 43bc 5917 bb3c b4ff 6f3b
000001a0: ce9b 133c 9c5b a83a 1cc9 10bc a052 d23c
000001b0: 8d1d 51ba 2a94 0cbc 0e3c 133c 9b68 d93b
000001c0: a1ec 553c bf91 4f3c b417 f73c e5b8 00bc
000001d0: dbc2 5d3c 30de 753d 948d 7abc 799a 1b3c
000001e0: 6181 393d 2453 29bc bb6d 933d b9bb 2c3c
000001f0: 3483 703c 3ea2 92bc 6d4a de3a f44d 173a

network_body._body_endoder.seq_layers.2.weight f4 [128, 128]
-0.068692364 0.05716115 0.12730339 0.0114909215 0.23201524 0.010190156 -0.027266474 -0.08358593
0.12803401 -0.1132242 -0.010007087 0.05301483 -0.14542995 -0.03583254 -0.12662521 0.068692744
0.09887834 -0.073223546 0.07095192 0.074068986 0.029703021 0.012779163 -0.0177814 0.011339522
0.13065927 -0.1403332 0.044695187 0.14046627 0.071025245 -0.037750583 0.12861721 0.21388178
-0.05166172 0.075113945 0.047982275 -0.06227221 0.026137486 0.025458869 -0.15280508 0.117203414
0.13570076 0.10581329 -0.008842041 -0.058975022 -0.05162142 -0.07755217 -0.020358196 0.027983075
0.09868565 0.04070908 -0.22699852 0.13395156 -0.0038130763 -0.029252576 0.02978676 0.046081714
0.14413287 0.0766737 0.047475196 0.04248896 0.1163418 0.11601219 -0.03963512 0.04327725
0.08020709 0.0090034995 -0.03639057 -0.21739484 -0.038546797 0.07517977 0.119078144 0.16698085
0.1078605 0.085051805 0.032960773 0.01116743 0.07360253 0.018433614 0.10401357 -0.019152965
0.028717037 0.03456513 0.15447646 -0.19625445 0.3697876 0.14281647 -0.12204028 -0.08175033
-0.14829734 0.06469645 0.004824966 -0.05757809 -0.046114646 0.08681119 -0.021122085 0.12269323
0.111756 -0.14545028 -0.016423786 -0.012170124 -0.087088384 0.15065941 0.01615667 -0.043913692
0.02107763 0.07567634 -0.06757837 -0.07994696 -0.12562387 -0.042072497 -0.0008811088 -0.034723256
-0.17440857 0.10355573 -0.17124583 0.03515997 -0.08610977 -0.12646894 0.030832367 -0.0044958186
0.15666562 -0.10684161 -0.07750877 0.118571214 0.050272193 0.12932315 0.09007879 -0.1570684
-0.08246396 0.1012202 -0.053209495 0.24142621 -0.08750694 -0.07324291 0.04571971 0.13426481
-0.008552428 -0.05371857 -0.15390389 0.036419816 0.05161566 -0.009689372 -0.040791947 0.12095167
-0.026334338 -0.02433504 0.055446047 0.13943163 -0.027895967 0.015505549 -0.06782419 -0.07605266
0.08493315 0.20050873 -0.039698724 -0.06055365 -0.16394424 -0.11401087 0.09046469 -0.05073184
0.038675077 0.012914275 0.013227142 -0.23829497 0.06636711 -0.06870191 -0.0061464454 -0.116090454
0.028111486 0.04836484 0.090726376 -0.08012435 0.03457225 -0.0062810057 0.059863504 -0.026332965
-0.03352805 0.09371328 0.06926103 0.07739571 -0.07075814 -0.055564865 0.008628988 -0.12837593
-0.016461687 0.062406585 0.025782011 -0.07468969 0.08378402 -0.08263912 -0.07987549 0.04343034
-0.0815784 0.05957826 0.009609413 0.02197248 -0.004759768 0.16844952 -0.18792285 0.035976272
0.05410565 0.16646129 0.023292884 0.052268162 -0.0046127145 0.12936679 -0.12830621 0.19857758
0.082006685 0.13893144 0.11559352 0.076921575 0.13166298 -0.1447599 0.012662008 0.046799388
0.13309743 -0.028685575 -0.04311291 -0.100057766 0.06132472 0.083130725 -0.012848355 -0.09345111
-0.030410567 -0.0016066458 -0.12868716 0.012345822 0.03265846 0.17819229 -0.16182786 0.1511938
0.006409173 0.03692392 0.08372452 -0.09989371 0.052483127 -0.06449272 -0.03790873 0.17055139
-0.04214738 -0.15999004 0.03256488 0.027019769 0.13586786 0.11810852 0.06429662 -0.010933762
-0.046661396 -0.18580605 -0.04273467 0.13069533 -0.05743862 -0.11793119 -0.08697988 0.13396356
00000000: 95ae 8cbd cf21 6a3d d25b 023e 6b44 3c3c
00000010: 6795 6d3e 9df4 263c f15d dfbc 1a2f abbd
00000020: 591b 033e 17e2 e7bd c4f4 23bc 1426 593d
00000030: 97eb 14be 24c5 12bd 0aaa 01be c8ae 8c3d
00000040: ba80 ca3d 3af6 95bd 3d4f 913d 7bb1 973d
00000050: c053 f33c b25f 513c 4caa 91bc 67c9 393c
00000060: 8bcb 053e 82b3 0fbe 4d12 373d 64d6 0f3e
00000070: af75 913d 5ba0 1abd 3bb4 033e d303 5b3e
00000080: 3d9b 53bd 57d5 993d 1089 443d 2511 7fbd
00000090: 481e d63c 1e8f d03c ef78 1cbe 5808 f03d
000000a0: 24f5 0a3e a3b4 d83d 35de 10bc cb8f 71bd
000000b0: fb70 53bd acd3 9ebd 3bc6 a6bc c33c e53c
000000c0: b41b ca3d 90be 263d 4d72 68be 992a 093e
000000d0: cee4 79bb 19a3 efbc 5d03 f43c 2ec0 3c3d
000000e0: 9197 133e 1a07 9d3d 5a75 423d e708 2e3d
000000f0: 9c44 ee3d cd97 ed3d 7058 22bd 7c43 313d
00000100: 9d43 a43d 6a83 133c 470e 15bd c19c 5ebe
00000110: 3fe3 1dbd daf7 993d 3edf f33d 07fd 2a3e
00000120: f7e5 dc3d a42f ae3d e001 073d 99f7 363c
00000130: ecbc 963d 1702 973c 1105 d53d aee6 9cbc
00000140: fe3f eb3c 2a94 0d3d 142f 1e3e edf6 48be
00000150: cd54 bd3e 7b3e 123e 41f0 f9bd b86c a7bd
00000160: 42db 17be 937f 843d c01a 9e3b 01d7 6bbd
00000170: b6e2 3cbd 11ca b13d 3908 adbc 9746 fb3d
00000180: 54e0 e43d ebf0 14be 2d8b 86bc 3365 47bc
00000190: 655b b2bd 7646 1a3e fe5a 843c d8de 33bd
000001a0: feaa ac3c 32fc 9a3d 8766 8abd 3bbb a3bd
000001b0: 8ba3 00be 3654 2cbd 36fa 66ba f939 0ebd
000001c0: 2998 32be 0715 d43d 115b 2fbe e703 103d
000001d0: 525a b0bd 1381 01be 2994 fc3c a951 93bb
000001e0: f46c 203e c6cf dabd ebbc 9ebd 77d5 f23d
000001f0: 37ea 4d3d 4a6d 043e 3b7b b83d 8ad6 20be
00000200: dde2 a8bd 894c cf3d 33f2 59bd 6f38 773e
00000210: d736 b3bd 6100 96bd 9744 3b3d b77c 093e
00000220: 7c1f 0cbc 0108 5cbd fb98 1dbe f22c 153d
00000230: f16a 533d 2cc0 1ebc 7515 27bd 82b5 f73d
00000240: 1cbb d7bc 475a c7bc 651b 633d 2ac7 0e3e
00000250: 1586 e4bc fc0a 7e3c 69e7 8abd 7fc1 9bbd
00000260: 6ef1 ad3d 2952 4d3e 219b 22bd 1b07 78bd
00000270: 00e1 27be 887e e9bd 8d45 b93d 31cc 4fbd
00000280: c269 1e3d 6596 533c a8b6 583c 9903 74be
00000290: 7beb 873d 96b3 8cbd 1f68 c9bb d5c0 edbd
000002a0: 0f4a e63c 361a 463d c0ce b93d 3c18 a4bd
000002b0: a29b 0d3d e5d0 cdbb 6f33 753d 3bb8 d7bc
000002c0: b554 09bd c0ec bf3d bad8 8d3d a481 9e3d
000002d0: a5e9 90bd fc97 63bd 9960 0d3c fb74 03be
000002e0: a9da 86bc 0c9e 7f3d cc34 d33c e8f6 98bd
000002f0: f596 ab3d b33e a9bd c395 a3bd 03e4 313d
00000300: 9412 a7bd 5508 743d cd70 1d3c a1ff b33c
00000310: d4f7 9bbb 087e 2c3e d96e 40be db5b 133d
00000320: e39d 5d3d d474 2a3e b8d0 be3c 2417 563d
00000330: 4126 97bb ba78 043e b462 03be ec57 4b3e
00000340: 1ff3 a73d 0b44 0e3e 4cbc ec3d 0f89 9d3d
00000350: a9d2 063e f03b 14be 5074 4f3c b7b0 3f3d
00000360: b14a 083e 03fe eabc 2a97 30bd 16eb ccbd
00000370: a12f 7b3d 7140 aa3d e881 52bc 4c63 bfbd
00000380: 951f f9bc 1696 d2ba 91c6 03be 2146 4a3c
00000390: e1c4 053d 0a78 363e 34b6 25be 8cd2 1a3e
000003a0: 0a04 d23b 893d 173d c377 ab3d 1395 ccbd
000003b0: 8cf8 563d c214 84bd 2f46 1bbd 06a5 2e3e
000003c0: bba2 2cbd 6ed4 23be c062 053d 9058 dd3c
000003d0: f220 0b3e e1e2 f13d f2ad 833d 8623 33bc
000003e0: 0520 3fbd f143 3ebe 8d0a 2fbd ffd4 053e
000003f0: c244 6bbd e885 f1bd 8222 b2bd be2d 093e

network_body._body_endoder.seq_layers.2.bias f4 [128]
0.01427091 0.009981707 0.0027286443 0.016297363 0.0039351406 0.029827131 0.0019388716 0.008878842
0.0009765486 0.009831523 -0.008840247 0.0435806 0.00557572 0.007145449 -0.009809545 0.019551191
0.011026271 0.007981678 0.021778235 0.0079209125 0.01696336 0.026094222 -0.0020404404 -0.007943034
0.0037019674 0.00520487 0.025686076 0.024271643 0.0046535637 0.016312761 -0.012705364 -0.017165601
-0.005615298 -0.029696034 0.014213571 -0.0026138385 -0.0039608167 0.034404706 0.0014873748 0.01549613
0.015128874 0.010286584 0.005455478 -0.020675588 -0.0030760716 0.02094978 0.011074731 -0.0020649536
-0.002664382 0.0064069196 -0.0075432495 0.02215033 0.01742131 0.028408712 -0.00041310032 -0.015439381
0.005006534 0.0042022644 -0.0002653495 0.0107060615 0.0022418825 0.012064892 0.0015213338 -0.0001911247
0.025725665 -0.00042170854 0.011799 0.01628352 0.012894242 0.0030924405 0.0024825293 -0.0028823223
0.0059940508 0.019759765 -0.026643228 0.014356717 0.0022357046 0.0031136689 -0.0035894325 0.014965598
0.019568164 -0.0009792524 0.016046656 -0.005533285 -0.02533982 0.006182573 0.01898563 0.015351238
-0.00060761825 0.0071497518 0.031096568 0.008458682 0.017841496 0.008728258 0.0060201045 0.012605845
-0.005882598 0.023558734 -0.018125743 0.013083073 0.02863721 0.0088848835 -0.0029713926 0.030676406
0.013852502 0.0049212715 0.0008880123 0.0028908793 0.017417278 -0.00056279526 0.007386551 0.0037472397
0.01689855 0.010881974 0.0138190035 0.02570371 0.006401507 -0.0015077847 0.019211205 0.022334214
0.02837528 0.019462746 0.00052363146 0.004735593 0.027737273 0.020708792 -0.00096048514 0.012736957
00000000: 89d0 693c 508a 233c 0ed3 323b 0c82 853c
00000010: 5af2 803b 0758 f43c bc21 fe3a 9078 113c
00000020: 11ff 7f3a 6514 213c afd6 10bc 9281 323d
00000030: 88b4 b63b 5f24 ea3b 37b8 20bc d229 a03c
00000040: 88a7 343c 95c5 023c 4568 b23c b7c6 013c
00000050: bff6 8a3c 8dc3 d53c e9b8 05bb 8023 02bc
00000060: b59c 723b 9d8d aa3b 9b6b d23c 53d5 c63c
00000070: ec7c 983b 57a2 853c 292a 50bc e09e 8cbc
00000080: 8900 b8bb 1945 f3bc 0ae0 683c ef4c 2bbb
00000090: bdc9 81bb f3eb 0c3d 04f4 c23a 7be3 7d3c
000000a0: 19df 773c 0f89 283c dec3 b23b da5f a9bc
000000b0: eb97 49bb df9e ab3c ca72 353c 2c54 07bb
000000c0: ea9c 2ebb 23f1 d13b 5d2d f7bb 9c74 b53c
000000d0: 23b7 8e3c 63b9 e83c 6395 d8b9 75f5 7cbc
000000e0: da0d a43b 26b3 893b 9b1e 8bb9 7a68 2f3c
000000f0: 8cec 123b d3ab 453c 7e67 c73a a568 48b9
00000100: a1be d23c c318 ddb9 9850 413c 0465 853c
00000110: 5f42 533c 8baa 4a3b eeb1 223b 58e5 3cbb
00000120: be69 c43b 3bdf a13c e642 dabc 6f38 6b3c
00000130: e684 123b b20e 4c3b af3c 6bbb 4432 753c
00000140: 6a4d a03c 425a 80ba 4774 833c 8f50 b5bb
00000150: 7495 cfbc 2e97 ca3b c087 9b3c c283 7b3c
00000160: 9248 1fba 7748 ea3b 3bbe fe3c 4996 0a3c
00000170: 5428 923c f800 0f3c 4c44 c53b bf88 4e3c
00000180: cfc2 c0bb 3ffe c03c 707c 94bc 635a 563c
00000190: 9598 ea3c e791 113c b2bb 42bb 164d fb3c
000001a0: 9bf5 623c 9e42 a13b 7fc9 683a e874 3d3b
000001b0: aeae 8e3c 8d88 13ba e10a f23b 4094 753b
000001c0: d46e 8a3c 4f4a 323c 1a69 623c 9690 d23c
000001d0: bcc3 d13b dca0 c5ba d160 9d3c 3ef6 b63c
000001e0: 4673 e83c 5670 9f3c 5044 093a 092d 9b3b
000001f0: 4739 e33c 7ca5 a93c 11c9 7bba abae 503c

action_model._continuous_distribution.log_sigma f4 [1, 2]
-0.7697428 -0.79068
00000000: dd0d 45bf 016a 4abf

action_model._continuous_distribution.mu.weight f4 [2, 128]
0.02514075 0.07422675 -0.06754283 -0.01042195 -0.019460086 0.032145493 -0.0038497103 -0.06344737
0.029102884 -0.042239662 0.016918018 -0.09281148 -0.044551644 -0.04346448 -0.0047860257 0.01355271
0.032988 -0.06524532 -0.076023504 -0.0070738406 -0.014773629 -0.015200232 -0.027663345 -0.029169433
0.026430363 0.017222257 -0.059360806 -0.045340873 0.0016153777 0.03669545 -0.043938357 0.0007366943
0.047665786 -0.023259591 0.02223323 -0.032830067 -0.030025031 -0.089755595 -0.05027641 0.033513814
0.004763546 -0.052436803 -0.039995685 -5.504553e-05 -0.055442587 -0.045344383 -0.082710996 -0.007419773
-0.022326132 -0.0104053 -0.0347599 0.048386697 -0.03419953 -0.07171947 0.030737247 -0.0014912649
-0.015951475 0.021534199 0.04544376 0.021186326 0.03586011 -0.051367674 -0.034829374 0.015995862
-0.035316486 0.00042674437 -0.033154357 0.057741955 -0.07465202 0.03471884 0.007941939 0.02988087
0.008762208 0.012724969 -0.015258553 -0.035802893 0.018740077 0.037732445 0.010827487 -0.08002302
-0.10246138 0.0039375713 0.04280307 -0.020709632 -0.0017157448 -0.060869187 -0.022081975 0.08039217
-0.00516406 0.050876208 -0.07702215 0.034505427 -0.05619886 -0.047430404 0.010590599 0.054583434
-0.04857734 0.06337364 0.019601068 -0.08973909 0.08981705 0.039910927 -0.05081055 0.06584091
0.022818925 0.0051923427 -0.008314963 -0.083419465 0.019359823 0.0066494644 -0.02493679 -0.048692055
0.004116494 -0.018219331 0.02365105 0.05058965 -0.04119035 -0.015884345 0.06914544 -0.016759073
0.04520447 -0.020630348 -0.06772552 0.006354894 -0.03438008 -0.0754975 -0.03626537 0.022840047
-0.040867865 0.021758039 -0.014359318 -0.012435823 0.036129322 -0.03580583 -0.03651755 0.012576332
-0.00808178 0.045773745 0.028659172 -0.105758905 0.07483077 0.02757673 0.020797681 -0.03272612
0.011841017 0.039575793 -0.06935048 -0.05521602 0.061190676 -0.052196275 0.04300602 0.012830108
0.04087039 0.037245497 -0.073536865 -0.058719482 -0.024527354 -0.052732673 0.009196342 0.0026205464
0.02051669 0.010455021 0.07848407 0.030756028 0.038632523 -0.07643895 0.036757525 -0.035429925
-0.038656097 0.0399685 0.033846896 0.063173704 0.018997395 -0.09429238 0.037641894 -0.002861312
0.010754811 0.06226263 0.015728869 -0.040309362 0.050319783 -0.014380943 -0.004480824 0.0062415306
-0.019201802 -0.0006625694 -0.019542955 -0.06836337 0.007936707 0.014845774 0.025072185 -0.036892023
-0.06882784 -0.02657715 0.045273148 0.014039593 -0.0017003143 -0.012982775 -0.013299915 0.0326095
-0.06616044 -0.07419227 -0.0020042225 -0.020414673 -0.013911811 -0.020820012 0.033123847 0.0010383128
0.03397357 0.011818537 -0.029533435 0.036683492 -0.0035816212 -0.06434803 -0.039452907 0.08654731
-0.017553942 -0.011379461 -0.00045574064 0.026324647 0.0066773123 -0.03864279 -0.036668293 0.016634757
-0.02451 0.0075576804 0.00065564166 -0.049717885 0.055515338 0.006395703 0.009375273 0.0035139245
-0.04641969 -0.031086197 0.04861684 0.0476043 0.06330375 0.038949806 -0.04619683 -0.04188392
-0.046371724 -0.05766286 -0.016622445 -0.0039876644 0.07191793 0.050746035 -0.02089399 0.056089588
-0.061834034 -0.053542815 0.0074600284 -0.018282766 -0.052155875 -0.034479782 -0.02215885 -0.01809319
00000000: f9f3 cd3c 3204 983d e553 8abd d4c0 2abc
00000010: c26a 9fbc feaa 033d 6c4b 7cbb b2f0 81bd
00000020: 2c69 ee3c 7f03 2dbd a897 8a3c f213 bebd
00000030: c97b 36bd d007 32bd 18d4 9cbb 300c 5e3c
00000040: 6d1e 073d 579f 85bd 36b2 9bbd adcb e7bb
00000050: 170d 72bc 650a 79bc 3d9e e2bc bcf4 eebc
00000060: 7d84 d83c b115 8d3c 5124 73bd 5ab7 39bd
00000070: 15bb d33a f84d 163d b5f8 33bd b81e 413a
00000080: 333d 433d e68a bebc 7622 b63c d278 06bd
00000090: 0ef7 f5bc c8d1 b7bd a3ee 4dbd c845 093d
000000a0: 8517 9c3b f9c7 56bd 84d2 23bd b0e0 66b8
000000b0: c417 63bd 08bb 39bd 6264 a9bd 9121 f3bb
000000c0: 4be5 b6bc fe7a 2abc 6660 0ebd 2131 463d
000000d0: ce14 0cbd a8e1 92bd aecc fb3c 8c76 c3ba
000000e0: abac 82bc 7d68 b03c 3c23 3a3d f28e ad3c
000000f0: 0de2 123d e966 52bd 3fa9 0ebd c109 833c
00000100: 05a8 10bd a9bc df39 ddcc 07bd d482 6c3d
00000110: 29e3 98bd 5835 0e3d e81e 023c bac8 f43c
00000120: 5d8f 0f3c 637c 503c 03ff 79bc 0ea6 12bd
00000130: ca84 993c 568d 1a3d c665 313c 1ce3 a3bd
00000140: 46d7 d1bd be06 813b 4652 2f3d 3fa7 a9bc
00000150: d8e2 e0ba f851 79bd 42e5 b4bc a6a4 a43d
00000160: 4637 a9bb 9263 503d cabd 9dbd 9055 0d3d
00000170: c730 66bd 6246 42bd 3184 2d3c e192 5f3d
00000180: 08f9 46bd 0aca 813d 6b92 a03c 21c9 b7bd
00000190: 00f2 b73d a479 233d b91e 50bd 99d7 863d
000001a0: c1ee ba3c 8724 aa3b 7c3b 08bc d3d7 aabd
000001b0: 7e98 9e3c c0e3 d93b 3d48 ccbc 5271 47bd
000001c0: a8e3 863b b540 95bc d9bf c13c 1837 4f3d
000001d0: 36b7 28bd e31f 82bc 209c 8d3d 534a 89bc
000001e0: 5328 393d fa00 a9bc adb3 8abd b73c d03b
000001f0: 20d2 0cbd 6f9e 9abd ff8a 14bd 0d1b bb3c
00000200: 1065 27bd ea3d b23c 5843 6bbc 9fbf 4bbc
00000210: 57fc 133d 22a9 12bd 6d93 15bd f60c 4e3c
00000220: 7169 04bc 407d 3b3d a4c6 ea3c 2098 d8bd
00000230: e040 993d 98e8 e13c e65f aa3c d30b 06bd
00000240: d300 423c 3a1a 223d a007 8ebd 322a 62bd
00000250: 13a3 7a3d c3cb 55bd 1527 303d 6035 523c
00000260: b667 273d bc8e 183d 7f9a 96bd d783 70bd
00000270: 97ed c8bc 37fe 57bd 41ac 163c 79bd 2b3b
00000280: 9e12 a83c 894b 2b3c 42bc a03d 11f4 fb3c
00000290: 233d 1e3d 068c 9cbd 0f8f 163d f81e 11bd
000002a0: db55 1ebd 03b6 233d 0ba3 0a3d 3761 813d
000002b0: 6da0 9b3c 5d1c c1bd 632e 1a3d d984 3bbb
000002c0: f234 303c 1907 7f3d d4d9 803c 6e1b 25bd
000002d0: 1e1c 4e3d 0c9e 6bbc e0d3 92bb c185 cc3b
000002e0: 194d 9dbc 48b0 2dba 8c18 a0bc 1802 8cbd
000002f0: f608 023c b03b 733c 2f64 cd3c 171c 17bd
00000300: 9cf5 8cbd 53b8 d9bc 5670 393d 5206 663c
00000310: 15dd deba b5b5 54bc e3e7 59bc 8a91 053d
00000320: 207f 87bd 1ef2 97bd 4659 03bb ac3c a7bc
00000330: 5dee 63bc bb8e aabc dfac 073d ff17 883a
00000340: df27 0b3d 89a2 413c 1af0 f1bc 6e41 163d
00000350: a2b9 6abb e6c8 83bd 5f99 21bd b73f b13d
00000360: 49cd 8fbc eb70 3abc 79f0 eeb9 c9a6 d73c
00000370: 5bcd da3b e747 1ebd 7e31 16bd 9d45 883c
00000380: 32c9 c8bc 6ba6 f73b 5edf 2b3a fba4 4bbd
00000390: 0d64 633d 0c93 d13b bf9a 193c df49 663b
000003a0: 9322 3ebd 7ba8 febc 7422 473d bafc 423d
000003b0: 65a5 813d d589 1f3d e338 3dbd 798e 2bbd
000003c0: 47f0 3dbd e42f 6cbd cb2b 88bc f4aa 82bb
000003d0: b549 933d 13db 4f3d df29 abbc 32be 653d
000003e0: af45 7dbd b64f 5bbd 4173 f43b bdc5 95bc
000003f0: 66a1 55bd ac3a 0dbd 7a86 b5bc 2b38 94bc

action_model._continuous_distribution.mu.bias f4 [2]
0.004030424 -0.007863242
00000000: a611 843b d4d4 00bc
