results/TestTrainingWithEndingEpisodesAndMinusRewardAtEndEpisode/VacuumCleaner.onnx (onnx, 227638 bytes, 7 tensors)

network_body._body_endoder.seq_layers.0.weight f4 [128, 309]
00000000: 9a36 eebc 6fbc 7b3d 4418 513d eda6 c5bc
00000010: a56c 6d3c 4dcd 29be 3cb0 83bd eb7f eebc
00000020: 2e9f 35bd d2cd 763c b615 163a 897b c0bd
00000030: c242 063e eb8d cabd 42f6 83bd c6e7 dc3c
00000040: 1e0c 0bbd a019 d5bc ba1e 7cbb a94d 14be
00000050: e698 0ebb aa67 163e 0fe3 64bd e4b1 01be
00000060: 21b2 a93e 5e19 b9bd a511 dc3d 2cbb 4fbd
00000070: 03cb 843c 6c0c 3abd c7c8 153e 64cb d5bd
00000080: 7e7a 96bd 6842 573c beae 36be e368 36bd
00000090: 7ed4 693e 9ef7 17be 2ef6 93bd ab52 163e
000000a0: 4bb4 5bbe a876 b0bd 6144 463e 33a7 05be
000000b0: 2397 3fbd d98e 893d 6ab8 41bc 39ec 48bd
000000c0: be3e 783e e4dc 11be c9fc 22be 689e 30bd
000000d0: 1e1f eabd 8784 bbbb 62b5 783d 4d66 e2bd
000000e0: 628f 38be 2858 a23d e996 73bd 03bb 1abe
000000f0: a00e 143e 4c95 30bd a7db 05be a294 8b3c
00000100: 5b00 babd 8b99 12be 9735 f33c a7c5 02be
00000110: cf6f 063d 8891 133e d4f7 a7bc 4742 76be
00000120: d850 083e 2888 13bc c4cf dabd 0af4 af3b
00000130: a214 943b efc4 febd 6190 543d c24e 69bc
00000140: 8b01 90bd d052 db3c 50fa 0e3c f844 ffbb
00000150: 773b f43b dd72 76bd c73e 903d e65f 5b3d
00000160: 3f2c c5bc 5a71 e0bd 5424 1c3e 609e 87bc
00000170: 7111 dabd 0f3a b83d a3e3 083b c385 be3c
00000180: 8c3f c23c d9bf af3d bb70 1abd fd22 0d3e
00000190: d47a edbd 2bde 6fbd b8d7 b3bd 19d7 e33d
000001a0: 33f2 45bc 26e6 263d 2e55 fdbd ea75 2abe
000001b0: c60e 0abe d412 4a3d df91 623d 4d0d 3c3e
000001c0: d7aa bfbd 5ab7 23be 2229 3bbe b5b1 1e3d
000001d0: c2df b9bc fdd9 333d f66f ef3c d046 8abd
000001e0: ff5f e63c 17ef bebc b61d 99bd 5b6d 3cbd
000001f0: 948a ad3d 39c9 15bc b115 603d 2e26 a6bd
00000200: 3589 1fbd 82e3 e33c 35ae 84bd 3229 4dbd
00000210: 7667 5bbd cd97 43bd 7c39 cd3c b927 943d
00000220: 5812 94bc 7b7a 37bc e7d3 18be a7dd dfbd
00000230: 45b2 8f3d 8e21 e2bd 732d f43a 79d5 4c3d
00000240: 8037 1fbe 14ae 853c fecf 673d 977a fabd
00000250: acac 423d 1654 eb3d 22b6 3cbe 708d 9f3d
00000260: 1cb7 773d 0fe5 36be 5af2 e03d de53 ab3b
00000270: a0d7 03be 670b 913c 2d10 0fbd 1be0 76be
00000280: 46e3 52bd 5b05 88bc 3f65 45be abaa 4f3d
00000290: b500 a93c 98c1 9ebc ce11 ef3c d4c8 083e
000002a0: 9505 ea3d 1811 67bc 9acc ca3d f2bb f5bd
000002b0: 882e 843d 1cd8 6cbd 2ac9 b9bd fa0d 6fbd
000002c0: a877 763c cf28 30bd 5b14 bbbd d804 eebd
000002d0: 500a 66bd b718 eb3d 5a27 2e3d 310e 92bd
000002e0: 6164 3ebd 41c9 09bd 0780 2fbe c8fe 0a3e
000002f0: 2c0a 943d 17ff 043e dc36 a5bd 7b78 c9bd
00000300: ca2e 12be 9966 493c 6d3b 1fbc 9f01 043d
00000310: 6905 27bd 784c 28be f163 fcbd 4a7a 1b3e
00000320: 1816 443c 6254 883e 6791 babd a3c6 22be
00000330: abc3 64bd 0b4c 43bc 9ff1 e43c 7cae 4dbd
00000340: 6d50 b03c ef5b 27bd 56ae 81be 2914 48ba
00000350: bbf5 c4bc e59b 963d 9487 a53d 23ff 07be
00000360: a7ba 11be 54e2 de3c c787 f43d ab8d 1e3c
00000370: 124b a9bd ea3e 3cbe b715 84be c0ba 7d3d
00000380: 83b4 d4bc 272c cd3d 8253 c4bd 25a0 ff3c
00000390: 03bb c0be 97cf 3d3d 6bb5 e73d 116b a93d
000003a0: 9717 4fbd 40c1 73bd 5920 53be e06d acbd
000003b0: dfdd 0b3d 187e 873e 5f31 08bd 17d9 29be
000003c0: 2436 77bc 2b5e babd fd9d 593d 47f4 f93d
000003d0: 7d3b b6bd 8b3a 9cbd 5c7a 5d3c 4a2e 1dbd
000003e0: c520 5c3c 71d8 26bd 13fb ecbc 96f8 713d
000003f0: 0637 323d 1ca8 8abd 2b4d 03be d8e5 67be
-0.02907877 0.061459 0.051048532 -0.024127448 0.014491235 -0.16582222 -0.064300984 -0.02911373
-0.04434126 0.01506372 0.0005725281 -0.093985625 0.13111404 -0.0989035 -0.06443454 0.026965987
-0.033947103 -0.026013196 -0.0038470463 -0.1448275 -0.0021758615 0.14687982 -0.055880602 -0.12665516
0.33143714 -0.090380415 0.10745553 -0.05071561 0.016210085 -0.045422003 0.14627372 -0.10439184
-0.07347582 0.013138391 -0.17840096 -0.04453362 0.22834966 -0.14840552 -0.072246894 0.14679973
-0.21455495 -0.08616382 0.19362022 -0.13052063 -0.046774995 0.06716699 -0.011823753 -0.049053404
0.24242684 -0.1424442 -0.15916742 -0.043119818 -0.114317164 -0.0057225856 0.060719855 -0.110546686
-0.18023446 0.07926971 -0.05947009 -0.15110402 0.14458704 -0.04311113 -0.13072072 0.017038647
-0.09082099 -0.14316384 0.02968864 -0.12770711 0.032821473 0.14410985 -0.020503916 -0.2404872
0.1331209 -0.00900463 -0.106841594 0.005369668 0.004519061 -0.12439906 0.051895503 -0.014239969
-0.07031544 0.026772887 0.008726671 -0.007790204 0.007453378 -0.060168136 0.07043224 0.053558253
-0.02406895 -0.1095912 0.15248233 -0.016555011 -0.10647858 0.08995449 0.0020887635 0.023257142
0.023711942 0.08581514 -0.037705164 0.13782878 -0.11595693 -0.058561485 -0.087813795 0.11125011
-0.012081671 0.04074683 -0.12369762 -0.16646543 -0.13482198 0.049334362 0.055314895 0.18364449
-0.09358757 -0.15987912 -0.1827741 0.038743693 -0.022689704 0.04390906 0.029228192 -0.06751788
0.028121946 -0.023307366 -0.0747637 -0.046002727 0.08473697 -0.0091422135 0.054708187 -0.08112751
-0.03894921 0.027818445 -0.0647854 -0.050088115 -0.053565465 -0.04775219 0.025051825 0.07234139
-0.018075153 -0.011198635 -0.14924584 -0.10930949 0.07016424 -0.11041556 0.0018629268 0.05000827
-0.15548515 0.016318358 0.05659484 -0.122304134 0.047527954 0.114906475 -0.18428853 0.07790649
0.06047736 -0.17860816 0.10983725 0.0052285036 -0.12875223 0.017705632 -0.034927536 -0.24108927
-0.051486276 -0.016604116 -0.19276904 0.05069987 0.02063022 -0.019379422 0.029183295 0.1335786
0.11426846 -0.014103197 0.09902306 -0.11998738 0.06454188 -0.057823285 -0.09071572 -0.05836294
0.015043177 -0.043007668 -0.09134742 -0.116220176 -0.05616218 0.11479323 0.042517997 -0.07131613
-0.046482448 -0.033639196 -0.17138682 0.13573754 0.07228503 0.12987934 -0.08067104 -0.09837433
-0.14275661 0.012292528 -0.009718758 0.03222811 -0.040776644 -0.1643542 -0.1232375 0.15183368
0.011968158 0.2662688 -0.091097645 -0.15896086 -0.055850666 -0.0119199855 0.027947245 -0.05021523
0.021522725 -0.04085916 -0.2532832 -0.00076323986 -0.024042955 0.07353953 0.080825 -0.1328092
-0.14231358 0.027207531 0.1193996 0.009677331 -0.08266272 -0.18383375 -0.25797817 0.061945677
-0.025964981 0.10018187 -0.0958624 0.031204293 -0.3764268 0.04634055 0.113138996 0.082723744
-0.050559606 -0.05951047 -0.20617808 -0.084193945 0.03414714 0.2646339 -0.03325021 -0.1658672
-0.015088592 -0.09099992 0.053129185 0.12204795 -0.08898065 -0.07628354 0.013517942 -0.038374223
0.013435547 -0.04073376 -0.028928315 0.05907496 0.043509506 -0.067703456 -0.12822406 -0.22646272

network_body._body_endoder.seq_layers.0.bias f4 [128]
00000000: 3eba 21bc cc4d 97bb 6e93 deba 9f7b b2bc
00000010: 9368 72bc cab2 2bbc b7ec 8fbc d5ee cb3c
00000020: 5ae4 62bb 3634 00bc 893a b13c 0a3a 15bc
00000030: c34e a638 cf39 f63b c577 76bb 497c a33c
00000040: fe5f 033b 929c 33bc d424 18bc bf1f 39bc
00000050: 7cdf c6bb f4e4 dc3a b0aa 143b ba0b 873b
00000060: 145c 7d3c 5744 8fbc 825a c6bb 3037 dfbb
00000070: 34c4 1d3b a4e7 22bc 3a8c ff3b c6f8 08bc
00000080: 8a3d a1bb a59c 3bba cb36 223c 4c39 68bc
00000090: 4956 32bc 7abc 35bb b094 0fbc 30b2 61bc
000000a0: 64ad 413c 644e 463c d590 bbbc e79f bbbc
000000b0: 90da 08bc 03ea 8cbc aae0 c939 fd73 62bc
000000c0: 5ae0 2d3c 4bb4 2e3b 7ee4 85ba e343 193c
000000d0: 54e8 733b 57d8 0d3c d6a4 903b a518 8ebc
000000e0: 6604 49bc fc57 55bb e231 4dbc 4d6e e7bb
000000f0: 0a8a 32ba 68df 2cb9 3f0a 40bc be78 4cbb
00000100: ff09 8abc 7db9 f5bb 7588 1a3b 6345 fe3b
00000110: 23e4 053c ad36 48ba 61b0 1c3b 9854 9c3c
00000120: 19ad 8bbb ac22 c9b9 2de6 2abb bc4a a73b
00000130: 7e5e 453c b36e 08bc be8b 56bc c423 5bbb
00000140: be10 303c f06b 25bc 5762 8c3b 43a8 d0bc
00000150: 0b7a fa3b 45fd 7dbc 88a5 be3b b21d ddbb
00000160: c3c4 1d3c 7683 c13c f052 c7ba 13bd 01bc
00000170: 00a3 173c 01b9 eabb 8f86 83bc a8f5 91bb
00000180: 77ab 0e3c 8ff1 e6ba e976 9cbb 489e c4bb
00000190: df43 44bc 4897 75bb ea4f ce3b 373e e2ba
000001a0: d9b0 183c 2f7e 00bc 65b9 86ba bf86 97bc
000001b0: 9e5a 88ba d0e3 8abb 8a75 6f39 cddd 16bb
000001c0: 68dc 0fbc 13c4 a03b f3fd 17bc 2d11 90bb
000001d0: 745f 37bc 877d 16bc f253 c8b8 bb7d 2ebc
000001e0: 4301 49bb 0a67 5ebc 6597 d538 f5dd 823b
000001f0: 2d31 6dbb 3e4d b13b 2094 383a 0068 523b
-0.009871064 -0.0046174284 -0.0016981193 -0.021787463 -0.01479544 -0.010479638 -0.01756893 0.024894157
-0.0034620971 -0.007824948 0.021634357 -0.009108076 7.930167e-05 0.0075142155 -0.003760801 0.019956725
0.002004623 -0.010962622 -0.009286124 -0.011299073 -0.006069122 0.0016852901 0.0022684745 0.004121271
0.015463848 -0.017488642 -0.00605327 -0.006811999 0.0024073245 -0.009942923 0.0077986987 -0.008360093
-0.004920666 -0.0007156826 0.009900759 -0.014173817 -0.01088483 -0.002773075 -0.008763477 -0.013775393
0.011821125 0.012103651 -0.02289621 -0.022903396 -0.008352891 -0.01720143 0.00038505095 -0.013821599
0.010612572 0.0026657756 -0.0010215191 0.009354564 0.0037217336 0.0086575365 0.004414181 -0.017345736
-0.012269115 -0.0032553663 -0.0125241 -0.0070627094 -0.00068107306 -0.00016486424 -0.011721193 -0.0031199898
-0.01685047 -0.0074989186 0.002357987 0.0077597364 0.008172068 -0.0007637542 0.002390884 0.019083306
-0.004262578 -0.0003836354 -0.0026077137 0.0051053446 0.0120464545 -0.008327174 -0.013094841 -0.0033438066
0.010746179 -0.010096535 0.004284184 -0.025470858 0.007643943 -0.015502279 0.0058180727 -0.0067479247
0.009629431 0.023622256 -0.0015207212 -0.007918614 0.009255171 -0.0071631675 -0.016055373 -0.0044543333
0.008707873 -0.0017619597 -0.0047749174 -0.006000314 -0.011979072 -0.0037474204 0.0062961476 -0.0017260973
0.0093195075 -0.0078425845 -0.001027864 -0.01849687 -0.0010402983 -0.004238583 0.00022836603 -0.0023020387
-0.008780576 0.0049061864 -0.009276855 -0.0043965788 -0.011192191 -0.0091852015 -9.552379e-05 -0.010650094
-0.0030670918 -0.013574371 0.00010184831 0.0039937445 -0.003619264 0.0054108193 0.00070411153 0.0032105446

network_body._body_endoder.seq_layers.2.weight f4 [128, 128]
00000000: bdfb 88bd 0e4f 443d ebc4 0dbe 7030 0cbe
00000010: 7863 f2bd 56da b7bd 6bd9 2b3e f119 2bbe
00000020: 5fe5 10bd 6642 98bc 6136 cbbc dd23 173d
00000030: 1c4d 793e 9cc1 27be 6e29 cbbd 5059 163e
00000040: 3f2a 4f3e 002f 1abe 9dbd 653e 7db0 52be
00000050: 8344 69be 811f b8bd 1b8e 063e 20b3 a43c
00000060: 5d90 24bd 54f1 99bd 3c90 83bd 623e 36bc
00000070: 900a 46be 45d5 043e 5962 aabe 486e 9dbd
00000080: 383f 6bbe 7873 32bd 883c 603d 5b5c a4bd
00000090: 1558 3c3e bc90 5c3d 3d17 403e 3c91 2fbe
000000a0: 79e1 01be 1b1c 173d 9fa5 433d a5d3 043e
000000b0: c978 273e 17fb 8abd e137 1dbe 6213 bebd
000000c0: 3750 3bbe b4e7 31bd d957 803b 5421 f43d
000000d0: 590a 2bbd 3e00 dbbd fdf7 893d 7415 4fbd
000000e0: a329 013e 3d6f 5cbe 7742 88be 0b9f 40bc
000000f0: c7c1 153e ba48 ed3b 0ed0 793e 1b8c 4bbe
00000100: 659c 28be 8c92 d03d ff38 5cbe c26e 803e
00000110: ef67 ecbd 7d84 013e 0fec adbc f5d8 bebd
00000120: 84fb 1dbe 2c3a 77be 911f 7a3c b387 f5bc
00000130: 2e75 04bd 53bf ccbd 9a35 633e cf5b d63c
00000140: e6e8 4ebe 4406 a13d a22d 53be b74b a43d
00000150: 1322 403d faa0 193d 1057 a73d d336 5bbd
00000160: bb18 d23d 0b01 95be 34ca 8bbe 2d87 553e
00000170: 1bb3 633c 7c0d 073e 3805 00be 6af0 fc3d
00000180: 7b79 6ebd 3a38 033e f863 29bd 3e28 ff3d
00000190: 25d0 053e d57d 233d 09a3 0a3d b06a 013e
000001a0: 09a0 bebd 3d7e 5abd 54bd 123d 7502 0c3e
000001b0: 6cbe 0e3e 2f4c 03be 93f2 8e3d 8a1b 7f3c
000001c0: 11aa dd3c 03ea b7bd ce18 283e 6a23 b2bc
000001d0: 9642 0a3c f881 913d 24e1 4bbe 1f3c 58be
000001e0: 50cf 2b3d 31c4 8d3e d116 a83c f57f f9bd
000001f0: 1f95 f93d da6a 033e bec0 82bd 5dd8 9fbd
00000200: ceec 303c e420 80bd 1861 f23c 3120 103e
00000210: 6545 843e 70ce 333e 1b94 ae3d cf27 32bd
00000220: b504 033e 0b14 9dbe 958f d3bd 907f 303e
00000230: 260b 1ebe d730 6a3d b477 873e 2db5 2bbd
00000240: a44c abbc 02d3 01be 37e6 a7be ef31 c43c
00000250: 9def 08be e9fb 4fbe 73c3 03be b5e2 bc3d
00000260: c408 8fbd 4111 033c 1cb2 b1be 0d9f be3c
00000270: 09be 7d3c 708b f6bd 115c 473e 70c3 2c3d
00000280: 9ac9 bc3c 7f54 143c 50be 973c c767 ec3d
00000290: 31fb a9bd fcd0 90be 43f0 623d 5223 20bd
000002a0: 24e9 493e c884 05be 3a5c 4e3e 6c0d 1abe
000002b0: 48d7 67be 16cd 97bd ecf9 1b3c aad8 393e
000002c0: 040c c9bc 95a1 19bd b70b ff3d 4f1e e4bd
000002d0: a407 3e3e c7a3 f53c 4d57 50be ae29 0b3e
000002e0: dde5 48bd 984d abbe c378 91bd df82 453e
000002f0: c606 933d 504e c1bd cc5a 62be dc3b 2b3d
00000300: 66de 0cbe 7858 303e 3bff 6abe f07a 02be
00000310: 8030 d7bc 08a9 d93c b5a8 983e bd85 6c3d
00000320: fc47 49bd d3ec 2ebe cf4b 603e 741d 1a3e
00000330: 7b98 27be eb05 01be 6043 823e 7797 eb3d
00000340: f43e 9c3d eb01 51bd ded5 df3d d705 88bc
00000350: 6db0 a3bd 00f0 9c3d 5037 49be 7ede ab3d
00000360: 9179 2abe c526 f5bd 6c25 29be f9f2 273e
00000370: c3bb 6ebe 820b 523c d017 b43c 4247 12bf
00000380: 79a4 113d b8ad 01bd 4f49 edbd eac3 c23d
00000390: 4f62 5b3e b631 203e 2436 893d 6334 10be
000003a0: 28fc eabc acfb 083e e42d b8be c302 9a3d
000003b0: 72bf 2b3e bace a8bd 80f0 0f3e 7550 dbbd
000003c0: e886 ff3d 26b5 163e a2f8 12bd 05f0 5d3c
000003d0: a9a4 a6be 9fa1 873d eb3e 0d3d 531c fc3d
000003e0: 3e7f 9abd 1c1c 343e cdda 1e3e aead ed3c
000003f0: bbd2 65be 4d98 ddbd b462 58be 35ba 583d
-0.0668864 0.047926955 -0.1384465 -0.13690352 -0.118353784 -0.08977191 0.16782157 -0.16709115
-0.035374995 -0.018586349 -0.024806203 0.036899436 0.24345821 -0.1638245 -0.099200115 0.14682508
0.2023096 -0.15056992 0.22435613 -0.20575137 -0.22780041 -0.08990384 0.13140146 0.020104945
-0.040176738 -0.07516733 -0.06423995 -0.011123272 -0.19339967 0.12971981 -0.33278158 -0.0768705
-0.22973335 -0.04356715 0.054745227 -0.08025428 0.18392976 0.053848967 0.18758865 -0.17145246
-0.12683667 0.036892038 0.04776537 0.12971361 0.1635467 -0.06786173 -0.15353347 -0.09281041
-0.18292318 -0.04343386 0.0039167223 0.11920419 -0.041757915 -0.106934056 0.06736753 -0.05055757
0.1261354 -0.21526809 -0.2661321 -0.011756669 0.14624701 0.0072413357 0.24395773 -0.19877665
-0.1646591 0.101842016 -0.21506117 0.25084502 -0.11543261 0.12648197 -0.021230726 -0.09318725
-0.15427977 -0.24143285 0.015266315 -0.029971933 -0.032338314 -0.0999743 0.22188416 0.026166825
-0.20206031 0.07862523 -0.20622876 0.08022254 0.046907496 0.037507035 0.08170903 -0.05351908
0.10258623 -0.29102358 -0.27302706 0.20852347 0.013897683 0.13188738 -0.12501991 0.12350543
-0.05822132 0.12814417 -0.041355103 0.124588475 0.13067682 0.039914925 0.03384689 0.12638354
-0.09307868 -0.053343046 0.03582509 0.13672812 0.13939828 -0.1282203 0.06979861 0.015570531
0.027058633 -0.08980181 0.16415712 -0.021745402 0.008438727 0.07104868 -0.19910103 -0.21116684
0.041945755 0.27688745 0.020518692 -0.12182609 0.12186646 0.1283373 -0.06384419 -0.0780494
0.010798646 -0.062562734 0.029587314 0.1407478 0.25834194 0.17559218 0.085243426 -0.043494996
0.12794764 -0.30679354 -0.103301205 0.17236161 -0.1543394 0.057175484 0.26458514 -0.04192083
-0.020910569 -0.1267815 -0.32792827 0.023949591 -0.13372655 -0.2031094 -0.12867527 0.092229284
-0.06984094 0.007999719 -0.347062 0.0232692 0.015487202 -0.12038314 0.19468714 0.04217857
0.02304535 0.009053349 0.018523365 0.115432315 -0.08299864 -0.28284442 0.055404913 -0.039096184
0.19717842 -0.13038933 0.20152369 -0.15044183 -0.22640717 -0.07412164 0.009520035 0.18149057
-0.024541862 -0.037507612 0.12453406 -0.111385934 0.18557602 0.029985322 -0.20345803 0.13590118
-0.04904734 -0.33457637 -0.071031116 0.19288205 0.07179026 -0.09438765 -0.22104949 0.041805133
-0.13756713 0.17221248 -0.22948925 -0.1274221 -0.026268244 0.026569858 0.29816213 0.05774473
-0.049140915 -0.17082529 0.21903919 0.15050298 -0.1636676 -0.12599914 0.25442028 0.11503499
0.07629195 -0.05102722 0.10929464 -0.016604347 -0.07992635 0.07662964 -0.19650006 0.083920464
-0.16647936 -0.11970285 -0.16518182 0.1640128 -0.23313813 0.0128201265 0.021984011 -0.5713998
0.035557244 -0.03165981 -0.11586248 0.09510024 0.2142422 0.15643963 0.0669978 -0.14082484
-0.02868469 0.13377255 -0.35972512 0.07520058 0.1677225 -0.08242555 0.14056587 -0.10708705
0.12476903 0.1471754 -0.035881646 0.013545995 -0.325475 0.06622624 0.03448383 0.1231009
-0.07543801 0.17588848 0.15513153 0.029013481 -0.22443669 -0.10820065 -0.21131402 0.052911956

network_body._body_endoder.seq_layers.2.bias f4 [128]
00000000: 8ae9 9bbd 768c 223d 8a8b 5e3c d9df 2dbd
00000010: 9599 46bc a475 223c b10e de3b 224c c7bd
00000020: 4d73 01bd 4e22 63bd cb73 7cbd b3ad b2bc
00000030: 3c0a 043c 4b0e 09bd 437a 89bd e515 98bd
00000040: 5054 8abd 9a0d 55bd 3f47 0fbb 3519 1abe
00000050: 2e58 94bb e216 2bbd 356e 62bd 413a 183d
00000060: 9925 aebc f17b 01bd 70c8 45bd c85b a43b
00000070: 8616 e0bc b35a 50bd b719 dbbc cf26 d0bd
00000080: 3fcb 7dbd 9bfd 0dbd d23c 273d 9018 f3bd
00000090: 8905 04bc bf78 813d f5ba 4c3c c449 87bc
000000a0: 9c28 4d3c e710 59bd c4f8 6cbd 5ec8 d9bc
000000b0: e607 82bd 606b 9ebd 360e 7bbd 91d5 33bd
000000c0: 7314 36bd 804c 14bd b91e fcbc 9ac7 3c3d
000000d0: 8239 4fbc 1279 12bc c19c 2dbd e70d 9ebd
000000e0: 8531 7dbd 5a7f adbd d4cc 35bd 0174 89bc
000000f0: fda3 34bd cfd9 afbc 30b0 73bd 0a5c 8038
00000100: ed2a 4dbd 9ebd 81bd 6d3f e2bd e631 b9bc
00000110: f362 b2bd 189a c6bc 99fa fd3c 0fe6 ce39
00000120: 6fff 293d 2f22 82bc 79ea 603c b579 c8bd
00000130: f55d fdbc ee9c 25bc 0246 85bc e80b d83c
00000140: 659e 30bd e1c2 803d 1686 e9bd cbab 85bd
00000150: 759d 2c3c da3b dabc 2e2e a2bd 927d adbb
00000160: 5b3e 36bd 64fe 23bd 5b5e e6ba 5aee 423c
00000170: db11 69bd 77f2 e2bd e625 03bb d259 abbd
00000180: 7bac cd3c 8c52 dc3c bb5c 283c 6421 44bc
00000190: 418c 45bd 4505 6ebd 47ed 683b bca8 13bd
000001a0: 2626 82bd 838b ac3b c177 673c d181 c8bd
000001b0: 792f 8ebc 74ef 2bbb 3ad1 dbbd 5883 b6bc
000001c0: 1ec1 763b 0462 833b 968e a0b9 3df6 fabc
000001d0: c64a 203d 2a72 aebd 281d 61bd 304e 363d
000001e0: 6df0 94bc 2922 22bd ec6e bcbd f849 a9bd
000001f0: 708e 863b 6cf9 043d 8d48 11bd 28c8 e0bd
-0.076129034 0.039684735 0.013583073 -0.042449806 -0.012121578 0.009915743 0.0067766537 -0.09731318
-0.0316041 -0.055452637 -0.061633866 -0.021811342 0.008059081 -0.033460896 -0.06712773 -0.07426051
-0.067543626 -0.052014925 -0.0021862534 -0.15048678 -0.0045271134 -0.04176987 -0.055280883 0.03716493
-0.021258162 -0.03161234 -0.048286855 0.005015824 -0.02735449 -0.050867748 -0.02674566 -0.10163652
-0.06196141 -0.034665685 0.040829487 -0.11869919 -0.00805796 0.063218586 0.012495746 -0.016514666
0.012521889 -0.052994635 -0.05785443 -0.0265848 -0.06349163 -0.07735324 -0.06129285 -0.043904845
-0.044453096 -0.03620577 -0.030776368 0.046088792 -0.012647988 -0.008939998 -0.04238582 -0.077174954
-0.061814804 -0.08471556 -0.044384792 -0.016778948 -0.044101704 -0.021466164 -0.059494197 6.120659e-05
-0.050089765 -0.06334995 -0.11047254 -0.022606801 -0.08710279 -0.0242434 0.031003283 0.0003946279
0.041503366 -0.01588544 0.013727778 -0.09788839 -0.030928591 -0.010108216 -0.016268734 0.026372865
-0.043119807 0.0628717 -0.11402528 -0.065269075 0.010535588 -0.026639868 -0.07918964 -0.00529451
-0.04449306 -0.040037528 -0.0017575728 0.011897648 -0.056901794 -0.11081403 -0.0020011603 -0.08366741
0.02510666 0.02689483 0.010276015 -0.011970852 -0.04822946 -0.058110494 0.003554182 -0.03604959
-0.063549325 0.0052656545 0.014127673 -0.097903855 -0.017356621 -0.0026235254 -0.10733266 -0.022279426
0.0037651728 0.004009487 -0.00030623813 -0.030634994 0.03913381 -0.08517869 -0.054959446 0.04450816
-0.01818105 -0.03958336 -0.09200844 -0.082660615 0.0041063353 0.03246443 -0.03546958 -0.10975677

action_model._continuous_distribution.log_sigma f4 [1, 2]
00000000: 2481 bfc0 ebd2 bfc0
-5.984514 -5.994497

action_model._continuous_distribution.mu.weight f4 [2, 128]
00000000: d8b8 383d 06ca 9dbd 0463 78bd bae6 643c
00000010: c09e d13d 77d9 6b3d 20fe bfbc a958 05bc
00000020: ed77 813b 9079 d83c bb15 353d 185a ab3c
00000030: e6d7 8cbd 6f0b d5bb b15f 883d 0a0b 283e
00000040: 59bb 5cbb 6e0f 65b9 8764 3dbd 1f9f 80bd
00000050: 1fe7 78bd c326 5bbd 4901 eb3d 3a30 f0bd
00000060: b772 1abb a00b 8fbd 3ef7 9d3d f6c6 b3bd
00000070: 4bc3 b7bb 14ad e3bd a60c 573d 95e6 223c
00000080: c11c 18bd 3937 5f3d 0a41 bbbd cba3 be3d
00000090: a81f a4bd fef3 cbbc 27d9 1e3c dac5 a13d
000000a0: e893 e1ba a8d6 e0bc 6208 793b 0747 323d
000000b0: 83de d6bb 63fa b53c 63f4 c93c 2343 803c
000000c0: 2789 88bd d99e 013d d022 82bd 9df0 cf3d
000000d0: 945a 823d f953 f9bd a855 debb 716c 2f3e
000000e0: 08b3 133d b47d fcbd db65 22be eee2 ce3c
000000f0: 1ec6 b8bc a60f f3bc 7476 7a3c 3c2a 7f3d
00000100: 8900 8a3c 35e9 943c 5e4c 873b a051 82bd
00000110: b197 13bd 8861 0e3e 7345 00bc 06a7 ec3d
00000120: f713 c139 b379 ed3d 7ba3 ac3c 2a43 0f3d
00000130: 3e06 6dbd 03f1 acbc 31ad 013e cf93 aa3d
00000140: 92e8 6e3d bbd0 33be 8bed e1bd 1822 28bd
00000150: e866 09bd 0a09 803c 0707 ac3d 8ed3 aa3d
00000160: 50d6 1b3d 09c0 1d3d ac61 03be a5b6 9e3d
00000170: cbd5 0e3e a74d 653c 845c 26b9 bc81 243d
00000180: e087 77be 5cb9 a43d f965 e83d d44b dc3d
00000190: 633a 353c aa6b 4a3e 1502 5e39 9d27 743e
000001a0: 0ab7 0dbe df56 cbbd 9608 2bbe a159 17be
000001b0: 681e 11bc 7689 873d 0251 e33c 0901 84bd
000001c0: 967f 8abd 20df 003e ee4b 5dbd d7ec 893d
000001d0: ea49 31bd 3714 f53c c097 50be 6842 4e3c
000001e0: d340 ae3b 1718 a6bc b896 183e 0cb2 ac3c
000001f0: 0bd1 593c 8d9d 41be 96af 82bd 7038 4c3d
00000200: 7e61 d13c b026 2f3c 6023 c8bd fced 833d
00000210: fcaf 43bd 8698 843c 5040 4b3d 8cf1 b63c
00000220: 8bde 21bd b6c6 c73d ef9a 083c 2abd d53d
00000230: d44f 52bd 8359 db3d 07d9 183d 4ccd 92bc
00000240: 9b9a 6a3d 015a d03a 1084 543d affd 753d
00000250: 7caa 13be 4125 5bbc 7b76 903c a659 d3bd
00000260: 5fba 91bc dd7e 9fbc 2d5c 5abc 3877 e9bd
00000270: 5888 90bb d35f 6c3d 9cf2 19be 334b 363e
00000280: 7b72 84bd 0ed8 233d 6ac2 c2bc b4ef 22bd
00000290: e6e9 d73d ef86 00be 5280 0bbe 8326 11bd
000002a0: f123 6fbd cbfa 913d 272d 11bd 953f aabb
000002b0: b2c7 9bbb c10f 5cbd 9e48 753d de77 2cbe
000002c0: 5ebf f93d 3400 a93a e9e3 f83c ef86 dbbd
000002d0: f329 e03c 223f 1ebc 7828 f1bb ca24 273d
000002e0: 37df 83bd 9179 0d3e 47be 85ba 24f7 503d
000002f0: b2c3 f43d f6e7 debd 0e81 1abe 44c1 a7bc
00000300: 7720 843c 35c5 ac3d 6c2f 603d 7a14 f2bb
00000310: a49e ec3c e5e2 293d 0a95 6fbd e74d 3fbc
00000320: 2476 193a a7b4 613c cc78 c7bd 44aa debd
00000330: 79d4 5c3b 7b78 863c ecc7 ad3d 32fd 6cbd
00000340: 563d 5fbd 573d 31bc 7af1 51bc 5596 513c
00000350: af7b 2abe 07a5 a2bc d74b a9bb 6842 ee3b
00000360: 939f 84bb c45f 7f3d 7c24 ed3d 1c45 963c
00000370: 2443 843a 727b dc3d 108a d7ba c9fb b03d
00000380: f93b 243e 8210 473e cf93 b03d 1340 b33d
00000390: b161 933b 1c55 89ba 2bac 7c3a 3838 ba3c
000003a0: 7f21 87bc 7a6f abbc 05b2 e1bc 196b 6e3d
000003b0: 8c77 86bc 906b ac3b 9b0b 213e 264a 2d3e
000003c0: 1b53 333d adaa 4b3b bd64 82bd 9574 393a
000003d0: 6056 78bd 4b81 14bd fe5d 143d ccc7 71bd
000003e0: 49c7 9c3d 4f11 b2bc 33fc 15bd f21e 1a3c
000003f0: f0f7 7bbd 20e2 c13d 69c2 dfbc 4623 07be
0.045098156 -0.077045485 -0.060641304 0.013971025 0.10235357 0.057580438 -0.023436606 -0.008138814
0.003951064 0.026425153 0.044210177 0.020916983 -0.06877117 -0.006501607 0.06658877 0.16410461
-0.0033681004 -0.0002184489 -0.04623845 -0.0628035 -0.06076729 -0.053503763 0.114748545 -0.117279485
-0.002356691 -0.06984639 0.07713173 -0.08778183 -0.0056079975 -0.111169964 0.052502297 0.00994267
-0.037136797 0.054496024 -0.091432646 0.09308585 -0.080138505 -0.024896618 0.009695328 0.07899065
-0.0017210217 -0.027446106 0.0037999381 0.04352477 -0.006557287 0.02221412 0.024652665 0.015657013
-0.06666785 0.03164563 -0.06354296 0.10153315 0.06364933 -0.1217422 -0.0067851134 0.17131211
0.03605941 -0.123286635 -0.15859167 0.025254693 -0.022555407 -0.029670548 0.0152870305 0.062296137
0.016845958 0.018177608 0.0041289767 -0.06363225 -0.036033336 0.13904393 -0.007829058 0.11555295
0.00036826704 0.11595478 0.021074047 0.034976162 -0.05786728 -0.021111017 0.12663724 0.083289735
0.058327265 -0.17560093 -0.11031636 -0.04104814 -0.033545405 0.01562931 0.08399778 0.08341132
0.03804618 0.038513217 -0.12830228 0.077496804 0.13948743 0.013995565 -0.00015865458 0.040162787
-0.24172926 0.08043167 0.11347575 0.107566506 0.011061284 0.19767633 0.00021172345 0.23843236
-0.13839355 -0.09928679 -0.16702494 -0.14780284 -0.008857347 0.066180155 0.027748588 -0.0644551
-0.06762616 0.12585115 -0.05402749 0.06734627 -0.04328338 0.029916866 -0.20370388 0.012589075
0.0053177862 -0.020275159 0.14901245 0.021080993 0.013294469 -0.18907757 -0.063811466 0.04985851
0.025559183 0.010690376 -0.09772372 0.06441876 -0.047775254 0.01618601 0.04962188 0.022331975
-0.039518874 0.09754698 0.00833772 0.10436471 -0.05134566 0.107104324 0.03731635 -0.017920159
0.05727635 0.0015895964 0.051883757 0.060056385 -0.14420503 -0.013375581 0.01763462 -0.103198335
-0.017789064 -0.019469673 -0.0133276405 -0.11399692 -0.0044107847 0.057708573 -0.15033954 0.17802124
-0.06467148 0.040000968 -0.023774344 -0.03977938 0.105426595 -0.12551473 -0.13623169 -0.03543712
-0.058383886 0.07127913 -0.03544345 -0.005195568 -0.00475403 -0.05372596 0.059883706 -0.168426
0.121947035 0.0012893737 0.030382114 -0.10719096 0.027363753 -0.009658607 -0.0073595606 0.04080657
-0.06439059 0.13815905 -0.0010203802 0.05101694 0.119513884 -0.10884087 -0.15088293 -0.020477898
0.016128762 0.08436052 0.054732725 -0.007387695 0.02888424 0.04147615 -0.058491744 -0.011676288
0.0005854091 0.013775981 -0.09739837 -0.10872319 0.003369598 0.016414871 0.08485398 -0.057858653
-0.054501854 -0.010817847 -0.01281392 0.01279219 -0.16648744 -0.019854082 -0.0051665115 0.0072711
-0.004047343 0.06234719 0.115792245 0.0183435 0.001009081 0.10765733 -0.0016444344 0.08641774
0.16038503 0.19439891 0.08621942 0.087524556 0.0044977297 -0.0010477635 0.0009638692 0.022731885
-0.016495464 -0.02092718 -0.027550707 0.058207605 -0.016414426 0.005261846 0.15727083 0.16922817
0.043780427 0.0031077072 -0.063668706 0.0007074562 -0.06062925 -0.036256116 0.03622245 -0.05902843
0.07655198 -0.021736769 -0.03661747 0.009406792 -0.06151575 0.09466958 -0.027314382 -0.1319705

action_model._continuous_distribution.mu.bias f4 [2]
00000000: d26e babc 83dc c7bc
-0.022757921 -0.02439714
