results/FinalTwentyDirt/TwentyDirtAgent/TwentyDirtAgent-1408.pt (torch, 627349 bytes, 16 tensors)

discrete_act_size_vector f4 [1, 3]
0	0x40400000	3.0
1	0x40400000	3.0
2	0x40000000	2.0

network_body._body_endoder.seq_layers.0.weight f4 [256, 39]
0	0x3def8282	0.11694814
1	0xbe21655c	-0.15761322
2	0xbddd5787	-0.1080771
3	0xbd67f30d	-0.056628276
4	0x3e316f49	0.17327608
5	0x3db90b05	0.09035305
6	0xbddd8b9d	-0.10817645
7	0x3da996b7	0.082807
8	0xbd8392bd	-0.064244725
9	0xbe64c02b	-0.22338931
10	0xbdb1027d	-0.08643053
11	0x3e1c3147	0.15253173
12	0xbe7ade16	-0.24498782
13	0xbda991dd	-0.08279774
14	0xbdce93fb	-0.10086819
15	0xbd9a42a1	-0.0753224
16	0x3ddb5be6	0.107108876
17	0xbdd2676a	-0.10273631
18	0x3ddf0966	0.108904645
19	0x3e0771fe	0.13227078
20	0x3e69eca2	0.22844175
21	0x3e25f3ea	0.16206327
22	0x3d50ac82	0.050945766
23	0x3df6d661	0.12052608
24	0xbeaf21d0	-0.34205484
25	0x3d5f9611	0.054586474
26	0x3e0ca341	0.13734151
27	0xbe4b34b6	-0.19844326
28	0xbd3a2094	-0.045441225
29	0xbd2b43d0	-0.041812718
30	0x3e864be6	0.2622978
31	0x3d0dc260	0.0346092
32	0x3d9634b0	0.07334268
33	0xbdf30d46	-0.11867766
34	0x3c32a7d2	0.010904269
35	0x3c5d36b6	0.013501814
36	0xbdf98c21	-0.121849306
37	0xbc619b83	-0.013769987
38	0xbe566c42	-0.20939735
39	0xbe2d4bf8	-0.16923511
40	0xbd9922ee	-0.074773654
41	0xbd1e4ae9	-0.03864566
42	0xbea1eca3	-0.31625852
43	0x3cf48477	0.02984832
44	0x3de8831a	0.11353131
45	0xbd1e6cce	-0.038677983
46	0x3d709b33	0.05874176
47	0x3ce07ebe	0.027404185
48	0xbd9dc627	-0.0770381
49	0xbdfc21e0	-0.12311149
50	0x3db1da2b	0.0868419
51	0xbe041d58	-0.12901819
52	0x3ddced1e	0.10787414
53	0xbdc343c6	-0.09534411
54	0x3e5e405c	0.21704239
55	0xbe28d30b	-0.16486757
56	0x3e5d5dd9	0.21617831
57	0x3ce1800b	0.027526876
58	0xbddf26f5	-0.10896102
59	0xbc86798f	-0.016415386
60	0xbd8090fc	-0.062776536
61	0x3df149c1	0.117816456
62	0xbe9aad79	-0.30210474
63	0xbd782062	-0.060577758
64	0xbd86b7d2	-0.0657803
65	0xbc3f09af	-0.011660024
66	0xbe71ffc7	-0.23632728
67	0x3e72b2db	0.2370104
68	0xbdafea6a	-0.08589633
69	0x3ec4da97	0.3844802
70	0xbd533dc2	-0.05157257
71	0xbed831bd	-0.42225447
72	0x3db31d63	0.087458394
73	0xbd079d6c	-0.033109114
74	0x3da30ac1	0.079610355
75	0xbe0ef8ad	-0.1396205
76	0x3bb9cf4b	0.005670463
77	0xbd9d6632	-0.07685508
78	0xbd83dc9d	-0.06438563
79	0xbe279543	-0.16365533
80	0xbda94ebf	-0.08266973
81	0x3e12df39	0.14342965
82	0x3de4f931	0.11180342
83	0xbe1dd4cd	-0.15413208
84	0xbe19d0c1	-0.1502104
85	0x3d00b005	0.031417865
86	0xbde4636c	-0.11151776
87	0x3e9ce0e8	0.3064034
88	0x3e7cb515	0.24678452
89	0x3ddd953e	0.10819481
90	0xbe827a90	-0.25484133
91	0x3c705ce1	0.014670582
92	0x3dbaca4a	0.09120615
93	0x3db48005	0.0881348
94	0xbe33b900	-0.1755104
95	0xbe13ce8c	-0.1443426
96	0x3cbbc381	0.022920372
97	0x3a509811	0.000795723
98	0x3d095235	0.033525664
99	0xbe6e8a42	-0.23294929
100	0x3d6a8b31	0.05726165
101	0x3e173e72	0.14769915
102	0xbae1963a	-0.0017210909
103	0x3debeb4b	0.11519488
104	0xbdb345a2	-0.08753516
105	0xbc37a868	-0.011209585
106	0x3e4c355f	0.19942234
107	0xbe826226	-0.25465506
108	0x3e2aca93	0.16678838
109	0xbd877d88	-0.0661574
110	0x3e3b69dc	0.18302101
111	0x3df2fc80	0.11864567
112	0x3bdd6336	0.0067562116
113	0xbb3b3178	-0.0028563421
114	0xbe42661e	-0.18984267
115	0x3da410f8	0.08011049
116	0xbe0f0ab7	-0.13968931
117	0x3d683a76	0.056696378
118	0x3e1cc53e	0.15309617
119	0x3de27820	0.11058068
120	0x3d25e1b9	0.04049847
121	0xbda57a88	-0.080800116
122	0xbd2cba09	-0.042169604
123	0x3e1cdfde	0.15319774
124	0x3d8a63f7	0.06757348
125	0xbe86105c	-0.26184356
126	0x3daef0dd	0.08542035
127	0xbda2b67e	-0.07944964
128	0x3dc48c0e	0.09597026
129	0x3d4a3ecf	0.049376305
130	0x3d59baf9	0.053156827
131	0x3e01445c	0.12623733
132	0xbe5b0615	-0.21389039
133	0x3d394ad1	0.045237366
134	0x3eb833e8	0.359771
135	0x3e04ce2f	0.12969278
136	0x3d94cfa1	0.072661646
137	0xbe3340b0	-0.17505145
138	0xbd1accb0	-0.03779286
139	0xbc902a35	-0.01759825
140	0x3e0816f7	0.1329001
141	0xbae06832	-0.0017120896
142	0x3e8de6fb	0.27715287
143	0xbe803553	-0.25040683
144	0x3e19f81e	0.15036055
145	0x3e95bcc5	0.29245582
146	0xbe93f074	-0.2889439
147	0x3acf52c8	0.0015817517
148	0xbd8db77c	-0.069197625
149	0xbe3ba891	-0.18326022
150	0xbd0ca5b7	-0.034337725
151	0xbeb10c4f	-0.34579703
152	0x3e26ad52	0.16277054
153	0xbdbbb310	-0.09165013
154	0xbd837d28	-0.06420356
155	0xbe61ef9e	-0.22064063
156	0xbe4bd71e	-0.1990628
157	0xbe0d09ab	-0.1377322
158	0xbe4dec98	-0.20109785
159	0x3e5dc9f8	0.21659076
160	0x3e572c3f	0.21012972
161	0x3e7272bb	0.23676579
162	0x3d1086c1	0.03528476
163	0x3e809636	0.25114602
164	0x3c3fe85c	0.011713114
165	0xbd090167	-0.033448603
166	0xbdbcc795	-0.09217755
167	0x3cdc9e9d	0.026931101
168	0x3dadf467	0.08493882
169	0x3e881ae0	0.26583004
170	0x3db09961	0.08623005
171	0x3e989581	0.29801562
172	0xbe03f5eb	-0.12886779
173	0x3d1fd08b	0.03901724
174	0xbc56cc7e	-0.013110278
175	0x3db5bfef	0.08874499
176	0x3d8a803f	0.06762742
177	0xbe3aa8db	-0.18228476
178	0xbe6d73a0	-0.23188639
179	0x3e258c57	0.16166817
180	0xbdbb6801	-0.091506965
181	0xbc46cbf1	-0.012133584
182	0xbe387697	-0.18013988
183	0xbe31ed63	-0.17375712
184	0x3da70ecd	0.0815712
185	0xbdb6a9c1	-0.08919097
186	0xbcd4392e	-0.025906172
187	0x3d7d7c36	0.061886035
188	0x3e42e5e7	0.19033013
189	0x3d06fd45	0.03295638
190	0x3e46009c	0.1933617
191	0x3ddaed02	0.10689737
192	0x3ebb508a	0.36584884
193	0x3da216f3	0.079145335
194	0x3d41de88	0.047331363
195	0x3d2fc22b	0.042909782
196	0x3d82356a	0.06357844
197	0xbb751439	-0.0037396087
198	0x3dc8f58c	0.09812459
199	0xbea1faeb	-0.31636748
200	0xbd3475bf	-0.044057604
201	0x3e24424c	0.16040915
202	0xbda6ca65	-0.081440724
203	0x3d6f7587	0.058461692
204	0xbcae9a82	-0.02131391
205	0xbe2752cf	-0.16340183
206	0x3e4817e2	0.1954036
207	0xbdf0e001	-0.11761475
208	0xbc11529c	-0.008869793
209	0x3e6d12df	0.2315173
210	0x3d783d98	0.060605615
211	0xbe144710	-0.14480233
212	0xbdf2bf36	-0.11852877
213	0xbd8776e5	-0.06614474
214	0xbe761405	-0.24031074
215	0x3d6d1440	0.05788064
216	0xbb6d8660	-0.0036243424
217	0xbde469e6	-0.11153011
218	0xbd8e68bf	-0.069535725
219	0xbc03ec00	-0.008051872
220	0x3dd31187	0.103060775
221	0xbe2b2077	-0.16711603
222	0xbe24bec0	-0.1608839
223	0x3df2dde8	0.118587315
224	0x3d261f5e	0.040557258
225	0x3da7a1b6	0.08185141
226	0xbe276fe6	-0.1635128
227	0xbea9e8f9	-0.33185557
228	0xbe077332	-0.13227537
229	0x3c3ad08c	0.0114022605
230	0xbdf97125	-0.12179784
231	0xbe84536a	-0.2584489
232	0xbe0d621e	-0.1380696
233	0xbe227ba8	-0.15867484
234	0xbdd8f714	-0.105940014
235	0xbd9642fa	-0.073369935
236	0x3db54e33	0.08852806
237	0xbdc6edb6	-0.097133085
238	0x3d41d7d4	0.04732497
239	0x3e4053f8	0.18782032
240	0x3c44d8d9	0.012014591
241	0xbe28f923	-0.16501288
242	0x3e90769c	0.28215492
243	0x3d88e9cd	0.06685219
244	0xbe8e59d5	-0.2780291
245	0x3dade4e3	0.08490922
246	0xbd4d8bd5	-0.050182182
247	0xbe492539	-0.19643106
248	0xbddeb82c	-0.10874972
249	0xbdb141eb	-0.08655151
250	0x3e4086ca	0.18801418
251	0xbe849770	-0.25896788
252	0xbd24464a	-0.040106095
253	0x3e865aa3	0.26241025
254	0x3e633927	0.2218977
255	0x3e3843a3	0.17994551

network_body._body_endoder.seq_layers.0.bias f4 [256]
0	0x00000000	0.0
1	0x00000000	0.0
2	0x00000000	0.0
3	0x00000000	0.0
4	0x00000000	0.0
5	0x00000000	0.0
6	0x00000000	0.0
7	0x00000000	0.0
8	0x00000000	0.0
9	0x00000000	0.0
10	0x00000000	0.0
11	0x00000000	0.0
12	0x00000000	0.0
13	0x00000000	0.0
14	0x00000000	0.0
15	0x00000000	0.0
16	0x00000000	0.0
17	0x00000000	0.0
18	0x00000000	0.0
19	0x00000000	0.0
20	0x00000000	0.0
21	0x00000000	0.0
22	0x00000000	0.0
23	0x00000000	0.0
24	0x00000000	0.0
25	0x00000000	0.0
26	0x00000000	0.0
27	0x00000000	0.0
28	0x00000000	0.0
29	0x00000000	0.0
30	0x00000000	0.0
31	0x00000000	0.0
32	0x00000000	0.0
33	0x00000000	0.0
34	0x00000000	0.0
35	0x00000000	0.0
36	0x00000000	0.0
37	0x00000000	0.0
38	0x00000000	0.0
39	0x00000000	0.0
40	0x00000000	0.0
41	0x00000000	0.0
42	0x00000000	0.0
43	0x00000000	0.0
44	0x00000000	0.0
45	0x00000000	0.0
46	0x00000000	0.0
47	0x00000000	0.0
48	0x00000000	0.0
49	0x00000000	0.0
50	0x00000000	0.0
51	0x00000000	0.0
52	0x00000000	0.0
53	0x00000000	0.0
54	0x00000000	0.0
55	0x00000000	0.0
56	0x00000000	0.0
57	0x00000000	0.0
58	0x00000000	0.0
59	0x00000000	0.0
60	0x00000000	0.0
61	0x00000000	0.0
62	0x00000000	0.0
63	0x00000000	0.0
64	0x00000000	0.0
65	0x00000000	0.0
66	0x00000000	0.0
67	0x00000000	0.0
68	0x00000000	0.0
69	0x00000000	0.0
70	0x00000000	0.0
71	0x00000000	0.0
72	0x00000000	0.0
73	0x00000000	0.0
74	0x00000000	0.0
75	0x00000000	0.0
76	0x00000000	0.0
77	0x00000000	0.0
78	0x00000000	0.0
79	0x00000000	0.0
80	0x00000000	0.0
81	0x00000000	0.0
82	0x00000000	0.0
83	0x00000000	0.0
84	0x00000000	0.0
85	0x00000000	0.0
86	0x00000000	0.0
87	0x00000000	0.0
88	0x00000000	0.0
89	0x00000000	0.0
90	0x00000000	0.0
91	0x00000000	0.0
92	0x00000000	0.0
93	0x00000000	0.0
94	0x00000000	0.0
95	0x00000000	0.0
96	0x00000000	0.0
97	0x00000000	0.0
98	0x00000000	0.0
99	0x00000000	0.0
100	0x00000000	0.0
101	0x00000000	0.0
102	0x00000000	0.0
103	0x00000000	0.0
104	0x00000000	0.0
105	0x00000000	0.0
106	0x00000000	0.0
107	0x00000000	0.0
108	0x00000000	0.0
109	0x00000000	0.0
110	0x00000000	0.0
111	0x00000000	0.0
112	0x00000000	0.0
113	0x00000000	0.0
114	0x00000000	0.0
115	0x00000000	0.0
116	0x00000000	0.0
117	0x00000000	0.0
118	0x00000000	0.0
119	0x00000000	0.0
120	0x00000000	0.0
121	0x00000000	0.0
122	0x00000000	0.0
123	0x00000000	0.0
124	0x00000000	0.0
125	0x00000000	0.0
126	0x00000000	0.0
127	0x00000000	0.0
128	0x00000000	0.0
129	0x00000000	0.0
130	0x00000000	0.0
131	0x00000000	0.0
132	0x00000000	0.0
133	0x00000000	0.0
134	0x00000000	0.0
135	0x00000000	0.0
136	0x00000000	0.0
137	0x00000000	0.0
138	0x00000000	0.0
139	0x00000000	0.0
140	0x00000000	0.0
141	0x00000000	0.0
142	0x00000000	0.0
143	0x00000000	0.0
144	0x00000000	0.0
145	0x00000000	0.0
146	0x00000000	0.0
147	0x00000000	0.0
148	0x00000000	0.0
149	0x00000000	0.0
150	0x00000000	0.0
151	0x00000000	0.0
152	0x00000000	0.0
153	0x00000000	0.0
154	0x00000000	0.0
155	0x00000000	0.0
156	0x00000000	0.0
157	0x00000000	0.0
158	0x00000000	0.0
159	0x00000000	0.0
160	0x00000000	0.0
161	0x00000000	0.0
162	0x00000000	0.0
163	0x00000000	0.0
164	0x00000000	0.0
165	0x00000000	0.0
166	0x00000000	0.0
167	0x00000000	0.0
168	0x00000000	0.0
169	0x00000000	0.0
170	0x00000000	0.0
171	0x00000000	0.0
172	0x00000000	0.0
173	0x00000000	0.0
174	0x00000000	0.0
175	0x00000000	0.0
176	0x00000000	0.0
177	0x00000000	0.0
178	0x00000000	0.0
179	0x00000000	0.0
180	0x00000000	0.0
181	0x00000000	0.0
182	0x00000000	0.0
183	0x00000000	0.0
184	0x00000000	0.0
185	0x00000000	0.0
186	0x00000000	0.0
187	0x00000000	0.0
188	0x00000000	0.0
189	0x00000000	0.0
190	0x00000000	0.0
191	0x00000000	0.0
192	0x00000000	0.0
193	0x00000000	0.0
194	0x00000000	0.0
195	0x00000000	0.0
196	0x00000000	0.0
197	0x00000000	0.0
198	0x00000000	0.0
199	0x00000000	0.0
200	0x00000000	0.0
201	0x00000000	0.0
202	0x00000000	0.0
203	0x00000000	0.0
204	0x00000000	0.0
205	0x00000000	0.0
206	0x00000000	0.0
207	0x00000000	0.0
208	0x00000000	0.0
209	0x00000000	0.0
210	0x00000000	0.0
211	0x00000000	0.0
212	0x00000000	0.0
213	0x00000000	0.0
214	0x00000000	0.0
215	0x00000000	0.0
216	0x00000000	0.0
217	0x00000000	0.0
218	0x00000000	0.0
219	0x00000000	0.0
220	0x00000000	0.0
221	0x00000000	0.0
222	0x00000000	0.0
223	0x00000000	0.0
224	0x00000000	0.0
225	0x00000000	0.0
226	0x00000000	0.0
227	0x00000000	0.0
228	0x00000000	0.0
229	0x00000000	0.0
230	0x00000000	0.0
231	0x00000000	0.0
232	0x00000000	0.0
233	0x00000000	0.0
234	0x00000000	0.0
235	0x00000000	0.0
236	0x00000000	0.0
237	0x00000000	0.0
238	0x00000000	0.0
239	0x00000000	0.0
240	0x00000000	0.0
241	0x00000000	0.0
242	0x00000000	0.0
243	0x00000000	0.0
244	0x00000000	0.0
245	0x00000000	0.0
246	0x00000000	0.0
247	0x00000000	0.0
248	0x00000000	0.0
249	0x00000000	0.0
250	0x00000000	0.0
251	0x00000000	0.0
252	0x00000000	0.0
253	0x00000000	0.0
254	0x00000000	0.0
255	0x00000000	0.0

network_body._body_endoder.seq_layers.2.weight f4 [256, 256]
0	0xbd347dae	-0.04406517
1	0xbd9d66db	-0.07685634
2	0xbd2104dc	-0.039311275
3	0x3d25a52b	0.04044072
4	0x3d71e555	0.0590566
5	0x3d3a684a	0.045509614
6	0x3d58c939	0.052926276
7	0x3d4cd8f9	0.05001161
8	0x3c5c3e94	0.013442654
9	0xbc7cd2a8	-0.015431084
10	0xbd9ab5f2	-0.075542346
11	0x3c900795	0.01758174
12	0xbb63ff67	-0.0034789683
13	0xbb1208b8	-0.0022283029
14	0xbdce136e	-0.100623
15	0xbd478d3f	-0.048718687
16	0xbdf0f146	-0.11764769
17	0xbd8e5991	-0.06950677
18	0x3d8d4e89	0.06899745
19	0x3dc426e7	0.095777325
20	0xbc514e95	-0.012775083
21	0x3d4caf5c	0.049971923
22	0x3bf33f54	0.007423321
23	0xbd9aea45	-0.075642146
24	0xbcd3b8ee	-0.025845017
25	0xbd92c924	-0.07167271
26	0x3d8d8c56	0.069115326
27	0x3da46de2	0.08028771
28	0xbda4697b	-0.08027931
29	0x3a9feff6	0.0012202251
30	0x3da365ac	0.07978377
31	0xbd82ab10	-0.06380284
32	0x3d818dea	0.06325896
33	0xbc8e3697	-0.017360015
34	0xbd2621ef	-0.040559705
35	0x3bd6e879	0.0065584746
36	0x3d7c604f	0.061615285
37	0xbcb02292	-0.02150086
38	0x3cc74fea	0.024330098
39	0xbc62e7c0	-0.013849199
40	0x3d27a77b	0.040931206
41	0x3c0fb4b8	0.008771114
42	0xbcf62637	-0.03004752
43	0xba059dc5	-0.0005097057
44	0xbd07638c	-0.03305392
45	0x3dd36360	0.10321689
46	0xbd40408c	-0.046936557
47	0xbcb4c9ce	-0.022068884
48	0x3cc7ce1a	0.02439027
49	0xbcb4a01e	-0.022049006
50	0x3c483b3a	0.012221152
51	0xbd94936f	-0.07254683
52	0x3db9d1a2	0.090731874
53	0x3c006a5b	0.007837857
54	0x3d350632	0.04419536
55	0x3cc75690	0.024333268
56	0x3d71e672	0.05905766
57	0x3cabfda0	0.020994961
58	0x3dd4099d	0.10353396
59	0xbd462998	-0.04837951
60	0x3d294e60	0.04133451
61	0x3cb72c0f	0.022359876
62	0x3c54a2f1	0.012978301
63	0x3d44a121	0.048005227
64	0x3deb9b34	0.11504212
65	0xbae7573c	-0.0017649899
66	0x3ae212d5	0.0017248044
67	0x3d775b79	0.06038997
68	0xbcb64c23	-0.022253102
69	0x3d446482	0.047947414
70	0xbc0b39eb	-0.008497695
71	0x3bb07932	0.0053855414
72	0x3db6816b	0.08911403
73	0x3c1bbedb	0.009505953
74	0xbdeba09c	-0.11505243
75	0xbdc5bb02	-0.096548095
76	0xbbb22951	-0.005437054
77	0x3db38eea	0.08767493
78	0xbd2692d3	-0.040667366
79	0x3c97ab4c	0.018514298
80	0x3d9077fc	0.07054135
81	0xbdef6959	-0.11690015
82	0xbc32b81d	-0.010908154
83	0x3d3e357f	0.046437737
84	0x3d3726b0	0.04471463
85	0x3d5e9fc6	0.05435159
86	0x3d9b3acb	0.07579573
87	0xbd0bc9a7	-0.034127858
88	0x3ce2324b	0.027611872
89	0x3d8a05ad	0.06739364
90	0x39d7e47c	0.0004117823
91	0xbddd46f0	-0.10804546
92	0xbdf2c2e4	-0.11853579
93	0xbcdfed59	-0.027334856
94	0x3d3b5398	0.045734018
95	0xbd72cb90	-0.059276164
96	0x3dca7729	0.09886009
97	0xbe0fe95b	-0.14053862
98	0xbd80bf65	-0.062865056
99	0x3c190ebd	0.009341893
100	0xbc8d61b1	-0.017258497
101	0xbd53109a	-0.051529504
102	0xbd8abade	-0.06773923
103	0xbdb9e989	-0.090777464
104	0xbe01e96b	-0.12686698
105	0xbdc6172f	-0.09672391
106	0x3ca8c505	0.020601759
107	0xbd948f79	-0.07253928
108	0x3c9463ac	0.018113934
109	0x3dcac2e3	0.09900453
110	0xbb2b4dbc	-0.0026138863
111	0xbcd1096d	-0.02551719
112	0xbccccc50	-0.024999768
113	0xbdc01830	-0.093796134
114	0x3d193e60	0.037413
115	0x3cfec249	0.031098502
116	0xbe2d7ac6	-0.16941366
117	0x3c8e567a	0.01737522
118	0x3c105000	0.008808136
119	0xbdf815d7	-0.121135406
120	0xbcd28b9e	-0.02570134
121	0x3dbf9846	0.09355216
122	0x3c63b3c5	0.013897841
123	0x3daebf27	0.08532553
124	0x3c3ee5ef	0.0116515
125	0xbde2899d	-0.11061404
126	0x3d919e8c	0.071103185
127	0xbc3a672f	-0.01137714
128	0x3c307187	0.0107692545
129	0xbcaa69c9	-0.020802395
130	0xbb9e31e4	-0.004827725
131	0xbd81759c	-0.0632126
132	0x3dc0d8c4	0.09416345
133	0xbce2dd94	-0.027693547
134	0xbdd2bef6	-0.10290329
135	0x3bfba709	0.0076798243
136	0xbdc6a661	-0.09699703
137	0xbd317cf1	-0.043332044
138	0xbc3ca15e	-0.011513082
139	0xba28394f	-0.0006417231
140	0x3b6b1401	0.0035870078
141	0xbddc053a	-0.107431844
142	0xbb95708c	-0.004560536
143	0x3c8b8c0d	0.017034555
144	0xbc79b314	-0.015240449
145	0x3d8cb0a2	0.068696275
146	0xbdace0d1	-0.08441318
147	0x3b166765	0.0022949812
148	0xbd3b50b8	-0.045731276
149	0xbd4ee142	-0.05050779
150	0xbdf1ef31	-0.118132
151	0x3ce73728	0.028224543
152	0x3d0a9683	0.033834945
153	0xbe04af6c	-0.12957543
154	0x3cc3abf9	0.023885714
155	0x3c773086	0.0150872525
156	0x3d06ee44	0.03294207
157	0xbd8f00e7	-0.06982594
158	0x3b910c3a	0.0044265063
159	0xbcf830d8	-0.030296728
160	0x3caa3ffc	0.020782463
161	0xbdad1987	-0.084521346
162	0x3dcb5fea	0.099304035
163	0x3c5aa368	0.013344623
164	0xbd67f298	-0.05662784
165	0x3d778bfe	0.06043624
166	0x3b4bd71c	0.0031103557
167	0xba495049	-0.0007679505
168	0xbd16267e	-0.036657803
169	0xbc6ba743	-0.01438314
170	0x3b3d023b	0.002884044
171	0xbd581d89	-0.052762542
172	0xbd19e08c	-0.03756766
173	0x3c57ee82	0.013179423
174	0xbd8b3393	-0.067969464
175	0x3c9ee05d	0.019394094
176	0xbc87a63b	-0.016558757
177	0xbc194917	-0.009355805
178	0x3dca1c79	0.09868712
179	0xbd04af09	-0.03239349
180	0x3db74a65	0.089497365
181	0x3d28b543	0.04118849
182	0x3d0ec1e0	0.034852862
183	0x3ca82c55	0.020528952
184	0xbdf436bb	-0.119245015
185	0x3c20f843	0.009824815
186	0xbd0c57b4	-0.034263328
187	0xbd8f3b1f	-0.06993698
188	0xbc859f2a	-0.016311247
189	0x3bc76e38	0.006086137
190	0x3e1b3fb8	0.15161026
191	0xbd4e40b7	-0.050354686
192	0xbd0a9682	-0.03383494
193	0x3cbc9f43	0.02302516
194	0xbd250b4c	-0.040293977
195	0x3cbe002e	0.023193445
196	0xbd4fba57	-0.050714817
197	0xbd850a98	-0.06496161
198	0x3bce1926	0.006289619
199	0x3c12dc33	0.008963632
200	0xbd3e9ec5	-0.046538133
201	0xbd89f4e4	-0.06736162
202	0x3d9a1aea	0.07524665
203	0xbdd6f2ea	-0.10495551
204	0x3af5e978	0.0018761596
205	0x3d196651	0.037451092
206	0xbd1b3a64	-0.037897483
207	0xbc013ade	-0.00788757
208	0x3cadec81	0.021230938
209	0x3d741da3	0.059598576
210	0x3dea8206	0.11450581
211	0xbe09bca3	-0.13450865
212	0xbde3de9a	-0.11126442
213	0xbc3d28df	-0.011545389
214	0xbd21e8f9	-0.03952882
215	0x3b3592c6	0.0027705892
216	0xbc264e99	-0.010150575
217	0xbd690d97	-0.056897726
218	0x3bd14b6d	0.0063871653
219	0x3d5d8a90	0.05408722
220	0x3d79f7e3	0.06102742
221	0xbcacb7a0	-0.021083653
222	0xbd60bf47	-0.054869916
223	0xbcb178aa	-0.021663982
224	0x3ba3f0d7	0.0050030756
225	0xbdc1b897	-0.09459036
226	0xbd204ce4	-0.03913583
227	0x3dba9c61	0.09111858
228	0x3df0f25e	0.11764978
229	0x3cd019a8	0.025402859
230	0x3dd40362	0.10352208
231	0xbcae0c00	-0.021245956
232	0x3dc0b2c6	0.09409098
233	0x3b1f4701	0.0024303796
234	0xbc2b0d50	-0.010440186
235	0x3d3b9875	0.04579969
236	0xbd950ed8	-0.07278222
237	0xbd7c7f62	-0.06164492
238	0xbd2d9dc3	-0.04238678
239	0xbb1b40a7	-0.002368966
240	0xbd80cdc2	-0.06289245
241	0x3d583af4	0.052790597
242	0x3d9237b9	0.071395345
243	0xbd8b87ab	-0.06812986
244	0xbc5bdf3b	-0.0134199215
245	0x37861e13	1.598805e-05
246	0xbc95ba30	-0.018277258
247	0xbdc4e3ba	-0.09613748
248	0x3cea07c7	0.028568162
249	0x3b55d787	0.0032629685
250	0xbd2ba07f	-0.041901108
251	0xbd2f6cf7	-0.042828526
252	0xbced785c	-0.028988056
253	0xbd6bf67e	-0.05760812
254	0x3d092c64	0.0334896
255	0xbc6549cd	-0.013994646

network_body._body_endoder.seq_layers.2.bias f4 [256]
0	0x00000000	0.0
1	0x00000000	0.0
2	0x00000000	0.0
3	0x00000000	0.0
4	0x00000000	0.0
5	0x00000000	0.0
6	0x00000000	0.0
7	0x00000000	0.0
8	0x00000000	0.0
9	0x00000000	0.0
10	0x00000000	0.0
11	0x00000000	0.0
12	0x00000000	0.0
13	0x00000000	0.0
14	0x00000000	0.0
15	0x00000000	0.0
16	0x00000000	0.0
17	0x00000000	0.0
18	0x00000000	0.0
19	0x00000000	0.0
20	0x00000000	0.0
21	0x00000000	0.0
22	0x00000000	0.0
23	0x00000000	0.0
24	0x00000000	0.0
25	0x00000000	0.0
26	0x00000000	0.0
27	0x00000000	0.0
28	0x00000000	0.0
29	0x00000000	0.0
30	0x00000000	0.0
31	0x00000000	0.0
32	0x00000000	0.0
33	0x00000000	0.0
34	0x00000000	0.0
35	0x00000000	0.0
36	0x00000000	0.0
37	0x00000000	0.0
38	0x00000000	0.0
39	0x00000000	0.0
40	0x00000000	0.0
41	0x00000000	0.0
42	0x00000000	0.0
43	0x00000000	0.0
44	0x00000000	0.0
45	0x00000000	0.0
46	0x00000000	0.0
47	0x00000000	0.0
48	0x00000000	0.0
49	0x00000000	0.0
50	0x00000000	0.0
51	0x00000000	0.0
52	0x00000000	0.0
53	0x00000000	0.0
54	0x00000000	0.0
55	0x00000000	0.0
56	0x00000000	0.0
57	0x00000000	0.0
58	0x00000000	0.0
59	0x00000000	0.0
60	0x00000000	0.0
61	0x00000000	0.0
62	0x00000000	0.0
63	0x00000000	0.0
64	0x00000000	0.0
65	0x00000000	0.0
66	0x00000000	0.0
67	0x00000000	0.0
68	0x00000000	0.0
69	0x00000000	0.0
70	0x00000000	0.0
71	0x00000000	0.0
72	0x00000000	0.0
73	0x00000000	0.0
74	0x00000000	0.0
75	0x00000000	0.0
76	0x00000000	0.0
77	0x00000000	0.0
78	0x00000000	0.0
79	0x00000000	0.0
80	0x00000000	0.0
81	0x00000000	0.0
82	0x00000000	0.0
83	0x00000000	0.0
84	0x00000000	0.0
85	0x00000000	0.0
86	0x00000000	0.0
87	0x00000000	0.0
88	0x00000000	0.0
89	0x00000000	0.0
90	0x00000000	0.0
91	0x00000000	0.0
92	0x00000000	0.0
93	0x00000000	0.0
94	0x00000000	0.0
95	0x00000000	0.0
96	0x00000000	0.0
97	0x00000000	0.0
98	0x00000000	0.0
99	0x00000000	0.0
100	0x00000000	0.0
101	0x00000000	0.0
102	0x00000000	0.0
103	0x00000000	0.0
104	0x00000000	0.0
105	0x00000000	0.0
106	0x00000000	0.0
107	0x00000000	0.0
108	0x00000000	0.0
109	0x00000000	0.0
110	0x00000000	0.0
111	0x00000000	0.0
112	0x00000000	0.0
113	0x00000000	0.0
114	0x00000000	0.0
115	0x00000000	0.0
116	0x00000000	0.0
117	0x00000000	0.0
118	0x00000000	0.0
119	0x00000000	0.0
120	0x00000000	0.0
121	0x00000000	0.0
122	0x00000000	0.0
123	0x00000000	0.0
124	0x00000000	0.0
125	0x00000000	0.0
126	0x00000000	0.0
127	0x00000000	0.0
128	0x00000000	0.0
129	0x00000000	0.0
130	0x00000000	0.0
131	0x00000000	0.0
132	0x00000000	0.0
133	0x00000000	0.0
134	0x00000000	0.0
135	0x00000000	0.0
136	0x00000000	0.0
137	0x00000000	0.0
138	0x00000000	0.0
139	0x00000000	0.0
140	0x00000000	0.0
141	0x00000000	0.0
142	0x00000000	0.0
143	0x00000000	0.0
144	0x00000000	0.0
145	0x00000000	0.0
146	0x00000000	0.0
147	0x00000000	0.0
148	0x00000000	0.0
149	0x00000000	0.0
150	0x00000000	0.0
151	0x00000000	0.0
152	0x00000000	0.0
153	0x00000000	0.0
154	0x00000000	0.0
155	0x00000000	0.0
156	0x00000000	0.0
157	0x00000000	0.0
158	0x00000000	0.0
159	0x00000000	0.0
160	0x00000000	0.0
161	0x00000000	0.0
162	0x00000000	0.0
163	0x00000000	0.0
164	0x00000000	0.0
165	0x00000000	0.0
166	0x00000000	0.0
167	0x00000000	0.0
168	0x00000000	0.0
169	0x00000000	0.0
170	0x00000000	0.0
171	0x00000000	0.0
172	0x00000000	0.0
173	0x00000000	0.0
174	0x00000000	0.0
175	0x00000000	0.0
176	0x00000000	0.0
177	0x00000000	0.0
178	0x00000000	0.0
179	0x00000000	0.0
180	0x00000000	0.0
181	0x00000000	0.0
182	0x00000000	0.0
183	0x00000000	0.0
184	0x00000000	0.0
185	0x00000000	0.0
186	0x00000000	0.0
187	0x00000000	0.0
188	0x00000000	0.0
189	0x00000000	0.0
190	0x00000000	0.0
191	0x00000000	0.0
192	0x00000000	0.0
193	0x00000000	0.0
194	0x00000000	0.0
195	0x00000000	0.0
196	0x00000000	0.0
197	0x00000000	0.0
198	0x00000000	0.0
199	0x00000000	0.0
200	0x00000000	0.0
201	0x00000000	0.0
202	0x00000000	0.0
203	0x00000000	0.0
204	0x00000000	0.0
205	0x00000000	0.0
206	0x00000000	0.0
207	0x00000000	0.0
208	0x00000000	0.0
209	0x00000000	0.0
210	0x00000000	0.0
211	0x00000000	0.0
212	0x00000000	0.0
213	0x00000000	0.0
214	0x00000000	0.0
215	0x00000000	0.0
216	0x00000000	0.0
217	0x00000000	0.0
218	0x00000000	0.0
219	0x00000000	0.0
220	0x00000000	0.0
221	0x00000000	0.0
222	0x00000000	0.0
223	0x00000000	0.0
224	0x00000000	0.0
225	0x00000000	0.0
226	0x00000000	0.0
227	0x00000000	0.0
228	0x00000000	0.0
229	0x00000000	0.0
230	0x00000000	0.0
231	0x00000000	0.0
232	0x00000000	0.0
233	0x00000000	0.0
234	0x00000000	0.0
235	0x00000000	0.0
236	0x00000000	0.0
237	0x00000000	0.0
238	0x00000000	0.0
239	0x00000000	0.0
240	0x00000000	0.0
241	0x00000000	0.0
242	0x00000000	0.0
243	0x00000000	0.0
244	0x00000000	0.0
245	0x00000000	0.0
246	0x00000000	0.0
247	0x00000000	0.0
248	0x00000000	0.0
249	0x00000000	0.0
250	0x00000000	0.0
251	0x00000000	0.0
252	0x00000000	0.0
253	0x00000000	0.0
254	0x00000000	0.0
255	0x00000000	0.0

action_model._discrete_distribution.branches.0.weight f4 [3, 256]
0	0x39aba16a	0.00032735924
1	0x3c915940	0.017742753
2	0x3c3f852b	0.011689465
3	0xbb33bbfb	-0.0027425278
4	0x3ae9eb58	0.0017846627
5	0xbb83800c	-0.004013067
6	0xbc561393	-0.01306619
7	0x3bf0a30f	0.007343657
8	0x3aa1b03a	0.0012335845
9	0xbb9e877e	-0.0048379293
10	0x3c796f3b	0.015224273
11	0xbb722a20	-0.0036951378
12	0xbb991869	-0.0046720994
13	0xbba7ec61	-0.005124614
14	0xbb3814d5	-0.0028088589
15	0x3be7c6e2	0.007073269
16	0xbbf85097	-0.0075779664
17	0xbba3530d	-0.0049842657
18	0x3b4addcf	0.0030954962
19	0xbb36142b	-0.0027783017
20	0x3c199d7b	0.009375925
21	0x3bc162cc	0.00590167
22	0xbb9ea9d6	-0.0048420234
23	0x3befdbdf	0.007319912
24	0x3b3b2663	0.0028556816
25	0x39d147d7	0.0003991711
26	0x3b8bc377	0.0042652446
27	0x3ad691fa	0.0016370409
28	0x39bc3285	0.00035895794
29	0x3bc12c47	0.005895171
30	0xbc84a12f	-0.01619014
31	0x3b64b1e7	0.0034896077
32	0xbb8e1549	-0.0043360335
33	0xb8dd7778	-0.00010560354
34	0x38eb8c35	0.00011231789
35	0xbc23f40f	-0.010006919
36	0xbc130593	-0.008973497
37	0x3b8e9a34	0.0043518785
38	0x3c3e9deb	0.01163433
39	0x3866352b	5.488579e-05
40	0xb999b625	-0.00029318142
41	0xbbc695ba	-0.0060603293
42	0x3b50264b	0.0031761106
43	0xbba1fced	-0.004943481
44	0xbaad99db	-0.0013244705
45	0x3c9475f3	0.018122649
46	0xbc36f89c	-0.0111676715
47	0x3bc8f822	0.0061330954
48	0x3ba32106	0.004978302
49	0x3c164c8c	0.009173524
50	0x3c63288f	0.01386465
51	0xba06bec6	-0.0005140122
52	0xbbb25310	-0.0054420307
53	0xbc5cc170	-0.0134738535
54	0x3b74cf13	0.0037354871
55	0xbbbb0451	-0.0057073017
56	0xbb5b5d7d	-0.0033472471
57	0xbbbb3013	-0.005712518
58	0x3c19d21d	0.009388474
59	0xbc4102f5	-0.01178049
60	0x3b63b3c3	0.0034744598
61	0x3a6be948	0.00089993
62	0xbbe5fc1f	-0.0070185806
63	0xbbd766eb	-0.006573548
64	0xbba7b5de	-0.005118116
65	0x3a4f4615	0.00079068664
66	0xbbe9aa6d	-0.007130912
67	0xbb130e47	-0.002243893
68	0xbb1a2e48	-0.002352612
69	0x3be7429a	0.0070575
70	0xb725bed3	-9.879196e-06
71	0xbc06b0c7	-0.008220858
72	0xbba65a22	-0.0050766626
73	0xbbd19e78	-0.006397065
74	0xbb9b4167	-0.004738021
75	0x3bbc1384	0.005739631
76	0xb9867b13	-0.0002565017
77	0x3a0fa796	0.00054799893
78	0xba7b7dd7	-0.0009593642
79	0x3b38dc7f	0.0028207598
80	0xbb70b7c2	-0.0036730622
81	0xb96c5e32	-0.00022541804
82	0xbbea7585	-0.0071551227
83	0xbae3af03	-0.0017370883
84	0xbba222af	-0.0049479823
85	0x3bca7077	0.0061779576
86	0xba3f166a	-0.0007289412
87	0x3b79fedd	0.0038146295
88	0xbbde7d80	-0.006789863
89	0x3bbc01d9	0.005737525
90	0x3bdc09a8	0.0067150183
91	0xbb9eed51	-0.0048500677
92	0x3ad22257	0.0016031963
93	0xbb6359eb	-0.0034691046
94	0x3bbbd7c7	0.00573251
95	0x3b2a1601	0.0025953057
96	0x3b72e8c8	0.0037065018
97	0xbb7e71d3	-0.0038825169
98	0xbb9a20f9	-0.0047036377
99	0xbba47536	-0.0050188554
100	0x3bdd993f	0.006762653
101	0x3b8b2a24	0.004246967
102	0xbbb633a7	-0.0055603567
103	0x3bf4e44d	0.0074735046
104	0x3c2ec635	0.010667373
105	0x3afad333	0.0019136429
106	0x39ee0585	0.0004539901
107	0x3b30d6f7	0.0026983598
108	0xbc512d80	-0.012767196
109	0xbc118979	-0.008882874
110	0xbb193dc8	-0.0023382772
111	0xb9e7a860	-0.00044185203
112	0xbb6db078	-0.0036268514
113	0x3b9e7fa3	0.004836993
114	0x3b061be9	0.0020463413
115	0xba92ec8a	-0.001120941
116	0xbb73d167	-0.003720367
117	0x3b838d1f	0.0040146257
118	0xbbd2926d	-0.0064261467
119	0x3c84a57b	0.016192188
120	0x3aa3e3f7	0.0012503852
121	0xbb9da437	-0.0048108357
122	0x3bbd4367	0.0057758573
123	0xb9890160	-0.000261317
124	0xbbdb587d	-0.0066938982
125	0x3c08ed54	0.008357365
126	0xbb89a751	-0.004200854
127	0xbafbbe55	-0.0019206504
128	0xbb48dbd8	-0.0030648615
129	0xbb6361b0	-0.0034695677
130	0xbb6be843	-0.0035996593
131	0xbaa858d7	-0.0012843859
132	0xbad1a08b	-0.001599328
133	0xbb20f763	-0.0024561516
134	0xb7a31d18	-1.9444662e-05
135	0xbbea8c02	-0.0071578035
136	0x3c0c5017	0.008564017
137	0xbbf64657	-0.0075157094
138	0xbb634e2a	-0.003468404
139	0x3a82d689	0.0009982149
140	0x3a738a5f	0.0009290333
141	0x3bff1ce3	0.007785426
142	0xbc130858	-0.008974157
143	0x3bb544c1	0.0055318777
144	0xbb892328	-0.004185099
145	0x3c2318c5	0.009954636
146	0x3bef9b5d	0.007312222
147	0x3bafc3e5	0.0053639286
148	0x3c03fd02	0.008055927
149	0xb9a8586a	-0.0003210933
150	0xba2803f3	-0.000640928
151	0x3a44725a	0.00074938464
152	0x3c840b49	0.016118662
153	0x3bb515ee	0.005526296
154	0x3b3841d5	0.002811541
155	0x3bc3cbc2	0.0059752176
156	0x38041c59	3.1497653e-05
157	0xbb55b67b	-0.0032609988
158	0x3b2ec123	0.0026665411
159	0xbc012405	-0.007882123
160	0xba97b2b6	-0.0011573646
161	0x3c148a0e	0.009066118
162	0xbb9df402	-0.0048203478
163	0xbbd480da	-0.006485087
164	0x3a8bf11d	0.0010676716
165	0x3b01436f	0.0019724031
166	0xb885b49c	-6.375575e-05
167	0xbadec5ad	-0.0016996168
168	0xbbdc00b7	-0.0067139524
169	0xbbc5c483	-0.006035389
170	0xbb99f4c3	-0.0046983673
171	0x3c3f2faf	0.0116690835
172	0x3bddf400	0.006773472
173	0xbb3a94d0	-0.0028470047
174	0xbad401b2	-0.0016174822
175	0x3b434148	0.002979355
176	0x3be214c3	0.0068994476
177	0x3bd3b51a	0.006460798
178	0xbbddf5e8	-0.006773699
179	0xbc410054	-0.011779863
180	0x3c38b812	0.0112743545
181	0x3c2d00f6	0.010559311
182	0x3ad37bf0	0.0016134959
183	0x3aa88423	0.0012856763
184	0x39adffd7	0.00033187747
185	0x3b813635	0.0039432296
186	0xba8694a7	-0.001026769
187	0x3a982f5e	0.0011610796
188	0x37b79d54	2.1888562e-05
189	0x3b514568	0.0031932238
190	0xbb7fe7a2	-0.0039047976
191	0xbbb47a2d	-0.0055077286
192	0x3c3c0dff	0.011477946
193	0xbb2dae7c	-0.0026501706
194	0x3c2515f7	0.010076038
195	0xbc07e27c	-0.008293744
196	0x3b8dd3fe	0.00432825
197	0xbb99688a	-0.0046816515
198	0x3af3f295	0.0018611724
199	0xbb5e9653	-0.0033964112
200	0xbc1aabc6	-0.009440368
201	0xbb521f5a	-0.0032062144
202	0xbc05a32b	-0.008156578
203	0xbc35eb83	-0.011103514
204	0x3bcf894d	0.006333506
205	0x3a6862b5	0.0008864806
206	0x39e95e92	0.00044511684
207	0xba614f10	-0.000859485
208	0x3aa30fb0	0.0012440588
209	0xbb580bbb	-0.0032965976
210	0x3bc1d333	0.0059150695
211	0x3c70e2fb	0.014702554
212	0xbba6bd03	-0.00508845
213	0xbc3f6047	-0.011680669
214	0xbbb0b77a	-0.005392966
215	0x3b920437	0.004456069
216	0xbbd356cd	-0.0064495564
217	0xbb1a5a98	-0.0023552533
218	0xbb9dd4f7	-0.004816647
219	0xbb8a9913	-0.0042296737
220	0xba1a4c37	-0.00058859907
221	0xbb879405	-0.0041375184
222	0x39ce959d	0.00039402852
223	0x3c06f227	0.008236445
224	0xbb6abcfd	-0.0035818212
225	0x3b83499b	0.004006577
226	0xbc83f9be	-0.016110297
227	0xbafb8e67	-0.001919222
228	0x3b6bbe52	0.0035971594
229	0xbb8d05c9	-0.004303668
230	0x3b4c6480	0.0031187832
231	0xbb5d7685	-0.0033792567
232	0xbb9751ab	-0.00461789
233	0xbc1efd0f	-0.009703889
234	0xbbd9a8ed	-0.006642452
235	0x3ba19b1b	0.00493182
236	0x3b86c9fb	0.0041134334
237	0x3c633cdf	0.013869493
238	0xbadec42b	-0.0016995718
239	0x3bbd401b	0.0057754642
240	0x3b1919a8	0.002336124
241	0x3c123a80	0.00892508
242	0xbbe4cb3b	-0.006982235
243	0x3bef366b	0.0073001883
244	0x3b844dfb	0.0040376163
245	0xbc0427ec	-0.008066159
246	0x3999b558	0.00029317546
247	0x3b91b3b8	0.004446473
248	0xbc58a552	-0.013223009
249	0xbb719f45	-0.0036868614
250	0x3b458b0f	0.00301427
251	0xbb345752	-0.0027517867
252	0x3bf82143	0.0075723245
253	0xba0e9473	-0.0005438991
254	0x3b99a58d	0.0046889246
255	0xbc83c599	-0.016085433

action_model._discrete_distribution.branches.0.bias f4 [3]
0	0x00000000	0.0
1	0x00000000	0.0
2	0x00000000	0.0

action_model._discrete_distribution.branches.1.weight f4 [3, 256]
0	0xbb2ad0f3	-0.0026064485
1	0x3ad23c85	0.0016039765
2	0x39d12e4f	0.0003989809
3	0xbc564123	-0.013077053
4	0x3bb53533	0.0055300235
5	0xbb54fd9f	-0.0032499803
6	0x3b06ae1c	0.0020550555
7	0x3b384323	0.0028116188
8	0x3a4c04ca	0.0007782696
9	0x3bc91ece	0.0061377054
10	0xbb908715	-0.0044106343
11	0x3b8fe22b	0.004390975
12	0x3a0d6f4b	0.0005395307
13	0x3a07b2e4	0.0005176498
14	0x3a74485a	0.00093186426
15	0xbb9184a9	-0.004440863
16	0x3b806dd9	0.003919345
17	0xbb67b1ed	-0.0035353855
18	0x3c72230f	0.014778866
19	0x3be7ddcd	0.0070760013
20	0x3ba729e7	0.0051014307
21	0x3b6fa7ef	0.0036568602
22	0xbc1ba07b	-0.009498711
23	0x3b8c87c5	0.004288646
24	0x3b84fe89	0.0040586633
25	0x3c0e2a65	0.0086771
26	0x3c2c9e76	0.010535827
27	0x3b468e9f	0.003029741
28	0x38962ff2	7.161488e-05
29	0x3a95eaf3	0.0011437818
30	0x3bb2b9bc	0.00545427
31	0x3b2e6527	0.0026610584
32	0xb9dc14a5	-0.0004197705
33	0xb9e11e75	-0.00042938036
34	0xbbc9d925	-0.006159919
35	0x3b72f290	0.0037070848
36	0xbaeef1bf	-0.0018230005
37	0xbbba01b3	-0.005676472
38	0x3a82d62a	0.0009982039
39	0x3c149541	0.009068788
40	0x3b5cf428	0.0033714864
41	0xbc005011	-0.007831589
42	0x3b8fc88b	0.0043879203
43	0xbc280ef2	-0.0102574695
44	0xbbaec907	-0.005334023
45	0x3b74240b	0.0037252929
46	0xbc61a430	-0.0137720555
47	0xbbb4752f	-0.0055071334
48	0xbb1e5768	-0.0024160985
49	0xba75d55b	-0.0009377801
50	0x3b2b49a3	0.002613642
51	0xbb3a2938	-0.0028405916
52	0x3b1f139b	0.002427316
53	0xbb97d7d8	-0.004633885
54	0xbbf3aeef	-0.007436625
55	0xba43de0f	-0.0007471749
56	0x3c365ec8	0.011130996
57	0xbb99aa78	-0.004689511
58	0x3ba30e8f	0.0049761008
59	0xbc72c81b	-0.014818217
60	0x3b887fbf	0.004165619
61	0xbc3e6aea	-0.01162217
62	0x3bdea763	0.0067948564
63	0xbaf1e9cb	-0.0018456517
64	0x3a0145cb	0.00049313594
65	0xbb92d8fc	-0.004481433
66	0xbc0eaeaf	-0.00870864
67	0x3bbdce1f	0.005792394
68	0x3b0a2e65	0.0021084782
69	0xbb75f9ea	-0.0037532994
70	0xb92e70d1	-0.0001663596
71	0x3bfebf0d	0.00777424
72	0xbb8dd261	-0.0043280576
73	0x38b19a01	8.468703e-05
74	0x3c2b673f	0.0104616275
75	0xba96c24f	-0.0011502
76	0xbad57e03	-0.0016288165
77	0x3a512be0	0.0007979255
78	0xbc5edaf5	-0.013602008
79	0xba2ec132	-0.00066663616
80	0xbbb4d095	-0.005518029
81	0x3afcdc27	0.0019291685
82	0xba9d6376	-0.0012007791
83	0x3c33067f	0.010926842
84	0xb969d075	-0.00022298268
85	0xba7f41f5	-0.00097373064
86	0x3b531e5b	0.0032214138
87	0x3ac1aa49	0.001477548
88	0x3bc9161c	0.006136669
89	0x3b216c8e	0.0024631354
90	0xbc359f83	-0.011085394
91	0x3bcf7b8f	0.006331868
92	0xb9b899af	-0.00035209718
93	0xbb4ebad7	-0.003154447
94	0xbbdbe430	-0.0067105517
95	0x3bd8d2b5	0.006616915
96	0xbb3be3c4	-0.0028669694
97	0x3aa87523	0.0012852292
98	0xbb5935d7	-0.0033143663
99	0x3bde17ad	0.0067777247
100	0x3b718267	0.0036851407
101	0xbb8626b2	-0.0040939683
102	0xbab6454a	-0.0013906148
103	0xbb736958	-0.0037141647
104	0xbb1686bd	-0.0022968494
105	0xbbb114cf	-0.005404092
106	0x3b987a87	0.0046532783
107	0xb911ec5f	-0.00013916333
108	0x3bc82f4d	0.0061091543
109	0xbc55277a	-0.0130099
110	0xbb3ea2d4	-0.0029088752
111	0x39ad91a7	0.0003310565
112	0xbb4141ef	-0.0029488762
113	0x3c2bbfa5	0.010482703
114	0x3bcd1df2	0.0062596733
115	0xbb88aefd	-0.004171251
116	0x3b83f1ac	0.0040266123
117	0xbb87d83e	-0.004145651
118	0x3beaecb2	0.0071693296
119	0x3a4a8b71	0.0007726467
120	0x3b8919ad	0.004183969
121	0x3ba62cdc	0.0050712656
122	0xbaed4167	-0.0018101156
123	0x3ba67d89	0.005080883
124	0xbbc6eb36	-0.00607052
125	0x3bf99127	0.0076161805
126	0x3ba75927	0.0051070633
127	0xb8a4746a	-7.841813e-05
128	0xbbc21119	-0.0059224484
129	0xbb71b345	-0.0036880535
130	0x3c02e89e	0.007990031
131	0xbbacb74b	-0.0052708737
132	0x3bb8936a	0.0056328075
133	0x3c869f1e	0.016433295
134	0x3b208b0f	0.0024496948
135	0xba5ad93d	-0.0008348411
136	0x3c334b38	0.0109432265
137	0xbc2c01bf	-0.010498463
138	0x3bc5efad	0.0060405345
139	0xbbf10718	-0.007355582
140	0xbc02cb31	-0.007983015
141	0xbc393a14	-0.011305351
142	0xbb94f8f8	-0.004546281
143	0xbbffa833	-0.0078020333
144	0xb84e8637	-4.9239225e-05
145	0x3a87c3a6	0.001035799
146	0xbc3b1f73	-0.011421072
147	0x3a9a3d50	0.001176754
148	0xbc4ce86d	-0.0125065865
149	0x39c1d054	0.00036967045
150	0x3b0aaeeb	0.0021161388
151	0x3b870c6a	0.004121353
152	0x3c206e29	0.009791889
153	0x3a711c35	0.00091976236
154	0x3b1c1a64	0.002381944
155	0xb90b574d	-0.00013288595
156	0x3ba03cb1	0.0048900475
157	0x3c3f0ae2	0.0116603095
158	0xbbcea15f	-0.006305858
159	0x3be17e1f	0.00688149
160	0xbb7e9f22	-0.0038852175
161	0xb970b3d8	-0.0002295518
162	0x3b99b43b	0.0046906746
163	0xbb89f760	-0.0042103976
164	0xbb63fc45	-0.0034787816
165	0x3bb0f575	0.0054003545
166	0xbb3e292e	-0.0029016244
167	0x3b1325d9	0.002245298
168	0xbbedc13d	-0.007255702
169	0x3be62a63	0.007024096
170	0xbbc89e33	-0.0061223744
171	0xbb7c50a0	-0.0038500205
172	0x3b48ff26	0.0030669658
173	0x3a9ccfa8	0.0011963742
174	0x3b036bd3	0.0020053282
175	0x3bb63812	0.0055608833
176	0x3abbf2ea	0.0014339362
177	0xbbd0de90	-0.006374188
178	0x3c086b66	0.008326387
179	0x3b2ee69b	0.0026687745
180	0x3b302fc6	0.0026883944
181	0xbc6e0e28	-0.014529742
182	0x3aab5e41	0.0013074355
183	0xb9e8e39b	-0.00044420068
184	0x3b806200	0.0039179325
185	0x3bf3f703	0.0074452176
186	0x3aab7b06	0.0013082928
187	0x39412d5f	0.00018422816
188	0x3bdf24b2	0.0068097943
189	0x3b4816fe	0.0030531283
190	0xbb8e4535	-0.004341746
191	0x3a5b924b	0.00083759864
192	0x3c74f292	0.014950411
193	0xbb03129b	-0.0020000103
194	0x3c01fd21	0.007933886
195	0x3bb3d467	0.005487967
196	0x3a9114a6	0.0011068776
197	0x3b76ffef	0.003768917
198	0xbc134dc0	-0.008990705
199	0xbc488636	-0.01223903
200	0x3c16c8f3	0.009203183
201	0xbc304e87	-0.01076091
202	0xbbfb7410	-0.007673748
203	0xbb1ceef1	-0.002394613
204	0xb9c1b7db	-0.00036948812
205	0x3b5d2472	0.0033743647
206	0x3a5be195	0.00083878014
207	0xbbbfd3d3	-0.005854109
208	0xbbb910c5	-0.005647751
209	0xbbe9eab8	-0.0071385764
210	0xbc36b989	-0.0111526335
211	0xbb3aceb5	-0.0028504555
212	0xbb6d2a87	-0.0036188678
213	0x3bab7481	0.005232394
214	0xbb42bba3	-0.002971389
215	0x3c0456c6	0.008077329
216	0xbb9277dd	-0.004469855
217	0xbbb5e28f	-0.0055506895
218	0x3b4cdf7a	0.0031261132
219	0xb7095113	-8.184713e-06
220	0x39aab24c	0.00032557768
221	0x3b04320f	0.0020171439
222	0x3bf5e2c2	0.0075038383
223	0xbc0c522f	-0.008564516
224	0x3b631263	0.003464841
225	0x3c23defb	0.010001893
226	0x3b006afb	0.0019595015
227	0x3aab34d5	0.001306201
228	0x3c0e9997	0.008703611
229	0x3c1a6ed5	0.0094258385
230	0x3c1cee05	0.009578233
231	0x3bd399fb	0.006457565
232	0x3c3c9caa	0.011511961
233	0xbb983c49	-0.0046458584
234	0xb91c1343	-0.00014884495
235	0x3c35c0a3	0.011093291
236	0xbaaae4df	-0.001303818
237	0x3bedab2b	0.007253071
238	0xbb67bd15	-0.0035360504
239	0x3ba12d1c	0.0049187075
240	0x3a7c7fe5	0.0009632095
241	0xbbbd42a3	-0.005775766
242	0xbc2a7815	-0.010404606
243	0x3a69718f	0.0008905166
244	0x3c045180	0.008076072
245	0x3b946029	0.0045280647
246	0x3b96d6e7	0.004603255
247	0xb994a4cd	-0.00028351546
248	0xb9ada3a3	-0.0003311905
249	0xbb5ac687	-0.0033382492
250	0xbb16986b	-0.0022979032
251	0xb9df2152	-0.000425587
252	0x3b2c4deb	0.002629156
253	0xbc2cad39	-0.010539346
254	0x3b23ba88	0.0024983007
255	0xbbfd53e5	-0.0077309483

action_model._discrete_distribution.branches.1.bias f4 [3]
0	0x00000000	0.0
1	0x00000000	0.0
2	0x00000000	0.0

action_model._discrete_distribution.branches.2.weight f4 [2, 256]
0	0xbc6e3300	-0.014538527
1	0x3b63dc20	0.0034768656
2	0x3aa716a5	0.0012747837
3	0x3c4da9f8	0.012552731
4	0x3c217973	0.009855616
5	0x3ad7863f	0.0016443207
6	0x3b9d795d	0.0048057274
7	0x3bdaaf82	0.006673754
8	0x3b73b513	0.0037186786
9	0x3b7fbdcb	0.0039023038
10	0xbb3f8cef	-0.002922829
11	0xbc7020b3	-0.014656234
12	0xbc179a4c	-0.009253096
13	0xbad64c7f	-0.0016349702
14	0x3bba0e3b	0.005677966
15	0x3c5bf912	0.013426082
16	0xbb75fe15	-0.0037535478
17	0xbbddf1c8	-0.0067732073
18	0x3b455157	0.0030108297
19	0xbb23e51b	-0.0025008384
20	0x3b7f51c2	0.0038958644
21	0x3b88bfe8	0.0041732676
22	0x3c53073a	0.012880141
23	0x3b6fc827	0.0036587806
24	0xbb6affff	-0.0035858152
25	0x3a8de6ff	0.0010826288
26	0x3989c8bb	0.00026280232
27	0x3b802b75	0.0039114305
28	0x3be4ec42	0.006986172
29	0x3c1f3eca	0.00971956
30	0x3ca55e57	0.020186586
31	0x3b13ebd8	0.0022570994
32	0x3c1bf7c6	0.009519523
33	0x3b4e4823	0.0031476102
34	0xbc042723	-0.008065972
35	0xbc344a15	-0.011003991
36	0x3a1f80d1	0.0006084564
37	0x3b3d124e	0.0028850022
38	0xbbc0085f	-0.005860373
39	0x3bb8d215	0.005640278
40	0x3c0f8b15	0.008761187
41	0xbb90e127	-0.0044213715
42	0xbbaae1c3	-0.005214901
43	0xbbcc6bf3	-0.0062384545
44	0xbb81ef7f	-0.0039653177
45	0x3b7746ef	0.0037731489
46	0xbbd3f140	-0.006467968
47	0xba6d2780	-0.00090467185
48	0x3baad537	0.0052134055
49	0xb86746ed	-5.5140747e-05
50	0x3c4efb1f	0.012633114
51	0xbc1505fb	-0.009095664
52	0xbb43c723	-0.0029873333
53	0x3bd84cf5	0.006600971
54	0x3b974bd8	0.0046171956
55	0x3c06b745	0.008222406
56	0x3bb20cda	0.005433661
57	0x3aebac22	0.0017980377
58	0x3c1eef0f	0.009700551
59	0xba8902fb	-0.0010453159
60	0xbae4e498	-0.0017463146
61	0xbbaa24cb	-0.0051923743
62	0xb995edc7	-0.00028596653
63	0x3a6ba790	0.00089895073
64	0x3bdef7b3	0.0068044304
65	0xb9813537	-0.00024644446
66	0xbb60385d	-0.0034213283
67	0x3bfd48eb	0.0077296398
68	0x3c138e21	0.009006054
69	0x3baabfd5	0.0052108564
70	0xbc86c313	-0.01645044
71	0xbbb4f984	-0.0055229086
72	0xbc34b4f4	-0.011029471
73	0x3bad9899	0.005297732
74	0x3bdcd3cb	0.006739115
75	0xbbb39f28	-0.0054816194
76	0x3c0cb6db	0.008588518
77	0xbbad981a	-0.005297673
78	0x3bbd22ce	0.0057719713
79	0x3c16b668	0.0091987625
80	0x3a69a300	0.00089125335
81	0xba22f731	-0.0006216644
82	0x3bc63c13	0.006049642
83	0xbaf7eb07	-0.0018914648
84	0xba63d04f	-0.0008690403
85	0x3c79adb3	0.015239167
86	0xbbbfcba9	-0.0058531356
87	0xbc89f5ee	-0.016840901
88	0xbc2d92f4	-0.010594118
89	0xbb9da524	-0.004810946
90	0x3b5611f7	0.0032664516
91	0x3a97b2fb	0.0011573726
92	0x3bfdf67d	0.007750331
93	0xbb7c060b	-0.003845575
94	0x3b6f8d67	0.0036552788
95	0xb942f04c	-0.000185908
96	0xba73bc7a	-0.00092977996
97	0x3bb3a8df	0.0054827775
98	0x3a864711	0.0010244568
99	0xbb8b8206	-0.0042574434
100	0x3b3c65b4	0.0028747143
101	0xbbbae246	-0.0057032434
102	0xbbd69f2a	-0.0065497356
103	0x3c2437e8	0.010023095
104	0xbbfe9ad2	-0.007769921
105	0x3c124c20	0.008929282
106	0xbba657e1	-0.005076394
107	0xbb21b8d4	-0.0024676817
108	0x3b5eb2bf	0.0033981053
109	0x3a9a24f0	0.0011760276
110	0xb8c0f3e5	-9.200702e-05
111	0xbc3e5e3b	-0.011619146
112	0xbae9e4ef	-0.0017844717
113	0x3ad54f45	0.0016274235
114	0xbc956d99	-0.018240737
115	0x3a8c69e8	0.0010712715
116	0x3be8f605	0.007109406
117	0xbc68491b	-0.014177586
118	0x3c67c518	0.014146112
119	0xbb773028	-0.0037717912
120	0xbb606f82	-0.0034246151
121	0xbc3c8a2b	-0.011507551
122	0xba25b439	-0.0006321106
123	0x3c950601	0.01819134
124	0x3c439464	0.011937235
125	0xbbf76b2b	-0.007550617
126	0x3b9f3097	0.0048580873
127	0x3c2792bb	0.010227854
128	0x3be7fff7	0.007080074
129	0x3a4cf737	0.00078188203
130	0x3b32ee7c	0.0027302792
131	0xbb7b0825	-0.0038304415
132	0x3b6258a0	0.0034537688
133	0x3a15be07	0.0005712215
134	0xbb96d3a0	-0.0046028644
135	0xbbf98d6a	-0.007615735
136	0x3b0d1f83	0.0021533675
137	0xbc1c2c17	-0.009531996
138	0x3c02931a	0.007969642
139	0x3abc390d	0.0014360264
140	0xbaef1d8b	-0.0018243057
141	0xbb436fd7	-0.00298213
142	0xbb563f45	-0.003269152
143	0x3b2ca15b	0.0026341293
144	0xb9fc929a	-0.00048174412
145	0x3bc8e23e	0.006130486
146	0xbc27c259	-0.010239207
147	0xbab15eb4	-0.0013532252
148	0x3988ea19	0.00026114358
149	0x3c0df338	0.008663945
150	0x3beef46f	0.0072923223
151	0x3a5b25ad	0.0008359801
152	0x3b48c2c7	0.0030633674
153	0xba725a40	-0.00092450157
154	0xbbf43170	-0.0074521825
155	0x3be5fa10	0.007018335
156	0xbc32fa77	-0.010923973
157	0x3bab8670	0.005234532
158	0x3a9a8ec3	0.0011791814
159	0xbb35affb	-0.00277233
160	0xba7a548b	-0.0009549341
161	0x3b885cf3	0.004161471
162	0xbb6b3d27	-0.0035894604
163	0x3baa6ac2	0.005200715
164	0xbbd4a1fa	-0.0064890357
165	0x3c6e80df	0.014557092
166	0x3abee84b	0.0014565078
167	0xbc0c6613	-0.008569258
168	0x3c02abf8	0.007975571
169	0xbc516297	-0.012779853
170	0xbbe5b1cb	-0.00700972
171	0x3ba2dea5	0.004970389
172	0x3c5b1dfa	0.013373846
173	0x3c2b3449	0.0104494775
174	0x3b983033	0.0046444177
175	0x3c0d5f39	0.00862866
176	0xbbb29bc6	-0.0054506985
177	0x3c354b63	0.011065337
178	0x3bcdc962	0.00628011
179	0x3bd3a54f	0.0064589153
180	0xbb88d3c7	-0.0041756365
181	0x3b3eb76f	0.0029101034
182	0xbba0a884	-0.004902901
183	0x3c01b32d	0.007916254
184	0x3b1e3557	0.002414068
185	0xbb168cb5	-0.0022972052
186	0x3c28b28a	0.010296473
187	0x3af0215f	0.0018320492
188	0x3bc6c22d	0.006065628
189	0xbc85e2a5	-0.016343424
190	0x3b2cb9ef	0.0026355942
191	0xbb5b3c4d	-0.003345269
192	0x3b3b6540	0.0028594285
193	0xbba3f526	-0.005003589
194	0x3a83f346	0.0010067008
195	0xbc101f73	-0.008796561
196	0xbb0547c0	-0.0020336956
197	0x3c2eec27	0.01067642
198	0xbc4047bd	-0.011735854
199	0xbb5b09bf	-0.0033422557
200	0x3c1cc428	0.009568252
201	0x3c1253f7	0.008931152
202	0xbc33029d	-0.010925916
203	0x3b94fd0f	0.0045467685
204	0x3c80784a	0.015682358
205	0xbbd88cd0	-0.006608583
206	0x3b1d89ae	0.0024038362
207	0xbb9ca795	-0.0047807195
208	0xba708e9d	-0.00091765245
209	0xbbce411f	-0.006294384
210	0x3b8aa391	0.0042309244
211	0xb802e6ff	-3.1209547e-05
212	0x3c181185	0.009281521
213	0xbace80d5	-0.0015754948
214	0x39f88ceb	0.00047407238
215	0xbb224bc9	-0.002476441
216	0xbc357941	-0.011076272
217	0x3add2263	0.001687121
218	0x3ba4b03b	0.005025891
219	0x3b2d1b4a	0.002641397
220	0x39673d5a	0.00022052732
221	0xbb17ca23	-0.0023161254
222	0xbbbeb1e1	-0.0058195447
223	0xbc0ad02f	-0.008472486
224	0x3b881ea1	0.004154042
225	0x3b81eb22	0.0039647976
226	0xb92ca267	-0.00016463698
227	0xbb591c62	-0.003312849
228	0xbbc71a7e	-0.006076156
229	0xbae4fded	-0.0017470695
230	0x3b08f62f	0.002089869
231	0x3a925e5c	0.0011167037
232	0x3b903143	0.0044004037
233	0xbb4b42c2	-0.0031015133
234	0xbc71c210	-0.014755741
235	0x3b535ab7	0.0032250115
236	0xbb8490ca	-0.0040455805
237	0xbc25313b	-0.010082538
238	0xbb505b5a	-0.003179273
239	0x38c8d242	9.575907e-05
240	0xbb2ffaa3	-0.0026852272
241	0x3a7e34c0	0.00096971914
242	0xba967f9d	-0.0011482124
243	0xbc48e2f3	-0.01226114
244	0xbbdab8cb	-0.006674861
245	0xbc80cab2	-0.015721653
246	0x3a97ac22	0.0011571685
247	0x3c1815e9	0.009282568
248	0x3ba8f5f6	0.005156274
249	0xbba2647b	-0.004955826
250	0x3b52edef	0.0032185277
251	0x3b5eb85b	0.0033984396
252	0xbbe58855	-0.0070047774
253	0xbbfc0dcd	-0.007692075
254	0xbbd8cb62	-0.006616042
255	0xbb316a7b	-0.0027071524

action_model._discrete_distribution.branches.2.bias f4 [2]
0	0x00000000	0.0
1	0x00000000	0.0
