results/FinalTwentyDirt/TwentyDirtAgent/TwentyDirtAgent-999911.onnx (onnx, 315955 bytes, 11 tensors)

discrete_action_output_shape f4 [1, 3]
000000 00 00 40 40 00 00 40 40 00 00 00 40
       3.0 3.0 2.0

network_body._body_endoder.seq_layers.0.weight f4 [256, 39]
000000 c2 f9 28 3e 2b cb df 3d 7a 92 34 be ff 4b 71 be
       0.16501525 0.10927423 -0.17634001 -0.23564146
000010 0b ca 2a 3a 4f 1d 46 3e e7 49 92 3e 70 43 5e be
       0.0006515092 0.19347118 0.28572008 -0.21705413
000020 2b 0c 3d 3e 0a b2 f3 3c fb 85 9d 3d bb 9a 57 3e
       0.18461673 0.029747982 0.0769157 0.21055119
000030 84 03 48 3e 11 a9 de 3d 7b fe e4 3a 23 b9 e8 bb
       0.19532591 0.108720906 0.0017470861 -0.007102148
000040 b0 6b 23 be 8e 1b 16 3e 9e ad bb 3e 65 ea 2f be
       -0.15959048 0.14658949 0.36655897 -0.17179258
000050 11 58 9e bd 7a 0d 4f 3d 77 43 5a 3d 74 d4 27 3e
       -0.07731641 0.05054996 0.053286996 0.16389638
000060 dc 20 33 3c 99 4f cd bd 60 de 86 3e 41 af a2 bc
       0.010933127 -0.10024948 0.26341534 -0.019858958
000070 bd be 6b bd d4 f7 40 be 6d 36 b8 be 5f 6e a7 3b
       -0.05755495 -0.18844539 -0.35979024 0.005109593
000080 2c be 7e 3d 85 72 ba 3d d3 5b 85 3d ca d3 25 be
       0.06219308 0.09103874 0.06511655 -0.16194072
000090 cf 29 ce bd 3c b1 0f be c1 cc 11 3c 54 49 c7 bc
       -0.10066568 -0.14032453 0.008898915 -0.024326958
0000a0 62 c4 11 3e 20 4d e7 3d 55 27 89 bd 53 ba 6d 3e
       0.1423507 0.11294007 -0.06696955 0.23215608
0000b0 f5 bd 3c bd 25 91 7f be c2 0c d8 3d a3 14 ec 3c
       -0.046079595 -0.24957712 0.10549308 0.028818434
0000c0 c1 63 60 bc 0b 84 79 3d ab 26 c0 bd 63 6a 04 bd
       -0.013695658 0.06091694 -0.09382375 -0.03232802
0000d0 dd fb 6a 3d 81 8a 3c 3e 89 84 1d 3d a2 2f 64 bd
       0.0573691 0.1841221 0.038456473 -0.05570949
0000e0 64 9b 7d be c1 79 9b be 45 8c b6 3e 49 34 16 3e
       -0.24766308 -0.30366328 0.35653892 0.14668383
0000f0 5e 92 88 3d cb bd 99 3c a4 e5 32 bd 39 37 04 be
       0.06668542 0.018767258 -0.043676034 -0.12911691
000100 18 aa 9c 3d c6 f9 a3 3c bb f2 86 bd 6b c0 05 bd
       0.0764963 0.020016562 -0.06589266 -0.032654207
000110 78 7c 22 3e bf 7a d2 be 36 6e ae be 91 5d 6b 3e
       0.15867794 -0.41109273 -0.3406846 0.22984912
000120 01 58 2d be bf a4 41 3d 74 93 fb be 4e 5e 91 bd
       -0.16928102 0.047276255 -0.49135935 -0.07098065
000130 68 b1 02 be 7b 35 08 3e 87 2b 7f 3e b1 99 99 3d
       -0.12762988 0.13301651 0.24918948 0.075000174
000140 ac 80 1a 3d d8 88 b8 3c 90 2d 70 3e 13 c4 ca 3e
       0.037720367 0.02252619 0.2345488 0.39602718
000150 8e 60 43 3e 8f 59 22 be 1e 3c 4b be 92 4e 22 3e
       0.19079801 -0.15854476 -0.19847152 0.15850285
000160 e6 88 03 3e 1c 58 59 3d 1c f0 41 3e bb 0d 2a be
       0.12845191 0.053062543 0.1893925 -0.166068
000170 03 49 3b 3e 5b f5 fc 3e 7a ae 65 bd d0 54 fb bd
       0.1828957 0.4940594 -0.056074597 -0.12272036
000180 e9 e1 50 3e 3a c7 73 bc 91 69 98 bd 26 2f 2a bd
       0.20398678 -0.014879042 -0.0744201 -0.04154887
000190 68 69 a0 bd 0d ed 88 bd 7b 59 9b 3d 96 1c 83 3d
       -0.07832605 -0.06685839 0.075854264 0.06401937
0001a0 ec 91 b0 3e de d0 7d 3b 9a 5d 49 bc 5e 92 41 3e
       0.3448633 0.003872923 -0.012290383 0.18903491
0001b0 56 02 88 3e dc 13 66 3e bd 65 72 3e 38 b1 85 3e
       0.26564282 0.22468513 0.23671623 0.2611177
0001c0 33 4a 76 bd 5f 5d 41 be 03 1d bb be 74 f4 16 3e
       -0.060129356 -0.18883274 -0.36545572 0.14741689
0001d0 39 c1 69 be 20 40 e5 bc ff dd e5 bd 42 5d ee 3d
       -0.22827615 -0.027984679 -0.11223983 0.11638881
0001e0 89 1b f9 3c bd 47 1d be fb c2 b7 3d db 96 66 3e
       0.030408638 -0.15359397 0.089727364 0.22518484
0001f0 7d 7d 7c 3d 0a 19 0f be 71 90 36 3e 40 a1 04 3e
       0.061643112 -0.13974395 0.17828538 0.12952137
000200 a4 93 80 bd 50 47 5a bd 82 7b c5 bd db da b2 bd
       -0.0627816 -0.053290665 -0.09642698 -0.087331496
000210 b3 46 b6 3b 95 56 e9 bd dc 6e 40 3e ee fc ed 3d
       0.005562627 -0.11393467 0.1879229 0.11620508
000220 dc f4 b4 bd ce af e1 ba ff 2d a6 3a 29 b4 2a be
       -0.08835766 -0.0017218532 0.0012678503 -0.16670288
000230 d5 18 b5 3d 86 09 8a 3d a7 51 0f bd cd 3c ba bd
       0.08842627 0.06740098 -0.03498998 -0.09093628
000240 59 15 d2 3e af 51 21 be 40 05 15 3d f6 e7 da 3c
       0.41031912 -0.15753816 0.03638196 0.026721936
000250 0d 38 1b 3e f1 86 61 3e e3 e1 b1 3d 09 0b 0e 3e
       0.151581 0.22024132 0.086856626 0.13871397
000260 98 87 9a bd ed 7b 99 bd 6e 7f 0c be ec 13 ab 3e
       -0.07545394 -0.0749434 -0.13720486 0.33413637
000270 15 7c 6c be 64 8a 65 bd d1 e8 53 be 44 aa ec 3c
       -0.23094209 -0.056040183 -0.20694281 0.028889783
000280 a6 7b 79 be 0d 68 c2 3d 2d 5c 62 3e 27 99 57 bd
       -0.24363574 0.09492502 0.22105475 -0.05263629
000290 17 f0 32 be dc a6 a9 3d 59 7a 20 be 70 fa 1a 3f
       -0.174744 0.08283779 -0.15671672 0.6053839
0002a0 08 15 78 3e 9a 01 46 3e 6c dd 9d be 1a a1 e5 bd
       0.24226773 0.19336548 -0.30832994 -0.11212368
0002b0 3d 71 3d bc f4 76 98 bd aa 08 99 bc b2 0e ed bc
       -0.011562643 -0.074445635 -0.01868089 -0.028937671
0002c0 e8 0e ed bd f4 28 5a 3e 1e e7 24 be c9 04 81 3d
       -0.11575109 0.21304685 -0.16103789 0.06299741
0002d0 42 14 31 be 09 8b 16 3e 84 4c 09 be a3 36 c3 3d
       -0.17292884 0.14701475 -0.13408095 0.095319055
0002e0 8d 38 8d 3d 30 e9 3b 3d 6f 15 97 bd 1b 7e 56 3e
       0.06895552 0.04587668 -0.07377135 0.20946543
0002f0 68 ec b7 3e 49 36 e6 bd 72 38 21 be c7 d6 cb 3d
       0.3592255 -0.11240823 -0.15744188 0.09953075
000300 fb 9f 0b be 9b 44 a5 bd dd dc 23 3e 77 72 89 3e
       -0.13635246 -0.08069726 0.16002221 0.26845142
000310 d8 eb f3 bb 9b 45 16 3e bb 5e 3a 3e 43 ad 22 be
       -0.0074438863 0.1467499 0.182002 -0.15886407
000320 3f a1 99 3e e4 50 92 bd a1 fd 09 3e 57 a6 f8 3d
       0.30005834 -0.07144335 0.13475658 0.12141102
000330 98 00 0d be c8 75 89 3d 21 3e 3c 3e 42 27 a6 bd
       -0.13769758 0.06711918 0.18383075 -0.081129566
000340 66 2b 28 be 34 c6 3c bd 64 42 bf 3e 8d db 12 3e
       -0.16422805 -0.04608746 0.3735534 0.14341564
000350 91 d2 80 bd 8f 0f 98 3e 69 19 2e be 03 00 05 bd
       -0.06290162 0.2969937 -0.1700188 -0.032470714
000360 82 78 4a 3e 67 66 c6 bd 63 98 4a bd f4 37 2e 3e
       0.19772533 -0.096875004 -0.049461734 0.17013532
000370 03 f5 82 3e f8 19 16 3d a0 52 8a 3d b1 e9 00 bb
       0.25577554 0.03664586 0.06754041 -0.001967054
000380 b1 ef ba 3d 26 6b 2f 3e bf ef e0 3d 17 3c 43 3b
       0.09127749 0.17130718 0.10983228 0.0029790455
000390 73 b1 74 3d 09 58 0a be f5 9f 80 be db ce 74 3e
       0.05973954 -0.13510145 -0.25122038 0.23907034
0003a0 50 09 80 3e e7 46 c8 bc e1 ab 94 bc 5c 34 1e 3d
       0.25007105 -0.024447871 -0.018148364 0.038624153
0003b0 de 64 2d 3e c7 e0 99 bd 53 c5 ea bc 91 a5 f2 bc
       0.16933009 -0.07513576 -0.028658545 -0.029619964
0003c0 bc de a7 be 59 49 0d bc d3 57 e2 bd 5b 93 26 3d
       -0.3278712 -0.0086234445 -0.110519074 0.040667873
0003d0 0b 32 26 3e f1 fd 1e be 54 7f e0 bd 63 a0 48 be
       0.16230027 -0.15526558 -0.10961786 -0.19592433
0003e0 6b df 42 bd 1d 95 b3 3d 59 f3 8d 3d 87 09 bc 3d
       -0.04757635 0.087686755 0.069311805 0.09181505
0003f0 e5 f4 50 be c0 a6 5d 3d c7 3e 2a 3c a0 3a 8d bd
       -0.2040592 0.054114103 0.010390944 -0.068959475

network_body._body_endoder.seq_layers.0.bias f4 [256]
000000 ce 7a 97 3c c2 d8 41 bd d0 27 f2 3b 93 59 40 3d
       0.018491175 -0.047325857 0.00739 0.046960425
000010 48 a1 74 3d 53 0e 5a 3a e5 6b 1c bd ef bc 60 3c
       0.059724122 0.00083181745 -0.038188834 0.01371692
000020 f6 a0 89 3c 96 1a b0 bd c3 5d cc ba 4d b5 82 3c
       0.016800385 -0.08598821 -0.0015591908 0.015955592
000030 9c db 76 3b ee 24 1e 3c 5b 07 84 39 b0 f4 9e bc
       0.0037667518 0.009652359 0.00025182482 -0.019403785
000040 02 a6 05 3a 07 a5 be 3c d1 48 0a 3d f6 8d cd 3a
       0.00050982845 0.02327205 0.03376085 0.0015682566
000050 3b 12 93 ba 8c 08 0f ba 06 56 bf bc 4a 53 85 ba
       -0.0011220643 -0.00054562907 -0.023356449 -0.0010171917
000060 87 cd 0c bc bf 26 4e bc 7d 0d 42 3c e3 c7 87 bc
       -0.008593923 -0.01258248 0.011844036 -0.016574806
000070 82 2e 31 bc ac 3c 0e 3c 7b 65 7c bb 09 74 51 bd
       -0.010814311 0.0086814575 -0.0038512636 -0.05113605
000080 3a 98 30 bd 4a 88 15 ba bb a4 02 3d 12 db 5c ba
       -0.043113925 -0.00057042076 0.03189538 -0.0008424978
000090 c5 44 c1 bb 5e 52 c0 3c c1 f9 b6 bc 0c e5 97 3a
       -0.0058980905 0.023476776 -0.022335889 0.0011588647
0000a0 ae c6 11 bd ad 5a 38 bd 6e 12 db 3b df 35 34 3d
       -0.035589866 -0.04500835 0.0066855466 0.043996688
0000b0 77 65 3a 3c 9d 45 97 3c 9d 58 c0 bd 4d 1c 3c bd
       0.01137673 0.018465811 -0.09391902 -0.045925427
0000c0 65 60 77 bd 5c df 42 bc 45 90 45 3c df dd 07 bc
       -0.060394663 -0.011894073 0.012058322 -0.008292644
0000d0 f9 6d bc bc b8 83 ca 3c 4f a9 85 3d 78 0b ce bd
       -0.023001658 0.024721012 0.06526434 -0.10060781
0000e0 0e 6a 28 3d e0 cf f8 bc 5b 1d 0e 3d 54 86 17 3c
       0.041116767 -0.03037256 0.034695964 0.009248335
0000f0 bc c9 27 bd 4d 5d 91 bc 76 ad c4 39 37 e2 2f 3c
       -0.040963873 -0.017744685 0.00037513272 0.010735086
000100 42 b7 58 bc 44 20 43 3d 05 c5 b0 3b 6d 53 2e 3c
       -0.013227286 0.047638193 0.0053945803 0.010640007
000110 b0 89 3c bc d9 7e 0a bc 14 1c 56 3c a0 8e d4 3c
       -0.011507437 -0.008453094 0.013068218 0.025946915
000120 13 2e 17 bc e7 d7 97 bc 3f 41 ca 3c 6a 5e 5f 3d
       -0.009227294 -0.018535567 0.024689315 0.0545334
000130 f4 79 de bb 04 c4 34 3c bb f9 97 bd 3e 92 14 3c
       -0.0067894403 0.011033062 -0.07420679 0.00906807
000140 5e e9 f1 bc 4c 1f 75 bc f1 3e 20 bd 2f 3d 74 bc
       -0.029530223 -0.014961075 -0.039122526 -0.014907165
000150 f1 a8 fc 3c dc 36 cc 3c 63 a2 86 bc 6d 7a 4f bc
       0.030842276 0.024928503 -0.016434854 -0.012663466
000160 0d c1 63 bd f2 87 8b bb ea c3 6d bc 13 e6 a0 3c
       -0.05560403 -0.0042581493 -0.014512042 0.019640958
000170 3b b8 d7 bc 89 b1 36 bd 6f 6b 3a 3d 0d d7 94 3b
       -0.026332965 -0.044602904 0.045512613 0.0045422376
000180 b6 59 27 3b 9a ff 8b 3b 6b 64 cb 3c 2e 4e f5 bc
       0.002553565 0.0042724134 0.024828156 -0.029944506
000190 99 91 07 3c c0 06 fc 3c 0b 6a 37 bb 94 a2 03 3b
       0.008274459 0.030764937 -0.002798679 0.0020085918
0001a0 a4 c6 5d 3c 18 4d e8 3c 7d a1 2a bc 9f 5f 00 bd
       0.013536129 0.028357074 -0.010414478 -0.03134119
0001b0 9b be 2a 3c 4b 32 95 bc 51 db 80 bc f8 4f 7c bc
       0.01042142 -0.018212458 -0.015729578 -0.015399925
0001c0 16 2d 9f bc c9 7b a8 bd 65 35 bc bc 4d 3a bf 3c
       -0.019430678 -0.08226735 -0.02297468 0.02334323
0001d0 34 a6 81 bb 3e 53 27 bc 78 27 ea bb b0 55 68 bc
       -0.0039565805 -0.010212718 -0.0071458183 -0.014180586
0001e0 66 ac 45 3c 57 dc d8 bd 87 5d a7 3c d0 a9 d5 3c
       0.012065029 -0.105889015 0.02043034 0.02608195
0001f0 08 62 71 bc 70 24 00 bc cc b1 19 bb 06 4f 16 3b
       -0.014732845 -0.007821187 -0.0023451922 0.0022935285
000200 ff 3f e3 bc 14 50 9b bc ba 8e 98 3b a0 23 69 3b
       -0.027740477 -0.018959083 0.004655686 0.0035574213
000210 4f fd 8c bd 46 81 57 3d 4a 9d eb bb 3f 12 94 bc
       -0.06884252 0.05261352 -0.007190381 -0.018075107
000220 ba a0 30 3d 0e 03 5e 3d 78 d2 dc bc a5 5f ad bd
       0.04312203 0.054202132 -0.026955828 -0.08465508
000230 22 8a 0c bc d9 4d d5 bc 22 b7 fa 3c 15 3f db 3c
       -0.008577855 -0.026038097 0.030604903 0.026763478
000240 e3 36 76 bd ad 4e 60 bb cd 8d 20 bc 86 53 c2 3a
       -0.060110938 -0.0034226582 -0.009799433 0.0014825917
000250 7b 3c f7 39 f3 a0 92 3b 31 54 b0 bb d9 f6 82 3d
       0.00047156573 0.004474753 -0.00538113 0.06394739
000260 a8 1a e0 bc 21 d1 17 3d d9 73 53 3d e6 ab 36 3c
       -0.02735646 0.037064675 0.051624153 0.011149382
000270 40 68 95 bb b7 25 59 bc 6f ef dc bd e2 91 fb 3b
       -0.0045595467 -0.013253621 -0.10787856 0.0076773027
000280 37 76 fc 3b a2 91 4c 3c 2c e6 c5 bc a1 f5 49 3a
       0.007704522 0.012485893 -0.024157606 0.0007704143
000290 c7 68 cd bc af 93 1e 3d 5e 57 93 bd 46 2f 22 3c
       -0.025074376 0.03871506 -0.07194398 0.009898966
0002a0 0e d8 8c 3a 0a 74 3b bb 62 5c 66 bb 48 29 c4 ba
       0.0010745542 -0.00286031 -0.003515028 -0.0014965916
0002b0 e1 8d 10 bd cb c4 28 3c 5a 50 e6 3c 1a c6 c0 bc
       -0.035291556 0.010300825 0.028114486 -0.023531962
0002c0 d8 21 e4 3c b3 e2 cf bc 46 ae 1c 3c fc d4 9d 3b
       0.02784817 -0.025376653 0.009563034 0.0048166495
0002d0 83 05 ea bb d8 78 c5 3c b5 7c 09 3d 56 e6 4d 3b
       -0.0071417703 0.024105474 0.033566196 0.0031417808
0002e0 75 d1 69 bd d6 8c 63 3d 9d 7d a7 3a 12 35 2b bd
       -0.05708452 0.055554233 0.0012778525 -0.04179866
0002f0 91 b6 d0 3c 13 05 a8 bc 25 8e 20 ba a6 5c 4a bc
       0.02547768 -0.020510232 -0.0006124697 -0.012351191
000300 e0 fe 5d bc e8 4f aa 3a 0a 82 d9 bc d3 ec 34 3d
       -0.0135495365 0.0012993785 -0.026551265 0.044171166
000310 35 71 08 bd 44 05 e9 3b c1 84 be 3b 92 40 e6 3c
       -0.033311088 0.0071112234 0.0058141653 0.028106961
000320 ee 99 86 bc 7d e8 18 bd ad c7 88 bc 11 c8 3f 3c
       -0.016430821 -0.037331093 -0.016696775 0.011705414
000330 0a c7 5e bc 9a 0b 3b bd fc ed ba bc 1a f2 0b bc
       -0.013597259 -0.04566536 -0.022818558 -0.008541608
000340 13 b5 f3 3c 7e 48 87 3b 40 fd c7 bc 5d 83 36 bd
       0.029749429 0.004128515 -0.024412751 -0.04455887
000350 f0 6e 1c bd 6c 8d 02 bd 8c 63 1e 3d d7 b4 9c bb
       -0.038191736 -0.03187315 0.038669154 -0.0047823
000360 9c 0f a7 bc 4d c4 8c 3c 2b 10 8c 3c ae df 20 bc
       -0.020393185 0.017183447 0.017097553 -0.009818954
000370 3f 17 91 3c 08 9d 2d 3b 01 03 14 3c 96 79 f8 bc
       0.01771128 0.0026491303 0.009033919 -0.030331414
000380 70 01 e0 bc 32 4a c7 bc e5 da d1 bc a4 83 99 3b
       -0.027344435 -0.024327371 -0.025617072 0.0046848822
000390 95 c1 95 bc 52 8d a0 bc fb ac 34 ba a0 c6 00 bc
       -0.018280784 -0.019598637 -0.0006892231 -0.007859856
0003a0 0c 9b 24 bb d7 0b bc 3c dc bd f1 bb 3d 03 87 bd
       -0.002511683 0.022954864 -0.0073773693 -0.065924145
0003b0 0f d2 92 3b 55 c1 0d bd 53 95 01 3d 5a 08 ff 39
       0.0044806073 -0.034608204 0.031636547 0.00048643613
0003c0 0a a8 bf bc 99 e4 d8 bb 4b 55 a1 bc 33 ad 84 3c
       -0.023395557 -0.006619048 -0.019693991 0.01619587
0003d0 3c c1 d6 bc d1 f4 f2 bb 32 a7 54 bc 01 23 13 3d
       -0.026215188 -0.0074144383 -0.012979316 0.035922054
0003e0 24 b4 d3 3c 23 a1 e8 3c bd 1f 0d 3c 1c 1d a2 3b
       0.025842734 0.028397148 0.008613524 0.0049473178
0003f0 6e cc 7d bc 1b 85 b0 3c 0a 41 8c 3c 2c 2e d3 3c
       -0.015490634 0.021547845 0.017120857 0.025778852

network_body._body_endoder.seq_layers.2.weight f4 [256, 256]
000000 0f df e8 bd bd e7 9f bb c7 95 ad 3b 44 f9 b6 3d
       -0.1137067 -0.0048799203 0.005297396 0.089342624
000010 b8 0e ef bc 57 ce 10 3c 86 62 b8 bd a7 56 9a 3c
       -0.029181823 0.008838258 -0.09003167 0.018840147
000020 cd c7 20 3c c3 ac 83 3d 3d b4 a9 bc b7 3b e9 bc
       0.009813261 0.06429436 -0.020715827 -0.028470857
000030 76 ea d2 bd 62 78 3f 3c eb 2d 09 bd a4 0f 4e 3d
       -0.10298626 0.011686416 -0.033491056 0.050307885
000040 80 27 7a bd 35 19 95 3d ad cb 8c 3d ba 66 a5 3d
       -0.061072826 0.072801985 0.068747856 0.08076234
000050 05 a4 4b bd c8 a3 0a bd cf ef 56 3d 11 4c 20 3c
       -0.049716968 -0.0338476 0.052474793 0.009783761
000060 5d 3e ad bd e5 d5 67 bd 25 e7 d5 bc 71 b3 3b 3d
       -0.084591605 -0.05660047 -0.026111195 0.045825426
000070 2a b3 1a bc f1 df ae bd e7 ae 7f bd e0 0b 79 bd
       -0.00944213 -0.08538807 -0.06242266 -0.06080234
000080 da 19 fc bd 15 c2 e0 bd e7 82 44 bd b5 85 d0 3d
       -0.12309618 -0.10974518 -0.0479764 0.101817526
000090 4e ff 8b bd 34 0a c9 3d cf 9c 96 bd 3c fd 2d 3d
       -0.06835805 0.09816399 -0.073541276 0.04247783
0000a0 94 2a 05 bc 23 51 a4 3c 8e fa ac 3c ae 27 3d 3d
       -0.008127827 0.02005822 0.021115568 0.04618042
0000b0 0d 80 86 bc 93 51 82 bd 57 cb ad ba 7e 0b 99 3d
       -0.016418481 -0.06363215 -0.0013259453 0.07472895
0000c0 b8 c3 a2 3d 7f 37 00 bd 91 c5 40 bd d1 6b 7d bd
       0.07947487 -0.031302925 -0.047063414 -0.0618704
0000d0 d4 a7 70 ba 18 49 1e bd d2 6a 8e 3d 3f 06 fc ba
       -0.0009180282 -0.038643926 0.06953968 -0.0019227936
0000e0 38 9f 3f bd 6e 99 ea bc ab f1 d3 3d fb 85 30 be
       -0.046782702 -0.028637614 0.10348829 -0.1723861
0000f0 21 0a 3a 3b de ff 9d bd 9a 6e 7b 3c 20 77 e8 bd
       0.0028387385 -0.077148184 0.015346194 -0.11350846
000100 43 64 3c bd 01 72 9d 3d ad 0f 24 bb 4c 8c 7d 3d
       -0.045994055 0.0768776 -0.0025033758 0.061901376
000110 ef 64 78 bd 32 c5 98 3d 10 9c b7 3d 18 5f ab bd
       -0.060643133 0.07459487 0.089653134 -0.08367747
000120 b0 9a d1 bd 0e 13 b5 3a 2a 76 e6 bd 34 07 71 bc
       -0.102345824 0.0013814883 -0.11253007 -0.01471119
000130 7d 21 09 be 67 04 35 bd 7d b2 18 3e b5 9f 96 bc
       -0.13391681 -0.04419365 0.14911838 -0.018386701
000140 ca 4d 17 bc bd 98 c0 bd 17 27 04 3c 50 30 6f bd
       -0.009234855 -0.094041325 0.00806596 -0.058395684
000150 76 ce 37 b9 ec 80 00 3e 01 e9 aa bd d4 c4 dc bb
       -0.00017529153 0.1254918 -0.08345223 -0.006737331
000160 a9 ef 77 b7 b9 83 76 3c d7 02 bd 3b 32 b5 9c bc
       -1.47781475e-05 0.015046054 0.005768161 -0.01912937
000170 79 29 5f bc 3e 0b 89 3c d2 19 c2 3d d5 10 65 bc
       -0.013620728 0.016728994 0.09477581 -0.013981064
000180 91 05 09 bd 0a b0 3c 3d 97 00 d2 3c 07 92 ef 3d
       -0.033452574 0.04606632 0.025635047 0.116977744
000190 56 5b 6a 3c 95 46 3c 3c b8 6e b2 3b dc 5c d6 3c
       0.014304003 0.011491437 0.0054453276 0.026167326
0001a0 a7 0b 0f 3b ab 70 b1 bc 71 3c 98 bc f3 1c a7 bd
       0.0021827014 -0.02166017 -0.018583508 -0.081598185
0001b0 4c 26 79 bd d6 15 96 bd f8 11 c4 bc 1a ef 8a bd
       -0.06082754 -0.073283836 -0.02393435 -0.06783886
0001c0 f1 76 07 be 7d 15 7a 3d df 33 c1 bd 3c 4c e3 bd
       -0.13228966 0.06105565 -0.09433722 -0.11098525
0001d0 68 88 1f bd 90 91 bb bd 62 22 29 bb b0 e9 40 bb
       -0.038948447 -0.09158623 -0.0025807847 -0.0029436164
0001e0 f1 b4 8f 3a 8a 3c f5 3c 35 56 d9 bb 33 3b a0 3c
       0.0010963959 0.029936094 -0.006632591 0.019559478
0001f0 ba d9 68 3d 4c 41 ac bc 3a 11 07 bd 63 0c 03 be
       0.056848265 -0.02102723 -0.032975413 -0.12797694
000200 9b 40 9d bc 16 6f 2a 3d d3 11 a2 bb 9e 61 34 3b
       -0.019195845 0.041609846 -0.0049459725 0.0027524005
000210 76 b5 27 3d dc c6 1f 3d 53 da cf 3c ab bd fe bd
       0.04094454 0.039008006 0.02537266 -0.1243852
000220 d2 ee d4 3d 01 11 0b 3d 00 fe 2d bd 15 65 59 3d
       0.10397114 0.033951763 -0.04247856 0.053074915
000230 1a 58 b0 3d d8 c5 c1 bd c0 4c 96 3d a4 43 ad 3d
       0.08610554 -0.09461564 0.07338858 0.08460167
000240 e3 5d 4e 3d d9 87 55 bd 7f 37 46 bd 1d 5b 3b 3d
       0.050382506 -0.052131508 -0.04839277 0.04574119
000250 f3 3e d0 3c db 94 10 3d 4e a4 04 be 79 d2 15 bb
       0.025420642 0.03529821 -0.12953302 -0.0022861047
000260 13 db cf bd f4 f1 6b bd e8 95 84 bd a1 62 b6 3c
       -0.10149207 -0.05760379 -0.06473905 0.022263827
000270 a6 34 64 3b aa 41 48 bd 9a b6 8d 3d 8c 31 5f 3d
       0.003482142 -0.048890747 0.06919594 0.05449061
000280 e9 e0 b0 3c 2e d6 cc bd 80 67 4f bd ce c5 1d bd
       0.02159162 -0.10001789 -0.050635815 -0.03851872
000290 ab 19 04 be f0 ed 4f bd 3f 45 e9 bb a1 97 f6 3c
       -0.12900417 -0.050764024 -0.0071188505 0.0301016
0002a0 0b 63 6e 3d c2 86 b1 bd 6e df 0c be 15 11 8d bd
       0.058199923 -0.08668281 -0.13757107 -0.06888024
0002b0 4a 56 94 3d e9 c8 b6 3d c7 fa 3b bd 28 0f 7d 3d
       0.07243021 0.08925039 -0.045893457 0.061782032
0002c0 9d 4c 7a bd 17 86 a8 bd f9 18 3f 3d 9b 51 18 bd
       -0.06110822 -0.082287006 0.046654675 -0.0371872
0002d0 4f 3d 1c bd f5 b0 0d 3d de bf f6 bc 8b 94 f8 3c
       -0.038144406 0.034592588 -0.030120786 0.030344268
0002e0 29 fb 59 3c a4 ee 3d 3d 0e 6e eb 3d 06 ac 4f 3c
       0.01330451 0.046370164 0.11495601 0.012675291
0002f0 9e 73 26 3d e9 ab d9 bb cb 5e 97 bc 56 b2 db bd
       0.040637605 -0.0066428077 -0.018477818 -0.10727374
000300 33 d1 4a be f6 f7 73 bb 47 b0 19 be c3 fe 86 3d
       -0.19806366 -0.0037226654 -0.1500865 0.06591561
000310 3b 36 93 bc c2 20 a9 bd d0 2c bc bc 6b dc 09 3d
       -0.017970195 -0.08258201 -0.022970587 0.033657473
000320 b9 50 1e be 80 18 2e 3d 2e 9e 45 bc ca 4f 99 3d
       -0.15460481 0.042503834 -0.012061639 0.07485922
000330 05 ed d8 bc ae a4 64 bd b6 70 ab bd 2d a6 b0 bd
       -0.026480207 -0.055821113 -0.08371107 -0.086254455
000340 ea 81 af b9 56 34 16 3d 68 46 9a 3b bd 9a 5f bd
       -0.00033475395 0.036671005 0.0047081 -0.05459093
000350 43 f6 d5 bd 33 42 e6 bd 3b c7 ac 3c 11 b7 87 3c
       -0.10447361 -0.11243095 0.021091094 0.016566785
000360 5e 73 44 bd 62 dd 80 bd 63 78 a4 3d eb f3 a1 bd
       -0.047961585 -0.062922254 0.080307744 -0.07907852
000370 cc 08 d5 3b c3 4a a7 bd ad 9a b7 bc 23 fc ce bd
       0.006501293 -0.081685565 -0.022412622 -0.10106685
000380 ea 4c 13 bd 1b 5e 2c 3c 6e cf 27 be f4 b9 de 3d
       -0.035962023 0.010520483 -0.16387722 0.108753115
000390 e8 d3 ba bd d9 75 39 3d 08 94 f2 bc 20 75 94 bd
       -0.09122449 0.045278404 -0.029611602 -0.07248902
0003a0 dc e2 ab 3d 19 a5 95 bd aa a4 09 bd b6 e4 1c bd
       0.08392879 -0.073068805 -0.0336043 -0.038304053
0003b0 7c 3b 17 be 9e 42 32 be a9 e1 6a bc b1 3f 50 ba
       -0.14768785 -0.17408225 -0.014336028 -0.0007944061
0003c0 ec 1e 9a 3d fa b0 29 3b cb ef 80 bd 88 77 b4 bc
       0.07525429 0.002589284 -0.06295737 -0.022029653
0003d0 e2 28 e5 bd b2 eb b7 bd 3c 33 67 3d d0 2b 8b 3c
       -0.111894384 -0.08980502 0.056445345 0.016988665
0003e0 5b 8c 98 3d e5 47 24 3a ef 47 8e bd 9e 63 22 bc
       0.07448646 0.00062668166 -0.06947314 -0.009911446
0003f0 5d f7 3b bd 8a a4 a0 bc 2f 4f d4 bd 54 1d 57 3d
       -0.0458902 -0.019609708 -0.103666656 0.052518204

network_body._body_endoder.seq_layers.2.bias f4 [256]
000000 47 20 19 bd 3a f9 48 bc 7e 7c 1d bd c9 11 d3 bc
       -0.037384298 -0.0122664515 -0.038448803 -0.025765317
000010 4b ef 4a bd 0d 2c f8 3b 1e b4 cd 3c 89 d6 32 bc
       -0.049544614 0.0075736106 0.0251103 -0.010915407
000020 50 54 8c ba 98 c0 6c 3a 04 8e 8e ba d1 67 54 3c
       -0.001070628 0.0009031384 -0.0010876064 0.012964205
000030 ba 99 c5 3c 2b a5 5c bd 95 33 d0 3c 2f fd cc 3b
       0.024121154 -0.053868454 0.025415221 0.006255768
000040 36 ce ba bc 71 2b a6 bc 44 2c 61 3b ad 31 ae 3b
       -0.022803407 -0.020284386 0.003435866 0.0053159804
000050 91 bd 43 bc f1 09 c2 bb f0 9d ad bc 8f 6f 03 bd
       -0.011947052 -0.0059215953 -0.021193475 -0.032088812
000060 4c e8 8c 3c 4f 9b 9d 3c 37 96 0a bd 29 85 cd bc
       0.017200612 0.019239096 -0.033834662 -0.02508791
000070 5c 6b d1 b9 63 fb 43 bc 87 1f 14 bd 64 b5 33 bc
       -0.00039943575 -0.011961791 -0.03616288 -0.01096854
000080 6a 92 16 bc a6 49 73 bd ea 72 f3 bb 6b 7e 74 bc
       -0.009190181 -0.05939641 -0.0074294703 -0.0149227185
000090 f3 68 5b bd 2b 7f 5c bb 06 84 12 3c aa f7 b3 ba
       -0.053566884 -0.0033645134 0.00894261 -0.0013730426
0000a0 57 41 14 bd 80 e8 7b bc ef eb c7 3c d1 02 45 3c
       -0.036195125 -0.015375257 0.024404494 0.012024597
0000b0 64 2d e1 bb 49 6a 2e 3d e2 4f ec bc 2e 04 a9 3a
       -0.006871866 0.04258183 -0.028846685 0.0012894922
0000c0 c4 0c 86 bd bf 0f 7d bc ec a9 df 3c 13 89 48 bd
       -0.065454036 -0.015445649 0.027302705 -0.04895885
0000d0 f2 20 00 bd 30 44 66 bb 82 cc c2 bb ce f9 00 3d
       -0.03128142 -0.0035135858 -0.0059447894 0.031488232
0000e0 a9 66 15 bd 6f 93 fe bb e3 13 62 39 6f aa 3a 3c
       -0.036474857 -0.0077690403 0.00021560448 0.011393174
0000f0 8c 2f 63 3a 47 f0 8f 3b 97 84 ae bc 49 b3 04 3c
       0.0008666448 0.004392657 -0.021303458 0.008099386
000100 68 6f 0d 3c c1 0f 42 bd 11 8b 56 bd eb bd 4b bc
       0.008632518 -0.047378305 -0.052378718 -0.012435417
000110 10 78 00 3d 86 9f 2f 3c 76 c6 4f bd 08 13 e9 bc
       0.0313645 0.010719186 -0.050726376 -0.028451458
000120 b9 fc 31 bd 44 bd 50 3c 49 f7 09 bc 63 84 36 bd
       -0.043453906 0.012740437 -0.008420774 -0.044559848
000130 47 32 01 bd b1 e5 45 bd fb 1a 54 bc 88 2f b0 3a
       -0.03154209 -0.048314754 -0.012945886 0.00134419
000140 3d 4b 0d 3d f9 80 ad bc 78 f5 6f bb a3 c2 21 bd
       0.03449558 -0.021179663 -0.0036614817 -0.03949226
000150 51 09 16 bd 62 e8 e2 bc a5 03 d6 3b fb e9 2a 3b
       -0.03662998 -0.0276987 0.006531196 0.0026079405
000160 31 76 3f 3c 41 f7 ea 3c cd 54 43 bd 65 8e ee bb
       0.011685894 0.028682353 -0.047688294 -0.0072801583
000170 a8 c5 a5 bc de 29 b7 3b aa 09 c1 39 d9 31 de bc
       -0.020235851 0.0055897078 0.0003681903 -0.027123379
000180 a4 17 c1 bc 18 93 08 bd 31 0b d8 bc b4 07 31 bd
       -0.023570843 -0.033343405 -0.026372524 -0.043220237
000190 6f 4a b1 3c c3 7b 10 3b e3 cf ce bc 3f 64 45 bb
       0.021641938 0.0022046424 -0.025245612 -0.0030119566
0001a0 8d fe 91 bc 2d a4 fe 3b 29 13 a4 bc 49 4d d7 bc
       -0.017821575 0.007771036 -0.020028668 -0.02628197
0001b0 14 d6 75 bc b6 91 33 3d b8 cc 98 bb 76 21 87 bc
       -0.0150046535 0.043840133 -0.0046630763 -0.016495448
0001c0 a7 62 bc 3b 47 25 2b bd f7 1b f7 bb b7 a1 14 bd
       0.005749065 -0.041783597 -0.0075411755 -0.036287036
0001d0 15 6c 83 bd b3 07 84 3c 80 2e 7d bc 3b 65 86 3c
       -0.064170994 0.016116953 -0.015452981 0.016405692
0001e0 8c fa 8d 3c 08 b4 e8 3c b5 af 48 bd 6d 9b c1 3a
       0.017331384 0.028406158 -0.048995692 0.0014771052
0001f0 72 ab 15 3d 0d a1 6d bc 54 ba 54 bd d1 22 75 3b
       0.036540456 -0.0145037295 -0.05193551 0.0037404785
000200 02 14 6a bd 4f 02 b9 bc cf 7b 97 bb 35 f2 df 3c
       -0.057147987 -0.022584109 -0.0046229134 0.027337173
000210 ad 38 f3 3c 56 09 08 bc 2a c1 9c bc 2a 9b 95 bb
       0.029690111 -0.008303007 -0.019135077 -0.004565616
000220 87 34 32 bb 95 e4 34 bd 74 45 08 bd 27 31 ec bb
       -0.0027191953 -0.044163305 -0.03326936 -0.007208008
000230 59 62 a0 bc 42 48 3d 3d 8e 44 f8 bc 10 14 18 bc
       -0.019578146 0.04621149 -0.030306127 -0.009282127
000240 39 b9 61 bd e9 02 16 bb a1 6e 7e bb d8 37 91 bc
       -0.055108283 -0.0022889918 -0.0038823264 -0.017726824
000250 06 ed d6 3c 2b 46 f7 bb 6b 65 62 3c b4 fd 2a 3b
       0.026236068 -0.0075462065 0.013818125 0.002609116
000260 f7 51 c6 3b fe 8a 66 3c 09 0f 90 bc d2 7e 20 bd
       0.0060522514 0.014071224 -0.017585294 -0.039183445
000270 7d a8 14 bd 12 6a 0a bd 63 5f 22 bd c2 27 1d bd
       -0.036293495 -0.033792563 -0.03964175 -0.038367994
000280 50 81 9f 3b d2 15 20 3c 91 77 85 3c ce cf 2c bd
       0.00486771 0.009770827 0.016292365 -0.042190365
000290 05 c5 2d bd 05 73 33 bd c3 df ce 3c 46 78 7c bd
       -0.04242422 -0.043810863 0.025253182 -0.06163814
0002a0 04 06 52 3c 08 68 c6 ba 2c ad a6 bc 26 93 2c 3c
       0.012818817 -0.0015137205 -0.020346247 0.01053313
0002b0 fd f4 f8 bc bf 17 97 3c 65 20 8c bc c8 8c aa bc
       -0.030390257 0.01844394 -0.01710529 -0.020819083
0002c0 99 60 ee bc bf ab 1f bb 6f cc 1f bd 97 2d e8 ba
       -0.029098796 -0.0024363843 -0.039013322 -0.0017713782
0002d0 ce a4 82 bc 7c ae cf bc fb bc 48 bc ab 0d 0e 3b
       -0.015947726 -0.025351755 -0.012252088 0.0021675627
0002e0 2d db 0c bd 10 8a b0 3c 23 fd 68 bd 83 41 64 bd
       -0.03438871 0.021550208 -0.056882035 -0.05572654
0002f0 bd e7 bf 3c 59 e8 4e bc 91 af 1d bc 00 19 17 bb
       0.023425931 -0.012628638 -0.009624378 -0.0023055673
000300 66 91 b8 3b 33 e0 5e bc e2 e1 2d bc ef a0 01 3c
       0.005632567 -0.013603258 -0.010612937 0.007911905
000310 99 66 0f bd 75 9a a2 3c b5 3d 2f bb 0a 75 8b bb
       -0.035009954 0.019849041 -0.002673966 -0.0042558955
000320 0f d6 80 3c e6 97 3c bc 1b 0e 89 3c 7e f4 42 bd
       0.015727071 -0.011510825 0.016730359 -0.047596447
000330 75 4c 20 bc 39 aa 54 3c 4c 37 53 bd 96 d6 ed 3c
       -0.009783854 0.012980037 -0.051566407 0.029032987
000340 78 c2 aa bc c2 12 e8 bc 24 9e bc 3c 4a 24 3e bd
       -0.020844683 -0.028329257 0.023024626 -0.046421327
000350 44 a2 b3 bc 92 bb 34 3b 32 c9 83 3c d1 d7 90 bb
       -0.02192796 0.002757762 0.016087148 -0.0044202586
000360 b0 d3 e3 bc 86 a2 5c bc 9e 12 aa 3b 65 ec 24 bd
       -0.027810901 -0.013466483 0.0051902076 -0.040264506
000370 78 04 3c bd 3b 14 9c bc ec df 36 bd 7f f7 c4 3c
       -0.0459027 -0.019052615 -0.044647142 0.024043797
000380 57 22 d5 bc 8b 9f 2d bd 6b 56 fc bc 33 ac 11 bb
       -0.026017351 -0.04238848 -0.030802926 -0.0022227883
000390 56 bd 26 bd e4 68 bf 3c ec ca 1e bd ba 27 1d bc
       -0.04070791 0.023365445 -0.03876774 -0.009591991
0003a0 75 86 82 bc 8b ef 35 3b f1 71 3c bd 97 57 15 3c
       -0.015933255 0.0027761187 -0.0460071 0.009115121
0003b0 29 97 0e 3c 98 4a 5b bc 9a 9c 91 3a 62 07 4e bd
       0.008703032 -0.013384484 0.0011109293 -0.05030001
0003c0 f6 7d 5c bc 7b 99 5a ba 09 e4 90 bc d1 68 aa 3b
       -0.013457766 -0.00083389104 -0.01768686 0.0052004834
0003d0 62 1f 78 3c 6f 14 bb 3c 47 7e 54 bb d4 44 20 bd
       0.015144201 0.022836892 -0.00324239 -0.03912814
0003e0 48 a2 2e bd ad 66 26 3c 28 f1 00 3c cd 15 de 3c
       -0.042635232 0.010156316 0.007869996 0.027110005
0003f0 90 3a 4e bd f1 a6 ee 3c 40 d6 6d bc ca ee 56 bd
       -0.05034882 0.029132338 -0.014516413 -0.05247382

action_model._discrete_distribution.branches.0.weight f4 [3, 256]
000000 53 d9 5a 3d 08 7a 05 3c 39 4d a5 3c d8 4f 3f 3d
       0.053429913 0.00814677 0.020178424 0.046707004
000010 11 25 83 3d 00 36 15 bc f7 0a a3 bc ca 12 41 bc
       0.06403554 -0.009107113 -0.01990269 -0.011784265
000020 8f 08 8a 3b 50 43 18 3d 47 db 96 bb b1 2b cb bc
       0.004212446 0.03717357 -0.0046037766 -0.024801107
000030 30 40 fa bc 9c e1 73 3d 48 cd 18 bd f1 68 99 bb
       -0.030548185 0.05954133 -0.037305146 -0.0046816994
000040 ae bf 2d 3c 47 88 8a 3d ac 8b b2 bc 1d cc 04 bd
       0.010604782 0.06764274 -0.021795116 -0.03242122
000050 e2 e3 76 3b d6 e2 2c bc c2 f6 78 3d ef e6 1e 3d
       0.003767245 -0.010552129 0.0607822 0.038794454
000060 3f 02 cd bc 4c 4f 94 bb e7 ff 10 3d b0 aa a9 3d
       -0.025025485 -0.0045260545 0.035400297 0.08284509
000070 82 88 ab bc fc 41 eb 3c 64 a4 0c 3d 39 bf cb b9
       -0.020939115 0.028717987 0.034336463 -0.0003886165
000080 53 99 31 3d 4f 8e 81 3d 92 0a 2a 3c 4f c5 55 3c
       0.043359112 0.06325971 0.010378497 0.01304753
000090 ab bb 6e 3d 6b 3a c1 3c 03 18 48 bc ad 06 cb 38
       0.058284443 0.023587426 -0.012212756 9.681038e-05
0000a0 3a 1c 74 3d 75 3b 69 3d e8 a5 c0 bc 55 9d f4 3b
       0.05959723 0.05694147 -0.02351661 0.0074650445
0000b0 a7 da e5 3c bd 50 3d bc 13 46 40 3d f5 c3 6a bc
       0.028058363 -0.011554894 0.046941828 -0.014328946
0000c0 e0 ed 58 3d 81 c8 3d 3c d7 a5 c2 bc 01 4d 61 3d
       0.05296123 0.011583448 -0.02376072 0.055005077
0000d0 98 9f 7a 3d f2 89 fa 3c 82 a0 d5 3b 5c 58 9e bc
       0.061187357 0.030583356 0.006519378 -0.019329242
0000e0 04 86 87 3d 13 b7 83 bc b6 56 73 bc ad f4 12 b9
       0.06617358 -0.016078508 -0.0148522165 -0.00014014794
0000f0 d4 5c f7 ba f9 fc c9 bc 11 13 1e 3d 03 76 09 3c
       -0.001887227 -0.02465676 0.038592402 0.008389953
000100 04 8e 88 3b ed f5 62 3d 3d b1 83 3d 6c 4e 59 3b
       0.00416732 0.055410314 0.0643029 0.0033158315
000110 43 02 f3 3c 71 53 e8 bc fc 84 84 3d d1 3b e9 3c
       0.029664164 -0.0283601 0.06470677 0.028470905
000120 b1 b1 7a 3d 20 a9 af bc be 95 43 3c a3 07 85 3d
       0.061204616 -0.02144295 0.011937557 0.06495597
000130 d2 6a 8c 3d 99 ca 88 3d 7f 62 15 3d 07 7f af bc
       0.06856312 0.066792674 0.036470886 -0.021422876
000140 0b 0c f4 bc cd 6e 65 3c 30 cd 48 3b 34 2f 84 3d
       -0.029790899 0.014003468 0.003063988 0.06454316
000150 58 68 55 3d 84 96 d1 3c 18 ef 13 bd c9 46 38 bc
       0.052101463 0.025584467 -0.03611669 -0.011247345
000160 bc 90 18 bc ab 39 da bc 49 99 28 3d a5 57 72 3c
       -0.009311851 -0.026638826 0.04116181 0.014791404
000170 a1 41 3a 3d bc f9 3c bd ca 43 04 bc 24 86 85 3c
       0.045472745 -0.046136603 -0.008072803 0.016299315
000180 86 22 c0 3c 2b a1 3c 3d 22 56 3a 3d a2 6e 76 3d
       0.023453962 0.04605214 0.0454923 0.0601641
000190 75 54 11 bd 5b e1 eb 3b 75 3f 6d 3c e0 2f c9 3c
       -0.035480935 0.0071984953 0.014480461 0.024558961
0001a0 0d 53 15 3d fd fa 5b bb c5 6d 7e 3b cd b0 b5 3c
       0.036456157 -0.0033566349 0.0038822752 0.022179032
0001b0 c8 8b ba 3c 8c ea 23 bd 49 42 a2 bb 54 96 88 3c
       0.022771731 -0.040018603 -0.0049517495 0.016673245
0001c0 4d e1 ca 3c 0d f6 4c 3d 56 f1 80 3c b0 ab 60 3d
       0.024765635 0.05003934 0.015740078 0.054851234
0001d0 6e 74 8e 3d 6b 05 ba bb 4d 1b ac bb 7c 4f f8 ba
       0.06955801 -0.0056769154 -0.005252278 -0.0018944587
0001e0 b6 3a e0 bc f7 d5 22 bd 89 d9 85 3d f8 3d f0 b9
       -0.027371746 -0.039754834 0.06535632 -0.00045822538
0001f0 0a 54 1f ba 02 6f 2a bc 65 13 77 3d 06 ec ec bb
       -0.00060778914 -0.010402443 0.06032123 -0.0072302846
000200 9b a6 25 3d b4 75 22 3c 40 b4 6d 3c 6e a8 15 bd
       0.04044209 0.009915758 0.014508307 -0.03653758
000210 bb 82 a3 bc 8d 60 d0 3c 72 45 0f 3d f2 44 5c 3b
       -0.019959798 0.025436664 0.034978338 0.003361043
000220 f9 ef 92 bc 91 aa 8d 3d de 71 d2 3c ac fe 22 3d
       -0.017936694 0.069172986 0.025689062 0.039793655
000230 29 e1 a7 3a 6f e7 d9 bb 69 a1 81 3d f5 63 f4 ba
       0.0012808192 -0.0066499035 0.06329615 -0.0018645512
000240 34 a2 5d 3d 76 c7 a6 3c f1 26 0d 3c 7e 91 c5 3c
       0.054109767 0.020358782 0.008615241 0.024117228
000250 81 23 cb bc 1a 20 84 3c 3b 0b 17 bc 2a 82 6c 3c
       -0.024797203 0.016128588 -0.009218986 0.01443533
000260 1e 3a c0 3c 22 16 52 bc aa 8d 5a bb 6a 1a 02 3d
       0.023465212 -0.01282266 -0.0033348599 0.03176347
000270 2b c0 49 3d 11 7f c7 3c 25 50 55 3d 50 a2 62 3d
       0.04925553 0.024352582 0.052078385 0.055330575
000280 01 31 ce bb 03 8a 1d bd e0 99 16 bd 6c 9b 89 3d
       -0.006292463 -0.038461696 -0.03676784 0.067190975
000290 46 3c 23 3d f2 a3 82 3d b2 4f 1b bd 91 48 75 3d
       0.039852403 0.06378926 -0.0379178 0.059883658
0002a0 e5 cd 18 bc ee 7b 2e bb b2 59 4d 3d c4 5c 1b bc
       -0.009326433 -0.002662416 0.05013437 -0.009482566
0002b0 09 f3 e5 3b 7a 99 ea bc 16 c9 02 3d 3a 19 04 3d
       0.0070174974 -0.028637636 0.03193005 0.03225062
0002c0 48 21 34 3d d9 45 03 bb fb 8e 9c 3d 04 c1 89 3c
       0.043977052 -0.0020030646 0.07644459 0.01681567
0002d0 a7 ee 8c 3c 43 a9 8c 3d 24 ea 08 3c 76 26 a1 3c
       0.017203642 0.068682216 0.008356605 0.01967166
0002e0 08 1b 14 3d 70 3e ef bc c1 5b 8f 3d f8 04 ae 3c
       0.03615859 -0.029204577 0.069999225 0.021242604
0002f0 ec 49 47 bc 4e 20 cf bb 6a 14 11 bc 92 1d 80 bc
       -0.01216362 -0.0063209897 -0.008854965 -0.0156391
000300 08 e7 14 3d e9 1f 01 3d 12 d0 11 3c a2 c8 cf b9
       0.03635314 0.031524573 0.0088997055 -0.000396316
000310 52 9c 68 3d eb 8a 08 3b 07 14 06 bd 57 83 d5 3c
       0.056789704 0.0020834755 -0.032733943 0.026063604
000320 7f 53 7b bc 20 70 03 3c 21 71 17 bd 2b 70 5a 3d
       -0.015339731 0.008022338 -0.036973123 0.053329628
000330 d3 21 8d bb 16 42 ca bc 85 ce 79 3d 3d 42 0e bd
       -0.0043070107 -0.024689715 0.060987968 -0.03473114
000340 52 71 2a bb ff ef 8e 3d 12 53 ba bc 11 44 08 3d
       -0.0026007486 0.06979369 -0.02274469 0.03326804
000350 31 3a e1 bb ac 45 90 3c f2 99 97 bc 4a b7 f7 3b
       -0.006873392 0.017611347 -0.018506024 0.0075596916
000360 6c a3 5d 3d 09 cc af ba 74 95 8d 3c b4 7d 7f 3d
       0.05411093 -0.0013412248 0.017283179 0.06237574
000370 ed ff 72 3d 7c fe 5d 3d 95 ae 80 3d 49 00 b8 bc
       0.0593261 0.054197773 0.06283299 -0.022461073
000380 91 c6 b9 bb 2c 4f 49 3d ab b0 9d 3d 9e 1b ad 3b
       -0.005669423 0.04914777 0.07699712 0.0052828332
000390 63 d0 55 3d fb 2e 7c bc 62 a3 20 3d a3 5c a8 bb
       0.052200686 -0.01539206 0.039218314 -0.0051379963
0003a0 29 37 cf 3b 11 b0 16 3d 4d d6 6a 3d c5 bc cd bc
       0.0063237143 0.036789004 0.05733328 -0.025114426
0003b0 61 85 81 bc e2 8f 42 3d a2 f0 c0 bc 5a a5 4e 3d
       -0.01581067 0.0475005 -0.023552243 0.05045066
0003c0 86 19 86 3c 20 da 51 3c 2a 83 8a 3c 30 c2 e9 bb
       0.016369592 0.012808353 0.016908247 -0.0071337447
0003d0 d8 06 81 3c 1e c5 09 3c 89 1a b4 3c 6f 8b 73 3d
       0.015750334 0.008408813 0.02198531 0.059459146
0003e0 9c f1 65 3d 56 85 63 bc ac 4d c7 3c 33 65 72 bc
       0.05613862 -0.01388677 0.024329029 -0.014794636
0003f0 a4 9f 7e 3d 14 04 fb bc de f5 24 3d 10 98 42 3d
       0.062163964 -0.030641593 0.04027354 0.0475083

action_model._discrete_distribution.branches.0.bias f4 [3]
000000 5b fe 84 bd 53 95 8d bd 79 12 cd 3d
       -0.06493827 -0.06913247 0.10013289

action_model._discrete_distribution.branches.1.weight f4 [3, 256]
000000 4a 89 b9 3c 9d 7a 57 bc a2 85 7f bb 05 fe a7 3c
       0.022648472 -0.013151792 -0.0038989563 0.020506868
000010 b2 59 88 3c 34 ec 9a bc 04 c5 bb 39 69 98 1b bc
       0.016644333 -0.018911459 0.00035814208 -0.009496787
000020 fd 03 25 3b 8e 42 7f 3c ca c8 2f bc 55 16 b2 bb
       0.002517938 0.015579833 -0.010729024 -0.005434791
000030 4e 84 2f bd 94 32 3f 3c 36 1b ba bc 6b 96 09 bd
       -0.042850785 0.011669774 -0.022718053 -0.033590715
000040 9c 6c 6f 3d 4d 61 c3 3c 91 bb 99 3c 3d c8 bc 3b
       0.058453187 0.023850108 0.018766196 0.005761175
000050 4c ec cf 3b 1d 6d 9e 3a 96 e6 fa 3c f5 7c 11 bc
       0.0063453075 0.0012086962 0.03062753 -0.00887989
000060 71 2a d3 bc ed 92 14 bd 52 d7 8e 3c 9b c4 a4 3c
       -0.025777074 -0.03627293 0.017436657 0.02011328
000070 3b 80 41 bc ce 76 9c 3c 5e 8a 30 3c 16 24 29 bd
       -0.011810358 0.01909962 0.010775177 -0.04129418
000080 4d 40 76 3b 3b af ad 3c 65 91 0b 3c 19 6a d0 ba
       0.0037574947 0.02120172 0.0085185515 -0.001590076
000090 05 9f 12 3a c0 f4 1a 3c 53 28 43 bd 84 6a 88 3c
       0.0005593154 0.009457767 -0.047645878 0.016652353
0000a0 eb b6 ad 3c e8 6d bd 3c a8 ef d2 bc 0e 8b 21 bd
       0.021205386 0.023123696 -0.025749043 -0.039439254
0000b0 05 3d 61 3c ef 0b 7b bd 05 b8 dd 3a 5b 12 2f 3b
       0.013747458 -0.061290678 0.0016915804 0.0026713822
0000c0 26 81 ce 3c d3 eb fa bc a7 72 74 bc 4f 96 20 3d
       0.025208067 -0.030630028 -0.014919913 0.039205845
0000d0 bc b2 d4 3c dd 21 d2 3c 6d aa 06 bd c6 16 a4 3b
       0.025964133 0.025650913 -0.032877374 0.0050075976
0000e0 93 84 0d 3d a7 dd 1c 3d 1b 30 99 3c 5c 2a 8a 3c
       0.03455026 0.03829732 0.018699696 0.016865902
0000f0 d8 03 0b bd 68 e2 e6 3c 7a 50 fe ba c3 8b 90 3c
       -0.033939213 0.02818413 -0.0019402646 0.017644769
000100 56 e0 bd 3b 20 37 94 3c ae 35 0f 3d 2d c6 31 3c
       0.005794565 0.018092692 0.034963302 0.010850471
000110 cf a5 ce bc 8b 4e 4c bc e0 d5 8b 3c df 40 e5 bb
       -0.025225548 -0.012469898 0.017069757 -0.0069962586
000120 b4 5a 01 3d 44 40 a2 bb 0a d0 9b 3c 3f d1 00 bb
       0.031580642 -0.0049515087 0.0190201 -0.001965597
000130 c1 d3 ea 3c 66 4c bd 3c 73 85 89 3c 4d 41 6b ba
       0.028665425 0.023107719 0.016787266 -0.0008974269
000140 b9 2d 43 bc 46 ed 85 bc ab 34 64 3d 18 9b 05 3d
       -0.011912757 -0.016348492 0.05571429 0.032618612
000150 68 a9 91 ba 7c 24 18 3d 85 22 4a bc 2b fc b1 3c
       -0.0011113109 0.03714417 -0.012337332 0.021726688
000160 e4 eb 37 bd 1a 49 0c bd dd 74 75 3c 88 56 19 bd
       -0.044902697 -0.034249403 0.014981476 -0.03743604
000170 1d 93 8b bb bf 35 32 bc f6 bf 60 bc af bf 40 bd
       -0.0042594806 -0.010877072 -0.013717642 -0.047057804
000180 f4 21 84 3c 8f e9 17 3d b8 37 b6 3c 6a 5a b4 3c
       0.016129471 0.037087973 0.022243366 0.022015769
000190 dc 1c cf bb fe f8 07 bd fa 0d 33 3d b4 47 d3 bc
       -0.006320579 -0.03319644 0.0437145 -0.025791027
0001a0 9f 6a 8b 3b 6d c1 56 3a 99 56 31 3d 62 29 26 3c
       0.0042546536 0.0008192275 0.043295477 0.010141702
0001b0 ae 39 1c bd b9 28 f7 bc c7 7d fc bc 55 e6 e3 bb
       -0.038140945 -0.030170785 -0.030821694 -0.006954948
0001c0 fa 11 9f bc 03 7f 53 3c 59 65 c0 bc 95 e9 6b 3c
       -0.019417752 0.0129087 -0.023485826 0.014398952
0001d0 7e 46 b7 3c e8 9f 4a 3b 3c 19 8c bc 0a b0 6c bd
       0.02237248 0.0030918065 -0.017101876 -0.05778507
0001e0 f2 5c 67 bd 0b 2f c7 bb 0f 35 c5 3c 5a c7 d2 ba
       -0.056485124 -0.006078606 0.024073152 -0.001608114
0001f0 87 96 73 bd 62 70 d2 3c ef 6f 92 3c 70 87 fa bb
       -0.059469726 0.025688354 0.01787564 -0.00764554
000200 d4 f0 1f 3d 53 de 3b bc 13 bf cf bc 9d 69 09 bd
       0.03904803 -0.01146658 -0.025359666 -0.033547986
000210 6c 7b b0 bd f1 cb b2 bc 26 05 54 3c 20 91 8c bc
       -0.08617291 -0.021825762 0.012940681 -0.017159045
000220 5f 00 b7 bb 04 c2 13 3d 2e 3f d3 3c f1 7b 25 bc
       -0.005584761 0.0360737 0.025786962 -0.010100351
000230 65 1b 26 3d 84 05 93 bd bf 11 95 3c cd dc c1 bc
       0.04055347 -0.071787864 0.018196939 -0.023664856
000240 d7 3f ff 3c 2e 1a 11 bb 81 2e bf 3c c0 bf 1f bd
       0.03115837 -0.0022140848 0.023337604 -0.039001226
000250 0f f2 c2 bc 9c 13 65 3c 4b 90 d1 3a 9e cf 7b 3a
       -0.023797063 0.013981726 0.0015988437 0.00096058275
000260 f8 08 4e 3c e4 cd 3e bd 13 66 21 bd 7f 55 9a 3b
       0.0125753805 -0.04658307 -0.039403986 0.004709899
000270 6f aa 78 3c 35 3d 3b bb c6 5d 5a 3c d5 ec b5 3c
       0.015177353 -0.0028570418 0.013328021 0.022207657
000280 1c 93 1f bd 23 f0 03 3c 2b f0 2a bc 3a cf f2 3c
       -0.038958654 0.0080528585 -0.010433237 0.029639829
000290 e3 07 6a bb 34 bf 02 3d 8e 31 a4 bc 35 c0 c9 3c
       -0.0035710267 0.031920627 -0.02004316 0.024627784
0002a0 52 bb 54 bc 16 c2 15 3d 37 c4 13 3c 11 34 2a bc
       -0.012984114 0.036562048 0.009018949 -0.01038839
0002b0 d9 1d 2d bc 48 83 76 bb 5e 35 53 3c 49 6e 4a 3d
       -0.010566198 -0.003761487 0.012891142 0.049421582
0002c0 e4 05 3f bc 90 d9 3b bc 3e 65 e7 3c 83 13 0f bc
       -0.011659119 -0.011465445 0.028246518 -0.008732679
0002d0 80 24 2a 3c 89 93 bc 3c ac 2b 34 bd 86 31 60 bd
       0.010384679 0.023019569 -0.04398696 -0.05473473
0002e0 89 98 1b 3c dd 30 59 bd 0f a8 f4 3c ac 4c 03 bb
       0.009496816 -0.053025115 0.029865293 -0.0020034714
0002f0 e5 f2 26 bd bd 24 18 bd b1 bf c6 3c 6e c2 01 3d
       -0.040758986 -0.03714441 0.024261327 0.031679563
000300 9c e4 8f bc 46 9c 0c ba e7 3e 84 3c 51 6c a0 bc
       -0.017565064 -0.0005363863 0.016143275 -0.0195829
000310 ec 97 e4 3c b6 4c 03 bd c1 66 5d 3b 31 f1 ec bc
       0.027904473 -0.03205558 0.003378317 -0.028923603
000320 ab c3 e2 bc 70 5c 79 bb 51 33 43 bd be 9a d1 3c
       -0.027681192 -0.0038049482 -0.04765636 0.025586482
000330 e2 c4 7f 3b a6 f1 77 b8 bf 3b ae 3c db ca 5c bb
       0.0039027263 -5.911444e-05 0.021268724 -0.0033690247
000340 2e 18 5e 3c 41 a2 28 3d a5 21 ff bc 84 a8 9b 3c
       0.01355557 0.041170362 -0.031143973 0.019001253
000350 91 f8 a1 bb f6 7d ef bb 19 90 9e ba 66 6f c0 bc
       -0.0049429615 -0.007308717 -0.0012097388 -0.023490619
000360 47 68 ec bb 2a 80 8d bc 58 58 f6 3b e4 3f ad 3c
       -0.0072145793 -0.017273027 0.0075178556 0.02114863
000370 70 cb a5 3c af b8 31 3c ad 22 01 3d 3e b0 1e bb
       0.020238608 0.010847255 0.03152721 -0.0024213935
000380 dd e6 ac bc fe e6 ca 3c e8 a5 0f 3d 4e 64 d2 bc
       -0.021106178 0.024768349 0.03507033 -0.025682595
000390 8d b8 05 3d 62 1a 81 bd 79 de 54 3c 2f 4b 2e bc
       0.032646704 -0.0630386 0.012992495 -0.010638042
0003a0 e1 a1 dc 3b 21 a8 98 bc dd a2 42 3c 92 0a 8b bc
       0.0067331647 -0.018634858 0.01187965 -0.016972814
0003b0 d4 82 a8 3b eb dc c5 bc 18 ef 37 3c 3e 25 3a 3c
       0.005142549 -0.024153193 0.011226438 0.011361418
0003c0 f2 24 a5 3c 95 1b 99 bc 21 09 16 3c 62 6e 80 ba
       0.020159218 -0.01868991 0.00915745 -0.0009798522
0003d0 18 b9 99 bd 99 d8 a5 bc 51 6d 0e 3d 11 af c4 3c
       -0.07506007 -0.020244883 0.03477222 0.02400926
0003e0 86 e9 28 3c 7d 8b 47 bc e9 76 e6 3c c5 fe 04 bd
       0.010309583 -0.012179253 0.028132873 -0.03246953
0003f0 c7 f2 3e 3c 2b 44 58 3a 1b e4 26 bc 49 cb e0 3b
       0.011654562 0.0008249904 -0.0101862205 0.006860171

action_model._discrete_distribution.branches.1.bias f4 [3]
000000 5f 23 d6 bc f9 7f b3 3c c1 47 b8 3b
       -0.026139913 0.021911608 0.005623788
